results/PressButton/IL-ex1.0-gail0.5-bc1.0/PressButtonAgent/PressButtonAgent-50006.pt (torch, 533134 bytes, 54 tensors)

discrete_act_size_vector f4 [1, 3]
0	0x40400000	3.0
1	0x40400000	3.0
2	0x40000000	2.0

network_body._body_endoder.seq_layers.0.weight f4 [128, 6]
0	0xbef93f30	-0.4868102
1	0x3f133826	0.5750755
2	0x3e7c4b9c	0.24638218
3	0x3e509f73	0.20373325
4	0xbeaec844	-0.34137166
5	0xbdd1201d	-0.10211203
6	0xbe260034	-0.16211015
7	0xbe4eccdc	-0.20195335
8	0x3edba82e	0.42901748
9	0xbecbe6a0	-0.3982439
10	0xbe6cfff5	-0.23144515
11	0x3d3bc6fe	0.04584407
12	0x3f04391d	0.5164965
13	0x3e25e7a4	0.16201645
14	0x3e1e9a63	0.15488581
15	0xbd0b6940	-0.03403592
16	0xbf00eab6	-0.5035814
17	0xbe1c3909	-0.15256132
18	0xbdc8c1c1	-0.098025806
19	0xbee05131	-0.43811944
20	0x3cda9fca	0.026687521
21	0x3d295ee7	0.04135027
22	0x3ebcd778	0.3688314
23	0xbe659d24	-0.22423226
24	0x3e6dd28a	0.23224846
25	0x3eb05d8f	0.3444638
26	0xbe667673	-0.22506122
27	0x3eb89b6f	0.36056086
28	0xbddea148	-0.10870606
29	0xbef447bf	-0.47710988
30	0xbe8cc57b	-0.27494416
31	0x3e6e1c9f	0.23253106
32	0x3ee9ad21	0.456399
33	0xbed39686	-0.41325778
34	0xbf53a0c9	-0.82667214
35	0x3e98fbf2	0.2987972
36	0xbebab659	-0.36467245
37	0xbd99684e	-0.07490598
38	0xbe87d7d8	-0.26531863
39	0x3e238482	0.15968516
40	0xbea87ebe	-0.32909197
41	0xbf7b07bd	-0.9805868
42	0x3f1b4ad0	0.6066103
43	0x3f2b3065	0.6687072
44	0xbf4912f5	-0.7854455
45	0x3e9a32c9	0.3011687
46	0xbd426ae2	-0.047465213
47	0xbf4b4c3d	-0.79413205
48	0xbec15e25	-0.3776714
49	0xbf100b5a	-0.5626732
50	0x3f036665	0.51328117
51	0xbed537f2	-0.41644245
52	0x3da2c1aa	0.07947095
53	0x3e91a3b8	0.2844522
54	0x3b88c60e	0.0041740006
55	0x3eb9d518	0.3629539
56	0x3e973149	0.2952979
57	0x3e7b0af3	0.24515896
58	0x3ec7f353	0.3905283
59	0x3e07e678	0.1327151
60	0x3e20b25d	0.1569304
61	0xbe265964	-0.16245037
62	0xbedd0f57	-0.43175766
63	0xbf2d492f	-0.67689794
64	0xbe464141	-0.1936083
65	0x3f835ca0	1.0262642
66	0xbe1616dc	-0.14657158
67	0xbe889708	-0.26677728
68	0xbe0c03f1	-0.13673379
69	0xbf0f8202	-0.5605775
70	0xbecb7741	-0.3973942
71	0xbf218077	-0.63086647
72	0xbdc8ec34	-0.09810677
73	0xbeeb7bb3	-0.45992813
74	0x3d926357	0.07147854
75	0x3ed005ab	0.40629324
76	0xbe96997a	-0.29413968
77	0xbf11f3bd	-0.5701254
78	0xbe62b2f3	-0.22138576
79	0x3e21ed49	0.15813173
80	0x3e940bb2	0.28915173
81	0x3e17e1ef	0.1483228
82	0x3e86f18f	0.2635617
83	0x3f81707b	1.0112451
84	0xbe38e411	-0.1805575
85	0x3efbb7dd	0.49163714
86	0x3e0321b0	0.1280582
87	0x3e1007d4	0.14065486
88	0xbe51ca8f	-0.20487426
89	0x3e4b1b6a	0.19834676
90	0xbd9834d3	-0.074319504
91	0xbe476f05	-0.19475944
92	0xbea62691	-0.324513
93	0x3da31456	0.07962863
94	0xbe6f06e4	-0.23342472
95	0x3f1402d5	0.5781682
96	0xbf239b63	-0.63908976
97	0xbd364f16	-0.044509016
98	0xbe596aa4	-0.21232086
99	0xbf0e2b13	-0.55534476
100	0xbdca74b6	-0.09885542
101	0x3e3129c0	0.17301083
102	0xbeb6c78b	-0.35699114
103	0x3e1d6e23	0.15374045
104	0x3cd1b8fe	0.025600906
105	0xbc99af26	-0.018760275
106	0x3e697c71	0.22801377
107	0xbd676519	-0.0564929
108	0xbec36399	-0.38161924
109	0x3e9bbd26	0.30417746
110	0xbed6a9c5	-0.419264
111	0xbf08ddf4	-0.53463674
112	0xbf196596	-0.5992063
113	0x3f045454	0.51691175
114	0xbeccb42d	-0.39981213
115	0xbec8253f	-0.39090917
116	0xbf1e8539	-0.6192203
117	0xbd2ebe09	-0.0426617
118	0x3eeb326f	0.45936915
119	0xbd21e3f5	-0.039524037
120	0xbf115eae	-0.56785095
121	0x3f85b118	1.044467
122	0x3bf71930	0.0075408444
123	0xbd073bce	-0.03301602
124	0x3d162441	0.03665567
125	0xbeb0463a	-0.3442858
126	0xbe8a527e	-0.27016062
127	0x3e557df9	0.20848836
128	0x3ea46ac9	0.3211272
129	0x3e0d045a	0.13771191
130	0xbefb0f66	-0.49035186
131	0xbe0f3f5d	-0.13989015
132	0xbe062ea8	-0.13103735
133	0x3e07bcf6	0.13255677
134	0xbef26fe3	-0.47350988
135	0x3cfcec9c	0.030874543
136	0x3f164602	0.58700573
137	0xbf29419a	-0.66115725
138	0xbea856f3	-0.32878837
139	0x3f55feb7	0.8359179
140	0x3ee1ccf7	0.44101688
141	0x3eada2b9	0.3391321
142	0x3f481bef	0.78167623
143	0x3e0e7462	0.13911584
144	0xbd9f75f8	-0.07786173
145	0xbdc42f32	-0.09579314
146	0xbeabdef3	-0.33568534
147	0x3ea0c325	0.31398883
148	0x3d9379ba	0.07200952
149	0x3e84c8af	0.2593436
150	0x3ef67bfd	0.4814147
151	0x3ec9ecf2	0.39438587
152	0xbea79b12	-0.32735497
153	0xbebe2ca4	-0.37143433
154	0xbcea0a40	-0.02856934
155	0xbe9dd0df	-0.30823418
156	0xbef1bbdb	-0.47213635
157	0x3eb9d1af	0.36292788
158	0xbe395e82	-0.18102458
159	0xbd3e281c	-0.04642497
160	0xbe8a512f	-0.27015063
161	0xbe5c19fb	-0.21494286
162	0x3f573618	0.84066916
163	0x3f3730a1	0.71558577
164	0xbf032b09	-0.5123754
165	0xbf0ef921	-0.5584889
166	0x3e85657e	0.26053995
167	0x3e8065fa	0.25077802
168	0x3e4f627c	0.20252413
169	0x3e95d910	0.29267168
170	0x3dc98da6	0.098414704
171	0x3e8f0071	0.27930024
172	0xbf1194dc	-0.56867766
173	0xbf549a8b	-0.83048314
174	0x3e2c8ea2	0.16851285
175	0x3edabb94	0.42721236
176	0x3f1b48dd	0.60658056
177	0xbf7ba4d8	-0.98298407
178	0xbc95ddfe	-0.01829433
179	0x3e19b848	0.15011704
180	0x3e072c27	0.13200437
181	0xbec2e79e	-0.38067335
182	0x3eafd17f	0.3433952
183	0x3dd146f2	0.1021861
184	0x3e2c01c0	0.16797543
185	0x3ecf8444	0.40530598
186	0x3ecf60db	0.40503582
187	0xbef7e84c	-0.48419416
188	0x3eaa18a4	0.33221924
189	0xbf493fd9	-0.7861305
190	0x3e840e26	0.25792044
191	0x3ed30676	0.41215867
192	0x3f077559	0.52913433
193	0x3f2c728d	0.6736229
194	0xbe000afe	-0.12504193
195	0x3eb7e5da	0.3591755
196	0x3ee27304	0.44228375
197	0x3ea25515	0.31705537
198	0x3f24b824	0.64343476
199	0x3f28c2eb	0.6592242
200	0x3ea49fb3	0.3215309
201	0x3e40f47f	0.18843268
202	0x3f1d0e9a	0.61350405
203	0xbf38cbf6	-0.7218622
204	0x3e802394	0.25027144
205	0x3f4d137c	0.80107856
206	0x3ece7ee4	0.40331185
207	0xbf3eb2f6	-0.7449182
208	0x3db60cdb	0.08889171
209	0x3e9f27f7	0.31085178
210	0x3f075ca7	0.5287575
211	0x3df8995d	0.12138627
212	0xbb5425df	-0.0032371206
213	0x3f1f1961	0.621481
214	0xbe895775	-0.26824537
215	0xbd8b143d	-0.067909695
216	0xbf029a1a	-0.5101639
217	0x3d87ef24	0.06637409
218	0x3ef4a206	0.47779864
219	0xbe726f99	-0.23675384
220	0xbec0befc	-0.3764571
221	0x3e1cda7e	0.15317723
222	0xbf2beebe	-0.67161167
223	0xbdc35fed	-0.09539781
224	0x3eb55b04	0.35421002
225	0x3ecca071	0.39966157
226	0xbec98bdc	-0.39364517
227	0xbc9d0719	-0.019168423
228	0x3f2ab2ac	0.6667888
229	0x3df73fe8	0.12072736
230	0x3eb4fd3e	0.35349458
231	0xbc3c0b45	-0.011477296
232	0xbe263306	-0.16230401
233	0x3e7489b9	0.23880662
234	0x3f414d65	0.7550872
235	0x3d9b6745	0.075880565
236	0xbe01d90c	-0.12680453
237	0xba15043d	-0.00056845305
238	0xbef33a2c	-0.4750532
239	0x3f7d9b66	0.99065244
240	0xbf01e08f	-0.50733274
241	0xbd4e9f32	-0.05044479
242	0x3f29dda4	0.6635382
243	0xbd5b5e26	-0.053556584
244	0xbe1aa81b	-0.1510319
245	0x3e032bc6	0.12809667
246	0xbe351cd3	-0.17686777
247	0xbe84acd4	-0.25913107
248	0x3eb56fc4	0.35436833
249	0xbedc5558	-0.43033862
250	0xbe1541dc	-0.14575905
251	0xbdd6a23c	-0.104801625
252	0x3e38213d	0.1798143
253	0x3ea635c5	0.32462898
254	0xbd7d4bbe	-0.06183981
255	0xbd04e473	-0.03244443

network_body._body_endoder.seq_layers.0.bias f4 [128]
0	0x3cb532ff	0.022119043
1	0xbcde1d34	-0.027113535
2	0x3d4f8423	0.050663125
3	0xbbf6c847	-0.007531199
4	0x3d2f9737	0.04286882
5	0x3ca87fde	0.020568784
6	0x3cb32642	0.021868829
7	0x3cd8459d	0.026400382
8	0xbba1ee5d	-0.004941745
9	0x3d3f57b9	0.04671452
10	0xbc866b74	-0.01640866
11	0xbad76472	-0.0016433133
12	0x3c62749f	0.01382175
13	0x3c2014ad	0.0097705545
14	0x3cd0bc55	0.025480429
15	0xbd0c74e2	-0.034291156
16	0xbd2a1a5f	-0.041529056
17	0xbd021f63	-0.031768214
18	0xbd0d22ef	-0.034457143
19	0xbd12181a	-0.035667516
20	0x3ce08795	0.0274084
21	0x3c989dbc	0.018629901
22	0xbb2f18aa	-0.0026717582
23	0x3d5228cb	0.051308434
24	0x3d31805c	0.043335304
25	0x3d336dae	0.04380577
26	0x3c8c4fa2	0.017127816
27	0x3d8113cd	0.06302605
28	0x3d019ccf	0.031643685
29	0x3c8ec87f	0.017429588
30	0xbc220b8a	-0.009890446
31	0x3db57570	0.0886029
32	0x3d3f5fcd	0.046722222
33	0x3d16c08a	0.036804713
34	0x3d3f83e8	0.046756655
35	0x3ccf0ff8	0.02527617
36	0x3cf4688a	0.029835004
37	0x3c8b2cb2	0.016989086
38	0x3d05125d	0.032488216
39	0x3c91bd26	0.017790388
40	0x3d5d2b18	0.053996176
41	0xbd148fdc	-0.036270007
42	0x3c48a0ce	0.01224537
43	0xbceeb895	-0.02914075
44	0x3d1cd6a2	0.038290627
45	0x3cadbc10	0.02120784
46	0x3cb9ace0	0.022665441
47	0x3d136151	0.03598148
48	0x3d0e85ef	0.034795698
49	0x3cbb2e74	0.022849299
50	0x3d33799c	0.043817148
51	0x3d44a855	0.048012096
52	0x3c99f2a6	0.018792462
53	0x3d04caca	0.032419957
54	0x3d1aecda	0.037823536
55	0xbc93dac6	-0.018048655
56	0x3cbffeb0	0.023436874
57	0x3d1fe3e8	0.039035708
58	0x3cb96988	0.022633329
59	0xbd065ac3	-0.0328014
60	0xbc765977	-0.0150359785
61	0x3c89c510	0.0168176
62	0xbc4ea01e	-0.012611417
63	0x3ca53a06	0.02016927
64	0x3d3354ed	0.043782163
65	0x3d26a4b1	0.040684406
66	0x3cbfa38a	0.023393411
67	0x3d8862dd	0.06659482
68	0x3d13de5b	0.036100727
69	0x3cb469a0	0.022023022
70	0xbcc49662	-0.02399749
71	0x3cadc2ca	0.021211047
72	0xbc92a5da	-0.01790135
73	0x3d232d27	0.039837983
74	0xbae90815	-0.0017778898
75	0x3d292d4d	0.041302968
76	0x3d6578c1	0.056023363
77	0x3d279af4	0.04091926
78	0x3d0e421d	0.03473102
79	0xbcc5addd	-0.024130756
80	0x3d174cc6	0.03693845
81	0xbd417059	-0.047226284
82	0x3d3207ef	0.043464597
83	0xbd0b9c42	-0.034084566
84	0xbcc84d3a	-0.024450887
85	0x3cb58986	0.022160303
86	0x3db942e7	0.09045964
87	0xbcffd71d	-0.031230504
88	0x3d6c6dc7	0.05772188
89	0x3d502ac4	0.050822034
90	0xbd133fc7	-0.035949495
91	0xbd00a1ec	-0.03140442
92	0x3b864bed	0.0040984065
93	0xbc3465d9	-0.0110106105
94	0x3c8649f4	0.016392685
95	0xbc30187d	-0.010748026
96	0x3d2310ac	0.03981082
97	0x3d314795	0.043281157
98	0x3cf38a35	0.029728988
99	0x3d375d94	0.044766977
100	0xbc91d846	-0.017803323
101	0x3cfad841	0.030620696
102	0x3ce86c44	0.028371938
103	0x3d3bdba8	0.045863777
104	0x3cf48397	0.029847903
105	0x3ce21489	0.027597683
106	0x3ceb9fbd	0.028762693
107	0x3cc8e2b3	0.024522161
108	0xbbb47378	-0.005506929
109	0xbd35dd43	-0.044400465
110	0xbcd57b8a	-0.026059885
111	0xbcb8f833	-0.022579288
112	0xbd0127af	-0.031531986
113	0xbcc09a98	-0.023511216
114	0x3d031f7d	0.03201245
115	0x3d33bf47	0.04388359
116	0x3cc9667e	0.024585005
117	0x3c811e5a	0.015761543
118	0x3ca2e563	0.01988477
119	0x3ce7e4ba	0.028307308
120	0x3c95af5b	0.018272093
121	0x3b83b1c6	0.004018995
122	0x3d2a3a7f	0.041559692
123	0xbcd210d5	-0.025642792
124	0x3cd7ca3b	0.026341548
125	0xbcadb706	-0.021205436
126	0x3c911d67	0.017714215
127	0x3c499de6	0.012305712

network_body._body_endoder.seq_layers.2.weight f4 [128, 128]
0	0x3cbd4bda	0.023107458
1	0xbe282e8b	-0.16424005
2	0xbb6f5bfc	-0.0036523333
3	0x3d87d68f	0.06632721
4	0x3ddc248e	0.1074916
5	0x3df962f7	0.12177079
6	0x3e215982	0.15756801
7	0xbd4a7a11	-0.049432818
8	0xbcd0d60a	-0.025492687
9	0x3e056785	0.13027771
10	0xbd9dd9af	-0.077075355
11	0xbcb966ed	-0.022632087
12	0xbd265d6c	-0.040616438
13	0xbe6678f4	-0.22507077
14	0x3c5dd0a5	0.013538514
15	0xbe6e3e73	-0.2326601
16	0xbdec746a	-0.11545642
17	0xbc44fff2	-0.012023913
18	0x3e0327a6	0.12808093
19	0x3d3ff548	0.046864778
20	0xbd248bda	-0.040172435
21	0x3d80f0b2	0.06295909
22	0x3c2738a6	0.010206377
23	0xbd45c64b	-0.04828481
24	0x3e21f500	0.15816116
25	0x3d91d691	0.071210034
26	0x3e091d9e	0.13390204
27	0x3d4e6ef0	0.050398767
28	0xbd094173	-0.033509683
29	0xbe50dd8b	-0.20397012
30	0xbd91058a	-0.070811346
31	0x3d6c45e1	0.05768383
32	0xbcc0396e	-0.023464885
33	0x3e2fadce	0.17156145
34	0x3d2f9276	0.042864285
35	0x3dd60bab	0.10451444
36	0x3df8289e	0.12117122
37	0xbc7412a5	-0.014897023
38	0xbe161c47	-0.14659224
39	0x3dfdbb3c	0.12389228
40	0x3d55d4a2	0.052204736
41	0xbe38aaf1	-0.18033959
42	0xbcc9d489	-0.024637477
43	0x3d853658	0.06504506
44	0xbdea6d0b	-0.114465795
45	0x3dd1eece	0.102506265
46	0x3e423b76	0.18967995
47	0x3d88776e	0.066634044
48	0x3d1a2a50	0.03763801
49	0x3d288674	0.04114385
50	0xbdb1ae1e	-0.08675788
51	0x3e00839e	0.12550208
52	0xbde5f699	-0.112286754
53	0x3b841846	0.004031214
54	0xbad2a151	-0.0016069805
55	0x3d3f52a2	0.046709664
56	0xbcd5c76f	-0.026096074
57	0x3daeae0a	0.08529289
58	0xbd8226ec	-0.0635508
59	0xbc499683	-0.012303951
60	0xbd828eaf	-0.06374871
61	0x3d94e457	0.07270115
62	0x3c9aca85	0.018895397
63	0x3e251594	0.16121513
64	0x3c698e01	0.014255048
65	0x3d560e10	0.052259505
66	0xbd74b6c1	-0.0597446
67	0xbcb902fe	-0.022584435
68	0x391c2988	0.00014892791
69	0x3debcd18	0.11513728
70	0xbc1b3e80	-0.00947535
71	0xbd80f008	-0.06295782
72	0x3b9676e8	0.0045918114
73	0xbdd36a20	-0.10322976
74	0xbdc50b88	-0.0962134
75	0x3db23a24	0.08702496
76	0xbdc7dbfb	-0.09758755
77	0x3dd4d1e2	0.103915945
78	0x3d8e629d	0.06952403
79	0xbcf9f27e	-0.030511137
80	0x3e118d8b	0.1421415
81	0xbc6f266e	-0.014596565
82	0x3d8c3039	0.06845135
83	0xbd0518de	-0.03249442
84	0xbd9501f3	-0.072757624
85	0x3dda229b	0.10651132
86	0xbcde97cb	-0.02717199
87	0xbdb6a2df	-0.08917784
88	0xbda40879	-0.080094285
89	0xbd4855d0	-0.048909962
90	0xbcadd3cb	-0.021219155
91	0xbb47fdbb	-0.0030516225
92	0xbdeb3660	-0.114849806
93	0x3dbd803f	0.092529766
94	0x3d378b94	0.044810846
95	0x3c7e2482	0.015511634
96	0xbe5405d3	-0.20705347
97	0x3d7ca4c0	0.061680555
98	0xbdf10723	-0.11768939
99	0x3e32352c	0.17403096
100	0x3dfd0a1d	0.123554446
101	0x3da2a490	0.07941544
102	0xbd154fe7	-0.036453154
103	0xbdcad1f8	-0.099033296
104	0x3b29bf35	0.0025901322
105	0xbddc9756	-0.107710525
106	0x3d969477	0.07352536
107	0xbd9d7261	-0.07687832
108	0xbdd8a5fd	-0.10578535
109	0x3d79d2a3	0.060991894
110	0x3d722397	0.059115972
111	0xbdb76af8	-0.089559495
112	0x3dfb440e	0.1226884
113	0xbd6f4876	-0.058418714
114	0x3e020788	0.12698185
115	0xbd491ba6	-0.049098633
116	0xbd4790da	-0.048722126
117	0xbce901d9	-0.028443264
118	0x3dd9d843	0.10636952
119	0xbdacb45c	-0.08432838
120	0x3da2fcbc	0.079583615
121	0x3c7f8f2d	0.015598101
122	0xbd07fd0f	-0.03320032
123	0xbe268ca6	-0.1626459
124	0xbc57ccad	-0.013171357
125	0xbd7a46cf	-0.061102685
126	0x3e00e173	0.12586002
127	0xbdb8cd22	-0.09023501
128	0xbc9b8559	-0.018984484
129	0xbd9e1b28	-0.077200234
130	0xbdfa5a73	-0.12224283
131	0x3d8cbba1	0.06871725
132	0x3dffc977	0.12489598
133	0xbd8bbcd9	-0.06823129
134	0xbe02f872	-0.12790087
135	0x3e3ba560	0.18324804
136	0x3c841018	0.016120955
137	0xbe3967e3	-0.18106036
138	0x3dc95ead	0.09832511
139	0xbddb4c16	-0.107078716
140	0x3cb1ad8c	0.021689199
141	0x3e3f4e4f	0.18682216
142	0xbdbc6c53	-0.09200349
143	0x3d141753	0.036155056
144	0xbd16e65f	-0.036840793
145	0x3ead3279	0.3382757
146	0xbc6b28d2	-0.014352994
147	0xbcea9811	-0.028636964
148	0xbe322142	-0.173955
149	0x3d975fb8	0.07391304
150	0xbcd35f14	-0.025802173
151	0xbd16cc1a	-0.03681574
152	0x3de839fe	0.11339186
153	0xbcb1b047	-0.0216905
154	0xbd1770bd	-0.03697275
155	0x3cf3f018	0.029777572
156	0xbe0a5017	-0.13507114
157	0xbd6b02f9	-0.05737588
158	0x3d2fbc16	0.042903982
159	0xbdbb2da3	-0.09139564
160	0xbbcfe14f	-0.0063439975
161	0xbe5f381f	-0.21798752
162	0xbdcce2d3	-0.10004201
163	0xbd125bd6	-0.035732113
164	0x3da97ad8	0.08275384
165	0xbc154dea	-0.009112814
166	0xbe275417	-0.16340671
167	0xbe096715	-0.13418229
168	0x3d102fa3	0.03520168
169	0x3d7773c2	0.06041313
170	0xbdb7625f	-0.0895431
171	0x3d1af401	0.037830357
172	0x389a9c0f	7.3723604e-05
173	0xbcdb4381	-0.026765587
174	0x3e176f9e	0.14788672
175	0xbd5ceaf1	-0.053934995
176	0x3dd56f2a	0.104215935
177	0x3db3d1f4	0.0878028
178	0x3e718e78	0.23589504
179	0xbd7dd148	-0.061967164
180	0x3ce701c5	0.028199086
181	0xbcc9197d	-0.024548287
182	0x3db6e7ad	0.089309074
183	0xbba3a6d3	-0.004994252
184	0x3b7f68f6	0.0038972474
185	0x3e2b875b	0.16750853
186	0x3c2643e3	0.010148021
187	0x3c92ff62	0.017944042
188	0x3df0875a	0.11744566
189	0xbcaa64a7	-0.020799948
190	0xbb32d614	-0.0027288245
191	0xbcbefd2d	-0.023314083
192	0xbd9c6859	-0.0763709
193	0xbc9af67d	-0.018916363
194	0x3d9eee83	0.07760336
195	0xbc6111a7	-0.013737119
196	0xbdcd34f0	-0.10019863
197	0xbd3c766e	-0.04601138
198	0x3e0255fd	0.12728114
199	0xbd1a7498	-0.03770885
200	0xbd40fcd4	-0.047116116
201	0xbe0f59db	-0.13999121
202	0x3d1067a3	0.035255086
203	0xbe383108	-0.17987454
204	0x3d3db11a	0.046311475
205	0xbd760578	-0.06006381
206	0xbcc1a34b	-0.023637434
207	0x3d9bbd80	0.07604504
208	0x3e4c008d	0.19922085
209	0x3dce8438	0.100838125
210	0x3d7fab4d	0.062419225
211	0x3d24f326	0.040270947
212	0x3d1595f9	0.03651998
213	0x3d2e9738	0.042624682
214	0x3d6fe268	0.058565527
215	0xbe0826b7	-0.13296019
216	0xbdaf6980	-0.085650444
217	0x3df0728a	0.117405966
218	0xbaca9fe4	-0.0015459028
219	0x3e0b67f4	0.13613874
220	0xbe0ab074	-0.13543874
221	0x3de3dafd	0.11125753
222	0xbde0bd2d	-0.109735824
223	0xbcde8d6b	-0.027167043
224	0xbdf9d510	-0.121988416
225	0xbe05df8a	-0.13073555
226	0x3d9fd3c3	0.07804062
227	0x3c552e10	0.01301147
228	0xbd00daae	-0.03145855
229	0x3de4d987	0.111743025
230	0xbbca789c	-0.0061789285
231	0xbe0892cd	-0.1333725
232	0x3e377ec6	0.17919454
233	0xbde71d2c	-0.11284861
234	0x3d4eaa3a	0.05045531
235	0xbe058839	-0.13040246
236	0x3e465ce1	0.19371368
237	0x3d67628f	0.056490477
238	0x3da9102d	0.082550384
239	0x3d94de29	0.07268936
240	0x3e03c6de	0.1286883
241	0xbd6b2094	-0.057404116
242	0x3d04e48e	0.03244453
243	0x3c1bc460	0.009507269
244	0x3ddcdc8d	0.10784254
245	0x3e104b5f	0.14091252
246	0x3e06f276	0.13178429
247	0x3e072750	0.1319859
248	0xbd2f66b3	-0.04282255
249	0xbe1cb18e	-0.15302107
250	0xbdc39fb0	-0.09551942
251	0x3d83f531	0.06443251
252	0x3ca5d8af	0.020244924
253	0xbd673c00	-0.056453705
254	0xbddb7a9a	-0.10716744
255	0xbcf0d55e	-0.029398616

network_body._body_endoder.seq_layers.2.bias f4 [128]
0	0x3d06b27d	0.032885063
1	0xbc2c1517	-0.010503075
2	0xbc4d96b1	-0.012548135
3	0xbc529754	-0.012853462
4	0xbc3d7f4c	-0.0115659945
5	0x3cb48c36	0.022039514
6	0xbcb8fbed	-0.022581065
7	0x3ce08496	0.027406972
8	0xbc9875c9	-0.018610852
9	0x3d47fb19	0.04882345
10	0x3cc87f5e	0.024474796
11	0xbc844601	-0.016146662
12	0xbc82452d	-0.015902126
13	0x3d130b32	0.03589935
14	0x3da42399	0.08014602
15	0x3cfc61d5	0.030808369
16	0x3caf10e0	0.021370351
17	0x3d2d58ab	0.04232089
18	0xbc612714	-0.013742227
19	0xbc8db0b0	-0.017296165
20	0x3cc7b628	0.024378851
21	0x3d14124b	0.036150258
22	0x3b1910c5	0.0023355943
23	0x3d41c199	0.04730377
24	0x3d2a0130	0.04150504
25	0xbc8f16c5	-0.017466912
26	0x3c125a13	0.008932608
27	0x3cd65b1d	0.026166493
28	0x3c910883	0.017704254
29	0x3d3bed21	0.04588044
30	0x3d1b8c66	0.03797569
31	0xba5003a9	-0.0007935116
32	0x3aaa17d1	0.0012977069
33	0xbc412762	-0.011789175
34	0x3ce10ff7	0.027473433
35	0x3d33349b	0.04375134
36	0xbc768f48	-0.015048809
37	0xbc4bd19e	-0.012440113
38	0x3cd33dd1	0.025786312
39	0x3ca38607	0.01996137
40	0xbb59c7b0	-0.0033230595
41	0x3d04c0eb	0.032410543
42	0x3cb1387b	0.021633377
43	0xbc9cce83	-0.019141441
44	0x3cd5298c	0.026020788
45	0x3d1f4c52	0.038891144
46	0xbc2375fb	-0.009976859
47	0x3cd904b9	0.02649151
48	0x3cfc61f9	0.030808436
49	0xbcb6608d	-0.022262836
50	0xbc828cb7	-0.015936239
51	0x3cb741f7	0.022370322
52	0xbc7648f7	-0.015032045
53	0xbca3d51a	-0.019999076
54	0xbc3030ee	-0.010753853
55	0x3cdb0a59	0.026738333
56	0xbcb281e4	-0.021790452
57	0x3d58fd26	0.052975796
58	0xbbf09eb3	-0.007343137
59	0x3c0b1071	0.008487807
60	0x3cbff46d	0.023431981
61	0xbca95c1e	-0.020673808
62	0x3cebef7e	0.028800722
63	0x3d2b1155	0.041764576
64	0x3cbe4fc4	0.023231395
65	0xbb5876ab	-0.0033029716
66	0xbc00da1d	-0.007864502
67	0x3b4d00f4	0.0031281086
68	0x3d16c8f6	0.036812745
69	0x3cad8c41	0.021185042
70	0x3cc62fcf	0.024192719
71	0x3bac980f	0.0052671502
72	0x3ca22974	0.019795157
73	0x3c9047c1	0.01761234
74	0x3c55cee2	0.013049813
75	0xbc82e346	-0.015977513
76	0x3d067fa5	0.032836575
77	0x3ca77864	0.020443149
78	0xbc677689	-0.014127382
79	0x3d16d310	0.03682238
80	0xbc77accc	-0.015116882
81	0x3c9d7ed5	0.019225517
82	0x3a06df06	0.00051449274
83	0xbc300c33	-0.010745096
84	0x3ca58662	0.02020568
85	0x3d3e4fb5	0.046462733
86	0x3ccf8717	0.02533297
87	0xbc1c2950	-0.009531334
88	0xbc3d7257	-0.011562905
89	0x3ca438f1	0.020046683
90	0xbc66dbee	-0.014090521
91	0xba938850	-0.0011255834
92	0x3d751445	0.059833784
93	0x3d3c79ce	0.0460146
94	0x3c92ad5e	0.017904934
95	0x3cb84a1f	0.022496281
96	0xbc38dc77	-0.011283032
97	0xbc8e393c	-0.017361276
98	0x3cd9d4d9	0.026590751
99	0x3b3225ae	0.0027183103
100	0x3d310401	0.04321671
101	0x3cc649c6	0.0242051
102	0xbb7e12aa	-0.003876845
103	0xbc57d959	-0.013174378
104	0x3d0978f7	0.033562627
105	0xbcb194bf	-0.021677373
106	0xbc0cea68	-0.008600809
107	0x3cc06fb9	0.023490774
108	0x3c974b66	0.01846857
109	0xbc806878	-0.015674815
110	0x3cb30b6f	0.021856038
111	0x3cb86952	0.022511158
112	0xbca07b13	-0.019589936
113	0x3cc69fee	0.024246182
114	0x3cbcb9ca	0.02303781
115	0xbc70d94d	-0.014700246
116	0xbc57fdb2	-0.013183044
117	0x3cf90a5f	0.030400453
118	0x3cdbaa53	0.026814615
119	0x3ca72c52	0.020406876
120	0x3ca592c1	0.02021158
121	0xbc45cf2a	-0.012073318
122	0xbc9ca189	-0.019119995
123	0x3d8d0088	0.06884867
124	0xbc41ae46	-0.011821335
125	0x3cd5dcf1	0.02610633
126	0xbc4c3cbf	-0.012465655
127	0x3cdd7500	0.027033329

action_model._discrete_distribution.branches.0.weight f4 [3, 128]
0	0xbcd71443	-0.026254779
1	0x3d184097	0.037170973
2	0xb9bff479	-0.00036612505
3	0xbb996b73	-0.0046819984
4	0x3c8b3d16	0.016996901
5	0xbceb8412	-0.0287495
6	0x3c82d66c	0.015971385
7	0x3c8e22c5	0.017350564
8	0x3cb5ed8e	0.022208001
9	0x3c1e5ba7	0.009665406
10	0xbd1d1304	-0.038348213
11	0x3cdb0676	0.02673648
12	0x3c892a23	0.016743725
13	0x3d6b1b23	0.057398926
14	0x3d3cd268	0.046099097
15	0xbc6ce9f9	-0.01446008
16	0xbd57520b	-0.052568477
17	0x3c7ea675	0.015542616
18	0x3c662813	0.01404764
19	0x3cf555e8	0.02994819
20	0xbd57afc9	-0.052657876
21	0xbd80738d	-0.062720396
22	0x3c01a3cc	0.007912587
23	0xbd1c7da2	-0.03820575
24	0x3bc01be1	0.0058626984
25	0x3d133ac3	0.03594471
26	0xb91c7564	-0.00014921051
27	0xbd2b1af2	-0.041773744
28	0xbc4d26a5	-0.012521421
29	0x3d1770cc	0.036972806
30	0xbc32b01e	-0.010906247
31	0x3a9e1e81	0.0012063534
32	0x3c64a9b0	0.013956472
33	0x3c5770e0	0.01314947
34	0xbcc4a168	-0.024002746
35	0x3b8e7127	0.004346985
36	0x3c2903df	0.010315864
37	0x3ccfb40c	0.025354408
38	0xbccd652c	-0.025072657
39	0xbcff312f	-0.031151382
40	0x3c3e4f1c	0.011615541
41	0x3cb29ca9	0.021803217
42	0x3d4970e8	0.04917994
43	0x3c887fb5	0.016662458
44	0xbc84899b	-0.016178897
45	0x3c0ef4f9	0.008725398
46	0x3ca10160	0.019653976
47	0x3d68d153	0.056840252
48	0xbc3e2741	-0.011606039
49	0x3c0e40e5	0.008682464
50	0x3c996e9d	0.018729502
51	0xbd030fa5	-0.03199734
52	0x3c7989b8	0.015230589
53	0x3d27a8e7	0.040932562
54	0x3cde744c	0.027155064
55	0xbcbb0079	-0.022827374
56	0x3c54736b	0.012966971
57	0x3d33c849	0.04389218
58	0x3d0515b0	0.032491386
59	0x3c93cdee	0.01804253
60	0xbc5f9e59	-0.013648593
61	0x3ce1d171	0.02756569
62	0x3b87eb7c	0.004147945
63	0xba2b1f76	-0.00065278204
64	0xbcfe011b	-0.031006387
65	0x3bd88c38	0.0066085123
66	0x3ca3be95	0.019988338
67	0x3caa16f4	0.020762898
68	0xbb029491	-0.0019924978
69	0xbce90cb6	-0.028448444
70	0xbcfd8db6	-0.030951362
71	0x3c578b81	0.013155819
72	0xbce5b6af	-0.028041212
73	0xbc89094f	-0.016728071
74	0xbc8fd43d	-0.017557258
75	0x3c861b08	0.016370311
76	0x3d1fa493	0.03897531
77	0xbcdeef5d	-0.027213747
78	0x3c64b7e7	0.013959861
79	0x3c5ee538	0.013604455
80	0x3c24c80b	0.01005746
81	0xbd1c940d	-0.03822713
82	0x3c2f309f	0.0106927445
83	0x3d1a6eae	0.03770321
84	0xbcdcef64	-0.02696962
85	0x3ca345ee	0.019930806
86	0xbd0edb04	-0.03487684
87	0x3cf002f2	0.02929828
88	0x3cb3d0ff	0.021950243
89	0xbc60256f	-0.0136808
90	0x3cdb9ee7	0.026809169
91	0x3be27c2b	0.0069117746
92	0x3cd74e0e	0.026282337
93	0xbb251bd9	-0.00251936
94	0xbc8c8bc5	-0.017156491
95	0xbd03ca1e	-0.032175176
96	0x3d0d7167	0.034531977
97	0x3cca625c	0.024705105
98	0xbcb123e1	-0.021623554
99	0x3c858844	0.016300328
100	0x3b215f42	0.0024623428
101	0x3d0b0b23	0.033946168
102	0x3cc6bb53	0.024259245
103	0x3ce8c1b1	0.028412672
104	0xbc0ccab9	-0.008593255
105	0x3cbf750b	0.02337124
106	0x3c95cd34	0.018286325
107	0xbd2c0826	-0.04199996
108	0xbd2dd513	-0.04243953
109	0x3d1dc7b3	0.038520526
110	0x3ca0bd8b	0.019621631
111	0xbcbd62fa	-0.023118485
112	0x3cd38335	0.0258194
113	0xbc341402	-0.010991098
114	0xba807bfb	-0.0009802574
115	0x3c870056	0.016479652
116	0x3c8520af	0.016250936
117	0x3c836dbb	0.016043535
118	0xbca8ce17	-0.020606084
119	0xbc1d597e	-0.009603856
120	0xba341609	-0.00068697386
121	0x3bcd3843	0.0062628104
122	0x3c80387f	0.01565194
123	0x3d53fc52	0.051754303
124	0x3c204bdf	0.009783714
125	0xbd1407e6	-0.036140345
126	0x3c95bbb5	0.018277982
127	0x3bdc537d	0.0067238198
128	0x3c9482b4	0.01812873
129	0x3cd18b3a	0.025579084
130	0xbc11124a	-0.008854458
131	0xbbb84e30	-0.005624555
132	0x3a8cee46	0.0010752163
133	0x3ccd5237	0.025063617
134	0xbcc0e4de	-0.023546632
135	0xbcd1a0df	-0.025589405
136	0xbc2f1104	-0.010685209
137	0xbd9164fd	-0.0709934
138	0x3d0ba9f1	0.034097616
139	0xbb874a39	-0.004128721
140	0xbcc58902	-0.024113182
141	0xbd239c7f	-0.03994417
142	0xbd3c35db	-0.045949798
143	0x3cbbf851	0.022945555
144	0x3d0ab88b	0.0338674
145	0xbd0edd07	-0.034878757
146	0xbcda220e	-0.026627567
147	0xbcc88bf3	-0.024480795
148	0x3d25593e	0.04036831
149	0x3d340e52	0.04395897
150	0xbbdf67d6	-0.006817798
151	0x3d33f4bd	0.043934572
152	0xbd5c4f70	-0.053786695
153	0xbbe861a0	-0.007091716
154	0x3a7b6320	0.0009589661
155	0x3d018526	0.03162112
156	0x3d1c4339	0.038150046
157	0xbd7bc86f	-0.061470445
158	0xbd5dcdd9	-0.05415139
159	0xbbe92464	-0.007114934
160	0xbb19d368	-0.0023471955
161	0x3ade9c0d	0.0016983763
162	0x3c6874e6	0.014188027
163	0xbd71544a	-0.058918275
164	0x3b50c493	0.0031855449
165	0xbccaf145	-0.02477325
166	0x3cf8ecc9	0.030386345
167	0x3cf73798	0.030177876
168	0xbb809410	-0.0039239004
169	0xbd411178	-0.0471358
170	0xbda17d66	-0.07885246
171	0xbc97107b	-0.018440476
172	0x3c746589	0.014916786
173	0xbd9f3146	-0.0777307
174	0xbb695f45	-0.0035609764
175	0xbd89870e	-0.06715213
176	0x3d058673	0.032598924
177	0xbc42469e	-0.011857657
178	0xbb4ff2cb	-0.003173041
179	0x3d133dab	0.035947483
180	0xbce570c2	-0.028007869
181	0xbbc42333	-0.0059856414
182	0xbc862fcd	-0.016380215
183	0x3c0228b8	0.007944278
184	0xbc83602a	-0.016037066
185	0xbdc3a907	-0.09553724
186	0x3c1059ab	0.008810441
187	0x3d0d720d	0.034532595
188	0x3c827a7b	0.015927544
189	0xbcaa32a3	-0.020776099
190	0x3cf979cb	0.030453583
191	0xbd206fa4	-0.03916897
192	0x3c382323	0.011238846
193	0x3c3c7188	0.011501677
194	0xbc713882	-0.014722945
195	0xbc02c87b	-0.007982369
196	0x3be2f351	0.006925978
197	0x3cb7b0e8	0.022423223
198	0x3c8de938	0.017323121
199	0xbc7dc76b	-0.0154894395
200	0x3d17646c	0.036961004
201	0x3cfb55db	0.030680588
202	0x3cd4982e	0.025951471
203	0xbc4d0b11	-0.0125148455
204	0xbda18368	-0.07886392
205	0x3d19e8e2	0.03757561
206	0xbcdac04e	-0.026703026
207	0xbd2cc0bd	-0.042175997
208	0xbc01f8c2	-0.007932844
209	0x3ce95527	0.028482987
210	0xbc47baa0	-0.012190491
211	0xbc54b537	-0.012982658
212	0x3d175233	0.036943626
213	0xbd9400f8	-0.07226747
214	0x3ce2ece5	0.02770085
215	0x3ad39dd0	0.0016145054
216	0xbb25b48d	-0.0025284619
217	0x3bfcd883	0.00771624
218	0xbbc4679c	-0.0059937965
219	0xbbe2290c	-0.006901866
220	0xbdc5ada8	-0.09652263
221	0xbd403a06	-0.046930335
222	0x3cbe812e	0.023254957
223	0x3d2860fe	0.041108124
224	0xbbc41d68	-0.005984951
225	0xbc6c8f71	-0.014438496
226	0x3cf71caf	0.030165045
227	0x3b4c30c0	0.0031156987
228	0xbd8f34a6	-0.06992464
229	0xbd40f7e7	-0.047111418
230	0x3cfa7676	0.030574065
231	0xbc54cb0e	-0.012987865
232	0xbc76efa1	-0.01507178
233	0xbc7f4cfe	-0.015582321
234	0x3a9106d8	0.0011064662
235	0x3d29045d	0.041263927
236	0x3cbff4a2	0.02343208
237	0xbd26517f	-0.040605064
238	0xbcbabb5c	-0.022794418
239	0x3d432ec0	0.047652006
240	0xbc8d1785	-0.017223129
241	0x3d095720	0.033530354
242	0x3d21c72e	0.039496593
243	0xbc3be636	-0.011468461
244	0xbb74d292	-0.0037356955
245	0xbce8c179	-0.028412567
246	0x3ce00fa2	0.027351204
247	0x3d2c5c5e	0.042080276
248	0x3d0e7248	0.034776956
249	0x3ca1f9d7	0.019772453
250	0xbd256123	-0.04037584
251	0xbd897d82	-0.06713392
252	0xbc81aa2f	-0.01582822
253	0x3d0d753c	0.03453563
254	0xbc88255d	-0.016619379
255	0xbc7664f0	-0.015038714

action_model._discrete_distribution.branches.0.bias f4 [3]
0	0xbc7ba917	-0.015360138
1	0x3c2f79b9	0.010710173
2	0xbc252684	-0.010079984

action_model._discrete_distribution.branches.1.weight f4 [3, 128]
0	0x3d2a799b	0.04161988
1	0xbd13e243	-0.036104452
2	0xbd0ba077	-0.034088578
3	0xbcb3aae6	-0.021932077
4	0xbcf6194f	-0.030041365
5	0x3ccbe040	0.024887204
6	0xbd3978b9	-0.045281146
7	0xbd531264	-0.05153121
8	0xbd2722e8	-0.040804774
9	0x3d582211	0.052766863
10	0x3d19e6e3	0.037573706
11	0xbcfbf15b	-0.030754736
12	0xbce1b21b	-0.027550748
13	0xbd08cfe1	-0.033401374
14	0xbd8b1c24	-0.06792477
15	0x3d343c6c	0.044002935
16	0x3c6314e3	0.01385996
17	0x3d0eb1e8	0.034837633
18	0xbcac37a0	-0.021022618
19	0xbcff815d	-0.031189615
20	0x3c0c0771	0.008546696
21	0xbb4f21b4	-0.0031605782
22	0xbccd65c4	-0.02507294
23	0x3d2b85ba	0.04187558
24	0x3cfaac4b	0.030599734
25	0xbcbe7696	-0.023249906
26	0xbc987df3	-0.018614745
27	0x3c9c0253	0.019044077
28	0x3cf88cb0	0.030340523
29	0x3b70d489	0.0036747775
30	0x3d1229fc	0.03568457
31	0xbd14389e	-0.036186807
32	0xbcaa520e	-0.02079108
33	0xbcf901b6	-0.030396324
34	0x3d0166ac	0.031592056
35	0x3cc95d7f	0.024580715
36	0xbd0130b3	-0.031540584
37	0xbcab3ca3	-0.020902937
38	0x3d1356cc	0.035971448
39	0x3d0c4a75	0.034250695
40	0xbbd99401	-0.006639958
41	0x3bababd9	0.0052389917
42	0xba54bc99	-0.00081152614
43	0xbcc6639d	-0.024217421
44	0x3ce77ae4	0.028256841
45	0x3cb3cfbf	0.021949647
46	0xbcce8c38	-0.025213346
47	0x3b876784	0.004132213
48	0x3ccab0ad	0.024742449
49	0xbd1db245	-0.03850009
50	0xbcedd147	-0.029030455
51	0x3caf47dc	0.02139657
52	0xbd1313e6	-0.03590765
53	0xbbe40463	-0.0069585308
54	0xbce19fbd	-0.02754199
55	0x3d37a43b	0.044834357
56	0xbcd5d7e8	-0.026103929
57	0x3d1f5b0e	0.038905196
58	0xbd014d36	-0.031567775
59	0xbcdedbe0	-0.027204454
60	0x3cfaba43	0.030606395
61	0xbd0ed26d	-0.034868646
62	0x3b503e95	0.0031775583
63	0x3d091366	0.033465765
64	0x3cf228b3	0.029560423
65	0xbcea8680	-0.028628588
66	0xbc91a28a	-0.0177777
67	0xbbba70b6	-0.0056897057
68	0x3ceb956c	0.028757773
69	0x3cfac844	0.030613072
70	0x3ce27c04	0.027647026
71	0xbc749e1d	-0.014930275
72	0x3bf188fb	0.0073710657
73	0xbb431ea0	-0.0029772893
74	0x3cf40c80	0.029791117
75	0xbd0a1da3	-0.03371967
76	0xbcb5c3a8	-0.022188023
77	0x3caa791f	0.020809708
78	0xbd1fe8ff	-0.03904056
79	0x3d2dcfde	0.042434566
80	0xbcc3a9ec	-0.023884736
81	0x3cab2cd7	0.020895405
82	0xbd33dda0	-0.04391253
83	0xbc041a72	-0.008062946
84	0x3c9496aa	0.018138248
85	0x3b3f2936	0.002916885
86	0x3c75276b	0.014963011
87	0xbcdc8e85	-0.026923427
88	0xbcd3ad1c	-0.02583938
89	0x3c891e2e	0.016738024
90	0xbcd63d27	-0.026152207
91	0xbc93c236	-0.018036943
92	0x3ccd518b	0.025063297
93	0x3ccc09a8	0.024906948
94	0x3d02a54e	0.031895928
95	0x3cdf7983	0.027279621
96	0xbd0144ad	-0.031559635
97	0xbcd7292d	-0.026264751
98	0x3d046892	0.03232629
99	0xbc8d9747	-0.017284049
100	0x3c071236	0.008244088
101	0x3b63c4a8	0.0034754667
102	0xbcf2e8ba	-0.029651988
103	0xbcb723cf	-0.022355942
104	0x3d18d98c	0.037316844
105	0xbd362e3d	-0.04447769
106	0xbc8c65d2	-0.017138395
107	0x3c6488b0	0.013948604
108	0x3ce54694	0.027987756
109	0xbd0b9156	-0.03407415
110	0xbc67fe06	-0.014159685
111	0x3c7a418d	0.015274418
112	0xbcf48ec2	-0.029853228
113	0x3ca6bc26	0.020353388
114	0x3cf68ffe	0.030097958
115	0xbcd3b5c8	-0.025843516
116	0xbca5de29	-0.020247536
117	0xbcede5cc	-0.02904024
118	0x3d1c0ec2	0.03810001
119	0xbd47440c	-0.04864888
120	0x3c4b97a9	0.012426295
121	0xbb084265	-0.0020791527
122	0xbce352ab	-0.02774938
123	0x3b8c1438	0.004274871
124	0xbc8e43f7	-0.017366393
125	0x3ccb402b	0.024810871
126	0xbcaa3a06	-0.02077962
127	0x3d747c15	0.059688646
128	0xbaa6965b	-0.0012709604
129	0x3c9e4811	0.019321473
130	0x3cd1b164	0.025597282
131	0x3d4118fe	0.047142975
132	0x3cc59422	0.024118487
133	0xbd506a7e	-0.05088281
134	0x3c900a88	0.017583147
135	0xbd392019	-0.045196626
136	0x3c7802e1	0.015137405
137	0xbac9652d	-0.0015365236
138	0xbc475d68	-0.012168266
139	0x3c839a6a	0.016064841
140	0x3c94eb30	0.018178552
141	0xbc0afd7f	-0.00848329
142	0xbded9fca	-0.11602743
143	0xbcd025fa	-0.025408734
144	0xbd0b07dd	-0.033943046
145	0xbc965410	-0.018350631
146	0x3cd6df67	0.026229573
147	0x3d2fc4c0	0.042912245
148	0xbd0863bc	-0.03329824
149	0x3d0c103e	0.034195177
150	0x3c6b2e7c	0.014354344
151	0x3df436b9	0.119245
152	0xbcb17399	-0.021661567
153	0x3bff0423	0.0077824756
154	0xbbd7d479	-0.006586608
155	0xbceb2121	-0.02870232
156	0xbcd8ebd1	-0.026479634
157	0xbc5e120e	-0.013554109
158	0xbc1ed1f8	-0.009693615
159	0xbb388690	-0.0028156377
160	0x3ccc1aff	0.024915216
161	0x3cc61dd2	0.024184141
162	0xbce3ce48	-0.027808324
163	0xbd0f3d98	-0.03497085
164	0x3c629bb2	0.013831066
165	0x3d2a55e4	0.041585818
166	0xbce7fe8a	-0.028319616
167	0x3c47e64a	0.012200901
168	0x3d28020c	0.041017577
169	0x3d712a1f	0.05887806
170	0xbc00cddb	-0.00786158
171	0x3cb1df85	0.021713028
172	0xbcb25ed4	-0.021773733
173	0xbb9e15d9	-0.004824382
174	0x3d01738c	0.031604335
175	0x3bda1b56	0.0066560907
176	0xbbe47269	-0.0069716466
177	0x3ca65818	0.020305678
178	0x3cfd55b0	0.030924648
179	0xbc9e7b6b	-0.01934596
180	0x3c76fe8b	0.015075336
181	0x3cbc52c0	0.022988677
182	0x3c5bcafd	0.013415095
183	0xbce33125	-0.027733395
184	0x3d0f4ea8	0.03498712
185	0xbcbbc02f	-0.022918789
186	0x3b0bdcb0	0.0021341257
187	0xbaa6d966	-0.0012729585
188	0xb9eafdc9	-0.00044821043
189	0x3c6804e7	0.014161325
190	0xbd931af3	-0.071828745
191	0xbd141f7b	-0.036162835
192	0xbcec02cf	-0.028809933
193	0x3c779e90	0.015113488
194	0x3b97d79f	0.0046338583
195	0x3d7a557f	0.06111669
196	0xbd114f6e	-0.03547614
197	0xbcccf8d7	-0.025021
198	0xbc2d6f22	-0.010585578
199	0x3c4a26a1	0.012338311
200	0xbd9c4ed7	-0.07632225
201	0xbd8d2a9d	-0.068928935
202	0xbcc82f3c	-0.024436586
203	0x3c8553c4	0.016275294
204	0x3d35a192	0.04434354
205	0xbd1fcace	-0.03901177
206	0x3bb5c51d	0.0055471794
207	0xbc28b6b8	-0.01029747
208	0x3c06843b	0.008210237
209	0xbd1cbf76	-0.03826853
210	0xbb7880c2	-0.0037918543
211	0x3d136945	0.035989065
212	0xbbae91b8	-0.0053274296
213	0xbd402c0e	-0.046917014
214	0xbcf2bfe5	-0.029632518
215	0x3cd2fe08	0.025755897
216	0x3ce102e0	0.027467191
217	0xbd1eb99f	-0.03875124
218	0x3d0c391e	0.03423416
219	0x38bb8585	8.941725e-05
220	0xbd2b7b30	-0.041865528
221	0xbb76b894	-0.0037646638
222	0xbd020464	-0.03174247
223	0x3b621b42	0.003450111
224	0x3ce67882	0.028133634
225	0x3ca4f591	0.020136626
226	0x3b1fedaa	0.0024403133
227	0x3cc7172c	0.024303041
228	0xbd363c24	-0.04449095
229	0x3d12e4eb	0.035862844
230	0x3c3ab806	0.011396414
231	0x3d1c3e94	0.038145617
232	0xbcbc2ef3	-0.022971606
233	0x3cfe81e8	0.031067804
234	0x3d1beae1	0.038065795
235	0xbb253c3e	-0.002521291
236	0xbc9743a9	-0.01846488
237	0x3bfdc77e	0.0077447286
238	0x3cc5263b	0.024066081
239	0xbd2af670	-0.041738927
240	0x3ce40ca7	0.027838064
241	0xbd8a3f87	-0.06750398
242	0xbb086eb0	-0.0020817928
243	0x3cbcbb4a	0.023038525
244	0x3c209dad	0.009803218
245	0x3c24bf5a	0.010055387
246	0xbc093b63	-0.008375975
247	0xbb2790cc	-0.0025568483
248	0xbcd85ebf	-0.026412366
249	0x3cedda9b	0.029034903
250	0x3ce33c60	0.02773875
251	0xbd1c4787	-0.03815415
252	0x3a7950c5	0.0009510632
253	0xbc382303	-0.011238816
254	0x3ca0960a	0.019602794
255	0x3d7c4574	0.061589673

action_model._discrete_distribution.branches.1.bias f4 [3]
0	0x3cbbac94	0.02290944
1	0xbc91a19e	-0.01777726
2	0xbca1f4e6	-0.019770097

action_model._discrete_distribution.branches.2.weight f4 [2, 128]
0	0x3ce16f5f	0.027518926
1	0xbd36ed68	-0.044660002
2	0xbcf2bc64	-0.029630847
3	0xbc9946dc	-0.018710546
4	0xbd0477aa	-0.032340683
5	0x3d266344	0.04062201
6	0xbd403a77	-0.046930756
7	0xbb24437d	-0.002506464
8	0xbd40e86e	-0.047096662
9	0x3d1f1fd6	0.03884872
10	0x3d06e900	0.03293705
11	0xbd095829	-0.03353134
12	0xbd00019c	-0.031251535
13	0x3d5e0a89	0.054209266
14	0x3da52473	0.08063593
15	0x3d0760d0	0.033051312
16	0x3d4ccec8	0.05000189
17	0x3d6fa45f	0.058506366
18	0xbced2f1e	-0.028953131
19	0xbcec10f5	-0.02881668
20	0x3baca7f9	0.0052690473
21	0xbd7553ff	-0.059894558
22	0xbcd95864	-0.026531406
23	0xbdb196a5	-0.08671311
24	0x3d30b388	0.043139964
25	0xbd4a6e94	-0.04942186
26	0xbcc6bac0	-0.024258971
27	0x3c42356a	0.011853555
28	0x3cf3ed94	0.029776372
29	0x3d6416c6	0.05568578
30	0x3d00b226	0.031419896
31	0xbc8dc20c	-0.017304443
32	0xbc42e866	-0.011896228
33	0xbca44bba	-0.02005564
34	0x3d585b9e	0.052821748
35	0x3d195b3d	0.037440527
36	0xbd16124f	-0.036638554
37	0xbd0ad0f5	-0.033890683
38	0x3d0e7ce5	0.034787077
39	0xbc8eacef	-0.017416446
40	0xbd349484	-0.044086948
41	0x3d3255a5	0.04353871
42	0x3d575c47	0.052578237
43	0xbcac1217	-0.02100472
44	0x3d5025bd	0.05081724
45	0x3d86cee9	0.06582434
46	0xbd1d1c37	-0.038356986
47	0x3d46a0c4	0.04849316
48	0x3d1167f5	0.03549953
49	0xbd080add	-0.033213485
50	0xbd5733e0	-0.052539706
51	0x3d010e67	0.031507876
52	0xbcd0df0e	-0.025496986
53	0xbd4cba6d	-0.049982477
54	0xbd3e4a68	-0.046457678
55	0x3ce22062	0.027603332
56	0xbd003f7b	-0.03131054
57	0x3d88c415	0.06678025
58	0xbd142962	-0.03617228
59	0xbcfc6292	-0.03080872
60	0x3c8293fc	0.015939705
61	0xbd133f30	-0.035948932
62	0x3d4dd8ad	0.050255466
63	0x3d73695b	0.059426647
64	0x3ccf297a	0.025288332
65	0xbcf234aa	-0.029566128
66	0xbc96e98a	-0.018421907
67	0xbd2b14b0	-0.041767776
68	0x3d528d5d	0.051404346
69	0x3d07a4b1	0.033116046
70	0x3ca4c4f7	0.020113451
71	0xbc46ad75	-0.012126316
72	0x3c97c5a4	0.01852686
73	0xbc9bbde2	-0.019011442
74	0x3c4d9ba5	0.012549316
75	0xbcdb860b	-0.026797315
76	0x3d2be56e	0.041966848
77	0x3d0ba82a	0.03409592
78	0xbc3b11f5	-0.0114178555
79	0x3d34ed05	0.044171352
80	0xbcde8dbb	-0.027167192
81	0xbcac8dae	-0.021063652
82	0xbca5a722	-0.020221297
83	0xbd463796	-0.048392855
84	0x3ce1bf04	0.027556904
85	0x3d83d0cc	0.06436309
86	0x3cd85cbd	0.026411409
87	0xbcc1821a	-0.023621608
88	0xbce0331e	-0.027368125
89	0x3d41344a	0.047169007
90	0xbce927b9	-0.028461324
91	0xbd21342f	-0.039356407
92	0x3d71268d	0.058874656
93	0x3d49e97c	0.049294934
94	0x3cf1a2ae	0.029496517
95	0x3c9dc4bb	0.019258847
96	0xbd131729	-0.03591076
97	0xbcea0995	-0.028569022
98	0x3d466d99	0.048444364
99	0xbcb7ec0d	-0.022451425
100	0x3d467af6	0.04845711
101	0x3d4e4b7c	0.050364956
102	0xbceeafe1	-0.0291366
103	0xbd2f4495	-0.042790014
104	0x3cfa3cbf	0.030546544
105	0xbca578e1	-0.020199241
106	0xbd32051e	-0.04346191
107	0x3c430043	0.011901918
108	0x3d020b22	0.0317489
109	0xbd22f8f2	-0.039788194
110	0xbbb29cf7	-0.0054508406
111	0x3d458d8a	0.048230685
112	0xbd0e9b8c	-0.03481631
113	0x3cec915e	0.02887791
114	0x3cf66584	0.030077703
115	0xbcd1eea0	-0.02562648
116	0xbd165cec	-0.03670971
117	0xbc57ff51	-0.013183431
118	0x3d2423fa	0.040073372
119	0xbd00eaa5	-0.031473774
120	0x3d29c4c6	0.041447423
121	0xbd3e2606	-0.04642298
122	0xbd128bb9	-0.03577778
123	0x3d8f8656	0.070080444
124	0xbd1daed9	-0.038496826
125	0x3d035c8e	0.03207069
126	0xbd057bcf	-0.032588776
127	0x3c12a5f9	0.008950704
128	0xbd0a1eb6	-0.033720694
129	0x3d6ac99f	0.057321187
130	0x3d1ba54d	0.03799944
131	0x3cda732c	0.026666246
132	0x3ca8a40e	0.02058604
133	0xbd10df49	-0.03536919
134	0x3cd035c9	0.025416272
135	0x3c6471ee	0.013943179
136	0x3c68755b	0.014188136
137	0xbd50d712	-0.050986357
138	0xbd190066	-0.037353896
139	0x3d00fd54	0.031491593
140	0x3cc0a002	0.023513798
141	0xbd8dcd8d	-0.06923971
142	0xbd98e60f	-0.07465755
143	0xbd36343a	-0.0444834
144	0xbd0c40c9	-0.03424147
145	0xbd6c2fa0	-0.057662606
146	0x3d2f6e0c	0.04282956
147	0x3c6ad2d1	0.014332489
148	0x3bf422b2	0.007450425
149	0x3d8de2e3	0.06928041
150	0x3c485a9f	0.012228637
151	0x3da7f6b2	0.0820135
152	0xbd352e6d	-0.04423373
153	0x3d38fd40	0.045163393
154	0x3d28ad67	0.041180994
155	0xbcb0a084	-0.021560915
156	0xbd0ab3aa	-0.033862747
157	0xbd3f3d18	-0.046689123
158	0xbce90566	-0.028444957
159	0x3ccce09a	0.025009442
160	0x3c8be653	0.0170776
161	0x3ccd53a0	0.02506429
162	0xbd480a73	-0.04883809
163	0xbd2c68d6	-0.042092167
164	0x3d4f1619	0.050558183
165	0x3cd513e3	0.02601046
166	0xbd21d4e6	-0.039509676
167	0x3b2aaea3	0.0026044033
168	0x3cf7e39a	0.030259896
169	0xbcee2252	-0.0290691
170	0xbd3d7942	-0.04625822
171	0x3d0136d9	0.031546447
172	0xbcfa4e3d	-0.030554885
173	0xbd4f1106	-0.050553344
174	0x3d0de39c	0.034640893
175	0xbd6b08ee	-0.057381563
176	0xbd89d196	-0.067294285
177	0x3d15f0ad	0.03660648
178	0x3cfe696a	0.031056125
179	0xbcb5f4b4	-0.02221141
180	0x3cda383d	0.026638145
181	0x3cf9ec79	0.030508267
182	0x3d26b4cd	0.04069977
183	0xbce63d0d	-0.028105283
184	0x3d01a2e1	0.031649474
185	0xbd557f6c	-0.052123472
186	0x3d17bf43	0.037047636
187	0x3cfb6a54	0.03069035
188	0xbd3c2fa6	-0.04594388
189	0x3c991690	0.018687516
190	0xbd6ce10c	-0.05783181
191	0xbd5916e9	-0.053000364
192	0xbd14db72	-0.03634209
193	0x3cd6cdcc	0.026221178
194	0x3d05f42d	0.032703567
195	0x3c94ea72	0.018178198
196	0xbd4a999e	-0.049462907
197	0xbceea2b9	-0.029130327
198	0xbd48ce5a	-0.049024917
199	0x3c527e39	0.012847477
200	0xbca4b854	-0.020107426
201	0x3b3c51c8	0.002873527
202	0xbcb52cec	-0.022116147
203	0x3ce2daf4	0.027692296
204	0xbd551702	-0.052023895
205	0xbd0070c3	-0.031357538
206	0x3d204f72	0.039138265
207	0xbcf33036	-0.029686075
208	0x3cdaa22f	0.026688663
209	0x3c891a54	0.016736187
210	0x3cd4bc09	0.025968568
211	0x3d43ae57	0.047773685
212	0xbd11d1ce	-0.035600476
213	0xbd8dc6b4	-0.06922665
214	0xbd47f190	-0.048814356
215	0x3ce2b33a	0.027673353
216	0x3d0c2097	0.034210768
217	0xbd32cc00	-0.04365158
218	0x3d099a27	0.033594277
219	0x3cf11e00	0.02943325
220	0xbd807b5c	-0.06273529
221	0xbd4242f9	-0.04742715
222	0xbd2bd83f	-0.041954275
223	0xbc56f0dd	-0.01311895
224	0x3cac93ad	0.021066511
225	0x3d32cbcc	0.043651387
226	0xbce33211	-0.027733834
227	0x3ca8151b	0.020517876
228	0xbd4ecafc	-0.05048655
229	0xbd34afb5	-0.04411288
230	0x3d37a262	0.044832595
231	0x3d092b1c	0.033488378
232	0xbd8e0142	-0.06933834
233	0x3c998ca5	0.018743822
234	0x3ccf6337	0.025315864
235	0xbc3be592	-0.011468308
236	0xbd10a96f	-0.035317834
237	0x3c8bacdd	0.017050201
238	0xbbbda022	-0.0057869116
239	0xbd29bdee	-0.041440897
240	0x3ce62b3f	0.028096793
241	0xbc1874f3	-0.009305227
242	0xbd383db7	-0.04498073
243	0x3d29f77e	0.041495793
244	0x3ccd37b2	0.025050972
245	0x3ceafba7	0.02868445
246	0xbd187ecb	-0.037230294
247	0x3cc108f8	0.023563847
248	0xbd1c6ff5	-0.038192708
249	0x3c896216	0.016770404
250	0x3d042d94	0.03227003
251	0xbd804cdf	-0.06264662
252	0x3d032f23	0.032027375
253	0xbd12eb91	-0.035869185
254	0x3ce05639	0.027384864
255	0xbab88300	-0.0014077127

action_model._discrete_distribution.branches.2.bias f4 [2]
0	0x3cadba2c	0.021206938
1	0xbcadba2c	-0.021206938

exp_avg f4 [128, 6]
0	0x38c4a9d3	9.3776405e-05
1	0xb8ff4cfe	-0.000121736884
2	0xb9a352f2	-0.00031151582
3	0xb996fa76	-0.00028796837
4	0xb94f6eec	-0.0001978238
5	0x39b82981	0.00035126138
6	0x3494ae75	2.7694082e-07
7	0x394d5c8d	0.00019584801
8	0x3933f606	0.00017162421
9	0x3930979f	0.00016841151
10	0x38b20051	8.48776e-05
11	0xb92f5597	-0.00016721185
12	0xb9c9a48c	-0.00038460304
13	0xba1dccc5	-0.0006019588
14	0xb9144acd	-0.00014142245
15	0xb982b7b4	-0.00024932402
16	0xb8abbfb9	-8.1896265e-05
17	0x39657136	0.00021881316
18	0xb8b29271	-8.514978e-05
19	0x395d2bd0	0.00021092524
20	0x39aba03b	0.00032735043
21	0x3949ad1f	0.00019233346
22	0x391a13e3	0.00014693993
23	0xb959c311	-0.000207674
24	0xb94c1b04	-0.0001946502
25	0xba1350da	-0.0005619653
26	0xb9d0cc3d	-0.0003982502
27	0xb9ab519f	-0.00032676474
28	0xb9755718	-0.00023397466
29	0x39a99231	0.00032343113
30	0x393dd25f	0.00018102814
31	0x39880cb5	0.0002594941
32	0xb6f8fbaa	-7.4202735e-06
33	0x380144c6	3.0820047e-05
34	0xb87fdb38	-6.10009e-05
35	0x379e5697	1.887539e-05
36	0xb9f56021	-0.00046801663
37	0xb8c1d156	-9.241949e-05
38	0x39bde64c	0.00036220474
39	0xb7069cc9	-8.023527e-06
40	0x390adb34	0.00013242365
41	0xb8864ac9	-6.403548e-05
42	0xba96368e	-0.001146035
43	0xbac3ef0b	-0.001494856
44	0xb9b07fe1	-0.00033664613
45	0xba29e45f	-0.00064808683
46	0xb988dc1c	-0.00026103936
47	0x3a13a9a5	0.0005632884
48	0xb77ea8b5	-1.517886e-05
49	0x38baaafc	8.9010195e-05
50	0x38bc0912	8.966228e-05
51	0x38cf176b	9.874891e-05
52	0x383031f4	4.2008192e-05
53	0xb8c30ef0	-9.301107e-05
54	0x39773846	0.00023576719
55	0xb8a7c169	-7.999206e-05
56	0xb995c0f0	-0.00028563244
57	0xb96ac9d5	-0.00022391167
58	0xb90738af	-0.0001289572
59	0x396d4d57	0.00022630893
60	0x3859dd8a	5.1943156e-05
61	0x38350cfd	4.316586e-05
62	0x34ea8f09	4.3689968e-07
63	0xb7287f19	-1.0043173e-05
64	0xb6834a7e	-3.9127763e-06
65	0x3724c541	9.8210885e-06
66	0xb8ea4d72	-0.00011172415
67	0xb55691eb	-7.993355e-07
68	0x38869fdf	6.419396e-05
69	0x388afef9	6.627845e-05
70	0x35c0f8a0	1.4377474e-06
71	0xb879c86a	-5.9552876e-05
72	0xb9ad35df	-0.00033037268
73	0x39fad4f3	0.00047842375
74	0x3a76e616	0.0009418441
75	0x397caf3d	0.00024097874
76	0x3a00c0ab	0.0004911522
77	0xb9b58f42	-0.00034629746
78	0x3a103ea5	0.0005502499
79	0x3a4267b8	0.0007415968
80	0x39318cc3	0.00016932473
81	0x39b41554	0.00034348166
82	0x391f68f8	0.00015202526
83	0xb9939201	-0.00028146806
84	0xb8d99a37	-0.00010376091
85	0xb99644a9	-0.00028661385
86	0xb9651464	-0.00021846738
87	0xb986fc73	-0.0002574656
88	0xb90a57df	-0.0001319344
89	0x398c14ad	0.00026718286
90	0x38fa230a	0.000119274555
91	0x39aaf470	0.00032607047
92	0x391d67ab	0.00015011306
93	0xb7b7970f	-2.1885642e-05
94	0x38c7b17b	9.522118e-05
95	0x37a10351	1.919424e-05
96	0xb7fae760	-2.9910065e-05
97	0x38c6d376	9.4807634e-05
98	0x38eb2641	0.000112127986
99	0x37a62b6a	1.9808958e-05
100	0x384aa642	4.8315393e-05
101	0xb7d9cd27	-2.5963947e-05
102	0x361de488	2.3527846e-06
103	0x39a173fe	0.00030794734
104	0x39a44151	0.00031329182
105	0x399cbc5d	0.0002989498
106	0x39215dbd	0.00015389077
107	0xb99d3eff	-0.0002999231
108	0x38f21373	0.00011543082
109	0x38ea0a16	0.00011159868
110	0xb87e1fb6	-6.0587852e-05
111	0x38b4c10e	8.619028e-05
112	0xb889b9a4	-6.567247e-05
113	0xb81b22d3	-3.6987312e-05
114	0xb8cb40f3	-9.691892e-05
115	0x391a7e69	0.00014733676
116	0x397593a3	0.0002342002
117	0x38980c25	7.250187e-05
118	0x38ea2769	0.0001116533
119	0xb8a2ed11	-7.768919e-05
120	0xb9abb7cc	-0.000327526
121	0xba29f5d2	-0.00064834685
122	0xb9cec6b0	-0.00039439416
123	0xba116217	-0.00055459276
124	0xb994aaa7	-0.00028355906
125	0x3a1321a1	0.0005612616
126	0xb8942aa5	-7.065133e-05
127	0xb8b2dc46	-8.5287305e-05
128	0xb8d7f78a	-0.00010298107
129	0xb85a5d08	-5.2061892e-05
130	0xb8d21474	-0.0001001739
131	0x38aab8fd	8.1406884e-05
132	0xba133702	-0.0005615802
133	0xb9874fc9	-0.0002580865
134	0x39ac44fd	0.00032857797
135	0x394c9768	0.0001951136
136	0x387a3407	5.96531e-05
137	0xb97d7cfa	-0.00024174518
138	0x39028aeb	0.00012449517
139	0xb9b429e1	-0.00034363478
140	0xb9f91103	-0.00047505656
141	0xba1bd261	-0.00059441297
142	0xb977009b	-0.00023555981
143	0x3a18c561	0.00058277516
144	0x3801c629	3.0940548e-05
145	0x38e6c262	0.00011003461
146	0x388f009e	6.818886e-05
147	0x379f04e4	1.8956554e-05
148	0x381d5fde	3.7521e-05
149	0xb56f2c66	-8.9099046e-07
150	0xb90fad27	-0.00013702047
151	0xba6ee3aa	-0.0009112904
152	0xba40b3c3	-0.00073510053
153	0xb9e6c862	-0.00044018315
154	0xb9b375d9	-0.00034229344
155	0x39eff30d	0.0004576672
156	0xb7d89f41	-2.5823365e-05
157	0xb9965003	-0.00028669843
158	0xb9a334de	-0.00031129172
159	0xb9a6b695	-0.00031798022
160	0xb9365921	-0.00017390076
161	0x39b92972	0.0003531683
162	0xba013b6a	-0.0004929813
163	0xba774e32	-0.0009433954
164	0xb9927716	-0.00027936016
165	0xb959e8e1	-0.00020781487
166	0xb91639c8	-0.0001432664
167	0x3930e3af	0.00016869487
168	0xba128ee5	-0.0005590751
169	0xba78428a	-0.00094703643
170	0xba0a2a22	-0.00052705605
171	0xba164b71	-0.00057332875
172	0xb9babe23	-0.00035618347
173	0x3a1cd849	0.0005983157
174	0x39ab7015	0.0003269917
175	0x39587841	0.00020644163
176	0x37b7f86b	2.1930979e-05
177	0x38587411	5.160651e-05
178	0x3860a481	5.3558968e-05
179	0xb89ddd7b	-7.527597e-05
180	0x3960eb07	0.00021449859
181	0x39ec79cc	0.00045104173
182	0x39908057	0.0002756144
183	0x39a57ca5	0.0003156412
184	0x390decd8	0.00013535039
185	0xb99f44e2	-0.00030378165
186	0x39762623	0.00023474595
187	0x39246bba	0.0001568039
188	0x37bbf384	2.2405533e-05
189	0x3799cd0b	1.8334502e-05
190	0x36973fbd	4.507571e-06
191	0xb7a1bba5	-1.9280074e-05
192	0x3912aaa7	0.00013987218
193	0xba369376	-0.00069647224
194	0xba441d73	-0.0007481195
195	0xba23b13a	-0.00062443654
196	0xb9b4084c	-0.00034338457
197	0x3a1c22be	0.0005956105
198	0x38ffba96	0.00012194102
199	0xba23dce1	-0.000625087
200	0xba3e9da7	-0.0007271417
201	0xba382ae1	-0.00070254324
202	0xb9ac37c0	-0.00032847933
203	0x3a325a12	0.00068035827
204	0x3904465f	0.00012614716
205	0xb9635f5a	-0.00021683928
206	0xb993680c	-0.00028115546
207	0xb9a6cd62	-0.0003181501
208	0xb8b12e29	-8.448616e-05
209	0x399c7b72	0.00029846613
210	0xb96426a8	-0.00021758175
211	0xba653cf0	-0.0008744737
212	0xba5644cd	-0.0008173704
213	0xba1d9bec	-0.0006012309
214	0xb9eed6c4	-0.0004555491
215	0x3a2b16fc	0.0006526557
216	0xb7a8506d	-2.0064612e-05
217	0x382d5bce	4.1331914e-05
218	0xb89d38f7	-7.496954e-05
219	0xb8e56c65	-0.00010939761
220	0xb8d72d76	-0.00010260467
221	0x392d77f0	0.00016543246
222	0xb81bf33c	-3.718141e-05
223	0xb90766f8	-0.00012912962
224	0xb9297758	-0.00016161555
225	0xb9789a70	-0.00023708655
226	0xb8ddc8b3	-0.00010575484
227	0x398ae3c4	0.0002649111
228	0x39af682f	0.00033456224
229	0xb726f1e4	-9.950691e-06
230	0xb9891cc4	-0.00026152108
231	0xb90744eb	-0.00012900277
232	0xb8b830b9	-8.782879e-05
233	0x390742e7	0.00012899526
234	0x39dac422	0.0004172633
235	0x392479b1	0.00015685592
236	0xb9ab8575	-0.00032715095
237	0x38b9ab24	8.853365e-05
238	0xb8c80eef	-9.539525e-05
239	0xb821109c	-3.840086e-05
240	0x386aeffd	5.6013454e-05
241	0x399afc07	0.00029560944
242	0x39445703	0.00018724431
243	0x3945afe3	0.00018852907
244	0x38b13d01	8.4513806e-05
245	0xb91c01a1	-0.00014877926
246	0x37eb8607	2.8076594e-05
247	0x39b7ca9e	0.00035055442
248	0x39a810f1	0.0003205608
249	0x3987081f	0.00025755257
250	0x391cbb4a	0.0001494709
251	0xb9895ae5	-0.00026198398
252	0xb8b209bd	-8.489515e-05
253	0xb98315ec	-0.000250026
254	0xb960edab	-0.00021450843
255	0xb74046c5	-1.1460569e-05
