results/PressButton/IL-20ksteps-test1/PressButtonAgent/PressButtonAgent-19940.onnx (onnx, 83197 bytes, 11 tensors)

discrete_act_size_vector f4 [1, 3]
000000 00 00 40 40 00 00 40 40 00 00 00 40
       3.0 3.0 2.0

network_body._body_endoder.seq_layers.0.weight f4 [128, 6]
000000 2c 15 8f 3e d9 15 14 3d 89 19 34 3e 8f 8d b5 3e
       0.2794584 0.036153648 0.17587866 0.35459563
000010 74 4d 5c bf 7b 7e f8 3e 5e 07 74 3e 20 6d 35 bf
       -0.86055684 0.48533997 0.23830935 -0.70869637
000020 73 c3 24 bf 64 10 87 3e f2 6f b3 bc e6 64 02 3f
       -0.6436073 0.26379693 -0.021903966 0.5093521
000030 8b 45 53 3f 63 18 de be aa e2 cb be 16 91 af be
       0.8252799 -0.4337798 -0.39821368 -0.3429038
000040 39 bd 02 3e 79 f3 fe be 7e 59 31 3f f2 1a 68 be
       0.12767495 -0.4979513 0.6927718 -0.22666529
000050 a9 62 9e be e2 cb 39 be 91 9a f9 3d 65 7b c4 be
       -0.30934647 -0.18144181 0.12187684 -0.38375393
000060 bd 51 9a be b0 a6 ee bd d6 c6 8a bc ea 7f a3 3e
       -0.30140486 -0.11652887 -0.016940515 0.31933528
000070 a4 33 5b 3f f8 9f 27 be 12 10 d3 3e b0 aa 9d bd
       0.8562567 -0.16369617 0.41223198 -0.07698572
000080 ac 9c cd be 01 e8 25 3f c9 ce d4 3e 5b 65 b0 bd
       -0.40158594 0.64807135 0.41564015 -0.08613082
000090 33 82 b5 be cc f6 08 bf 9e 26 1a be 65 8a 64 bd
       -0.35450897 -0.5350158 -0.15053794 -0.055796046
0000a0 70 1c c9 3e a6 40 4b be 4b 48 9e 3f e3 88 2b 3f
       0.3927951 -0.1984888 1.2365812 0.6700575
0000b0 23 7e b3 be 16 33 99 be 14 70 34 bf 31 11 ea 3e
       -0.35057172 -0.29921788 -0.7048352 0.4571624
0000c0 55 55 2e 3d 39 9d d7 be a1 9b 6e 3c 75 e3 e5 3e
       0.042561848 -0.4211214 0.014563472 0.44900098
0000d0 8b cd 33 3e c7 39 f8 bd ad 97 78 bf 3b 49 2f 3f
       0.17558877 -0.12120395 -0.9710644 0.68471116
0000e0 49 f4 6d be fe 80 89 3e 7a 21 df 3e 38 6e 5f 3e
       -0.23237719 0.26856226 0.43580228 0.21819389
0000f0 2b 89 3a 3d a8 c6 dc bd fa c1 88 be d3 c5 67 be
       0.04554097 -0.10780078 -0.26710492 -0.22634058
000100 7b ac f5 bd 7f 2c c9 be 77 af 53 be e8 c3 20 bd
       -0.11995789 -0.3929176 -0.20672403 -0.03924933
000110 c3 12 e6 be d8 2b df be a7 aa f6 3e 2b 65 0d bd
       -0.4493619 -0.43588138 0.48177072 -0.03452031
000120 a3 83 cc be cd dc 75 be 64 23 43 3e 6a 6c 55 be
       -0.3994418 -0.2401001 0.19056469 -0.20842138
000130 68 ac 21 3e be 55 65 3f 33 be b2 3e ad b2 dc 3d
       0.15788424 0.8958396 0.34910735 0.10776267
000140 d5 49 3a bf 55 eb fe be ad a2 b0 3e 58 3f 04 3f
       -0.7276891 -0.4978892 0.34499112 0.51659155
000150 ed 93 13 bf bb 29 67 be c5 a2 1e 3e 10 f1 24 3e
       -0.5764759 -0.22574513 0.15491779 0.16107583
000160 d9 7b 07 be db 82 9f 3d 8f c8 6e 3f 0c 1d 4a 3f
       -0.13230838 0.077886306 0.9327478 0.7895057
000170 c7 6a 6f bf ab e7 e0 3e 0d a4 e5 3e 31 3b 09 3f
       -0.93522304 0.4392675 0.44851723 0.53605944
000180 b6 f1 18 be e6 a8 0f bf 7a 34 e7 3d e4 81 14 bf
       -0.14935955 -0.56117094 0.11289306 -0.580107
000190 26 58 d0 3e fc 95 2d 3f fa 29 58 be 8a 32 62 3e
       0.40692252 0.67806983 -0.21109763 0.22089592
0001a0 ca 0d 4d be ee d2 f0 be c7 02 40 be 30 ad 4f be
       -0.20024791 -0.47035927 -0.1875106 -0.2028091
0001b0 09 da 81 bf fa 65 c7 be d9 3e 7c be fe dd 3d 3f
       -1.0144664 -0.3894499 -0.2463335 0.7416686
0001c0 4e 4f 61 3e 38 8f 06 bf bb 90 ec 3d d0 67 07 3f
       0.22002909 -0.52562284 0.11551043 0.5289278
0001d0 32 fe 18 3e f7 42 1a bf 4f 77 a6 be ae d0 52 bf
       0.14940718 -0.6025843 -0.325129 -0.8234967
0001e0 d8 a2 cb 3e 1d 15 30 be 29 7d 59 be fe 51 6c 3f
       0.39772677 -0.17195554 -0.21239151 0.9231261
0001f0 eb 68 96 3e 78 69 0a 3d 64 09 d6 3e 12 75 36 3c
       0.2937692 0.03379199 0.4180404 0.01113631
000200 d8 20 1c bc 5e a7 e9 3e c7 f3 dc be fa d3 be 3e
       -0.009529315 0.45635504 -0.43154737 0.372711
000210 0b 9e e1 3e 00 0a 40 3d 07 c8 19 3f a4 e2 e3 bc
       0.4406589 0.046884537 0.6007084 -0.027818032
000220 89 7f 11 3f 65 f4 b2 be a4 03 eb 3c 76 07 9f be
       0.5683523 -0.34952083 0.02868826 -0.3106038
000230 dd 70 1f bf db 1e 40 3c f6 0b 8b 3e 73 fe 8c 3e
       -0.6228159 0.0117261065 0.27157563 0.2753788
000240 22 c1 a1 3e 42 06 f7 3e b3 2c f1 be c5 ea 20 bd
       0.3159266 0.48246962 -0.47104415 -0.039286394
000250 c9 2c 1f be 84 95 72 be e6 55 9e 3d 54 13 36 be
       -0.15544428 -0.23689848 0.077312276 -0.1778081
000260 a8 6f b0 3e da 06 ef be 15 7e 28 3f 97 a0 10 3e
       0.34460187 -0.46684915 0.65817386 0.1412376
000270 5c 1f 8b 3e fd 1e ec 3e 67 c6 7e 3e f4 68 32 be
       0.27172363 0.46117392 0.24880372 -0.17422849
000280 59 c4 a7 3e ad 31 cc 3d 00 dd 9c 3e 9a dc 9e be
       0.3276699 0.099704124 0.3063736 -0.3102768
000290 77 e0 c5 be 2d 7b 9a bd 07 e0 aa bc cf 00 2b bf
       -0.38647816 -0.07543025 -0.020858778 -0.6679811
0002a0 c0 e6 02 3f 96 3e 8e 3e 7a 00 3f bf 54 5a 4b be
       0.51133347 0.27782124 -0.746101 -0.19858676
0002b0 af 9e bf be dc a5 62 3e c4 5c 58 3e 36 5d 1e be
       -0.37425753 0.22133583 0.21129137 -0.15465245
0002c0 86 6d 65 be 25 aa 85 3e 70 0e 9c be 2f 1e 40 3e
       -0.22405061 0.26106372 -0.30479765 0.18761514
0002d0 e6 27 f5 bc df d0 d0 3e 62 2c 05 3f 7c f6 90 3e
       -0.029926252 0.40784356 0.5202085 0.28313053
0002e0 d4 45 db 3e d6 78 2b be 2a 40 ec 3e c6 00 5d bf
       0.42826712 -0.16745314 0.46142703 -0.86329305
0002f0 12 18 6b be fe 52 de bd 3c 5c ad be b0 32 20 be
       -0.22958401 -0.10855673 -0.33859432 -0.15644336
000300 01 8b f4 3e 1e 9f 5c 3f f1 1b 8f 3e cb 9d 09 3e
       0.47762302 0.86180294 0.27951005 0.134391
000310 26 6f 4a 3e d4 9d 20 3f 30 be e2 3e 36 b9 94 3f
       0.19768962 0.62740827 0.44285727 1.1619022
000320 59 11 8d 3e 77 12 06 3f 6f 3d 31 3b 1c 25 a5 3e
       0.27552298 0.52371925 0.0027044674 0.32254875
000330 a8 41 d0 3c 35 ce 24 3f 40 b1 a2 3c 7c 69 f8 bd
       0.025421932 0.64377147 0.01985991 -0.121294945
000340 3d fb e4 3d 57 d4 7b 3f ac ed 58 3e bf 53 02 3f
       0.111807324 0.9837088 0.21184415 0.50909036
000350 80 c0 a9 be a5 80 71 bd 76 1e 6c 3f b0 50 d8 3c
       -0.33154678 -0.058960576 0.9223398 0.026405662
000360 39 a9 0c bf d6 1e e5 bd db 9a 10 bc 3e 0c 18 be
       -0.54945713 -0.11187522 -0.008825983 -0.1484842
000370 cc 76 6c be 06 cb 83 be 1a a0 4f bd 6c 1a 6d 3e
       -0.23092192 -0.25740832 -0.050689794 0.2315461
000380 c9 df 2b 3e 66 6c 36 3e c9 02 cd 3e b0 a7 05 3f
       0.16784586 0.17814788 0.40041187 0.52208996
000390 1c 87 3d bd fa 34 fd be e6 e3 85 bc 60 3c 8a bd
       -0.04627143 -0.4945448 -0.016344022 -0.06749797
0003a0 ba 40 36 be 0d 90 36 3e 39 4a a3 3e 16 82 22 3e
       -0.17798129 0.17828389 0.31892565 0.15869936
0003b0 b3 96 97 be ea 7b de 3e 51 7c a2 be d2 30 78 bc
       -0.29607162 0.43453914 -0.3173547 -0.015148358
0003c0 ee 50 f4 be 0b 2c 15 be a3 0f 04 bf 6c 85 9f 3e
       -0.47717994 -0.14567582 -0.5158636 0.3115648
0003d0 d9 c6 61 be cb 26 e9 be 0e 43 23 3e 4e 6d 58 3d
       -0.2204851 -0.4553741 0.15943548 0.052838616
0003e0 de 14 b8 be a3 35 3e 3f ae 07 67 bd f3 17 f3 bd
       -0.3595342 0.74300593 -0.05640381 -0.11869802
0003f0 a2 ad bf bd bd 64 e2 bc 21 f9 af bc 39 e3 b5 be
       -0.0935929 -0.027635926 -0.021481099 -0.3552492

network_body._body_endoder.seq_layers.0.bias f4 [128]
000000 00 0c 50 3c 23 6b 85 bc a0 8c 9e 3c cc c9 12 3d
       0.0126981735 -0.016286438 0.019354165 0.03583698
000010 04 d1 9c bc 40 d9 6d ba 8f fa 67 bc e1 87 e2 3c
       -0.019142635 -0.00090732053 -0.014158859 0.027652683
000020 df 78 84 bc 23 b5 ad bc a7 bf 81 bc 96 65 7d bc
       -0.016170917 -0.021204537 -0.015838457 -0.0154661145
000030 5b de 45 3b 84 f9 8c bb 02 8e 57 bc 7e 0e d5 3c
       0.0030192349 -0.0043022055 -0.013156416 0.026007887
000040 f0 38 0b bb e8 8a 62 bc 0e b2 0e bc 46 7c ad 3c
       -0.0021243654 -0.013827063 -0.008709444 0.021177422
000050 18 bb 9d 3c ea 56 3e 3c e7 0e 39 3d 7f 75 90 bc
       0.019254252 0.011617402 0.045180228 -0.017634152
000060 08 f6 cb 3c 50 fd 4c bc 8f fe b7 3c b4 4e c6 bc
       0.02489759 -0.012511566 0.02246025 -0.02420745
000070 34 b6 6c 3c 9d dd c8 3c 74 18 f8 3b 32 56 8d bc
       0.0144477375 0.024519736 0.0075712744 -0.017253015
000080 ce 37 fb 3c fa ae a1 3c c2 fb 96 bc c6 31 c4 3c
       0.030666258 0.019736756 -0.018430594 0.023949515
000090 41 fd 93 bc ab 1b 70 bc e5 53 d6 bc f3 86 6b 3c
       -0.018065097 -0.014655034 -0.02616305 0.014375436
0000a0 77 d3 ba 3c 32 56 84 3c 43 e1 8f bc e9 77 00 3d
       0.022805912 0.016154382 -0.017563468 0.031364355
0000b0 ea 3b 9c bb b1 da 7a bc 2e fc 62 bb df 37 ec bb
       -0.0047678845 -0.015310929 -0.0034635174 -0.007208809
0000c0 29 2d a8 bc 5d a0 11 bc af 39 9c 3c b8 dd 63 3c
       -0.020529347 -0.008888331 0.019070474 0.013907842
0000d0 97 6e 1d bc d9 70 f2 bb 32 69 cc 3c d4 c8 2a 3c
       -0.009608886 -0.0073987064 0.024952505 0.010423858
0000e0 98 d7 97 bc 39 19 92 bc cb 97 8a 3c 06 ed 5b bc
       -0.01853542 -0.017834293 0.016918084 -0.01342321
0000f0 58 e3 37 3c 48 a9 ee 3c ba f1 07 bc b9 c9 f0 b9
       0.011223637 0.029133454 -0.008297378 -0.00045926662
000100 e0 5d a4 3b d0 39 c9 3c b1 01 26 3d e1 10 44 3c
       0.0050160736 0.0245637 0.040528957 0.011966915
000110 26 87 a6 3c 48 d3 c2 bc d1 18 34 3c 89 83 e9 3c
       0.020328116 -0.023782387 0.010992245 0.028505104
000120 55 28 6f bc be ce 3f 3c ad f8 b2 3c c4 6d c0 bc
       -0.014597018 0.011707006 0.021847093 -0.02348984
000130 48 12 c5 3c 5c de 0b bc 1d af e2 bc 76 5d 00 3d
       0.024056569 -0.008536901 -0.027671391 0.03133913
000140 57 4e b2 ba 9c cb 24 3d 9b f3 92 3c 0e 73 97 3c
       -0.0013603669 0.04023324 0.017938426 0.01848748
000150 c7 5b b4 3c 85 12 92 bc 22 8d 27 3b 90 82 e3 3c
       0.02201642 -0.017831096 0.00255663 0.027772218
000160 b2 99 14 3c 22 84 d4 3c ad 83 81 3b 58 7e b4 bc
       0.009069847 0.025941912 0.0039524646 -0.022032902
000170 7b 81 35 3c cb 10 e2 b9 34 f2 12 3c c0 65 2c 3d
       0.011078234 -0.0004311859 0.008968879 0.042089224
000180 77 a9 27 3c 98 08 86 bc ff be 4d bc b1 3f 89 3b
       0.010233275 -0.01636152 -0.012557744 0.004188501
000190 ea fd 73 bc 4f f8 ba 3c 50 76 96 bc 99 be 5d 3c
       -0.014892081 0.02282348 -0.018366963 0.013534212
0001a0 7f 69 41 3c d8 21 86 3c 1f 60 06 bc 73 b5 c6 bc
       0.011804937 0.01637356 -0.008201628 -0.024256444
0001b0 45 ce 07 3d c5 77 ce 3c 55 39 26 3c b7 7c 27 3d
       0.0331557 0.025203595 0.010145505 0.04089042
0001c0 7a 9f 4f 3c 58 37 1f bc 4c 88 51 3c 35 2b c0 bc
       0.0126722995 -0.009717785 0.012788843 -0.023458103
0001d0 50 a9 85 3c bc c9 f7 3c 8e 9c 8a 3c 07 2b 20 3c
       0.016316086 0.030247562 0.016920354 0.0097758835
0001e0 1f a2 b6 bc 1e fa 13 3c e0 5e 33 3d 60 f6 4d 3b
       -0.022294102 0.009031801 0.04379165 0.0031427369
0001f0 20 a1 e6 bb 0c b4 88 3c 38 d6 0b 3d 72 ee fd 3c
       -0.0070382506 0.016687416 0.03413984 0.030997489

network_body._body_endoder.seq_layers.2.weight f4 [128, 128]
000000 03 b1 85 3c b9 21 00 3e d9 0c a1 3d 71 10 ee 3b
       0.016319757 0.12512864 0.078637786 0.0072651436
000010 f0 3b 6b 3c a0 bd 5b 3e 02 10 b7 bd 38 52 12 3d
       0.014357552 0.21459055 -0.089386 0.03572294
000020 f8 60 6d 3d ab 0a 14 be dd 7a 3f 3e fc ea 89 3d
       0.057953805 -0.14457195 0.18699212 0.06734273
000030 0d 44 80 bc 63 13 ca 3c a3 79 63 bb 4b 8a 90 3d
       -0.01565745 0.024667447 -0.0034709952 0.07057627
000040 6e f3 d4 3d be 29 57 3c 5c 42 a4 3d c7 59 a1 bd
       0.10397993 0.013132511 0.080204695 -0.07878452
000050 8e a0 93 bd b9 a2 12 bd 25 af 18 bd 9c 2f 07 3d
       -0.07208358 -0.035799716 -0.037276406 0.03300439
000060 d8 b5 53 3e 3c 13 e2 bd 32 ab 9f bd 8b 1d d1 bc
       0.20674837 -0.11038825 -0.07796325 -0.025526782
000070 5a 71 16 3e 03 6e c4 3d 23 ba b2 bd 3e da d9 3d
       0.14691678 0.095912956 -0.08726909 0.106373295
000080 af 00 8a bc 4f 3d 46 bc 9f c4 17 bd 62 1b f1 bc
       -0.01684603 -0.012099578 -0.037052747 -0.029432002
000090 31 5c 45 bd 6d 24 33 be 6d a3 01 3d c9 c0 89 bb
       -0.048183624 -0.17494364 0.031649996 -0.00420389
0000a0 f6 09 b2 3c e8 31 d9 3d 4a ed 04 3e 2b 9b 90 bd
       0.021733265 0.10605222 0.12981144 -0.07060846
0000b0 e2 fd 9d bb 47 8a b2 3d 63 49 45 bd c9 0c 01 3d
       -0.004821525 0.087177806 -0.04816569 0.031506334
0000c0 03 3a 0e 3c 14 ef aa bb 3f 4d c9 bd eb 77 14 3d
       0.008680823 -0.0052164886 -0.09829187 0.036247175
0000d0 4b c7 51 3d bb 96 0e 3e 2c ce 8a bd 12 ce 83 3d
       0.05121545 0.13924687 -0.067776054 0.06435789
0000e0 fd 46 99 bd 93 d9 88 3d a0 e2 c3 3d 39 b2 b8 3d
       -0.07484243 0.06682124 0.0956471 0.09018368
0000f0 0a a0 e3 bc 19 c6 d2 3c 7e 5c dc 3d 32 f0 e7 3d
       -0.027786274 0.025729226 0.10759829 0.113251105
000100 65 d4 15 be 99 aa 04 3e 24 eb 8b 3d 0e 83 47 3d
       -0.14631803 0.12955703 0.06831959 0.048708968
000110 14 f4 11 3d 6d d6 5c 3d 68 11 dc bd 16 58 88 3c
       0.03563316 0.05391543 -0.107455075 0.016643565
000120 0e 49 46 3e 70 b2 7a bb 5d 45 8d bd dc 74 04 3e
       0.19363806 -0.003825333 -0.068979956 0.12935203
000130 29 b5 56 3c dd d0 97 3b cb d2 eb 3b 8f e6 09 3d
       0.013104715 0.0046330527 0.0071967593 0.033667143
000140 b6 d1 f4 3d 96 da 27 3d 8e ae c2 bc eb db 8b bd
       0.11954062 0.040979944 -0.023764875 -0.068290554
000150 01 82 d8 bd e3 54 e3 bc c2 ba 94 bd 98 3f 5a bd
       -0.10571671 -0.027750438 -0.07262184 -0.053283304
000160 b3 39 78 bd 32 42 ec 3c f0 34 6a 3d 07 6b 8e bd
       -0.0606019 0.028840158 0.05717939 -0.069540076
000170 6f 77 05 bd 47 0f 13 bd 7e d9 ca bc db 05 12 be
       -0.032584604 -0.03590324 -0.024761911 -0.14260046
000180 8b 80 09 be 79 66 c6 bd 35 8a 09 be 1d ce 12 3d
       -0.13427942 -0.09687514 -0.13431628 0.035841096
000190 dc 34 f6 ba ad 45 db bc 44 de 27 3e 65 f0 35 bd
       -0.0018784064 -0.026766622 0.16393381 -0.04441871
0001a0 42 38 9f bd 66 18 b9 bd 76 09 26 bc 68 26 e6 3d
       -0.07774402 -0.09037857 -0.010134092 0.11237794
0001b0 7b b0 3d 3d 38 a2 85 bd 4b e3 82 bd 2c e3 0a 3e
       0.046310883 -0.065250814 -0.06391009 0.13563222
0001c0 1b 8b e2 3c d2 14 6a 3d bd 80 de bd 85 93 c1 3a
       0.027654221 0.057148762 -0.10864399 0.0014768696
0001d0 46 17 b2 bc b4 ec 43 be 1f 2a 78 bd e3 86 76 3d
       -0.021739613 -0.19133264 -0.060587045 0.06018723
0001e0 ff ae 0d 3e 7e 28 ed 3d 64 dc 41 3d 38 6c 9b bd
       0.13836287 0.11579989 0.04732932 -0.075890005
0001f0 08 75 39 3c 4b af 0c be 26 69 39 bc 58 9e 19 be
       0.011319406 -0.13738744 -0.011316573 -0.1500181
000200 33 ee 7a bd aa 16 8a be db f4 89 3d 70 62 08 3e
       -0.06126232 -0.26970416 0.067361556 0.13318801
000210 26 b4 28 3d 99 9b c4 3c 47 ac 3f 3e ac 8c 2a bd
       0.041187428 0.023999976 0.18718062 -0.04163806
000220 1e ac 89 bd 9c 5b c5 3d 92 a0 1c 3e 25 38 2f 3d
       -0.06722282 0.09636614 0.15295628 0.042778153
000230 87 2e 4e be 39 cb 32 3d 0a fb 91 3d 23 d5 aa 3d
       -0.20134936 0.04365084 0.0712796 0.08341434
000240 bf 59 0b 3e e3 c5 5c bd 6e cf 60 3d c2 a9 3d bd
       0.13608454 -0.053899657 0.05488532 -0.04630447
000250 57 fc 2c 3d 0d fe 91 bd 47 0f 7a 3e a8 74 c9 3c
       0.042232838 -0.071285345 0.2441989 0.024591759
000260 40 98 46 3e 58 34 5b bb 1a d1 f2 3d 93 93 ff 3b
       0.19394016 -0.0033447947 0.11856289 0.0077995746
000270 81 01 93 bd 8c 7c c9 bc d8 05 4d 3c 34 72 23 be
       -0.07178021 -0.024595521 0.0125136 -0.15961534
000280 4d e2 9f bc 82 35 f4 3d 1f 4a 15 3c da fc 09 3e
       -0.019517088 0.11924268 0.00911191 0.13475361
000290 78 8c bb bd f9 a5 89 bd cf 99 d9 bd e2 25 18 3d
       -0.09157652 -0.0672111 -0.1062504 0.037145503
0002a0 aa 66 04 3d 32 d9 8f bd 14 6c e4 bd dc 0e ce 3c
       0.03232447 -0.070238486 -0.11153427 0.02515357
0002b0 0c a1 1d 3e 7c 0e 8a bd 6b cc fa bd 17 35 30 3e
       0.15393466 -0.06741044 -0.12246021 0.17207752
0002c0 20 48 59 3d a6 2e a0 3d 71 e1 7a bd f9 ce 9b bd
       0.0530473 0.078213975 -0.061250154 -0.07607836
0002d0 f9 62 ca 3c f1 73 98 3d d3 2b d4 bc cc b0 27 bc
       0.024705397 0.07443989 -0.025899803 -0.010235023
0002e0 75 3a d9 b9 3f e7 cf 3c ad 00 64 bd 3c 07 94 bd
       -0.0004143302 0.025378821 -0.055664707 -0.07227942
0002f0 b8 b2 64 3c 37 99 38 3e 54 54 87 be fe 02 b3 bc
       0.0139586255 0.18027197 -0.26431525 -0.021852013
000300 a8 df 7d bb b6 52 88 bd ff c7 46 3e 11 bb 85 bd
       -0.0038738046 -0.06656401 0.1941223 -0.06529821
000310 18 61 9b 3d 9f a3 03 be 8b e8 86 3c 55 dc 83 bd
       0.075868785 -0.12855385 0.016468307 -0.064385094
000320 b7 53 49 3d 03 b1 01 3e 02 8d 17 3d 34 a6 ae bd
       0.049152102 0.12665181 0.03699971 -0.085277945
000330 da 79 34 3e 11 b3 4d be db 2f 8f 3c 2c a1 6b 3d
       0.17624608 -0.2008784 0.017478874 0.057526752
000340 96 41 1a be 9c 40 33 3e 17 06 fc bd 69 ff 0a 3e
       -0.15064082 0.17505115 -0.12305849 0.13573994
000350 0e 48 d7 bd e5 f5 0e 3e f5 42 87 be 1a 4b 1f 3e
       -0.1051179 0.13960989 -0.26418272 0.15555993
000360 19 41 ce bc a4 ec 1c be 33 14 5b bb 5e 4e 3d 3c
       -0.025177525 -0.15324646 -0.0033428788 0.011554329
000370 8a 51 25 3c 62 88 e3 3d 75 08 b4 bd 97 0b 5b 3d
       0.010090241 0.11109997 -0.087906756 0.05347785
000380 ea 23 87 3d c3 3d 16 3d e1 29 17 3e 19 66 03 bd
       0.06598647 0.036679994 0.1476207 -0.03207979
000390 b2 85 01 be e1 dd 9d bd 60 52 e2 bd f0 be 95 bd
       -0.12648657 -0.07708336 -0.11050868 -0.07311809
0003a0 bf a7 2b be ba 6f cb 3b 75 71 43 bd 12 60 95 3d
       -0.16763209 0.006208387 -0.047715623 0.072937146
0003b0 74 12 b2 3c 7a 0d 0f 3e d7 42 a7 3c 9f 6a c1 3d
       0.021737315 0.13969985 0.020417614 0.094441645
0003c0 7a 93 4c bd ff d0 1a bb c8 42 e8 bd 73 a3 3a bb
       -0.049945332 -0.0023623107 -0.113408625 -0.002847877
0003d0 8b c3 82 bd 99 35 47 bd f3 ff 60 bb 08 92 f5 bc
       -0.06384953 -0.0486351 -0.0034332245 -0.02997686
0003e0 45 d5 a1 bb 6e 1e 90 bc 89 ca 1d be c4 78 18 be
       -0.004938754 -0.017592635 -0.15409292 -0.14889818
0003f0 bd 12 10 bc 02 43 a5 bd 9d 4e e9 3c b9 55 7b 3d
       -0.00879353 -0.08069421 0.028479869 0.06136105

network_body._body_endoder.seq_layers.2.bias f4 [128]
000000 10 b6 09 bc 27 9a 32 3d e7 3a 58 3c eb 2b 0e 3d
       -0.0084052235 0.043604042 0.013197637 0.034709852
000010 6c d5 88 3c f3 5b 71 bc e0 dc 95 3c f3 d8 26 3d
       0.01670333 -0.014731395 0.018293798 0.040734243
000020 06 11 92 3c 53 88 61 bb 43 fe e8 bb ff 30 8c bc
       0.017830383 -0.003441353 -0.0071103885 -0.017113207
000030 84 f1 b2 3c e8 c5 9c 3c 8d ca 8e 3a 9a f5 cf 3c
       0.02184368 0.019137338 0.0010894105 0.025385667
000040 bf 39 df bb ae c6 bf 3c a9 85 39 bc 92 a0 09 bc
       -0.006812304 0.023410168 -0.011323371 -0.008400099
000050 f8 19 02 3c 0f a4 81 bc aa 5b 60 3c 6a 90 e4 bb
       0.007940762 -0.0158253 0.013693729 -0.0069752233
000060 4b 6f f1 bb 65 ac df bb 13 2b 1a bc 9c d3 43 bc
       -0.0073680035 -0.006825971 -0.009409684 -0.011952307
000070 8e b2 82 bc 0a e7 a4 bc 02 89 3b bc 04 ca a3 3c
       -0.015954282 -0.0201297 -0.011446239 0.01999379
000080 7a f4 d4 3c 6b 8a 04 bc 14 26 de 3b e1 b1 c8 3c
       0.025995482 -0.008089642 0.0067794416 0.024498882
000090 a0 e3 29 3b d9 81 20 3d a6 f5 11 3d fd 92 4e bc
       0.0025923029 0.039186332 0.03563466 -0.012608287
0000a0 d1 f9 9e 3c 7d 9d 64 bc 14 d2 17 3c c0 34 26 3c
       0.019406231 -0.013953564 0.009266395 0.0101444125
0000b0 06 1a 96 3c 1f 33 89 3c d9 2e 72 3c 35 de 52 3c
       0.018322956 0.01674801 0.014781677 0.012870361
0000c0 66 c7 20 3d 61 0c d3 bb 20 0a db 3c 45 55 ca 3c
       0.03925266 -0.0064406847 0.026738226 0.024698863
0000d0 3e bb 1f bc 20 36 64 3c 9a 15 6f bc 0f d4 eb bb
       -0.009749232 0.01392892 -0.014592553 -0.00719691
0000e0 5c 44 9c bc 15 47 45 bc 95 82 dc 3c ae 15 06 bc
       -0.019075565 -0.012040873 0.026917735 -0.00818388
0000f0 ab 36 dc 3c b4 b9 f4 3c 7c d7 1c 3c 65 d4 8b 3c
       0.026881536 0.029873706 0.00957286 0.017069051
000100 bb d7 85 bc a9 33 5f bc 54 a0 09 bc 17 e7 a4 bb
       -0.01633822 -0.013623157 -0.008400042 -0.005032431
000110 6a b3 6f bc 77 92 1f 3c b1 f0 ab 3c 4a 0f 0d bc
       -0.014630178 0.00973951 0.020988794 -0.008609602
000120 4c 75 84 3c 8f ff 2c bc 2b e1 4d 3c 3d 01 b6 3c
       0.016169213 -0.010558977 0.012565891 0.022217387
000130 7d 32 2d 3c 7f ce 42 3c 37 59 0c 3d 1b 17 39 3c
       0.010571119 0.011890053 0.03426477 0.011297013
000140 3c 6c 54 bc a9 33 ca 3c 88 4c 18 3c be bc 76 bc
       -0.012965258 0.024682837 0.00929559 -0.015059648
000150 9f e9 ff 3c af 32 63 bc f5 28 e3 ba 47 6f 69 3c
       0.031239329 -0.013867064 -0.0017330932 0.014247722
000160 12 c6 5f bc 8c 48 a2 3c de 4b 0c 3c f4 a6 5b 3c
       -0.0136580635 0.019809984 0.00856301 0.013406504
000170 84 db 8e 3c a6 1f ad 3b 2f 53 90 bc f5 47 06 3d
       0.017438658 0.005283314 -0.01761779 0.032783467
000180 46 45 03 3c b1 f9 53 3c 99 ab 24 bc 99 e2 7a bc
       0.008012122 0.012937949 -0.010050678 -0.015312814
000190 98 dc cd 3c 6e 1a 3a 3c 47 5c fb 3a 92 84 cb 3c
       0.025129601 0.01135884 0.0019177281 0.024843488
0001a0 2c 19 43 3c 02 29 84 3c e7 09 16 3b 3f f1 bb bb
       0.011907857 0.016132835 0.0022894086 -0.005735546
0001b0 5e 8d 3b bc 0b e2 92 3c 3a 5f 43 ba dc 58 30 3c
       -0.011447279 0.017930051 -0.00074528495 0.010763373
0001c0 4c fc 4b bb 24 6c 86 3c 75 fe 42 bc d8 b5 ea 3c
       -0.0031125722 0.016408987 -0.011901488 0.028651163
0001d0 7d 25 27 bc 0f 9d 6c bc d8 cd 5b 3c a4 6b 88 bb
       -0.010201809 -0.014441743 0.013415776 -0.0041632224
0001e0 e3 fb c5 3c 6a f7 ba 3c a1 56 8a bb 50 da 1e 3c
       0.02416796 0.022823054 -0.0042217528 0.009695604
0001f0 16 a3 2c bc 17 ed d6 3c 45 44 4c 3c 06 88 5e 3c
       -0.01053693 0.0262361 0.012467449 0.013582235

action_model._discrete_distribution.branches.0.weight f4 [3, 128]
000000 da 42 f7 3c 58 43 c9 3c f6 a8 33 bc 31 48 5c 3a
       0.030183244 0.024568245 -0.010965576 0.00084030913
000010 29 f8 44 bc 76 79 d4 3c 66 73 9a bc c1 70 9f 3c
       -0.012022057 0.025936823 -0.018853854 0.019462945
000020 f2 88 c1 bc db d3 05 3d 6f 97 b3 3c 46 b6 94 3c
       -0.02362487 0.032672744 0.021922795 0.018153321
000030 67 51 bf bc 83 fb d7 bc c1 20 47 3a ef 23 a2 bc
       -0.023354245 -0.026365047 0.0007596128 -0.019792525
000040 0b 44 69 3c c5 b2 10 bc 86 58 d1 3c 88 6d c8 3c
       0.014237414 -0.0088316845 0.025554907 0.024466291
000050 aa 9c bb bc eb 90 00 3c e4 a7 a1 bc 42 2f 48 3c
       -0.022901852 0.007847051 -0.019733377 0.012218298
000060 cd b6 59 3b 27 c4 10 3d 49 ca 97 3c 6c 54 84 3c
       0.003322053 0.035343315 0.018529074 0.016153537
000070 2c 69 ec 3c 6c 0b 77 3c f6 7c f8 3b 1d 83 cb bc
       0.028858744 0.015078407 0.007583256 -0.024842793
000080 ef 37 a7 bc de 9f 14 3c 89 b3 01 bd 07 71 2e bc
       -0.020412413 0.009071318 -0.03166536 -0.010647065
000090 6c 17 bb bc a3 aa ef 3c 89 96 13 3c 88 76 58 3c
       -0.022838317 0.02925617 0.009008058 0.013211854
0000a0 61 13 74 bc 6a 2f 00 3c f5 f8 0c bd 0c ba 78 bc
       -0.014897198 0.007823804 -0.03441711 -0.015181076
0000b0 5f d7 c7 bb 69 4a 9f bc da d3 3e bc 46 c2 53 bc
       -0.0060986723 -0.019444661 -0.011647189 -0.012924736
0000c0 cb 8e ff 3c 15 34 9e 3c b2 9e 85 bc 0c 9d 52 bc
       0.031196019 0.019311944 -0.016311023 -0.012854826
0000d0 8e 4d cb 3c ca 86 e3 bc 0f b6 95 3b b1 45 91 3c
       0.024817254 -0.027774233 0.004568822 0.017733427
0000e0 4c 89 73 3c 06 21 38 3c 31 0f 5f bc 5a d3 3f 3c
       0.014864277 0.011238342 -0.013614462 0.011708105
0000f0 7a 55 2b bc 5a 44 a8 bc 30 1f 12 bd 78 ec ae bc
       -0.010457391 -0.020540405 -0.035674274 -0.021352991
000100 35 9c 40 3c d4 c2 89 3b 42 1d 5e 3c b4 5c 7f 3c
       0.011755993 0.0042041335 0.01355678 0.015586067
000110 9c c3 92 3c 27 7b 5a bc 2a 9b 1e bc 28 ba f9 3c
       0.01791554 -0.013335026 -0.009680549 0.030484274
000120 0a fd 66 3c 60 39 42 3c de 24 03 bd af 36 92 bc
       0.014098415 0.0118545 -0.03201758 -0.01784834
000130 7d 4d 83 bc 31 2b a3 bc 0b b8 45 3c 65 ed 15 bd
       -0.01602816 -0.019918056 0.012067805 -0.03660335
000140 20 e7 9e 3c 72 ce 96 bc aa 74 f4 bb 8b f7 1d 3c
       0.019397318 -0.018408988 -0.0074601965 0.009641538
000150 c4 f8 24 bc 56 28 b7 3c 5f 40 fa bc 79 a1 a0 3c
       -0.010069076 0.0223581 -0.030548273 0.019608246
000160 86 67 af 3c 76 e3 b2 bc 53 b3 d9 bc 18 03 3b bc
       0.021411669 -0.021836977 -0.026574766 -0.011414312
000170 4e 6e 2c bc 79 32 1e bd 93 66 4a 3c c6 57 64 bc
       -0.010524346 -0.038622353 0.012353557 -0.013936942
000180 13 65 92 bc 4f 8d c4 bc 95 35 8e 3c d4 3b df 3a
       -0.017870462 -0.023993162 0.017359534 0.001703138
000190 17 cf ec bc ea 6f ce bc 9c b6 c1 bc 0f 2c 95 bc
       -0.028907342 -0.02519985 -0.023646645 -0.018209485
0001a0 9e f8 56 bc 81 a4 c1 bc c3 b5 81 3c 08 7f fe 3c
       -0.013120798 -0.023638012 0.015833741 0.031066433
0001b0 95 25 9d 3c c6 44 c2 bc 94 96 2b 3c 93 10 39 bc
       0.01918296 -0.023714434 0.010472912 -0.0112954555
0001c0 8e 64 01 3b 16 9f de bc 84 45 a1 3b b4 0d be bb
       0.0019743773 -0.027175467 0.004921617 -0.0057999734
0001d0 d2 72 cf 3c 01 03 03 3c 00 7d 29 bc d0 7d 3e 3c
       0.025323305 0.007996322 -0.010344744 0.011626676
0001e0 bc 76 11 3d 1c d9 d2 bc c3 ed 72 3c 33 4f 8e bc
       0.035513625 -0.025738291 0.014827195 -0.01737175
0001f0 f3 af a9 3b 87 e9 28 bb 90 02 97 3c da a7 5a bc
       0.0051784455 -0.0025773959 0.01843384 -0.013345683
000200 de 36 22 ba c8 1e 22 bd 0b b3 25 3d 13 0e 2b bd
       -0.00061879854 -0.039580137 0.04045395 -0.04176147
000210 95 b8 03 3c 16 27 df bb 78 f0 28 3c 4b f6 39 bd
       0.008039613 -0.0068100793 0.0103112385 -0.0454009
000220 22 aa a5 3a 47 eb 61 bc 9e 18 8d bc 97 6c 07 3c
       0.0012639205 -0.013789005 -0.017223652 0.008265636
000230 b8 04 89 3b a6 03 35 3c 4a 9c 6a 3d fd c6 d2 bc
       0.0041814707 0.011048233 0.057277955 -0.02572965
000240 ad 70 cd bc 1f 32 3a bb 0c b0 28 bc 33 6c 80 bc
       -0.025078142 -0.0028411222 -0.010295879 -0.015676593
000250 c3 4a 94 bb a6 5a ae bb d9 08 69 3c cf 08 a7 b9
       -0.004525514 -0.0053208647 0.014223301 -0.00031859285
000260 1d b1 8e bb dd 09 97 bc 60 f0 6c bc 09 24 a5 bc
       -0.0043546096 -0.01843732 -0.014461607 -0.020158784
000270 93 fc 14 bc 42 9d 92 3c e4 43 6a ba ac f6 ba bb
       -0.0090934215 0.017897252 -0.0008936508 -0.005705675
000280 bc 87 42 ba de 0e 82 39 71 44 8c bc 1e e7 05 3a
       -0.00074207387 0.0002480661 -0.01712248 0.00051079865
000290 5a c3 a5 3c 6b b7 2e bd f6 07 28 bd 25 cb 4a 3c
       0.020234752 -0.04265539 -0.041023217 0.012377535
0002a0 92 d3 ae bb 16 42 c3 3c a7 bf be 3c 08 4a a8 3c
       -0.0053352797 0.023835223 0.023284746 0.020543113
0002b0 9a 86 4b 3b 5c 77 8e 3b 34 84 ea 3b 99 6c a2 3b
       0.003105557 0.004347725 0.007156873 0.0049567935
0002c0 4e bc 02 bd 97 1c a0 bc 70 98 0e bc 3e 62 a1 3c
       -0.031917863 -0.019544883 -0.008703336 0.019700166
0002d0 03 01 bc ba d2 f0 20 bb 94 a4 4b 3c 3c 90 aa bc
       -0.0014343563 -0.0024557603 0.012429375 -0.02082073
0002e0 63 7d a9 3a 1d 86 9a 3c 4e aa 04 bd a4 df e0 bb
       0.0012931045 0.018862778 -0.032388978 -0.0068625975
0002f0 1b 95 3a bd 43 c7 33 bc 91 84 4c 3c d9 72 5b 3c
       -0.045552354 -0.010972801 0.012482778 0.013394081
000300 28 db 8f bc 1c 6a 64 bc c0 eb 4c 3b 89 59 76 bc
       -0.017560557 -0.013941314 0.0031268448 -0.015035995
000310 cd f6 7d bc e3 1f de 3b 69 55 53 3b 04 7e ad 3b
       -0.015500736 0.0067787035 0.0032246953 0.0052945632
000320 44 22 be bc 8b d6 64 bc be 38 d5 3b 54 5e 13 3b
       -0.023209698 -0.013967167 0.0065070083 0.0022486644
000330 65 ab 5e 3c 00 c3 45 3c d5 db 1b bd 7d 6d 71 3c
       0.013590668 0.012070417 -0.038051445 0.014735577
000340 ab 39 e6 3a 9f 98 46 3a cf 7a 9c 3c dc bf dd bb
       0.0017564794 0.0007575843 0.019101528 -0.006767256
000350 1c 62 57 bd d2 a8 52 bc 7d f1 11 3d 32 18 3d bc
       -0.0525838 -0.012857633 0.03563069 -0.011541413
000360 19 a1 b5 bb 9a 9c b8 3b 7d 3d ba 3b 57 ee 74 3c
       -0.005542886 0.0056339027 0.0056835995 0.014949403
000370 65 4d fb 3b 25 29 20 3d 43 58 d5 bb 0d 5b df bc
       0.0076691383 0.03910174 -0.0065107658 -0.027265096
000380 19 d8 ef 3c 89 b0 d0 3c 79 b1 04 3c 3e ac 11 bc
       0.029277848 0.025474804 0.008098953 -0.008891163
000390 23 b0 28 bd e6 0b 59 bb ae a6 b4 3c f8 90 1e 3c
       -0.041183602 -0.0033118664 0.022052135 0.009678118
0003a0 ea 93 a3 3c 41 aa 99 3c 46 bd e0 bc 50 c1 ca bb
       0.019967992 0.018757941 -0.027434003 -0.0061875954
0003b0 76 eb 94 bc 87 91 a6 3b ea 57 9e bc 24 63 56 3c
       -0.018178683 0.005083266 -0.01932903 0.01308516
0003c0 96 ac 57 3d 8a 58 f1 3b e2 2c 5b ba ee 31 18 bc
       0.052654825 0.007365291 -0.0008360875 -0.009289248
0003d0 41 cb 00 bd 9c e4 9f 39 4b 48 86 3c 15 07 39 bb
       -0.031443838 0.0003049717 0.016391894 -0.002823298
0003e0 3b 34 57 bd 3f ce 26 3c 9a 71 94 bc f5 e4 d5 3b
       -0.052540045 0.010181009 -0.018120576 0.006527538
0003f0 37 e2 8a bb d0 9b 73 bc fa c5 d0 bc 2f 93 c4 3c
       -0.0042383927 -0.014868692 -0.025485028 0.023995964

action_model._discrete_distribution.branches.0.bias f4 [3]
000000 61 74 10 bc 55 51 0d 3c 67 4d 3e b9
       -0.008816809 0.008625348 -0.00018148647

action_model._discrete_distribution.branches.1.weight f4 [3, 128]
000000 f3 5b d2 bc 9e b6 f1 3c 66 f3 38 bb 76 57 01 3d
       -0.02567861 0.029506024 -0.0028221249 0.03157755
000010 46 48 e6 3b 8b 19 1b bc a4 d8 07 3d 3f 4b bc 3c
       0.0070276586 -0.009466539 0.03316559 0.022985099
000020 76 c5 ab 3c b6 57 99 bc aa ab c8 bc a3 71 98 bc
       0.02096818 -0.018718582 -0.024495918 -0.018608874
000030 25 81 01 3d 38 9a 93 3c e2 92 f4 bc e2 13 0a 3d
       0.031617302 0.018017873 -0.029855195 0.033710368
000040 6e 64 a9 bc 38 2b 1a 3d ef 19 d5 bc 23 e9 a4 bc
       -0.020677771 0.037638873 -0.026013343 -0.0201307
000050 e7 70 44 3c f0 c1 3b bc de 1f b3 3c 23 56 23 bc
       0.011989809 -0.0114598125 0.021865781 -0.009969267
000060 40 c8 87 bc 08 ce da bc e5 4a b2 bc fd ff 86 bc
       -0.016574979 -0.026709571 -0.021764228 -0.016479487
000070 05 8f b6 bc d9 41 1c bd 79 d6 0d bd f6 c0 0e 3d
       -0.022284994 -0.038148735 -0.034628365 0.03485199
000080 7b 97 eb 3c 60 ea a2 bc d8 8e ab 3a a9 72 ec 3c
       0.028758755 -0.01988715 0.0013088835 0.028863268
000090 a3 3c 86 3c 51 fe c6 3c 16 fb 7f 3c 00 be ad bc
       0.016386336 0.02429119 0.015623828 -0.021208763
0000a0 5b 28 c0 3c 8e 21 20 bd 7d d9 83 3c 96 2e 64 3c
       0.023456743 -0.0390945 0.016094917 0.013927123
0000b0 fc d7 92 3c be 8f f8 3c 7d 23 f9 3c 83 b3 c5 3c
       0.017925255 0.03034198 0.03041243 0.02413345
0000c0 6f 3c 0b 3d 5a 5b a6 bb d2 3a 0a 3d 5a fe 12 3d
       0.03399318 -0.005076808 0.0337475 0.0358871
0000d0 a5 6f 38 bc f9 a3 03 3d 5c 6e 0f bd 58 b8 b6 bb
       -0.011257087 0.0321388 -0.035017356 -0.0055761747
0000e0 fe 2a 1d bd 9e 6b b4 bc 86 ea 2e 3d 68 c2 0e bd
       -0.03837108 -0.022023972 0.042704128 -0.03485337
0000f0 e0 5c 9d 3c ba 0b d2 3c 22 7b 80 3c 0d 3b 5a 3c
       0.019209325 0.025640357 0.015683714 0.013319743
000100 b6 d6 0a bd 0b 3d f0 bc 17 0c 90 bc 09 7b c8 bc
       -0.03389617 -0.029325983 -0.01758389 -0.02447273
000110 fd 6a fc bc 93 7a e3 3c 6f 82 10 3d 0a eb ca bc
       -0.030812735 0.027768409 0.03528064 -0.024770278
000120 5c a7 cb 3b 4b cb aa bc 10 56 c8 3c ed 70 d9 3c
       0.006215019 -0.02084889 0.0244551 0.026543105
000130 dd 94 aa 3c 4a 2f a2 3c a3 7a 1e 3d b3 02 ee 3c
       0.020822937 0.01979794 0.038691174 0.029054021
000140 23 d2 92 bc 63 f4 21 3d e1 03 d8 3b 62 6d d9 bc
       -0.017922467 0.039539706 0.0065922593 -0.026541416
000150 f0 99 d9 3c b3 6b ea bc e2 e1 79 3b fe 05 f9 ba
       0.026562661 -0.028615808 0.0038129021 -0.0018998978
000160 77 62 b2 bc c6 2e e4 3c 4f 60 36 3c 98 05 7e 3c
       -0.021775467 0.027854335 0.01113136 0.015504263
000170 85 9e 0c 3d a3 fa 11 3b 85 5e 23 bd da 79 b1 3c
       0.034330864 0.0022274635 -0.039885063 0.021664549
000180 43 fb 29 3c 38 ff bb 3c 00 84 a4 bc 47 63 00 bd
       0.010374847 0.022948846 -0.020082474 -0.03134468
000190 53 2d f1 3c 57 3e de bb a0 db a4 3b 65 fc 4a 3b
       0.029440558 -0.006782334 0.005031064 0.0030973193
0001a0 f4 48 ef 3c 77 ec f1 3c 95 92 88 bc 4c 87 dc bc
       0.029209591 0.0295317 -0.016671458 -0.026919983
0001b0 3c 17 b5 bc 97 87 63 3c 95 41 22 ba 64 69 33 3c
       -0.022105806 0.013887308 -0.0006189582 0.01095042
0001c0 b1 36 96 bc ae e8 85 3c 90 c7 97 bc 87 3a ce 3c
       -0.018336626 0.016346302 -0.018527776 0.025174392
0001d0 b6 ef c8 bc 62 fe c1 bc 77 73 c3 3c 5d 84 cc bc
       -0.024528366 -0.02368087 0.023858769 -0.02496546
0001e0 20 e3 18 3c 0c 61 49 3c 18 a8 eb bc 0f ce b2 3c
       0.009331495 0.012291204 -0.028766677 0.021826772
0001f0 72 e5 1e bc 5f 84 57 3c 9a d0 3e bc ba bb f7 3c
       -0.009698259 0.013154118 -0.011646414 0.030240882
000200 b0 9f 19 3d 8f 85 1f bc d7 2c 44 3c 77 11 af bc
       0.037505805 -0.009736433 0.011973581 -0.021370633
000210 4a f8 b1 3b a0 3c 85 3c 18 31 47 bd d5 40 8a ba
       0.0054312097 0.01626426 -0.048630804 -0.0010547886
000220 9d 74 75 bc 2e 24 f5 3c 76 2c 3f 3d 3b fc af 3c
       -0.014981416 0.029924478 0.04667326 0.021482578
000230 0d 7f 3a bd 9e 24 3d bd ff 9a 2f bc a4 8d eb bc
       -0.04553132 -0.0461775 -0.010718106 -0.028754063
000240 28 89 98 3b 29 a7 b8 bc 96 bd 1b 3c a7 bf 79 3c
       0.004655022 -0.022540646 0.00950565 0.015243447
000250 1a 7c a8 bb 13 f0 a1 3c ac 93 19 bc f4 e1 4e 3c
       -0.005141747 0.019767797 -0.009373587 0.012627114
000260 0d 54 95 bb 8e af f7 3b c9 ad 35 3b 33 b8 27 3d
       -0.004557139 0.0075587695 0.0027721992 0.04094715
000270 05 d3 0a ba b7 c3 cd 3c bc 1a 58 3c ec f1 bf bc
       -0.00052957266 0.025117738 0.013189968 -0.023430787
000280 41 25 3a bd f1 e7 cd 3c 2e 70 90 bc c1 9b 6e bc
       -0.045445684 0.025135012 -0.017631616 -0.014563502
000290 a4 93 bc bc 09 91 a6 bb 68 ac ab bc 5d aa e4 39
       -0.02301962 -0.0050832075 -0.020956233 0.0004361448
0002a0 df 9e fd bc 28 d4 36 3d 7e 09 22 bc 1d c3 c0 bc
       -0.030959545 0.04463592 -0.009889958 -0.023530537
0002b0 5d 81 a9 bc 3a 48 2b bd 09 d1 04 bd 42 33 9d bc
       -0.020691568 -0.041816927 -0.032425914 -0.01918948
0002c0 65 b5 a8 bc 4f 19 68 3a 4e 75 9a bc dc 10 ab bc
       -0.020594308 0.0008853869 -0.018854763 -0.020882063
0002d0 ac 33 74 3c 2e 42 58 bc 95 d2 20 3d 72 52 14 3c
       0.014904898 -0.013199372 0.039263327 0.00905286
0002e0 bc 8f e2 3c 2a d2 ac 3b 25 d5 a4 bb 00 a5 bd bb
       0.027656429 0.005274077 -0.0050302916 -0.005787492
0002f0 26 28 1a bc 61 93 c2 b9 a3 4a ec bc d5 8c 2a bc
       -0.009408986 -0.0003711237 -0.028844183 -0.010409554
000300 2e 2b bc 39 c9 10 83 3c 10 6e af 3c 4d 7e d2 3c
       0.00035890326 0.015999215 0.021414787 0.02569499
000310 d8 c3 ec 3c 68 ce aa bc ae 3d 2a 3b f5 04 58 bc
       0.02890198 -0.020850375 0.0025976705 -0.013184776
000320 5d 2a dc 3a f6 4d de 3c cc 6d e5 bc 50 97 54 bd
       0.0016797293 0.027136784 -0.028006457 -0.051902115
000330 29 e2 a6 bc c9 2c 8a bb 15 21 15 bd ac 5a d5 bc
       -0.020371513 -0.0042167646 -0.036408503 -0.026044212
000340 4a 3a 24 bc f2 53 16 bb 66 b5 11 3c b9 a5 bf 3c
       -0.010023663 -0.002293822 0.008893346 0.023394452
000350 68 17 ab bc 41 e0 eb 3c 53 34 d4 bc 82 63 b4 bc
       -0.020885184 0.028793456 -0.025903856 -0.022020105
000360 b8 2a d0 3c 86 aa 08 3c 43 b4 d0 bb 29 3f ed bb
       0.025410995 0.008341437 -0.006369145 -0.0072401953
000370 21 62 fb bc 81 39 98 bc 28 f7 19 3d c4 6b 18 bd
       -0.03068644 -0.018582107 0.037589222 -0.03721215
000380 16 4f bb bc fa 37 fe bc 3a 70 81 bc ad 4d e9 3c
       -0.02286486 -0.031032551 -0.015800584 0.028479422
000390 f0 27 b1 bc 20 ed b0 3c a6 5c b2 3b 6c 8e b3 ba
       -0.021625489 0.021597445 0.0054431735 -0.0013699061
0003a0 48 9f 0a bc b8 42 16 bd d5 85 18 3c 54 49 b8 bc
       -0.008460827 -0.03668472 0.009309252 -0.022495903
0003b0 d2 f4 b9 3a 6d e9 27 bc 05 87 7d ba 7b b9 b4 bc
       0.0014187342 -0.010248524 -0.00096713036 -0.0220611
0003c0 ad de a5 3c d3 74 c5 bc 81 5e ac 3b d7 d1 22 bb
       0.020247782 -0.024103558 0.005260289 -0.0024844313
0003d0 29 1b 0b 3d 7c 82 f6 3b 81 02 8d bb 04 b4 ee 3c
       0.03396145 0.007522879 -0.004303277 0.029138573
0003e0 df 49 c8 bc 83 a3 4c bc f1 b6 34 3d 19 86 30 bc
       -0.024449287 -0.012490156 0.04411978 -0.010774159
0003f0 f2 5e a4 b9 b0 41 9a bc 71 17 b1 3c de 00 f6 ba
       -0.00031351257 -0.01883015 0.021617623 -0.0018768569

action_model._discrete_distribution.branches.1.bias f4 [3]
000000 4b 47 ac 3c 49 43 80 bc e2 fa 92 bc
       0.021030089 -0.015657084 -0.017941896

action_model._discrete_distribution.branches.2.weight f4 [2, 128]
000000 cc ae 54 bc c2 cb 59 bb eb 7f 76 bc 0e 8c 2b 3d
       -0.012981128 -0.0033233021 -0.015045146 0.041881613
000010 ee 2d 92 3c d9 63 15 bc f7 7f d0 3c ba 84 53 3c
       0.017844167 -0.009118044 0.025451643 0.012910062
000020 25 be aa 3c a1 d6 f7 bc ce e1 b7 bc 8a 1c 97 bc
       0.020842621 -0.03025371 -0.02244654 -0.018446226
000030 5e 88 fa 3b 9a f9 3c 3c 5c bc 3f bc 91 6c 33 3d
       0.0076456508 0.011534119 -0.011702623 0.04380471
000040 b8 db 96 bc e1 9b dc 3c 7c 07 be bc 08 9b 84 bc
       -0.018415317 0.026929798 -0.023196928 -0.016187206
000050 39 9c 0b 3b 84 bd cd bc 89 85 9a 3c 64 63 8c bc
       0.0021302833 -0.025114782 0.018862503 -0.017137237
000060 14 03 b7 bc 17 3b 1b bc a9 c2 ad bc 9d 6a b0 bc
       -0.022340335 -0.009474537 -0.021210985 -0.021535212
000070 74 cf ab bc 5a b9 eb bb 2f 20 c7 bc bf 98 98 3c
       -0.020972945 -0.0071937265 -0.024307339 0.018627523
000080 a7 07 09 3d 82 de cd bc 68 6e c2 3c e1 3e 83 3c
       0.033454563 -0.025130514 0.023734286 0.016021194
000090 f9 45 cb 3c 0c 4b 3c 3d ac c3 be 3c 07 aa 7e bc
       0.024813639 0.045970008 0.023286663 -0.015543467
0000a0 c3 05 11 3d b0 0f db bc 76 99 ff 3b 4d 34 0a 3c
       0.035405885 -0.026740879 0.0078002764 0.008435321
0000b0 e5 7b bd 3c 29 07 c9 3b 28 e0 58 3c 3a 78 af 3c
       0.023130367 0.0061348868 0.013237037 0.021419633
0000c0 14 85 e7 3c cf 65 fd ba b1 6f 61 3c 1a 0b cf 3c
       0.028261699 -0.001933271 0.013759539 0.025273848
0000d0 c8 ec 01 bd 8b 5a ab 3c c1 e2 2e bd de 9e eb bc
       -0.031719953 0.020917198 -0.042696718 -0.028762277
0000e0 dc b9 fa bb 7f b2 11 bd 44 41 1b 3d 58 7f 9e bc
       -0.0076515507 -0.035570618 0.03790404 -0.019347832
0000f0 fd 33 bd 3c 5f 4e 1b 3d 08 3d 02 3d 2f 05 30 3d
       0.023096079 0.037916537 0.031796485 0.042973693
000100 71 d6 5b bc 1b cb 43 bc 8d 02 a8 bc a1 34 a2 bc
       -0.013417826 -0.01195028 -0.020509029 -0.019800486
000110 c3 8f 7f bc 4f 7f 9d 3c da f7 f9 3c bd 88 3e bc
       -0.01559824 0.019225745 0.030513693 -0.011629281
000120 a5 2b d5 bc 07 47 b5 bc 35 be 20 38 bc 99 2f 3c
       -0.026021788 -0.022128595 3.8324117e-05 0.0107178055
000130 31 9b d5 3b 35 46 c5 3b 9c c1 07 3d 41 43 aa 3c
       0.0065187444 0.006020332 0.033143625 0.020784022
000140 b1 e9 9a bb 3f cf 0f 3c 01 a2 20 3c a1 c6 19 bc
       -0.004727565 0.008777439 0.00980425 -0.009385736
000150 d8 ea 34 3c a5 dd ae bc 5a d8 82 3b 16 04 82 bc
       0.011042319 -0.021345923 0.0039930763 -0.015871089
000160 61 a9 ba bc ae db 9a 3c e5 92 41 3c dd e9 0f 3d
       -0.022785844 0.01890358 0.011814808 0.03513514
000170 ce 71 a9 3c 94 06 e4 3c 43 85 13 bc 6d 05 e2 3c
       0.02068415 0.027835168 -0.00900394 0.027590478
000180 e9 04 1a 3c f8 b9 0d 3d 3d 3d e7 bc c3 12 87 bc
       0.009400585 0.03460118 -0.028227443 -0.016488438
000190 e0 16 fb 3c 32 42 92 3c a7 2e 72 3c cf 86 f4 3c
       0.030650556 0.01785383 0.014781631 0.029849438
0001a0 0a 32 7a 3c 4e e9 db 3c b1 d3 8c bc f4 b3 d0 bc
       0.015270719 0.026844647 -0.017190786 -0.025476433
0001b0 b2 eb 66 bc 15 7a c4 3c 0a 77 b5 bc fe 8a c5 3c
       -0.01409428 0.023983994 -0.022151489 0.024114128
0001c0 32 b2 d3 bc 0f 0d d9 3c e6 4b dc bc b9 84 af 3c
       -0.025841806 0.026495485 -0.02689166 0.021425592
0001d0 0e 71 b2 bc 9a cc 80 bc d2 54 15 3c d8 04 90 bc
       -0.021782424 -0.015722562 0.009114461 -0.017580435
0001e0 38 1f 05 3d 37 fd 9f 3c 18 6d 43 bc 34 8f ad 3c
       0.032500476 0.019529922 -0.011927865 0.021186449
0001f0 a0 44 ca bc ca 0d b9 3c 4f 62 af 3b 99 4a 81 3c
       -0.024690926 0.022589583 0.0053522955 0.015782641
000200 b9 2c 8d 3c cb e3 13 bb 16 a7 8b 3c ea 2c 14 bd
       0.01723324 -0.0022566195 0.017047446 -0.036175646
000210 b7 36 39 bc 1a 7a d0 3c bd fb b5 bc de 87 d5 bc
       -0.011304549 0.025448848 -0.022214765 -0.026065763
000220 a2 f0 4e bc 64 c4 98 3c 50 81 5d 3c 8b ed c6 3c
       -0.0126306135 0.018648334 0.0135196 0.024283191
000230 20 94 84 bc 12 ee bf bc df 36 94 3c 4a 36 0a bd
       -0.016183913 -0.02342895 0.01809257 -0.03374318
000240 fe c2 aa 3c c2 ed 11 bd f1 c6 61 3c 0b f5 49 3c
       0.020844933 -0.035627134 0.0137803415 0.012326489
000250 ed ae b1 bc 05 99 dd 3c 17 1a 0f bc eb 65 d3 3c
       -0.021689856 0.027050504 -0.008734248 0.025805434
000260 a3 5c 6d 3c 47 62 b3 3c 23 4b d7 3c e8 63 08 3d
       0.014487418 0.021897448 0.026280945 0.033298403
000270 12 28 da 3c 69 37 f0 3c 16 1f 8c 3c 0c 40 cb bb
       0.026630435 0.029323297 0.017104667 -0.0062027033
000280 2c 8c ed bc fc 9f 27 3b ca f7 53 bc a2 2e dd bc
       -0.028997503 0.0025577536 -0.0129374955 -0.026999775
000290 81 0e eb bb ba 43 e5 bc db 35 a5 bc c7 02 23 3d
       -0.00717336 -0.027986396 -0.020167282 0.03979757
0002a0 15 b7 01 bd 59 49 6a 3c fd 20 b3 bc 60 d7 99 bc
       -0.03166874 0.014299714 -0.021866316 -0.018779457
0002b0 c4 99 9d bc 05 ad 97 bc c1 e9 94 bc c5 5f 30 bc
       -0.01923836 -0.01851512 -0.018177869 -0.010765021
0002c0 0d dd 03 bd 3d ad e2 3b 3f 8b 80 bc d5 86 98 bc
       -0.032193232 0.0069176243 -0.015691398 -0.01861898
0002d0 c4 53 73 3c 5c 1a bc bc 3b 8d dc 3c c6 55 1c 3d
       0.014851514 -0.022961788 0.026922813 0.038167737
0002e0 7a c6 de 3c ed 75 0c 3d 75 53 ed bc a8 49 98 3b
       0.02719425 0.03429215 -0.02897046 0.0046474524
0002f0 62 e3 f3 bc b1 68 b1 bc 5d 8e ba bc 9f b4 d0 bc
       -0.02977151 -0.021656366 -0.022772962 -0.025476752
000300 77 79 eb 3c 41 b6 f2 3c 25 9e 07 3c 70 6f c9 3c
       0.028744442 0.029627921 0.008277451 0.02458927
000310 5d bd e7 3c 7c bb a5 bc 11 ec 74 bc 2a 12 00 3d
       0.028288538 -0.020231001 -0.014948861 0.031267323
000320 9d f8 6e 3c e6 70 66 3c e7 0b fa bc 92 e6 ad bc
       0.014585641 0.014065003 -0.030523254 -0.021228109
000330 e6 d3 00 bd 15 c3 85 bc c2 b4 dc bc e4 b8 b7 bc
       -0.031452082 -0.016328374 -0.02694166 -0.02242703
000340 db 48 91 3c dd f2 a7 bc 27 b3 f6 bc aa d9 12 3d
       0.017734936 -0.020501548 -0.030114723 0.035852112
000350 76 f2 d5 bc f4 1d 82 3c f0 83 af bb 77 f2 95 3b
       -0.026116591 0.015883423 -0.0053563043 0.004576023
000360 b5 a4 ee 3c 72 1c ab bc 9d ee a9 bc c7 13 93 bc
       0.029131273 -0.020887587 -0.020743662 -0.017953767
000370 b6 7b ea bc 14 e0 97 bc 92 2e 15 3d 6c e7 b5 bc
       -0.028623443 -0.018539466 0.036421366 -0.022205077
000380 44 6d 9a bc f3 33 c6 bc 29 b2 9c 3c 35 71 d2 3c
       -0.01885093 -0.024194693 0.019127922 0.025688747
000390 78 f2 30 bd 7f 01 e5 bc c2 ec be bc dc b2 9c bc
       -0.043199986 -0.027954815 -0.023306254 -0.019128256
0003a0 61 cc b1 bc 56 e8 d8 bc 7b 19 26 3c 13 ba 16 3d
       -0.0217039 -0.026477974 0.010137911 0.036798548
0003b0 fa 8d 14 3b 83 8e 13 bd a2 bd 8d 3c 34 42 5d bc
       0.0022667632 -0.03602458 0.017302338 -0.013504554
0003c0 ad 0a 99 3c 61 72 59 bc b4 b9 24 3c dc 32 09 bd
       0.018681848 -0.013271899 0.010054041 -0.03349577
0003d0 19 f2 3a 3c 87 12 9f 3c f9 f7 d1 bc 9b 36 02 3c
       0.01141026 0.019418014 -0.025630938 0.007947589
0003e0 58 70 15 bd 20 65 7f bc ac 37 05 3d 8b 0f f7 bb
       -0.036484092 -0.015588075 0.032523796 -0.0075396947
0003f0 4c 19 92 3c 13 2b e6 bc fe e7 5c bc d9 49 af ba
       0.017834328 -0.028096711 -0.013483046 -0.0013373449

action_model._discrete_distribution.branches.2.bias f4 [2]
000000 a3 0e 44 3c a1 0e 44 bc
       0.01196638 -0.011966378
