results/PressButton/IL-20ksteps-test1/PressButtonAgent/PressButtonAgent-40004.onnx (onnx, 83197 bytes, 11 tensors)

discrete_act_size_vector f4 [1, 3]
000000 00 00 40 40 00 00 40 40 00 00 00 40
       3.0 3.0 2.0

network_body._body_endoder.seq_layers.0.weight f4 [128, 6]
000000 53 66 80 3e c4 11 18 3d bc 3b 3e 3e e9 7d b8 3e
       0.25078067 0.037126318 0.18577474 0.36033562
000010 32 3d 5e bf 67 0b e9 3e 78 20 6b 3e 93 16 38 bf
       -0.86812127 0.45516512 0.22961605 -0.71909446
000020 20 fa 2a bf 36 b4 81 3e 15 8c 7b bc c8 0c 06 3f
       -0.6678791 0.25332803 -0.015353222 0.5236325
000030 22 40 56 3f 3f c8 d4 be fe 7d c2 be 6d 03 b4 be
       0.8369161 -0.41559026 -0.3798675 -0.35158864
000040 ed 16 0d 3e 59 30 fa be 02 d8 33 3f 89 1a 57 be
       0.13778277 -0.4886501 0.70251477 -0.21006216
000050 b7 80 9c be 85 c4 49 be cd a6 0f 3e a3 8c c4 be
       -0.30566952 -0.19703873 0.14028473 -0.38388547
000060 35 23 9d be 9b 51 f9 bd fa c0 16 bc 10 ea 9f 3e
       -0.30690923 -0.12173768 -0.009201283 0.31233263
000070 b8 1e 5d 3f 4e f5 09 be 80 5f dc 3e d9 fc 7a bd
       0.86375 -0.13472483 0.4304161 -0.06127629
000080 f4 ab d1 be 05 cc 21 3f 7a 17 dd 3e f3 fc eb bd
       -0.40951502 0.63201934 0.43181974 -0.115228556
000090 0f 5b b8 be 27 59 0a bf 71 73 19 be 6f a2 71 bd
       -0.36006972 -0.54042286 -0.14985444 -0.0589928
0000a0 fe 80 c9 3e d8 84 34 be 69 77 9f 3f 7a d1 2d 3f
       0.39356226 -0.17628801 1.2458316 0.6789776
0000b0 10 ea b4 be 7d 4b 98 be 17 5e 35 bf 74 e4 dc 3e
       -0.35334826 -0.29745093 -0.70846695 0.43143046
0000c0 cb 0f 07 3d 19 19 db be d8 79 a4 3c 74 4b e3 3e
       0.032974046 -0.42792585 0.02007763 0.44393504
0000d0 89 74 37 3e c0 0d bf bd d7 2d 7c bf d8 03 2e 3f
       0.17915548 -0.093287945 -0.98507446 0.67974615
0000e0 3a 60 57 be 4b 76 96 3e ce 16 d1 3e 22 58 6a 3e
       -0.21032801 0.29387125 0.4083771 0.22885182
0000f0 85 dd 51 3d 42 96 e0 bd 07 f2 8c be f5 c7 70 be
       0.051236648 -0.109661594 -0.27528402 -0.23513778
000100 65 a6 e2 bd 01 3a be be 32 8f 58 be 97 e8 33 bd
       -0.110668935 -0.37153628 -0.21148375 -0.043922987
000110 9a 98 e6 be 22 70 e2 be cb cf fa 3e 50 9d 8a bc
       -0.450383 -0.44226176 0.48986658 -0.016920716
000120 f6 9a d3 be 6b ab 83 be 92 3e 2d 3e 68 7a 58 be
       -0.41329163 -0.2571672 0.169184 -0.21140444
000130 4f d1 18 3e 75 77 6b 3f 67 0a c0 3e c0 f6 fb 3d
       0.14923595 0.9197915 0.37507936 0.12302923
000140 b7 10 37 bf 47 1a 01 bf 9a b3 b7 3e 3b 41 05 3f
       -0.7150988 -0.5043072 0.35879213 0.5205266
000150 d0 6d 16 bf fe 3e 53 be b8 49 45 3e e0 ae 3d 3e
       -0.5876131 -0.20629498 0.19266403 0.18523741
000160 d7 61 25 be 97 6c c2 3d 19 91 71 3f 3e 9e 4c 3f
       -0.16150604 0.09493368 0.94362026 0.7992896
000170 f0 21 70 bf 81 2b db 3e 4b 6f eb 3e 60 11 02 3f
       -0.93801785 0.42806628 0.45983347 0.5080776
000180 5c e5 1f be 99 5c 10 bf ee 5b 0c 3e 26 ae 10 bf
       -0.15614837 -0.5639129 0.13706943 -0.5651573
000190 83 06 c5 3e 53 cc 36 3f 9a 89 55 be 42 df 5f 3e
       0.3848153 0.71405524 -0.20853272 0.2186251
0001a0 26 2b 55 be c8 ff f3 be 41 12 38 be 1d 79 52 be
       -0.20817241 -0.47656083 -0.17975713 -0.20554014
0001b0 53 ca 7e bf 2d e7 c1 be ec c7 5e be bd 66 40 3f
       -0.9952747 -0.37871686 -0.21755952 0.75156766
0001c0 17 7a 55 3e e6 88 01 bf 03 8e 02 3e a7 31 0a 3f
       0.20847355 -0.50599515 0.12749486 0.53982013
0001d0 1e 27 07 3e 6c 7b 1c bf b0 50 a3 be 9e a2 58 bf
       0.13198516 -0.61125827 -0.31897497 -0.84623134
0001e0 dd 0d ce 3e 79 bb 2b be ad d7 54 be 9c a7 6d 3f
       0.40244952 -0.16770734 -0.20785399 0.92833877
0001f0 c5 3a 93 3e 5e 6e f6 3b 17 e7 cf 3e 57 27 6e 3c
       0.28755775 0.007520481 0.40605995 0.014535747
000200 f4 5e 23 bb 94 98 ec 3e f1 74 e0 be ef 4c be 3e
       -0.0024928423 0.46210158 -0.4383922 0.3716807
000210 ba c4 e9 3e 1e b1 96 3d 10 89 1f 3f 95 05 38 bd
       0.45657903 0.07358001 0.62318516 -0.0449272
000220 62 0d 18 3f a5 dd a2 be 99 42 a3 3c e0 68 a5 be
       0.5939542 -0.31809726 0.019929217 -0.32306576
000230 5a 54 20 bf 24 38 5c 3b e2 7e 8e 3e bc ea 8c 3e
       -0.6262871 0.0033602798 0.2783118 0.27522838
000240 f3 a0 a9 3e ed 5e ff 3e f8 e3 f6 be 04 eb 28 bd
       0.33130607 0.4987711 -0.482208 -0.041239753
000250 ff f9 21 be d3 49 88 be 88 70 cc 3d 56 2f 1f be
       -0.15818022 -0.26618823 0.09982401 -0.15545401
000260 88 06 c3 3e 90 da e0 be 20 96 22 3f c0 31 33 3e
       0.3809092 -0.4391675 0.6351032 0.17499447
000270 aa 36 92 3e 77 e7 f4 3e 8a 6e 85 3e 68 f0 48 be
       0.2855733 0.47832844 0.26060897 -0.19622958
000280 ed 87 b6 3e a8 9e e7 3d f4 3e 9a 3e a2 63 a2 be
       0.35650578 0.11309558 0.30126154 -0.3171664
000290 eb 74 be be 58 20 b2 bd 31 dc 0f bc c2 ff 24 bf
       -0.37198576 -0.08697575 -0.008780525 -0.64452755
0002a0 64 9f 08 3f 03 a2 99 3e 3d 40 3b bf 21 8e 46 be
       0.5336821 0.30006418 -0.73144895 -0.19390155
0002b0 46 65 c3 be 82 6a 3f 3e 8c 4c 5b 3e 50 61 17 be
       -0.38163203 0.18692973 0.21415919 -0.14783216
0002c0 74 20 60 be c2 c4 8a 3e 1f 00 a2 be 60 02 22 3e
       -0.2188738 0.2710324 -0.31640717 0.15821218
0002d0 65 cf 41 bc 2e 4e d8 3e c8 93 fe 3e fb 55 8e 3e
       -0.011829232 0.42247146 0.49722123 0.27799973
0002e0 de 3d df 3e 09 4c 2a be 0c a3 e8 3e a2 6a 5e bf
       0.43601888 -0.16630568 0.45436895 -0.8688146
0002f0 e9 e2 64 be a8 c4 e8 bd e9 26 ac be 0e f1 08 be
       -0.22352184 -0.11365634 -0.33623436 -0.13373205
000300 52 3d fb 3e 32 2a 60 3f c6 2c 90 3e d6 a9 fb 3d
       0.4907022 0.87564385 0.2815916 0.12288253
000310 a3 77 58 3e 20 93 1a 3f fd 0a e7 3e f6 61 95 3f
       0.21139388 0.60380745 0.4512557 1.167052
000320 e9 14 89 3e fc 99 06 3f e7 cc 41 3a 91 4c 9c 3e
       0.26773766 0.5257871 0.00073928986 0.30527166
000330 65 ba a2 3c 78 16 27 3f cd 7a 1e 3d 8e 09 e7 bd
       0.01986427 0.6526866 0.03869133 -0.11281119
000340 c2 cb cc 3d 18 5a 7f 3f 92 12 6f 3e 13 2a 0d 3f
       0.09999801 0.9974685 0.23346928 0.55142325
000350 dd 00 a1 be 86 15 8b bd ea a0 71 3f 23 0d b4 3c
       -0.3144597 -0.06791215 0.9438616 0.02197892
000360 e4 92 0e bf 04 14 eb bd 00 5c 46 3c 2d fb 18 be
       -0.5569289 -0.11478427 0.012106895 -0.14939566
000370 1e ff 6b be 21 88 71 be 91 95 fc bc 04 e1 78 3e
       -0.23046538 -0.23587085 -0.030833038 0.24304587
000380 94 1e 1b 3e ee a8 3a 3e 66 e7 cf 3e 60 57 0c 3f
       0.15148383 0.18228504 0.4060623 0.54820824
000390 17 1f 66 bd 2a 04 02 bf 56 0f f4 bb e9 c8 49 bd
       -0.056181993 -0.50787604 -0.0074481172 -0.04926387
0003a0 8c ee 49 be a2 8c 4e 3e 5b f0 a3 3e 85 93 25 3e
       -0.19719905 0.20170835 0.32019314 0.16169555
0003b0 e1 9c 98 be 38 f6 e0 3e 23 f1 a5 be 46 24 2d bd
       -0.2980719 0.4393785 -0.32410535 -0.04227092
0003c0 9b ce fb be d6 86 0c be cb 6b fd be de c6 a4 3e
       -0.49181065 -0.13723311 -0.49496302 0.32182974
0003d0 e4 c1 6f be 2d 71 fa be 09 99 1e 3e 67 32 5f 3d
       -0.23413807 -0.4891447 0.15488066 0.054491427
0003e0 16 f3 b6 be 60 8e 3f 3f ef 9d 82 bd a2 70 14 be
       -0.35732335 0.7482662 -0.0637778 -0.14496091
0003f0 5a cd c3 bd 61 01 f3 bc 42 f1 b9 bc 4c 15 b9 be
       -0.09560652 -0.029663743 -0.022698049 -0.3614906

network_body._body_endoder.seq_layers.0.bias f4 [128]
000000 0b 8f 82 3c cd 18 bf bc 3d 06 03 3d ef 51 3d 3d
       0.015937349 -0.023327256 0.03198837 0.046220716
000010 92 8b d3 bc c0 d5 3e 3c c8 f8 a5 bc 39 19 0a 3d
       -0.025823388 0.011647642 -0.02026023 0.03371546
000020 28 20 bc bc 00 b3 da bc 68 3c a6 bc f5 9a ab bc
       -0.022964552 -0.026696682 -0.020292476 -0.020947913
000030 71 50 f9 bb a3 ac 16 3c d9 c1 f7 3b 15 33 0a 3d
       -0.0076084663 0.009196433 0.0075609502 0.033740122
000040 5a 7f a6 3a 29 7c 8a bc 9f 16 1c 3b 6d 75 f6 3c
       0.0012702749 -0.016904907 0.0023817194 0.03008529
000050 69 6e c3 3c b3 79 8c 3c 87 1a 87 3d d2 5d e2 bc
       0.023856359 0.017147874 0.065968566 -0.027632628
000060 b9 a2 1f 3d e7 86 43 3c 44 28 19 3d fa 93 00 bd
       0.038973544 0.011934019 0.037391916 -0.03139112
000070 d4 02 08 3d 5f 17 01 3d 77 a0 a9 3c 16 80 b6 bc
       0.033205822 0.03151643 0.020706398 -0.022277873
000080 c9 f1 2b 3d 20 af c8 3c e2 29 10 bc 59 d9 80 3d
       0.04197863 0.024497569 -0.008799048 0.06291456
000090 a8 29 a8 bc 63 11 6d bb 97 a4 01 bd 6d 7c 92 3c
       -0.020527676 -0.0036173693 -0.031651106 0.017881596
0000a0 ae b4 09 3d b5 00 99 3c 08 18 ad bc 63 55 25 3d
       0.033619575 0.018677095 -0.021129623 0.040364634
0000b0 b4 c5 83 bb 8f 09 b6 bc d2 31 4d 3b ac 34 1c ba
       -0.004021371 -0.022221355 0.0031310213 -0.00059587765
0000c0 ff 0e 13 bb 86 28 50 bc 04 84 ba 3c ea c9 9c 3c
       -0.0022439358 -0.012704974 0.022768028 0.019139249
0000d0 b7 9c 3b bb 13 e9 68 bb c6 5f 07 3d 74 cf cc 3c
       -0.0028627345 -0.0035539314 0.03305032 0.025001265
0000e0 20 16 ce bc 18 27 aa bc 64 d4 c5 3c 6e 5f a2 bc
       -0.025157034 -0.020770594 0.024149127 -0.019820895
0000f0 8b e3 72 3c 4d 7c 16 3d 3d 23 8c bc e6 64 46 3c
       0.014824758 0.036739636 -0.017106647 0.012109017
000100 83 57 93 3c b0 2a 05 3d 34 f8 7e 3d 0d 30 07 bc
       0.017986065 0.032511413 0.062248424 -0.008251202
000110 9b 4b e2 3c 71 ea d6 bc 37 50 c6 3c 3a cb 16 3d
       0.027623942 -0.026234837 0.024208171 0.036814906
000120 25 71 41 3a 09 e5 b5 3c a3 17 f0 3c 32 f6 0a bd
       0.00073792256 0.022203939 0.029308146 -0.033926196
000130 91 91 09 3d 7b 32 6e bc d9 e6 03 bd 7f f5 6e 3d
       0.03358609 -0.014538403 -0.032202575 0.058339592
000140 c0 48 40 3b 34 06 60 3d a0 b4 2b 3b 59 ae e9 3c
       0.0029340237 0.054693416 0.002620019 0.028525518
000150 cc e8 ec 3c 17 25 d4 bc 8c d8 da 3b d1 9e 0d 3d
       0.0289196 -0.025896592 0.0066786464 0.034575287
000160 83 39 6c 3c dd f0 0a 3d cd ba 0c 3d 81 d9 c6 bc
       0.014418009 0.03392111 0.034357835 -0.024273636
000170 80 92 a6 3c 4e 16 c1 3c 9d 6a bb 3c 05 7d 72 3d
       0.020333529 0.023570206 0.022877986 0.05920126
000180 b6 d5 80 3c 53 c0 8b bb ef 4f c2 bc db e9 53 3c
       0.015726905 -0.00426487 -0.023719756 0.012934173
000190 47 f8 af bc d3 6a 02 3d 16 90 cf bc 19 e8 78 3c
       -0.021480693 0.031840157 -0.02533726 0.015192055
0001a0 1d fa 62 3c a7 0d a9 3c 53 0b d1 bc 6d 1b e6 bc
       0.013853577 0.020636393 -0.025518095 -0.02808925
0001b0 90 dc 28 3d 76 37 56 3d 19 0d ea 3a 82 0f 97 3d
       0.04122597 0.052298985 0.0017856687 0.07376005
0001c0 90 8e 92 3c 20 07 b8 3a 74 14 d7 3c 70 99 26 bd
       0.017890245 0.0014040209 0.02625487 -0.040673673
0001d0 13 30 cf 3c 62 4e 57 3d e9 f7 a7 3c eb e4 98 3c
       0.025291478 0.052564986 0.020503955 0.018663844
0001e0 77 b3 d3 bc 5b 4e 09 bc a8 5a 88 3d 8a 78 d4 3b
       -0.025842411 -0.008380498 0.06657916 0.006484096
0001f0 85 58 38 3c ab 9b bb 3c 3f 00 8e 3d 21 79 3c 3d
       0.011251573 0.022901377 0.06933641 0.046013955

network_body._body_endoder.seq_layers.2.weight f4 [128, 128]
000000 59 75 71 3c 12 34 03 3e 9e 7b bb 3d 73 e1 9b 3c
       0.0147374505 0.12812832 0.091544375 0.019028401
000010 18 5e 77 3c 6e 74 5b 3e 3f 86 bc bd 04 d2 1b 3d
       0.015098117 0.21431133 -0.09205293 0.038042083
000020 4e 59 5f 3d 78 59 19 be 18 7b 41 3e 46 1f 91 3d
       0.054528527 -0.14975536 0.18894613 0.07086043
000030 45 4d 75 bc f0 c7 31 3d 00 42 06 bc ed 58 98 3d
       -0.014972036 0.043403566 -0.008194447 0.07438836
000040 56 b7 d5 3d a2 bc a0 3c e3 c1 99 3d e1 97 9f bd
       0.10435359 0.019621197 0.07507684 -0.077926405
000050 34 e2 9a bd 91 91 12 bd 20 9b fa bc 6e ab 16 3d
       -0.07562676 -0.035783354 -0.030591547 0.03678458
000060 6e ea 55 3e 51 ce de bd b0 8e 98 bd de 92 ba bc
       0.20890209 -0.108791955 -0.074490905 -0.02277511
000070 d0 97 19 3e cf d9 bf 3d 92 99 b6 bd 22 ff db 3d
       0.14999318 0.093677156 -0.0891601 0.10742022
000080 be 7a 73 bc 22 79 32 bc 36 2f 0e bd f9 e0 9e bc
       -0.014860807 -0.010893138 -0.034712993 -0.019394385
000090 62 16 53 bd 19 74 2f be 61 51 fe 3c 26 3b 95 bb
       -0.051535018 -0.17134131 0.031044664 -0.00455417
0000a0 60 e8 ad 3b 37 bd d1 3d 54 c8 07 3e c5 8f 95 bd
       0.0053072423 0.10241168 0.13260013 -0.073028125
0000b0 1d 55 cb bb 17 36 ad 3d a6 e1 4b bd e8 20 35 3d
       -0.0062052147 0.084575824 -0.049775742 0.044220835
0000c0 27 66 ad 3c 99 51 c2 3a 5e 6e ca bd 04 7e 14 3d
       0.021166874 0.0014825343 -0.09884332 0.03625299
0000d0 ff 2c 67 3d 96 c8 0e 3e 91 db 82 bd 52 b5 57 3d
       0.056439396 0.13943705 -0.06389535 0.052663155
0000e0 88 ce a2 bd f0 97 83 3d fb 4d bb 3d 3e fa b7 3d
       -0.07949549 0.06425464 0.09145733 0.08983277
0000f0 5c 30 fc bc 87 97 d8 3c c4 d0 dc 3d 7b f9 d4 3d
       -0.030784778 0.026439441 0.107820064 0.10399147
000100 f5 56 15 be 13 c3 04 3e 4f 54 a3 3d 91 58 48 3d
       -0.14583953 0.1296504 0.07975065 0.04891259
000110 e2 2d 17 3d 61 b9 6d 3d 28 b1 dd bd 92 ec a9 3c
       0.03690899 0.05803812 -0.108248055 0.020742688
000120 7a 7f 48 3e 93 a5 90 bb 74 49 a2 bd 0a da 04 3e
       0.19579878 -0.0044142692 -0.07924166 0.129738
000130 65 d3 6c 3c 8b 2c e9 3a 4a 2a cb 3b 26 4c 05 3d
       0.014454697 0.0017789764 0.0062001096 0.032543324
000140 89 1b ea 3d c1 ad 4e 3d b7 96 99 bc 62 a3 8e bd
       0.11431033 0.050458673 -0.018748624 -0.069647565
000150 1a cb e3 bd e7 ba cf bc b2 44 9a bd 0e ce 6f bd
       -0.11122723 -0.025357677 -0.07532634 -0.05854612
000160 96 7c 97 bd 48 fd 01 3d 15 c9 60 3d 94 c6 92 bd
       -0.0739681 0.03173569 0.054879267 -0.07166782
000170 55 26 24 bd 7c 41 c2 bc 7b be c4 bb 2c 87 09 be
       -0.04007562 -0.023712866 -0.0060041524 -0.1343047
000180 7b 78 0c be a8 7e d7 bd b7 b2 0c be e7 0a 02 3d
       -0.13717835 -0.10522205 -0.1374005 0.03174868
000190 e2 3d 6b 3b 90 66 e5 bc 70 3e 26 3e d4 1e 46 bd
       0.003589504 -0.028003007 0.16234756 -0.048369244
0001a0 ee e5 a8 bd 8b a9 b8 bd 35 d0 49 bc 5f 2c e7 3d
       -0.082469806 -0.09016713 -0.012317707 0.1128776
0001b0 62 79 4e 3d 76 15 50 bd 66 7e 6d bd 56 1a 13 3e
       0.05040873 -0.050801717 -0.05798187 0.14365515
0001c0 fa 1e c1 3c b0 8d 91 3d 1c 4d e0 bd dc a6 cc 39
       0.023574341 0.07107103 -0.109522074 0.00039034232
0001d0 ed 10 04 bd 7f 2f 4d be 18 8e 78 bd 9d 1e 79 3d
       -0.032242704 -0.2003765 -0.060682386 0.06082021
0001e0 7b 63 0d 3e bb 95 ec 3d c1 34 7e 3d 26 6f 9b bd
       0.1380748 0.11551996 0.06206203 -0.07589559
0001f0 bf cc b1 3c b2 35 0a be 08 d5 ad 3b 6d 84 10 be
       0.021704076 -0.13497046 0.0053049363 -0.14113016
000200 88 d9 9c bd d0 95 9a be 6e 94 98 3d 97 6b 12 3e
       -0.07658678 -0.30192423 0.07450186 0.14298855
000210 89 ff 92 3c fd 08 61 3d cf 9b 21 3e 75 f5 af bc
       0.017944114 0.054940213 0.15782093 -0.021479348
000220 c1 1f bc bd 9a 3d b0 3d 63 3d 15 3e 90 60 06 3d
       -0.09185744 0.086054996 0.14574198 0.032806933
000230 56 63 6a be fb 6f 72 3d a8 b3 5a 3d ac 4f db 3d
       -0.22889456 0.059188824 0.05339399 0.107085556
000240 ac e4 d3 3d 54 55 84 bd 5f fb 1a 3d 78 4d 9e bc
       0.1034635 -0.064615875 0.037837382 -0.01932405
000250 e0 bb 5f 3d a4 f5 92 bd d0 28 89 3e 5f 75 a6 ba
       0.05462253 -0.071757585 0.2678895 -0.0012699774
000260 6c 43 63 3e 1d da 0c 3c 72 7e 11 3e b5 c0 5b 3c
       0.22193688 0.008596924 0.14208391 0.013412644
000270 a4 46 54 bd 43 ba 32 bd 7c d9 40 3d cf 51 48 be
       -0.05182518 -0.043634664 0.04708241 -0.19562458
000280 e6 e3 f4 3b ea 78 1b 3e 03 1c 16 3d 8c 10 24 3e
       0.0074734567 0.15182844 0.036647808 0.16021937
000290 e1 22 e4 bd b7 41 08 bd e9 72 0e be 32 f2 2b 3d
       -0.11139465 -0.033265796 -0.13911022 0.041979022
0002a0 0f 55 86 3c cc 2b a2 bd 9a ab dd bd ad 69 40 3d
       0.016397981 -0.0791851 -0.10823746 0.04697578
0002b0 91 52 29 3e 63 7c c7 bd b2 84 21 be fd 31 3f 3e
       0.16535403 -0.09740522 -0.15773275 0.18671413
0002c0 2f 0a 81 3d 9d d5 ca 3d be 80 4d bd c8 01 a6 bd
       0.063007705 0.09904025 -0.050171606 -0.081058085
0002d0 8d 8d 2a 3d e0 6a 93 3d 32 23 35 bb 93 fe c5 bc
       0.0416389 0.07198119 -0.0027639386 -0.024169242
0002e0 9f 37 3f bc 5a b2 00 bc 1f 0e 8c bd b4 46 d0 bd
       -0.011670976 -0.007855022 -0.06838631 -0.101697356
0002f0 e0 f6 92 3b f3 a0 4d 3e ec ed 98 be 63 6a 1a bd
       0.004484996 0.20080929 -0.2986902 -0.037699115
000300 5e 32 8e 3c 37 a8 3f bd d0 1c 5e 3e 34 75 c3 bd
       0.017358001 -0.04679128 0.21690679 -0.09543839
000310 7e f7 d3 3d b1 48 fe bd 09 0e f6 3c cc e1 3a bd
       0.1034994 -0.124162085 0.03003599 -0.045625493
000320 c3 77 b8 3d 69 96 1e 3e 2b ee 66 3c 25 3e c4 bd
       0.09007218 0.15487064 0.01409487 -0.09582166
000330 f9 83 48 3e 1c 08 69 be 10 a3 6d bc a7 8b 94 3d
       0.19581594 -0.22757 -0.014504209 0.07253199
000340 19 05 23 be 35 6b 43 3e 00 99 13 be c2 8a 21 3e
       -0.15919913 0.19083865 -0.14413834 0.15775588
000350 a1 71 ef bd 46 18 e5 3d 1d 77 90 be 3c 5c 0b 3e
       -0.11691595 0.111862704 -0.28215876 0.13609403
000360 7d 5b 1e bd 42 09 0d be 92 b9 9b bc de 43 81 bc
       -0.03866147 -0.13773063 -0.019009385 -0.015779432
000370 e7 3d 81 bb 90 aa 03 3e 64 fa 98 bd 9e 45 8b 3d
       -0.003944147 0.12858033 -0.07469633 0.06800388
000380 f2 dd bb 3d a4 60 b8 3c b5 a8 ef 3d 96 a1 25 bd
       0.09173192 0.02250702 0.117021 -0.040437303
000390 ac 2d f1 bd 8c 18 c7 bd 31 c0 11 be b2 df ac bd
       -0.11776289 -0.09721479 -0.14233471 -0.08441104
0003a0 0f fa 36 be fd 79 6b 3b 65 46 a8 bd 51 09 2d 3d
       -0.17868827 0.0035930865 -0.08216552 0.042245213
0003b0 df be 26 3d 26 a3 1c 3e 41 44 3c 3c bb f9 f1 3d
       0.040709373 0.15296611 0.011490882 0.118152104
0003c0 ea 0d 81 bd 56 dd 7f 3c 83 9d 11 be 8a f2 24 bd
       -0.06301482 0.015616735 -0.14220242 -0.040270366
0003d0 21 bf a4 bd d0 36 7f bd ac 96 bd b9 d4 7e 82 3a
       -0.080442674 -0.062308133 -0.00036161148 0.0009956011
0003e0 c0 f6 1a bd 6c 13 47 bd 7c ea 12 be 80 24 1d be
       -0.037832975 -0.048602507 -0.14347261 -0.15345955
0003f0 ac 18 92 3c d2 d3 62 bd 9a b5 62 3d 73 60 a0 3d
       0.01783403 -0.05537779 0.05534897 0.07830896

network_body._body_endoder.seq_layers.2.bias f4 [128]
000000 52 05 0e bc c3 31 94 3d bd 75 ee 3c 8d 1a 44 3d
       -0.008668261 0.07236054 0.029108876 0.047876883
000010 8b 52 c5 3c 5a c5 55 bc 80 e3 bd 3c 45 5e 75 3d
       0.024087211 -0.013047541 0.02317977 0.059904356
000020 3b 5b ad 3c 49 2c 6c bb f6 53 ca bb 21 1a 86 bc
       0.021161666 -0.0036037138 -0.0061745597 -0.016369881
000030 0d 1c 06 3d d0 a1 bb 3c a6 17 bf 3c 8c 34 02 3d
       0.032741595 0.022904307 0.023326706 0.031788394
000040 58 cb 04 bc 3a 24 dc 3c 82 33 5b bc ce 96 2b 3b
       -0.008105122 0.026872743 -0.01337898 0.0026182416
000050 36 b6 34 3c d8 45 98 bc 9a 05 85 3c c4 21 0e bc
       0.011029771 -0.018587992 0.016238023 -0.008675043
000060 f3 64 9e bb 5f 96 86 bb bb 85 50 bc 63 bc 4b bc
       -0.0048338114 -0.004107281 -0.012727196 -0.012435052
000070 7c f8 88 bc 60 7f 8a bc 22 eb 4e bc dc 65 b5 3c
       -0.01672005 -0.01690644 -0.012629302 0.022143297
000080 ed e0 f2 3c c6 16 24 bc 94 1f 66 3c 8d b3 f1 3c
       0.029648269 -0.010015195 0.014045615 0.029504562
000090 36 7c 0a 3c 34 8d 6e 3d 91 49 60 3d 13 25 14 bc
       0.008452466 0.05824013 0.05475766 -0.009042042
0000a0 10 07 c0 3c af d5 85 bb 9c cd 7a 3c 83 7e 5e 3c
       0.023440868 -0.004084311 0.01530781 0.013579967
0000b0 0b 64 d4 3c 65 df a7 3c 22 a2 8e 3c 47 a1 7f 3c
       0.02592661 0.020492265 0.017411295 0.015602416
0000c0 c4 5c 5b 3d ac 5d 88 3c db 22 ef 3c d5 66 dd 3c
       0.053555265 0.016646229 0.029191425 0.027026573
0000d0 2a 4a 55 bc c3 a2 88 3c 93 6f 69 bc df a1 1a bc
       -0.01301817 0.016679173 -0.014247793 -0.009438007
0000e0 b2 3a ab bc 54 9e 2f 3c a5 dc 04 3d 4c 77 2f bc
       -0.020902012 0.010718901 0.032436986 -0.010709595
0000f0 f8 b5 24 3d 8b 4a 10 3d 9b b7 50 3c 41 e3 a9 3c
       0.0402126 0.03522734 0.012739087 0.020738246
000100 6e 8d 92 bc 80 df 82 bc 06 53 1e bc ff df 75 bb
       -0.017889705 -0.015975714 -0.009663349 -0.0037517545
000110 53 c5 86 bc 24 96 3b 3c d4 fb cf 3c d6 cd 20 bc
       -0.016451513 0.0114493705 0.025388636 -0.0098147
000120 fa c1 ff 3c af 05 41 bc 70 fc 79 3c ec 10 df 3c
       0.031220425 -0.01178114 0.01525794 0.027229749
000130 20 48 63 3c 7d fa 71 3c 72 03 3f 3d fb 72 71 3c
       0.013872176 0.014769194 0.046634145 0.014736886
000140 c5 d8 30 bc 59 a3 de 3c 71 37 82 3c c5 c3 89 bc
       -0.010793869 0.0271775 0.015895577 -0.016816983
000150 da 3b 51 3d cb cd 7e bc cf aa 01 3c 9c ea 03 3d
       0.05108247 -0.015551995 0.007914259 0.032206163
000160 88 76 81 bc 47 62 bc 3c 1e 44 41 3c 20 50 86 3c
       -0.01580359 0.022996081 0.011796026 0.016395628
000170 63 b0 af 3c 11 81 5b 3c 36 4c a1 bc 2b cf 1b 3d
       0.021446412 0.013397471 -0.01968966 0.038039368
000180 f0 ab 39 3c ca b4 85 3c ee f8 35 bc 0e a8 89 bc
       0.011332497 0.016321559 -0.011106713 -0.016803768
000190 f9 f0 fd 3c cf 0a a2 3c af 86 13 3c ec e1 01 3d
       0.030998694 0.019780545 0.009004279 0.031709597
0001a0 41 8f 6e 3c fe 76 ae 3c 3a a1 69 3b 94 4b e7 bb
       0.014560522 0.021296974 0.0035649077 -0.00705857
0001b0 24 70 a1 b8 ba 68 b2 3c 20 20 bf b8 92 bd 68 3c
       -7.697966e-05 0.021778453 -9.1135735e-05 0.014205353
0001c0 86 ae 9c 3c 52 bc 9e 3c 59 21 61 bc ed 28 0a 3d
       0.019126188 0.019376907 -0.013740861 0.033730436
0001d0 63 b6 18 bc a1 db 74 bc e0 ba 84 3c 94 46 b9 bb
       -0.009320828 -0.014944942 0.01620239 -0.0056541655
0001e0 62 8f 3d 3d d9 25 e1 3c 7a 7c 57 ba 62 04 48 3c
       0.04627932 0.027483867 -0.00082201476 0.012208076
0001f0 00 a2 42 bc 4a 45 12 3d f9 c8 24 3d 54 5b 90 3c
       -0.011879444 0.03571061 0.040230725 0.017621674

action_model._discrete_distribution.branches.0.weight f4 [3, 128]
000000 f8 84 07 3d d5 50 2e 3d c8 d7 11 bd 24 4e 47 3c
       0.033085793 0.042557556 -0.035606176 0.012164626
000010 90 76 9b bc e4 9c 09 3d 18 97 d7 bc d3 70 22 3d
       -0.018977433 0.03359689 -0.026317164 0.03965838
000020 66 12 f4 bc b8 3b 0e 3d bd 43 c1 3c a0 d5 a1 3c
       -0.02979393 0.03472492 0.02359187 0.019755185
000030 3b 27 14 bd 70 cd 07 bd c1 44 80 bc e7 9b 21 bc
       -0.036170226 -0.033154905 -0.015657784 -0.00986383
000040 a0 80 88 3c 48 7f 26 bb 96 1d d2 3c 57 9c d2 3c
       0.016662896 -0.0025405455 0.025648873 0.025709314
000050 ca a5 e1 bc d4 41 29 3c d0 1a cd bc 7c ef 63 3c
       -0.027544875 0.010330636 -0.0250372 0.013912078
000060 18 0f 9f 3b a2 9b 1f 3d 1c cf b5 3c 05 a2 ae 3c
       0.0048540942 0.038966782 0.022193484 0.021317491
000070 4a a6 13 3d 55 1b 84 3c 6c 79 18 3c ea 25 f3 bc
       0.036047257 0.016126314 0.009306293 -0.029681165
000080 e1 18 c2 bc 97 6d 39 3c 13 4e 23 bd 2a 84 96 bc
       -0.023693504 0.011317632 -0.03986938 -0.018373568
000090 f0 c1 0d bd e1 c0 49 3d 31 d9 dd 3c 20 a8 7a 3c
       -0.03460878 0.04925621 0.027081104 0.015298873
0000a0 05 58 85 bc 56 fe 73 3a 26 8a 31 bd b9 26 a8 bc
       -0.016277323 0.00093076134 -0.04334464 -0.020526277
0000b0 8c f8 62 bc f8 eb f0 bc 0f 29 69 bc b0 9f 76 bc
       -0.0138532035 -0.029409394 -0.014230981 -0.015052721
0000c0 28 b7 44 3d 7b ff 12 3d 4f 54 58 bc 25 28 60 bc
       0.048026234 0.035888176 -0.0132036945 -0.013681446
0000d0 90 65 cc 3c 3e e5 f8 bc 7a 25 84 3b c7 74 ba 3c
       0.024950773 -0.030382749 0.004032788 0.022760762
0000e0 51 1f aa 3c 3f c5 88 bb 43 71 e1 bb 3e 2b 52 3c
       0.020766886 -0.004173904 -0.006879957 0.012827693
0000f0 02 4f 1e 3b 65 63 94 bc f7 17 2a bd 91 df a7 bc
       0.002415598 -0.018113801 -0.04152676 -0.020492347
000100 c2 9a 86 3c 7e ee b7 3b 88 f9 5a 3c 3d 62 88 3c
       0.016431216 0.0056131473 0.013365157 0.016648406
000110 aa 93 b5 3c cb b0 91 bc 68 11 57 bc a3 c8 06 3d
       0.022165138 -0.017784497 -0.013126709 0.032906186
000120 71 16 aa 3c 85 7e 44 3c 9c 26 17 bd 2c 25 ca bc
       0.020762654 0.011993055 -0.036902055 -0.024675928
000130 75 3e c0 bc ad 7f be bc 37 10 f6 3c 5a 0f 36 bd
       -0.023467282 -0.02325424 0.030037029 -0.044448234
000140 ec 6c c5 3c 17 9a 7f bc e9 b4 15 bc b6 d8 3f 3c
       0.02409979 -0.015600703 -0.009137371 0.011709383
000150 88 48 56 3c 3a 23 bc 3c ad 17 2c bd b3 a9 e8 3c
       0.013078816 0.022966016 -0.042014766 0.028401231
000160 13 03 c6 3c fa 62 ce bc 25 c0 01 bd ca db 65 bc
       0.024171388 -0.02519368 -0.031677384 -0.014029453
000170 f6 60 4d bc e8 ab 57 bd bf 65 5b 3c a9 f2 1f bc
       -0.012535324 -0.052654177 0.013390957 -0.0097624445
000180 ab ae b2 bc c9 e6 d7 bc c8 4d aa 3c f0 09 64 3b
       -0.021811804 -0.026355164 0.020789042 0.0034795962
000190 c6 20 b7 bc 8b cd 04 bd 4d 58 0e bd 14 0b bf bc
       -0.022354495 -0.032422584 -0.03475218 -0.023320712
0001a0 99 72 7a bc 1c ab e2 bc 84 00 e1 3c c9 93 10 3d
       -0.015286111 -0.027669482 0.027466066 0.03529719
0001b0 81 94 f8 3c 11 0d cb bc 6f ca 5a 3c 54 ec 80 bc
       0.03034425 -0.024786504 0.013353928 -0.01573769
0001c0 40 eb c5 bc 3c 69 f4 bc 07 8c d5 3b 53 3d 30 38
       -0.024160028 -0.029835336 0.0065169367 4.2018783e-05
0001d0 05 52 e5 3c 57 fa 29 3c ce 20 56 bc 82 37 89 3c
       0.027993212 0.010374627 -0.013069345 0.016750101
0001e0 dd f2 58 3d d1 7c ff bc 39 31 7f 3c 10 65 a4 bc
       0.052965987 -0.031187447 0.0155757 -0.020067722
0001f0 c3 a3 05 3c f5 42 b0 3b e7 af fe 3c b1 1b 80 bc
       0.00815672 0.0053790757 0.031089736 -0.015638204
000200 76 c5 be bb aa 93 62 bd 78 8a 65 3d bd 4a 79 bd
       -0.005821879 -0.055316605 0.056040257 -0.06086229
000210 10 1e 6a 3c df e4 00 bc 57 8d b6 3c cd f4 80 bd
       0.014289394 -0.007867067 0.022284193 -0.06296692
000220 59 5b 02 3c 44 da 85 bc 85 18 9b bc f1 f7 ed 3b
       0.007956349 -0.016339429 -0.01893259 0.007262223
000230 22 33 a0 3c fd 2b 8f 3c df 27 af 3d 07 67 2a bd
       0.019555632 0.01747703 0.08552527 -0.04160216
000240 5b e0 ef bc 37 f4 c6 bc 97 8b 15 bc 9e 34 92 bc
       -0.029281786 -0.024286373 -0.009127519 -0.017847355
000250 f0 93 b8 ba 27 8a 28 bc 3b e4 95 3c dc f5 81 bb
       -0.0014082175 -0.010286844 0.018297305 -0.0039660763
000260 90 04 b9 bb e2 17 b6 bc 32 10 a2 bc a7 d9 c6 bc
       -0.005646296 -0.022228185 -0.019783113 -0.024273707
000270 62 7d 44 bc 39 a3 a2 3c 9e ca 7d bb cd 02 9f b9
       -0.011992784 0.019853221 -0.0038725506 -0.0003032893
000280 14 1d 8f 3b ff f4 f9 ba a3 03 3f bc 31 83 17 3c
       0.00436748 -0.0019070207 -0.011658582 0.009247587
000290 77 53 ef 3c 9f 50 7c bd 14 46 78 bd e1 ee 55 3c
       0.029214604 -0.061600324 -0.060613707 0.013057441
0002a0 35 bf a5 3a 20 9f 1d 3d 47 6b ec 3c 23 9f d7 3c
       0.0012645485 0.03848183 0.028859748 0.026321
0002b0 1e 12 f6 3b e8 df 18 3c e4 ce 40 3c e8 4c 1a 3c
       0.007509484 0.009330727 0.011768077 0.00941775
0002c0 69 e9 3a bd 71 96 e5 bc 07 18 b1 bc 21 03 ad 3c
       -0.045632754 -0.028025838 -0.021617902 0.021119656
0002d0 72 d6 65 ba 8e 7a 01 3b 7b 39 71 3c 8a 7e bb bc
       -0.00087676116 0.0019756886 0.014723177 -0.022887487
0002e0 cd cc a3 bb 85 33 29 3d 9d b5 5a bd 9d 11 1d bc
       -0.0049987794 0.0413089 -0.053395856 -0.009586719
0002f0 82 18 84 bd 90 b4 f1 bc 69 e3 8c 3c f3 46 a5 3b
       -0.06449987 -0.029505044 0.017198281 0.005043858
000300 51 7e ba bc bd 2b 74 bc c4 6d 54 3b 6e 39 91 bc
       -0.02276531 -0.014903006 0.0032414058 -0.01772758
000310 9f 07 9b bc a4 40 2d 3c ef 69 01 3c 2d 88 a4 3b
       -0.018924532 0.010574494 0.007898792 0.005021116
000320 0e 17 01 bd 2b 8b 84 bc 41 cb 4e 3c bc a3 07 3c
       -0.031516127 -0.016179642 0.012621702 0.008278783
000330 3a 6d a6 3c a2 94 93 3c 29 4c 64 bd 9a 7e aa 3c
       0.020315755 0.01801521 -0.055736694 0.020812321
000340 5e b8 8a 3b 39 e2 13 bc d7 ff b5 3c 0c 45 fa bb
       0.004233404 -0.009026104 0.02221672 -0.0076376256
000350 51 9e a2 bd 90 22 8e bc bc f3 37 3d 51 c5 91 bc
       -0.07940353 -0.017350465 0.044910178 -0.017794283
000360 e8 18 1b bc 54 82 0b 3c 9d 8d 19 3c 60 15 9a 3c
       -0.009466387 0.008514959 0.009372142 0.01880902
000370 eb 9b 6e 3c d7 88 42 3d a3 8b 1e bc 08 10 54 bd
       0.014563541 0.047493782 -0.009676847 -0.0517731
000380 81 c9 08 3d 7a 23 06 3d 11 af 15 3c 99 3e 4a bc
       0.033395294 0.032748677 0.009135977 -0.012344026
000390 fa 37 80 bd 44 7e c0 3b 59 18 ef 3c dd 19 8c 3c
       -0.06260677 0.005874427 0.029186415 0.017102176
0003a0 92 24 c6 3c 48 44 e3 3c 02 48 12 bd 4d 1c fb bb
       0.02418736 0.02774252 -0.035713203 -0.007663286
0003b0 a9 a8 a5 bc f9 6b 1f 3c d2 64 aa bc 08 65 92 3c
       -0.020222025 0.0097303325 -0.020800028 0.017870441
0003c0 3d b8 99 3d 4c c7 46 3c 47 1f 1f bb c3 0d 0c bd
       0.07505844 0.012132477 -0.0024280117 -0.03419281
0003d0 a4 b5 19 bd 6e 02 06 bb c5 60 a8 3c 71 5f 0c bc
       -0.03752674 -0.0020448226 0.020553956 -0.008567677
0003e0 ea a4 85 bd 64 82 95 3c a1 75 c0 bc ba e6 25 3c
       -0.065255955 0.018250652 -0.02349359 0.01012581
0003f0 bf a5 2e bb 28 e8 36 bd fc df 13 bd e7 ab f9 3c
       -0.0026649085 -0.044654995 -0.03610228 0.030477477

action_model._discrete_distribution.branches.0.bias f4 [3]
000000 de c8 13 bc 53 2d 3f 3c 55 aa da bb
       -0.009020058 0.011668521 -0.006673137

action_model._discrete_distribution.branches.1.weight f4 [3, 128]
000000 4d d7 d5 bc 07 a9 e5 3c 18 99 78 37 74 3e ff 3c
       -0.02610364 0.0280347 1.4817597e-05 0.03115771
000010 03 e7 51 3c 0c 19 08 bc 6a 19 00 3d a7 07 d4 3c
       0.012811425 -0.008306753 0.031274237 0.025882555
000020 8b e5 c3 3c 41 f7 7a bc 5c 8c af bc 92 05 9c bc
       0.023913166 -0.015317739 -0.021429233 -0.019045625
000030 1b d0 01 3d b4 35 95 3c ae f3 0d bd 8d a0 07 3d
       0.031692605 0.018214084 -0.03465622 0.033112098
000040 9e 41 97 bc c0 1d 18 3d f2 7a de bc b9 91 a1 bc
       -0.018463906 0.037137747 -0.027158234 -0.019722806
000050 8a e1 5e 3c 15 cf 25 bc e8 ff c4 3c 3a 2f 06 bc
       0.013603577 -0.010120173 0.024047807 -0.008189971
000060 66 3a 7f bc 8d 37 c6 bc c2 0c b2 bc 37 1e 6f bc
       -0.015577888 -0.02419641 -0.021734599 -0.014594606
000070 56 a3 b2 bc b8 fb 1f bd fc e3 07 bd 44 70 16 3d
       -0.0218064 -0.039058417 -0.033176407 0.03672816
000080 4b 52 e6 3c a6 60 97 bc 40 dd 9b 3b fb db fc 3c
       0.028115412 -0.018478703 0.0047565997 0.030866614
000090 85 d4 98 3c 01 4c db 3c 18 df 80 3c 7f ed a6 bc
       0.018656025 0.02676964 0.01573138 -0.020376919
0000a0 93 4b be 3c 76 c5 09 bd cb 03 99 3c 00 d9 6f 3c
       0.023229396 -0.03363558 0.018678566 0.014639139
0000b0 57 c5 ae 3c 79 60 0e 3d 6d ae f8 3c c9 2d c2 3c
       0.021334333 0.034759972 0.03035661 0.023703473
0000c0 67 9a 0b 3d f5 c1 22 bc 45 26 0a 3d 82 0d 11 3d
       0.034082796 -0.009933938 0.033727903 0.035413273
0000d0 4a fc 36 bc 4e 8b 09 3d ef 41 f1 bc 2c 7a 85 bb
       -0.011168549 0.033580117 -0.029450385 -0.004073402
0000e0 c2 a3 1d bd 68 a0 ab bc ae c9 26 3d 9d 3d 0d bd
       -0.03848625 -0.020950511 0.04071968 -0.034482587
0000f0 ff 3d 9a 3c 2f 51 e3 3c 66 5b 83 3c a4 e4 3a 3c
       0.01882839 0.027748672 0.016034793 0.011407051
000100 2a ca 00 bd ca 0a ea bc 72 c7 8b bc bc 5e b4 bc
       -0.0314428 -0.028569598 -0.017062876 -0.02201783
000110 99 a4 df bc f9 12 e6 3c 6c 88 19 3d cc 53 ba bc
       -0.027300166 0.028085219 0.037483618 -0.022745036
000120 37 15 cb 3b e1 73 b0 bc 8f 16 c4 3c 76 b4 d2 3c
       0.0061975974 -0.02153963 0.023936538 0.025720816
000130 b0 87 c6 3c ca 01 aa 3c 6d 8f 0a 3d ba d5 f6 3c
       0.024234623 0.020752806 0.033828188 0.03013121
000140 56 86 97 bc 8b 2e 20 3d 36 26 ed 3b b7 58 c8 bc
       -0.018496674 0.039106887 0.007237221 -0.024456365
000150 b6 1c e1 3c 06 46 da bc 6f 3b dc 3b 97 4d 1a bc
       0.02747951 -0.026644718 0.006720952 -0.009417913
000160 c5 9b 91 bc 6d 10 ea 3c be ee 46 3c 76 3f 82 3c
       -0.017774472 0.028572286 0.0121418815 0.015899401
000170 5f 66 02 3d d6 f9 52 3b f0 4f 17 bd 55 09 a5 3c
       0.03183591 0.003219237 -0.03694147 0.020146051
000180 68 22 26 3c ac 3a a8 3c 1c 49 98 bc 5f 56 f7 bc
       0.010140039 0.02053579 -0.018589549 -0.030192552
000190 fa 50 ea 3c 6d 31 c8 ba 37 9a 19 3c ad d9 07 3c
       0.028603066 -0.0015273519 0.009375147 0.008291644
0001a0 bb df ec 3c 98 b3 d9 3c 35 57 9f bc d8 f9 d1 bc
       0.028915277 0.026574895 -0.019450763 -0.02563183
0001b0 7e 19 dd bc e4 f0 70 3c 84 2b 49 ba d6 c2 37 3c
       -0.026989695 0.01470587 -0.0007674026 0.011215886
0001c0 64 3f 23 bc 13 4d 8d 3c 49 d0 90 bc 92 86 c9 3c
       -0.009963844 0.017248666 -0.017677443 0.024600301
0001d0 5b 29 bf bc c6 14 bc bc 5d 10 ce 3c d8 c5 cc bc
       -0.02333515 -0.022959124 0.025154287 -0.024996683
0001e0 1c 75 ef 3b 56 77 6b 3c 21 8a d6 bc 91 c4 b4 3c
       0.0073076617 0.014371714 -0.026188912 0.022066386
0001f0 a2 a6 19 bc 16 37 60 3c c2 cc 60 bc e5 55 f3 3c
       -0.009378107 0.0136850085 -0.013720693 0.029704044
000200 c1 08 30 3d 00 20 c1 bc 80 e4 76 3c 8a 32 ef bc
       0.0429771 -0.02357483 0.015069127 -0.029198904
000210 28 98 f0 ba 4a f9 7f 3c 15 c6 56 bd ac 33 04 bc
       -0.0018355893 0.0156234 -0.052435 -0.00806896
000220 b1 5a 95 bc e1 8c ea 3c d5 e3 4f 3d 2e 4b c2 3c
       -0.018231722 0.02863163 0.050754387 0.02371749
000230 ef 5d 68 bd 2f 18 46 bd 8e c0 86 bc 27 20 08 bd
       -0.056730207 -0.048362907 -0.01644924 -0.033233788
000240 c0 1d e7 3a eb db d1 bc 93 10 33 3c eb 19 71 3c
       0.0017632768 -0.02561756 0.010929245 0.014715652
000250 84 f8 ef bb a6 1d 9f 3c f9 be 2d bc 9b e2 48 3c
       -0.0073233265 0.019423317 -0.010604613 0.012261058
000260 88 4b c4 bb 87 30 b3 3b 8a 53 86 3b 5f 97 2e 3d
       -0.0059904493 0.0054684314 0.004099314 0.042624827
000270 1a 1a fb ba 91 62 e3 3c cf e8 4c 3c 74 d6 dc bc
       -0.0019157559 0.027756961 0.012506678 -0.026957728
000280 dd 92 42 bd c4 05 d0 3c b2 61 b8 bc 95 8d 8b bc
       -0.04750334 0.025393374 -0.022507522 -0.017035285
000290 24 5a fd bc 6a 83 40 bc 60 ef dd bc 91 0c cd 3a
       -0.030926771 -0.011750082 -0.027091682 0.0015644004
0002a0 13 dd 11 bd c3 b1 3a 3d 19 b2 ac bc 4b 0f d2 bc
       -0.035611223 0.045579683 -0.021081017 -0.025642058
0002b0 8d d9 de bc 31 04 30 bd ac 3b 13 bd a0 91 a5 bc
       -0.027203346 -0.042972747 -0.03594558 -0.020211041
0002c0 57 db e9 bc 77 01 6e bc c4 cf a3 bc ec 85 ae bc
       -0.028546972 -0.014526716 -0.019996531 -0.021304093
0002d0 30 e1 75 3c 33 b3 8a bc 1d 8b 32 3d c3 cf d5 3b
       0.015007302 -0.016931152 0.0435897 0.0065250113
0002e0 cf 94 07 3d 65 f6 df 3b a9 b9 08 bc 5a 56 bb bb
       0.0331009 0.0068347924 -0.008345046 -0.005717081
0002f0 90 4c 4d bc 4f 4f 07 bb 95 20 01 bd 39 09 40 bc
       -0.012530461 -0.0020646637 -0.031525213 -0.011720949
000300 fa e6 a4 ba a7 6e 6f 3c 7b 20 b4 3c 80 dd c8 3c
       -0.0012581043 0.014613784 0.021988144 0.024519682
000310 ce e0 db 3c c7 76 ab bc 5d 3b 5f b9 e9 81 78 bc
       0.026840594 -0.02093066 -0.00021289052 -0.015167692
000320 f1 bb e6 39 9d a1 ee 3c 55 50 f8 bc b3 fa 68 bd
       0.00044009046 0.029129798 -0.030311743 -0.05687971
000330 f2 5b b3 bc 85 8c b7 bb 4c 7e 39 bd de b2 f5 bc
       -0.021894429 -0.005601468 -0.04528646 -0.029992517
000340 02 0d 47 bc 49 fb 43 bb 70 79 b3 3b 18 4d c7 3c
       -0.012149097 -0.0029904416 0.005477123 0.024328753
000350 a0 73 f1 bc 22 b8 f1 3c 77 38 01 bd d8 64 f1 bc
       -0.02947408 0.029506747 -0.03154799 -0.029467031
000360 b5 1c c5 3c 4d 72 a5 3b aa 96 f6 bb 4b 15 09 bc
       0.02406154 0.005049026 -0.007525285 -0.008366893
000370 01 e0 05 bd 96 f2 ce bc a8 41 18 3d a6 76 21 bd
       -0.03268433 -0.025262158 0.03717199 -0.039419793
000380 36 ff dd bc ec b2 08 bd a3 9f 9c bc 51 67 ea 3c
       -0.027099233 -0.03337376 -0.01911909 0.028613718
000390 c0 d5 d0 bc 11 b4 82 3c 6d 4b 19 3b b0 ee ec bb
       -0.025492549 0.015955003 0.0023390905 -0.007230602
0003a0 c4 a3 11 bc 87 25 2a bd f2 7f 70 3c b8 8f c9 bc
       -0.008889142 -0.041539695 0.014678942 -0.024604663
0003b0 4e b4 da bb bb 3d 50 bc 70 32 e4 ba a2 be c5 bc
       -0.006674326 -0.01271003 -0.0017410051 -0.024138752
0003c0 3b 93 84 3c de 3c d3 bc d6 f1 aa 3b 10 7a 56 bb
       0.016183486 -0.02578586 0.0052168174 -0.0032726564
0003d0 69 11 19 3d a0 d3 f6 3b 7d 08 ae bb c2 b4 05 3d
       0.03737012 0.007532552 -0.0053110705 0.032643087
0003e0 29 15 1d bd cd 2c 79 bc be 40 44 3d 6b 12 53 bc
       -0.038350258 -0.015208435 0.047913305 -0.012882809
0003f0 49 6c 41 bb 88 3a b4 bc ac b6 ae 3c 30 93 fa ba
       -0.0029514006 -0.022000566 0.02132734 -0.0019117352

action_model._discrete_distribution.branches.1.bias f4 [3]
000000 cb bf aa 3c 05 c4 84 bc 14 a9 8c bc
       0.020843407 -0.01620675 -0.017170466

action_model._discrete_distribution.branches.2.weight f4 [2, 128]
000000 ad 1f 9a bc c0 83 94 3c ee 90 a8 bc db 83 6c 3d
       -0.018813932 0.01812923 -0.02057692 0.057742935
000010 e4 3a af 3c 06 76 39 bc 7c e1 05 3d 16 89 f2 3c
       0.021390386 -0.011319643 0.03268574 0.029606383
000020 65 f1 c4 3c e7 01 11 bd fe 58 ea bc 51 de be bc
       0.024040887 -0.035402205 -0.028606888 -0.023299368
000030 a7 66 a2 3c 58 79 81 3c 63 71 54 bc 19 e8 67 3d
       0.01982434 0.015804932 -0.012966487 0.05661783
000040 59 50 b6 bc bd 0b 14 3d 9c 79 e3 bc ec ee 9d bc
       -0.02225511 0.036144007 -0.027767949 -0.019278966
000050 4f 5f 8f 3b 38 dd fb bc 79 32 ad 3c cd 09 b0 bc
       0.0043753753 -0.030745134 0.021142231 -0.021489048
000060 59 59 cf bc 1c f6 4f bc ae be e2 bc 11 c8 d5 bc
       -0.025311159 -0.012692954 -0.027678814 -0.026096376
000070 2a 88 c4 bc 14 b5 49 bc d6 b7 e2 bc 11 0f be 3c
       -0.02399071 -0.012311239 -0.02767555 0.023200544
000080 f5 f7 2f 3d 8d 11 f1 bc 09 6a f9 3c e8 4c b6 3c
       0.04296108 -0.029427314 0.03044607 0.022253469
000090 67 59 e0 3c 2b 47 81 3d af 73 1e 3d 1f 75 9c bc
       0.02738638 0.06312402 0.038684543 -0.019098816
0000a0 ce 6a 31 3d 98 26 0e bd 6a db d3 3b 4e 30 3d 3c
       0.043314748 -0.034704775 0.006465365 0.011547161
0000b0 3f d6 f9 3c 14 fd d1 3b 3c 9e 94 3c a1 b5 d8 3c
       0.030497668 0.006408343 0.018141858 0.026453795
0000c0 37 fe 37 3d 23 75 c0 3c 73 a2 a9 3c c5 4a 06 3d
       0.044920173 0.023493355 0.020707345 0.03278615
0000d0 55 81 10 bd 28 ad d1 3c 51 ee 51 bd 20 5e 02 bd
       -0.03527959 0.025595263 -0.051252667 -0.031828046
0000e0 51 6a 66 bc e3 77 25 bd 54 ef 48 3d 45 4c be bc
       -0.014063434 -0.040397536 0.049056366 -0.023229728
0000f0 34 5f 12 3d 71 14 39 3d 24 75 10 3d 48 d5 4e 3d
       0.035735324 0.04518551 0.035267964 0.05049637
000100 ca 3c 90 bc c2 e8 8a bc 62 1d cc bc 20 ed c1 bc
       -0.017607111 -0.01695669 -0.024916355 -0.02367264
000110 10 b1 a5 bc ec 23 b3 3c d3 d6 13 3d 44 a5 7c bc
       -0.020226032 0.021867715 0.036093544 -0.015420262
000120 01 d4 d5 bc c1 c6 d1 bc e8 39 8c 3b 53 ef 7f 3c
       -0.026102068 -0.025607469 0.004279364 0.015621024
000130 57 37 15 3c 48 99 24 3c 03 56 48 3d 50 c6 c4 3c
       0.009107432 0.010046311 0.048910152 0.024020344
000140 8a f1 e9 bb b4 19 85 3c ce d6 69 3c c5 bb 69 bc
       -0.0071393894 0.016247608 0.014272405 -0.014265959
000150 e7 b5 e3 3c 69 a0 e5 bc ca e8 99 3b f6 6f f1 bb
       0.027796699 -0.028030591 0.00469694 -0.007368083
000160 6f bb eb bc ec 66 bb 3c d7 95 67 3c 00 61 1e 3d
       -0.028775899 0.022876225 0.014134846 0.038666725
000170 2c ca dd 3c cb 8f e7 3c 27 4d 80 bc cf 0a 1a 3d
       0.027073942 0.028266808 -0.01566179 0.037607964
000180 98 48 47 3c a2 63 27 3d d6 9f fe bc 87 c7 ab bc
       0.012163304 0.0408665 -0.031082075 -0.020969165
000190 fd f8 2c 3d 48 7c c5 3c 60 bc 8b 3c 19 9f 18 3d
       0.04222964 0.024107113 0.017057598 0.037261102
0001a0 08 22 9b 3c 42 d4 0a 3d b2 56 7d bc 21 23 e2 bc
       0.018937126 0.03389383 -0.015462564 -0.027604641
0001b0 65 27 2a ba 91 cd f1 3c c4 d4 c8 bc e1 55 e7 3c
       -0.00064908556 0.029516967 -0.024515517 0.028239192
0001c0 88 dc 06 bd f9 cc 04 3d 41 59 fe bc 9d 7b f9 3c
       -0.03292516 0.03242204 -0.031048419 0.030454451
0001d0 8d 66 de bc 93 c0 9a bc 5c 36 42 3c de 24 b0 bc
       -0.02714851 -0.018890655 0.011853781 -0.021501955
0001e0 56 43 62 3d e6 6e c2 3c 28 c5 94 bc 26 81 cd 3c
       0.055239998 0.023734521 -0.018160418 0.025085997
0001f0 a8 aa e1 bc e7 bd 0e 3d 9a 63 92 3c 22 e9 a1 3c
       -0.027547196 0.034849074 0.01786976 0.019764487
000200 01 f5 bc 3c b1 39 c2 bc 12 f8 b8 3c b8 24 55 bd
       0.023066046 -0.02370915 0.022579227 -0.05203697
000210 b3 50 73 bc 2b 83 e2 3c b2 3e f1 bc 4d 27 2f bd
       -0.014850783 0.027650436 -0.02944884 -0.04276209
000220 8b ab 81 bc 85 f1 c2 3c da 37 a1 3c 53 af ee 3c
       -0.015828868 0.023796806 0.019679952 0.029136335
000230 b0 58 e8 bc 9b ea e2 bc 61 91 9e 3c d2 b1 3e bd
       -0.028362602 -0.02769976 0.019356431 -0.0465563
000240 9f 37 ca 3c 8a ab 37 bd 9b 55 96 3c d8 9c 7c 3c
       0.024684725 -0.044841327 0.018351367 0.015418254
000250 43 13 c4 bc 5c dc 05 3d ef 73 34 bc 53 0c f7 3c
       -0.023934966 0.032680854 -0.011013969 0.030157244
000260 96 04 8f 3c d5 bf cd 3c 99 23 06 3d a5 12 1b 3d
       0.017458241 0.025115887 0.032748792 0.037859578
000270 c9 e0 f2 3c d1 11 0d 3d bd b6 a7 3c b6 8c 30 bc
       0.029648202 0.03444082 0.020472879 -0.010775736
000280 66 b6 1d bd 3b 9c e0 3b 87 f7 a0 bc 52 1e 08 bd
       -0.038504027 0.0068545616 -0.01964928 -0.03323204
000290 1e ae 1f bc 2c e5 38 bd c4 ac 11 bd d6 92 31 3d
       -0.009746103 -0.04514043 -0.035565153 0.043352924
0002a0 20 1c 22 bd 2f 62 b6 3c 74 31 a8 bc 60 55 b3 bc
       -0.039577603 0.022263614 -0.020531394 -0.021891296
0002b0 1e f4 d9 bc 85 ea 99 bc eb 17 bd bc 44 6d 81 bc
       -0.026605662 -0.018788585 -0.023082694 -0.015799172
0002c0 b7 18 48 bd 36 a0 97 bc dd 75 b9 bc 38 11 d6 bc
       -0.048851695 -0.018509012 -0.02263921 -0.026131257
0002d0 f8 d2 96 3c f9 6c e2 bc 30 52 11 3d 75 e4 28 3d
       0.018411145 -0.027639853 0.03547877 0.0412335
0002e0 95 a6 09 3d 52 3b 20 3d c6 57 24 bd b8 be 0b 3c
       0.03360613 0.039119072 -0.04012277 0.008529358
0002f0 e6 b6 2d bd de f4 ec bc 8a fe d6 bc 68 2a 07 bd
       -0.042410754 -0.028925356 -0.02624442 -0.032999426
000300 83 e5 06 3d b4 dc 0d 3d c3 d3 4f 3c ef 27 e9 3c
       0.032933723 0.034634307 0.012684765 0.028461425
000310 39 d3 06 3d 18 60 bb bc e5 2b a8 bc 42 99 0f 3d
       0.03291628 -0.02287297 -0.020528743 0.035058267
000320 63 49 70 3c 2e b8 8f 3c f7 64 0e bd 56 11 d6 bc
       0.014665934 0.017543878 -0.034764256 -0.026131313
000330 5c 6e 0b bd 37 be a6 bc cc ee 2e bd f2 3b d2 bc
       -0.034040794 -0.020354373 -0.042708203 -0.02566335
000340 cd 0a a5 3c f4 24 e5 bc ce a6 0d bd f3 d6 26 3d
       0.020146752 -0.027971722 -0.034582905 0.040732335
000350 78 99 2f bd b8 e0 b8 3c 68 94 c6 bb ff ad 80 bb
       -0.04287097 0.022568092 -0.006060172 -0.003926992
000360 69 db 0f 3d b0 a7 cb bc 0b f0 bc bc f3 01 b0 bc
       0.035121355 -0.024860233 -0.02306368 -0.021485304
000370 0a 6a 0f bd 4d 69 9b bc cf 73 30 3d ca fb 03 bd
       -0.035013236 -0.01897111 0.043079194 -0.032222547
000380 16 0f b1 bc 40 87 f9 bc c2 14 b4 3c f9 25 f7 3c
       -0.021613639 -0.03046 0.021982554 0.030169474
000390 06 60 60 bd c8 1d 0c bd ce 91 d1 bc 3e 6a d9 bc
       -0.054779075 -0.03420809 -0.02558222 -0.026539918
0003a0 63 d5 cf bc c7 53 09 bd c9 c8 09 3c b0 71 1f 3d
       -0.025370305 -0.033527162 0.008409687 0.03892678
0003b0 be 25 37 bc 3f 38 2a bd 5c 1b a1 3c fa 6b 90 bc
       -0.011178432 -0.041557547 0.019666366 -0.017629612
0003c0 8b 11 d3 3c 21 46 9d bc 63 d4 68 3c 5c 2e 2e bd
       0.025765201 -0.01919848 0.014210793 -0.04252468
0003d0 86 6e 89 3c 80 06 b9 3c b8 68 e8 bc a0 76 42 3c
       0.016776334 0.022586107 -0.028370246 0.011869103
0003e0 76 94 72 bd 40 24 a2 bc fe be 1e 3d 87 6b 3b bc
       -0.059223615 -0.019792676 0.038756363 -0.011439211
0003f0 56 7f a9 3c 8d 4c 25 bd 03 ff d4 bc 80 4c ae bb
       0.020690601 -0.040356208 -0.026000505 -0.005319178

action_model._discrete_distribution.branches.2.bias f4 [2]
000000 1d 94 79 3c 1c 94 79 bc
       0.015233067 -0.015233066
