results/PressButton/IL-20ksteps-test1/PressButtonAgent/PressButtonAgent-29957.onnx (onnx, 83197 bytes, 11 tensors)

discrete_act_size_vector f4 [1, 3]
000000 00 00 40 40 00 00 40 40 00 00 00 40
       3.0 3.0 2.0

network_body._body_endoder.seq_layers.0.weight f4 [128, 6]
000000 56 ae 85 3e 68 fd 18 3d 7a 6a 3b 3e 37 b1 b7 3e
       0.2610957 0.037351042 0.18302336 0.35877392
000010 3b 44 5d bf fa 9c f1 3e e0 39 70 3e e1 42 37 bf
       -0.86432236 0.47190076 0.23459578 -0.71586424
000020 d1 e1 27 bf bf e3 81 3e 69 3c 8d bc be 0b 04 3f
       -0.65578943 0.2536907 -0.01724072 0.5158042
000030 df e2 54 3f 13 6f d8 be b1 51 c7 be e9 ba b1 be
       0.8315868 -0.42272243 -0.38929513 -0.34712914
000040 aa a5 08 3e b5 53 fe be b2 9d 32 3f 79 df 5d be
       0.13344446 -0.49673238 0.69771874 -0.2166728
000050 07 95 9d be e7 16 44 be 48 4d 08 3e 5e 0e c8 be
       -0.3077776 -0.19149362 0.1331073 -0.3907346
000060 19 25 9c be 32 80 f7 bd 62 27 85 bc 5b 3a 9f 3e
       -0.30497053 -0.12084998 -0.01625413 0.3109921
000070 c2 89 5c 3f b5 4d 17 be c0 ed d7 3e 7b 2f 8a bd
       0.861477 -0.14775737 0.42173576 -0.067473374
000080 8e 08 ce be 12 0a 24 3f fe bf d8 3e 62 e2 d3 bd
       -0.40240902 0.64077866 0.42333978 -0.103459135
000090 ff e2 b6 be 62 ed 09 bf ef 39 1c be 45 65 79 bd
       -0.3572006 -0.5387784 -0.15256475 -0.060887594
0000a0 d7 8c c9 3e da 75 3c be 58 fb 9e 3f 6d 10 2d 3f
       0.39365265 -0.18404332 1.2420454 0.6760319
0000b0 10 24 b3 be 93 cf 97 be dc 4e 35 bf c3 ec e2 3e
       -0.3498845 -0.29650554 -0.70823455 0.4432126
0000c0 bb 67 18 3d 0c 47 da be c8 3a 63 3c 0a a9 e2 3e
       0.0372083 -0.4263233 0.013868995 0.44269592
0000d0 7d 87 36 3e e8 17 d7 bd fd de 7a bf a7 36 2e 3f
       0.17825122 -0.10502607 -0.97996503 0.6805214
0000e0 19 9d 65 be a5 c0 91 3e 08 41 d6 3e 0e a6 69 3e
       -0.22423209 0.2846729 0.4184649 0.22817251
0000f0 ae 67 46 3d ad f1 df bd fc e6 8b be eb cd 6e be
       0.04843872 -0.10934768 -0.27324665 -0.23320739
000100 15 05 ea bd a1 da c3 be 71 ae 56 be 62 d5 2d bd
       -0.114267506 -0.38252738 -0.20964982 -0.042439826
000110 9a 23 e7 be bd 82 e2 be 88 23 f9 3e 51 cb d6 bc
       -0.4514435 -0.4424037 0.4865992 -0.026219996
000120 82 64 cf be 5f 10 81 be c4 2f 39 3e cb aa 5c be
       -0.4050637 -0.25207803 0.18084627 -0.21549527
000130 42 2d 1e 3e 96 cd 67 3f a9 2b bb 3e be 85 eb 3d
       0.15446952 0.90548074 0.36556748 0.11500119
000140 82 3b 38 bf 60 01 01 bf d3 5c b5 3e f9 b2 03 3f
       -0.719658 -0.50392723 0.35422382 0.51444966
000150 43 df 14 bf 0c 6a 5b be d1 4b 32 3e e9 d1 33 3e
       -0.5815317 -0.21427172 0.17411734 0.17560543
000160 00 39 1a be e9 9b c0 3d 4f 59 70 3f b2 be 4b 3f
       -0.15060806 0.094047375 0.93886274 0.7958785
000170 66 36 6f bf 88 7e de 3e be 15 e9 3e 04 1c 05 3f
       -0.9344238 0.4345591 0.455244 0.51995873
000180 b9 06 1c be 92 aa 10 bf c8 88 01 3e 06 1f 13 bf
       -0.1523694 -0.5651027 0.12649834 -0.57469213
000190 85 fc c8 3e d5 c0 32 3f a3 16 58 be e8 3a 60 3e
       0.39255157 0.6982549 -0.21102385 0.21897471
0001a0 1c 56 51 be 59 1e f3 be 11 53 3b be 34 5b 53 be
       -0.20443004 -0.4748409 -0.18293406 -0.2064026
0001b0 58 2e 80 bf 30 f9 c4 be 5b 07 70 be b0 c2 3e 3f
       -1.0014143 -0.38471365 -0.23440306 0.7451582
0001c0 bb c6 5b 3e ba 7e 02 bf b7 7a fa 3d 31 1a 09 3f
       0.21462528 -0.5097462 0.12230437 0.5355559
0001d0 1a 0c 12 3e 45 1e 1b bf 69 58 a5 be 40 3f 56 bf
       0.14262429 -0.6059306 -0.32294014 -0.8369026
0001e0 ce 18 cd 3e d5 db 2c be 45 75 54 be 15 ab 6d 3f
       0.40057987 -0.16880734 -0.2074786 0.92839175
0001f0 4a 7f 94 3e 87 4c a7 3c 84 cb d2 3e 2c 33 66 3c
       0.29003364 0.020422233 0.41170895 0.014050286
000200 43 e8 1b bb 63 1c ec 3e 23 e3 de be ad 93 c0 3e
       -0.0023789562 0.46115407 -0.43532667 0.37612668
000210 49 a2 e5 3e c8 01 82 3d d5 4c 1c 3f cb c4 1f bd
       0.44850376 0.06347996 0.61054736 -0.039006036
000220 cf 53 15 3f 34 ae ab be 9c d5 c2 3c a9 ea a2 be
       0.58331007 -0.33531344 0.023783498 -0.31819656
000230 97 2e 20 bf 77 eb 7c 3b b6 0b 8d 3e f4 57 8d 3e
       -0.6257109 0.0038592496 0.27547997 0.27606165
000240 3c 2a a6 3e f2 42 fc 3e 5e a3 f2 be f9 0a 0f bd
       0.32454097 0.49269825 -0.47390264 -0.034922574
000250 b4 59 24 be b0 8c 81 be 68 75 b7 3d c3 0d 2b be
       -0.16049844 -0.2530265 0.0895794 -0.16704468
000260 5a 61 ba 3e de 5d e9 be c0 2d 25 3f 6a 45 21 3e
       0.36402398 -0.45579427 0.64522934 0.15749136
000270 3a 0c 8f 3e ae 9f f1 3e 56 19 83 3e b3 10 40 be
       0.27939016 0.47192138 0.25605267 -0.1875637
000280 8d d5 b0 3e a3 b2 c2 3d 3c 13 9b 3e bd 2c a1 be
       0.34537926 0.095067285 0.30288112 -0.31479445
000290 dd 2c c3 be a1 b5 ad bd de ac 5a bc 73 69 27 bf
       -0.38120165 -0.084819086 -0.013346879 -0.6539528
0002a0 1e 7c 06 3f a1 cd 95 3e aa 47 3c bf fc 8f 43 be
       0.5253314 0.29258445 -0.7354685 -0.19097894
0002b0 1a ae c3 be 8a 76 4e 3e 8c 4b 5b 3e 5b 1b 19 be
       -0.38218766 0.20162407 0.21415538 -0.14951842
0002c0 ff 4d 60 be 0d d0 89 3e b0 b6 9f be 11 6d 31 3e
       -0.21904753 0.26916543 -0.31194067 0.17326762
0002d0 58 9e a5 bc 08 85 d5 3e 8a a6 02 3f 24 89 91 3e
       -0.020217106 0.41703057 0.5103537 0.28424942
0002e0 52 47 dc 3e 84 3f 31 be eb b9 ea 3e 97 eb 5d bf
       0.43023163 -0.17309386 0.4584497 -0.86687607
0002f0 8f 69 69 be e0 3e eb bd 28 39 ac be ac fb 0f be
       -0.22794174 -0.11486602 -0.33637357 -0.14060849
000300 28 47 f8 3e 5b e6 5e 3f 8a d9 90 3e 2d e2 04 3e
       0.48491788 0.87070245 0.2829097 0.12976904
000310 68 d0 51 3e be b5 1c 3f a2 35 e5 3e 1c 2f 95 3f
       0.20489657 0.61214817 0.4476748 1.1655002
000320 7e a1 8c 3e ab e7 06 3f 65 9e 9a 3a 99 48 a0 3e
       0.2746696 0.5269725 0.0011796473 0.31305388
000330 a7 1c a7 3c 54 6c 26 3f 37 2c 0a 3d 07 3e ea bd
       0.020399405 0.65009046 0.033733573 -0.11437612
000340 06 21 d5 3d 52 53 7e 3f c1 d7 65 3e aa 15 09 3f
       0.10406689 0.99345887 0.22445585 0.5354868
000350 2b 0b a4 be 03 b3 85 bd bc b4 6f 3f c9 16 82 3c
       -0.3203977 -0.065282844 0.93635154 0.015880005
000360 11 9e 0d bf b6 22 ea bd fb c2 94 ba 6a df 1a be
       -0.55319315 -0.11432402 -0.0011349613 -0.15124288
000370 a4 5f 6b be 2a 42 79 be 78 fe 26 bd 27 ba 73 3e
       -0.22985703 -0.24341646 -0.040770024 0.2380148
000380 8a 82 26 3e 65 63 3b 3e f4 d0 cd 3e c5 37 07 3f
       0.16260734 0.18299635 0.4019848 0.5281947
000390 0b 2e 51 bd 57 eb 00 bf 6c 9e 5d bc 84 dd 6f bd
       -0.0510693 -0.503591 -0.01352654 -0.058560863
0003a0 06 5f 40 be bb e2 47 3e b0 c4 a3 3e ff c5 24 3e
       -0.18786249 0.19520085 0.31985998 0.16091155
0003b0 76 d9 96 be 5d c3 e0 3e 1b 8f a4 be f4 ba e9 bc
       -0.29462785 0.4389905 -0.3214043 -0.028531529
0003c0 06 1a f9 be f6 2f 10 be 20 3f 01 bf 2f 99 a2 3e
       -0.48652667 -0.14080796 -0.50486946 0.31757495
0003d0 43 d2 68 be 56 96 f0 be b2 00 21 3e ba 4a 5e 3d
       -0.22736458 -0.46989697 0.15722921 0.054270484
0003e0 60 75 b6 be de 62 3f 3f 7a 57 77 bd 45 0b 06 be
       -0.35636425 0.74760234 -0.06038616 -0.13090236
0003f0 df 35 c3 bd f3 76 f1 bc 55 01 ca bc 58 e2 b8 be
       -0.095317595 -0.029475665 -0.024658838 -0.36110187

network_body._body_endoder.seq_layers.0.bias f4 [128]
000000 5a f7 84 3c d7 ab b2 bc 1d e6 dc 3c 18 f8 29 3d
       0.016231228 -0.021810455 0.026965195 0.041496366
000010 ef 94 d3 bc 1a b2 d4 3b f9 1f a2 bc 98 51 02 3d
       -0.025827853 0.006490958 -0.019790636 0.031816095
000020 d1 b4 b8 bc e2 92 d4 bc b7 27 a2 bc af f7 a3 bc
       -0.022547157 -0.025948945 -0.019794328 -0.020015566
000030 59 a7 75 bb 80 2c d2 3a db 7f 79 ba 0e 84 ff 3c
       -0.003748378 0.001603499 -0.0009517648 0.031190898
000040 6d 5a 9e ba e4 a0 88 bc 96 23 92 bb 62 75 db 3c
       -0.0012081392 -0.016678281 -0.0044598086 0.02678937
000050 89 f8 be 3c 66 7f 89 3c 27 c4 66 3d 7a 1b cd bc
       0.02331187 0.016784381 0.05633941 -0.025037516
000060 ad e4 0b 3d 06 ff 6a b7 73 88 01 3d 5a 5e f4 bc
       0.03415363 -1.4006864e-05 0.03162427 -0.029830147
000070 8b f3 de 3c 5f 45 f9 3c 2d 53 87 3c 2b 0d b0 bc
       0.02721574 0.030428587 0.016519153 -0.021490654
000080 ae 47 1b 3d 83 ef c1 3c 46 cd 30 bc 48 95 41 3d
       0.037910156 0.023673778 -0.0107911285 0.047261506
000090 f9 8f ad bc 73 62 02 bc 7b 64 f5 bc fd 2e 90 3c
       -0.021186816 -0.007958042 -0.02995514 0.01760053
0000a0 8c ef f0 3c c5 da 9a 3c 8f a7 ac bc 36 9b 1b 3d
       0.0294111 0.018903146 -0.021075992 0.037989818
0000b0 75 bf f0 bb c0 13 aa bc 3c 2d 83 bb 0a 7d de bb
       -0.007347042 -0.02076137 -0.004003195 -0.006789808
0000c0 9d 15 2e bc b9 51 5a bc c7 1a b9 3c 07 d1 96 3c
       -0.01062527 -0.013325148 0.022595776 0.018410219
0000d0 37 ee 13 bc 71 2d d5 bb cf e4 f9 3c dc d6 a7 3c
       -0.009028963 -0.006505661 0.030504612 0.020488195
0000e0 9c df c7 bc e6 ad ac bc 22 b0 b0 3c 05 7c 95 bc
       -0.024398617 -0.021079015 0.021568362 -0.018247614
0000f0 e9 5c 75 3c 6e cf 0b 3d 4c 5c 4b bc 4b e3 13 3c
       0.014975765 0.034133367 -0.012412142 0.009026359
000100 2c 4d 6b 3c 73 39 fc 3c 80 52 58 3d 63 a7 ca ba
       0.014361661 0.030789113 0.052813053 -0.0015461262
000110 b4 dc ce 3c 07 6a d2 bc 93 c7 a1 3c 62 c0 0c 3d
       0.025251724 -0.025685323 0.019748485 0.034363158
000120 3a 79 9b bb 42 77 9d 3c 3c 0e e8 3c eb 48 fb bc
       -0.004744676 0.019221906 0.0283271 -0.030674418
000130 da 31 fb 3c bf 69 6f bc cd 88 06 bd 56 19 3e 3d
       0.03066342 -0.014612614 -0.032845307 0.04641088
000140 e5 57 c6 3a 71 d0 41 3d 81 a5 e1 3b cd 09 cb 3c
       0.0015132396 0.047317926 0.0068861847 0.024784947
000150 ff 7f da 3c ad a7 bb bc 98 0a 0d 3c a1 c0 09 3d
       0.026672361 -0.022907102 0.008608483 0.03363097
000160 4f 9e 56 3c 76 c5 01 3d 5f 4b b9 3c 65 77 e2 bc
       0.013099267 0.031682454 0.022618948 -0.027644822
000170 b5 83 90 3c b3 e8 3f 3c c2 fe 40 3c 1d 82 53 3d
       0.017640928 0.011713195 0.011779489 0.051637758
000180 54 79 76 3c f5 35 09 bc 3b 65 b2 bc b5 91 3b 3c
       0.015043575 -0.008374681 -0.021776786 0.0114483135
000190 c5 9c a2 bc 00 a1 f3 3c d0 72 c1 bc 88 0d 7f 3c
       -0.019850144 0.029739857 -0.023614317 0.015567191
0001a0 03 17 6c 3c 8e 67 a5 3c ea af 9a bc da d9 da bc
       0.014409783 0.02019098 -0.01888271 -0.026715208
0001b0 97 40 22 3d 27 7e 28 3d 37 72 b0 3b f2 47 75 3d
       0.03961238 0.041135933 0.005384709 0.059883066
0001c0 2a 47 8c 3c 89 ec c3 bb f6 ff b9 3c 38 e1 09 bd
       0.017123777 -0.005979125 0.02270506 -0.03366205
0001d0 b4 ee bb 3c 5b cf 38 3d 02 40 a2 3c e1 7a 85 3c
       0.022940971 0.045119625 0.019805912 0.016293945
0001e0 70 12 d0 bc 5e b4 32 39 c1 ab 6b 3d 7b 3c c9 3b
       -0.025399417 0.00017042595 0.057536844 0.006141243
0001f0 ec 95 4b 3a d8 f3 b1 3c c2 f4 61 3d 17 ce 1f 3d
       0.00077661755 0.02172272 0.05516506 0.039014902

network_body._body_endoder.seq_layers.2.weight f4 [128, 128]
000000 25 da 79 3c 2e 45 03 3e ba 19 b8 3d fa b4 8d 3c
       0.015249764 0.12819359 0.08989282 0.01729821
000010 18 4f 61 3c b5 f4 59 3e c4 06 bb bd 54 80 18 3d
       0.013751768 0.21284755 -0.0913215 0.03723176
000020 7f f2 5c 3d 30 d1 18 be 39 79 41 3e 96 1a 91 3d
       0.0539422 -0.14923549 0.18893899 0.07085149
000030 e5 41 69 bc 1c 01 23 3d 55 82 ec bb 51 4c 95 3d
       -0.014236902 0.03979598 -0.007217685 0.07289947
000040 7e 40 d8 3d 0a 67 a5 3c 72 84 98 3d 25 8a a0 bd
       0.10559176 0.020190734 0.07447137 -0.07838849
000050 ff c2 9c bd c5 a9 13 bd 9d 60 03 bd b9 cb 15 3d
       -0.0765438 -0.036050577 -0.03207456 0.03657124
000060 d4 e0 54 3e a2 92 de bd 0f f3 9a bd 72 1d c3 bc
       0.2078889 -0.10867812 -0.07565891 -0.023817752
000070 80 ce 18 3e 8d fa c0 3d ee da b7 bd d9 cd dd 3d
       0.14922523 0.09422789 -0.089773044 0.10830278
000080 cf 02 82 bc 7c 70 41 bc 62 aa 11 bd 5f 79 b6 bc
       -0.01587048 -0.0118066035 -0.03556288 -0.022274671
000090 1e 7f 4e bd 4b 51 31 be a0 29 04 3d ab d3 a8 bb
       -0.050414197 -0.17316167 0.03226626 -0.005152186
0000a0 2f 96 ed 3b 74 eb d0 3d 3a 56 08 3e 04 fa 94 bd
       0.0072505693 0.10201159 0.13314143 -0.07274249
0000b0 fd 8b f3 bb da d3 ad 3d a7 80 47 bd fb 56 30 3d
       -0.0074324594 0.08487673 -0.048706677 0.0430517
0000c0 82 f4 a1 3c 88 39 9a ba 73 ca cb bd 02 5a 14 3d
       0.01976991 -0.0011766413 -0.099507235 0.03621865
0000d0 f2 17 67 3d e4 b1 0f 3e ea 99 85 bd 53 3a 59 3d
       0.05641932 0.14032704 -0.065234974 0.053034138
0000e0 c3 7d a2 bd b3 3b 85 3d b6 7e bb 3d 06 ef b9 3d
       -0.079341434 0.06505527 0.091550276 0.09078793
0000f0 f2 7f fd bc fd 21 d6 3c 22 44 df 3d c7 a3 d7 3d
       -0.030944798 0.026139254 0.10901667 0.10529285
000100 d5 88 15 be 0c 70 04 3e 45 1a a0 3d 37 fc 4b 3d
       -0.14602979 0.12933367 0.078175105 0.049801078
000110 c5 b9 14 3d 40 c7 6f 3d ae 6c de bd 6b 01 9f 3c
       0.036309976 0.05853963 -0.10860573 0.019409856
000120 41 74 46 3e 44 f4 a2 bb df f8 9c bd 2f 21 05 3e
       0.19380285 -0.0049729664 -0.07664656 0.1300094
000130 ed 3c 63 3c e0 64 22 3b 37 0c ea 3b 2a ee 04 3d
       0.013869506 0.0024779364 0.0071425694 0.032453693
000140 c5 a1 ed 3d 6b 6d 48 3d 9e 6f a6 bc d6 2f 8f bd
       0.11603121 0.048932474 -0.020316895 -0.06991546
000150 83 7d e3 bd c4 f0 ca bc 4d 91 98 bd be 65 68 bd
       -0.11107924 -0.02477301 -0.07449589 -0.056737654
000160 f3 68 95 bd 22 9a 00 3d e6 29 5d 3d 9e b7 90 bd
       -0.07295408 0.031396993 0.053995036 -0.07066272
000170 7f 29 1f bd 06 49 d0 bc 60 0d 1a bc 73 28 0b be
       -0.038857933 -0.025425445 -0.009402603 -0.13589649
000180 a5 f6 0c be a1 85 d4 bd ce 4a 0d be 31 64 01 3d
       -0.13765962 -0.1037705 -0.13798067 0.03158969
000190 36 80 58 3b 54 72 da bc 91 4f 26 3e 03 7c 45 bd
       0.0033035404 -0.026665844 0.1624129 -0.04821397
0001a0 c7 94 a9 bd 9e b9 b9 bd 2b 2c 3d bc 4e b1 e9 3d
       -0.0828033 -0.09068607 -0.011546175 0.11410771
0001b0 f2 40 49 3d 63 56 59 bd eb ac 6e bd 7c bf 11 3e
       0.049134202 -0.0530609 -0.058270376 0.14233202
0001c0 80 d8 c4 3c 25 4c 8d 3d f2 90 dd bd 4c cf d6 3a
       0.024029016 0.06899289 -0.10818662 0.0016388684
0001d0 ca 3a f1 bc 8c 9d 4d be 1d 8a 7b bd b6 81 77 3d
       -0.029446978 -0.2007963 -0.061411012 0.060426436
0001e0 3b 4d 0e 3e 84 36 ef 3d 5c 46 76 3d c9 56 9d bd
       0.13896649 0.1168032 0.060125694 -0.076825686
0001f0 cc 91 9f 3c cf b9 0a be a4 dc cf 3a 7f b7 11 be
       0.019478701 -0.13547443 0.0015858603 -0.14230154
000200 4a e7 92 bd 10 d0 94 be 63 2f 90 3d 36 5e 0d 3e
       -0.07173021 -0.2906499 0.07040288 0.1380547
000210 b9 c6 d4 3c 81 84 34 3d ee b3 2c 3e 4d 30 f1 bc
       0.025973665 0.044071678 0.16865513 -0.029441977
000220 f6 55 aa bd b0 07 b9 3d 59 fb 1c 3e 06 91 22 3d
       -0.08317177 0.090346694 0.15330257 0.039689086
000230 b6 74 61 be 21 82 5d 3d 36 48 7a 3d c8 a5 c9 3d
       -0.22017178 0.05407918 0.061104022 0.098460734
000240 97 7c ea 3d 6f af 5b bd 52 54 38 3d f0 58 e9 bc
       0.11449545 -0.053634103 0.04500229 -0.028484792
000250 cf c3 41 3d 77 b8 97 bd cd fa 83 3e 19 2d 20 3c
       0.04730588 -0.07408231 0.25777283 0.009776377
000260 41 e3 59 3e a6 69 8b 3a 5c 6d 07 3e 92 c3 69 3c
       0.21278097 0.0010636344 0.13225311 0.014267819
000270 93 ee 6f bd 4a 92 15 bd b3 76 0d 3d f2 bc 3a be
       -0.05857713 -0.036516465 0.03453703 -0.1823614
000280 6a fd 52 bb 1b 5e 0f 3e f9 89 d1 3c 48 fb 19 3e
       -0.0032194504 0.14000742 0.025578486 0.15037262
000290 e7 4c d2 bd 2e cd 43 bd a3 ba 02 be 67 b1 22 3d
       -0.10268574 -0.047803096 -0.12766509 0.039719965
0002a0 aa 50 c5 3c f8 44 9a bd 03 44 de bd d6 d0 16 3d
       0.024086315 -0.07532686 -0.10852816 0.036820255
0002b0 59 8d 23 3e e9 35 ae bd c3 51 15 be 34 59 39 3e
       0.15971889 -0.08506376 -0.14581971 0.18100435
0002c0 15 f6 6a 3d 77 d8 be 3d dd ea 6a bd 43 11 a2 bd
       0.05736359 0.09318631 -0.05735289 -0.07913449
0002d0 48 6b 11 3d 09 e4 96 3d 7b 75 39 bc 72 12 95 bc
       0.035502702 0.07367713 -0.011319513 -0.018197272
0002e0 5d 7d c9 bb 49 07 6d 3b 93 25 7d bd f0 ce ba bd
       -0.0061489777 0.0036167672 -0.06180341 -0.091215014
0002f0 e1 8f 08 3c e8 cb 44 3e d9 c8 92 be 9d 6e fe bc
       0.008335085 0.19218409 -0.2866886 -0.031058604
000300 ae f3 00 3c 78 53 6b bd 8a 50 54 3e 71 1d ac bd
       0.007870598 -0.05745265 0.20733848 -0.08404053
000310 1a 68 c0 3d 79 b8 00 be 60 cd d5 3c 9d c6 58 bd
       0.09394856 -0.1257037 0.026098907 -0.052923787
000320 85 6e 97 3d 56 9a 13 3e 1d d9 b0 3c 2e f6 b7 bd
       0.07394127 0.14414343 0.021587903 -0.08982502
000330 31 5f 3f 3e 61 ac 5e be fd 79 65 bb 2d 48 83 3d
       0.18688656 -0.21745445 -0.0035015338 0.06410251
000340 c0 72 1e be 61 33 3a 3e 90 48 0a be 62 dc 1a 3e
       -0.15473461 0.18183662 -0.13504243 0.15123132
000350 9a 22 e1 bd a7 1a f9 3d e3 d2 8c be fd 3e 0f 3e
       -0.10992928 0.12163287 -0.27504644 0.13988872
000360 54 70 03 bd 5e 17 14 be 49 d5 57 bc b1 b6 a3 bb
       -0.032089546 -0.14462039 -0.01317341 -0.0049961437
000370 96 5b 12 3b 85 65 fd 3d dc ae a3 bd 66 8c 7a 3d
       0.0022332422 0.12372879 -0.07992336 0.06116905
000380 39 1a a7 3d 7d 45 ed 3c bf 30 03 3e 68 3b 17 bd
       0.081592984 0.028963799 0.12811564 -0.03692189
000390 05 1c f4 bd 23 b7 ba bd b8 49 05 be 08 0a a2 bd
       -0.11919407 -0.09116962 -0.13016403 -0.079120696
0003a0 17 70 32 be 66 da 9b 3b 30 51 92 bd b9 4a 5b 3d
       -0.17425571 0.0047562597 -0.071443915 0.053538058
0003b0 ff 60 0b 3d 37 b4 15 3e 19 90 82 3c 66 7b db 3d
       0.03402805 0.14619528 0.015937852 0.10716896
0003c0 fe 89 6c bd 4b 66 e5 3b 7e ca 06 be e4 97 f4 bc
       -0.057748787 0.0070007197 -0.13163182 -0.029857583
0003d0 95 4f 95 bd f8 92 6b bd f9 8b a4 ba d2 0a 19 bc
       -0.0729057 -0.057513207 -0.0012553922 -0.009340959
0003e0 06 d8 cd bc 5d b1 16 bd 57 18 18 be 68 6a 1b be
       -0.025127422 -0.03679024 -0.14853035 -0.1517731
0003f0 87 f7 dc 3b 2a 95 83 bd 74 e3 37 3d 10 cd 8e 3d
       0.0067433747 -0.06424935 0.04489465 0.06972706

network_body._body_endoder.seq_layers.2.bias f4 [128]
000000 b5 75 1d bc e4 d2 7c 3d 63 1d c8 3c 8a 94 2e 3d
       -0.009610583 0.06172456 0.024428075 0.042622127
000010 bb ad bc 3c 55 43 80 bc f6 78 bc 3c da c6 55 3d
       0.02303206 -0.015657106 0.023006897 0.052191593
000020 ac 0a ac 3c 4b 81 a4 bb 4f 6f 01 bc 1d 91 91 bc
       0.021001182 -0.0050202957 -0.007900073 -0.01776939
000030 33 6e fb 3c 81 58 bb 3c 67 fb 84 3c 42 15 f3 3c
       0.030692196 0.02286935 0.01623316 0.029673222
000040 23 35 14 bc fa 94 d6 3c e5 35 65 bc 2f ea 84 bb
       -0.009045872 0.026194084 -0.0139899 -0.004056237
000050 98 5e 2d 3c 54 d8 9d bc 91 ff 80 3c 79 7a 16 bc
       0.010581635 -0.019268192 0.015746864 -0.009184473
000060 33 ec f0 bb 4a 89 e5 bb 7b ce 5a bc 1a 8e 5d bc
       -0.007352376 -0.0070048915 -0.013354893 -0.013522649
000070 e0 22 97 bc 7e 4b 9d bc 9f 9d 62 bc 92 e6 b6 3c
       -0.018449247 -0.019201037 -0.013831525 0.022326741
000080 46 16 ef 3c 64 fa 35 bc bd 99 56 3c cd 64 ec 3c
       0.029185425 -0.011107061 0.0130981775 0.02885666
000090 6b 66 00 3c 22 51 50 3d 72 ca 3f 3d fb a6 42 bc
       0.007836918 0.050858624 0.046823926 -0.011880632
0000a0 5b 18 c0 3c 4e 8f 24 bc 7a 0b 6c 3c 62 97 5b 3c
       0.023449114 -0.010043932 0.014407033 0.013402792
0000b0 06 01 cd 3c ab b9 a4 3c 17 bb 90 3c fe cb 80 3c
       0.025024902 0.020108065 0.017667336 0.015722271
0000c0 46 58 46 3d 28 a6 91 3b e2 a9 e9 3c e5 8b da 3c
       0.048424028 0.004444856 0.02852339 0.026678035
0000d0 0b 8d 5d bc c1 24 8a 3c 37 bc 84 bc 87 27 2a bc
       -0.013522397 0.016863229 -0.01620303 -0.010385401
0000e0 14 03 af bc a5 a4 cf 3a bd 47 fb 3c a7 22 3d bc
       -0.021363772 0.0015841915 0.030673856 -0.011543906
0000f0 41 e5 0d 3d b7 41 0a 3d e2 ea 4f 3c 36 6b a5 3c
       0.03464246 0.033754077 0.012690278 0.020192724
000100 76 30 9a bc ad bb 86 bc 54 da 2c bc 41 da d0 bb
       -0.018821936 -0.016446913 -0.0105501 -0.006373674
000110 a5 9a 8e bc 2f 19 3c 3c 71 de cd 3c c7 d2 27 bc
       -0.017407725 0.011480614 0.025130482 -0.010243124
000120 91 0a ba 3c 58 f2 51 bc a8 a4 7b 3c 13 c8 dc 3c
       0.022710117 -0.012814127 0.015359081 0.026950872
000130 40 f1 60 3c 21 9f 71 3c f6 ab 29 3d fd ea 70 3c
       0.0137293935 0.014747412 0.04142376 0.014704463
000140 e3 7f 4d bc 3b 23 da 3c 8e 86 78 3c 1e 8c 8e bc
       -0.012542698 0.026628127 0.015168799 -0.017400797
000150 62 5f 2e 3d 79 7f 84 bc a3 d2 c3 3b 7f 6d af 3c
       0.042571433 -0.016174065 0.0059760376 0.021414516
000160 94 f9 87 bc 4d 07 ba 3c d7 b6 3b 3c bd 79 85 3c
       -0.0165985 0.02270856 0.011457167 0.0162934
000170 95 e7 af 3c ac a5 46 3c a0 6c a6 bc 71 47 14 3d
       0.021472732 0.01212446 -0.020315468 0.036200944
000180 aa 1e 38 3c 87 f1 85 3c 51 1f 41 bc 99 ee 92 bc
       0.01123778 0.01635052 -0.011787252 -0.017936038
000190 cd b3 ee 3c da b6 97 3c 05 b6 fd 3b df 2b fd 3c
       0.02913847 0.018519808 0.0077426457 0.030904708
0001a0 a1 64 6e 3c c2 b4 ac 3c 01 30 51 3a f1 4a 00 bc
       0.014550359 0.021082286 0.00079798704 -0.007830367
0001b0 be 9c e0 bb 56 6a b0 3c 66 dd f8 ba 8f d8 68 3c
       -0.0068546226 0.02153508 -0.001898688 0.014211788
0001c0 05 d5 38 3c b8 dc 9d 3c ff 15 68 bc 5c 20 04 3d
       0.011281257 0.019270286 -0.0141654005 0.032257423
0001d0 ca 6f 3a bc 36 df 88 bc 42 4a 84 3c 41 b6 e8 bb
       -0.011379192 -0.016707998 0.01614869 -0.0071018045
0001e0 1c 86 1c 3d 84 45 dc 3c 46 d8 6e bb 3c f3 49 3c
       0.038213834 0.026888616 -0.0036444827 0.012326058
0001f0 a6 29 4e bc 53 e9 03 3d 24 68 ef 3c d0 38 8e 3c
       -0.012583172 0.032204937 0.029224463 0.017361075

action_model._discrete_distribution.branches.0.weight f4 [3, 128]
000000 26 29 06 3d df f5 18 3d 01 cc e9 bc 30 b7 fd 3b
       0.032754086 0.037343856 -0.02853966 0.007742785
000010 c6 70 92 bc 3a fa 01 3d 8d 26 c9 bc 3a b7 08 3d
       -0.01787604 0.031732775 -0.024554515 0.033377863
000020 8d 99 e6 bc 5c 23 0e 3d 4d b4 c5 3c 11 79 a4 3c
       -0.02814939 0.03470169 0.024133826 0.02007726
000030 71 9a 05 bd b7 2d ff bc 17 d9 33 bc 69 2c 63 bc
       -0.03261799 -0.031149728 -0.010977051 -0.013865569
000040 53 c6 84 3c f8 5a bf bb 0f 3f d9 3c 3b d9 d0 3c
       0.01620785 -0.0058397017 0.026519326 0.025494209
000050 31 82 d7 bc 5f 82 26 3c a7 24 c1 bc 19 8d 61 3c
       -0.026307197 0.010162919 -0.023577048 0.01376655
000060 d4 75 92 3b 18 d9 1c 3d c1 58 b3 3c fe 0c aa 3c
       0.0044696126 0.038292974 0.021892907 0.020758148
000070 58 79 0e 3d 42 4d 86 3c 04 49 13 3c e2 de e8 bc
       0.03478369 0.016394261 0.008989576 -0.028426591
000080 a0 2e c0 bc 9c 0d 36 3c 1b 63 1a bd d2 ac 87 bc
       -0.023459733 0.011111643 -0.03769217 -0.0165619
000090 7a af 01 bd 6a 93 2f 3d 89 3a ad 3c 39 79 7d 3c
       -0.031661488 0.042865194 0.021146076 0.015470796
0000a0 f2 ed 89 bc 13 f0 8f 3b 8c a5 29 bd a7 58 9c bc
       -0.016837094 0.0043926327 -0.041417643 -0.019085241
0000b0 06 c9 4d bc a6 68 d8 bc 21 81 60 bc a3 29 74 bc
       -0.012560135 -0.026417088 -0.013702662 -0.014902505
0000c0 26 ad 30 3d 33 67 f8 3c 78 ee 77 bc 22 cb 6b bc
       0.043133877 0.030322647 -0.015132539 -0.014391692
0000d0 61 9e cd 3c 97 cc f5 bc 7b 13 a8 3b 3f f9 b1 3c
       0.025099935 -0.030004783 0.0051292754 0.021725295
0000e0 c1 3a 9f 3c d8 b5 ef 3a 1a 03 29 bc 57 77 51 3c
       0.019437196 0.0018288447 -0.010315681 0.0127848005
0000f0 4e 22 18 bb 0f 96 a6 bc 93 d7 22 bd 19 d8 b0 bc
       -0.0023213807 -0.020335225 -0.03975637 -0.021587418
000100 d1 74 80 3c 64 c5 b5 3b c8 72 60 3c 22 35 88 3c
       0.015680702 0.0055472124 0.013699241 0.016626898
000110 4b 64 b0 3c 63 d8 86 bc 54 84 52 bc 01 e3 04 3d
       0.021532198 -0.016460603 -0.012848932 0.03244305
000120 df b1 99 3c 5b 02 48 3c 0b ad 11 bd fd 78 b9 bc
       0.018761573 0.012207593 -0.035565417 -0.0226407
000130 41 e4 ae bc b4 fb b8 bc 2d 88 c1 3c 33 70 2d bd
       -0.021349074 -0.022580959 0.023624504 -0.04234333
000140 9d 10 be 3c 5f 5b 8e bc 60 c8 17 bc 62 be 3d 3c
       0.023201281 -0.017377554 -0.009264082 0.011581035
000150 5d 73 bc 3b 82 f8 be 3c ec d8 1c bd c9 c8 d3 3c
       0.005751057 0.023311857 -0.03829281 0.025852578
000160 85 4f c5 3c 66 c6 c8 bc 24 92 f6 bc 96 fb 5e bc
       0.02408577 -0.024508666 -0.030098982 -0.013609787
000170 d2 a3 4a bc 35 f1 47 bd 32 d0 60 3c 20 49 4a bc
       -0.012368159 -0.048814017 0.013721513 -0.012346536
000180 30 51 a9 bc 19 93 d7 bc 20 f6 a2 3c 2e 7f 4d 3b
       -0.020668596 -0.026315259 0.019892752 0.0031356323
000190 19 b3 d2 bc 17 b9 ff bc 6b 62 01 bd 0f aa be bc
       -0.025720166 -0.031216187 -0.031588 -0.02327445
0001a0 ef 50 73 bc 1e 78 db bc f5 2d c6 3c 13 2c 0d 3d
       -0.014850839 -0.026790675 0.024191836 0.03446586
0001b0 56 8f de 3c 79 66 d3 bc d5 fa 4e 3c 86 e6 6e bc
       0.027167957 -0.025805699 0.012633045 -0.014581328
0001c0 b6 37 8e bc 0f f4 f1 bc 7a 0e d1 3b 86 ce 50 bb
       -0.01736055 -0.029535322 0.0063798996 -0.0031861379
0001d0 39 5d e4 3c ae e2 20 3c 5f e3 4b bc ad aa 7e 3c
       0.027876483 0.00981967 -0.012444346 0.015543622
0001e0 92 6b 44 3d b1 4d f8 bc a6 8c 84 3c ab 42 a0 bc
       0.04795415 -0.030310484 0.016180348 -0.01956304
0001f0 82 86 f3 3b 03 1c 91 3a 41 38 d7 3c 40 83 7a bc
       0.007431806 0.001107097 0.026271941 -0.0152900815
000200 69 38 a7 bb c5 bf 45 bd ef fe 4c 3d a0 bc 59 bd
       -0.00510316 -0.04827859 0.05004781 -0.053158402
000210 9b 86 44 3c 4a 0c d1 bb d2 c1 9a 3c df 84 65 bd
       0.011994983 -0.006379639 0.018891249 -0.05603492
000220 8c 43 be 3b 52 9b 83 bc fb fa 99 bc f8 c8 c9 3b
       0.005806392 -0.016065273 -0.018796435 0.0061579905
000230 ff 6b 6e 3c 0f ba 7c 3c 64 a7 9c 3d bf ce 0f bd
       0.014552115 0.015425219 0.07649115 -0.035109278
000240 60 6c e9 bc 66 f4 5f bc 0b aa 2c bc 9d 32 8e bc
       -0.02849406 -0.013669109 -0.010538588 -0.017358119
000250 6e d7 30 bb e2 71 20 bc b1 cc 89 3c 72 69 68 bb
       -0.0026983875 -0.009792777 0.016821237 -0.003546324
000260 b9 c9 bf bb 96 cd ad bc 1c 98 9a bc b1 b6 b9 bc
       -0.0058529046 -0.021216195 -0.01887136 -0.022670122
000270 c5 0d 2f bc 4f 09 94 3c 86 b7 80 bb f1 bc df ba
       -0.010684435 0.018070845 -0.0039281277 -0.0017069859
000280 ea 67 91 3b ba 81 d6 ba 28 84 60 bc ba 63 d9 3b
       0.0044374363 -0.0016365566 -0.0137033835 0.006634203
000290 23 53 d3 3c 43 85 5e bd 45 ef 58 bd 96 9c 31 3c
       0.025796479 -0.054326307 -0.05296256 0.010840556
0002a0 2c 95 da 39 98 7d ff 3c d2 68 d8 3c 11 70 c8 3c
       0.00041691342 0.031187817 0.02641717 0.0244675
0002b0 dd 8c cd 3b 39 e4 ec 3b 76 1f 2d 3c 2f 91 08 3c
       0.0062728957 0.0072293547 0.010566583 0.008335396
0002c0 70 7a 23 bd e9 bd bb bc a6 84 6b bc 22 a3 b5 3c
       -0.039911687 -0.022917705 -0.014374888 0.022172514
0002d0 50 5b de ba 8d f7 3e 3a 78 8c 54 3c b1 b6 b0 bc
       -0.0016964469 0.0007284813 0.0129729435 -0.021571489
0002e0 fa b6 7d bb 0e 98 05 3d 85 a0 36 bd 25 a6 1c bc
       -0.00387138 0.032615714 -0.044586677 -0.009561096
0002f0 e4 f3 6a bd 86 9c a1 bc 7b a5 7a 3c 53 90 39 3c
       -0.0573615 -0.019727957 0.015298243 0.0113259135
000300 88 d9 b3 bc 49 37 77 bc 13 c9 21 3b 8a 07 91 bc
       -0.021954313 -0.015088865 0.00246865 -0.01770379
000310 4d fd 94 bc b6 d8 15 3c ab 8f d1 3b c8 79 9c 3b
       -0.01818719 0.009145906 0.0063953004 0.0047752596
000320 76 3c df bc 4d ec 82 bc e5 70 32 3c b9 03 cc 3b
       -0.02725051 -0.015981818 0.010891174 0.0062260297
000330 00 76 95 3c 7d de 86 3c de 30 46 bd ae b7 9a 3c
       0.018244743 0.016463513 -0.048386447 0.018886413
000340 68 a5 8d 3b b2 43 3f bb 13 90 a8 3c 29 f1 00 bc
       0.0043226965 -0.0029184637 0.020576512 -0.007869997
000350 61 99 8e bd 2c ea 8d bc 73 58 28 3d 17 e5 58 bc
       -0.069628485 -0.017323576 0.041099977 -0.013238213
000360 c3 e1 17 bc 7d 90 ea 3b 58 ad 01 3c c8 dc 91 3c
       -0.009270134 0.0071583376 0.0079148635 0.017805472
000370 20 5c 51 3c 33 4b 34 3d 0a 17 24 bc ff b1 29 bd
       0.012778312 0.044017028 -0.010015259 -0.041429516
000380 bd 05 02 3d 3e 7e fe 3c 02 0d 13 3c 1b ab 4a bc
       0.031743754 0.031066056 0.008975269 -0.012369896
000390 d1 2f 5b bd 05 b0 21 3b 29 bc d6 3c 2f 86 73 3c
       -0.0535124 0.0024671566 0.026212769 0.014863535
0003a0 59 68 bc 3c f6 25 cc 3c aa 81 00 bd 88 ce ee bb
       0.022998976 0.024920445 -0.031373657 -0.007287804
0003b0 94 c5 8e bc 2d f8 19 3c 0b d7 a4 bc 6a 84 84 3c
       -0.017428197 0.009397549 -0.020122072 0.016176421
0003c0 48 aa 88 3d 79 71 37 3c e6 b2 21 bb 65 a6 ba bc
       0.066731036 0.011196488 -0.0024673282 -0.022784421
0003d0 b0 20 10 bd 02 45 f0 ba b3 91 9e 3c 73 24 e2 bb
       -0.035187423 -0.0018331113 0.019356584 -0.0069013177
0003e0 b8 61 73 bd 4e e9 82 3c 47 90 b7 bc 85 ba 14 3c
       -0.059419364 0.015980389 -0.022407664 0.009077673
0003f0 14 ac 41 bb 5a 53 02 bd 60 cb fa bc 74 24 ec 3c
       -0.002955203 -0.03181777 -0.030614555 0.028825976

action_model._discrete_distribution.branches.0.bias f4 [3]
000000 36 5b 14 bc ae 86 41 3c 14 aa d3 bb
       -0.0090549495 0.011811895 -0.006459484

action_model._discrete_distribution.branches.1.weight f4 [3, 128]
000000 15 d2 dd bc b0 38 e5 3c 4d 92 f4 3a 24 df f6 3c
       -0.027077714 0.027981132 0.0018659324 0.030135699
000010 26 0a 39 3c 4e a0 e6 bb 20 2a 05 3d 81 ca c1 3c
       0.0112939235 -0.007038153 0.032510877 0.023656132
000020 97 45 be 3c 40 7a 78 bc 89 8b af bc 81 e9 98 bc
       0.023226542 -0.015165865 -0.02142884 -0.01866603
000030 21 e6 0f 3d c3 6c 97 3c 6e de f5 bc aa 59 05 3d
       0.035131577 0.018484479 -0.03001329 0.032556213
000040 95 d8 94 bc fe 3f 1a 3d a8 47 d8 bc ea 6c 9f bc
       -0.01816968 0.037658684 -0.026401356 -0.019461114
000050 a8 b2 49 3c b9 fe 25 bc 54 98 b7 3c 68 dd 07 bc
       0.012310661 -0.010131531 0.022411503 -0.008292533
000060 be 67 7e bc 3b 9f c2 bc c4 84 af bc 83 9b 6e bc
       -0.015527664 -0.023757568 -0.021425612 -0.014563444
000070 39 31 a6 bc 5f c7 1e bd e7 91 08 bd 47 e1 15 3d
       -0.020287143 -0.038764354 -0.03334227 0.036591794
000080 22 99 e1 3c 8c ce 97 bc 26 f8 25 3b cc 9f ed 3c
       0.02753884 -0.018531106 0.002532491 0.029006861
000090 37 55 99 3c c6 86 c5 3c f2 81 73 3c a7 5f a3 bc
       0.018717391 0.024112117 0.014862524 -0.019943072
0000a0 5a 83 c4 3c 9b 81 0f bd 72 4f ae 3c 43 4b 63 3c
       0.023988415 -0.03503571 0.021278117 0.013872924
0000b0 68 9c a4 3c 57 c7 07 3d e1 66 fa 3c 6f 53 bf 3c
       0.020094112 0.03314909 0.030566635 0.023355214
0000c0 58 88 07 3d bf 1c 28 bc e1 f8 08 3d f3 b3 0d 3d
       0.033089012 -0.01026076 0.033440474 0.03459544
0000d0 56 92 36 bc e1 2d 09 3d 2e 86 00 bd 4a 7a 52 bb
       -0.011143288 0.03349102 -0.031377964 -0.0032116347
0000e0 b0 e7 1d bd 67 41 93 bc 70 fa 27 3d 0a 77 0d bd
       -0.038551033 -0.017975522 0.04101032 -0.034537353
0000f0 79 e1 8f 3c b2 b5 d2 3c ce 81 76 3c a6 cb 40 3c
       0.017563568 0.025721405 0.015045596 0.011767304
000100 e4 d1 ff bc 54 c2 e8 bc 97 cc 8c bc 67 3e b5 bc
       -0.031228013 -0.028412975 -0.0171874 -0.022124482
000110 b7 9e dc bc b9 30 dd 3c be fa 15 3d cd 7f b8 bc
       -0.02693115 0.027000772 0.03661608 -0.022521878
000120 c2 8f f4 3b 0f ca b1 bc 18 11 c4 3c c3 e4 dd 3c
       0.0074634263 -0.021702794 0.023933932 0.027086621
000130 45 c6 ba 3c f4 b2 a7 3c 13 6b 14 3d 31 ea f4 3c
       0.02279962 0.020471074 0.036234926 0.029896827
000140 0b d9 8a bc d6 79 1f 3d 94 fd ed 3b e8 20 c9 bc
       -0.016949197 0.03893455 0.007262895 -0.024551824
000150 a5 5f db 3c bc 05 de bc 89 bf 07 3c c9 cf da bb
       0.026779005 -0.027102344 0.008285412 -0.006677602
000160 ae 76 91 bc 71 5f e9 3c b4 4d 33 3c 43 f1 77 3c
       -0.017756786 0.028487893 0.010943819 0.015133205
000170 31 2a 06 3d bd 4c f2 3b f8 5a 18 bd 34 64 a4 3c
       0.03275508 0.007394402 -0.03719613 0.020067312
000180 9a c6 35 3c e9 4f ac 3c 0d 53 91 bc 32 81 f7 bc
       0.011094714 0.021034198 -0.017739797 -0.030212972
000190 ba 00 e8 3c a2 14 6d bb d1 10 ef 3b 93 27 c7 3b
       0.028320659 -0.0036175628 0.007295706 0.0060777157
0001a0 b4 73 e8 3c 19 f6 e8 3c f4 75 9c bc 06 35 ca bc
       0.028375484 0.028437661 -0.019099213 -0.024683487
0001b0 44 a7 d9 bc 5b 50 68 3c d1 4e 6c b9 49 7b 32 3c
       -0.026569016 0.0141793145 -0.00022536075 0.010893651
0001c0 1b 9b 4e bc 71 18 87 3c e6 55 91 bc 98 54 c7 3c
       -0.012610222 0.016491147 -0.017741155 0.02433233
0001d0 67 29 be bc b8 01 bc bc dd 61 ca 3c 3b cc cc bc
       -0.023213102 -0.022950038 0.024704868 -0.024999728
0001e0 d9 5e ec 3b 07 3c 55 3c 25 5e d7 bc bd d3 b0 3c
       0.007213455 0.0130148 -0.026290009 0.02158534
0001f0 23 79 0a bc bc ff 54 3c 4f bd 76 bc 4b e1 f1 3c
       -0.008451733 0.013000425 -0.015059783 0.029526373
000200 88 00 2b 3d 51 e9 8a bc 68 c1 35 3c f3 bc cf bc
       0.041748554 -0.016956957 0.011093475 -0.025358653
000210 66 73 a7 b8 bb 84 87 3c 0e 18 55 bd d5 7b 83 bb
       -7.984675e-05 0.016542783 -0.052024893 -0.0040125647
000220 e9 c4 97 bc d2 7b e7 3c e9 65 47 3d 98 4a b9 3c
       -0.018526511 0.028257284 0.048681173 0.022618577
000230 1e 45 60 bd b5 64 49 bd fe 88 66 bc 90 a5 fe bc
       -0.054753415 -0.049168307 -0.014070747 -0.031084806
000240 41 6c 1f 3b 5d b9 c4 bc cb 4a 2a 3c 10 b4 79 3c
       0.0024326 -0.02401417 0.010393809 0.015240684
000250 c3 e7 f0 bb 3a be a1 3c bf f6 34 bc be 4e 53 3c
       -0.007351847 0.019744027 -0.011045157 0.012897192
000260 1f d3 b2 bb 9f e1 c3 3b 61 9d 74 3b 1f 3f 2d 3d
       -0.0054572965 0.005977824 0.003732525 0.042296525
000270 a0 91 dc ba 26 79 de 3c 08 02 53 3c ce 92 dc bc
       -0.0016828068 0.027157377 0.012878902 -0.02692547
000280 50 e1 3f bd 2a af d1 3c 11 5a b2 bc 80 4b 8a bc
       -0.046845734 0.02559622 -0.021771463 -0.016881704
000290 f1 93 f4 bc b4 56 02 bc 6a 9b c1 bc 65 6c a2 39
       -0.0298557 -0.007955242 -0.023633678 0.00030979808
0002a0 fc e3 0b bd c1 a0 36 3d 3c 31 9a bc 82 fc d0 bc
       -0.03415297 0.0445869 -0.018822305 -0.02551103
0002b0 e8 d3 d9 bc 2f 07 39 bd fd c3 0f bd 7c 82 a2 bc
       -0.026590303 -0.045172866 -0.03509902 -0.01983761
0002c0 e8 82 c9 bc cd ed 81 bb 80 6e 9f bc 2b d2 ad bc
       -0.024598554 -0.0039651156 -0.01946187 -0.02121838
0002d0 87 f1 78 3c f0 51 82 bc b7 7b 28 3d aa c6 e6 3b
       0.015194303 -0.015908211 0.04113361 0.0070427256
0002e0 03 24 05 3d 49 34 83 3b e7 e4 d8 bb d6 6b b4 bb
       0.032505047 0.0040040356 -0.006619084 -0.005506019
0002f0 e9 f6 2e bc 0d fe c8 ba a9 3b 00 bd 86 13 36 bc
       -0.010678985 -0.0015334502 -0.031306896 -0.011113053
000300 8a 07 89 ba 0a e1 71 3c d2 8f b4 3c a4 4d cc 3c
       -0.0010454517 0.014763126 0.022041235 0.024939366
000310 04 be db 3c 15 d3 b0 bc 42 41 0c 3a bf e9 71 bc
       0.026824005 -0.021585027 0.00053503003 -0.014765202
000320 1b 32 d4 3a ba 2d ec 3c 22 f3 f6 bc 13 61 66 bd
       0.0016189249 0.028830398 -0.030145232 -0.05624492
000330 d9 f7 bc bc 3d 45 bf bb 63 41 26 bd 8e cb f4 bc
       -0.023067402 -0.0058371113 -0.0405897 -0.029882219
000340 85 df 38 bc 42 d9 24 bb 35 db e0 3b 1c 71 c3 3c
       -0.01128376 -0.002515391 0.006862069 0.023857646
000350 ac 1f cc bc e4 55 ee 3c 17 f9 02 bd ba 64 c5 bc
       -0.024917446 0.02909369 -0.03197583 -0.024095882
000360 8a 1b c3 3c 66 ca c5 3b ad bd 00 bc 9c b6 08 bc
       0.023816843 0.0060360907 -0.007857722 -0.008344319
000370 1f ee 02 bd ab d2 db bc c7 1d 17 3d 16 c5 1c bd
       -0.03196537 -0.026833853 0.036893632 -0.038273893
000380 1f 24 d8 bc bc f2 03 bd 62 7f 97 bc 89 54 ec 3c
       -0.026384411 -0.03221391 -0.018493358 0.028848903
000390 f6 aa c0 bc 83 ab 8b 3c 6f fe b1 3a 88 78 ba bb
       -0.02351902 0.017049557 0.0013579855 -0.005690638
0003a0 54 69 12 bc e0 7e 23 bd 34 6e 66 3c d3 2a c6 bc
       -0.008936245 -0.03991592 0.01406436 -0.024190342
0003b0 18 14 a0 39 8c c8 42 bc 12 b4 75 ba fb 65 c4 bc
       0.0003053255 -0.011888634 -0.0009372841 -0.02397441
0003c0 09 b1 8f 3c 78 c7 d0 bc 80 26 bc 3b 31 04 26 bb
       0.017540472 -0.02548574 0.0057418942 -0.0025332088
0003d0 69 fe 13 3d 58 5c 04 3c bd 04 ba bb 0b 42 03 3d
       0.036131296 0.008078657 -0.0056768344 0.032045405
0003e0 3a 26 03 bd bf 25 75 bc 21 c8 3b 3d 21 93 4b bc
       -0.032018878 -0.014962613 0.045845155 -0.012425215
0003f0 ad 55 19 bb 09 9c a4 bc e3 fd c4 3c a7 8f 0c bb
       -0.0023397014 -0.020093935 0.024046844 -0.0021447928

action_model._discrete_distribution.branches.1.bias f4 [3]
000000 6a 69 ad 3c c5 b3 87 bc 63 7a 8f bc
       0.02116843 -0.016565213 -0.017514413

action_model._discrete_distribution.branches.2.weight f4 [2, 128]
000000 cd e7 95 bc 79 24 29 3c 77 2a 84 bc 0c 46 58 3d
       -0.018299008 0.010323637 -0.01613353 0.052801177
000010 6d 44 b5 3c 32 f9 38 bc 30 59 04 3d 19 34 c3 3c
       0.022127355 -0.011289882 0.03231162 0.023828553
000020 03 36 ca 3c 3e 31 0c bd 16 ce e0 bc 0c 18 b7 bc
       0.024683958 -0.03422665 -0.02744202 -0.022350334
000030 94 39 99 3c 44 61 84 3c 81 c8 3f bc 04 d1 58 3d
       0.018704213 0.016159661 -0.011705519 0.052933708
000040 f6 d7 b0 bc fd 09 0b 3d c6 a9 dd bc 76 1a 9e bc
       -0.021587353 0.033945072 -0.027058493 -0.019299727
000050 56 7a a0 3b a9 91 f7 bc 11 d0 b0 3c 9e db ac bc
       0.004897396 -0.030220823 0.021583589 -0.021100815
000060 ba 74 ce bc 00 fe 47 bc 48 7f db bc 62 01 d2 bc
       -0.025202144 -0.012206554 -0.02679409 -0.025635425
000070 29 5e c1 bc 80 8d 3d bc e3 1f e1 bc 50 1b bf 3c
       -0.02360447 -0.011569381 -0.027481025 0.023328453
000080 b2 14 28 3d 22 55 ef bc c3 a2 f4 3c 45 a6 b4 3c
       0.04103536 -0.0292154 0.029862767 0.02205194
000090 3c 9f ee 3c e3 07 6b 3d 18 4d 0a 3d 51 34 96 bc
       0.029128663 0.05738057 0.03376493 -0.018335493
0000a0 49 75 2c 3d 7c eb 03 bd ff 99 1b 3c 37 18 43 3c
       0.04210404 -0.032206997 0.009497165 0.011907629
0000b0 f8 6a f4 3c e7 c6 0a 3c 68 12 93 3c 80 a9 d5 3c
       0.029836163 0.008470274 0.017953113 0.0260818
0000c0 df 57 22 3d 7f 8e 1f 3c 4b d4 9d 3c 15 b2 00 3d
       0.03963458 0.009738564 0.019266268 0.031419832
0000d0 64 95 0f bd 23 b4 ce 3c 57 3c 47 bd e6 c1 01 bd
       -0.03505458 0.02523238 -0.04864153 -0.031679057
0000e0 10 49 5d bc 58 93 19 bd 1d c1 3c 3d 3a 23 bc bc
       -0.013506189 -0.037494034 0.046082605 -0.022966016
0000f0 3e e1 02 3d 92 a6 32 3d 02 a0 12 3d 27 61 48 3d
       0.03195309 0.043615885 0.035797127 0.048920777
000100 2b 98 8b bc 42 fa 85 bc d2 6b c8 bc 82 04 be bc
       -0.017040333 -0.016354684 -0.024465475 -0.023195509
000110 a6 a9 9f bc 62 2a b6 3c e0 0b 13 3d d1 87 75 bc
       -0.019490074 0.022237007 0.035899997 -0.014985994
000120 0d dd db bc 7b 01 d1 bc 04 9c 8c 3b 30 9a 84 3c
       -0.026838804 -0.025513401 0.0042910594 0.016186804
000130 79 2a 1c 3c 13 1e 25 3c f3 5a 34 3d fa d0 c9 3c
       0.009531611 0.010077971 0.04403205 0.02463578
000140 cd 28 f5 bb 71 20 71 3c 12 a0 68 3c 3f 71 5f bc
       -0.0074816705 0.014717207 0.01419832 -0.01363784
000150 63 0e b4 3c ba 75 dc bc c9 79 ec 3b c3 fa 3d bc
       0.021979516 -0.026911605 0.0072166664 -0.011595431
000160 86 d6 e1 bc 4e b7 be 3c 19 d2 70 3c ba 6b 1e 3d
       -0.027568113 0.023280766 0.014698529 0.038676955
000170 9b f2 d8 3c 8f b1 05 3d 23 0d 6d bc 2f d7 0f 3d
       0.02648287 0.032640036 -0.014468464 0.035117324
000180 c1 35 53 3c 24 0c 24 3d e6 4b fb bc 05 8c a8 bc
       0.012891234 0.04005064 -0.03067584 -0.020574579
000190 09 49 20 3d e0 57 c1 3c 9a d5 95 3c 5e c1 15 3d
       0.03913215 0.023601472 0.01829033 0.036561362
0001a0 92 d6 9a 3c 78 73 09 3d eb 02 91 bc 99 70 df bc
       0.018901143 0.033557385 -0.017701587 -0.02727537
0001b0 e5 71 13 bc 06 89 ec 3c 01 2c cb bc f9 cd e8 3c
       -0.008999323 0.028873932 -0.024801256 0.028418528
0001c0 ca 16 f1 bc e4 8f 01 3d 88 56 fc bc dd ea e7 3c
       -0.029429812 0.031631365 -0.03080298 0.028310234
0001d0 c8 ed da bc 04 49 9b bc fa 7e 47 3c f6 93 b1 bc
       -0.026724711 -0.018955715 0.01217627 -0.021676999
0001e0 33 60 42 3d 5e 40 c4 3c dd ab 8a bc 7d 76 cd 3c
       0.047455024 0.023956474 -0.016927654 0.025080914
0001f0 7c 41 df bc a1 6c 01 3d 51 2c 40 3c 04 a2 a0 3c
       -0.027252905 0.031597737 0.011729316 0.019608505
000200 21 bd b8 3c 30 48 82 bc 9c 91 94 3c e9 e6 40 bd
       0.022551121 -0.015903562 0.018135838 -0.047095213
000210 c6 63 7f bc c1 44 e2 3c 1e 2e ee bc cd 7c 17 bd
       -0.015587753 0.027620675 -0.029074725 -0.036984254
000220 2c f0 86 bc 35 50 b9 3c f2 ac 97 3c 0e e9 e6 3c
       -0.016471945 0.022621254 0.018515084 0.028187301
000230 9d 2b df bc 86 d2 e5 bc ed 3c 94 3c bd 9a 2f bd
       -0.027242476 -0.028054487 0.018095458 -0.04287218
000240 3c bf c4 3c ca a9 2e bd c5 85 90 3c f3 f3 7c 3c
       0.024016969 -0.042642392 0.017641911 0.015439021
000250 f5 59 c8 bc 97 b6 03 3d 28 af 3b bc 25 de f3 3c
       -0.024456957 0.032156553 -0.011455335 0.029769013
000260 f7 1f 8e 3c ba c3 c9 3c df 83 02 3d 4d 2f 19 3d
       0.017349226 0.024629463 0.031864043 0.037398625
000270 c8 b6 ef 3c ec 07 0a 3d ca 1e a6 3c 20 a5 32 bc
       0.029261962 0.03369896 0.020278353 -0.010903627
000280 23 d3 15 bd 8f aa d9 3b 41 30 9c bc 02 4b 07 bd
       -0.03657831 0.0066426466 -0.019065978 -0.033030517
000290 d0 39 3c bc b5 5e 21 bd 5d 0c fb bc 6b 72 2e 3d
       -0.011488393 -0.03939696 -0.030645544 0.042589586
0002a0 9b 26 1d bd f5 eb a1 3c 9b 07 c1 bc 53 49 b6 bc
       -0.038366895 0.019765833 -0.023563197 -0.02225176
0002b0 d7 88 d4 bc b3 ce aa bc 17 8c bb bc 46 c2 7c bc
       -0.025944157 -0.020850515 -0.022893948 -0.015427178
0002c0 5f 72 32 bd 3d c9 9b bb b5 a7 ad bc e3 df ca bc
       -0.043566104 -0.004754214 -0.021198133 -0.02476496
0002d0 18 fb 94 3c f4 73 df bc 36 a0 06 3d 3e 48 28 3d
       0.018186137 -0.02727697 0.032867633 0.04108452
0002e0 45 5e 07 3d c6 56 14 3d 8f 29 18 bd 9c 6c 07 3c
       0.033048887 0.036215566 -0.03714901 0.008265641
0002f0 f0 38 1e bd 20 19 e0 bc 46 54 db bc 47 b6 00 bd
       -0.03862852 -0.02735573 -0.026773583 -0.031423833
000300 31 93 04 3d 79 65 0b 3d a2 70 48 3c 51 3f e5 3c
       0.032366935 0.03403232 0.012233885 0.027984293
000310 8a cf 03 3d 8e 66 be bc fa 95 a6 bc eb d1 0d 3d
       0.032180347 -0.023242261 -0.020335186 0.03462402
000320 77 5b 7c 3c e8 f2 8e 3c 3f 71 0e bd df b3 da bc
       0.015402666 0.017449811 -0.03477597 -0.026697097
000330 1d 2b 0d bd 9b 00 a7 bc bc f3 1a bd 9c 46 d7 bc
       -0.034464944 -0.02038603 -0.0378301 -0.026278786
000340 a0 d8 a7 3c 78 9b d8 bc 1f 59 0d bd 54 44 24 3d
       0.020489037 -0.02644132 -0.03450882 0.040104225
000350 b5 c5 17 bd 09 b6 af 3c b4 92 0c bc 5d 79 9d 39
       -0.037053782 0.021449106 -0.008579899 0.00030035796
000360 fa e8 0a 3d 12 f8 ce bc 38 8e c1 bc 81 17 b0 bc
       0.03391359 -0.025264774 -0.023627385 -0.021495583
000370 3b fe 0c bd a1 3c bf bc 84 90 2b 3d 56 90 f3 bc
       -0.03442214 -0.02334434 0.041885868 -0.02973191
000380 ab 05 b7 bc 45 d8 f2 bc d2 c0 b0 3c 77 ea f3 3c
       -0.02234157 -0.029644141 0.021576319 0.029774887
000390 11 b0 53 bd 96 0b 0a bd 08 ab db bc cd ae d3 bc
       -0.051681582 -0.033702455 -0.026814952 -0.025840187
0003a0 ed 89 cf bc fd f2 07 bd f6 77 2e 3c 68 18 1e 3d
       -0.025334323 -0.033190716 0.010648718 0.038597494
0003b0 43 59 39 bb fd 95 27 bd 99 72 a3 3c 12 e4 91 bc
       -0.0028281964 -0.040914524 0.019952105 -0.017808948
0003c0 45 6f b6 3c eb cb 96 bc f2 ce 64 3c ef 65 25 bd
       0.022269854 -0.018407783 0.013965355 -0.040380415
0003d0 c1 f5 85 3c f1 8e b9 3c 07 0d eb bc d1 54 45 3c
       0.016352536 0.022651168 -0.028692735 0.012044148
0003e0 53 b1 52 bd b8 f5 a3 bc 54 b2 19 3d 46 56 3b bc
       -0.05143864 -0.020014629 0.037523583 -0.011434143
0003f0 2a 16 a7 3c 47 fb 17 bd 98 b1 a2 bc 29 30 a9 bb
       0.02039631 -0.03710487 -0.019860074 -0.005163212

action_model._discrete_distribution.branches.2.bias f4 [2]
000000 31 31 78 3c 30 31 78 bc
       0.015148447 -0.015148446
