results/PressButton/IL-newRewards-test2/PressButtonAgent/PressButtonAgent-39988.onnx (onnx, 83197 bytes, 11 tensors)

discrete_act_size_vector f4 [1, 3]
3.0 3.0 2.0
00000000: 0000 4040 0000 4040 0000 0040

network_body._body_endoder.seq_layers.0.weight f4 [128, 6]
-0.054971755 -0.34220737 -0.31877598 -0.051474143 0.26536986 -0.32954764 0.6441065 -0.5066298
0.76107144 -0.25959525 -0.48105687 0.49173614 -0.047226917 -0.12853467 -0.47420353 0.1366019
-0.36445263 -0.08303418 -0.4042916 0.26370856 0.6089299 -0.12046665 0.644586 0.8612718
0.14007725 0.20720711 -0.003415266 0.29288718 0.14669184 0.42078823 0.08826583 -0.53411186
0.1021767 0.1351988 -0.009630656 0.45274118 0.05258289 0.09403735 0.8724178 -0.65201825
-0.22417642 0.47368956 -0.6735365 0.33937693 0.1590056 -0.9380733 0.18936963 -1.0628012
0.41464433 0.43574354 -0.5730878 0.58018917 0.45234755 0.6325043 1.4070599 0.75001717
-0.2551258 0.1911679 -1.1920333 -0.122843 0.08424326 -0.25596133 -0.6951702 -0.07777935
0.352173 0.0885474 -0.35241762 0.14762338 -0.78755456 -0.2190036 -0.29496235 0.3985857
-0.60864395 -0.805711 0.05337898 -0.23846151 0.3116041 0.50227463 1.0346553 -0.101777315
-0.026198173 0.63814765 -0.39348763 -0.48636228 -0.43622795 -0.49860513 0.7054979 0.38205692
0.082351506 -0.62220985 0.43493623 0.8680068 0.52328616 0.10900616 -0.33832338 0.11502987
-1.2523916 -0.49137297 0.080578774 -0.056192834 -0.06525802 0.14272015 -0.036089268 0.41280672
-0.45374915 -0.069757454 -0.18832004 -0.2653545 -0.2032895 0.31443197 0.19120347 0.049351238
0.21161903 -0.70025855 -0.15603767 -0.11419719 0.043362506 0.22603816 -0.05789835 0.27109984
1.1079525 -0.21367572 -0.3379809 -0.19091313 -0.068831354 0.09627973 -0.55576164 -0.4562435
-0.6210321 0.1459882 0.2552857 -0.44893518 -0.33349666 -0.096919954 -0.24982022 -0.3405935
0.09025752 0.169574 -0.13629232 -0.2028147 0.033365168 -0.16830254 -1.4246776 0.15945542
0.3437672 0.2375726 -0.6443702 0.23636901 0.19339055 -0.042927355 -0.54029346 -0.4188536
0.14218415 -0.5717478 0.18474166 -0.33114433 0.34704894 0.0053541944 -0.30245107 -0.17594765
0.69656354 -0.5185584 -0.78315306 0.3347565 -0.18098696 0.6931121 0.017249344 0.5356658
-0.57769597 -0.75224453 -0.18861015 0.40530667 0.078939185 0.7383013 -0.7907004 -0.98237246
0.18784498 -0.054497104 -0.0772408 0.25420797 -0.27604493 -0.031417847 -0.7897329 -0.25955135
0.17345902 -0.04771132 0.7902412 -0.13357744 -0.60047436 -1.2105834 0.6057343 0.053397045
0.43739447 0.53117144 -0.14797409 -0.3931981 0.5629245 -0.09376862 0.12286438 -0.6525726
-0.04677532 0.09307643 0.46165675 0.6364403 0.3071135 0.01696531 0.23611146 -0.039851464
0.043811306 -0.3934207 -0.33471936 -0.03258801 0.3372036 -0.6611803 0.37626818 -0.7533459
-0.030067353 -0.63484216 0.07374283 0.38654244 0.4764191 0.36157387 0.3340639 0.5309907
-0.980438 -0.14874452 0.04160776 0.3600467 -0.13065644 -0.26669493 -0.5739183 -0.2222581
-0.22458394 -0.42385346 0.59556973 -0.29263774 0.2530296 0.094643526 -0.256074 0.32722953
-0.09034325 -0.73187596 0.2881504 -0.3648776 0.4955881 0.35371467 0.1773744 0.33422732
0.02536046 -0.16286358 -0.5129766 0.4637796 -0.2904565 0.2941904 0.3707328 0.005558639
00000000: 102a 61bd ce35 afbe 9b36 a3be 8dd6 52bd
00000010: 8fde 873e 78ba a8be 2ae4 243f 7eb2 01bf
00000020: 94d5 423f abe9 84be 164d f6be d7c4 fb3e
00000030: 0371 41bd 989e 03be ceca f2be 5ee1 0b3e
00000040: 8999 babe d30d aabd 4fff cebe cf04 873e
00000050: d4e2 1b3f 38b7 f6bd 9703 253f 4f7c 5c3f
00000060: 6970 0f3e 1a2e 543e a8d2 5fbb 4ff5 953e
00000070: 6336 163e 8e71 d73e b7c4 b43d 8ebb 08bf
00000080: 0542 d13d 8e71 0a3e e6c9 1dbc b1cd e73e
00000090: 2861 573d a796 c03d c656 5f3f abea 26bf
000000a0: 818e 65be 7087 f23e e36c 2cbf d0c2 ad3e
000000b0: 5dd2 223e 9225 70bf 1dea 413e df09 88bf
000000c0: 434c d43e c719 df3e e2b5 12bf 4787 143f
000000d0: 199a e73e cdeb 213f 8a1a b43f 2001 403f
000000e0: d99f 82be 85c1 433e 8c94 98bf 1c95 fbbd
000000f0: bb87 ac3d 5d0d 83be adf6 31bf c84a 9fbd
00000100: 0550 b43e 5758 b53d 1570 b4be 952a 173e
00000110: 2d9d 49bf 7b42 60be 4e05 97be 6d13 cc3e
00000120: 17d0 1bbf 1343 4ebf eba3 5a3d 412f 74be
00000130: 938a 9f3e 1295 003f 966f 843f a070 d0bd
00000140: 8d9d d6bc a55d 233f 3677 c9be 7a04 f9be
00000150: 4559 dfbe 2c49 ffbe 839b 343f f79c c33e
00000160: e8a7 a83d 2549 1fbf f6af de3e b235 5e3f
00000170: 15f6 053f 9f3e df3d b938 adbe c894 eb3d
00000180: 5e4e a0bf 3d95 fbbe 7c06 a53d 752a 66bd
00000190: ffa5 85bd 3b25 123e 57d2 13bd 675b d33e
000001a0: cf51 e8be ffdc 8ebd f8d6 40be 8cdc 87be
000001b0: 1f2b 50be 3afd a03e d8ca 433e 8624 4a3d
000001c0: a9b2 583e 2544 33bf 57c8 1fbe 37e0 e9bd
000001d0: e29c 313d 8c76 673e d226 6dbd 99cd 8a3e
000001e0: 63d1 8d3f cfcd 5abe d50b adbe bb7e 43be
000001f0: 74f7 8cbd 4f2e c53d 6546 0ebf bf98 e9be
00000200: f6fb 1ebf ee7d 153e cfb4 823e d5da e5be
00000210: 13c0 aabe f87d c6bd dfd0 7fbe 4562 aebe
00000220: efd8 b83d cfa4 2d3e 3790 0bbe a8ae 4fbe
00000230: eaa9 083d 8057 2cbe d65b b6bf 4848 233e
00000240: 4102 b03e 3b46 733e 72f5 24bf b80a 723e
00000250: 2c08 463e 98d4 2fbd ac50 0abf fb73 d6be
00000260: b998 113e 105e 12bf eb2c 3d3e c08b a9be
00000270: 66b0 b13e 3d72 af3b deda 9abe 9f2b 34be
00000280: fd51 323f 3ec0 04bf b87c 48bf 3465 ab3e
00000290: a554 39be cb6f 313f 7f4e 8d3c 6521 093f
000002a0: e2e3 13bf 1993 40bf 0523 41be 5b84 cf3e
000002b0: deaa a13d 5001 3d3f 576b 4abf c37c 7bbf
000002c0: 6f5a 403e 5b38 5fbd 6d30 9ebd 8c27 823e
000002d0: c355 8dbe 00b0 00bd ef2b 4abf eae3 84be
000002e0: 3e9f 313e f26c 43bd 3f4d 4a3f 86c8 08be
000002f0: b0b8 19bf 66f4 9abf 6711 1b3f dcb6 5a3d
00000300: 2bf2 df3e dafa 073f 8586 17be 4351 c9be
00000310: d21b 103f c309 c0bd 52a0 fb3d ff0e 27bf
00000320: 7a97 3fbd db9e be3d 465e ec3e c0ed 223f
00000330: fb3d 9d3e d5fa 8a3c 34c7 713e 4a3b 23bd
00000340: 7c73 333d 706e c9be 5660 abbe 017b 05bd
00000350: f3a5 ac3e 1d43 29bf 39a6 c03e 47db 40bf
00000360: cf4f f6bc 0485 22bf 7b06 973d e4e8 c53e
00000370: 34ed f33e 3620 b93e 6c0a ab3e 02ef 073f
00000380: fcfd 7abf 7c50 18be e66c 2a3d 0b58 b83e
00000390: cdca 05be 3d8c 88be 4fec 12bf a197 63be
000003a0: 55f9 65be 5203 d9be 4277 183f 9dd4 95be
000003b0: 198d 813e 77d4 c13d 221c 83be a18a a73e
000003c0: e205 b9bd 395c 3bbf 7388 933e 3dd1 babe
000003d0: b9bd fd3e 171a b53e a2a1 353e d81f ab3e
000003e0: bdc0 cf3c b6c5 26be 6f52 03bf 8574 ed3e
000003f0: b7b6 94be 20a0 963e b1d0 bd3e 3e25 b63b

network_body._body_endoder.seq_layers.0.bias f4 [128]
-0.018459896 -0.009644376 0.044760596 0.024229173 0.028409444 -0.026410332 -0.008008905 0.015626399
0.04486199 0.03054424 0.010169273 0.009812883 0.07085418 0.042477753 0.05062944 0.030995766
-0.008530292 0.04548854 0.022143563 0.03994347 0.0066930773 -0.0043672775 -0.019406738 0.059147034
0.0515349 -0.016535467 0.04763249 0.019637732 0.02114388 0.09018684 0.0033710147 0.039181147
0.016162504 -0.002174813 -0.0210765 0.01081106 0.010940803 0.053842064 0.00142928 0.04269321
0.010568897 0.032076366 0.027378423 0.010389729 0.013404665 -0.019455332 0.026522603 0.023480086
0.02267127 0.03652571 -0.0062305056 0.050013784 0.007612089 0.022167318 -0.015006957 -0.027730647
0.02119347 -0.02672517 0.05167778 -0.0096184835 -0.018175228 -0.006277194 0.015629312 0.0067840572
0.03207883 0.026355678 0.045940705 0.015649945 0.033668987 0.039228916 0.03228852 0.03392809
0.017663218 0.04335603 0.012282197 0.017461488 0.020613031 0.03247669 0.01734926 0.04043394
-0.01085229 0.046503067 0.030163547 -0.02419796 0.028542427 -0.03128729 -0.0080457 0.031973373
5.801226e-05 -0.012379208 0.008534609 0.053199198 -0.043999776 0.021409698 0.00032550417 0.0063814064
-0.014626693 0.046241175 0.0066443644 0.026513042 0.02237388 0.026079834 0.024884777 0.0479993
0.03348731 0.0041523934 0.058594 0.0059685633 0.06237292 0.00044304 -0.035183836 0.042376824
0.012391255 0.04663282 0.042883676 0.034212764 0.035886113 0.02951279 -0.004392489 0.0055210176
0.038494613 0.047682334 0.041056227 -0.0036987215 0.050646394 0.0014609372 0.036216084 -0.0024113294
00000000: 3539 97bc 7203 1ebc e356 373d 427c c63c
00000010: ecba e83c 7b5a d8bc c837 03bc ef02 803c
00000020: 35c1 373d ea37 fa3c 069d 263c 37c6 203c
00000030: ff1b 913d 27fd 2d3d d160 4f3d d5ea fd3c
00000040: a3c2 0bbc 3152 3a3d 6b66 b53c c49b 233d
00000050: 9a51 db3b 611b 8fbb e1fa 9ebc 2944 723d
00000060: 4216 533d 6375 87bc 491a 433d 4fdf a03c
00000070: ee35 ad3c e1b3 b83d 3eec 5c3b 697c 203d
00000080: 3a67 843c 4f87 0ebb a0a8 acbc df20 313c
00000090: 0e41 333c 7f89 5c3d ae56 bb3a 13df 2e3d
000000a0: 2b29 2d3c 8262 033d b748 e03c af39 2a3c
000000b0: 3d9f 5b3c ca60 9fbc ee45 d93c 4f59 c03c
000000c0: 19b9 b93c fc9b 153d 4529 ccbb 41db 4c3d
000000d0: d56e f93b 3c98 b53c bddf 75bc 622b e3bc
000000e0: ee9d ad3c beee dabc 14ac 533d d896 1dbc
000000f0: 37e4 94bc ebb0 cdbb 0b09 803c cc4c de3b
00000100: 1765 033d dde7 d73c 522c 3c3d 5034 803c
00000110: 7ee8 093d 80ae 203d f840 043d 2ef8 0a3d
00000120: 74b2 903c 1896 313d 453b 493c 650b 8f3c
00000130: a9dc a83c 4706 053d 0920 8e3c 0f9e 253d
00000140: cecd 31bc 007a 3e3d 8b19 f73c cd3a c6bc
00000150: cfd1 e93c 1a27 00bd 1dd2 03bc 83f6 023d
00000160: 3152 7338 29d2 4abc bfd4 0b3c 67e7 593d
00000170: 1c39 34bd 6463 af3c 6ea8 aa39 1e1b d13b
00000180: cca4 6fbc 6367 3d3d f8b8 d93b e131 d93c
00000190: 6d49 b73c 60a5 d53c 29db cb3c ea9a 443d
000001a0: fd29 093d cd10 883b 4300 703d f093 c33b
000001b0: bf7a 7f3d d247 e839 ed1c 10bd 5293 2d3d
000001c0: b104 4b3c 0e02 3f3d cba6 2f3d af22 0c3d
000001d0: 51fd 123d cec4 f13c deee 8fbb a7e9 b43b
000001e0: 87ac 1d3d 8d4e 433d 932a 283d 4066 72bb
000001f0: 9872 4f3d eb7c bf3a 5157 143d 6507 1ebb

network_body._body_endoder.seq_layers.2.weight f4 [128, 128]
0.013317508 0.11480939 -0.11950269 0.19937305 0.04170622 -0.06665516 0.10038584 0.05787931
0.057706527 -0.08030497 -0.006477107 -0.14188455 0.03161817 -0.07693549 0.1405487 -0.12646048
-0.0028864485 0.17177606 -0.18020225 0.1323779 -0.019416569 -0.20899007 0.14322664 -0.014047506
0.1209374 0.16933209 -0.096085526 0.12755334 -0.22793874 -0.07310222 -0.0009927452 -0.16418754
-0.046911035 0.08261248 -0.0234743 0.1927445 0.025357971 -0.057526015 0.06485054 0.042454876
0.049844723 -0.06228388 0.08328005 0.03636783 0.16649751 0.20818752 -0.034544893 0.0024500282
-0.03395964 0.058543433 0.09125979 0.23832794 -0.07130707 0.16148174 0.16479184 0.00932995
0.09673514 -0.034393284 -0.0821557 0.10861564 -0.055129874 0.24979983 -0.20533985 0.09009036
0.097812 -0.08351436 -0.1130337 0.019694906 0.003459674 0.083595924 -0.052073706 0.088129245
0.008346747 -0.105273046 -0.034641646 0.014690478 0.11467283 -0.075677134 -0.19072045 -0.06868215
0.022248356 0.045979243 -0.005352672 0.14317134 0.082506865 -0.02247592 0.046966735 -0.0029795014
0.04047853 -0.18497166 0.10312732 -0.047625504 0.037494503 -0.021931259 -0.023628807 0.0007042399
-0.07353609 -0.085681185 -0.14961116 0.001935399 -0.14671974 0.03921594 -0.05796838 -0.020837793
0.09856271 0.053913176 -0.0056458074 0.20547102 0.018339219 0.027001573 0.06117556 -0.025695262
-0.0833118 -0.009969977 0.11302353 0.048315626 0.19481578 0.04521429 -0.0556833 0.026215058
0.0026677398 0.003322116 -0.19332582 0.091349326 -0.12051367 -0.072873175 0.0066852244 -0.0946504
-0.04682132 -0.091716565 0.05616681 -0.023601364 0.03607685 -0.12931746 -0.02778951 -0.06767589
-0.015139857 0.06073007 0.080050394 -0.026388979 0.017133603 0.10757757 -0.028926287 0.00097522244
0.09551035 -0.11698765 0.1387217 0.08538523 0.14866272 -0.010266353 0.08785089 -0.017369289
0.11796731 0.03515296 -0.12604369 -0.021687817 0.043243743 0.041936643 0.040220898 0.010494083
0.15349892 -0.18266606 -0.1731913 -0.15891372 0.06577805 0.095231734 0.10697273 -0.07044301
-0.121904925 0.11563324 0.15769428 -0.1500724 -0.03664718 0.0047361823 -0.086511165 0.03143204
0.0707573 0.022015974 0.0512541 -0.04708357 -0.1064328 -0.1300625 0.07512752 -0.08644906
0.27311394 -0.09119148 0.09090997 -0.058485627 0.032279905 -0.12458356 -0.065389596 -0.057873663
-0.044693444 -0.06338287 0.05322336 0.13009854 0.118217744 -0.039917015 0.0576603 0.089822024
0.11629885 0.09864319 -0.005224247 -0.002165623 -0.05615971 -0.09960132 -0.07490404 -0.08627917
-0.017548155 0.042626258 -0.12681043 -0.030371573 0.09205013 0.03867203 0.030036239 -0.12717874
-0.03242488 -0.019754775 -0.17933297 -0.1967973 -0.080931894 0.065534115 -0.05067256 -0.2411267
-0.042825945 -0.07270477 -0.0030598938 0.12325158 -0.07836591 0.13931754 -0.031499263 0.097553484
-0.0029822788 -0.1305859 -0.03758321 0.041410793 -0.0008318056 -0.033248536 -0.08816182 0.05600551
0.13803881 0.18760245 0.09831868 -0.015102362 -0.09026708 0.13181295 -0.09389571 0.13043863
0.011141756 0.040612478 0.14245503 -0.07756683 0.112898566 -0.010150652 0.004048479 0.038105294
00000000: ad31 5a3c 2f21 eb3d d4bd f4bd 7328 4c3e
00000010: 24d4 2a3d 8082 88bd 1797 cd3d db12 6d3d
00000020: ae5d 6c3d ef76 a4bd e93d d4bb 2f4a 11be
00000030: 0e82 013d 5b90 9dbd 00ec 0f3e db7e 01be
00000040: 922a 3dbb 10e6 2f3e f086 38be 128e 073e
00000050: 7f0f 9fbc 7e01 56be 01aa 123e 8327 66bc
00000060: 07ae f73d 6465 2d3e 7dc8 c4bd 589d 023e
00000070: c668 69be 9eb6 95bd 001f 82ba c720 28be
00000080: c925 40bd bb30 a93d 2d4d c0bc d05e 453e
00000090: 85bb cf3c 66a0 6bbd 5cd0 843d 2ae5 2d3d
000000a0: fb29 4c3d 621d 7fbd bb8e aa3d 6ff6 143d
000000b0: 537e 2a3e 1c2f 553e f27e 0dbd a790 203b
000000c0: 4319 0bbd 3dcb 6f3d 6ae6 ba3d 3d0c 743e
000000d0: 7109 92bd 785b 253e 31bf 283e a6dc 183c
000000e0: 131d c63d f9df 0cbd 3f41 a8bd e071 de3d
000000f0: ddcf 61bd 87cb 7f3e 9c44 52be 4b81 b83d
00000100: a851 c83d 9409 abbd 367e e7bd 3657 a13c
00000110: b3bb 623b 5734 ab3d 3d4b 55bd 1b7d b43d
00000120: cbc0 083c 6599 d7bd 66e4 0dbd 55b0 703c
00000130: 97d9 ea3d 9dfc 9abd 394c 43be 3aa9 8cbd
00000140: 2f42 b63c bb54 3c3d 7865 afbb 829b 123e
00000150: 5cf9 a83d 6c1f b8bc 3160 403d bd43 43bb
00000160: d1cc 253d 3669 3dbe 6b34 d33d f612 43bd
00000170: d693 193d 2fa9 b3bc 3391 c1bc bd9c 383a
00000180: 179a 96bd 9e79 afbd ab33 19be 37ad fd3a
00000190: b33d 16be e5a0 203d 4170 6dbd 05b4 aabc
000001a0: 3fdb c93d 10d4 5c3d 7700 b9bb ff66 523e
000001b0: 213c 963c 6732 dd3c 3993 7a3d df7e d2bc
000001c0: 619f aabd 1d59 23bc e178 e73d 9be6 453d
000001d0: ca7d 473e 9f32 393d 2c14 64bd f6c0 d63c
000001e0: 3fd5 2e3b dcb7 593b 34f7 45be 5b15 bb3d
000001f0: dfcf f6bd 883e 95bd ba0f db3b 12d8 c1bd
00000200: b6c7 3fbd e5d5 bbbd 2b0f 663d a657 c1bc
00000210: 52c5 133d cc6b 04be d4a6 e3bc a899 8abd
00000220: 2a0d 78bc 18c0 783d 76f1 a33d b32d d8bc
00000230: c55b 8c3c a151 dc3d d2f6 ecbc 12a6 7f3a
00000240: ee9a c33d 3997 efbd 100d 0e3e 74de ae3d
00000250: 0a3b 183e 3534 28bc 2beb b33d 0a4a 8ebc
00000260: d898 f13d 8dfc 0f3d 9911 01be a6aa b1bc
00000270: 5a20 313d c2c5 2b3d abbe 243d 60ef 2b3c
00000280: d22e 1d3e d00c 3bbe 0f59 31be 47ba 22be
00000290: a4b6 863d db08 c33d 8514 db3d 6d44 90bd
000002a0: 4aa9 f9bd 1fd1 ec3d 9c7a 213e 94ac 19be
000002b0: 5a1b 16bd fa31 9b3b c42c b1bd e2be 003d
000002c0: 34e9 903d d85a b43c d2ef 513d b4da 40bd
000002d0: 71f9 d9bd 1b2f 05be 75dc 993d 340c b1bd
000002e0: 97d5 8b3e 99c2 babd 022f ba3d a08e 6fbd
000002f0: ef37 043d aa25 ffbd fbea 85bd ef0c 6dbd
00000300: 7910 37bd e1ce 81bd bd00 5a3d 8d38 053e
00000310: 251c f23d 0680 23bd 352d 6c3d 9cf4 b73d
00000320: 172e ee3d 7105 ca3d 2930 abbb 20ed 0dbb
00000330: b907 66bd c7fb cbbd 4a67 99bd 22b3 b0bd
00000340: 26c1 8fbc df98 2e3d 98da 01be cecd f8bc
00000350: c784 bc3d 9066 1e3d 8f0e f63c 253b 02be
00000360: f3cf 04bd c4d4 a1bc 10a3 37be 3b85 49be
00000370: 9fbf a5bd c036 863d 088e 4fbd ebe9 76be
00000380: 426a 2fbd 3de6 94bd 8088 48bb 536b fc3d
00000390: 4e7e a0bd 42a9 0e3e 5f05 01bd 1fca c73d
000003a0: 5672 43bb 4fb8 05be daf0 19bd 5d9e 293d
000003b0: 870d 5aba 9e2f 08bd 2f8e b4bd 0966 653d
000003c0: 0c5a 0d3e db1a 403e 4e5b c93d e66f 77bc
000003d0: f2dd b8bd f9f9 063e 654c c0bd b491 053e
000003e0: e98b 363c 4559 263d bbdf 113e 5cdb 9ebd
000003f0: 5d37 e73d ec4e 26bc 1aa9 843b 4c14 1c3d

network_body._body_endoder.seq_layers.2.bias f4 [128]
-0.0011949085 0.023753563 0.034395486 0.006690983 0.016342562 0.03249349 0.025422832 0.029376496
0.03285594 0.020803306 -0.01047825 0.0069745956 0.004521891 -0.004248228 0.025270112 0.028399134
-0.01155874 0.037809692 0.02070357 -0.006566987 0.005875373 0.0025167074 0.020966819 0.0406658
-0.010441268 0.02851055 0.022434846 0.019464808 0.0134151075 -0.0010901552 0.023684466 0.017767817
0.0048812972 0.027443236 0.0052991183 0.032023124 0.033915486 0.038429216 0.026990108 0.023905443
0.016669707 0.028702877 0.03353352 0.026927153 0.007513519 0.016933117 0.021278689 -0.00785971
0.016224973 0.02244984 0.025496364 0.00894419 0.027905626 0.030161446 0.026767582 -0.00927452
0.00016067296 0.03477158 0.051370792 0.039015807 0.014986192 0.033107758 0.033060595 0.00024962428
0.028042763 0.028874286 0.02177339 -0.009342862 -0.017905738 0.012962162 0.03823562 0.002316315
0.026511954 0.0021071886 -0.011634197 0.027186371 -0.010558602 0.03462508 0.024050739 0.02458692
0.00654667 0.027292622 0.037266195 -0.014199161 0.017054383 0.015410773 0.0080081 0.0016936882
0.018045884 0.016686877 0.025623562 0.031356536 0.006059249 0.028511683 0.033538323 0.035212755
-0.013093998 0.02421179 0.016799413 0.0017424674 -0.00680966 0.032380175 0.04558569 0.017348373
0.03612715 0.033513147 -0.0034339533 -0.007191231 0.035807945 0.03781837 0.04909826 0.031625904
0.028480085 0.038207773 0.03842943 0.015873505 0.027730403 -0.0045066965 0.038782306 -0.005639363
0.005616289 0.002683667 0.029281948 0.033540573 0.011453923 0.012356091 0.034526132 0.034667257
00000000: 7a9e 9cba d596 c23c 48e2 0c3d 0940 db3b
00000010: d6e0 853c e517 053d 8b43 d03c faa6 f03c
00000020: f393 063d b26b aa3c f7ac 2bbc 268b e43b
00000030: 5f2c 943b b834 8bbb 4403 cf3c 4da5 e83c
00000040: df60 3dbc 56de 1a3d 899a a93c e12f d7bb
00000050: 3386 c03b 58ef 243b 9bc2 ab3c 2f91 263d
00000060: da11 2bbc f58e e93c 48c9 b73c a974 9f3c
00000070: 0acb 5b3c 8ae3 8eba ed05 c23c d08d 913c
00000080: 4af3 9f3b a3d0 e03c 3aa4 ad3b ae2a 033d
00000090: f7ea 0a3d f467 1d3d 5c1a dd3c 59d5 c33c
000000a0: e98e 883c 4c22 eb3c 725a 093d 5596 dc3c
000000b0: f733 f63b 52b7 8a3c a550 ae3c 03c6 00bc
000000c0: 3cea 843c bae8 b73c c0dd d03c a78a 123c
000000d0: 579a e43c 2315 f73c b047 db3c 28f4 17bc
000000e0: 527a 2839 a56c 0e3d 2e6a 523d 0acf 1f3d
000000f0: a588 753c 009c 073d 8c6a 073d 01e0 8239
00000100: f0b9 e53c c489 ec3c 1c5e b23c ce12 19bc
00000110: 0eaf 92bc 3f5f 543c f49c 1c3d 51cd 173b
00000120: 992f d93c c218 0a3b 5c9d 3ebc f4b5 de3c
00000130: fdfd 2cbc 07d3 0d3d 0e06 c53c 826a c93c
00000140: 7385 d63b c794 df3c 70a4 183d 99a3 68bc
00000150: a2b5 8b3c 787d 7c3c 6834 033c bffe dd3a
00000160: f6d4 933c ebb2 883c 81e8 d13c b66f 003d
00000170: aa8c c63b 5591 e93c 7b5f 093d 403b 103d
00000180: 3588 56bc ce57 c63c ec9e 893c 8163 e43a
00000190: 9123 dfbb 13a1 043d 0fb8 3a3d 2d1e 8e3c
000001a0: 10fa 133d 1545 093d 2d0c 61bb 6ba4 ebbb
000001b0: 5aab 123d 6fe7 1a3d 421b 493d 2a8a 013d
000001c0: 114f e93c c17f 1c3d 2e68 1d3d 2709 823c
000001d0: df2a e33c e9ac 93bb 32da 1e3d 68ca b8bb
000001e0: d908 b83b 76e0 2f3b b2e0 ef3c d761 093d
000001f0: 3ca9 3b3c 3471 4a3c 466b 0d3d 41ff 0d3d

action_model._discrete_distribution.branches.0.weight f4 [3, 128]
0.020142725 -0.014990469 0.008842892 0.012496076 0.012660816 -0.0027705426 0.0059428476 0.05899845
0.00047919704 -0.022134123 0.019346427 0.034904473 0.014995933 0.0008954689 -0.004801927 -0.017766492
0.045528755 0.00020372677 0.0027834568 0.0012174267 0.027112996 0.027621595 -0.0088766115 -0.005521009
-0.00014454596 -0.008029264 -0.005342032 0.0042493413 0.009669071 0.012137782 -0.035953738 -0.008930163
-0.012021728 -0.0004830845 0.00531631 -0.0045907805 -0.01241992 -0.00482849 0.044195004 -0.013568212
0.019240486 0.020248113 -0.022452908 0.031539492 0.027602462 -0.0035618017 0.002335075 0.023016904
-0.05719611 -0.016756974 -0.012450813 0.057769902 -0.019031567 0.0005105772 -0.056142177 0.0012257899
-0.0030386546 -0.004132795 -0.031755596 -0.015232265 -0.042416636 -0.010310371 -0.019544927 0.029603032
0.0046112863 -0.018858718 -0.031707283 0.05108022 0.03783419 0.03401522 5.0432962e-05 -0.0070049586
0.007901379 0.034904107 0.0039985487 -0.009247611 -0.0073621236 0.0015864935 -0.007051189 -0.009668666
-0.040593263 -0.022911116 -0.0008095042 0.0013380963 0.008402594 0.02429808 0.017443158 0.021492776
0.030192921 -0.0054995576 0.0009931169 0.0009850785 0.031602904 -0.027515562 -0.032329995 0.020401483
0.031133674 -0.029708482 0.018278487 -0.0033080454 0.058832508 0.01858075 -0.03074034 0.03908875
-0.007034659 -0.029359583 0.02089593 -2.7462425e-05 -0.017270032 0.008225538 -0.030112313 0.012707808
-0.013763819 0.050465822 -0.010961974 -0.0495889 0.003550403 0.022995401 -0.013596825 0.009428006
-0.0022774152 -0.02817387 0.008240572 -0.0019993326 -0.008999004 0.01447814 -0.020332394 -0.032209445
-0.0060427105 0.022174144 0.027835384 -0.005081997 0.034803275 0.02968262 -0.0634868 -0.032734767
0.042209666 0.047526114 -0.006541201 -0.040022146 -0.02202863 -0.019072834 0.018660568 -0.0031970572
0.008903722 -0.06464316 0.017408516 -0.0019958748 0.01599896 -0.045175325 0.025008252 0.011750816
-0.012902632 0.016143942 -0.0593895 -0.0061051357 -0.05086052 -0.028863605 0.030948106 0.009925082
0.014168272 -0.04023897 0.009217589 -0.060926314 0.04049153 0.024373977 -0.043988805 0.04121416
-0.027187075 -0.05786844 0.0019471606 -0.03773599 -0.011406313 -0.05052239 0.0057104393 -0.027674634
0.05098226 0.01191136 0.025477912 -0.052209213 0.033755545 0.042726476 0.057533823 -0.008802504
0.00014902932 -0.05291542 0.053527005 0.04996905 0.030513803 0.025399035 0.02561849 -0.05148344
0.04224825 0.039762348 0.025829861 -0.020668069 0.0048350827 0.0066045164 0.014596869 0.00396472
-0.039767664 -0.034704197 -0.05370755 0.032285787 -0.004335458 0.023100808 0.0065105986 0.009118135
0.035686567 0.057646696 -0.07577743 -0.014222232 -0.015756274 0.014834952 0.012133228 -0.03864173
-0.06836137 0.042366378 0.031764667 0.012356095 -0.046751976 0.050637577 -0.042003628 -0.06328668
-0.017823828 0.043727864 -0.027489828 0.021491203 -0.01306131 -0.06181425 0.048825018 0.01594287
0.049116127 0.009484463 0.033765774 -0.0032235768 0.031463943 -0.071354784 0.031164724 0.0019818754
0.037161633 -0.055765864 0.030156137 0.031705234 -0.050508864 -0.0048966003 0.023970988 -0.022166966
0.033797666 0.0344547 -0.04578937 0.026342712 0.041749112 -0.05539094 0.03517642 0.024293851
00000000: 5b02 a53c 969a 75bc c7e1 103c 57bc 4c3c
00000010: 506f 4f3c fe91 35bb 38bc c23b 5ca8 713d
00000020: bd3c fb39 9f52 b5bc 667c 9e3c fef7 0e3d
00000030: 80b1 753c e7bd 6a3a 7c59 9dbb 098b 91bc
00000040: 5c7c 3a3d 7d9f 5539 a86a 363b 1092 9f3a
00000050: 131c de3c af46 e23c 356f 11bc 95e9 b4bb
00000060: 4391 17b9 2d8d 03bc 360c afbb 0f3e 8b3b
00000070: 066b 1e3c 8cdd 463c 3a44 13bd d24f 12bc
00000080: c8f6 44bc 8146 fdb9 7134 ae3b 426e 96bb
00000090: ec7c 4bbc 4f38 9ebb d205 353d 354d 5ebc
000000a0: 399e 9d3c 5fdf a53c 29ef b7bc 8e2f 013d
000000b0: 8f1e e23c 1e6d 69bb 0f08 193b f28d bc3c
000000c0: 7846 6abd ec45 89bc 7ffe 4bbc 22a0 6c3d
000000d0: 17e8 9bbc 42d8 053a 57f5 65bd afaa a03a
000000e0: 2a24 47bb 666c 87bb 2812 02bd c090 79bc
000000f0: 11bd 2dbd d5ec 28bc af1c a0bc 0f82 f23c
00000100: 461a 973b 997d 9abc 7fdf 01bd 7e39 513d
00000110: 06f8 1a3d 8b53 0b3d fb87 5338 da89 e5bb
00000120: c974 013c 9cf7 0e3d 4206 833b 4b83 17bc
00000130: f83d f1bb e3f1 cf3a a90d e7bb 5369 1ebc
00000140: 1f45 26bd 18b0 bbbc e834 54ba 1063 af3a
00000150: 09ab 093c c40c c73c f4e4 8e3c 9e11 b03c
00000160: 2557 f73c a235 b4bb 792b 823a c01d 813a
00000170: 0c72 013d 5168 e1bc 756c 04bd 0321 a73c
00000180: 0c0c ff3c 345f f3bc c4bc 953c cbcb 58bb
00000190: 5bfa 703d a836 983c 2ad3 fbbc 861b 203d
000001a0: ff82 e6bb 8283 f0bc f12d ab3c 1c5f e6b7
000001b0: e279 8dbc 68c4 063c 19ae f6bc 6934 503c
000001c0: a481 61bc 40b5 4e3d da99 33bc bb1d 4bbd
000001d0: e1ad 683b da60 bc3c 38c5 5ebc ec77 1a3c
000001e0: b040 15bb e3cc e6bc 7703 073c 3c07 03bb
000001f0: 8f70 13bc b835 6d3c 1f90 a6bc 0dee 03bd
00000200: ee01 c6bb 8da6 b53c 0807 e43c e186 a6bb
00000210: e18d 0e3d f728 f33c 5e05 82bd e414 06bd
00000220: 0be4 2c3d beaa 423d 9257 d6bb 43ee 23bd
00000230: 6375 b4bc a23e 9cbc 0cde 983c b885 51bb
00000240: ebe0 113c a263 84bd 4e9c 8e3c 39cd 02bb
00000250: 4010 833c c309 39bd 1bde cc3c 7f86 403c
00000260: 9065 53bc 4d40 843c 6842 73bd 970d c8bb
00000270: 1f53 50bd 5e73 ecbc e286 fd3c d09c 223c
00000280: 0a22 683c 9ed1 24bd 5f05 173c df8d 79bd
00000290: 72da 253d efab c73c 9b2d 34bd 2ed0 283d
000002a0: 6eb7 debc 7507 6dbd de37 ff3a 0e91 1abd
000002b0: 8be1 3abc 91f0 4ebd a31e bb3b eab5 e2bc
000002c0: c6d2 503d dd27 433c 0eb7 d03c 54d9 55bd
000002d0: 4143 0a3d f501 2f3d 96a8 6b3d 6138 10bc
000002e0: c144 1c39 d7bd 58bd 223f 5b3d 59ac 4c3d
000002f0: 15f8 f93c a311 d03c dedd d13c 4de0 52bd
00000300: 800c 2d3d d8dd 223d 2599 d33c 1550 a9bc
00000310: 9d6f 9e3b b36a d83b b527 6f3c 7bea 813b
00000320: 6be3 22bd fd25 0ebd 73fc 5bbd 1a3e 043d
00000330: 7510 8ebb e83d bd3c dc56 d53b 3b64 153c
00000340: 142c 123d f11e 6c3d 3231 9bbd 5d04 69bc
00000350: 4d13 81bc 4c0e 733c 72ca 463c ca46 1ebd
00000360: 0c01 8cbd 5e88 2d3d ab1b 023d 3871 4a3c
00000370: 007f 3fbd 5969 4f3d ff0b 2cbd 729c 81bd
00000380: 4703 92bc fd1b 333d 5932 e1bc 520e b03c
00000390: 1bff 55bc f030 7dbd befc 473d 9f9a 823c
000003a0: fe2d 493d b964 1b3c fb4d 0a3d a542 53bb
000003b0: 56e0 003d 7522 92bd 2a4d ff3c 5ae2 013b
000003c0: cc36 183d bf6a 64bd 010a f73c 59dd 013d
000003d0: 62e2 4ebd a973 a0bb ce5e c43c 7f97 b5bc
000003e0: 6c6f 0a3d 5f20 0d3d a28d 3bbd accc d73c
000003f0: 1e01 2b3d 9ce1 62bd 2615 103d e603 c73c

action_model._discrete_distribution.branches.0.bias f4 [3]
0.0054956092 0.0072937245 0.018667635
00000000: 8314 b43b 3200 ef3b deec 983c

action_model._discrete_distribution.branches.1.weight f4 [3, 128]
-0.029928887 0.016637087 0.035832983 -0.019850008 -0.040853903 0.034154825 0.0062730666 -0.04211669
-0.020400215 0.029299233 -0.040083975 -0.0038053736 -0.020280985 -0.01362157 0.017605761 0.032539755
-0.030892497 0.017820403 0.011531472 -0.033732396 -0.02588417 -0.03344188 0.03435951 0.043516718
-0.019005654 0.01201468 -0.0035243449 0.019486343 0.016848316 -0.027991487 0.03423674 0.030872589
0.02197581 0.011002424 -0.013753081 0.006638806 -0.02164812 0.029932883 -0.020890448 0.03669402
0.015739776 0.014283212 0.03481292 -0.03896883 -0.02488283 0.011801507 0.015707329 -0.033176966
-0.010033318 0.016376434 0.05111737 -0.027472442 0.021874424 0.0017378889 0.03337911 -0.0383642
-0.034896363 0.033944037 -0.014521992 -0.022643864 0.034914747 0.03812517 0.029498298 -0.0063909213
0.008014486 0.027457742 0.026470976 -0.041746724 -0.024395887 -0.057609912 0.0420197 -0.022276178
0.022688126 -0.024346076 0.0070175794 0.036667317 -0.024857564 0.03628624 0.03873078 0.031560447
0.0037278635 0.017723065 0.02895352 -0.038876485 0.006552315 -0.020193774 -0.0326323 -0.029196385
-0.011373701 0.022930395 -0.010770825 0.033200357 -0.0046987017 0.029804233 0.02636545 -0.0037427556
-0.034606874 0.012513687 0.018868867 -0.028412115 -0.015794676 0.020700859 -0.01542962 -0.034561317
-0.008811733 0.0318341 -0.031951137 -0.019720452 0.025429256 0.010312952 -0.004397505 0.033478204
0.016240412 -0.020203082 0.024338227 0.023899317 0.009863922 -0.004683532 0.044963047 -0.012849096
-0.016647868 0.016616113 0.023632776 0.015257684 0.0048817857 0.012742855 0.02712072 0.0129493615
0.011053013 -0.0003169719 -0.023402605 -0.013068133 -0.0052456083 0.007073457 -0.00813025 -0.045252543
0.0008295212 -0.010424664 0.011055997 0.059213493 0.014547259 0.03003613 0.017685737 -0.00034385102
-0.025867034 0.021710299 -0.04394163 0.0063338904 0.030475998 0.02610806 -0.02644412 0.018310525
0.014559405 -0.045259703 -0.05310329 -0.022519745 0.019144444 0.08459445 -0.033834394 -0.030064112
-0.010564802 -0.015261204 0.013430705 -0.06578443 -0.029498871 -0.0080287885 -0.025760297 -0.033548176
-0.017268589 -0.024794983 0.036761235 -0.08016653 0.00902621 0.021474833 -0.008603954 0.004666947
-0.022570636 -0.04099825 -0.008530994 0.008785184 -0.05213357 0.020790828 -0.021705711 0.016076798
0.029793281 0.0058147633 -0.03634119 -0.031502493 -0.06934208 -0.0069399835 -0.0016666627 0.006622547
-0.0015613924 -0.040733937 -0.021015598 0.0014799782 0.017039184 -0.008191051 0.004115631 0.010846938
0.012545237 0.08194184 -0.008408051 -0.047923427 0.06361811 -0.016246585 0.00010232814 -0.033657987
-0.014903699 -0.0867584 -0.011942744 0.039731886 -0.027170585 0.017646322 -0.00040036775 0.08845248
0.09581625 -0.036347974 0.008520711 0.012811711 -0.04442861 -0.016702035 -0.008834678 0.010994425
-0.004582839 -0.013838042 -0.010039614 0.016670605 -0.0049479436 -0.009647568 0.017964242 -0.0032779695
0.003937172 0.029742692 0.020090053 0.020276243 0.00513974 -0.008211934 -0.0480305 -0.03982193
0.003612388 -0.041512165 -0.019941602 -0.028823478 -0.022295346 0.0019551886 -0.0027467608 0.04446078
0.035582364 -0.008800635 -0.026585314 -0.034296714 0.0463621 0.0004501574 -0.054290283 -0.011957505
00000000: 6d2d f5bc 804a 883c 9bc5 123d 7c9c a2bc
00000010: 6c56 27bd eee5 0b3d 4c8e cd3b 8d82 2cbd
00000020: 5a1e a7bc f204 f03c 182f 24bd 9363 79bb
00000030: 4f24 a6bc 012d 5fbc f539 903c 6848 053d
00000040: 4312 fdbc 18fc 913c 80ee 3c3c fb2a 0abd
00000050: 0a0b d4bc 5afa 08bd 8fbc 0c3d 963e 323d
00000060: bfb1 9bbc 38d9 443c b2f8 66bb d3a1 9f3c
00000070: 7b05 8a3c 674e e5bc d33b 0c3d 83e8 fc3c
00000080: 9d06 b43c 8343 343c 9a54 61bc 578a d93b
00000090: 6657 b1bc ce35 f53c 7222 abbc 784c 163d
000000a0: b4f0 803c 2204 6a3c fe97 0e3d c89d 1fbd
000000b0: 14d7 cbbc 1c5b 413c a8ac 803c 92e4 07bd
000000c0: c962 24bc df27 863c 7360 513d e30d e1bc
000000d0: fe31 b33c e0c9 e33a 89b8 083d c823 1dbd
000000e0: 7def 0ebd e708 0b3d a6ed 6dbc a07f b9bc
000000f0: c402 0f3d 2329 1c3d 6aa6 f13c ef6a d1bb
00000100: 314f 033c 0fef e03c a9d9 d83c 9dfe 2abd
00000110: e2d9 c7bc 5ff8 6bbd d91c 2c3d 887c b6bc
00000120: 73dc b93c 6c71 c7bc b9f3 e53b 7830 163d
00000130: 17a2 cbbc e1a0 143d 2ba4 1e3d 8745 013d
00000140: 2c4f 743b f62f 913c ef2f ed3c f33c 1fbd
00000150: cdb4 d63b 6a6d a5bc 72a9 05bd 422d efbc
00000160: c258 3abc 86d8 bb3c 1d78 30bc 19fd 073d
00000170: 91f7 99bb 0228 f43c 5bfc d73c 0549 75bb
00000180: f0bf 0dbd 3506 4d3c e292 9a3c 86c0 e8bc
00000190: d663 81bc d994 a93c 84cc 7cbc 2b90 0dbd
000001a0: 165f 10bc 7964 023d 32df 02bd c98c a1bc
000001b0: 0451 d03c a8f7 283c f218 90bb 7120 093d
000001c0: 9d0a 853c ef80 a5bc f660 c73c 80c8 c33c
000001d0: 4a9c 213c 5078 99bb 2c2b 383d 0485 52bc
000001e0: 1c61 88bc 841e 883c 8699 c13c 5dfb 793c
000001f0: 63f7 9f3b 68c7 503c 462c de3c 8f29 543c
00000200: b217 353c 402f a6b9 d2b6 bfbc b91b 56bc
00000210: 5ae3 abbb 75c8 e73b bd34 05bc bb5a 39bd
00000220: 3a74 593a 36cc 2abc 3624 353c d989 723d
00000230: a057 6e3c 550e f63c aee1 903c e746 b4b9
00000240: 1ae7 d3bc ccd9 b13c 23fc 33bd 868c cf3b
00000250: cda8 f93c 92e0 d53c 57a1 d8bc f4ff 953c
00000260: 928a 6e3c 3d62 39bd d682 59bd 547b b8bc
00000270: cfd4 9c3c db3f ad3d ef95 0abd 0349 f6bc
00000280: fe17 2dbc 210a 7abc 760c 5c3c fdb9 86bd
00000290: 9ea7 f1bc 2e8b 03bc 4207 d3bc d069 09bd
000002a0: db76 8dbc d91e cbbc f392 163d 5a2e a4bd
000002b0: abe2 133c fdeb af3c 99f7 0cbc 30ed 983b
000002c0: 0ee6 b8bc c8ed 27bd 95c5 0bbc bbef 0f3c
000002d0: 038a 55bd 8751 aa3c 2dd0 b1bc 7db3 833c
000002e0: 0a11 f43c c589 be3b 80da 14bd c208 01bd
000002f0: 3803 8ebd cd68 e3bb ec73 daba f301 d93b
00000300: a3a7 ccba a1d8 26bd e728 acbc d4fb c13a
00000310: c295 8b3c c233 06bc 6adc 863b 5bb7 313c
00000320: 8a8a 4d3c 20d1 a73d ecc1 09bc 5b4b 44bd
00000330: 364a 823d 8f17 85bc 0099 d638 f5dc 09bd
00000340: a52e 74bc 63ae b1bd 80ab 43bc e7bd 223d
00000350: d994 debc 058f 903c 73e8 d1b9 9326 b53d
00000360: 4f3b c43d 9de1 14bd 749a 0b3c 36e8 513c
00000370: c6fa 35bd b5d2 88bc 53bf 10bc f621 343c
00000380: a42b 96bb f4b8 62bc 317d 24bc cb90 883c
00000390: 5c22 a2bb d510 1ebc bf29 933c 34d3 56bb
000003a0: 6403 813b f2a6 f33c e593 a43c 5d1a a63c
000003b0: 446b a83b 598b 06bc a1bb 44bd 521c 23bd
000003c0: d0bd 6c3b a908 2abd 925c a3bc 371f ecbc
000003d0: bba4 b6bc 9f22 003b 0003 34bb 821c 363d
000003e0: d0be 113d 8a30 10bc 72c9 d9bc b67a 0cbd
000003f0: 2fe6 3d3d 1a03 ec39 7d5f 5ebd 69e9 43bc

action_model._discrete_distribution.branches.1.bias f4 [3]
0.01782152 -0.015901394 -0.01582354
00000000: 70fe 913c a443 82bc 5ea0 81bc

action_model._discrete_distribution.branches.2.weight f4 [2, 128]
-0.021407647 0.034861546 0.02251303 -0.03167139 -0.026162589 0.004941926 0.04564224 0.061192203
-0.028888976 0.0376799 -0.03237498 0.041412633 -0.022110242 -0.035222724 0.014999911 0.04318954
-0.04585984 0.06641548 0.033011846 -0.03201045 -0.018929569 -0.027007878 0.038009606 0.042177428
-0.041787796 0.048483793 0.060198013 0.042183977 0.027881645 -0.03156382 -0.0031744584 0.042739388
0.015039907 0.06321635 -0.032474056 0.05845048 -0.0318157 0.032412898 0.075841315 0.0115890205
0.026704594 0.06117216 0.03238354 0.06332068 -0.019007983 0.07170463 0.03605365 -0.043796036
-0.035742696 0.054446 0.01742265 0.014806027 0.046916682 -0.02855525 0.029982563 -0.036352973
-0.03515007 0.06478738 -0.036537893 -0.026287721 0.012465672 0.036018234 0.04936811 0.034566652
0.0041633 0.022342892 0.023785762 -0.020756133 -0.06373517 -0.05149723 0.0398088 -0.012596831
0.05594301 -0.027306968 0.044917263 0.041134316 -0.054086223 0.010439802 0.05029703 0.043557998
-0.014036085 0.040139712 0.055753008 -0.029390601 0.048762262 -0.036165025 -0.049646307 -0.029207619
0.005817505 0.020410938 -0.019064257 0.04397412 0.020347454 0.03142845 0.07032664 0.07358495
-0.041092355 -0.0065190615 0.03866649 -0.040650196 -0.06328215 0.06241052 -0.03338321 -0.0091542695
-0.036834374 0.04410692 -0.031158071 -0.019420123 0.021448046 0.07721615 -0.014253591 0.02990176
0.018073587 0.07041424 0.03836997 0.040376514 0.051503647 -0.04097556 0.035393823 -0.038407497
-0.03197713 0.012014337 0.039897922 0.03157636 -0.0318838 0.05707358 0.027288163 0.040254675
0.0382738 -0.028220199 -0.013077569 0.0139389625 0.05191728 -0.03655634 -0.059873518 -0.04634842
0.020208957 -0.043882 0.02312995 -0.039611276 0.035438463 0.023026688 0.0007753389 -0.039651074
0.043847375 -0.07689874 -0.042618558 0.026141983 0.014979907 0.008223735 -0.03754179 -0.036406606
0.025294345 -0.035736468 -0.06716759 -0.04181783 -0.05096196 0.029242886 0.004834222 -0.045938157
-0.0014654037 -0.07796213 0.03194413 -0.06925353 0.036889657 -0.02931259 -0.058844797 -0.01801577
-0.038498852 -0.0402505 -0.035941552 -0.047722984 0.027834574 -0.04912027 -0.05298468 0.04279615
0.040034186 -0.028413756 -0.02423772 -0.029097596 -0.03158931 0.027857091 -0.030855995 0.034413982
0.012615328 -0.048285432 0.030690335 0.02207767 -0.03291754 -0.019862691 -0.032815475 -0.034580532
-0.010711957 -0.026833624 -0.022467362 0.018296953 0.059095647 0.048223637 -0.045862 0.015470474
-0.05722024 0.035611335 -0.019824134 -0.048860095 0.026272012 -0.011327867 -0.02044562 -0.048544683
0.006455513 -0.04107761 -0.0605305 0.033659965 -0.05102922 0.053714707 0.055520274 0.037218962
4.3570984e-05 -0.0118535645 0.020414885 -0.046671882 -0.011941083 -0.035517037 -0.071986966 -0.06774964
0.049042545 0.002333006 -0.05125654 0.033203986 0.06619659 -0.04791357 0.033417128 0.025338016
0.038748547 -0.042990483 0.001805861 0.026800299 -0.028900037 -0.052695908 0.012565509 -0.034092445
-0.004633649 -0.06580387 -0.03035123 -0.02702931 -0.07337675 0.04947614 -0.04441968 0.0397488
0.034480527 -0.00418136 -0.047778197 -0.03949044 0.042110786 -0.049241707 -0.0343157 -0.03626105
00000000: 175f afbc fbca 0e3d 3f6d b83c dcb9 01bd
00000010: ed52 d6bc e1ef a13b 5cf3 3a3d ada4 7a3d
00000020: 93a8 ecbc 3d56 1a3d a19b 04bd 4ba0 293d
00000030: 8a20 b5bc b445 10bd 30c2 753c 84e7 303d
00000040: 87d7 3bbd d704 883d 6e37 073d 641d 03bd
00000050: 2f12 9bbc a03f ddbc f6af 1b3d 3dc2 2c3d
00000060: ae29 2bbd f196 463d 3192 763d 1bc9 2c3d
00000070: 0c68 e43c 1049 01bd 930a 50bb 7f0f 2f3d
00000080: f169 763c 9377 813d 8403 05bd c569 6f3d
00000090: 2e51 02bd 63c3 043d b152 9b3d e0df 3d3c
000000a0: 98c3 da3c a98f 7a3d 9aa4 043d 46ae 813d
000000b0: a1b6 9bbc e1d9 923d feac 133d 7963 33bd
000000c0: ef66 12bd c502 5f3d f2b9 8e3c fa94 723c
000000d0: b52b 403d b3ec e9bc fe9d f53c dbe6 14bd
000000e0: 85f9 0fbd 3faf 843d c2a8 15bd 5959 d7bc
000000f0: d13c 4c3c db87 133d 3736 4a3d c395 0d3d
00000100: 4b6c 883b 7108 b73c 5cda c23c c408 aabc
00000110: 9687 82bd c2ee 52bd 8d0e 233d f062 4ebc
00000120: 7f24 653d ddb2 dfbc 2afb 373d 757c 283d
00000130: 8489 5dbd b40b 2b3c 4204 4e3d df69 323d
00000140: 9cf7 65bc 8a69 243d 445d 643d 8fc4 f0bc
00000150: f0ba 473d c721 14bd ed59 4bbd d144 efbc
00000160: c5a0 be3b d734 a73c a52c 9cbc 351e 343d
00000170: b4af a63c 1ebb 003d 6a07 903d b5b3 963d
00000180: 7550 28bd da9d d5bb c160 1e3d d280 26bd
00000190: 129a 81bd 2ca2 7f3d d5bc 08bd cafb 15bc
000001a0: a4df 16bd 75a9 343d 363f ffbc f316 9fbc
000001b0: d0b3 af3c 8023 9e3d e587 69bc 89f4 f43c
000001c0: 0f0f 943c 5735 903d d429 1d3d d861 253d
000001d0: 7df5 523d fdd5 27bd 1df9 103d 2e51 1dbd
000001e0: 73fa 02bd c8d7 443c 016c 233d 3756 013d
000001f0: 9698 02bd fcc5 693d 6d8b df3c 16e2 243d
00000200: fdc4 1c3d 0c2e e7bc 4d43 56bc 3f60 643c
00000210: 37a7 543d 1abc 15bd ef3d 75bd d7d7 3dbd
00000220: 418d a53c 9dbd 33bd 057b bd3c 6f3f 22bd
00000230: ec27 113d 77a2 bc3c 1d40 4b3a 2a69 22bd
00000240: 4e99 333d 167d 9dbd cc90 2ebd b627 d63c
00000250: 496e 753c d8bc 063c 6cc5 19bd 181f 15bd
00000260: 1636 cf3c 6760 12bd 298f 89bd 2c49 2bbd
00000270: 7dbd 50bd c78e ef3c 6568 9e3b a629 3cbd
00000280: ca12 c0ba 9caa 9fbd d9d7 023d cbd4 8dbd
00000290: 9c19 173d f520 f0bc 3e07 71bd cf95 93bc
000002a0: f9b0 1dbd b5dd 24bd 7337 13bd 2d79 43bd
000002b0: 5505 e43c 5632 49bd 7706 59bd 044b 2f3d
000002c0: e3fa 233d f7c3 e8bc 2f8e c6bc 155e eebc
000002d0: cb63 01bd 8e34 e43c b6c5 fcbc adf5 0c3d
000002e0: 85b0 4e3c f2c6 45bd 4c6a fb3c 3bdc b43c
000002f0: 8bd4 06bd 15b7 a2bc 8569 06bd 51a4 0dbd
00000300: 3481 2fbc 30d2 dbbc 790d b8bc 7ee3 953c
00000310: 470e 723d 2686 453d cbd9 3bbd df77 7d3c
00000320: c55f 6abd 31dd 113d 3966 a2bc 8621 48bd
00000330: 6738 d73c 8598 39bc 937d a7bc cad6 46bd
00000340: c588 d33b ff40 28bd d4ee 77bd 08df 093d
00000350: 0404 51bd f403 5c3d 3a69 633d e972 183d
00000360: fdbf 3638 7435 42bc 1e3d a73c 042b 3fbd
00000370: 88a4 43bc 507a 11bd e76d 93bd 53c0 8abd
00000380: d6e0 483d 58e5 183b 61f2 51bd e700 083d
00000390: 1492 873d 0541 44bd 66e0 083d ac91 cf3c
000003a0: ccb6 1e3d ca16 30bd a4b2 ec3a 4d8c db3c
000003b0: c5bf ecbc aad7 57bd 91df 4d3c 85a4 0bbd
000003c0: ddd5 97bb 2ec4 86bd 25a3 f8bc 926c ddbc
000003d0: 8d46 96bd 7ea7 4a3d 69f1 35bd a3cf 223d
000003e0: 743b 0d3d ca03 89bb 12b3 43bd bac0 21bd
000003f0: 5c7c 2c3d acb1 49bd 9f8e 0cbd 7786 14bd

action_model._discrete_distribution.branches.2.bias f4 [2]
0.011851713 -0.011851711
00000000: b02d 423c ae2d 42bc
