results/PressButton/PressButtonAgent_ImitationLearning/PressButtonAgent/PressButtonAgent-149955.pt (torch, 533223 bytes, 54 tensors)

discrete_act_size_vector f4 [1, 3]
3.0 3.0 2.0
00000000: 0000 4040 0000 4040 0000 0040

network_body._body_endoder.seq_layers.0.weight f4 [128, 6]
0.6985149 -0.21254024 0.4569075 0.09053422 0.19212577 0.15004562 0.44672114 -0.043699905
-0.6339982 0.43348888 -0.84795487 -0.780308 -0.12974668 -0.25946248 0.65223044 0.07722409
1.0294794 0.42102474 0.24807689 0.20810975 -0.2983997 -0.20814653 0.7570347 0.19505575
-0.8740899 -0.59657043 0.50662744 -0.06872847 -0.077005796 0.4692894 -0.53669167 0.19848782
-0.39865825 0.36830327 -0.020931259 0.40326697 -0.11734424 -0.099194966 -0.2211125 -0.53442657
-0.29671368 -0.2456575 -0.535459 -0.44861627 -0.40830493 -0.08442902 0.23074299 -0.013425744
-0.20737559 -0.057133198 0.4162892 -0.5549242 0.3313573 -0.15492257 0.34220177 0.06817395
0.23704885 0.28825143 0.27089718 -0.27279553 0.36376637 0.03990301 -1.1708763 -1.337
-0.14619914 0.39022964 -0.124399275 0.7001338 0.33569616 0.2419594 0.14272887 0.27371225
0.52797383 0.37509596 -0.25003815 -0.007595447 0.24560644 -0.24930984 0.012602696 -0.19518077
0.054031435 0.27503997 -0.35874826 -0.50210965 0.3279584 0.34612754 0.24750564 -0.75652593
-0.6822933 -0.045874666 1.1655798 1.0044432 0.3820065 0.76437163 -0.07727153 0.46411744
0.105390996 -0.3932239 -0.3803797 -0.5451753 -0.23858741 -0.061104443 0.5100141 -0.11595701
0.035141367 -0.00018250894 -0.4002239 -0.9019716 -0.71178365 0.40843773 -0.3307264 0.52833134
0.5489166 1.1031666 0.18091491 0.6218129 0.12555493 0.8870341 -0.1263121 -0.4450092
0.03571026 0.64943993 -0.08620301 -0.46397126 -0.6692472 -0.18218566 -0.01912463 -0.56622964
0.6339412 -0.29984623 -0.08921339 -0.37639695 -0.5721586 -0.12971933 -0.18597731 -0.64230853
0.04174651 -0.11273519 0.2680839 0.22948723 -0.42798415 -0.035870705 0.51928294 0.4289404
0.11862907 -0.16298501 -0.64147085 -0.09741014 -0.46296403 0.27411136 0.5736644 0.13909858
0.5101985 0.2567666 -0.06343409 -0.29826754 0.010015965 0.60713327 -0.6903996 -0.36904255
0.21052977 -0.2155447 0.05250908 0.51955533 -1.1741257 0.15287742 0.8126556 -0.24563755
0.1329121 -0.1215379 -0.46899173 -0.89308375 -0.13763857 0.691967 0.33876944 -0.83782387
0.30611208 -0.22331545 0.4380511 1.0307325 1.0506657 0.66947347 -0.32618368 -0.5910991
0.48028266 0.25462827 0.2093585 -0.18769391 -0.38703567 0.318913 0.3832653 -0.25265333
0.24427561 0.051566962 0.75301284 -0.031543233 0.30494153 0.9217547 -0.023615895 -0.8014833
0.30441812 -0.17206065 0.0056791524 0.8188151 -0.9879245 0.4498713 -0.03983915 0.25562727
0.31519794 0.29791597 0.7012423 -0.8764091 -0.77513963 -0.2240566 0.32158995 0.2807635
-0.66030985 0.18755677 0.13856034 -0.050640292 0.39451373 0.14498262 -0.010616643 -0.58003825
0.16699599 0.25493586 0.26673248 -0.5800233 -0.5216684 0.66697735 -0.43516135 -0.084595315
-0.9837627 -0.063573666 0.19492567 -0.39028433 0.7604076 -0.11014148 -0.75073594 1.1614275
-0.36495733 -0.2514379 0.97331715 0.7659553 0.4297816 -0.43823126 0.54750633 0.6575979
-0.03622916 -0.46193427 0.36889622 -0.96973336 -0.42301005 -0.101524755 0.06906903 -0.22280931
00000000: dfd1 323f 26a4 59be c8ef e93e 016a b93d
00000010: 9ebc 443e 8fa5 193e a2b8 e43e acfe 32bd
00000020: b54d 22bf 41f2 dd3e 9213 59bf 44c2 47bf
00000030: 50dc 04be 44d8 84be 93f8 263f aa27 9e3d
00000040: fbc5 833f 8e90 d73e de07 7e3e b91a 553e
00000050: d8c7 98be 5d24 55be 07cd 413f b2bc 473e
00000060: 5bc4 5fbf d7b8 18bf 56b2 013f 83c1 8cbd
00000070: 37b5 9dbd b346 f03e a064 09bf 6440 4b3e
00000080: ef1c ccbe 3f92 bc3e 0878 abbc 0279 ce3e
00000090: 2d52 f0bd bb26 cbbd 516b 62be 2ed0 08bf
000000a0: dbea 97be a48d 7bbe d713 09bf 08b1 e5be
000000b0: 580d d1be 1fe9 acbd e447 6c3e a7f7 5bbc
000000c0: 445a 54be 8004 6abd dc23 d53e 830f 0ebf
000000d0: aaa7 a93e 06a4 1ebe 1235 af3e c99e 8b3d
000000e0: efbc 723e b195 933e 09b3 8a3e dbab 8bbe
000000f0: 963f ba3e 5771 233d 46df 95bf d122 abbf
00000100: 3ab5 15be 2ecc c73e 0cc5 febd f83b 333f
00000110: 5ee0 ab3e 34c4 773e 8427 123e 0324 8c3e
00000120: 4b29 073f 940c c03e 0005 80be 3ae3 f8bb
00000130: 4180 7b3e 144b 7fbe 8a7b 4e3c 78dd 47be
00000140: 1150 5d3d 0ad2 8c3e daad b7be 428a 00bf
00000150: 2aea a73e a137 b13e 1e72 7d3e afab 41bf
00000160: c6aa 2ebf 13e7 3bbd b831 953f 9891 803f
00000170: 5b96 c33e dcad 433f 8940 9ebd cda0 ed3e
00000180: 3cd7 d73d a554 c9be 21c1 c2be 9c90 0bbf
00000190: 4250 74be a748 7abd 4990 023f de7a edbd
000001a0: 65f0 0f3d df5f 3fb9 26ea ccbe 9ce7 66bf
000001b0: 7437 36bf c01e d13e f854 a9be b940 073f
000001c0: cc85 0c3f 9034 8d3f c241 393e 212f 1f3f
000001d0: 7991 003e ab14 633f f657 01be 3fd8 e3be
000001e0: ec44 123d b241 263f 348b b0bd a48d edbe
000001f0: c953 2bbf e18e 3abe 42ab 9cbc 6df4 10bf
00000200: f849 223f 7285 99be 83b5 b6bd 1ab7 c0be
00000210: fc78 12bf 25d5 04be d670 3ebe 556e 24bf
00000220: 63fe 2a3d b5e1 e6bd 4b42 893e b3fe 6a3e
00000230: bd20 dbbe 29ed 12bd baef 043f 139e db3e
00000240: ccf3 f23d 8be5 26be 6f37 24bf f87e c7bd
00000250: 9f09 edbe 5358 8c3e acdb 123f dc6f 0e3e
00000260: 5e9c 023f e976 833e bbe9 81bd 86b6 98be
00000270: 011a 243c 166d 1b3f 07be 30bf 25f3 bcbe
00000280: 1e95 573e c0b7 5cbe c313 573d 9401 053f
00000290: c049 96bf e68b 1c3e 330a 503f 6988 7bbe
000002a0: 1c1a 083e dde8 f8bd af1f f0be 23a1 64bf
000002b0: 20f1 0cbe c024 313f 3073 ad3e a07b 56bf
000002c0: b9ba 9c3e ceac 64be 3c48 e03e 0bef 833f
000002d0: 377c 863f 9d62 2b3f 8c01 a7be 4552 17bf
000002e0: 9ce7 f53e a35e 823e 1362 563e d532 40be
000002f0: 8a29 c6be 9148 a33e 593b c43e c75b 81be
00000300: 6323 7a3e e137 533d 73c5 403f 7a33 01bd
00000310: 4c21 9c3e 1ef8 6b3f 1f76 c1bc 022e 4dbf
00000320: b1dc 9b3e ab30 30be 2f18 ba3b de9d 513f
00000330: 9fe8 7cbf 8855 e63e 602e 23bd 94e1 823e
00000340: a061 a13e 7188 983e 9e84 333f 595c 60bf
00000350: 8d6f 46bf 186f 65be 70a7 a43e 3cc0 8f3e
00000360: 110a 29bf e20e 403e c3e2 0d3e 326c 4fbd
00000370: b4fd c93e 5376 143e 6ef1 2dbc 637d 14bf
00000380: ff00 2b3e f486 823e 2991 883e 687c 14bf
00000390: 0f8c 05bf 07bf 2a3f 78cd debe 4f40 adbd
000003a0: dfd7 7bbf e932 82bd 989a 473e 59d3 c7be
000003b0: 13aa 423f db91 e1bd 3b30 40bf a8a9 943f
000003c0: b0db babe 78bc 80be 502b 793f a615 443f
000003d0: 550c dc3e d95f e0be 6029 0c3f 5658 283f
000003e0: 0765 14bd a682 ecbe f7df bc3e 7240 78bf
000003f0: c694 d8be 36ec cfbd 1074 8d3d 2028 64be

network_body._body_endoder.seq_layers.0.bias f4 [128]
0.04659042 0.0770906 0.058299966 0.03028972 0.10488724 0.042169336 0.0281979 -0.005518478
-0.0130923735 0.026571542 -0.019914394 0.013721662 0.022834787 0.043973755 0.034880657 0.018404648
-0.006562282 0.06350262 0.02911799 0.02996598 0.014629631 0.04191181 0.03308145 0.0074107153
0.0809532 0.02008777 0.038072687 0.028594758 0.0058369096 0.12354593 0.083053924 0.0073370812
0.027588159 -0.007956759 0.033991583 -0.015057596 -0.03301774 0.0024426237 0.06710927 0.08310466
0.04850149 0.055295665 0.031780303 0.0059061362 0.04727429 0.11582474 0.01850261 0.10342894
0.011030162 0.0231528 -0.006818929 0.018276107 -0.009042722 0.057215594 0.019362073 -0.041039776
0.005023068 0.047465395 0.063998476 0.01906594 0.022049818 0.07016623 0.031410236 0.010544916
0.0688106 0.018249637 0.05659079 0.05564295 0.023028115 0.03242591 0.018174168 -0.01621662
0.027598796 -0.05483874 0.039094828 0.013238901 0.07114519 -0.007918149 0.0014799663 -0.01854986
0.010899778 -0.014698286 0.0695292 0.0033055695 -0.010606267 0.011095608 0.041446324 0.030028762
0.040058993 0.057070583 0.037610587 -0.001807196 0.008221609 0.022222627 -0.015509836 0.026714476
0.066625625 0.017630039 0.03455895 0.008216837 0.048825607 0.026638607 0.03868762 0.018657608
0.024806112 -0.0060491906 -0.0050160782 0.07657343 0.022753008 0.060478903 0.0338464 0.07775484
0.012448487 -0.040420704 0.008928181 0.041074794 0.12886532 0.0013866812 0.02346311 0.05343065
0.014921012 0.085228875 0.04108276 0.033075158 0.05134542 0.07545874 0.060307622 0.028842194
00000000: 99d5 3e3d ade1 9d3d f2cb 6e3d 2622 f83c
00000010: 1fcf d63d c1b9 2c3d 48ff e63c 59d4 b4bb
00000020: 6581 56bc 90ac d93c 8323 a3bc d2d0 603c
00000030: 0510 bb3c d31d 343d 05df 0e3d 58c5 963c
00000040: 6908 d7bb a90d 823d da88 ee3c 377b f53c
00000050: 1fb1 6f3c b8ab 2b3d 6a80 073d 96d5 f23b
00000060: cbca a53d 1b8f a43c 1bf2 1b3d 8e3f ea3c
00000070: 8c43 bf3b a605 fd3d 2d18 aa3d e66b f03b
00000080: 9000 e23c 115d 02bc c23a 0b3d 23b4 76bc
00000090: 9c3d 07bd 6d14 203b 9670 893d c732 aa3d
000000a0: 80a9 463d b57d 623d 102c 023d 4388 c13b
000000b0: b0a2 413d 8535 ed3d c992 973c 8dd2 d33d
000000c0: dab7 343c f1aa bd3c 5371 dfbb c6b7 953c
000000d0: ed27 14bc e65a 6a3d 369d 9e3c 5319 28bd
000000e0: 8c98 a43b 136b 423d a211 833d 2d30 9c3c
000000f0: d2a1 b43c 50b3 8f3d 05a8 003d 95c4 2c3c
00000100: 92ec 8c3d 4380 953c bfcb 673d dde9 633d
00000110: 75a5 bc3c 08d1 043d fee1 943c b8d8 84bc
00000120: df16 e23c 969e 60bd e621 203d fae7 583c
00000130: 92b4 913d 20bb 01bc 6efb c13a e0f5 97bc
00000140: fc94 323c 14d1 70bc 5365 8e3d 41a2 583b
00000150: e8c5 2dbc 5aca 353c 9fc3 293d e1fe f53c
00000160: e614 243d d8c2 693d 8f0d 1a3d 6fdf ecba
00000170: edb3 063c 3a0c b63c f81c 7ebc 51d8 da3c
00000180: 0473 883d df6c 903c b08d 0d3d ea9f 063c
00000190: 5cfd 473d 3539 da3c e976 1e3d d7d7 983c
000001a0: 3036 cb3c 4a38 c6bb ea5d a4bb 88d2 9c3d
000001b0: 8464 ba3c bab8 773d 86a2 0a3d ee3d 9f3d
000001c0: bdf4 4b3c 2e90 25bd 8147 123c 0b3e 283d
000001d0: 45f5 033e 4dc1 b53a b535 c03c 19da 5a3d
000001e0: 4377 743c 7a8c ae3d 6546 283d d179 073d
000001f0: 934f 523d 1d8a 9a3d 2005 773d 7746 ec3c

network_body._body_endoder.seq_layers.2.weight f4 [128, 128]
0.16365354 -0.005135414 -0.046629976 -0.082969435 -0.045493435 0.21862487 -0.021506963 -0.044970512
0.121503666 0.13470843 -0.15481186 -0.012794931 -0.045476153 -0.2031471 0.06466159 0.0051590255
0.055211455 0.13762237 0.067299 0.0075936965 -0.116908416 -0.06436301 -0.03576704 0.036774322
0.06244694 0.14641696 -0.12831411 -0.01995621 -0.15785539 -0.032154977 0.16588977 -0.07615117
0.35195577 -0.11273762 0.17783093 -0.029528424 0.014862805 0.031535592 -0.26789388 0.22278379
0.011186772 -0.026378054 -0.11109734 0.0033306647 0.056730736 -0.008187559 0.026486564 0.048438795
0.06622692 0.084841765 -0.0074677304 -0.27836427 0.09328498 0.09625877 -0.12398656 -0.16017637
0.13185532 0.158855 0.071727045 0.16094635 0.08685983 0.2799934 -0.022134574 0.09887228
-0.0073107453 -0.05840262 -0.05981887 -0.01360158 0.13977478 -0.05291003 -0.033484656 -0.19801782
-0.029023746 0.112180784 0.0047390074 -0.00092371507 0.15891612 -0.07729721 -0.02601795 0.12617083
0.031355917 0.060799967 -0.15292664 0.13244058 -0.08531407 -0.09503853 0.18800348 -0.099961534
0.023526277 0.099906616 0.026398096 0.030010542 0.14111565 -0.124169946 0.027947525 0.060942646
0.050840966 -0.23720267 -0.036517628 0.24949995 -0.17433825 0.2350676 0.1498185 0.2507139
0.11683297 0.05074975 -0.088801436 0.049221504 0.12981275 0.002874958 0.067808524 -0.009412622
-0.064792134 -0.05293247 0.19026305 -0.049582426 0.059714578 0.012447609 0.03211233 0.0820133
-0.1544382 -0.035901967 0.0633505 0.11708602 -0.078248255 -0.00081088307 0.18657492 -0.15450218
-0.07015217 0.10616426 -0.058102515 0.042436317 -0.07217835 -0.054117568 -0.02144131 -0.08847513
-0.11688539 -0.018640192 -0.04932272 -0.11799195 0.14090396 -0.045097735 0.21551505 0.16286147
0.017325057 0.022365248 0.08806827 0.14695002 0.044923034 0.25187388 -0.030175878 -0.028282516
0.072379805 0.049567387 0.01599709 -0.12409319 0.08111426 0.05495362 -0.057513405 -0.03370254
-0.07937313 -0.103667505 -0.04230395 0.109802455 0.0564457 0.08076598 0.043436237 -6.826565e-05
0.050456267 -0.14263421 0.14457256 -0.15494367 0.18796737 0.17017923 0.018618584 -0.08175761
-0.092361 -0.008380769 -0.13541551 -0.008499085 -0.2257317 -0.015131139 -0.20399873 0.09074258
0.03751763 -0.058903717 0.010459297 -0.029000381 -0.0076797977 0.027243845 0.015109481 0.18924643
0.088827334 0.081151366 0.030282 0.079925686 -0.16892833 -0.0304744 0.08216303 -0.105725735
-0.006981244 0.052260075 -0.12092036 -0.0153237535 -0.03026996 0.0720051 -0.123803936 0.15475456
-0.27793956 -0.024170903 -0.018280365 -0.016349884 0.027480891 0.033135332 -0.058400996 0.052680273
0.20501415 0.1073247 -0.03885728 -0.24518721 -0.03328632 -0.019384122 0.05888468 -0.035752006
0.048655372 0.09561266 0.1888893 -0.15883932 0.07112255 -0.13096324 -0.10607706 0.0943087
0.0016167144 -0.056514226 -0.11747023 -0.044664104 0.05792643 0.1348348 0.06351453 -0.022418227
-0.1150048 0.10107261 -0.05780384 -0.12305631 -0.12594026 0.115869746 0.08190075 -0.00933232
0.005552993 0.16359931 -0.067419276 -0.021643903 0.21766259 -0.001892236 0.035248365 -0.066784725
00000000: cb94 273e fa46 a8bb 13ff 3ebd e1eb a9bd
00000010: 5357 3abd 33df 5f3e 5f2f b0bc 0033 38bd
00000020: ead6 f83d 02f1 093e 0087 1ebe d5a1 51bc
00000030: 3445 3abd cb05 50be 4c6d 843d 0b0d a93b
00000040: 6825 623d e1ec 0c3e 0fd4 893d 8bd4 f83b
00000050: ae6d efbd c1d0 83bd 7680 12bd aca0 163d
00000060: 5dc8 7f3d 54ee 153e c664 03be 357b a3bc
00000070: d8a4 21be f0b4 03bd 02df 293e 25f5 9bbd
00000080: 8c33 b43e fbe2 e6bd 5019 363e 98e5 f1bc
00000090: 1f83 733c 772b 013d 6329 89be 6f21 643e
000000a0: b948 373c ca16 d8bc 0187 e3bd 4847 5a3b
000000b0: 7d5e 683d 1d25 06bc 5afa d83c c267 463d
000000c0: fba1 873d 85c1 ad3d ddb3 f4bb c385 8ebe
000000d0: 320c bf3d 5123 c53d aaec fdbd 4605 24be
000000e0: 1505 073e e3aa 223e a1e5 923d 1fcf 243e
000000f0: 91e3 b13d 4c5b 8f3e 9153 b5bc 8d7d ca3d
00000100: fa8e efbb 9637 6fbd a204 75bd 29d9 5ebc
00000110: 1f21 0f3e 30b8 58bd 3527 09bd 2fc5 4abe
00000120: 35c3 edbc 0abf e53d ad49 9b3b 7825 72ba
00000130: e8ba 223e 004e 9ebd 9923 d5bc ed32 013e
00000140: 106f 003d 6309 793d cd98 1cbe 819e 073e
00000150: 25b9 aebd 90a3 c2bd fc83 403e a2b8 ccbd
00000160: 2eba c03c d79b cc3d d240 d83c abd8 f53c
00000170: 9f80 103e d04c febd 35f2 e43c ff9e 793d
00000180: 9e3e 503d 42e5 72be 8293 15bd ea7c 7f3e
00000190: ba85 32be 90b5 703e 056a 193e 935d 803e
000001a0: 2046 ef3d f8de 4f3d 87dd b5bd 7d9c 493d
000001b0: a2ed 043e cb69 3c3b 32df 8a3d 6637 1abc
000001c0: bdb1 84bd b8cf 58bd 51d4 423e f116 4bbd
000001d0: 4697 743d 0ef1 4b3c 3888 033d 97f6 a73d
000001e0: 0c25 1ebe f10d 13bd e8bd 813d ccca ef3d
000001f0: 9f40 a0bd 7191 54ba 7f0d 3f3e d235 1ebe
00000200: f1ab 8fbd a66c d93d e7fc 6dbd b4d1 2d3d
00000210: 3ed2 93bd 62aa 5dbd b0a5 afbc 7332 b5bd
00000220: 9b61 efbd 51b3 98bc 9f06 4abd c3a5 f1bd
00000230: 2149 103e 67b8 38bd faaf 5c3e 28c5 263e
00000240: 47ed 8d3c 5337 b73c 235d b43d 117a 163e
00000250: 3701 383d 9df5 803e 6733 f7bc bcb0 e7bc
00000260: dd3b 943d 2c07 4b3d 540c 833c 9224 febd
00000270: 3c1f a63d 0c17 613d 2d93 6bbd ad0b 0abd
00000280: 618e a2bd a14f d4bd e846 2dbd 1ce0 e03d
00000290: 9b33 673d a268 a53d 32ea 313d d729 8fb8
000002a0: 3bab 4e3d b40e 12be d40a 143e 8ea9 1ebe
000002b0: 857a 403e 7743 2e3e 0086 983c 8970 a7bd
000002c0: c427 bdbd 7e4f 09bc 5daa 0abe bf3f 0bbc
000002d0: 3626 67be 99e8 77bc 0be5 50be 3fd7 b93d
000002e0: 16ac 193d 0645 71bd 795d 2b3c 3592 edbc
000002f0: d0a6 fbbb 7c2e df3c c28d 773c d1c9 413e
00000300: 1beb b53d b032 a63d f511 f83c 14b0 a33d
00000310: 8cfb 2cbe 73a5 f9bc 1745 a83d bc86 d8bd
00000320: ebc2 e4bb a90e 563d 18a5 f7bd 7b10 7bbc
00000330: b5f8 f7bc 6977 933d eb8c fdbd fb77 1e3e
00000340: 184e 8ebe 0f02 c6bc b4c0 95bc 31f0 85bc
00000350: 9b1f e13c eab8 073d e235 6fbd 45c7 573d
00000360: 3bef 513e 0dcd db3d d028 1fbd 5b12 7bbe
00000370: 3c57 08bd 73cb 9ebc 1031 713d b270 12bd
00000380: db4a 473d 92d0 c33d 326c 413e c6a6 22be
00000390: b3a8 913d 3a1b 06be ee3e d9bd eb24 c13d
000003a0: efe7 d33a 767b 67bd 3b94 f0bd b5f1 36bd
000003b0: 4444 6d3d 2212 0a3e e813 823d 6ea6 b7bc
000003c0: a387 ebbd 28ff ce3d b8c3 6cbd f204 fcbd
000003d0: 7cf6 00be 1e4d ed3d 95bb a73d 96e6 18bc
000003e0: e2f5 b53b 9486 273e 1e13 8abd 8e4e b1bc
000003f0: f1e2 5e3e e704 f8ba 9760 103d 6ec6 88bd

network_body._body_endoder.seq_layers.2.bias f4 [128]
0.06983214 0.04415133 0.006868327 -0.0034139326 0.06814414 0.02962452 0.0035109436 0.0153700905
0.014017721 0.0069015916 0.040178362 0.03368774 0.01136238 0.025110012 0.0154361 0.05797016
0.029716311 -0.005294554 0.027423693 0.046036478 0.045487013 0.044051856 0.047697462 0.013207279
0.037571635 0.0117939 -0.040592168 0.017940188 -0.03670514 0.01372693 0.0218028 0.055175234
0.018607106 0.010275149 0.030890847 -0.023538921 0.021084426 0.025010113 0.031133564 0.06004091
0.023304448 0.020233124 0.06349916 0.017272174 -1.3587399e-05 0.014008704 0.013535868 0.039148208
0.022546561 0.017017076 -0.003493446 -0.019974831 0.05850698 -0.0015907842 0.042131066 0.030173687
0.017730232 0.00022097859 0.050817885 0.0341781 -0.01392482 0.030271063 0.021904057 0.032007445
0.021294376 0.015045759 0.009621435 0.06025695 0.035245564 0.01597035 0.021312868 0.019200383
-0.011307012 0.0632365 0.058367513 0.005567167 0.030940464 0.029495526 -0.033689678 0.011737747
0.0024108817 0.022301314 0.033336405 0.024356328 -0.0144754 0.016692009 0.013543983 -0.02381886
-0.010576269 0.043517288 0.06383558 0.021782974 0.028025538 0.058306206 -0.010861733 0.016068788
0.026523365 0.029794283 -0.0059643406 0.010959462 0.014458883 0.02568892 0.020557743 0.06795747
0.032436557 0.011474175 0.019198988 -0.011326387 0.012348925 0.018723471 0.069376566 0.005126087
0.037861325 0.058362383 0.032032125 -0.000869011 0.031597827 -0.009299122 0.0003185709 -0.0031577507
0.015665842 0.064804636 0.022426516 0.045634367 -0.03685156 -0.02136263 0.05548714 0.022113824
00000000: 2704 8f3d 06d8 343d b40f e13b 49bc 5fbb
00000010: 288f 8b3d 1faf f23c dc17 663b d5d2 7b3c
00000020: 95aa 653c bf26 e23b 1192 243d 28fc 093d
00000030: 4729 3a3c 83b3 cd3c b2e7 7c3c 1e72 6d3d
00000040: 9f6f f33c f07d adbb a7a7 e03c bf90 3c3d
00000050: 9750 3a3d b86f 343d 6a5e 433d 5863 583c
00000060: b7e4 193d 343b 413c f943 26bd 4df7 923c
00000070: 2158 16bd ebe6 603c c99b b23c 6dff 613d
00000080: ee6d 983c 1959 283c cd0e fd3c b2d4 c0bc
00000090: 3fb9 ac3c 02e2 cc3c d10b ff3c 75ed 753d
000000a0: f8e8 be3c f0bf a53c d90b 823d 607e 8d3c
000000b0: 6ff5 63b7 c384 653c 8cc5 5d3c df59 203d
000000c0: 91b3 b83c 6567 8b3c 4cf2 64bb 42a2 a3bc
000000d0: 04a5 6f3d dc81 d0ba a091 2c3d cf2e f73c
000000e0: fe3e 913c 7db6 6739 6a26 503d 56fe 0b3d
000000f0: ee24 64bc 05fb f73c 2370 b33c 3d1a 033d
00000100: 8b71 ae3c 7d82 763c 39a3 1d3c fecf 763d
00000110: a75d 103d 40d4 823c 5398 ae3c 1f4a 9d3c
00000120: 0c41 39bc 2382 813d c612 6f3d c86c b63b
00000130: db76 fd3c 9aa0 f13c 30fe 09bd ae4f 403c
00000140: e2ff 1d3b 3fb1 b63c c18b 083d ec86 c73c
00000150: 3a2a 6dbc aebd 883c 95e7 5d3c c51f c3bc
00000160: 1648 2dbc 2f3f 323d 3bbc 823d 3572 b23c
00000170: d095 e53c 7dd2 6e3d 69f5 31bc b1a2 833c
00000180: 8747 d93c 2413 f43c 8470 c3bb 518f 333c
00000190: f3e4 6c3c 9271 d23c b668 a83c 492d 8b3d
000001a0: 32dc 043d 2efe 3b3c 3247 9d3c 4f92 39bc
000001b0: 2553 4a3c f761 993c 4d15 8e3d bcf8 a73b
000001c0: 7a14 1b3d 650d 6f3d 1e34 033d 57ce 63ba
000001d0: b96c 013d 585b 18bc dd05 a739 44f2 4ebb
000001e0: a755 803c 4bb8 843d d0b7 b73c 1aeb 3a3d
000001f0: a9f1 16bd af00 afbc 7c46 633d 0d28 b53c

action_model._discrete_distribution.branches.0.weight f4 [3, 128]
0.015385979 -0.018955328 0.017780663 0.018210365 0.047092225 -0.055340145 0.021363514 -0.009560405
0.0156205455 0.018496506 -0.016281035 0.02958561 -0.0021642887 -0.022794534 -0.0068924297 0.0055683083
-0.01347077 -0.0010978914 -0.02939105 -0.036521234 0.02121195 0.013033846 -0.06747868 0.0022139342
-0.012579397 0.02732781 0.023024596 0.05457203 0.008256206 0.003577088 0.03403606 -0.023322452
-0.024411542 0.030730654 -0.050612435 -0.0039733783 -0.017884271 0.02002315 -0.038638636 -0.0060633756
0.0021945366 -0.023471652 0.00083289796 -0.009049147 0.025061995 0.009843289 0.009616734 -0.0057253316
-0.015806433 -0.002669006 -0.011438374 0.019414911 -0.014127917 -0.00019928224 -0.03160336 0.008986497
0.016783834 0.030248605 -0.04029725 -0.042987943 0.011989191 -0.0012203589 0.0029700235 -0.053144824
0.0051269587 -0.00087380334 -0.012789227 -0.015322039 -0.035524145 0.010994622 -0.03401753 0.007117854
0.004873213 -0.009658343 -0.021586763 -0.011057937 -0.0334314 0.008713389 0.01635941 0.03978702
0.009691846 0.0031893465 0.014634672 -0.03177321 0.0009636734 -0.03510012 0.03711108 0.027433354
0.01455157 -0.039256003 0.07035152 -0.02482314 0.013020821 -0.014958718 0.025874283 -0.022887181
0.029973995 0.05363669 0.009421052 0.013309673 -0.010200013 -0.068919525 0.020025106 -0.0434227
0.038258124 0.030743541 0.016160598 0.020205533 0.0088945255 -0.0034062525 -0.028184272 -0.0083150705
-0.004578875 -0.0011132292 0.06256127 0.030623069 0.08340827 0.020975905 0.029001238 0.019752514
0.028444244 0.063815214 0.0056727948 -0.012200958 0.021589972 0.017547335 -0.03804482 -0.051200777
0.021413704 0.031180816 0.01841015 -0.01455466 -0.020107733 0.00076685695 -0.024220763 0.030716795
0.0066284873 0.051404767 0.030876609 -0.08281205 0.028540848 0.048584506 0.025981478 -0.028685838
0.020971254 -0.016687257 -0.0073166494 0.030113598 -0.026344733 0.013818732 0.0005876206 0.052739486
0.010116679 0.021541098 -0.023459086 -0.035386797 -0.020968176 -0.03095318 -0.0471576 0.036728576
-2.7637274e-05 -0.06937443 0.030262161 -0.012660189 0.01828745 -0.07975213 0.05124084 0.087268
-0.020699495 0.024201136 0.026989434 0.03229426 0.0017974385 0.029940486 -0.01990086 0.01993195
0.04292092 0.0011015352 0.006309728 -0.036078 0.03058945 0.029284688 0.04456768 0.0011749074
-0.1023628 0.03548311 0.039605934 -0.006123403 0.008009133 0.00568328 -0.04562739 0.024627594
0.031868197 0.03410577 0.013022323 0.021720987 0.028502842 0.029519204 0.013482026 -0.09264836
-0.007858993 0.02707312 0.03493816 0.027867297 0.02190073 -0.09691306 -0.050374594 -0.036725726
-0.015995631 0.004380429 -0.03968664 0.023968292 -0.023653608 0.016034981 -0.060470648 -0.020405512
0.012342774 0.022843897 -0.025023669 0.011858632 -0.07591569 0.054593645 -0.005965065 0.014439819
-0.03973933 -0.073222175 -0.0016857932 -0.027654408 0.020511458 0.086489774 -0.003284989 0.012386302
-0.060221333 0.006267704 -0.06542344 -0.008364471 0.030013118 0.020737527 0.027156407 0.026933713
0.05550129 0.0121255135 -0.0022353642 -0.011371337 -0.039763346 -0.011583905 -0.0029091674 -0.016015727
-0.087328464 -0.029924426 0.052922178 0.001240901 -0.039348714 -0.029646864 0.013331544 0.0025657478
00000000: 7915 7c3c 3448 9bbc c1a8 913c e72d 953c
00000010: c7e3 403d 59ac 62bd 8902 af3c 3fa3 1cbc
00000020: 51ed 7f3c fc85 973c ce5f 85bc 855d f23c
00000030: bdd6 0dbb 9abb babc e4d9 e1bb 5b76 b63b
00000040: 81b4 5cbc 1fe7 8fba 80c5 f0bc 4a97 15bd
00000050: afc4 ad3c ea8b 553c 4332 8abd a717 113b
00000060: d119 4ebc 92de df3c 149e bc3c ec86 5f3d
00000070: 0a45 073c 946d 6a3b 6569 0b3d ba0e bfbc
00000080: b7fa c7bc dabe fb3c fc4e 4fbd 1d33 82bb
00000090: 0982 92bc 9707 a43c 8c43 1ebd 48af c6bb
000000a0: 37d2 0f3b 9f47 c0bc d656 5a3a e042 14bc
000000b0: d04e cd3c bf45 213c 828f 1d3c 909b bbbb
000000c0: 7e7c 81bc 7dea 2ebb 0568 3bbc 050c 9f3c
000000d0: c778 67bc 6bf6 50b9 8672 01bd 1a3c 133c
000000e0: 407e 893c eccb f73c bb0e 25bd 2014 30bd
000000f0: 506e 443c 73f4 9fba baa4 423b 63ae 59bd
00000100: 0c00 a83b f30f 65ba e889 51bc 4a09 7bbc
00000110: c481 11bd c922 343c f755 0bbd e33c e93b
00000120: 79af 9f3b 073e 1ebc b9d6 b0bc 592c 35bc
00000130: 5def 08bd 9ac2 0e3c 2b04 863c b7f7 223d
00000140: 8cca 1e3c 5b04 513b 43c6 6f3c a024 02bd
00000150: 079f 7c3a 25c5 0fbd ca01 183d eabb e03c
00000160: b569 6e3c e7ca 20bd 7514 903d e659 cbbc
00000170: 4855 553c 6915 75bc 4ef6 d33c e67d bbbc
00000180: 068c f53c 25b2 5b3d c25a 1a3c d110 5a3c
00000190: f51d 27bc ae25 8dbd b10b a43c 00dc 31bd
000001a0: 8db4 1c3d e1d9 fb3c 3b63 843c 1386 a53c
000001b0: 58ba 113c 6f3b 5fbb b4e2 e6bc ef3b 08bc
000001c0: 630a 96bb c6e9 91ba 2020 803d 3bdd fa3c
000001d0: f4d1 aa3d a9d5 ab3c 0194 ed3c 06d0 a13c
000001e0: e703 e93c 8db1 823d dae2 b93b 87e6 47bc
000001f0: 74dd b03c 6ebf 8f3c e3d4 1bbd e8b7 51bd
00000200: cb6b af3c e96e ff3c e2d0 963c ab76 6ebc
00000210: f9b8 a4bc e606 493a 9f6a c6bc caa1 fb3c
00000220: c833 d93b ce8d 523d f1f0 fc3c 5d99 a9bd
00000230: 7fce e93c 8c00 473d 1cd7 d43c 90fe eabc
00000240: e8cb ab3c b7b3 88bc 81c0 efbb cbb0 f63c
00000250: e9d0 d7bc f767 623c 8d0a 1a3a 5c05 583d
00000260: 6dc0 253c f576 b03c 452d c0bc bff1 10bd
00000270: 74c5 abbc 8691 fdbc 5428 41bd b470 163d
00000280: 98d6 e7b7 2e14 8ebd 5ae8 f73c ae6c 4fbc
00000290: 90cf 953c 1655 a3bd eae1 513d 91b9 b23d
000002a0: fd91 a9bc 7641 c63c f218 dd3c fc46 043d
000002b0: 0798 eb3a c045 f53c 2107 a3bc 5448 a33c
000002c0: d9cd 2f3d 6361 903a d6c1 ce3b 86c6 13bd
000002d0: ba96 fa3c 71e6 ef3c 9a8c 363d 5aff 993a
000002e0: 96a3 d1bd bd56 113d d539 223d d4a6 c8bb
000002f0: bd38 033c cf3a ba3b c9e3 3abd cfbf c93c
00000300: 3a88 023d 7eb2 0b3d 955b 553c 36f0 b13c
00000310: cb7e e93c 42d2 f13c b7e3 5c3c 6cbe bdbd
00000320: 01c3 00bc 73c8 dd3c 511b 0f3d f549 e43c
00000330: 2969 b33c 5b7a c6bd 9755 4ebd b76d 16bd
00000340: 4509 83bc b489 8f3b 758e 22bd 2759 c43c
00000350: 36c5 c1bc cb5b 833c 12b0 77bd 7629 a7bc
00000360: 5939 4a3c 2023 bb3c 70fe ccbc b54a 423c
00000370: af79 9bbd 969d 5f3d 9876 c3bb fe94 6c3c
00000380: b5c5 22bd 82f5 95bd d5f5 dcba 7f8b e2bc
00000390: a507 a83c 8d21 b13d f848 57bb ebef 4a3c
000003a0: a5aa 76bd 5061 cd3b b9fc 85bd 220b 09bc
000003b0: 12de f53c bfe1 a93c 1d77 de3c 17a4 dc3c
000003c0: 5255 633d 17aa 463c 307f 12bb d84e 3abc
000003d0: e4de 22bd 6bca 3dbc bba7 3ebb 6a33 83bc
000003e0: 44d9 b2bd 1224 f5bc edc4 583d baa5 a23a
000003f0: 1e2c 21bd fbdd f2bc 8c6c 5a3c 1b26 283b

action_model._discrete_distribution.branches.0.bias f4 [3]
-0.016157435 0.035468582 -0.02891298
00000000: 995c 84bc 8147 113d eada ecbc

action_model._discrete_distribution.branches.1.weight f4 [3, 128]
-0.003988892 0.022729492 -0.061519384 -0.061227277 -0.0075626033 0.034750335 -0.027083598 0.005875528
-0.025163384 -0.039906297 0.009746215 0.024863258 0.003741005 0.021419842 0.028233197 0.052885737
0.040278714 -0.019812671 0.02734456 0.025902502 -0.05303539 -0.018434346 0.042273335 -0.054402266
0.021684362 -0.027153548 -0.024651347 -0.01578322 -0.01836258 0.009772381 0.00072181976 0.031973995
-0.018494638 -0.0037590645 0.024452569 -0.032419857 0.04389079 0.01610498 -0.044808205 -0.033373438
0.026913151 0.026392844 0.033007003 0.0111195445 -0.06445782 -0.039668284 0.0073837023 0.00782062
0.009707299 -0.021779194 0.02399486 -0.016299926 0.049853995 -0.066176005 0.017999455 -0.008008597
0.010215336 -0.03230928 -0.018067028 0.04426167 -0.056832705 0.045553423 0.027970891 0.0049918797
0.008336835 -0.07559085 0.017716004 0.030610863 -0.018440962 0.0200377 0.028576905 0.008818921
-0.010444887 0.0210518 0.028091894 0.025068752 0.04289378 0.020234812 -0.016042052 -0.015938967
-0.035714936 -0.0118583655 0.017412664 0.022589343 0.017132588 0.036645807 0.017779207 -0.022016175
-0.04841528 0.052217595 -0.04322803 0.036601037 0.020283638 0.022728764 -0.018970465 0.025810141
8.384832e-05 -0.013812577 -0.018096007 0.02680891 0.022534845 -0.08255506 -0.058782313 0.070950255
-0.013417788 -0.015294235 0.004437682 -0.044222623 -0.06526848 0.004272493 0.037364773 0.01029911
0.012497003 0.038439557 -0.030161377 -0.029712591 -0.0037894677 -0.06398427 -0.028663116 -0.028341454
0.003827452 -0.040150624 0.009324435 0.03834038 -0.010796056 -0.019590858 0.055316057 0.021657698
-0.0892424 0.0069481637 0.11771581 0.0846192 0.010836282 0.013180659 0.019971212 -0.044886846
0.06981506 0.12695292 0.0070822365 0.003058259 -0.05098219 -0.05065133 -0.07938016 0.015441557
-0.019166494 -0.02544196 -0.045964178 0.025718378 -0.13234572 -0.11040343 0.033956718 0.1384367
-0.016332796 0.10229844 -0.020895302 -0.036827635 -0.022258623 -0.07383499 -0.012889631 0.019288726
-0.06209889 -0.063347444 -0.042912517 -0.045816638 -0.056445822 -0.034760125 0.008259333 -0.024033556
-0.016820814 -0.0436697 0.052062504 -0.07906806 0.050727226 0.12227791 -0.076977566 -0.027972259
-0.0937139 -0.062463023 -0.05175672 0.029028183 0.019787483 0.16353884 0.023144802 0.037592176
-0.06712818 0.07495435 0.08231852 -0.02560183 0.094294116 0.020541377 0.006640984 0.056873456
-0.08158655 0.13668276 -0.049736563 0.038257178 0.015657827 -0.05497397 -0.023058852 -0.033117104
-0.07782635 0.01714453 0.020720774 -0.02635545 -0.0354375 -0.015356141 -0.037568115 -0.023951951
0.037886914 -0.07670615 -0.015637469 -0.03382851 -0.040710364 -0.019684728 -0.026435465 -0.0007856064
0.0536956 -0.009653069 -0.02953851 -0.05136587 -0.021614838 0.04202411 -2.5401794e-05 -0.047591917
-0.024188997 -0.07322349 -0.0020891821 -0.026599364 -0.05835089 0.016653918 0.111858204 0.10250472
-0.059809867 -0.057940025 -0.020063382 0.061647065 0.1473415 -0.05075102 0.06466302 -0.06293174
-0.016761694 0.0116615975 -0.03074388 -0.0152397975 -0.05114311 0.08917048 -0.01332532 -0.020803096
-0.077616416 -0.07884033 -0.09141086 -0.0025258048 -0.009094765 0.0024636213 0.019835042 -0.041326843
00000000: 40b5 82bb 3333 ba3c c0fb 7bbd 74c9 7abd
00000010: b7cf f7bb 5e56 0e3d 6cde ddbc 8087 c03b
00000020: 7123 cebc c974 23bd 97ae 1f3c 08ae cb3c
00000030: a62b 753b aa78 af3c 4e49 e73c b79e 583d
00000040: 4bfb 243d 2f4e a2bc b301 e03c 7c31 d43c
00000050: a33b 59bd a003 97bc ce26 2d3d e9d4 5ebd
00000060: 67a3 b13c 1e71 debc 9ff1 c9bc d04b 81bc
00000070: 1f6d 96bc 561c 203c 8138 3d3a 2af7 023d
00000080: 1182 97bc a35a 76bb c150 c83c afca 04bd
00000090: d4c6 333d 97ee 833c cf88 37bd 96b2 08bd
000000a0: f878 dc3c ce35 d83c 5a32 073d c02e 363c
000000b0: 7602 84bd 367b 22bd fcf2 f13b 0f22 003c
000000c0: 5d0b 1f3c 486a b2bc de90 c43c 6c87 85bc
000000d0: b433 4c3d 4987 87bd 9873 933c 7e36 03bc
000000e0: 3a5e 273c bc56 04bd 4e01 94bc ba4b 353d
000000f0: 69c9 68bd 3a96 3a3d 3623 e53c ec92 a33b
00000100: 3897 083c 60cf 9abd 2721 913c a2c3 fa3c
00000110: 8011 97bc 1a26 a43c 1d1a ea3c 3c7d 103c
00000120: 0821 2bbc d374 ac3c f920 e63c fc5c cd3c
00000130: 63b1 2f3d 7ac3 a53c 9f6a 83bc 7092 82bc
00000140: d349 12bd 9749 42bc 01a5 8e3c 490d b93c
00000150: a459 8c3c ea19 163d b3a5 913c 445b b4bc
00000160: 1a4f 46bd 1ee2 553d e00f 31bd f8ea 153d
00000170: df29 a63c ac31 ba3c f367 9bbc ca6f d33c
00000180: b9d7 af38 264e 62bc 143e 94bc 5c9e db3c
00000190: ff9a b83c a112 a9bd b9c5 70bd 5e4e 913d
000001a0: 48d6 5bbc ac94 7abc fa69 913b c822 35bd
000001b0: 7bab 85bd 4500 8c3b ce0b 193d 99bd 283c
000001c0: 3bc0 4c3c cc72 1d3d fe14 f7bc d267 f3bc
000001d0: b858 78bb 2f0a 83bd e9ce eabc 562c e8bc
000001e0: fdd5 7a3b fb74 24bd 84c5 183c cd0a 1d3d
000001f0: f1e1 30bc 027d a0bc 1793 623d 7c6b b13c
00000200: b8c4 b6bd 6cad e33b fd14 f13d d54c ad3d
00000210: a98a 313c b1f3 573c ab9a a33c 45db 37bd
00000220: 33fb 8e3d f2ff 013e 1b12 e83b 126d 483b
00000230: b3d2 50bd c577 4fbd 1192 a2bd 96fe 7c3c
00000240: 0d03 9dbc a86b d0bc ef44 3cbd 59af d23c
00000250: a385 07be 321b e2bd 3316 0b3d 5ac2 0d3e
00000260: 5bcc 85bc d881 d13d a02c abbc 93d8 16bd
00000270: b757 b6bc cd36 97bd 082f 53bc 6403 9e3c
00000280: 685b 7ebd 4ebc 81bd 09c5 2fbd 3aaa 3bbd
00000290: bc33 67bd a260 0ebd 2752 073c 05e2 c4bc
000002a0: cecb 89bc 00df 32bd 7e3f 553d 6fee a1bd
000002b0: 5ac7 4f3d d76c fa3d 6aa6 9dbd 1426 e5bc
000002c0: 13ed bfbd 3ad9 7fbd dbfe 53bd 83cc ed3c
000002d0: 5c19 a23c ba76 273e 2b9a bd3c 41fa 193d
000002e0: 807a 89bd ab81 993d 9d96 a83d eeba d1bc
000002f0: 461d c13d 6446 a83c 9d9c d93b 24f4 683d
00000300: d916 a7bd 91f6 0b3e 91b8 4bbd 8fb3 1c3d
00000310: d844 803c 632c 61bd ebe5 bcbc cda5 07bd
00000320: 6c63 9fbd af72 8c3c 9dbe a93c 62e7 d7bc
00000330: e926 11bd 5398 7bbc 06e1 19bd e236 c4bc
00000340: 4f2f 1b3d 1d18 9dbd 261a 80bc c48f 0abd
00000350: e9bf 26bd de41 a1bc 308f d8bc 27f1 4dba
00000360: ebef 5b3d e827 1ebc bffa f1bc 0565 52bd
00000370: 9a11 b1bc 7921 2c3d f015 d5b7 beef 42bd
00000380: 0128 c6bc 32f6 95bd a9ea 08bb e9e6 d9bc
00000390: 5801 6fbd cc6d 883c ea15 e53d ffed d13d
000003a0: 31fb 74bd 8552 6dbd f65b a4bc a281 7c3d
000003b0: b1e0 163e 4de0 4fbd 0c6e 843d 5be2 80bd
000003c0: d24f 89bc 4910 3f3c 97da fbbc 58b0 79bc
000003d0: 707b 51bd 039f b63d 7152 5abc 416b aabc
000003e0: 5bf5 9ebd 0a77 a1bd 9e35 bbbd f987 25bb
000003f0: 3602 15bc b574 213b 197d a23c 5646 29bd

action_model._discrete_distribution.branches.1.bias f4 [3]
0.018330865 0.013881533 -0.046819143
00000000: 9c2a 963c 5f6f 633c 6ec5 3fbd

action_model._discrete_distribution.branches.2.weight f4 [2, 128]
-0.01240103 0.026305284 -0.030473854 -0.030190982 0.09606293 -0.056807064 -0.03153405 0.07752491
-0.059539963 0.030329492 0.0517743 0.082628556 0.055267885 -0.008367253 0.03293618 0.063313074
0.014825071 -0.036803976 0.010978076 0.015069649 0.030226713 -0.0049039726 -0.036663085 0.005635369
0.043136682 0.03671102 -0.03437222 -0.023275375 -0.04073201 0.091887936 0.075087085 0.0381471
-0.021248054 0.07418348 0.020345213 -0.033922326 0.019761467 0.069591194 -0.05426779 -0.024370251
0.07769111 0.047139756 0.050850708 0.041055795 -0.029339673 -0.010100888 0.06742525 0.05862975
0.0029725397 0.009918179 0.024621675 -0.031633947 0.04675201 -0.019999346 0.015717397 -0.024532655
0.07258411 0.062513046 -0.05549612 -0.013426237 -0.028493715 0.043737423 0.054745853 -0.08338468
0.06563046 -0.01493 0.016862467 0.005650991 -0.027989274 0.07233488 0.019390455 0.07249673
-0.015118261 0.040291805 0.04198445 0.040659763 0.007929277 0.09333917 -0.03948653 -0.046289504
-0.017475048 -0.013681117 0.08436417 0.025134532 0.046462774 -0.004734411 0.06442627 -0.03548709
-0.004147097 -0.0136214625 -0.009859117 0.035773378 0.073309794 0.033440877 -0.04545404 0.052086674
-0.03458047 0.09266992 -0.046082627 0.06712542 0.05205675 -0.06343782 -0.042961914 -0.06512779
0.096609116 -0.007032569 0.09060742 -0.028069237 -0.034971144 0.07263491 -0.036243383 0.043255165
0.017170012 0.06518309 -0.052834142 -0.0197172 -0.036947146 -0.014010989 -0.053249188 -0.049756106
0.07081957 0.13235329 0.04116684 0.04798776 -0.054216746 -0.03317104 0.019020421 0.027037395
0.013417543 -0.048406813 0.039123856 0.015745232 -0.10758374 0.046036687 0.022121826 -0.05507219
0.026484193 -0.025936855 -0.05259212 -0.0976044 -0.07554756 0.027517153 -0.05361549 -0.059061192
-0.018332452 0.03042602 0.0054324223 -0.022702347 -0.034938037 -0.017582176 0.043668807 0.010308768
-0.051964875 -0.03494878 0.040240698 0.009513568 0.048197996 -0.060583774 -0.074336514 -0.049528897
0.011785429 -0.08341257 -0.010982356 0.03229235 -0.013023508 -0.073644675 0.06890346 0.032433577
-0.05961747 -0.03348866 -0.050816018 -0.04800432 0.043168735 0.015094238 -0.06888406 -0.053657837
-0.039933372 -0.0027908478 -0.04265054 0.041247606 -0.03728869 0.025155822 -0.0094651915 0.048379917
-0.07481451 -0.07075064 0.046415944 0.0032022062 0.020861782 -0.04142815 -0.040334925 0.08595264
-0.06893451 0.026730087 -0.039394446 -0.015079461 0.04303605 -0.08453165 -0.007940769 -0.061616037
0.008888787 -0.03783967 -0.05377965 -0.033451114 -0.02794067 -0.0858659 0.039311383 0.03790435
0.01953487 0.03447041 -0.09218665 -0.035635136 -0.04847156 0.0060669845 -0.07052377 0.030228548
-0.01669458 -0.0007555195 0.007948664 -0.02471261 -0.062077124 -0.030503115 0.053479303 -0.054682653
0.03565053 -0.08136916 0.024909403 -0.06709974 -0.055301417 0.052152295 0.041999158 0.06652757
-0.08626471 -0.0096204 -0.07280621 0.036136016 0.020645538 -0.07749112 0.019689575 -0.06130268
-0.020361591 -0.067863144 0.03226698 0.053736955 0.04129414 0.01405257 0.034799345 0.025810862
-0.081167065 -0.09736204 -0.03488238 -0.04989101 0.03281789 0.044195175 -0.007775178 -0.020831304
00000000: b12d 4bbc 2e7e d73c 4ea4 f9bc 1453 f7bc
00000010: a4bc c43d 86ae 68bd d929 01bd 61c5 9e3d
00000020: 2de0 73bd 8e75 f83c 4a11 543d 2939 a93d
00000030: 9460 623d cd16 09bc 16e8 063d 49aa 813d
00000040: dbe4 723c c4bf 16bd 63dd 333c b0e6 763c
00000050: 039e f73c 81b1 a0bb 082c 16bd e7a8 b83b
00000060: 17b0 303d 4b5e 163d e3c9 0cbd 00ac bebc
00000070: 9cd6 26bd be2f bc3d 42c7 993d 2240 1c3d
00000080: 6610 aebc 82ed 973d 01ab a63c 23f2 0abd
00000090: cde2 a13c d485 8e3d e747 5ebd 1fa4 c7bc
000000a0: 841c 9f3d 9e15 413d d548 503d 1f2a 283d
000000b0: c159 f0bc 327e 25bc 4016 8a3d c025 703d
000000c0: f1ce 423b dc7f 223c 65b3 c93c 9992 01bd
000000d0: 097f 3f3d abd5 a3bc c5c1 803c b5f8 c8bc
000000e0: faa6 943d d706 803d e64f 63bd b8f9 5bbc
000000f0: a76b e9bc 0326 333d 303d 603d 96c5 aabd
00000100: 4369 863d f59c 74bc 2823 8a3c f32b b93b
00000110: c349 e5bc 4f24 943d bbd8 9e3c 2a79 943d
00000120: 95b2 77bc 0509 253d e3f7 2b3d da8a 263d
00000130: cce9 013c 9b28 bf3d a1bc 21bd 109a 3dbd
00000140: d527 8fbc c426 60bc 1fc7 ac3d efe6 cd3c
00000150: c04f 3e3d 1e23 9bbb ecf1 833d e95a 11bd
00000160: 5fe4 87bb 8e2c 5fbc 2288 21bc 1b87 123d
00000170: 7223 963d 4df9 083d 042e 3abd d658 553d
00000180: 40a4 0dbd bac9 bd3d 23c1 3cbd 0d79 893d
00000190: 7539 553d b0eb 81bd d5f8 2fbd b861 85bd
000001a0: 00db c53d 7771 e6bb 6290 b93d 75f1 e5bc
000001b0: e73d 0fbd 9dc1 943d f173 14bd 542c 313d
000001c0: 20a8 8c3c b67e 853d 9d68 58bd f785 a1bc
000001d0: e455 17bd 598e 65bc d21b 5abd 0fcd 4bbd
000001e0: da09 913d 9f87 073e 8f9e 283d d08e 443d
000001f0: 6112 5ebd 5bde 07bd b7d0 9b3c 877d dd3c
00000200: 41d5 5b3c 3946 46bd 5640 203d 25fc 803c
00000210: dd54 dcbd f790 3c3d d538 b53c 6093 61bd
00000220: 61f5 d83c 8779 d4bc d66a 57bd d1e4 c7bd
00000230: aeb8 9abd a76b e13c eb9b 5bbd 26ea 71bd
00000240: f02d 96bc fd3f f93c 7602 b23b 46fa b9bc
00000250: 301b 0fbd 7f08 90bc 10de 323d 1be6 283c
00000260: 1fd9 54bd 7426 0fbd 6ed3 243d ccde 1b3c
00000270: 436b 453d b126 78bd be3d 98bd d0de 4abd
00000280: ac17 413c 36d4 aabd 57ef 33bc fc44 043d
00000290: 8d60 55bc 05d3 96bd 421d 8d3d 12d9 043d
000002a0: 7331 74bd 682b 09bd 7524 50bd 2ea0 44bd
000002b0: b3d1 303d d34d 773c 1613 8dbd 52c8 5bbd
000002c0: 2d91 23bd a8e6 36bb 55b2 2ebd 40f3 283d
000002d0: 07bc 18bd 9513 ce3c e413 1bbc 052a 463d
000002e0: 5a38 99bd b6e5 90bd a51e 3e3d 1bdc 513b
000002f0: 54e6 aa3c 90b0 29bd 3c36 25bd f007 b03d
00000300: 892d 8dbd 0ef9 da3c 125c 21bd d80f 77bc
00000310: 9246 303d ee1e adbd 001a 02bc 1961 7cbd
00000320: 46a2 113c c5fd 1abd 0d48 5cbd 0904 09bd
00000330: d5e3 e4bc 76da afbd f904 213d 9741 1b3d
00000340: 9707 a03c d830 0d3d 5bcc bcbd 26f6 11bd
00000350: 1d8a 46bd 8ecd c63b c46e 90bd dca1 f73c
00000360: 12c3 88bc 0e0e 46ba 1d3b 023c 1972 cabc
00000370: 9544 7ebd abe1 f9bc 1d0d 5b3d ebfa 5fbd
00000380: 4a06 123d e0a4 a6bd ce0e cc3c 976b 89bd
00000390: bd83 62bd a59d 553d 4f07 2c3d 9b3f 883d
000003a0: 8dab b0bd e29e 1dbc 6c1b 95bd 5c03 143d
000003b0: d520 a93c aab3 9ebd 084c a13c 8518 7bbd
000003c0: 5acd a6bc d5fb 8abd 612a 043d 481b 5c3d
000003d0: 0b24 293d c03c 663c c289 0e3d 4d71 d33c
000003e0: eb3a a6bd c065 c7bd d4e0 0ebd 845a 4cbd
000003f0: 0d6c 063d 0006 353d ecc6 febb 69a6 aabc

action_model._discrete_distribution.branches.2.bias f4 [2]
0.029275572 -0.029275566
00000000: 53d3 ef3c 50d3 efbc

exp_avg f4 [128, 6]
0.0006398826 0.00057076715 -0.00022065974 2.153624e-06 5.443388e-07 -2.1618346e-06 -0.0007448792 -0.00065565977
0.00018665797 -3.9127494e-06 -1.1636896e-06 3.9660317e-06 0.00012360039 0.00010641648 -4.8507045e-06 9.728155e-07
1.8167171e-07 -9.361739e-07 -7.527523e-06 -1.6965607e-05 5.4593624e-05 6.926389e-07 1.2115848e-07 -7.0188486e-07
1.1202056e-05 9.3275985e-06 -1.7623158e-07 -1.0179285e-08 -1.1164247e-07 4.4327663e-08 -5.605657e-05 -4.887672e-05
3.1293363e-05 -2.5362132e-07 -1.5777938e-07 2.9374203e-07 5.4177654e-05 3.9650524e-05 2.8309414e-05 9.528249e-07
7.3433675e-08 -9.2098657e-07 1.6885526e-05 1.3775567e-05 1.0405145e-05 7.452993e-07 3.1067497e-08 -6.9982764e-07
0.0002551992 0.00022313141 -6.550993e-05 1.9053687e-06 2.8198258e-07 -1.8554036e-06 0.00026088292 0.00023815683
-0.00015824346 1.7147646e-06 7.503409e-07 -1.8511234e-06 -0.0002818018 -0.00026259452 0.00013677514 -5.8300596e-08
3.320917e-08 5.072227e-08 1.5232139e-05 3.590193e-05 -0.00014423499 -1.5103324e-06 6.0135244e-07 1.2512138e-06
0.00020568517 0.00019182086 -0.0001315937 2.1198346e-06 9.687925e-07 -2.3092323e-06 -0.00018879166 -0.00016393067
2.9825233e-05 -2.546427e-06 -7.90881e-07 2.6064456e-06 -1.5395699e-05 6.7510555e-06 -0.00013731713 -8.3675394e-07
2.6162647e-07 7.0604597e-07 -0.00012749931 -8.750554e-05 -0.00013901606 -1.925611e-06 7.203119e-07 1.5559335e-06
-6.706737e-05 -6.662018e-05 7.3485746e-05 6.35288e-08 -7.504135e-08 -3.9331766e-08 0.0002037823 0.0001799536
-0.000115793606 1.2646616e-06 2.578723e-07 -1.3195089e-06 -7.886855e-05 -6.348901e-05 2.3223427e-05 -1.1933865e-06
-1.6318073e-07 1.194712e-06 -0.00035790342 -0.00030026634 -1.4843674e-05 -3.2846156e-06 -2.8848171e-07 3.125532e-06
9.683767e-05 8.58705e-05 -3.3999047e-05 5.7352526e-07 6.0962424e-07 -7.355449e-07 0.00014313885 0.0001235863
-2.9308261e-05 1.430787e-06 1.12955135e-07 -1.3611003e-06 2.5760937e-05 1.8983741e-05 1.3135024e-05 3.1937992e-07
-8.759521e-09 -2.917963e-07 0.00015266675 0.00013060503 -2.5457588e-05 6.9275376e-07 1.8149566e-07 -7.0374796e-07
-0.0006020965 -0.0005132003 9.764023e-05 -1.5411697e-06 -3.8752856e-07 1.5465297e-06 0.0002188396 0.00021069187
-0.0001779233 -3.8918145e-07 4.0617223e-07 2.4312394e-07 -0.0003320186 -0.00028715061 5.705445e-05 3.210314e-07
4.7545572e-07 -4.7910623e-07 0.00015868769 0.00012192734 7.842679e-05 5.9807116e-06 1.1212098e-06 -5.975796e-06
7.2017434e-07 -1.8674238e-05 9.876512e-05 -2.699647e-07 -3.255375e-08 2.6448586e-07 0.00014247978 0.00012055381
-1.1875194e-05 -2.516394e-07 -3.2670105e-08 2.4266888e-07 0.00046065307 0.00038451917 -3.645934e-06 2.1078208e-06
4.3054982e-07 -2.1167568e-06 -8.671268e-05 -0.00010218146 0.00015554253 2.5590366e-06 8.1968405e-09 -2.428228e-06
0.0008835266 0.0007860919 -0.00029018027 2.0180976e-06 4.591589e-07 -2.015247e-06 6.729048e-05 5.6740777e-05
-3.0499893e-06 -2.3152411e-07 -3.274763e-08 2.2379142e-07 -7.752808e-05 -6.703638e-05 1.2428986e-05 -2.7436622e-06
-5.8420267e-07 2.7644874e-06 -0.00028367544 -0.0002619607 0.00014088598 -2.4782041e-08 2.1493213e-08 1.903574e-08
3.266542e-05 2.6753029e-05 1.0467456e-05 1.0242236e-06 5.9058536e-08 -9.66874e-07 5.2808267e-05 4.5922825e-05
-5.7446155e-06 6.218088e-07 -6.8642514e-09 -5.63128e-07 -0.00030851125 -0.00026635343 4.5449306e-05 -2.040347e-06
-2.1654158e-08 1.8966645e-06 -2.799924e-05 -9.0384185e-07 -0.000111443434 2.739223e-07 -3.075353e-08 -2.585228e-07
4.2062175e-06 -5.4364486e-06 4.7172914e-05 -2.6236553e-06 -1.7704882e-06 2.969467e-06 0.0006009259 0.00052714715
-0.00016896441 5.4564816e-06 1.4469172e-06 -5.571269e-06 -0.0002371228 -0.00020553746 5.1466857e-05 -2.3392395e-06
00000000: cbbd 273a 899f 153a e660 67b9 fb86 1036
00000010: ad1e 1235 0914 11b6 ff43 43ba 95e0 2bba
00000020: 9eb9 4339 434a 83b6 1230 9cb5 f413 8536
00000030: ba9a 0139 ea2b df38 3cc3 a2b6 b091 8235
00000040: 8a11 4334 614d 7bb5 ee94 fcb6 5d51 8eb7
00000050: 75fb 6438 c8ed 3935 ca17 0234 2969 3cb5
00000060: 77f0 3b37 bb7d 1c37 2b3a 3db4 f8e0 2eb2
00000070: 19c0 efb3 c862 3e33 491e 6bb8 fa00 4db8
00000080: fe40 0338 7329 88b4 116a 29b4 99b3 9d34
00000090: d03c 6338 6d4e 2638 017a ed37 a1c5 7f35
000000a0: 97b2 9d33 b739 77b5 64a5 8d37 9c1d 6737
000000b0: c291 2e37 9410 4835 136f 0533 cadb 3bb5
000000c0: 42cc 8539 62f8 6939 6062 89b8 f8bb ff35
000000d0: 6463 9734 2f07 f9b5 1dc7 8839 bdb9 7939
000000e0: 28ee 25b9 dd26 e635 096b 4935 1e74 f8b5
000000f0: ccbe 93b9 d7ac 89b9 4c6b 0f39 2f66 7ab3
00000100: dea1 0e33 bad9 5933 8a8d 7f37 6795 1638
00000110: c93d 17b9 a0b6 cab5 a06c 2135 61ef a735
00000120: 31ad 5739 8523 4939 6afc 09b9 7b42 0e36
00000130: 7507 8235 4ff8 1ab6 60f6 45b9 cee4 2bb9
00000140: 3331 fa37 48e3 2ab6 ee4c 54b5 65ea 2e36
00000150: 0326 81b7 2087 e236 c9fc 0fb9 4b9d 60b5
00000160: ab75 8c34 1c87 3d35 56b1 05b9 2e83 b7b8
00000170: d7c4 11b9 bf39 01b6 755b 4135 78d5 d035
00000180: 85a6 8cb8 70b6 8bb8 5c1c 9a38 546d 8833
00000190: 6b26 a1b3 bced 28b3 65ae 5539 edb1 3c39
000001a0: 38d6 f2b8 71bd a935 b371 8a34 fb19 b1b5
000001b0: 3b66 a5b8 6725 85b8 eecf c237 732c a0b5
000001c0: c736 2fb4 fe59 a035 fca4 bbb9 116d 9db9
000001d0: 1809 79b7 446d 5cb6 a0e0 9ab4 3bc0 5136
000001e0: 5415 cb38 6015 b438 339a 0eb8 5bf4 1935
000001f0: 0fa5 2335 4372 45b5 8b17 1639 f296 0139
00000200: 03db f5b7 7809 c035 be91 f233 0daf b6b5
00000210: 3119 d837 463f 9f37 805e 5c37 3e77 ab34
00000220: c87c 16b2 2ea8 9cb4 2b15 2039 05f3 0839
00000230: c18d d5b7 adf5 3935 26e1 4234 31e9 3cb5
00000240: 03d6 1dba 4a88 06ba 33c4 cc38 30da ceb5
00000250: 850d d0b4 5b92 cf35 4f78 6539 2bed 5c39
00000260: ec90 3ab9 b1f0 d0b4 e30f da34 b386 8234
00000270: c812 aeb9 b48c 96b9 c04d 6f38 385a ac34
00000280: 2342 ff34 ee9b 00b5 6765 2639 3eb3 ff38
00000290: 1079 a438 ecad c836 7a7c 9635 b283 c8b6
000002a0: 0152 4135 9fa6 9cb7 1f20 cf38 aaef 90b4
000002b0: 3ad1 0bb3 a9fe 8d34 a066 1539 d5d1 fc38
000002c0: 923b 47b7 0e19 87b4 2951 0cb3 2848 8234
000002d0: cf83 f139 4a99 c939 abac 74b6 1674 0d36
000002e0: 5126 e734 9b0d 0eb6 84d9 b5b8 414a d6b8
000002f0: 2119 2339 eabb 2b36 16d2 0c32 a4f4 22b6
00000300: 779c 673a bc11 4e3a 5623 98b9 a76e 0736
00000310: 5282 f634 ae3d 07b6 4d1e 8d38 f2fc 6d38
00000320: 6bae 4cb6 dd98 78b4 66a6 0cb3 514b 7034
00000330: 9296 a2b8 e295 8cb8 1786 5037 c21f 38b6
00000340: 1ad2 1cb5 8885 3936 46ba 94b9 c557 89b9
00000350: cbba 1339 49e0 d4b2 13a0 b832 0984 a332
00000360: 3a02 0938 b16b e037 629d 2f37 0e78 8935
00000370: 8ca7 7d33 8ac5 81b5 727e 5d38 429d 4038
00000380: dfc1 c0b6 60ea 2635 98da ebb1 dd29 17b5
00000390: aebf a1b9 5aa5 8bb9 d2a0 3e38 e5ec 08b6
000003a0: ff01 bab2 e590 fe35 e9df eab7 8a9f 72b5
000003b0: bdb6 e9b8 980f 9334 dd15 04b3 1acb 8ab4
000003c0: 2223 8d36 bd6a b6b6 88db 4538 0e12 30b6
000003d0: 83a1 edb5 0e47 4736 7487 1d3a 3f30 0a3a
000003e0: 0a2c 31b9 d216 b736 b233 c235 d6f0 bab6
000003f0: 2ba4 78b9 8b85 57b9 1ede 5738 d4fb 1cb6
