results/PressButton/PressButtonAgent_ImitationLearning/PressButtonAgent/PressButtonAgent-238553.onnx (onnx, 83197 bytes, 11 tensors)

discrete_act_size_vector f4 [1, 3]
3.0 3.0 2.0
00000000: 0000 4040 0000 4040 0000 0040

network_body._body_endoder.seq_layers.0.weight f4 [128, 6]
-0.5769957 0.36244804 -0.94233197 0.6142168 0.20829223 0.7896706 -0.8793927 -0.6549839
0.44192332 0.058223765 -0.8751954 0.19915359 1.3370954 0.95452154 0.19954614 0.42106286
0.41800356 0.35210901 0.2592823 -0.71458197 0.59295493 0.045044728 0.6193872 -0.53271425
0.006040225 -0.19247569 0.2583193 -0.35708323 0.7769466 0.2810863 -0.43719152 -0.41187462
0.58708966 0.053666014 -0.9599791 0.41513827 0.45042652 0.3405137 0.5226184 -0.14471774
1.119636 -0.5337437 -0.081002645 -0.661282 0.22969009 -0.0139313685 0.16617057 -0.27898234
0.07446535 0.4841026 0.08194803 -0.4822235 0.38868377 -0.45675066 -0.1055644 -0.39330506
0.06886985 -0.15640526 -0.56074893 -0.30278543 -0.26276574 0.5259721 -0.18192318 0.08057416
0.5471608 -0.6708586 0.58642036 0.035572328 -0.16337776 0.37199607 -0.77576727 -0.390757
1.2793633 -0.34238172 -0.2819118 0.23510115 0.18020804 0.6429934 -0.71053654 -0.16773756
0.13970397 -0.4884065 0.30050212 0.3186037 0.39910176 0.2853848 0.12288719 -0.17423654
0.2539893 0.32978016 0.039975613 -0.29827133 0.49404123 -0.9616709 -0.35989675 0.3102385
-0.7247016 -0.19052425 -0.044684026 -0.12951666 0.20230626 0.3630628 -0.56075364 0.14204752
0.9900715 -0.26944676 0.40202853 -0.9884853 0.8973329 0.31163353 0.28419238 0.22621015
-0.23087236 0.39153174 0.1381712 -0.5035848 0.6591147 -0.32744163 -0.12755825 -0.61592823
0.30992982 -0.066745296 -0.40551034 -0.014034861 0.022917861 -0.31038538 0.85229146 0.20548187
-0.036739547 -0.74593025 -0.03453292 -0.35126564 0.18121935 -0.20633888 0.8219262 0.29722357
-0.3369453 -0.5165693 -0.64714134 0.5212165 0.5184301 -0.8943676 0.4231782 -0.08876306
-0.057588853 0.4054888 -0.8438113 0.8068507 0.27101785 0.13589247 0.048265737 -0.044612367
0.465791 0.06059652 -0.70852387 -0.11158144 -0.64131945 -0.13992676 0.3165155 0.5328297
-0.28131586 -0.8639263 -0.4353181 0.24424551 0.47141543 0.14959258 0.29484066 -0.23247132
-0.1009844 -0.39492574 -0.23480244 -0.023450445 -0.17676175 -0.41156882 0.37398356 -0.25102064
0.27683926 -0.02566133 0.1513408 -0.20850588 0.6571697 -0.6604012 -0.6711185 0.82608426
0.6749988 0.43352607 -0.19798845 0.3139483 0.5581971 0.104807414 0.14364609 0.17476942
-0.39833853 -0.35183898 -0.6056015 -0.45362982 -0.73866725 0.4211145 -0.36517856 -0.1200172
-0.7711051 0.74030745 -0.3499468 -0.120774336 0.12767422 0.43451083 -0.27632323 -0.03852153
-0.77169865 -0.057707176 -0.40690687 -0.48965204 0.040479783 -0.29509673 -0.000953795 -0.039628804
-0.2782665 -0.20243202 1.0835705 0.34785375 -0.75939244 -0.7911418 -0.2887371 0.07367192
0.47852325 -0.2455384 0.5745012 0.1295679 0.6180568 -0.40140653 0.32511592 0.7179758
0.15278363 -1.065475 0.65933883 0.6739587 0.29163525 0.15229575 -0.14536192 -0.55332875
0.07850492 0.23127373 -0.086411834 0.06737923 -1.0406942 -0.040898964 0.44085348 0.4920516
0.13017161 0.34664086 0.614153 0.097005375 0.4568848 0.14039181 0.8733606 0.0745719
00000000: fdb5 13bf ca92 b93e ab3c 71bf 503d 1d3f
00000010: 8f4a 553e da27 4a3f e11f 61bf 06ad 27bf
00000020: c643 e23e 0b7c 6e3d ce0c 60bf ebee 4b3e
00000030: f125 ab3f 865b 743f d355 4c3e 8d95 d73e
00000040: 9004 d63e a247 b43e a6c0 843e d8ee 36bf
00000050: e5cb 173f d280 383d 2990 1e3f f65f 08bf
00000060: 14ed c53b 5918 45be 6d42 843e 9dd3 b6be
00000070: f9e5 463f 8bea 8f3e 91d7 dfbe 3be1 d2be
00000080: 824b 163f e5d0 5b3d 31c1 75bf 018d d43e
00000090: 4e9e e63e d057 ae3e 52ca 053f e330 14be
000000a0: 3c50 8f3f 6da3 08bf b7e4 a5bd c749 29bf
000000b0: e133 6b3e 6540 64bc 9e28 2a3e c6d6 8ebe
000000c0: 4a81 983d 4cdc f73e 5ed4 a73d 00e6 f6be
000000d0: 8f01 c73e 39db e9be 2632 d8bd 485f c9be
000000e0: a30b 8d3d b328 20be 3e8d 0fbf b106 9bbe
000000f0: 3b89 86be 1ca6 063f 124a 3abe 1104 a53d
00000100: bb12 0c3f 64bd 2bbf a51f 163f 4ab4 113d
00000110: 804c 27be 4576 be3e af98 46bf 4d11 c8be
00000120: 2dc2 a33f a84c afbe be56 90be 5bbe 703e
00000130: 7588 383e 379b 243f b9e5 35bf 65c3 2bbe
00000140: 8f0e 0f3e 6b10 fabe 6adb 993e 0620 a33e
00000150: 1157 cc3e f51d 923e 47ac fb3d 106b 32be
00000160: e30a 823e f2d8 a83e 78bd 233d 05b7 98be
00000170: f9f2 fc3e 1030 76bf 6344 b8be 95d7 9e3e
00000180: 0b86 39bf ca18 43be 9906 37bd 04a0 04be
00000190: 5f29 4f3e 5ee3 b93e 8d8d 0fbf e874 113e
000001a0: 5375 7d3f edf4 89be afd6 cd3e 5f0d 7dbf
000001b0: 9cb7 653f 6e8e 9f3e aa81 913e a2a3 673e
000001c0: ce69 6cbe d976 c83e c07c 0d3e efea 00bf
000001d0: bebb 283f 6ea6 a7be a19e 02be 79ad 1dbf
000001e0: 1faf 9e3e c2b1 88bd 0d9f cfbe 79f2 65bc
000001f0: 3dbe bb3c d5ea 9ebe c62f 5a3f d769 523e
00000200: 357c 16bd 49f5 3ebf 6472 0dbd 17d9 b3be
00000210: 9191 393e 804a 53be c169 523f b02d 983e
00000220: 1884 acbe e33d 04bf 0eab 25bf 726e 053f
00000230: d6b7 043f 46f5 64bf d0aa d83e 68c9 b5bd
00000240: 4ae2 6bbd 3a9c cf3e 0404 58bf c48d 4e3f
00000250: dac2 8a3e 6527 0b3e 4bb2 453d 75bb 36bd
00000260: 287c ee3e 0e34 783d d261 35bf cf84 e4bd
00000270: 832d 24bf f648 0fbe 520e a23e 8767 083f
00000280: a208 90be 462a 5dbf 04e2 debe 7f1b 7a3e
00000290: 5d5d f13e cc2e 193e 5bf5 963e f60c 6ebe
000002a0: e9d0 cebd b533 cabe 0d70 70be 261b c0bc
000002b0: 0801 35be 26b9 d2be c67a bf3e c785 80be
000002c0: e0bd 8d3e b637 d2bc 15f9 1a3e 9182 55be
000002d0: 463c 283f 0e10 29bf 6cce 2bbf 427a 533f
000002e0: b9cc 2c3f 21f7 dd3e 7cbd 4abe d5bd a03e
000002f0: 01e6 0e3f 45a5 d63d f617 133e c1f6 323e
00000300: 07f3 cbbe 3d24 b4be b308 1bbf 2b42 e8be
00000310: 4c19 3dbf 529c d73e aff8 babe 94cb f5bd
00000320: 2567 45bf ca84 3d3f 3a2c b3be 8958 f7bd
00000330: 08bd 023e 3478 de3e 3d7a 8dbe c0c8 1dbd
00000340: 0b8e 45bf 5c5e 6cbd 1956 d0be acb3 fabe
00000350: 21ce 253d eb16 97be 1908 7aba d051 22bd
00000360: f278 8ebe 574a 4fbe 70b2 8a3f e319 b23e
00000370: 8b67 42bf 4588 4abf 59d5 93be 4ee1 963d
00000380: 0001 f53e 6b6e 7bbe 8312 133f 73ad 043e
00000390: f838 1e3f 2885 cdbe 9875 a63e 43cd 373f
000003a0: 5073 1c3e 7c61 88bf 6eca 283f 8f88 2c3f
000003b0: 3751 953e 6bf3 1b3e c1d9 14be f4a6 0dbf
000003c0: 30c7 a03d 05d3 6c3e b0f8 b0bd 1ffe 893d
000003d0: 7835 85bf ac85 27bd 8cb7 e13e 30ee fb3e
000003e0: b54b 053e e97a b13e 2239 1d3f c1aa c63d
000003f0: ceec e93e dfc2 0f3e 8f94 5f3f 27b9 983d

network_body._body_endoder.seq_layers.0.bias f4 [128]
0.1510582 0.06095033 0.013503879 0.03192188 0.072638966 0.08241575 0.07395895 0.053493805
-0.048689064 0.050810974 -0.009709169 0.038815234 0.08173708 -0.03492251 0.026700076 0.099266104
-0.017971676 0.027266411 0.017126005 0.047840863 -0.017072234 0.03478322 0.12590408 0.0088984305
0.040863354 0.06480463 0.0895509 0.041720632 0.093396954 0.020603094 0.05646045 0.05753903
0.11272553 0.13665558 0.06413893 0.02597599 0.084296495 0.0107694175 0.08502692 0.011856931
0.050474875 0.046825513 0.052110255 0.045378953 -0.0475532 0.025828851 0.053818367 0.03913399
0.12679754 0.111313224 -0.0030992588 0.02063498 0.0598011 0.03807352 0.085558824 -0.02680879
0.024465648 0.098426126 0.0690797 0.11659101 0.01169305 0.007917122 0.06904568 0.029217696
0.034727916 0.06680902 0.01062765 0.017103074 0.013191207 0.026807891 0.047210302 0.0007662917
0.078185774 0.039053135 0.019434445 0.032873537 0.108098485 0.07343413 0.038285423 0.0015304068
0.020104952 0.040375497 0.07851174 0.047683604 0.010518244 0.07025794 0.090551384 -0.020011233
0.05174063 0.022352885 0.0113718165 0.014380607 -0.016094008 -0.011768875 0.11947455 0.06687489
0.04087588 0.111112826 0.07801923 0.045035865 0.035918046 -0.01359762 0.13057393 0.06424065
0.030705225 0.0714554 0.0663274 0.03893114 0.04030128 -0.008579569 0.09284738 0.06734199
0.09962356 0.035234008 0.028446846 0.018208787 0.07335371 0.08469178 0.0032965576 0.020943288
0.09930985 0.110898845 0.06623529 0.019336203 0.008711601 0.10843816 0.047128033 0.045712017
00000000: 00af 1a3e 0ea7 793d 603f 5d3c 84c0 023d
00000010: bdc3 943d 97c9 a83d ca77 973d 521c 5b3d
00000020: 2f6e 47bd 2b1f 503d 3513 1fbc b9fc 1e3d
00000030: c565 a73d e80a 0fbd 1eba da3c 074c cb3d
00000040: 5639 93bc cf5d df3c d64b 8c3c c8f4 433d
00000050: 12db 8bbc da78 0e3d 00ed 003e b9ca 113c
00000060: 5560 273d 4ab8 843d 7666 b73d 41e3 2a3d
00000070: e746 bf3d d2c7 a83c 1343 673d 0cae 6b3d
00000080: a5dc e63d 71ef 0b3e 455b 833d 99cb d43c
00000090: a4a3 ac3d 3672 303c 9822 ae3d 9343 423c
000000a0: bebe 4e3d 1ccc 3f3d 9071 553d 48df 393d
000000b0: 25c7 42bd 0797 d33c a670 5c3d f64a 203d
000000c0: 37d7 013e 30f8 e33d ef1c 4bbb b10a a93c
000000d0: 00f2 743d fbf2 1b3d 7739 af3d 1c9e dbbc
000000e0: 2f6c c83c a393 c93d a879 8d3d 44c7 ee3d
000000f0: 3594 3f3c d1b6 013c d267 8d3d f359 ef3c
00000100: dc3e 0e3d 2bd3 883d 981f 2e3c bf1b 8c3c
00000110: ef1f 583c 399c db3c 975f 413d f7e0 483a
00000120: dd1f a03d 2ef6 1f3d fc34 9f3c 67a6 063d
00000130: bd62 dd3d a264 963d 2dd1 1c3d ee97 c83a
00000140: 24b3 a43c c760 253d c3ca a03d e24f 433d
00000150: b654 2c3c 65e3 8f3d 0173 b93d 99ee a3bc
00000160: fced 533d 661d b73c db50 3a3c a39c 6b3c
00000170: 95d7 83bc 3dd2 40bc 13af f43d b4f5 883d
00000180: 776d 273d 1f8f e33d 8cc8 9f3d 8777 383d
00000190: cd1e 133d 8dc8 5ebc 2cb5 053e 9a90 833d
000001a0: 8689 fb3c 3557 923d a9d6 873d 4276 1f3d
000001b0: f412 253d 5291 0cbc c426 be3d 99ea 893d
000001c0: 7007 cc3d 8951 103d 5c09 e93c 982a 953c
000001d0: 783a 963d e272 ad3d 0f0b 583b 4291 ab3c
000001e0: f662 cb3d ef1e e33d 5ea6 873d f566 9e3c
000001f0: 1abb 0e3c d314 de3d 5309 413d 863c 3b3d

network_body._body_endoder.seq_layers.2.weight f4 [128, 128]
0.050493784 -0.12918344 -0.0033665886 0.041574653 -0.006653395 -0.27385905 0.0554155 -0.08211499
0.08160515 -0.05978913 0.0849687 -0.13239817 0.046193443 -0.042867936 0.022415612 0.055928953
0.0076250727 -0.13616306 0.14361757 -0.116890416 0.14259501 0.0873446 -0.40662366 -0.21832591
0.13368088 -0.2925522 -0.15020728 -0.17850576 0.053929556 -0.009193303 -0.06679605 -0.15282908
-0.009990855 -0.0888672 -0.07082597 -0.06130986 -0.2646634 0.04261098 -0.2922776 0.011213837
-0.1219556 0.009898922 -0.028182974 0.17164299 0.19146484 -0.001106847 0.05109358 -0.24060507
0.1022026 0.10721186 -0.08997442 -0.08503311 0.0065370803 0.09726209 -0.13357934 -0.049409565
0.022624208 -0.018549968 -0.044949632 0.03699331 -0.0702029 0.06610565 0.03087565 0.06745371
0.116926886 -0.24507357 -0.023508178 -0.0684135 -0.09799828 -0.0025646335 -0.0019885916 0.0853506
0.22142385 0.16974822 -0.039818503 0.07918626 0.056334544 -0.0010592047 -0.104883455 0.018087827
-0.09369303 -0.17058954 -0.1208301 0.08744944 0.0064916313 0.218345 -0.07483945 0.09076686
-0.048332587 0.16969712 -0.096285574 -0.24792635 0.3135187 -0.018896136 -0.111048676 0.123807244
0.022153962 -0.0011924747 -0.086057745 -0.04848278 -0.067575 -0.020457182 0.19092909 0.09351862
-0.023927553 0.004288203 0.05596765 -0.034363844 0.123445906 0.0886929 0.11162775 0.03430416
0.04798283 -0.16516294 -0.015743084 -0.07897978 -0.1687784 0.017924983 0.108198464 0.20666556
-0.017072234 -0.0060201273 0.13088094 0.014792765 -0.13049313 -0.0034279975 -0.04094788 0.050235745
-0.033050172 0.0856597 -0.056166314 -0.16217099 -0.15477394 0.0627032 -0.05438575 -0.066666484
0.094863534 -0.07959972 0.085090935 0.13240765 -0.020472564 0.028683666 -0.004985203 0.08497581
-0.08732062 0.05363215 0.061320085 -0.0556018 -0.12731872 -0.21638131 0.14750439 -0.066801384
0.07098283 0.19732818 0.039314788 0.3873167 0.033896327 0.00018894179 0.05383062 0.21937561
-0.013615627 0.0050609526 -0.1291908 -0.04985443 -0.038801506 -0.13394803 -0.015215933 0.069974005
0.14601567 -0.11909702 0.016522402 0.042991783 -0.11293847 -0.110783525 0.060371418 0.06762483
0.057873067 0.059519913 -0.09907711 0.014319166 0.1301403 -0.056857064 0.13952564 -0.04894257
0.014129849 -0.07979015 0.047660984 0.028117876 -0.30028075 0.12165326 -0.078405395 -0.01118101
0.0694725 0.035159007 0.1153974 0.07261097 -0.1004823 -0.10374472 0.17010337 -0.24979009
-0.02098578 0.052705083 0.0953791 -0.02192546 -0.15767184 -0.016413966 0.031381555 -0.06158579
-0.156381 -0.0021736945 0.16042086 0.09294434 -0.012591101 -0.045188688 0.13491462 -0.050729092
-0.004827839 -0.09512172 -0.15676539 0.05493168 -0.12109895 0.17796373 -0.02363449 -0.049961243
-0.009600027 -0.22524002 0.17747474 -0.1449139 0.017273538 -0.1083103 -0.049256124 -0.024570297
0.30175245 -0.11761079 0.003608085 -0.09287678 0.009457831 -0.20070866 -0.09573089 0.10362856
-0.17860115 0.029913275 -0.1011409 0.0029830164 0.018563623 0.07956487 0.04425017 0.09632146
0.011916499 0.24773121 0.013250824 -0.12221855 0.00851964 -0.14371352 -0.057476923 0.13664354
00000000: 92d2 4e3d aa48 04be fca1 5cbb 2f4a 2a3d
00000010: b904 dabb 4137 8cbe 5dfb 623d e72b a8bd
00000020: 9a20 a73d 72e5 74bd 1204 ae3d 6393 07be
00000030: 5635 3d3d 4a96 2fbd f2a0 b73c c215 653d
00000040: bfdb f93b 546e 0bbe 7c10 133e 3e64 efbd
00000050: 6d04 123e bae1 b23d fa30 d0be d490 5fbe
00000060: a4e3 083e 67c9 95be f0cf 19be 37ca 36be
00000070: 3de5 5c3d 829f 16bc 5ecc 88bd 3a7f 1cbe
00000080: afb0 23bc 0200 b6bd 350d 91bd 0c20 7bbd
00000090: f681 87be da88 2e3d 69a5 95be 3eba 373c
000000a0: dcc3 f9bd 172f 223c fbdf e6bc 2ec3 2f3e
000000b0: 5c0f 443e 9f13 91ba 8047 513d 2d61 76be
000000c0: 994f d13d e491 db3d 8244 b8bd d725 aebd
000000d0: 0135 d63b 5931 c73d 06c9 08be af61 4abd
000000e0: 6756 b93c 1af6 97bc 1b1d 38bd 4c86 173d
000000f0: 8ac6 8fbd 6662 873d eeee fc3c 2c25 8a3d
00000100: 5d77 ef3d 91f4 7abe 3994 c0bc 611c 8cbd
00000110: 52b3 c8bd 6913 28bb 0853 02bb 4ccc ae3d
00000120: efbc 623e 7ad2 2d3e ba18 23bd 682c a23d
00000130: 0dbf 663d 03d5 8aba 23cd d6bd ec2c 943c
00000140: 22e2 bfbd 06af 2ebe c575 f7bd b118 b33d
00000150: c0b7 d43b d595 5f3e 6d45 99bd fae3 b93d
00000160: 64f8 45bd 15c5 2d3e 5f31 c5bd 68e0 7dbe
00000170: 8685 a03e 12cc 9abc 7d6d e3bd a78e fd3d
00000180: 3a7c b53c d04c 9cba 0b3f b0bd e195 46bd
00000190: c364 8abd d295 a7bc ea82 433e b186 bf3d
000001a0: b703 c4bc 0e84 8c3b 563e 653d 1ac1 0cbd
000001b0: 35d1 fc3d a0a4 b53d 179d e43d 8582 0c3d
000001c0: a589 443d 7920 29be a4f7 80bc 27c0 a1bd
000001d0: 3fd4 2cbe 6ad7 923c 2897 dd3d 23a0 533e
000001e0: 12db 8bbc 7d44 c5bb a705 063e 5a5d 723c
000001f0: fe9f 05be 41a8 60bb f7b8 27bd ffc3 4d3d
00000200: 9e5f 07bd 5a6e af3d a60e 66bd 2710 26be
00000210: 0f7d 1ebe 896a 803d 98c3 5ebd 7088 88bd
00000220: d047 c23d 2e05 a3bd 2844 ae3d df95 073e
00000230: 14b6 a7bc 02fa ea3c ea5a a3bb cc07 ae3d
00000240: 27d5 b2bd 63ad 5b3d c52a 7b3d b7be 63bd
00000250: d75f 02be 1093 5dbe 640b 173e 2acf 88bd
00000260: 725f 913d 6610 4a3e 8b08 213d 604e c63e
00000270: e0d6 0a3d ad1e 4639 7f7d 5c3d 00a4 603e
00000280: 1414 5fbc 59d6 a53b 984a 04be 2934 4cbd
00000290: 54ee 1ebd ac29 09be 404c 79bc 884e 8f3d
000002a0: 2285 153e 23e9 f3bd fd59 873c 2718 303d
000002b0: 494c e7bd 79e2 e2bd 0548 773d e37e 8a3d
000002c0: 4f0c 6d3d 27cb 733d f1e8 cabd ef9a 6a3c
000002d0: 8043 053e f4e2 68bd cfdf 0e3e 0178 48bd
000002e0: e280 673c 0569 a3bd 2a38 433d 7657 e63c
000002f0: 66be 99be 5825 f93d 0293 a0bd 8e30 37bc
00000300: 9947 8e3d e402 103d 7955 ec3d 0fb5 943d
00000310: aac9 cdbd 1d78 d4bd 942f 2e3e f9c8 7fbe
00000320: 5fea abbc 49e1 573d 1e56 c33d 069d b3bc
00000330: ba74 21be 9576 86bc f289 003d 6241 7cbd
00000340: 5722 20be 8b74 0ebb 5e45 243e 9a59 be3d
00000350: e84a 4ebc c617 39bd 0f27 0a3e 4fc9 4fbd
00000360: d932 9ebb 2dcf c2bd 1b87 20be 0b00 613d
00000370: ba02 f8bd 203c 363e 1e9d c1bc 29a4 4cbd
00000380: 6f49 1dbc 52a5 66be f0bb 353e 4f64 14be
00000390: 3c81 8d3c cad1 ddbd cac0 49bd a647 c9bc
000003a0: 4c7f 9a3e eddd f0bd 9f75 6c3b 2e36 bebd
000003b0: 05f5 1a3c 9286 4dbe 8f0e c4bd 363b d43d
000003c0: 38e3 36be af0c f53c f622 cfbd b67e 433b
000003d0: bd12 983c e8f2 a23d ab3f 353d 3044 c53d
000003e0: 6b3d 433c 40ad 7d3e fc19 593c b84d fabd
000003f0: f695 0b3c a329 13be ec6c 6bbd 49ec 0b3e

network_body._body_endoder.seq_layers.2.bias f4 [128]
0.010422636 0.049029917 0.016737748 0.024666512 0.013279827 0.020149818 0.04694044 0.042253733
0.004742919 0.042479396 0.043896902 0.0220702 0.038536135 0.05929852 0.011741855 0.03759625
0.022199756 0.021258445 0.056562237 0.0816574 0.047702618 0.033586856 0.0043879366 0.033260792
0.017027361 0.05186327 0.0076852716 -0.03371945 0.023801034 0.03582259 -0.048164863 0.022892274
-0.018496554 0.0048249085 0.040880024 0.054284737 0.03760201 -0.017241819 0.049311534 0.010572037
-0.033763427 0.03243757 0.027020227 0.0105191795 0.022999963 0.06632226 -0.0024264134 0.037198383
0.03427283 0.0014250204 0.06671543 0.027791023 0.037893962 0.007592017 -0.00064641144 0.07722309
0.044186648 0.020165132 0.03506614 0.027250705 -0.005517647 -0.004913783 -0.011183719 0.03261987
0.01675876 0.04035653 0.032677 0.033276126 0.01874418 0.063721806 0.04008696 0.048837304
0.06037846 0.01692989 -0.033704475 0.014069099 0.016607003 0.05332485 0.028181298 0.009307451
0.015584303 0.005759078 0.0457988 0.023567308 0.009888901 0.050761174 0.037298325 0.042050518
-0.04120554 0.02477945 0.059755158 0.025662411 0.041884292 0.018464679 0.03748884 0.02651042
0.007966484 -0.00058091886 0.016412087 0.021208784 0.029216072 0.011198247 -0.022071203 0.036015436
0.018233618 0.016343836 -0.016988315 0.054121964 0.056305114 0.029022578 0.05661251 -0.0028163511
0.033967495 -0.0033621145 0.017373987 0.0409487 0.005322592 0.032190975 0.017157676 0.010020478
0.046081178 0.08095493 -0.013701747 0.00810609 0.025839983 0.004555719 -0.035174023 0.027051076
00000000: b4c3 2a3c 98d3 483d 9a1d 893c 6d11 ca3c
00000010: a293 593c 3b11 a53c 9e44 403d 4012 2d3d
00000020: 7d6a 9b3b e0fe 2d3d 3dcd 333d 90cc b43c
00000030: 11d8 1d3d 01e3 723d e960 403c 87fe 193d
00000040: 43dc b53c 3126 ae3c cead 673d ff3b a73d
00000050: d263 433d 5f92 093d aec8 8f3b 783c 083d
00000060: f77c 8b3c 956e 543d bbd4 fb3b 681d 0abd
00000070: 63fa c23c b5ba 123d 8548 45bd 9488 bb3c
00000080: 1686 97bc 441a 9e3b d071 273d ac59 5e3d
00000090: 9104 1a3d b73e 8dbc e4fa 493d 5636 2d3c
000000a0: 854b 0abd 42dd 043d 8659 dd3c a358 2c3c
000000b0: 6b6a bc3c f7d3 873d 7604 1fbb 555d 183d
000000c0: ab61 0c3d c0c7 ba3a 19a2 883d 00aa e33c
000000d0: b336 1b3d 74c6 f83b f073 29ba 2427 9e3d
000000e0: 0ffd 343d 5931 a53c 83a1 0f3d df3c df3c
000000f0: 61cd b4bb cd03 a1bb eb3b 37bc 6a9c 053d
00000100: ab49 893c e44c 253d 51d8 053d 8c4c 083d
00000110: 658d 993c 9480 823d 3932 243d a009 483d
00000120: 674f 773d 8db0 8a3c b40d 0abd 1482 663c
00000130: 690b 883c 286b 5a3d 77dc e63c 477e 183c
00000140: 4e55 7f3c a6b6 bc3b 8697 3b3d 3a10 c13c
00000150: 0f05 223c f3ea 4f3d 21c6 183d 2a3d 2c3d
00000160: 24c7 28bd 46fe ca3c d3c1 743d fa39 d23c
00000170: dd8e 2b3d 3d43 973c e68d 193d 612c d93c
00000180: db85 023c ce48 18ba a472 863c 0bbe ad3c
00000190: 8b56 ef3c da78 373c abce b4bc ec84 133d
000001a0: ab5e 953c 82e3 853c 142b 8bbc feae 5d3d
000001b0: 31a0 663d c2c0 ed3c 85e2 673d 8892 38bb
000001c0: 8021 0b3d ec56 5cbb e453 8e3c d3b9 273d
000001d0: 2369 ae3b afda 033d 418e 8c3c ee2c 243c
000001e0: 9ebf 3c3d b3cb a53d 4b7d 60bc 68cf 043c
000001f0: 5fae d33c 2448 953b a312 10bd 389a dd3c

action_model._discrete_distribution.branches.0.weight f4 [3, 128]
0.043988306 -0.05744736 -0.022777153 -0.07552517 -0.0012102437 -0.004028972 0.017013293 0.015763251
-0.03742474 0.010678828 -0.025530506 -0.027583899 0.022489345 0.051116474 -0.015833821 -0.07297662
0.0659744 -0.00830363 -0.010442569 0.046316925 0.035445433 -0.036467105 -0.03639522 -0.052511167
0.007706325 -0.06270952 0.0054437546 0.049208052 0.0056219236 -0.057254978 0.0024425073 0.0061573563
-0.044207636 0.016871875 0.009118983 0.010758219 -0.04228262 0.0021007773 -0.0338186 0.061480764
0.059420858 -0.053363573 -0.066664524 -0.0005375671 -0.056210108 -0.015735932 0.047833733 0.009649595
-0.0054229605 -0.008978721 0.058420468 -0.035165504 -0.02382693 -0.04452515 -0.0011204638 0.05329917
-0.06925217 -0.016051125 -0.06881674 -0.0063557634 0.00017148335 0.026190076 0.0943686 -0.04057699
0.027634226 0.0446364 -0.0050979247 0.002426175 0.0041406783 -0.0055786064 -0.028351428 -0.016655017
0.035302386 0.039252046 -0.037270125 -0.0040633553 0.020591024 -0.019576445 0.021862932 -0.052595872
-0.016498383 0.059444122 -0.029986639 -0.029825544 0.003424893 -0.026257493 0.06425546 0.018014079
0.015175849 -0.031034224 0.117650196 0.0069720736 0.007711909 -0.003255997 -0.043791026 -0.018723262
0.09856134 0.042369645 -0.010549417 -0.025376432 -0.035535287 0.042677928 0.037335437 0.01022481
0.05324233 0.00446557 0.034137614 -0.03752538 -0.021252027 -0.052154325 0.014741666 0.037389606
-0.02344938 -0.0053775664 -0.085951224 -0.053589705 -0.04098679 -0.022291703 0.0003773012 -0.0012077027
0.043787397 0.033248868 0.04984739 -0.002930637 0.02235988 0.02444218 0.05822378 -0.04013096
-0.004840037 0.05578784 -0.059152834 0.023323666 -0.022430118 0.03497356 -0.10039028 0.06320976
0.05803111 -0.08756004 -0.008058104 -0.023535544 -0.0624226 -0.036873534 0.00689929 0.040238854
-0.0489857 0.03502271 0.008738367 -0.039243743 -0.06095138 0.022359312 0.006351503 0.009705343
-0.013989297 0.0047599818 0.0293887 -0.054789025 0.058629185 0.029896623 -0.03296945 0.064099796
0.05077852 -0.030053312 0.029900122 -0.05104039 0.050876707 -0.026286438 0.016274845 -0.037012592
-0.06525282 0.03580249 0.025310652 0.0122257415 0.03272816 -0.01140479 -0.015733292 -0.0017985596
0.033387445 0.060574595 -0.08966942 0.06909579 0.0673038 0.030994024 0.022251291 -0.052290853
0.07725342 0.06403219 0.036581133 -0.014344254 -0.04185922 -0.049799085 -0.054386973 0.029371612
-0.023287136 0.08028336 -0.07467161 -0.07529391 -0.08641565 0.04457151 0.0016794554 0.017697327
-0.07741661 0.037290405 0.027444325 -0.055972412 -0.0032170436 0.02289814 -0.09063282 0.026312001
-0.0008429166 0.008090201 -0.0009260922 0.009701634 -0.020074204 -0.011240898 -0.015145086 -0.010758003
-0.010518535 -0.0120713655 -0.08700303 -0.013456311 0.00020689346 0.0022679616 0.0118411295 0.02135217
-0.045137066 -0.04504899 -0.010338962 0.030308178 0.004537166 -0.017248161 -0.025697991 -0.052133814
-0.026921539 0.06742982 -0.019092325 0.044618167 0.003078652 0.04754546 -0.09606424 -0.089327134
0.033181798 -0.010561745 0.069724396 0.063905835 0.024623113 0.03222011 -0.07821559 0.07097933
-0.07589567 -0.07456275 0.000955945 -0.08228298 -0.06909685 -0.039584447 -0.039659183 0.028116057
00000000: 152d 343d ec4d 6bbd 2797 babc f1ac 9abd
00000010: 0aa1 9eba 7705 84bb 765f 8b3c ef21 813c
00000020: af4a 19bd 40f6 2e3c 5a25 d1bc a1f7 e1bc
00000030: 933b b83c 825f 513d eeb5 81bc c474 95bd
00000040: 961d 873d f30b 08bc 4f17 2bbc d1b6 3d3d
00000050: 3b2f 113d 885e 15bd 2713 15bd f315 57bd
00000060: 5785 fc3b d96d 80bd 8661 b23b 628e 493d
00000070: 1d38 b83b 3284 6abd 7912 203b a6c3 c93b
00000080: 1113 35bd e336 8a3c c967 153c 3e43 303c
00000090: 8a30 2dbd 32ad 093b 5f85 0abd 41d3 7b3d
000000a0: 4963 733d c393 5abd 6987 88bd 84eb 0cba
000000b0: 923c 66bd a4e8 80bc 4eed 433d 5619 1e3c
000000c0: 17b3 b1bb 7c1b 13bc 4d4a 6f3d b409 10bd
000000d0: b230 c3bc 0160 36bd 87dc 92ba 3b50 5a3d
000000e0: 15d4 8dbd a67d 83bc caef 8cbd 0244 d0bb
000000f0: 36d0 3339 928c d63c 5344 c13d 0f34 26bd
00000100: 2c61 e23c a8d4 363d 7e0c a7bb 7600 1f3b
00000110: 87ae 873b becc b6bb 4141 e8bc 1a70 88bc
00000120: 3c99 103d c1c6 203d 8fa8 18bd e525 85bb
00000130: 82ae a83c c85e a0bc e419 b33c c56e 57bd
00000140: 9e27 87bc ae7b 733d 8aa6 f5bc b354 f4bc
00000150: 2b74 603b f419 d7bc 5e98 833d 4392 933c
00000160: 20a4 783c 7c3b febc 96f2 f03d fe75 e43b
00000170: 2eb4 fc3b 9162 55bb 385e 33bd 8761 99bc
00000180: 87da c93d cb8b 2d3d 76d7 2cbc 3ce2 cfbc
00000190: 738d 11bd 0dcf 2e3d 0bed 183d f685 273c
000001a0: a114 5a3d eb53 923b e2d3 0b3d 36b4 19bd
000001b0: bb18 aebc c69f 55bd 0787 713c d825 193d
000001c0: ea18 c0bc 4c36 b0bb 3207 b0bd e180 5bbd
000001d0: c4e1 27bd 179d b6bc 83d0 c539 c74b 9eba
000001e0: 6a5a 333d f72f 083d c72c 4c3d ee0f 40bb
000001f0: 112c b73c f73a c83c 0f7c 6e3d 5d60 24bd
00000200: 2c99 9ebb ca81 643d 3e4a 72bd 4611 bf3c
00000210: 5ebf b7bc 7040 0f3d 6b99 cdbd 1e74 813d
00000220: 07b2 6d3d ae52 b3bd 2306 04bc 9dcd c0bc
00000230: d7ae 7fbd b408 17bd 7013 e23b 7fd1 243d
00000240: 3ba5 48bd f973 0f3d 5e2b 0f3c 0cbe 20bd
00000250: 27a8 79bd e02a b73c 4520 d03b 2903 1f3c
00000260: 5d33 65bc 9ff9 9b3b 92c0 f03c 756a 60bd
00000270: 2825 703d c3e9 f43c f90a 07bd c146 833d
00000280: 23fd 4f3d 5d32 f6bc 1af1 f43c ba0f 51bd
00000290: 1864 503d a856 d7bc d352 853c 849a 17bd
000002a0: 45a3 85bd a2a5 123d 4958 cf3c 7a4e 483c
000002b0: f70d 063d 28db 3abc 1be3 80bc a5bd ebba
000002c0: 46c1 083d 111d 783d 9aa4 b7bd 1882 8d3d
000002d0: 93d6 893d 2ee7 fd3c 5748 b63c ef2e 56bd
000002e0: 0b37 9e3d 4f23 833d 19d6 153d 2904 6bbc
000002f0: 9374 2bbd 20fa 4bbd e0c4 5ebd bc9c f03c
00000300: aac4 bebc 9a6b a43d 6eed 98bd b233 9abd
00000310: b0fa b0bd 9e90 363d 2c21 dc3a fcf9 903c
00000320: 9a8c 9ebd d3bd 183d ecd2 e03c 5443 65bd
00000330: 09d5 52bb e194 bb3c b39d b9bd 448c d73c
00000340: 2df7 5cba c38c 043c ffc4 72ba 9af3 1e3c
00000350: a872 a4bc be2b 38bc 1823 78bc 5642 30bc
00000360: ef55 2cbc fac6 45bc a52e b2bd dc77 5cbc
00000370: 8af1 5839 15a2 143b 4c01 423c bfea ae3c
00000380: a5e1 38bd 4a85 38bd c064 29bc db48 f83c
00000390: 82ac 943b 044c 8dbc 9884 d2bc 448a 55bd
000003a0: 8f8a dcbc a518 8a3d 8267 9cbc 8ac1 363d
000003b0: 36c3 493b 07bf 423d 54bd c4bd 25f1 b6bd
000003c0: a3e9 073d 2b0b 2dbc aacb 8e3d 10e1 823d
000003d0: 69b6 c93c 3cf9 033d 7f2f a0bd 9c5d 913d
000003e0: 306f 9bbd 5bb4 98bd 6298 7a3a fb83 a8bd
000003f0: a682 8dbd 4d23 22bd ab71 22bd a553 e63c

action_model._discrete_distribution.branches.0.bias f4 [3]
-0.031885397 0.03959204 -0.027450506
00000000: 439a 02bd 432b 223d e2df e0bc

action_model._discrete_distribution.branches.1.weight f4 [3, 128]
-0.07748593 0.025292777 -0.029789843 0.035651468 -0.00456353 -0.050179955 -0.03800797 -0.0070613273
-0.06002517 0.00947776 0.07068494 0.008505596 0.003923798 0.0029536972 0.049170505 0.049328707
-0.058494847 0.033275764 0.053655464 0.00810434 -0.03477444 0.024253016 0.041386742 0.033251833
-0.07773811 0.041184243 -0.04885068 -0.009922469 0.026050923 0.0185697 -0.03071847 0.006995827
-0.042934477 -0.009023775 0.034467675 -0.030177342 0.027209882 -0.039721455 0.0472821 -0.077184126
0.0047723423 0.011712213 0.029756501 -0.09622021 -0.10664333 0.0641332 -0.014298711 -0.0036181791
0.036055643 -0.05906879 0.007419475 0.022418138 -0.028902456 0.01709515 -0.05755516 -0.019349711
-0.049261723 0.026571892 0.034415137 -0.043627273 -0.02328606 -0.019300396 -0.0103394175 0.021988478
-0.081685595 0.027458953 0.022526922 0.008107934 0.009139179 -0.034821305 -0.039840803 0.05526599
-0.008806296 0.016871098 -0.033998523 -0.092674494 -0.07788781 0.04332324 -0.00817718 0.026690107
0.044598892 -0.044877473 0.041004177 0.03817068 -0.064935446 0.05501481 0.03171925 -0.05667229
-0.041863155 0.021111581 -0.0034472153 0.062385704 0.045690652 0.028356781 0.05264399 -0.11558006
-0.009467019 -0.04244001 0.041287784 -0.066403985 0.048767984 -0.033839274 -0.058259785 0.015683385
-0.033329748 -0.09363428 -0.034669463 0.010276646 0.05933451 -0.03534888 -0.014667482 0.01310069
-0.0804087 0.047315065 -0.08887919 0.014544547 -0.074928015 -0.0051389695 -0.009981977 0.005620849
-0.01641586 -0.008818822 -0.024504513 -0.0029412317 -0.0047114342 -0.03690681 0.03381838 0.025265573
0.15261284 0.049111463 0.043002713 -0.0247854 0.11137711 -0.107004344 0.088257365 0.03073476
-0.051394314 -0.03655573 0.0029385544 -0.08462027 -0.002838074 -0.033384286 -0.07236772 -0.025797557
-0.017758315 -0.021929426 0.0056458935 -0.047649585 0.09017927 -0.0048773196 -0.05602288 0.002506224
0.10360183 0.010466493 -0.0011996209 0.11416801 -0.019837042 -0.0053707194 -0.057006743 -0.08811485
-0.04172591 -0.08310011 0.0032472715 -0.06014161 0.006572516 -0.006624791 0.0026410273 0.12419704
-0.03564672 0.02211826 -0.021326557 0.1821396 0.06975259 0.04368539 -0.017855993 -0.1559172
-0.0012019911 0.06693167 -0.1364448 -0.024600755 -0.1542038 -0.02786522 0.13804355 -0.07340929
0.0018600661 -0.05472006 -0.0056619607 -0.10293433 0.029166128 0.011572257 -0.14632274 0.021816317
0.12087921 -0.06248546 -0.0086871805 -0.038549583 -0.03137606 -0.0776066 -0.0020437315 -0.0017997557
-0.11071753 0.025710687 -0.075774156 0.13845366 0.1365465 -0.010319274 -0.031590194 -0.04992376
-0.0260866 -0.08333621 0.02041814 -0.000410382 0.14715788 0.01332505 -0.022297418 -0.06921439
-0.015403507 -0.19363572 -0.14845759 -0.041197177 0.02518044 -0.029792624 -0.0065543647 0.1493638
-0.114948094 0.09241501 -0.034787286 0.08608922 -0.020022217 0.0297962 0.041006 -0.0032035648
0.055274796 0.18467604 0.09316297 -0.15540715 -0.012288272 0.01843497 -0.10045607 0.009050776
0.08637856 -0.06725805 0.028035495 -0.037737954 0.15512644 0.008156063 -0.024429053 -0.024238836
0.0983175 -0.09771036 0.0061494843 0.0100613 -0.020199314 0.06336982 0.002641697 -0.030871825
00000000: f1b0 9ebd cc32 cf3c d409 f4bc 4607 123d
00000010: aa89 95bb 7f89 4dbd 3fae 1bbd b562 e7bb
00000020: f4dc 75bd 9b48 1b3c 44c3 903d 0e5b 0b3c
00000030: 3493 803b d192 413b 0367 493d e60c 4a3d
00000040: 4b98 6fbd 2b4c 083d d5c5 5b3d 11c8 043c
00000050: a56f 0ebd 43ae c63c 2585 293d 1333 083d
00000060: 2935 9fbd cfb0 283d a717 48bd da91 22bc
00000070: bf68 d53c 7c1f 983c 4da5 fbbc 403d e53b
00000080: 10dc 2fbd 75d8 13bc fa2d 0d3d 7936 f7bc
00000090: 42e7 de3c f7b2 22bd e0aa 413d b612 9ebd
000000a0: 4f61 9c3b 95e4 3f3c e8c3 f33c 1a0f c5bd
000000b0: d167 dabd 4458 833d 2445 6abc f91e 6dbb
000000c0: 15af 133d 1ef2 71bd 111f f33b 3ea6 b73c
000000d0: d8c4 ecbc 210b 8c3c f6be 6bbd 4983 9ebc
000000e0: a9c6 49bd 4cad d93c e3f6 0c3d 83b2 32bd
000000f0: 68c2 bebc dd1b 9ebc a966 29bc 2e21 b43c
00000100: c74a a7bd 99f1 e03c 618a b83c 24d7 043c
00000110: 7fbc 153c c9a0 0ebd 1c30 23bd 975e 623d
00000120: 4848 10bc 4235 8a3c 0942 0bbd 20cc bdbd
00000130: a583 9fbd b673 313d 94f9 05bc 36a5 da3c
00000140: 54ad 363d 71d1 37bd fff3 273d dc58 1c3d
00000150: e0fc 84bd 3657 613d 0bec 013d 3421 68bd
00000160: b378 2bbd 32f2 ac3c adea 61bb 2788 7f3d
00000170: 1f26 3b3d 7b4c e83c 39a1 573d 3db5 ecbd
00000180: 8e1b 1bbc 93d5 2dbd 611d 293d d0fe 87bd
00000190: f0c0 473d 0d9b 0abd d0a1 6ebd 717a 803c
000001a0: c684 08bd 54c3 bfbd 9101 0ebd 615f 283c
000001b0: be08 733d fdc9 10bd e14f 70bc 47a4 563c
000001c0: 51ad a4bd 71cd 413d 4b06 b6bd 404c 6e3c
000001d0: dc73 99bd cd64 a8bb 728b 23bc 192f b83b
000001e0: 8e7a 86bc d27c 10bc b0bd c8bc aec1 40bb
000001f0: 6062 9abb 982b 17bd 2485 0a3d bff9 ce3c
00000200: 8a46 1c3e 1a29 493d 9d23 303d c00a cbbc
00000210: af19 e43d 1825 dbbd 47c0 b43d 77c7 fb3c
00000220: d882 52bd 76bb 15bd c394 403b 644d adbd
00000230: fbfe 39bb f6bd 08bd 8735 94bd 6655 d3bc
00000240: e379 91bc 57a5 b3bc 3001 b93b 362c 43bd
00000250: e9af b83d ecd1 9fbb 3f78 65bd 763f 243b
00000260: 322d d43d a77b 2b3c 993c 9dba ebd0 e93d
00000270: 4b81 a2bc dcfc afbb e77f 69bd 8f75 b4bd
00000280: cae8 2abd 6430 aabd 2dd0 543b 0d57 76bd
00000290: 435e d73b c614 d9bb 1615 2d3b 055b fe3d
000002a0: 4c02 12bd 5a31 b53c 08b5 aebc ce82 3a3e
000002b0: 72da 8e3d 74ef 323d bb46 92bc c2a8 1fbe
000002c0: 218c 9dba 7913 893d 30b8 0bbe 8687 c9bc
000002d0: 9ae7 1dbe 9a45 e4bc 4a5b 0d3e 9c57 96bd
000002e0: 76cd f33a 2422 60bd f887 b9bb 3ccf d2bd
000002f0: ceed ee3c 9099 3d3c a1d5 15be 22b8 b23c
00000300: 858f f73d c1f0 7fbd ad54 0ebc 2be6 1dbd
00000310: 2f84 00bd 36f0 9ebd 20f0 05bb c8e5 ebba
00000320: dfbf e2bd 389f d23c 7b2f 9bbd ccc6 0d3e
00000330: d8d2 0b3e 2c12 29bc b864 01bd db7c 4cbd
00000340: 91b3 d5bc 2dac aabd f143 a73c 8a28 d7b9
00000350: 8eb0 163e 4f51 5a3c 13a9 b6bc 46c0 8dbd
00000360: fe5e 7cbc 7148 46be 4405 18be 5fbe 28bd
00000370: 3647 ce3c a90f f4bc ffc5 d6bb d3f2 183e
00000380: e869 ebbd 1544 bd3d 1d7d 0ebd 8c4f b03d
00000390: a205 a4bc 2917 f43c e8f5 273d e6f2 51bb
000003a0: d367 623d b71b 3d3e 3acc be3d 0d23 1fbe
000003b0: c054 49bc ef04 973c e9bb cdbd b549 143c
000003c0: 3ee7 b03d 97be 89bd b2aa e53c 1d93 1abd
000003d0: 77d9 1e3e 02a1 053c 701f c8bc 8690 c6bc
000003e0: af5a c93d 5f1c c8bd 9d81 c93b 27d8 243c
000003f0: 0879 a5bc 09c8 813d 5220 2d3b e9e6 fcbc

action_model._discrete_distribution.branches.1.bias f4 [3]
0.020833196 0.03050679 -0.067476265
00000000: 61aa aa3c 60e9 f93c ff30 8abd

action_model._discrete_distribution.branches.2.weight f4 [2, 128]
-0.01621055 0.01176083 -0.018076742 0.04028976 -0.058805045 0.040594637 -0.10474771 -0.06093831
0.017283041 0.10252104 0.0007961284 -0.048859123 0.10064488 0.12939307 0.08665399 0.052272916
-0.057436116 0.06741112 0.09193959 0.19713588 -0.07294651 0.00011588051 -0.0011473137 0.010341972
-0.010804382 3.9236256e-05 -0.07323552 0.024231818 0.06446752 0.03902447 -0.018991314 0.10052337
0.0006345175 0.014737989 0.057586685 0.12803507 0.043874007 -0.011706457 0.042862263 -0.02134546
0.010341142 0.013291637 0.04872312 -0.03757925 -0.05626038 0.018677294 0.059383675 0.015922867
0.048320763 -0.04949566 -0.07532003 0.05721211 -0.01655758 0.029508747 -0.028156865 -0.08542742
-0.027385717 0.08215301 0.026853656 0.014691032 -0.05675835 -0.00030738395 -0.009939926 0.024117656
-0.039477453 -0.05675277 0.0834244 0.09674705 0.076176204 0.0551773 -0.0070248307 0.12473883
-0.09030767 0.05918178 -0.021578195 -0.06485372 -0.005185261 0.112098716 0.07369869 0.04616932
0.059043564 0.046695214 0.007183249 0.019246144 -0.030263009 0.057548445 0.12704343 0.17903757
-0.020058224 -0.020953014 -0.054014463 0.05838479 0.008680947 0.07632684 0.058807183 -0.02552877
-0.0030086397 -0.0030796283 0.057014246 -0.064487346 0.039482664 -0.08083862 -0.01652581 0.07885016
0.04351926 -0.013314757 0.014108801 -0.105757505 0.014586833 -0.05377363 0.09657216 0.064734705
-0.099763766 0.038246967 0.014318973 0.0071222885 -0.020538272 -0.10489258 0.06289054 0.041426223
-0.10781722 -0.069233045 0.039834004 0.047927722 0.060558762 0.01760211 0.083567694 0.02824203
0.0033489119 -0.025359835 0.0024924576 -0.012719986 0.078745894 -0.037052725 0.10852725 0.079920895
-0.016394958 -0.09377778 -0.024116144 0.06539132 -0.10722865 -0.14536795 -0.1068429 -0.060882702
0.04393977 -0.079708934 -0.08016914 -0.18987148 0.04208374 -0.013561652 0.013498538 -0.0009671352
0.018279696 -0.0032556225 0.07077463 -0.021096498 -0.0521113 -0.027253846 0.024324233 -0.082561046
0.0105444975 -0.0063713472 -0.05801539 -0.10604256 -0.04000689 0.007805789 -0.03837961 0.018235216
0.008156028 -0.001589621 -0.029545773 0.027445618 0.061831936 -0.0052488535 -0.06814102 -0.026554886
-0.040940817 0.043275006 0.06555369 -0.052034162 0.026876297 -0.028612837 0.053058952 0.08722586
0.01865262 -0.08097402 -0.02390844 -0.0056067514 0.04057679 0.017950607 0.0017057618 -0.015446309
0.04736459 0.048721112 -0.08551433 -0.09956138 -0.059645414 -0.0535139 -0.014047099 -0.115202636
0.10468079 -0.06274589 0.012590818 0.059247628 0.01778954 -0.12850156 -0.07487547 -0.03752331
-0.07574503 -0.041895427 -0.023121474 -0.032876022 0.01664489 -0.04525977 -0.13005915 -0.15953161
0.018904615 0.014580624 0.03594146 -0.06509144 -0.0040278835 -0.07157356 -0.043007467 0.02166615
0.009150349 0.019564478 -0.06053243 0.05586886 -0.033611067 0.07568014 0.011034306 -0.07412861
-0.040005393 -0.005062351 -0.014639788 0.105265215 -0.027817447 0.05678515 -0.10154589 -0.07331132
0.10052498 -0.06964245 -0.01728609 -0.023121951 0.034479734 0.11363999 -0.060728487 -0.06001602
0.117446914 0.057902522 -0.055819824 -0.06078324 -0.08537952 -0.017268071 -0.08713158 -0.013872629
00000000: fdcb 84bc 7fb0 403c ad15 94bc e006 253d
00000010: 8fdd 70bd 9046 263d f885 d6bd 739a 79bd
00000020: 2a95 8d3c 8df6 d13d 46b3 503a 8120 48bd
00000030: e71e ce3d 9e7f 043e a677 b13d 201c 563d
00000040: 2242 6bbd d70e 8a3d d34a bc3d fddd 493e
00000050: fb64 95bd e004 f338 7661 96ba 6071 293c
00000060: dd04 31bc 9c91 2438 81fc 95bd ce81 c63c
00000070: 8c07 843d 1fd8 1f3d ac93 9bbc 32df cd3d
00000080: c055 263a 9b77 713c 04e0 6b3d a01b 033e
00000090: 3bb5 333d 70cc 3fbc 5790 2f3d addc aebc
000000a0: e56d 293c 2bc5 593c e591 473d b3ec 19bd
000000b0: 4971 66bd 2001 993c 4c3c 733d ac70 823c
000000c0: feeb 453d f6bb 4abd 6341 9abd 3f57 6a3d
000000d0: c3a3 87bc 54bc f13c 3aa9 e6bc 92f4 aebd
000000e0: 0358 e0bc d63f a83d 33fc db3c a7b2 703c
000000f0: 727b 68bd 6028 a1b9 12db 22bc 6492 c53c
00000100: 1cb3 21bd 9875 68bd 69da aa3d 5123 c63d
00000110: 4502 9c3d 9801 623d 8d30 e6bb 1277 ff3d
00000120: 3af3 b8bd 9868 723d c1c4 b0bc 07d2 84bd
00000130: 1fe9 a9bb 0394 e53d 57ef 963d 0a1c 3d3d
00000140: aad7 713d 7b43 3f3d 7661 eb3b 17aa 9d3c
00000150: 21ea f7bc ebb7 6b3d ac17 023e a055 373e
00000160: 2551 a4bc a8a5 abbc 453e 5dbd e424 6f3d
00000170: 883a 0e3c 3f51 9c3d cddf 703d b621 d1bc
00000180: 992c 45bb 97d3 49bb c587 693d f111 84bd
00000190: 93b8 213d b88e a5bd 2361 87bc 317c a13d
000001a0: 4041 323d 2326 5abc 9a28 673c 6497 d8bd
000001b0: 9dfd 6e3c bd41 5cbd a0c7 c53d a193 843d
000001c0: f250 ccbd daa8 1c3d 209a 6a3c 1662 e93b
000001d0: e13f a8bc ecd1 d6bd c1cc 803d 8bae 293d
000001e0: 46cf dcbd 0eca 8dbd fb28 233d dc4f 443d
000001f0: 770c 783d 4d32 903c 8a25 ab3d d45b e73c
00000200: 6b79 5b3b 6ebf cfbc 8058 233b 7d67 50bc
00000210: 8745 a13d 99c4 17bd 8943 de3d 91ad a33d
00000220: b84e 86bc 910e c0bd 388f c5bc e2eb 853d
00000230: b29a dbbd 56db 14be 73d0 dabd 2460 79bd
00000240: 30fa 333d 703e a3bd b82f a4bd ab6d 42be
00000250: 0060 2c3d b131 5ebc f928 5d3c 5887 7dba
00000260: 4dbf 953c 485c 55bb 4af2 903d 90d2 acbc
00000270: a972 55bd 7543 dfbc 9d43 c73c c415 a9bd
00000280: d4c2 2c3c bcc6 d0bb 8ca1 6dbd d72c d9bd
00000290: 44de 23bd b4c7 ff3b f033 1dbd 0562 953c
000002a0: dca0 053c d45a d0ba fa09 f2bc a2d5 e03c
000002b0: 7c43 7d3d 93fe abbb 858d 8bbd a289 d9bc
000002c0: 8fb1 27bd 2241 313d 0341 863d c621 55bd
000002d0: ae2b dc3c 7865 eabc 5854 593d 79a3 b23d
000002e0: 61cd 983c b5d5 a5bd a2db c3bc d7b8 b7bb
000002f0: d933 263d 270d 933c de93 df3a 8412 7dbc
00000300: 5f01 423d ca8f 473d 2322 afbd d6e6 cbbd
00000310: c04e 74bd 6431 5bbd ce25 66bc 5cef ebbd
00000320: e262 d63d eb80 80bd b849 4e3c a4ad 723d
00000330: 5fbb 913c ea95 03be 4f58 99bd 0bb2 19bd
00000340: 3620 9bbd 8a9a 2bbd 3f69 bdbc 02a9 06bd
00000350: dd5a 883c 4f62 39bd 3a2e 05be 415c 23be
00000360: dadd 9a3c 92e3 6e3c 5a37 133d a94e 85bd
00000370: 56fc 83bb 2995 92bd 9928 30bd 367d b13c
00000380: 58eb 153c af45 a03c daf0 77bd bfd6 643d
00000390: c2ab 09bd 30fe 9a3d 3cc9 343c bed0 97bd
000003a0: b2dc 23bd 14e2 a5bb b9db 6fbc 4a95 d73d
000003b0: 6ae1 e3bc 8c97 683d 4bf7 cfbd 3f24 96bd
000003c0: 0ae0 cd3d b3a0 8ebd 8f9b 8dbc 3f6a bdbc
000003d0: 9f3a 0d3d 15bc e83d 6fbe 78bd 5cd3 75bd
000003e0: 0288 f03d 322b 6d3d 54a3 64bd d9f7 78bd
000003f0: 75db aebd c575 8dbc 0b72 b2bd 064a 63bc

action_model._discrete_distribution.branches.2.bias f4 [2]
0.014963436 -0.014963382
00000000: 3329 753c f928 75bc
