results/PressButton/PressButtonAgent_ImitationLearning/PressButtonAgent/PressButtonAgent-149962.onnx (onnx, 83197 bytes, 11 tensors)

discrete_act_size_vector f4 [1, 3]
3.0 3.0 2.0
00000000: 0000 4040 0000 4040 0000 0040

network_body._body_endoder.seq_layers.0.weight f4 [128, 6]
-0.536985 0.2690566 -0.76795095 0.5742075 0.24334396 0.7571417 -0.88202214 -0.65207696
0.37509662 0.019408774 -0.8258493 0.1859471 1.3430024 0.935394 0.18989906 0.4211363
0.4098373 0.32189566 0.23121908 -0.7327472 0.6072118 0.11334275 0.5512536 -0.5278857
-0.018102253 -0.21460024 0.20731232 -0.408883 0.7221252 0.18735543 -0.4487498 -0.40640885
0.5290253 0.030787671 -0.9299687 0.39467925 0.44192302 0.3195549 0.48340425 -0.1698798
1.1333451 -0.46801215 -0.108661376 -0.6556609 0.23422314 -0.021535955 0.17710292 -0.28871605
0.076641805 0.4740918 0.0048169415 -0.47973427 0.3851457 -0.4324805 -0.08523963 -0.39243463
0.022121113 -0.18001425 -0.5249746 -0.3014895 -0.24836501 0.49229822 -0.21941149 0.06656299
0.54742384 -0.6486866 0.59772295 0.030806202 -0.19502617 0.34804744 -0.7524086 -0.37963375
1.2513672 -0.3557985 -0.26203775 0.23519246 0.18193604 0.6344352 -0.7152456 -0.14737168
0.15408106 -0.472476 0.30761877 0.33332708 0.3923945 0.26241145 0.087734565 -0.16620095
0.23215519 0.30250245 0.028296908 -0.29463246 0.4640226 -0.93263036 -0.39458877 0.36173132
-0.714775 -0.16555217 0.04696902 -0.12611218 0.21391451 0.3487923 -0.5864629 0.11601819
0.9366433 -0.2792381 0.4156783 -1.0203123 0.90159637 0.31996566 0.26099157 0.2158053
-0.22489911 0.3731711 0.10939405 -0.5100189 0.6419469 -0.31321612 -0.14364047 -0.67569005
0.3267477 -0.05251963 -0.3966795 -0.007506128 0.019023838 -0.29414093 0.85948527 0.21682271
-0.08576128 -0.7370821 -0.042015184 -0.3079703 0.1289818 -0.22893375 0.7244162 0.26885986
-0.30692768 -0.51199573 -0.63489425 0.52890456 0.46866608 -0.88509625 0.4124081 -0.053613167
-0.027776841 0.3760659 -0.7182581 0.76487017 0.29178432 0.122887574 0.04818562 -0.04801796
0.36508617 0.040442675 -0.6848433 -0.12164669 -0.60619277 -0.14523116 0.2349387 0.50664335
-0.25406384 -0.8463803 -0.38596055 0.23320363 0.3646822 0.13883367 0.30589953 -0.22632687
-0.09316175 -0.38225263 -0.23397359 -0.05474118 -0.13945916 -0.4147725 0.3550311 -0.2562089
0.25349632 -0.02525047 0.15343498 -0.2078332 0.64827335 -0.6754306 -0.6708866 0.8026551
0.72127724 0.42695147 -0.21590893 0.29435292 0.538729 0.08413289 0.15820855 0.15806568
-0.39483577 -0.36520264 -0.44888407 -0.5246175 -0.65760756 0.39777324 -0.30029848 -0.11640721
-0.731046 0.70865065 -0.3126725 -0.12767026 0.14524393 0.40842852 -0.26867345 -0.044304322
-0.7661171 -0.063124046 -0.40232483 -0.48702574 -0.00036106896 -0.31403646 0.026269939 -0.0041694175
-0.28929093 -0.21332115 0.96473205 0.32031515 -0.7306393 -0.8342784 -0.29586256 0.0711315
0.43332937 -0.2250389 0.55438006 0.13887592 0.55631644 -0.3967448 0.22600912 0.70047647
0.18722661 -1.0573183 0.66578555 0.6773346 0.24098013 0.14655621 -0.15255179 -0.5441038
0.09851933 0.21445616 -0.08822259 0.061086964 -1.0327452 -0.051256895 0.42924166 0.46153653
0.121607035 0.3408835 0.6162841 0.08308308 0.42996836 0.13114533 0.79718804 0.063752145
00000000: d977 09bf c9c1 893e 6f98 44bf 43ff 123f
00000010: 292f 793e 0ad4 413f 34cc 61bf 84ee 26bf
00000020: aa0c c03e 26ff 9e3c dc6a 53bf eb68 3e3e
00000030: 81e7 ab3f fb75 6f3f e674 423e 2d9f d73e
00000040: 32d6 d13e 82cf a43e b2c4 6c3e 5295 3bbf
00000050: 3c72 1b3f 3e20 e83d f51e 0d3f 8423 07bf
00000060: 2d4b 94bc 2ac0 5bbe ae49 543e 1d59 d1be
00000070: 32dd 383f 1ada 3f3e 89c2 e5be d214 d0be
00000080: 346e 073f 6d36 fc3c 6e12 6ebf 6613 ca3e
00000090: bc43 e23e b39c a33e c380 f73e f8f4 2dbe
000000a0: 7411 913f 4a9f efbe db89 debd 65d9 27bf
000000b0: 31d8 6f3e 2c6c b0bc 785a 353e 97d2 93be
000000c0: 61f6 9c3d 29bc f23e 6fd7 9d3b bb9f f5be
000000d0: d131 c53e 166e ddbe 1d92 aebd 31ed c8be
000000e0: 5637 b53c a855 38be bc64 06bf d55c 9abe
000000f0: 6653 7ebe 830e fc3e 68ad 60be 2d52 883d
00000100: f823 0c3f 5310 26bf 5f04 193f 4a5d fc3c
00000110: f1b4 47be 4633 b23e da9d 40bf 5b5f c2be
00000120: cd2c a03f 392b b6be d029 86be 4bd6 703e
00000130: 714d 3a3e 586a 223f 561a 37bf 9ae8 16be
00000140: 6dc7 1d3e 60e8 f1be 3580 9d3e d9a9 aa3e
00000150: efe7 c83e cb5a 863e 2eae b33d 9530 2abe
00000160: 17ba 6d3e 9ae1 9a3e ebce e73c 11da 96be
00000170: 5f94 ed3e ddc0 6ebf 8a07 cabe d934 b93e
00000180: 7ffb 36bf 8286 29be 9662 403d 8d23 01be
00000190: 680c 5b3e e894 b23e 6f22 16bf f29a ed3d
000001a0: dbc7 6f3f 4cf8 8ebe c9d3 d43e 9899 82bf
000001b0: 05cf 663f 8ad2 a33e b0a0 853e 11fc 5c3e
000001c0: f44b 66be 4810 bf3e fd09 e03d 9990 02bf
000001d0: a256 243f dd5d a0be 7d16 13be 06fa 2cbf
000001e0: 794b a73e d31e 57bd 9319 cbbe f7f5 f5bb
000001f0: e1d7 9b3c a499 96be 3a07 5c3f c606 5e3e
00000200: 9ca3 afbd 6ab1 3cbf 1d18 2cbd 48ae 9dbe
00000210: ce13 043e 9c6d 6abe 5773 393f 00a8 893e
00000220: a025 9dbe 2712 03bf 6e88 22bf 4a66 073f
00000230: 00f5 ef3e ab95 62bf 2827 d33e 7b99 5bbd
00000240: 428c e3bc b68b c03e c3df 37bf 88ce 433f
00000250: c164 953e 7bac fb3d 495e 453d 7bae 44bd
00000260: 93ec ba3e 38a7 253d e451 2fbf e621 f9bd
00000270: 732f 1bbf 7ab7 14be c593 703e 61b3 013f
00000280: a814 82be 61ac 58bf 9f9c c5be efcc 6e3e
00000290: a0b7 ba3e 6a2a 0e3e dd9e 9c3e 3bc2 67be
000002a0: 96cb bebd 9eb6 c3be c696 6fbe 4a38 60bd
000002b0: 62ce 0ebe 105d d4be a3c6 b53e d02d 83be
000002c0: 45ca 813e 13da cebc 0f1e 1d3e 3ad2 54be
000002d0: 3ef5 253f 05e9 2cbf 39bf 2bbf ce7a 4d3f
000002e0: a0a5 383f 6299 da3e 3b17 5dbe 6db5 963e
000002f0: 25ea 093f dd4d ac3d 6c01 223e f8db 213e
00000300: ea27 cabe d7fb babe 22d4 e5be 554d 06bf
00000310: f858 28bf efa8 cb3e b9c0 99be e766 eebd
00000320: d525 3bbf 216a 353f 9c16 a0be febb 02be
00000330: d3ba 143e 8b1d d13e 918f 89be 7378 35bd
00000340: 4020 44bf 2e47 81bd 85fd cdbe 705b f9be
00000350: db4d bdb9 63c9 a0be 0e34 d73c 9c9f 88bb
00000360: f11d 94be dc70 5abe aef8 763f 5900 a43e
00000370: 2d0b 3bbf 4593 55bf 4c7b 97be 64ad 913d
00000380: 59dd dd3e 9970 66be daeb 0d3f 7d35 0e3e
00000390: c16a 0e3f 2222 cbbe ef6e 673e 6d52 333f
000003a0: 55b8 3f3e 3556 87bf ec70 2a3f cd65 2d3f
000003b0: 7fc3 763e d512 163e 8936 1cbe 634a 0bbf
000003c0: 81c4 c93d 659a 5b3e 0cae b4bd 5336 7a3d
000003d0: ff30 84bf c0f2 51bd 90c5 db3e 844e ec3e
000003e0: 1c0d f93d 4888 ae3e cbc4 1d3f 7627 aa3d
000003f0: d024 dc3e f64a 063e 8414 4c3f 7c90 823d

network_body._body_endoder.seq_layers.0.bias f4 [128]
0.085475944 0.025836978 0.029683247 0.01207802 0.038984157 0.06583611 0.058946196 0.03792666
-0.04965069 0.0058141765 -0.014231085 0.030717896 0.044777162 -0.02383548 0.021877749 0.09500148
-0.0069842264 0.0053189234 0.03500016 0.031060793 -0.0102392 0.04174924 0.09105504 0.009807381
0.04547414 0.057913434 0.070305414 0.051858515 0.05710423 0.009271217 0.029505184 0.056578245
0.044602036 0.1063785 0.047866706 0.014562623 0.062247545 0.006523403 0.05047605 0.032962173
0.04057207 0.031559806 0.050771218 0.042718288 -0.034190115 0.012542807 -0.0027889193 0.041446764
0.071605615 0.09504227 -0.026997633 0.030398479 0.05372327 0.008136569 0.07235531 0.0033458346
0.030040467 0.084299065 0.05447616 0.10508545 -0.0059233815 0.012276447 0.061644055 0.02335036
0.02174577 0.05343866 0.008472283 0.037114445 -2.9154256e-05 0.017954635 0.047023892 -0.013366908
0.057206996 0.029738829 0.016203266 0.02214828 0.105563976 0.06535697 0.015979506 -0.0098142475
-0.006593919 0.037811108 0.079010636 0.050262164 0.020570317 0.0442127 0.05531574 -0.022439659
0.05442224 0.041810524 -0.0044879075 0.0115227755 -0.028101059 -0.0126056895 0.10475657 0.050854817
0.023240177 0.086980365 0.07023486 0.046691615 0.04486441 -0.014982132 0.07353541 0.05847308
0.02831122 0.06454771 0.04803912 0.025395455 0.02220364 -0.017783536 0.027191041 0.05806481
0.062019758 0.04488611 -0.0021121644 0.028262554 0.0478987 0.06763752 0.011546421 0.023127789
0.06002589 0.07364785 0.031494923 0.0103535205 0.016433397 0.08742328 0.044457596 0.04283961
00000000: 030e af3d 12a8 d33c 482a f33c e3e2 453c
00000010: daad 1f3d 15d5 863d 9171 713d fc58 1b3d
00000020: 865e 4bbd d984 be3b 7f29 69bc 19a4 fb3c
00000030: 4268 373d a042 c3bc f738 b33c 2390 c23d
00000040: f0db e4bb 5d4a ae3b 545c 0f3d 3473 fe3c
00000050: 51c2 27bc 4001 2b3d 117b ba3d 23af 203c
00000060: 1843 3a3d a336 6d3d 49fc 8f3d 9869 543d
00000070: 20e6 693d 4de6 173c dbb4 f13c 97be 673d
00000080: a0b0 363d f9dc d93d e10f 443d 1198 6e3c
00000090: 48f7 7e3d 45c2 d53b f9bf 4e3d 5803 073d
000000a0: e62e 263d db44 013d 7bf5 4f3d 5ff9 2e3d
000000b0: ef0a 0cbd 5880 4d3c 4dc6 36bb 15c4 293d
000000c0: f7a5 923d 86a5 c23d 242a ddbc 3b06 f93c
000000d0: ee0c 5c3d 3e4f 053c 052f 943d ca45 5b3b
000000e0: 6d17 f63c fda4 ac3d 6522 5f3d 0a37 d73d
000000f0: ed18 c2bb 2723 493c 7a7e 7c3d 4149 bf3c
00000100: 2f24 b23c 7fe2 5a3d 55cf 0a3c 5105 183d
00000110: 4a90 f4b7 9915 933c 209c 403d e000 5bbc
00000120: e251 6a3d d89e f33c b6bc 843c 4f70 b53c
00000130: ed31 d83d e0d9 853d 74e7 823c f0cb 20bc
00000140: cd11 d8bb d2df 1a3d 54d0 a13d b3df 4d3d
00000150: 1583 a83c 6018 353d c292 623d 60d3 b7bc
00000160: dbe9 5e3d 8341 2b3d 4c0f 93bb 06ca 3c3c
00000170: 3134 e6bc 1888 4ebc 9d8a d63d 244d 503d
00000180: 2f62 be3c c322 b23d 4bd7 8f3d b53f 3f3d
00000190: bec3 373d 9e77 75bc bc99 963d 7881 6f3d
000001a0: efec e73c 9731 843d abc4 443d 210a d03c
000001b0: 68e4 b53c c7ae 91bc bfbf de3c 5ed5 6d3d
000001c0: 6e08 7e3d 7fda 373d 3d6c 0abb df86 e73c
000001d0: 6d31 443d 8a85 8a3d 332d 3d3c 7d76 bd3c
000001e0: b5dd 753d afd4 963d d200 013d d0a1 293c
000001f0: 559f 863c fa0a b33d 2b19 363d 9678 2f3d

network_body._body_endoder.seq_layers.2.weight f4 [128, 128]
0.0125037385 -0.1214207 -0.011801499 0.06625348 0.0037910808 -0.24062216 0.052951314 -0.06504412
0.060320605 -0.042783756 0.0982946 -0.11511876 0.057644933 -0.040072426 0.011413899 0.068759374
0.0063557457 -0.12995087 0.13775112 -0.090404764 0.16870286 0.08401032 -0.29748613 -0.23345183
0.13877532 -0.23208916 -0.13066399 -0.21591765 0.07230844 -0.00061531604 -0.010053399 -0.13731942
-0.0033533152 -0.081429966 -0.08197698 -0.053330757 -0.1802592 0.035401452 -0.19534227 0.0052187266
-0.12577535 0.0036672219 -0.03010052 0.18261841 0.17266531 0.009964739 0.063034736 -0.23567334
0.043479107 0.105821684 -0.086696744 -0.092974044 -0.006241991 0.0553257 -0.11268989 -0.0545946
0.023963302 0.0049871276 -0.023729144 0.028740779 -0.035913862 0.058058623 0.043072693 0.050560102
0.10082645 -0.15831037 -0.040871844 -0.07463211 -0.078582264 -0.008817086 0.06803556 0.07628231
0.20709264 0.19167012 -0.05850788 0.080622934 0.05658853 0.025550911 -0.114157125 0.025185492
-0.06211495 -0.14515716 -0.10261567 0.12727275 -0.026254244 0.20225371 -0.05308485 0.10375893
-0.07619599 0.17914328 -0.08918081 -0.19924338 0.26932174 -0.009025612 -0.052440476 0.118869774
0.010037801 0.0036569526 -0.086965695 -0.0319171 -0.066888735 -0.021707434 0.16001122 0.09156095
-0.012928936 0.01183694 0.031199675 -0.046214297 0.11560818 0.07299606 0.09926459 0.032346927
0.0675119 -0.16129074 0.009815111 -0.09653865 -0.14779057 0.008581907 0.090803675 0.196659
-0.037379812 0.020117305 0.13490899 0.024391254 -0.16286498 0.02822376 -0.039589435 0.04391545
-0.019930288 0.071826644 -0.039185353 -0.14736396 -0.14873403 0.07772168 -0.052292783 -0.05342924
0.07750561 -0.06060395 0.10892785 0.13819511 -0.0058442927 0.0349559 -0.016377555 0.08848766
-0.09002015 0.043019123 0.07310923 -0.030606907 -0.07086118 -0.21588235 0.12827589 -0.064258225
0.071307234 0.18689843 0.033228848 0.3229218 0.057851788 -0.008339295 0.041911073 0.1715973
0.004752786 0.014663549 -0.13573729 -0.042779166 -0.052901484 -0.13225149 0.0365414 0.07902269
0.1402005 -0.096159145 0.0037041698 0.065943584 -0.11725575 -0.10004046 0.06849509 0.049439374
0.07185329 0.048598878 -0.09235154 0.026799297 0.118563324 -0.05694758 0.1377526 -0.045013532
0.05656657 -0.058432262 0.056429975 0.005839127 -0.28091538 0.14490518 -0.07154979 -0.026912207
0.07483908 0.029995872 0.10611696 0.07692757 -0.10200254 -0.069848835 0.16546817 -0.25571734
-0.04235423 0.055577468 0.083631665 -0.015734354 -0.1760334 -0.0075166905 0.023406714 -0.055526022
-0.13343783 0.0019258914 0.09930147 0.10044295 -0.026352223 -0.022283873 0.13351062 0.006764864
-0.0917743 -0.098036155 -0.15077935 0.06618881 -0.11798031 0.1352716 -0.021991061 -0.04792212
-0.009558565 -0.21585293 0.16627017 -0.12813117 0.03391243 -0.09904953 -0.007135277 -0.000985486
0.30634636 -0.10037159 -0.014047624 -0.11301857 0.041470174 -0.19696522 -0.057385437 0.114350714
-0.16342081 0.027975814 -0.10193157 0.0035025936 0.0322537 0.067763604 0.025392324 0.111146435
0.03635228 0.2695205 0.019219616 -0.117066614 -0.0032787174 -0.12963083 -0.07181985 0.15233329
00000000: 7bdc 4c3c 6aab f8bd 135b 41bc e8af 873d
00000010: c873 783b a865 76be 7ae3 583d da35 85bd
00000020: bd12 773d 053e 2fbd ae4e c93d 62c3 ebbd
00000030: 181d 6c3d fc22 24bd 5d01 3b3c b7d1 8c3d
00000040: dc43 d03b d711 05be a10e 0d3e 2226 b9bd
00000050: 71c0 2c3e 9a0d ac3d 1a50 98be ff0d 6fbe
00000060: 1e1b 0e3e c8a8 6dbe c8cc 05be 8419 5dbe
00000070: 7316 943d 294d 21ba 03b7 24bc 769d 0cbe
00000080: 4bc3 5bbb c1c4 a6bd 8ce3 a7bd 5a71 5abd
00000090: de95 38be 1d01 113d ce07 48be da01 ab3b
000000a0: 41cb 00be c655 703b 5e95 f6bc 5200 3b3e
000000b0: 2dcf 303e 2543 233c 5b18 813d 5a54 71be
000000c0: 2617 323d 0ab9 d83d 108e b1bd 2d69 bebd
000000d0: 9e89 ccbb 349d 623d f5c9 e6bd 969e 5fbd
000000e0: b04e c43c 0f6b a33b 9f63 c2bc c871 eb3c
000000f0: 6a1a 13bd e1ce 6d3d fe6c 303d 1c18 4f3d
00000100: 197e ce3d 1d1c 22be 3c69 27bd b8d8 98bd
00000110: bdef a0bd 8a75 10bc 3a56 8b3d e639 9c3d
00000120: 1810 543e 2c45 443e f5a5 6fbd a31d a53d
00000130: 60c9 673d 2550 d13c 36cb e9bd ce51 ce3c
00000140: 3f6c 7ebd 14a4 14be 2a28 d2bd ca53 023e
00000150: 2413 d7bc 991b 4f3e 806f 59bd 907f d43d
00000160: a50c 9cbd 5671 373e 6ea4 b6bd 7506 4cbe
00000170: 8ae4 893e 29e0 13bc d3cb 56bd ff71 f33d
00000180: 9775 243c 7ca9 6f3b 121b b2bd 81bb 02bd
00000190: f6fc 88bd cad3 b1bc fbd9 233e 4f84 bb3d
000001a0: e3d3 53bc baef 413c 7696 ff3c 344b 3dbd
000001b0: fbc3 ec3d f57e 953d 3c4b cb3d 367e 043d
000001c0: ae43 8a3d 6629 25be 8fcf 203c 0eb6 c5bd
000001d0: 6956 17be 209b 0c3c 47f7 b93d fa60 493e
000001e0: 931b 19bd 0ccd a43c 9525 0a3e 2bd0 c73c
000001f0: 14c6 26be 8435 e73c 8828 22bd b0e0 333d
00000200: d844 a3bc d919 933d d280 20bd 94e6 16be
00000210: bc4d 18be 8b2c 9f3d f530 56bd 9ed8 5abd
00000220: 43bb 9e3d d93b 78bd 9115 df3d 0583 0d3e
00000230: 7b81 bfbb eb2d 0f3d 392a 86bc 0539 b53d
00000240: 7c5c b8bd d234 303d 4bba 953d 56bb fabc
00000250: ab1f 91bd 4310 5dbe c15a 033e d199 83bd
00000260: 8709 923d 4d62 3f3e f91a 083d 0256 a53e
00000270: fff5 6c3d 8aa1 08bc f2aa 2b3d 34b7 2f3e
00000280: 42bd 9b3b 623f 703c b7fe 0abe 3539 2fbd
00000290: 3aaf 58bd ef6c 07be 6fac 153d a6d6 a13d
000002a0: b890 0f3e 16ef c4bd a8c1 723b 6e0d 873d
000002b0: c823 f0bd 03e2 ccbd 2747 8c3d f180 4a3d
000002c0: d127 933d 9e0f 473d ce22 bdbd 338a db3c
000002d0: 54d1 f23d de41 69bd 040f 0d3e 1c60 38bd
000002e0: 59b2 673d ab56 6fbd 1e23 673d 2656 bf3b
000002f0: 24d4 8fbe 0662 143e b288 92bd fd76 dcbc
00000300: 3b45 993d e7b9 f53c d953 d93d 348c 9d3d
00000310: b5e6 d0bd e80c 8fbd 7d70 293e 62ed 82be
00000320: a17b 2dbd 33a5 633d 1447 ab3d 55e5 80bc
00000330: 1a42 34be 924e f6bb 70bf bf3c 416f 63bd
00000340: eda3 08be 316e fc3a 925e cb3d 09b5 cd3d
00000350: 9ee0 d7bc ab8c b6bc 02b7 083e cbab dd3b
00000360: 2af4 bbbd 2ec7 c8bd e765 1abe 008e 873d
00000370: a99f f1bd a384 0a3e 9926 b4bc fc49 44bd
00000380: 879b 1cbc 8d08 5dbe ba42 2a3e d134 03be
00000390: c3e7 0a3d 7bda cabd 0bcf e9bb 6c2b 81ba
000003a0: 6ed9 9c3e 9f8f cdbd 0128 66bc 4876 e7bd
000003b0: a1dc 293d 40b1 49be fe0c 6bbd b530 ea3d
000003c0: c957 27be 892d e53c 80c1 d0bd c58b 653b
000003d0: 751c 043d a5c7 8a3d 9003 d03c bea0 e33d
000003e0: 21e6 143d 97fe 893e 7572 9d3c 9fc0 efbd
000003f0: c0df 56bb f2bd 04be 4916 93bd 42fd 1b3e

network_body._body_endoder.seq_layers.2.bias f4 [128]
0.0072485474 0.042812917 -0.013152234 0.01817711 0.015677325 0.019226251 0.015930565 0.05243493
-0.0034652895 0.031571914 0.036794372 0.024470482 0.034291893 0.03809535 0.023255523 0.032993134
0.010716298 0.02117276 0.043560885 0.065155424 0.018175416 0.021516416 0.0025568728 0.022457797
0.009160424 0.035293464 0.008614597 -0.01522907 0.021873305 0.031156927 -0.032222167 0.033695098
-0.021462075 -0.0031125445 0.03580529 0.027364984 0.030693064 -0.012066586 0.033083152 -0.0026783936
-0.030211281 0.024827026 0.0239955 0.009973425 0.021038258 0.058797143 -0.0020356781 0.029136222
0.021821572 0.010050084 0.014363605 0.03340852 0.015171263 0.0059531364 0.0014829708 0.04742587
0.051968906 0.025039472 0.029329274 0.024593085 -0.019979944 -0.0032700205 -0.00464174 0.026266096
0.011726186 0.038669724 0.030087244 0.026541186 0.015048097 0.07461132 0.04052835 0.034563314
0.024460793 0.017042005 -0.025047818 0.0031855188 0.01266063 0.041988492 0.010177398 0.020215029
0.015657067 0.024513537 0.03568486 0.015085963 0.006986565 0.043996856 0.041581076 0.032600645
-0.027420618 0.030471647 0.02192563 0.027663805 0.03892021 0.016077967 0.02941748 0.020616716
0.010730015 -0.004445664 0.018851891 0.021211645 0.025201764 0.008500409 -0.021254284 0.03898726
0.02009644 0.015365598 -0.01804441 0.02374962 0.046791025 0.03337696 0.027233882 -0.006350466
0.022767188 0.014883035 0.021521574 0.043475322 0.0024124247 0.02421002 0.007350745 0.021435091
0.027348902 0.02210847 -0.015035626 0.0043737297 0.014512815 -0.012052847 -0.03111285 0.022241654
00000000: 3985 ed3b 995c 2f3d 787c 57bc 2ae8 943c
00000010: bc6d 803c 5f80 9d3c d180 823c 02c6 563d
00000020: e919 63bb 8d51 013d b2b5 163d 5276 c83c
00000030: a875 0c3d df09 1c3d 5e82 be3c cf23 073d
00000040: 6993 2f3c 7f72 ad3c e66c 323d 3570 853d
00000050: 9ce4 943c 3243 b03c 3591 273b 6af9 b73c
00000060: 9a15 163c e18f 103d 3d24 0d3c 5983 79bc
00000070: a52f b33c d03c ff3c 64fb 03bd df03 0a3d
00000080: 3cd1 afbc d5fb 4bbb 91a8 123d 882c e03c
00000090: 0570 fb3c eeb2 45bc 3382 073d fd87 2fbb
000000a0: a67d f7bc 0c62 cb3c 3692 c43c 9467 233c
000000b0: 6d58 ac3c 46d5 703d 0369 05bb 16af ee3c
000000c0: 27c3 b23c 1ca9 243c 5355 6b3c 5fd7 083d
000000d0: e490 783c 8712 c33b 3e60 c23a a141 423d
000000e0: 59dd 543d 941f cd3c f243 f03c 7077 c93c
000000f0: fbac a3bc d74d 56bb bd19 98bb ff2b d73c
00000100: 301f 403c 2564 1e3d 8679 f63c e76c d93c
00000110: 4b8c 763c d2cd 983d 0e01 263d 4392 0d3d
00000120: 0062 c83c ad9b 8b3c 1531 cdbc 23c4 503b
00000130: 886e 4f3c 20fc 2b3d 1abf 263c fd99 a53c
00000140: 4043 803c 9dd0 c83c 4a2a 123d 1d2b 773c
00000150: 8eef e43b 0c36 343d eb50 2a3d 4188 053d
00000160: 34a1 e0bc ad9f f93c 619d b33c 349f e23c
00000170: cc6a 1f3d f1b5 833c edfc f03c 63e4 a83c
00000180: f2cc 2f3c efac 91bb 486f 9a3c 0bc4 ad3c
00000190: ee73 ce3c 4d45 0b3c 771d aebc 1bb1 1f3d
000001a0: 4aa1 a43c fdbf 7b3c dfd1 93bc 908e c23c
000001b0: f2a7 3f3d 47b6 083d 9719 df3c 9217 d0bb
000001c0: 4182 ba3c f9d7 733c 034e b03c 2e13 323d
000001d0: c519 1e3b 1854 c63c 85de f03b a598 af3c
000001e0: ce0a e03c d21c b53c fc57 76bc 8151 8f3b
000001f0: 28c7 6d3c 4e79 45bc 60e0 febc 2134 b63c

action_model._discrete_distribution.branches.0.weight f4 [3, 128]
0.040356454 -0.051240645 -0.0017537905 -0.05749915 0.017369227 -0.0018152666 0.0055432646 0.027254945
-0.016693912 0.012177207 -0.025998725 -0.014650822 0.026459828 0.05421769 -0.01925793 -0.060395133
0.037551057 -0.009516675 -0.015680088 0.04869965 0.04007057 -0.030121632 -0.028865453 -0.043224473
0.015258799 -0.04934321 0.0043658135 0.06470877 0.0036535151 -0.04987819 3.1735348e-05 -0.0003714068
-0.0119037535 0.020449989 0.0035266075 0.017053476 -0.03437393 0.010691262 -0.02979251 0.05010469
0.042519238 -0.039726526 -0.04867655 0.01062255 -0.04491417 -0.022304399 0.040783733 0.010351829
-0.010304875 -0.002072386 0.047553778 -0.028507505 -0.023376985 -0.037274897 0.027661972 0.042566985
-0.051680543 -0.014270115 -0.05601738 -0.0008412118 -0.008493572 0.018664693 0.056653794 -0.037868753
0.037133083 0.04203619 0.00030933734 0.0039286856 0.005055683 -0.001893556 -0.031864773 -0.018044671
0.032272942 0.026932629 -0.0057783304 -0.0055272058 0.024753964 -0.01936175 0.027003711 -0.037177145
-0.016836258 0.046527896 -0.032734424 -0.02638074 0.01286133 -0.029784517 0.058014438 0.021744851
0.008336207 -0.020890156 0.08073495 -0.0020687368 0.003771294 -0.0070147025 -0.035129454 0.0077985986
0.051328413 0.026393296 -0.016402649 -0.018669145 -0.031592462 0.028527698 0.027269782 0.012532002
0.04692202 0.022962322 0.04365004 -0.0028909515 -0.020346463 -0.030875474 0.017420525 0.034715198
-0.03040214 -0.0034820982 -0.054432046 -0.04884556 0.0017954533 -0.008356318 0.004217831 -0.0033266817
0.010424934 0.032306984 0.047728393 -0.0005835649 0.025128786 0.030332418 0.04403978 -0.0357827
-0.012634207 0.055661764 -0.043457475 0.017869577 -0.03698623 0.039124753 -0.02989033 0.06336809
0.040804733 -0.0594718 -0.014878383 -0.00527814 -0.051301 -0.038846407 -0.009040043 0.02832245
-0.025994258 0.022270165 0.001723203 -0.043038435 -0.042493414 0.012783109 -0.0038119443 0.0034663954
-0.014226493 0.0004928323 0.037308905 -0.07298094 0.04596556 0.020161921 -0.024590963 0.047324147
0.03570117 -0.011415209 0.032591894 -0.047638588 0.042620506 -0.009157806 0.005746169 -0.035708502
-0.058467854 0.030321414 0.022949992 -0.00085273455 0.046139058 -0.016972711 -0.03718849 0.009476329
0.021379432 0.04786197 -0.0485472 0.05920872 0.079216674 0.018654628 0.0043705264 -0.013049194
0.06736794 0.047473114 0.030982472 0.012577404 -0.024145132 -0.046830665 -0.043033537 0.022039147
-0.02718365 0.065466635 -0.06569399 -0.0544167 -0.066401206 0.030807206 0.02932813 0.0027252978
-0.02108537 0.02589724 0.025583921 -0.008397083 -0.013721789 0.009266717 -0.07740122 0.020995392
-0.019379675 -0.007489222 -0.0092592 0.0036515044 -0.021526216 -0.020311728 -0.009095587 -0.006233937
0.0023813369 0.0027477478 -0.047832105 -0.02933519 -0.00860886 -0.01383469 0.00051980006 0.005851526
-0.027402703 -0.034428265 -0.025399603 0.051941168 -0.0070229825 0.020211715 -0.02024238 -0.036726587
-0.030170107 0.037779808 -0.026818736 0.03063556 -0.0063699367 0.05812075 -0.06443635 -0.08131853
0.05684567 -0.011869494 0.052192032 0.05535453 0.005774762 0.05033588 -0.061041106 0.065062866
-0.003970095 -0.029702537 -0.015731847 -0.072412856 -0.052230075 -0.04454018 -0.061048385 0.017071074
00000000: cf4c 253d b6e1 51bd 72df e5ba 3b84 6bbd
00000010: e949 8e3c 3dee edba 46a4 b53b c345 df3c
00000020: acc1 88bc e882 473c 47fb d4bc 000a 70bc
00000030: 48c2 d83c 5e13 5e3d cec2 9dbc e360 77bd
00000040: 23cf 193d d4eb 1bbc 8773 80bc 4979 473d
00000050: 0a21 243d a4c1 f6bc 3e77 ecbc 250c 31bd
00000060: 0b00 7a3c 1b1c 4abd 190f 8f3b 0886 843d
00000070: d06f 6f3b 134d 4cbd 921b 0538 60b9 c2b9
00000080: f607 43bc bc86 a73c a81e 673b bbb3 8b3c
00000090: aecb 0cbd 672a 2f3c 6c0f f4bc 933a 4d3d
000000a0: a728 2e3d 48b8 22bd 1061 47bd 340a 2e3c
000000b0: ecf7 37bd b7b7 b6bc d80c 273d b89a 293c
000000c0: c7d5 28bc ded0 07bb c0c7 423d 9288 e9bc
000000d0: 1781 bfbc 90ad 18bd 5c9b e23c b85a 2e3d
000000e0: faae 53bd 33cd 69bc 7b72 65bd c584 5cba
000000f0: 9f28 0bbc b3e6 983c cf0d 683d 441c 1bbd
00000100: dc18 183d 242e 2c3d 8e2e a239 34bc 803b
00000110: 25aa a53b 3231 f8ba a384 02bd 6bd2 93bc
00000120: a230 043d d1a1 dc3c 2658 bdbb 901d b5bb
00000130: d3c8 ca3c 889c 9ebc e336 dd3c 1047 18bd
00000140: 31ec 89bc 0994 3e3d 8814 06bd 6c1c d8bc
00000150: 54b8 523c a9fe f3bc 8ca0 6d3d 4222 b23c
00000160: 9694 083c d521 abbc 5e58 a53d a593 07bb
00000170: d027 773b 97db e5bb e7e3 0fbd 638b ff3b
00000180: be3d 523d c136 d83c d95e 86bc 09f0 98bc
00000190: 1967 01bd ebb2 e93c e164 df3c 0753 4d3c
000001a0: 4e31 403d 7b1b bc3c 62ca 323d 1e76 3dbb
000001b0: a0ad a6bc 90ee fcbc 7db5 8e3c 8631 0e3d
000001c0: e90d f9bc ea33 64bb 23f4 5ebd 4812 48bd
000001d0: 6a55 eb3a f0e8 08bc bb35 8a3b 7504 5abb
000001e0: 58cd 2a3c 5454 043d d97e 433d 61fa 18ba
000001f0: e2da cd3c b17b f83c 0e63 343d e190 12bd
00000200: b4ff 4ebc 97fd 633d 7700 32bd 3863 923c
00000210: e07e 17bd 4741 203d 91dc f4bc 21c7 813d
00000220: dd22 273d b498 73bd 76c4 73bc 3ff4 acbb
00000230: ff20 52bd 691d 1fbd b01c 14bc 7c04 e83c
00000240: e9f1 d4bc ec6f b63c 19dd e13a 1249 30bd
00000250: 930d 2ebd 3f70 513c d0d1 79bb 772c 633b
00000260: 3d16 69bc 6a31 013a 39d1 183d 0877 95bd
00000270: 6246 3c3d 9d2a a53c fd72 c9bc f7d6 413d
00000280: 643b 123d db06 3bbc 147f 053d ae20 43bd
00000290: d792 2e3d 9f0a 16bc 5c4a bc3b 1443 12bd
000002a0: fd7b 6fbd 9d64 f83c 9f01 bc3c 0c8a 5fba
000002b0: 4ffc 3c3d 5b0a 8bbc f552 18bd 9b42 1b3c
000002c0: eb23 af3c ea0a 443d 6ed9 46bd d884 723d
000002d0: 5a3c a23d 97d1 983c a236 8f3b 49cc 55bc
000002e0: 34f8 893d 2b73 423d f4ce fd3c 7511 4e3c
000002f0: 03cc c5bc 83d1 3fbd ef43 30bd 718b b43c
00000300: 3fb0 debc 5f13 863d 928a 86bd 0ce4 5ebd
00000310: 5bfd 87bd 655f fc3c 8c41 f03c e99a 323b
00000320: 3abb acbc 7326 d43c 5f95 d13c eb93 09bc
00000330: 5bd1 60bc 6ed3 173c 8884 9ebd 87fe ab3c
00000340: 20c2 9ebc 2668 f5bb e6b3 17bc 144e 6f3b
00000350: bf57 b0bc c864 a6bc a805 15bc 0e46 ccbb
00000360: 3410 1c3b 8f13 343b 99eb 43bd 5a50 f0bc
00000370: 2d0c 0dbc e5aa 62bc 3143 083a 28be bf3b
00000380: a27b e0bc a704 0dbd d412 d0bc 43c0 543d
00000390: 0c21 e6bb 0a93 a53c 59d3 a5bc 9e6e 16bd
000003a0: 4d27 f7bc 00bf 1a3d f7b2 dbbc 6df7 fa3c
000003b0: e7ba d0bb 0610 6e3d 34f7 83bd 548a a6bd
000003c0: 01d7 683d 4478 42bc 50c7 553d 6fbb 623d
000003d0: 373a bd3b ff2c 4e3d 3d06 7abd ae3f 853d
000003e0: 9217 82bb bc52 f3bc 13e0 80bc 314d 94bd
000003f0: 34ef 55bd c46f 36bd df0d 7abd a3d8 8b3c

action_model._discrete_distribution.branches.0.bias f4 [3]
-0.01973051 0.031469047 -0.03220671
00000000: e1a1 a1bc b0e5 003d 2feb 03bd

action_model._discrete_distribution.branches.1.weight f4 [3, 128]
-0.05675547 0.028908286 -0.029653093 0.036431123 -0.01985704 -0.03742847 -0.018963614 -0.015348784
-0.048596896 0.01338626 0.06767708 -0.009715761 0.0107481 0.011618719 0.043541484 0.04939466
-0.06344492 0.033540048 0.054963507 0.009122708 -0.03186468 0.021976298 0.031527176 0.03222359
-0.057589695 0.040573154 -0.05080019 -0.0067895907 0.025020948 0.016623154 -0.03790468 -0.0020992174
-0.045505133 -0.0022229548 0.033934362 -0.023237186 0.03249721 -0.047185477 0.048781235 -0.05307728
-0.002040095 0.011269099 0.029487647 -0.07437953 -0.061025064 0.059948843 -0.0024533435 -0.0008763032
0.034170218 -0.062239464 -0.017199548 0.02160331 -0.028392602 0.01461123 -0.038151503 -0.038466595
-0.051866855 0.024972739 0.035222452 -0.03661029 -0.015165659 -0.018267216 -0.03283076 0.021282367
-0.056082428 -0.0009469035 0.027945364 0.017085604 0.016135216 -0.043410048 -0.027951352 0.059268758
-0.032936625 0.02042343 -0.040551405 -0.041641995 -0.05436767 0.046424 0.0019234903 0.023715196
0.04841509 -0.063251875 0.03760543 0.039997425 -0.03700339 0.055219207 0.028308773 -0.04717296
-0.0436382 -0.0058829463 -0.025181295 0.054720696 0.039080787 0.032141995 0.0547988 -0.0919128
-0.027037801 -0.028352307 0.038509503 -0.046013672 0.047634676 -0.03251655 -0.05389372 0.020148287
-0.026085794 -0.08110339 -0.019058514 -0.028992554 0.05622594 -0.034156818 -0.0014358525 0.019361088
-0.038531225 0.0454375 -0.067216896 0.005349292 -0.07167451 -0.01231829 -0.005110023 0.0049653365
-0.004916426 -0.02507888 -0.010081099 0.00087140873 -0.0010035308 -0.027730593 0.035210095 0.020505723
0.122809015 0.031710472 0.008113597 -0.038249012 0.13168688 -0.08755811 0.050797798 0.038731087
-0.033633035 -0.030645085 0.00358886 -0.015518763 -0.0015385147 -0.030446468 -0.06626057 -0.04636967
0.022256922 -0.032381505 0.009109297 -0.035269216 0.072184026 -0.013092587 -0.026455889 -0.0046039424
0.08508967 -0.00050446927 0.004216928 0.112754524 -0.031054623 -0.017348059 -0.026088513 -0.081401795
-0.03347811 -0.076725125 0.007461335 -0.054710113 -0.017853713 -0.009122311 -0.013407547 0.0747608
-0.009799467 0.00939941 -0.041005105 0.14273377 0.031637285 0.04495829 -0.025276229 -0.12038517
-0.0066600633 0.08195414 -0.031449627 -0.03762178 -0.10590712 -0.034422904 0.1088845 0.0003302744
-0.008332902 -0.06509007 -0.01920256 -0.08739177 0.0154450005 0.022801952 -0.06408302 0.009316587
0.07192893 -0.0028994472 -0.012213732 -0.044613313 -0.03398253 -0.073431015 -0.027418189 -0.011582243
-0.021269312 0.0026228707 -0.045838695 0.056001145 0.10523014 -0.01499609 -0.02319911 -0.058587663
-0.039677873 -0.06687142 0.022404358 -0.01816521 0.09355344 0.0074369335 -0.008043514 -0.065033354
0.0012228059 -0.09735548 -0.035813104 -0.019173888 0.036144182 -0.034997873 -0.023809334 0.098761976
-0.036999866 0.047015674 -0.034331113 0.06277776 -0.02504082 0.01759338 0.04148844 -0.0010200896
0.03501361 0.16738209 0.07863326 -0.036479313 -0.008451607 0.022846578 -0.0984773 0.008071717
0.05117975 -0.05837638 0.0031092018 -0.030525427 0.14940737 0.022314187 -0.029717006 -0.0309256
0.058406904 -0.01700175 -0.009360687 0.0059323856 -0.015756525 0.020325806 0.017274337 -0.031626157
00000000: 6c78 68bd 12d1 ec3c 0beb f2bc cd38 153d
00000010: 3bab a2bc 984e 19bd 9559 9bbc 7779 7bbc
00000020: 8a0d 47bd 0b52 5b3c 489a 8a3d db2e 1fbc
00000030: cc18 303c 715c 3e3c 8e58 323d 0e52 4a3d
00000040: 69ef 81bd 4a61 093d 6a21 613d 6977 153c
00000050: 8a84 02bd a307 b43c a422 013d e2fc 033d
00000060: 2ce3 6bbd 0930 263d dc13 50bd 377b debb
00000070: bbf8 cc3c 482d 883c f041 1bbd 0693 09bb
00000080: 9763 3abd feae 11bb c2fe 0a3d e95b bebc
00000090: cb1b 053d 8f45 41bd d5ce 473d 9067 59bd
000000a0: 1db3 05bb 07a2 383c 1490 f13c 4c54 98bd
000000b0: 6bf5 79bd eb8c 753d 46c8 20bb b6b7 65ba
000000c0: 12f6 0b3d cfee 7ebd 11e6 8cbc 6df9 b03c
000000d0: 9a97 e8bc f163 6f3c c044 1cbd 268f 1dbd
000000e0: 5772 54bd a193 cc3c 6b45 103d acf4 15bd
000000f0: 6279 78bc 21a5 95bc 8c79 06bd 5c58 ae3c
00000100: b0b6 65bd 9e39 78ba aded e43c 1cf7 8b3c
00000110: 002e 843c bcce 31bd 3cfa e4bc ccc3 723d
00000120: 8ee8 06bd 094f a73c 3b19 26bd cc90 2abd
00000130: a2b0 5ebd 1827 3e3d a01d fc3a 5f46 c23c
00000140: e74e 463d 338a 81bd 2708 1a3d 57d4 233d
00000150: de90 17bd 892d 623d cde7 e73c 6f38 41bd
00000160: f8bd 32bd bbc5 c0bb 0149 cebc cf22 603d
00000170: 2d13 203d 53a7 033d b574 603d c73c bcbd
00000180: 617e ddbc 1943 e8bc 24bc 1d3d d578 3cbd
00000190: 941c 433d 1330 05bd a9bf 5cbd 050e a53c
000001a0: e0b1 d5bc 8919 a6bd 9a20 9cbc cb81 edbc
000001b0: 2c4d 663d 05e8 0bbd 3733 bcba 259b 9e3c
000001c0: ebd2 1dbd ac1c 3a3d 03a9 89bd 1d49 af3b
000001d0: 16ca 92bd a7d2 49bc fb71 a7bb 43b4 a23b
000001e0: f819 a1bb 3972 cdbc 322b 25bc 406f 643a
000001f0: e888 83ba 452b e3bc 7638 103d 9efb a73c
00000200: 4b83 fb3d d7e2 013d e4ee 043c ffaa 1cbd
00000210: edd8 063e ab51 b3bd 5a11 503d 7da4 1e3d
00000220: cbc2 09bd 670b fbbc 1433 6b3b 6942 7ebc
00000230: fda7 c9ba df6a f9bc 9fb3 87bd 20ee 3dbd
00000240: 2654 b63c 78a2 04bd 293f 153c 7476 10bd
00000250: 38d5 933d 4a82 56bc 05ba d8bc abdc 96bb
00000260: 7e43 ae3d 5c3e 04ba 282e 8a3b d8eb e63d
00000270: 4466 febc 841d 8ebc 94b7 d5bc fcb5 a6bd
00000280: 5820 09bd 1022 9dbd 377e f43b b617 60bd
00000290: f341 92bc bf75 15bc 54ab 5bbc 311c 993d
000002a0: f28d 20bc fcff 193c f8f4 27bd cd28 123e
000002b0: 1996 013d 2f26 383d 1810 cfbc 808c f6bd
000002c0: a93c dabb 92d7 a73d 53d1 00bd 4c19 1abd
000002d0: d5e5 d8bd 08ff 0cbd d6fe de3d ae28 ad39
000002e0: b986 08bc f14d 85bd b04e 9dbc 75fa b2bd
000002f0: 070d 7d3c 29cb ba3c f53d 83bd 99a4 183c
00000300: 7a4f 933d a704 3ebb 1b1c 48bc 73bc 36bd
00000310: 4431 0bbd 0063 96bd 1c9c e0bc 73c3 3dbc
00000320: fb3c aebc 78e4 2b3b 5bc1 3bbd 7561 653d
00000330: e682 d73d 29b2 75bc 0f0c bebc 9ef9 6fbd
00000340: 4485 22bd e2f3 88bd 5889 b73c 35cf 94bc
00000350: f298 bf3d 85b1 f33b f1c8 03bc 3530 85bd
00000360: 8f46 a03a 4f62 c7bd c3b0 12bd 8f12 9dbc
00000370: ec0b 143d ee59 0fbd cb0b c3bc b843 ca3d
00000380: 2c8d 17bd 8293 403d c89e 0cbd a091 803d
00000390: 6822 cdbc fe1f 903c c8ef 293d 87b4 85ba
000003a0: 6e6a 0f3d 3666 2b3e 7a0a a13d 556b 15bd
000003b0: 9c78 0abc bf28 bb3c 77ae c9bd 3c3f 043c
000003c0: dca1 513d 121c 6fbd c0c3 4b3b 7610 fabc
000003d0: 3ffe 183e 3ecc b63c 1471 f3bc af57 fdbc
000003e0: 143c 6f3d 4147 8bbc 915d 19bc 7564 c23b
000003f0: d413 81bc 4e82 a63c e982 8d3c 6e8a 01bd

action_model._discrete_distribution.branches.1.bias f4 [3]
0.023649547 0.0045633004 -0.03989943
00000000: b2bc c13c bd87 953b 966d 23bd

action_model._discrete_distribution.branches.2.weight f4 [2, 128]
-0.013882429 0.013091686 -0.022467013 0.036531266 -0.043009173 0.03275178 -0.053128395 -0.049294118
0.011752747 0.09217854 0.0028065133 -0.019815665 0.09725348 0.10576809 0.06931089 0.03865216
-0.042155158 0.056358658 0.07462881 0.14660938 -0.052011516 0.0005779769 0.0041074227 0.010801674
-0.012286602 0.0065979864 -0.049291603 0.025649121 0.056038335 0.030407706 -0.02532641 0.07023264
-0.0037687218 0.010309552 0.046411797 0.105459206 0.038679022 -0.018057665 0.036821116 -0.022739101
0.0048982254 0.009085051 0.04562384 -0.0323684 -0.049783517 0.0153346555 0.044670217 0.013846057
0.040738534 -0.043540556 -0.041329045 0.04663961 -0.016841492 0.023369297 -0.022164635 -0.041482504
-0.039401844 0.061903693 0.024776999 0.011611867 -0.045616876 -0.0047744317 -0.01987293 0.020873046
-0.03487958 -0.05111612 0.08000643 0.084876314 0.07240308 0.02957222 -0.017266272 0.09585063
-0.042548314 0.04391845 -0.029078852 -0.044851933 -0.0034076283 0.080111 0.06902753 0.033230472
0.043013643 0.01880311 0.008107649 0.013068982 -0.028306121 0.046924032 0.096457966 0.11956084
-0.027915882 -0.0032937834 -0.03830616 0.04606314 0.010413675 0.064279474 0.054483555 -0.020430515
-0.013045712 -0.0061298325 0.04752261 -0.048603706 0.036233205 -0.051543307 -0.020328123 0.0756831
0.038213413 -0.0066322777 0.014090977 -0.050858807 0.015391614 -0.043018077 0.085634135 0.06150992
-0.079190694 0.028525567 -0.015286967 0.004990219 -0.015054897 -0.07097731 0.062015012 0.03238764
-0.0618615 -0.03603071 0.025927069 0.050322864 0.05717838 0.012409645 0.05810485 0.025521534
0.0010206286 -0.026690692 0.0068825926 -0.008961521 0.06295018 -0.029209977 0.056907937 0.06827677
-0.010864803 -0.08343543 -0.026126584 0.0363479 -0.1038374 -0.12174339 -0.08949988 -0.047262017
0.028658835 -0.06865669 -0.0628585 -0.13934523 0.021148821 -0.014023804 0.008243796 -0.0014268652
0.019761791 -0.009814409 0.046830762 -0.022513822 -0.04368229 -0.018637186 0.030659394 -0.052270476
0.014947681 -0.0019431348 -0.046840638 -0.08346689 -0.03481199 0.014156988 -0.032338537 0.019628782
0.013598979 0.002616934 -0.026446553 0.022234647 0.055355076 -0.0019062712 -0.053427685 -0.024478264
-0.033358674 0.037319925 0.031562716 -0.041461732 0.027160093 -0.022473466 0.047066696 0.043280963
0.03066868 -0.06072485 -0.021831831 -0.0025277794 0.029435337 0.022417696 0.011638817 -0.0122017395
0.042766668 0.04308446 -0.08209652 -0.087690815 -0.055872276 -0.027908986 -0.0038057559 -0.086314596
0.056921378 -0.04748271 0.020091463 0.039245848 0.01601177 -0.09651401 -0.07020446 -0.0245845
-0.059715167 -0.014003359 -0.024045914 -0.026698953 0.014688042 -0.03463542 -0.09947381 -0.10005521
0.02676232 -0.003078547 0.020233212 -0.052769937 -0.0057606557 -0.059526354 -0.03868393 0.01656782
0.019187491 0.02261464 -0.051040906 0.03998525 -0.030361688 0.046384845 0.014836603 -0.07096169
-0.03469973 -0.011744921 -0.014622067 0.050366506 -0.028622273 0.046029627 -0.090608105 -0.07008669
0.079951905 -0.059920896 0.012319854 -0.020989941 0.028996278 0.07972473 -0.059853047 -0.050977513
0.07149122 0.024700133 -0.041913036 -0.06317849 -0.08199929 -0.012075717 -0.061668724 -0.011152153
00000000: 2173 63bc 837e 563c be0c b8bc cfa1 153d
00000010: 632a 30bd bb26 063d 299d 59bd a1e8 49bd
00000020: 988e 403c 1ac8 bc3d 7bed 373b 7654 a2bc
00000030: d52c c73d f19c d83d def2 8d3d ba51 1e3d
00000040: e3aa 2cbd 56d8 663d fdd6 983d c520 163e
00000050: 070a 55bd 6083 173a 8f97 863b 81f9 303c
00000060: be4d 49bc ec33 d83b fee5 49bd 1b1e d23c
00000070: 7488 653d 9519 f93c 5579 cfbc 21d6 8f3d
00000080: a9fc 76bb 65e9 283c 4c1a 3e3d fffa d73d
00000090: e56d 1e3d abed 93bc bdd1 163d 5a47 babc
000000a0: 4b81 a03b 77d9 143c 10e0 3a3d ba94 04bd
000000b0: cde9 4bbd 353e 7b3c 1ef8 363d 92da 623c
000000c0: 73dd 263d 9557 32bd a548 29bd 2d09 3f3d
000000d0: 2bf7 89bc f870 bf3c 9c92 b5bc 8fe9 29bd
000000e0: d463 21bd ba8e 7d3d 22f9 ca3c b33f 3e3c
000000f0: c3d8 3abd d672 9cbb 8ecc a2bc f3fd aa3c
00000100: e4dd 0ebd 235f 51bd 69da a33d a2d3 ad3d
00000110: 1148 943d 7141 f23c ff71 8dbc 564d c43d
00000120: 2447 2ebd d5e3 333d c636 eebc a9b6 37bd
00000130: 8452 5fbb 3c11 a43d 4e5e 8d3d ad1c 083d
00000140: 132f 303d fb08 9a3c f2d5 043c 491f 563c
00000150: 3de2 e7bc 6a33 403d c18b c53d 50dc f43d
00000160: d9af e4bc 84dc 57bb ece6 1cbd b4ac 3c3d
00000170: 1e9e 2a3c f5a4 833d 262a 5f3d e55d a7bc
00000180: afbd 55bc c3dc c8bb 11a7 423d ae14 47bd
00000190: 4569 143d 131f 53bd 2a87 a6bc beff 9a3d
000001a0: ab85 1c3d 9453 d9bb d7dd 663c 5351 50bd
000001b0: 1c2d 7c3c b933 30bd f360 af3d d3f1 7b3d
000001c0: bb2e a2bd 73ae e93c 3076 7abc fe84 a33b
000001d0: d1a8 76bc 8d5c 91bd 7403 7e3d e7a8 043d
000001e0: 7c62 7dbd f094 13bd 0165 d43c 591f 4e3d
000001f0: e133 6a3d d351 4b3c 5aff 6d3d 8912 d13c
00000200: 9dc6 853a 70a6 dabc 5f87 e13b 58d3 12bc
00000210: 06ec 803d c349 efbc 4c18 693d b1d4 8b3d
00000220: 4902 32bc 32e0 aabd 6b07 d6bc 89e1 143d
00000230: b4a8 d4bd 9954 f9bd b74b b7bd d195 41bd
00000240: efc5 ea3c e19b 8cbd f5bb 80bd 84b0 0ebe
00000250: 4b40 ad3c 19c4 65bc fd10 073c a705 bbba
00000260: 7be3 a13c 9dcc 20bc 9dd1 3f3d e86e b8bc
00000270: 33ec 32bd 03ad 98bc 6929 fb3c 9119 56bd
00000280: 1ee7 743c c9b0 feba f8db 3fbd b0f0 aabd
00000290: 0497 0ebd b6f2 673c 6a75 04bd 8acc a03c
000002a0: 41ce 5e3c de80 2b3b 71a6 d8bc 6f25 b63c
000002b0: 01bc 623d d9db f9ba fdd6 5abd a486 c8bc
000002c0: 1ba3 08bd c7dc 183d e847 013d c7d3 29bd
000002d0: d87e de3c 461a b8bc 02c9 403d 6147 313d
000002e0: e23c fb3c 9fba 78bd abd8 b2bc 1aa9 25bb
000002f0: 6022 f13c 51a5 b73c bdb0 3e3c cee9 47bc
00000300: 1a2c 2f3d 5579 303d 3822 a8bd 3e97 b3bd
00000310: 54da 64bd 63a1 e4bc fd69 79bb b5c5 b0bd
00000320: 6426 693d 3b7d 42bd da96 a43c 41c0 203d
00000330: 1e2b 833c 23a9 c5bd 5bc7 8fbd 6f65 c9bc
00000340: e497 74bd 586e 65bc f0fb c4bc c3b7 dabc
00000350: 1da6 703c dfdd 0dbd edb8 cbbd bfe9 ccbd
00000360: a73c db3c 73c1 49bb 1fc0 a53c 4a25 58bd
00000370: e2c3 bcbb e8d1 73bd 0a73 1ebd 3db9 873c
00000380: 162f 9d3c 5642 b93c 4510 51bd 93c7 233d
00000390: 13b9 f8bc 09fe 3d3d 3915 733c 5d54 91bd
000003a0: 4e21 0ebd c56d 40bc 6591 6fbc 1c4d 4e3d
000003b0: 4279 eabc 9089 3c3d be90 b9bd 9c89 8fbd
000003c0: d3bd a33d 9d6f 75bd 37d9 493c 19f3 abbc
000003d0: 9a89 ed3c b846 a33d 7828 75bd cccd 50bd
000003e0: fd69 923d ef57 ca3c 01ad 2bbd b963 81bd
000003f0: 3eef a7bd 3ad9 45bc 5898 7cbd 85b7 36bc

action_model._discrete_distribution.branches.2.bias f4 [2]
0.019245308 -0.019245313
00000000: 56a8 9d3c 59a8 9dbc
