results/PressButton/PressButtonAgent_ImitationLearning/PressButtonAgent/PressButtonAgent-49982.onnx (onnx, 83197 bytes, 11 tensors)

discrete_act_size_vector f4 [1, 3]
0	0x40400000	3.0
1	0x40400000	3.0
2	0x40000000	2.0

network_body._body_endoder.seq_layers.0.weight f4 [128, 6]
0	0x3f30b5f1	0.6902762
1	0xbe5dc028	-0.21655333
2	0x3eaedea1	0.34154227
3	0x3dd679b3	0.10472431
4	0x3e2ee232	0.17078474
5	0x3d1aa2c9	0.0377529
6	0x3eeceff1	0.4627681
7	0xbd9d7db8	-0.076899946
8	0xbf2ee93f	-0.68324655
9	0x3eddcbf9	0.4331968
10	0xbf5684c9	-0.83796364
11	0xbf2a6b45	-0.6656993
12	0xbe24bbc4	-0.16087252
13	0xbe9c321d	-0.30506983
14	0x3f0d6eec	0.5524738
15	0x3c981a39	0.018567191
16	0x3f8ef90a	1.1169751
17	0x3ead946d	0.33902302
18	0x3e62198e	0.22080061
19	0x3e4e3ebb	0.20141117
20	0xbe677549	-0.22603334
21	0xbe4edac7	-0.20200644
22	0x3f3f21cb	0.7466094
23	0x3e17e956	0.14835104
24	0xbf5ffb56	-0.87492883
25	0xbf18f4f0	-0.59748745
26	0x3f071271	0.52762514
27	0xbdbba716	-0.091627285
28	0xbd51734c	-0.051135346
29	0x3ecf9ec8	0.40550828
30	0xbf05d3da	-0.52276385
31	0x3e369d05	0.17833336
32	0xbed32c46	-0.41244715
33	0x3eb78f6c	0.3585161
34	0xbbc0c77a	-0.0058831545
35	0x3ee8f3dd	0.45498553
36	0xbe043b7c	-0.12913316
37	0xbe0371bf	-0.1283636
38	0xbe82de4b	-0.2556022
39	0xbf0b83eb	-0.54498166
40	0xbe922076	-0.2854039
41	0xbe0c8c25	-0.13725336
42	0xbf06a992	-0.52602494
43	0xbeeb5cd8	-0.45969272
44	0xbee3df35	-0.4450623
45	0xbdebd34c	-0.11514911
46	0x3e891135	0.2677094
47	0xbd0bfc81	-0.034176353
48	0xbe626622	-0.22109273
49	0xbd4e22e4	-0.050326243
50	0x3e8ca36d	0.27468434
51	0xbf0c68fc	-0.54847693
52	0x3eac9cc9	0.33713368
53	0xbe59692f	-0.2123153
54	0x3ea1cfe7	0.3160393
55	0x3d8fdab4	0.07024136
56	0x3e72b845	0.23703106
57	0x3e9e0618	0.30864024
58	0x3e7df9d8	0.24802339
59	0xbea48f61	-0.3214064
60	0x3eb95f84	0.36205685
61	0x3d061c9d	0.03274213
62	0xbf7c0230	-0.9844084
63	0xbf9cf710	-1.2262897
64	0xbe8b3693	-0.27190074
65	0x3eef1207	0.4669344
66	0xbe02f6f3	-0.12789516
67	0x3f36848a	0.7129599
68	0x3eb64a28	0.35603452
69	0x3e7719d4	0.24130946
70	0x3e0861c0	0.13318539
71	0x3e335e5a	0.17516461
72	0x3f038337	0.5137209
73	0x3ebda221	0.37037757
74	0xbe5ce4ef	-0.21571706
75	0xba4639de	-0.00075617235
76	0x3e6f199b	0.23349611
77	0xbea4539e	-0.32095045
78	0x3cfa57d9	0.030559467
79	0xbe5e3d97	-0.21703182
80	0xbcb772cf	-0.022393612
81	0x3e8a354e	0.26993793
82	0xbeb3ed68	-0.35142064
83	0xbec6e54c	-0.38846815
84	0x3ea3549d	0.31900492
85	0x3eb0fb32	0.34566647
86	0x3e7c1652	0.2461789
87	0xbf3f6db7	-0.74776787
88	0xbf316f21	-0.69310194
89	0xbdc987de	-0.09840368
90	0x3f9481ff	1.1602172
91	0x3f800f6d	1.0004708
92	0x3ed365c4	0.4128858
93	0x3f4617f4	0.773803
94	0xbdbfcc66	-0.09365158
95	0x3ee11ddd	0.43968096
96	0x3dcf2c09	0.10115821
97	0xbed6a0ca	-0.41919547
98	0xbed18a6d	-0.40925923
99	0xbf0bebe5	-0.5465682
100	0xbe746b43	-0.23869042
101	0xbd05d7ea	-0.032676615
102	0x3efd3c4e	0.4946007
103	0xbe0b0524	-0.1357618
104	0xbcb30296	-0.021851819
105	0xbce5fe10	-0.028075248
106	0xbeb94694	-0.3618666
107	0xbf42e718	-0.7613387
108	0xbf2e0514	-0.679765
109	0x3ec995ec	0.39372194
110	0xbe7b41f9	-0.24536885
111	0x3f028280	0.5098038
112	0x3f10ecb0	0.56611156
113	0x3f800694	1.0002007
114	0x3e471f0b	0.19445436
115	0x3f1c0f92	0.6096126
116	0x3ddf0171	0.10888947
117	0x3f639af0	0.8890829
118	0xbe068ff9	-0.13140859
119	0xbeae6c48	-0.34066987
120	0x3d0537d1	0.032523934
121	0x3f26157b	0.64876527
122	0xbd4258d0	-0.04744798
123	0xbef087d8	-0.4697864
124	0xbf2b2463	-0.66852397
125	0xbe79adcd	-0.24382706
126	0xbd9a6e7a	-0.07540603
127	0xbf18d7e4	-0.5970442
128	0x3f06c92b	0.5265071
129	0xbe9f9502	-0.3116837
130	0xbd98ee35	-0.074673094
131	0xbeb05abb	-0.34444222
132	0xbf175993	-0.59121054
133	0xbe1ba185	-0.15198334
134	0xbe5c40dd	-0.21509118
135	0xbf2eb16a	-0.6823946
136	0x3db693f2	0.08914937
137	0xbda490de	-0.08035444
138	0x3e7ba2e1	0.24573852
139	0x3e5fa927	0.2184187
140	0xbef6979e	-0.4816255
141	0xbd2b8648	-0.041876107
142	0x3f04b256	0.5183462
143	0x3eaae7a8	0.33379865
144	0x3e093f04	0.13402945
145	0xbe4d609b	-0.20056383
146	0xbf30b364	-0.6902373
147	0xbdbf861f	-0.093517534
148	0xbeeae6b6	-0.45879143
149	0x3eb96132	0.36206967
150	0x3f0ec63f	0.5577125
151	0x3e1c8645	0.15285595
152	0x3efd98ff	0.4953079
153	0x3e8b1763	0.2716628
154	0xbdb0da3c	-0.08635375
155	0xbec6b6ed	-0.38811436
156	0x3b7c9f1f	0.0038546992
157	0x3f17045e	0.5899104
158	0xbf125e08	-0.5717473
159	0xbeb80f6b	-0.35949263
160	0x3e434132	0.19067839
161	0xbe3cf20b	-0.18451707
162	0x3cbfecfb	0.02342843
163	0x3efb6fba	0.49108678
164	0xbf878fff	-1.0590819
165	0x3e21eae9	0.15812267
166	0x3f4d7c94	0.80268216
167	0xbe90b0d3	-0.28259906
168	0x3dee03a0	0.11621785
169	0xbe249bf1	-0.16075112
170	0xbee36587	-0.44413397
171	0xbf6468e3	-0.89222544
172	0xbe226943	-0.15860467
173	0x3f1d2e19	0.61398464
174	0x3e9425bf	0.28935048
175	0xbf67644b	-0.9038741
176	0x3e474a82	0.19462016
177	0xbea84d92	-0.3287168
178	0x3f0e2cf7	0.5553736
179	0x3f667226	0.90017927
180	0x3f835c05	1.0262457
181	0x3f1c7767	0.61119694
182	0xbecbc4d1	-0.39798597
183	0xbf18a649	-0.5962873
184	0x3ef8aa81	0.48567584
185	0x3e2eca3a	0.17069331
186	0x3e523f07	0.20531856
187	0xbe605a33	-0.21909408
188	0xbed88154	-0.4228617
189	0x3ea660a2	0.324956
190	0x3ec4bbed	0.38424626
191	0xbe2e3702	-0.17013171
192	0x3e5753cc	0.2102806
193	0x3c9442e9	0.018098311
194	0x3f1ef6f8	0.62095594
195	0xbd419143	-0.047257673
196	0x3ea3dad2	0.32002884
197	0x3f4a46ea	0.79014456
198	0xbd11a303	-0.03555585
199	0xbf4beded	-0.7965992
200	0x3e799eb9	0.24376954
201	0xbe81b5b4	-0.2533394
202	0x3dabe1f8	0.083927095
203	0x3f3375bb	0.7010152
204	0xbf75fb59	-0.9608665
205	0x3ee46ef5	0.44615903
206	0xbd93fd10	-0.07226002
207	0x3e824321	0.2544184
208	0x3ea3c3fa	0.31985456
209	0x3eabab96	0.33529347
210	0x3f3939b3	0.7235367
211	0xbf609677	-0.8772959
212	0xbf2094d3	-0.6272709
213	0xbe249e26	-0.16075954
214	0x3e6e6222	0.23279622
215	0x3e80ba06	0.25141925
216	0xbf26e559	-0.65193707
217	0x3e4e3e83	0.20141034
218	0x3df1b7c7	0.11802631
219	0xbd82e017	-0.06390398
220	0x3ed548bd	0.41657057
221	0x3d92c828	0.07167083
222	0xbc7f4b85	-0.01558197
223	0xbf119c6b	-0.568793
224	0x3dcc34d7	0.09971016
225	0x3e79214d	0.2432911
226	0x3e941c16	0.28927678
227	0xbf0b2aaf	-0.54362005
228	0xbf0837e0	-0.5321026
229	0x3f20a6dc	0.6275461
230	0xbef39a0f	-0.47578475
231	0xbda6e9d4	-0.08150068
232	0xbf7b624f	-0.9819688
233	0x3d21b9f4	0.03948398
234	0x3e34d1b6	0.17658123
235	0xbecc40f3	-0.39893302
236	0x3f451f26	0.77000654
237	0xbe02076b	-0.12698142
238	0xbf3b128c	-0.73075175
239	0x3f896410	1.0733662
240	0xbe98f9a7	-0.2987797
241	0xbe8ee854	-0.27911627
242	0x3f543c00	0.8290405
243	0x3f337a3c	0.7010839
244	0x3f026b97	0.5094542
245	0xbe939106	-0.28821582
246	0x3f0342a9	0.5127359
247	0x3f2439fc	0.6415098
248	0xbd59083d	-0.052986372
249	0xbee0a1d4	-0.43873465
250	0x3eb42235	0.35182348
251	0xbf8623d2	-1.0479681
252	0xbec95b9f	-0.39327714
253	0xbded0be1	-0.11574531
254	0x3b29a983	0.002588839
255	0xbe639b06	-0.22227105

network_body._body_endoder.seq_layers.0.bias f4 [128]
0	0x3d0c0a2d	0.034189392
1	0x3d5b1a4e	0.053491883
2	0x3c1d1b57	0.009589038
3	0x3cf01056	0.029304665
4	0x3da33ffb	0.07971188
5	0x3c87aae6	0.016560983
6	0xbba9e320	-0.005184546
7	0xbce6569d	-0.028117472
8	0xbc895a59	-0.016766714
9	0x3cd64b99	0.026159095
10	0xbc42eb3d	-0.0118969055
11	0x3d0bd1cd	0.03413563
12	0x3cac5037	0.021034343
13	0x3cadb9f0	0.021206826
14	0x3d3443e9	0.044010077
15	0x3ccc0665	0.024905393
16	0xbcbbd0b4	-0.022926666
17	0x3d18c7cb	0.037299912
18	0x3cb704e2	0.022341195
19	0x3cd178f6	0.025570374
20	0x3c9b9be5	0.018995235
21	0xbaaaac08	-0.001302124
22	0xbaad8d93	-0.0013241045
23	0xbbd86733	-0.006604099
24	0x3d50773d	0.050894964
25	0x3d083350	0.03325206
26	0x3d050280	0.032473087
27	0xba214ab1	-0.00061527925
28	0xbcb1aa9c	-0.021687798
29	0x3d459c72	0.0482449
30	0x3c9526ca	0.018206973
31	0xbc9d0888	-0.019169107
32	0xbc88e6c6	-0.016711604
33	0xbcd637f6	-0.026149731
34	0x3d0247fe	0.03180694
35	0x3c559fee	0.0130386185
36	0xbd0f3061	-0.034958247
37	0xbb60cc4a	-0.0034301453
38	0x3d1d4fd4	0.03840621
39	0x3d81c94d	0.06337223
40	0x3a578df6	0.0008222753
41	0x3cdfdce7	0.027327014
42	0x3c93ed57	0.018057508
43	0xbc9f67d6	-0.019458693
44	0x3cd06475	0.025438527
45	0x3d5b7905	0.05358221
46	0x3c84fdae	0.016234245
47	0x3c570b62	0.0131252725
48	0xbc9a1245	-0.01880754
49	0x3cf5f5ca	0.030024428
50	0xbc07e2b6	-0.008293798
51	0x3c86ad9a	0.016440202
52	0xbc24eacd	-0.0100657465
53	0xb9cf0501	-0.00039485845
54	0x3be44b47	0.0069669816
55	0xbc996353	-0.01872412
56	0x3c74111b	0.014896656
57	0x3d16dbdf	0.03683078
58	0x3d64dac6	0.0558727
59	0x3c6ea378	0.014565341
60	0x3ca7330c	0.020410083
61	0x3d029e1a	0.03188906
62	0x3d112ac5	0.03544118
63	0x3d0273e0	0.03184879
64	0x3d177f8d	0.036986876
65	0x3c7d51a8	0.015461363
66	0x3d125ac2	0.035731085
67	0x3d191a1d	0.03737842
68	0x3cdc0100	0.026855946
69	0x3c8ec079	0.017425762
70	0x3cbcca6e	0.023045745
71	0xbcdfd367	-0.027322484
72	0x3d19cf1b	0.037551027
73	0xbcbd46ba	-0.023105014
74	0x3cd8ad62	0.026449863
75	0x3cfaf9bd	0.030636663
76	0x3d2d372e	0.04228895
77	0x3c85efea	0.016349752
78	0x3c21d1c8	0.009876676
79	0xbc36b9a6	-0.0111526605
80	0xbb9c0dfd	-0.0047624097
81	0xbcad8d72	-0.02118561
82	0x3cdbbb29	0.026822643
83	0x3c4786cb	0.012178133
84	0x39198141	0.00014639368
85	0xbb94c1f0	-0.0045397207
86	0x3d2f129c	0.042742357
87	0xbb50a74b	-0.0031837996
88	0x3cc2d75d	0.023784334
89	0x3d02ffcc	0.03198223
90	0x3cae189d	0.02125197
91	0xbc8d1431	-0.017221542
92	0xbc87a16e	-0.016556468
93	0x3b0892b3	0.0020839393
94	0x3c5d830d	0.0135200145
95	0x3c936c0d	0.017995859
96	0xbc9b9055	-0.018989721
97	0x3c864ca8	0.016393974
98	0x3cdd7d80	0.027037382
99	0xbbe35ec6	-0.006938788
100	0x3d3a35d2	0.045461483
101	0xbbd6262f	-0.0065353136
102	0x3cd105e3	0.025515502
103	0x3cdd4012	0.02700809
104	0xbb171624	-0.0023053968
105	0xbca4bf78	-0.02011083
106	0xbc81d56e	-0.015848842
107	0x3d45275c	0.04813324
108	0x3d1e8040	0.038696527
109	0x3d082d89	0.03324655
110	0x3d19024a	0.0373557
111	0x3d6e6b82	0.058207996
112	0xbc3fbb34	-0.011702348
113	0xbd194a09	-0.03742412
114	0xbc91c6d7	-0.01779501
115	0x3c8802f1	0.016602965
116	0x3beb4815	0.0071802237
117	0xbc64b4a2	-0.013959082
118	0x3cfc9953	0.03083483
119	0x3ce3b6ea	0.027797181
120	0x3cafc9a6	0.021458458
121	0x3d6908fb	0.05689333
122	0x3ce2afe5	0.027671764
123	0x3c9ad457	0.01890008
124	0x3cef4cad	0.029211367
125	0xbd2266d6	-0.039648853
126	0x3d489da6	0.04897847
127	0x3bb7797e	0.0055992

network_body._body_endoder.seq_layers.2.weight f4 [128, 128]
0	0x3d72620f	0.059175547
1	0x3d08b60a	0.03337673
2	0xbd1eb2b7	-0.038744655
3	0xbe16fda3	-0.14745192
4	0x3b5ae2cd	0.0033399344
5	0x3e132e7c	0.14373201
6	0x3d3ae460	0.04562795
7	0xbb4fb000	-0.0031690598
8	0x3ddb4308	0.107061446
9	0x3d942c2a	0.07234986
10	0xbdae7093	-0.085175656
11	0xbd8cf8ce	-0.06883393
12	0xbdb3f5f5	-0.08787147
13	0xbdb06643	-0.08613255
14	0x3b6a43fa	0.0035746084
15	0xbd432dd9	-0.047651146
16	0x3de62e6d	0.11239324
17	0x3e16a20d	0.14710255
18	0xbd45e2e6	-0.04831209
19	0xba4559d5	-0.00075283396
20	0xbdf53f5d	-0.11974976
21	0xbd509e9f	-0.050932523
22	0x3c4acd24	0.012378011
23	0xbce14c76	-0.02750228
24	0xbcae52ce	-0.021279719
25	0x3dc03f10	0.09387028
26	0xbe0833f7	-0.13301073
27	0xbd964c67	-0.07338791
28	0xbddef6db	-0.10886928
29	0xbce9826c	-0.028504573
30	0x3df1d1b5	0.118075766
31	0xbc9dea17	-0.019276662
32	0x3e4408cc	0.1914398
33	0xbdba4ac2	-0.0909629
34	0x3e3558cc	0.17709655
35	0x3d9a6ea2	0.07540633
36	0x3d9a8bcc	0.075461954
37	0x3d9469d9	0.07246751
38	0xbe705b46	-0.23472318
39	0x3d524d9b	0.05134354
40	0x3e0f6158	0.14001977
41	0xbd9dd2c8	-0.07706219
42	0xbd083bd1	-0.03326017
43	0x3d71e9e6	0.059060954
44	0xba0156cd	-0.0004933894
45	0xbd84a387	-0.06476503
46	0x3cc123e3	0.023576682
47	0xbcd1a929	-0.025593357
48	0xbc2757cf	-0.010213806
49	0x3cfff0b4	0.031242706
50	0x3cf1a15a	0.029495884
51	0xbe5ae091	-0.21374728
52	0x3df78971	0.12086762
53	0x3d8fb721	0.07017351
54	0xbceb8979	-0.028752076
55	0xbdf57f91	-0.11987222
56	0x3d63a7c1	0.055579904
57	0x3d7e06ef	0.06201833
58	0xbc169f83	-0.009193304
59	0x3da3e83d	0.0800328
60	0x3d062f8e	0.032760195
61	0x3e51fd59	0.205068
62	0xbcedf076	-0.029045325
63	0x3cf09971	0.029370042
64	0x3ca7128f	0.020394592
65	0xbe0df6ff	-0.13863753
66	0xbdc54276	-0.09631817
67	0x3d74f5e8	0.059804827
68	0x3d170ada	0.036875583
69	0xbd6de3a9	-0.05807844
70	0xbd223b6f	-0.03960746
71	0xbe304899	-0.17215194
72	0xbde8bf08	-0.11364561
73	0x3d4768a5	0.04868378
74	0x3db0dd53	0.08635964
75	0xbcf34df4	-0.029700257
76	0x3d622eab	0.055220287
77	0xbd939bfd	-0.07207487
78	0x3c9fd584	0.019510992
79	0x3e00089d	0.12503286
80	0x3cab7d9c	0.020933919
81	0x3c713e8e	0.014724387
82	0xbe3dc2a8	-0.18531287
83	0x3dbb3844	0.09141591
84	0xbd5d9e36	-0.05410596
85	0xbdcbd88d	-0.09953413
86	0x3e17a4c5	0.14808948
87	0xbce3fa54	-0.027829327
88	0xbc56744a	-0.013089249
89	0x3d55bacf	0.052180108
90	0x3def5f5d	0.11688111
91	0x3d773441	0.060352568
92	0x3e36382a	0.17794862
93	0xbd692a08	-0.05692485
94	0xbcdc9101	-0.026924612
95	0x3dbdacf4	0.09261504
96	0x3db19255	0.08670489
97	0xbe54ca05	-0.2078019
98	0xbddf1dab	-0.108943306
99	0x3dbefa20	0.09325051
100	0xbe4f65c7	-0.20253669
101	0x3dd7c3b0	0.10535371
102	0x3d60ef79	0.05491588
103	0x3e14e769	0.14541401
104	0x3e213f98	0.15746915
105	0x3c2a333e	0.010388194
106	0xbdd75469	-0.10514147
107	0x3d11a9f9	0.03556249
108	0x3d9a7e38	0.075436056
109	0xbb9b89c7	-0.004746649
110	0x3de4572a	0.11149438
111	0x3de7bece	0.1131569
112	0xbd05ebd4	-0.032695606
113	0xbd9dbe9c	-0.077023715
114	0x3e3a4d78	0.18193614
115	0xbd56bc42	-0.05242563
116	0x3db6a916	0.08918969
117	0xbd492859	-0.049110744
118	0x3d1ee16a	0.03878919
119	0x3cf49b7e	0.0298593
120	0xbe30855e	-0.17238376
121	0xbda2517d	-0.07925699
122	0x3cc3cc81	0.023901226
123	0x3e19bcf6	0.15013489
124	0xbdb99962	-0.090624586
125	0x3c608695	0.013703962
126	0x3e0b5bf6	0.13609299
127	0xbde0fddb	-0.10985919
128	0xbd2d253b	-0.042271834
129	0x3dbd41a6	0.09241037
130	0xbd383a69	-0.04497758
131	0x3c26b8c3	0.010175887
132	0xbd223377	-0.039599862
133	0xbc29c501	-0.010361911
134	0xbbb4cd6b	-0.005517652
135	0xbd6f0de0	-0.05836284
136	0xbdb714ca	-0.08939512
137	0xbc589681	-0.013219477
138	0xbda3b4c9	-0.079934664
139	0xbe16d55a	-0.14729825
140	0x3e041169	0.12897266
141	0xbd101fed	-0.035186697
142	0x3e45accb	0.19304197
143	0x3e033227	0.128121
144	0x3d114c1d	0.035472978
145	0x3c9fae8d	0.019492412
146	0x3e08cc3a	0.13359156
147	0x3e0090f0	0.1255529
148	0x3ba00e90	0.0048845485
149	0x3e92c70e	0.28667492
150	0xbb104495	-0.0022013534
151	0xbcab0b0d	-0.020879293
152	0x3dfedf98	0.12444991
153	0x3d09f03c	0.03367637
154	0xbb5f6558	-0.0034087505
155	0xbdde212b	-0.1084617
156	0x3da2f85f	0.07957529
157	0x3dad874c	0.084730715
158	0xbd474458	-0.048649162
159	0xbd4c5b5d	-0.04989182
160	0xbd4aa0a5	-0.04946961
161	0xbd8d8aaf	-0.069112174
162	0xbcd56709	-0.026050108
163	0x3dd504a1	0.104012735
164	0x3d821a84	0.06352714
165	0x3de0d2f0	0.10977733
166	0x3d23e1dc	0.04001032
167	0x3da4564d	0.08024273
168	0x3d12d6d8	0.035849422
169	0xbe0a337a	-0.13496199
170	0x3e10c91f	0.14139222
171	0xbe029ce5	-0.12755163
172	0x3e3c7c2a	0.1840674
173	0x3e08893f	0.13333605
174	0x3d19b50d	0.03752618
175	0xbd82e554	-0.06391397
176	0xbd81ff7f	-0.0634756
177	0xbcb05872	-0.021526549
178	0xbde29555	-0.11063639
179	0xbb172259	-0.0023061244
180	0xbe55ea21	-0.20890094
181	0x3d0a4f34	0.03376694
182	0xbe58f8eb	-0.21188705
183	0x3de6e39a	0.1127388
184	0x3c5b967c	0.0134025775
185	0xbcdd61f3	-0.027024245
186	0xbc0e48e7	-0.008684373
187	0xbd0c1c50	-0.03420669
188	0xbcc72b79	-0.024312722
189	0x3c5b1bb2	0.013373302
190	0xbbe8dafd	-0.0071061836
191	0x3e27a5ef	0.16371892
192	0x3dab1206	0.08353047
193	0x3ddadddf	0.1068685
194	0xbbc085af	-0.0058753113
195	0x3dacadb6	0.0843157
196	0xbe0e2f4c	-0.1388523
197	0xbcf39794	-0.029735364
198	0x3d4d4b15	0.050120432
199	0xbda92175	-0.082583345
200	0x3adc1cfb	0.0016793305
201	0x3dac7c65	0.08422164
202	0xbdfc263c	-0.1231198
203	0xbd4b29a7	-0.04960027
204	0xbd0a3547	-0.033742215
205	0x3d4292ec	0.047503397
206	0xbdc27ad7	-0.09496086
207	0x3df4426b	0.11926731
208	0xbe80880c	-0.25103796
209	0xbd4c2e1d	-0.049848665
210	0x3c58ea9f	0.013239532
211	0xbd49f2c5	-0.04930379
212	0xbb3756dd	-0.0027975359
213	0x39eb3b17	0.00044866718
214	0xbd1dfabe	-0.038569205
215	0x3d9bcadf	0.07607054
216	0x3e447c70	0.19188094
217	0x3e0b3afc	0.1359672
218	0xbd5cd312	-0.05391223
219	0xbe60a284	-0.21936995
220	0xbc37206d	-0.0111771645
221	0xbc00717a	-0.007839555
222	0x3cccfcc8	0.02502288
223	0xbd563f7b	-0.052306633
224	0x3da18c7d	0.07888124
225	0x3da0f6c1	0.078595646
226	0x3e318d93	0.17339163
227	0xbe2733a0	-0.16328287
228	0x3d449da5	0.048001904
229	0xbdc29912	-0.09501852
230	0xbdb16e7f	-0.086636536
231	0x3da4d997	0.080493145
232	0x3ce301a0	0.027710736
233	0xbd17aab3	-0.037028026
234	0xbdb19254	-0.08670488
235	0xbd99c3f1	-0.07508076
236	0x3cc87a08	0.024472252
237	0x3ddb4479	0.107064195
238	0x3dced5c8	0.10099369
239	0x3c9096da	0.017650057
240	0xbdc55892	-0.09636034
241	0x3d906289	0.07050044
242	0xbd254dfd	-0.04035758
243	0xbd915186	-0.070956275
244	0xbdc93f87	-0.0982657
245	0x3de66703	0.11250117
246	0x3dd3ac0f	0.10335552
247	0x396857e4	0.00022157986
248	0x3a2cf81a	0.00065982493
249	0x3e415eb9	0.1888379
250	0xbda17ba5	-0.078849114
251	0xbc801a15	-0.015637437
252	0x3e414df6	0.18877396
253	0x3d08bbd6	0.03338226
254	0x3c985e02	0.018599514
255	0xbd1a2fa3	-0.037643086

network_body._body_endoder.seq_layers.2.bias f4 [128]
0	0x3cb58166	0.022156429
1	0x3c8a3266	0.016869735
2	0xbbc82b1d	-0.006108655
3	0xbc8b6cc5	-0.017019639
4	0x3d6bd055	0.057571728
5	0x3ca6dee6	0.020369958
6	0x391cae19	0.00014942176
7	0x3cc18aa8	0.023625687
8	0xbbcb8eb6	-0.006212081
9	0x3c505bf4	0.012717236
10	0x3ce5d50f	0.028055696
11	0x3c9b1814	0.01893238
12	0x3cf22b0d	0.029561544
13	0x3c941145	0.018074641
14	0x3cace17e	0.021103617
15	0x3d23d7f0	0.040000856
16	0x3c9ea5ee	0.01936623
17	0xbcfd3ecc	-0.030913733
18	0x3c9bb4b6	0.019007068
19	0x3c863b6c	0.016385756
20	0x3c759f44	0.014991585
21	0x3c7bd2d3	0.015370089
22	0x3cc9743c	0.024591558
23	0x3c1522a9	0.009102502
24	0x3cdc8fcd	0.026924038
25	0x3c3ffcc3	0.011717978
26	0xbcb4c67e	-0.022067305
27	0xbb7cfe2b	-0.0038603644
28	0xbcff0962	-0.031132404
29	0x3cce41c7	0.02517785
30	0x3bc4a2e9	0.0060008657
31	0x3c880fd4	0.01660911
32	0xb98755f0	-0.00025813235
33	0x3c32226c	0.010872465
34	0x3cdcaaf4	0.026936986
35	0xbc954578	-0.018221602
36	0x3c95c7be	0.018283721
37	0x3ce993d7	0.028512878
38	0x3cdf2159	0.027237581
39	0x3d6168bd	0.055031527
40	0x3cc2f0b8	0.023796424
41	0x3cab662b	0.02092274
42	0x3d56cc16	0.052440725
43	0x3cfa72c8	0.03057231
44	0xbc24e1de	-0.010063617
45	0x3c121dbb	0.008918221
46	0x3cddf892	0.027096067
47	0x3cd83e7b	0.02639698
48	0x3cdbd450	0.026834637
49	0xbbabd8de	-0.0052443584
50	0x3c1917a7	0.009344018
51	0xbc39d91d	-0.011343268
52	0x3d08020f	0.03320509
53	0xbba492da	-0.005022389
54	0x3ca826bb	0.02052628
55	0x3bf86621	0.007580534
56	0x3bc17e8b	0.0059049777
57	0x3c91cd71	0.017798157
58	0x3d1721dc	0.036897525
59	0x3ca191b3	0.019722795
60	0xbcb8fc37	-0.022581203
61	0x3c71abc4	0.014750425
62	0x3c58641f	0.0132074645
63	0x3cf0b8d3	0.029385006
64	0x3d2a5ea8	0.041594177
65	0x3c634f19	0.013873839
66	0x3c90ffe3	0.017700141
67	0x3cf9755e	0.030451473
68	0x3d05cc9c	0.032665834
69	0x3ceb7f41	0.028747203
70	0x3c3896ec	0.011266451
71	0x3bc12850	0.005894698
72	0xbc28501a	-0.010273004
73	0x3cf80971	0.03027794
74	0x3ce5a30f	0.028031854
75	0x3c5a80dc	0.0133363865
76	0x3cb898f1	0.022533866
77	0x3ca677b9	0.02032076
78	0xbc638efc	-0.013889071
79	0xbaab6ba8	-0.0013078349
80	0xbc21bbd5	-0.009871443
81	0xbc51d950	-0.012808159
82	0x3cba8f1d	0.02277332
83	0x3ca3b250	0.019982487
84	0x3a3df06c	0.00072456035
85	0x3c489a70	0.012243852
86	0x3b63a1b8	0.0034733843
87	0xbc952c5f	-0.018209634
88	0xbb845c3b	-0.004039315
89	0x3ccde83b	0.02513515
90	0x3d149ec9	0.03628424
91	0x3cd32cc8	0.02577819
92	0x3ce44a1d	0.027867371
93	0x3cbea40e	0.023271587
94	0xbc346ab0	-0.011011764
95	0x3cbb6001	0.022872927
96	0xbbbb4433	-0.005714917
97	0x3bed24b5	0.007237042
98	0xbc48477d	-0.012224075
99	0x3c9660d9	0.018356727
100	0x3cc5c9aa	0.024144012
101	0x3cb9746d	0.022638524
102	0x3afa41ba	0.0019093074
103	0x3d19f8ce	0.037590794
104	0x3ca4d790	0.02012232
105	0xbbd5ba4d	-0.006522453
106	0x3c6f1256	0.014591774
107	0xbcaf7c9e	-0.021421727
108	0xbb86452f	-0.004097603
109	0x3ce1af54	0.027549423
110	0x3d1d506c	0.038406774
111	0x3c97c227	0.018525196
112	0x3cc947dc	0.024570398
113	0x3d1335fb	0.03594015
114	0x3c952dd5	0.018210331
115	0xbba29238	-0.0049612783
116	0x3b496c55	0.0030734737
117	0xbc7db984	-0.015486125
118	0x3a7fec25	0.00097626663
119	0xbab3e6d8	-0.0013725413
120	0x3c4259e9	0.011862257
121	0x3c9d4026	0.019195627
122	0x3cecc82c	0.028904043
123	0x3ce70ebe	0.028205272
124	0xbcf557a6	-0.02994902
125	0xbc6acead	-0.014331502
126	0x3d179cf6	0.037014924
127	0x3cabb902	0.020962242

action_model._discrete_distribution.branches.0.weight f4 [3, 128]
0	0x3cd67e91	0.026183398
1	0xbcc467b8	-0.023975238
2	0x3cc36cfe	0.023855682
3	0x3cc65505	0.024210462
4	0x3d39aa50	0.04532844
5	0xbd9664d6	-0.07343452
6	0x3c73495f	0.014849036
7	0xbd26c037	-0.040710654
8	0x3cc87a78	0.02447246
9	0x3cfcfd2e	0.030882444
10	0xbd0d2fb1	-0.03446931
11	0x3c66b0b3	0.014080214
12	0xbc6a8860	-0.014314741
13	0xbca5e0b9	-0.020248758
14	0xbcc91f7f	-0.024551151
15	0xbc1b245c	-0.009469118
16	0xbc23060e	-0.009950174
17	0x3922e430	0.0001553453
18	0xbd0e301a	-0.034713842
19	0xbd0f6141	-0.035004858
20	0x3cf48cd4	0.029852308
21	0x3d056fee	0.032577448
22	0xbd623b8e	-0.055232577
23	0x3c9a79e7	0.018856956
24	0xbcc356b1	-0.023845049
25	0x3cbb6d7b	0.022879353
26	0x3caf1fdd	0.021377498
27	0x3d02cd08	0.031933814
28	0x3c0bd403	0.008534434
29	0xbb5c835a	-0.0033647628
30	0x3ccc5acf	0.024945645
31	0xbcfb4077	-0.030670388
32	0x3c614ab9	0.013750725
33	0x3d005279	0.031328652
34	0xbd2716c6	-0.040793203
35	0x3c579468	0.013157941
36	0xbcbc162a	-0.022959787
37	0x3c51d519	0.012807154
38	0xbd41e219	-0.047334764
39	0xbbeba240	-0.0071909726
40	0xbbc150f1	-0.0058995415
41	0xbccd4e3a	-0.025061715
42	0xbc80a358	-0.015702888
43	0xbccdaecb	-0.025107762
44	0x3ceab753	0.028651869
45	0x3cad8dbb	0.021185746
46	0x3c1d5c6f	0.009604557
47	0xbc9e92c2	-0.019357089
48	0xbcc35fa0	-0.023849308
49	0x3c3b1c5d	0.011420337
50	0xbcc7a097	-0.024368567
51	0x3cb07a53	0.021542704
52	0xbd0c83f8	-0.034305543
53	0x3c6e7c48	0.014555998
54	0xbd2160d5	-0.039398987
55	0x3c622598	0.013802908
56	0x3c70c355	0.014695008
57	0x3cfb12f5	0.030648688
58	0xbd248004	-0.040161148
59	0xbd4c74cd	-0.049916077
60	0x3cc52fa1	0.024070563
61	0xbc8041dd	-0.015656406
62	0xbbd7f1e7	-0.0065901163
63	0xbd5cfe1d	-0.05395328
64	0xbb922d0e	-0.0044609373
65	0x3c9edb15	0.019391576
66	0xbc8f6206	-0.017502796
67	0xbcac4711	-0.02102998
68	0xbcee923f	-0.02912247
69	0xbc4bea17	-0.012445948
70	0xbccfff56	-0.025390308
71	0xbbf4725b	-0.0074599213
72	0x3c941c71	0.018079968
73	0xbc889864	-0.016674228
74	0xbd183b55	-0.03716596
75	0xbd1871b0	-0.037217796
76	0xbcca53d3	-0.024698174
77	0xbbfa46dd	-0.007637842
78	0x3c5ff856	0.013670048
79	0x3cc5014e	0.024048474
80	0x3c8f6635	0.01750479
81	0x3b17da9d	0.0023171075
82	0x3aa5f4ec	0.0012661493
83	0xbd28a8c2	-0.041176565
84	0x3bc15042	0.00589946
85	0xbcd772f6	-0.026299935
86	0x3cd8fb49	0.02648701
87	0x3cae3f39	0.021270381
88	0x3d46d1b3	0.04853983
89	0xbd3fc641	-0.04681993
90	0x3c93b6f1	0.01803157
91	0xbd183430	-0.037159145
92	0x3915c9a1	0.0001428486
93	0xbc84d163	-0.016213125
94	0x3cb88fee	0.022529569
95	0xbd2ea8f8	-0.04264161
96	0x3cad4774	0.021152236
97	0x3d39f9fc	0.04540442
98	0x3c7e3aed	0.015516979
99	0xba7e800e	-0.00097084127
100	0xbcdd551e	-0.027018126
101	0xbd36faa4	-0.044672623
102	0x3cf3bd62	0.02975339
103	0xbd115632	-0.035482593
104	0x3d0adb5d	0.033900607
105	0x3c40ccdf	0.011767595
106	0xb8e0c113	-0.00010717115
107	0x3cd6f609	0.026240366
108	0x3c9143b0	0.017732471
109	0xbc9f13ef	-0.019418685
110	0xbcc28e88	-0.023749605
111	0xbd05d2cb	-0.03267173
112	0xbcf39e57	-0.029738588
113	0xbc2c24cc	-0.01050682
114	0x3cef41d7	0.0292062
115	0x3c8858f3	0.016643977
116	0x3d1be018	0.03805551
117	0x3c868118	0.016418979
118	0x3d02e544	0.031956926
119	0x3c5642a0	0.013077408
120	0x3c972309	0.018449323
121	0x3d3b857c	0.045781597
122	0xbc13d426	-0.009022748
123	0xbce57784	-0.028011091
124	0x3cb59c0d	0.022169137
125	0x3c5648c2	0.01307887
126	0xbd4de325	-0.05026545
127	0xbd4db6de	-0.050223224
128	0x3c689a11	0.014196889
129	0x3bd24748	0.006417189
130	0x3c21b0f9	0.009868854
131	0xbcbce13f	-0.023056624
132	0xbcee53ca	-0.029092688
133	0x3ced9607	0.029002203
134	0xbc1a5e39	-0.0094218785
135	0x3bfa539f	0.007639363
136	0x3bdcdb43	0.006740005
137	0xb9fdffa8	-0.000484464
138	0x3c1d1589	0.009587654
139	0xbd697f0b	-0.057005923
140	0x3c3db8f0	0.011579737
141	0x3d69a2ca	0.057040013
142	0x3ca4ce0a	0.020117778
143	0xbcb006b3	-0.02148757
144	0x3ca79683	0.020457512
145	0xbb8e5102	-0.004343153
146	0x3bde87ac	0.0067910757
147	0x3cb25b9f	0.021772204
148	0xbc838c02	-0.016057972
149	0x3b1e39f9	0.002414344
150	0x3c08a745	0.008340661
151	0x3c1d7117	0.009609482
152	0xbc64c5cb	-0.013963173
153	0xbc467267	-0.012112237
154	0xbbe97f48	-0.007125769
155	0xbc54b302	-0.012982132
156	0xbc11ffc1	-0.008911074
157	0xbc8f2e87	-0.01747824
158	0xbd7d830d	-0.061892558
159	0x3c8e7eb3	0.0173944
160	0xbb9773f1	-0.0046219756
161	0xbd8cdd1f	-0.06878113
162	0x3cbbee96	0.022940915
163	0xbb8acd95	-0.004235933
164	0x3cc81960	0.024426162
165	0xbd5e60e9	-0.05429164
166	0x3d8224c3	0.06354668
167	0x3daeba5d	0.0853164
168	0xbc17f35c	-0.00927433
169	0x3c416078	0.011802785
170	0x3cbc4161	0.022980394
171	0x3c8a2bef	0.016866652
172	0x3b8c28ab	0.004277309
173	0x3a2f2e04	0.0006682577
174	0x3b26c963	0.0025449626
175	0xbb7fd518	-0.0039036926
176	0x3ce66e06	0.028128635
177	0xbcb21f4d	-0.021743441
178	0xbc142425	-0.009041821
179	0xbccc5619	-0.024943398
180	0x3ca34159	0.019928621
181	0x3bc935a7	0.006140429
182	0x3cfe7dfd	0.031065935
183	0x3c17935a	0.00925144
184	0xbdb67407	-0.08908849
185	0xbbc0a1bd	-0.0058786557
186	0x3d30604f	0.043060597
187	0x3bf4b063	0.007467316
188	0xbbf7cc62	-0.007562206
189	0xbbfe547d	-0.0077615366
190	0xbcf331ba	-0.029686797
191	0x3d2c2b8b	0.042033713
192	0x3c85c469	0.016329007
193	0x3c9a761b	0.018855145
194	0xbabca395	-0.0014392013
195	0x3c0c25c2	0.008553924
196	0x3d4cd260	0.050005317
197	0x3c77de07	0.015128619
198	0x3c825628	0.015910223
199	0xbd820666	-0.06348877
200	0xbca5e932	-0.020252798
201	0x3c4c7cb9	0.012480908
202	0x3cbcfe60	0.023070514
203	0x3c35194f	0.011053397
204	0x3ca63214	0.020287551
205	0xbd8b894b	-0.06813296
206	0xbd0b81d7	-0.03405937
207	0xbc5b543d	-0.013386783
208	0xbc80fe9d	-0.01574641
209	0x3b4d4742	0.003132299
210	0xbc8c42d3	-0.017121708
211	0x3c8b47cc	0.017002009
212	0xbc8c8bc0	-0.017156482
213	0x3ca91303	0.020638948
214	0xbd8dc34a	-0.06922014
215	0xbb63b44a	-0.0034744912
216	0xbb8fcd45	-0.0043884837
217	0x3cf84d43	0.030310279
218	0x3c379bac	0.011206549
219	0x3c10fa4b	0.008848737
220	0xbd5c0724	-0.053717747
221	0x3d1b8f4d	0.03797846
222	0x3c610636	0.013734391
223	0xbb1ac638	-0.0023616683
224	0xbc86b147	-0.016441954
225	0xbd8ba4ed	-0.068185665
226	0x3c8bfcdb	0.017088344
227	0xbc7e98a9	-0.015539327
228	0xba633f5a	-0.0008668803
229	0x3dafb3b5	0.08579198
230	0xbc572a20	-0.013132602
231	0x3c502fec	0.012706738
232	0xbd75c2a6	-0.060000084
233	0xbc019e65	-0.007911299
234	0xbd218b7d	-0.039439667
235	0xbbe14193	-0.006874272
236	0x3c2d1d67	0.010566092
237	0x3bd43998	0.0064765923
238	0x3c8d7ac8	0.01727046
239	0x3c23445b	0.009965028
240	0x3d4ad8b3	0.049523067
241	0x3c198b15	0.009371539
242	0x3d1717dd	0.036887992
243	0x3c3404de	0.010987489
244	0x3bee83eb	0.0072789094
245	0xbcbfdd13	-0.023420846
246	0x3c12c709	0.0089585865
247	0xbb97c432	-0.0046315426
248	0xbda0af6e	-0.078459606
249	0xbd08d025	-0.033401627
250	0x3d0a6e77	0.033796754
251	0xbb94d158	-0.0045415573
252	0xbcd8c93c	-0.026463144
253	0xbc910300	-0.017701626
254	0x3b2c0bc0	0.002625212
255	0x3902aa91	0.00012461307

action_model._discrete_distribution.branches.0.bias f4 [3]
0	0xbc12c1cd	-0.0089573385
1	0x3ca4283c	0.020038716
2	0xbd00cf2e	-0.031447582

action_model._discrete_distribution.branches.1.weight f4 [3, 128]
0	0xbc85c933	-0.01633129
1	0x3cdb9418	0.026804015
2	0xbd1cf3ff	-0.03831863
3	0xbcfd627f	-0.030930756
4	0xbbcb7bb7	-0.0062098163
5	0x3cf47567	0.029841138
6	0xbcab4268	-0.020905688
7	0x3c2df73b	0.010618026
8	0xbca279dc	-0.019833498
9	0xbcb96aed	-0.022633994
10	0x3c9e9e71	0.01936266
11	0x3c91f282	0.017815832
12	0x3ca6236d	0.020280564
13	0x3ce69ab4	0.02814994
14	0x3cc1e0f0	0.023666829
15	0x3d365083	0.044510376
16	0x3d093bfe	0.03350448
17	0xbc91915d	-0.01776951
18	0x3cbffa96	0.023434918
19	0x3cdee367	0.027208043
20	0xbd0bfa01	-0.03417397
21	0xbcb6fb2a	-0.022336561
22	0x3d208d2b	0.03919713
23	0xbd08c924	-0.033394948
24	0x3cd13331	0.025537105
25	0xbd176bde	-0.036968105
26	0xbcc78312	-0.024354491
27	0xbc873e2b	-0.016509136
28	0xbc924f2d	-0.01786002
29	0x3c866d01	0.016409399
30	0x3b37768f	0.002799425
31	0x3d06b27c	0.03288506
32	0xbcee0374	-0.029054381
33	0x3c0a6e77	0.008449188
34	0x3cff8c4f	0.031194834
35	0xbd126d92	-0.035749026
36	0x3d1c2a25	0.03812613
37	0x3ccde731	0.025134655
38	0xbc4e42c1	-0.012589158
39	0xbba9635b	-0.005169315
40	0x3d08337f	0.033252236
41	0x3cea46d9	0.028598236
42	0x3cd3819a	0.025818635
43	0x3cac289d	0.02101546
44	0xbd50d89c	-0.050987825
45	0xbcffad0a	-0.031210441
46	0x3c9ecdf2	0.019385312
47	0x3c289ea9	0.010291734
48	0x3c7e28b4	0.015512634
49	0xbcde2668	-0.027117923
50	0x3ca94614	0.020663299
51	0xbc817ebe	-0.015807506
52	0x3d324859	0.043526027
53	0xbcfdcb80	-0.030980825
54	0x3c762c80	0.015025258
55	0xbc9ecbfe	-0.01938438
56	0x3c7e13b9	0.015507632
57	0xbcfbf593	-0.030756747
58	0xbab69e2c	-0.0013932637
59	0x3cdd33cc	0.027002238
60	0xbd1814bc	-0.03712915
61	0x3d080a99	0.03321323
62	0x3ce614eb	0.028086146
63	0x3cb19e69	0.021681981
64	0x3cb21f47	0.02174343
65	0xbd3eab06	-0.04654982
66	0x3cc61677	0.024180634
67	0x3cd62dd6	0.026144903
68	0x3bad1817	0.0052824127
69	0x3ce26d8d	0.027640129
70	0x3ce25e49	0.02763285
71	0x3c41d76a	0.011831144
72	0xbd04d16e	-0.03242629
73	0x3cc2426c	0.023713313
74	0x3ceb8659	0.028750585
75	0x3cd1e3ae	0.025621261
76	0x3d19049c	0.03735791
77	0x3c9eedf5	0.019400576
78	0xbc96b4d1	-0.018396767
79	0xbca7b7fe	-0.020473476
80	0xbcacda2a	-0.021100122
81	0xbcd41f63	-0.025893873
82	0x3cb520ff	0.02211046
83	0x3ccf8bea	0.02533527
84	0x3caa6c6e	0.020803656
85	0x3d07f20b	0.033189815
86	0x3ca9953c	0.020701043
87	0xbcaa1bd9	-0.020765232
88	0xbd180237	-0.037111487
89	0x3d064a79	0.032785866
90	0xbd41eae7	-0.04734316
91	0x3d135689	0.0359712
92	0x3cc28433	0.023744678
93	0x3ce7d221	0.02829844
94	0xbca17b58	-0.019712135
95	0x3ce4693d	0.027882213
96	0xbb7d2f15	-0.00386328
97	0x39e73da0	0.00044105668
98	0xbc55031e	-0.0130012315
99	0x3d0af42f	0.033924278
100	0x3cd1c7a0	0.025607884
101	0xbcefc86d	-0.029270375
102	0xbd1ec9fe	-0.038766854
103	0x3d51deb1	0.051237766
104	0xbb9d6406	-0.0048031835
105	0xbd0024c6	-0.03128507
106	0x3bfb24c4	0.007664295
107	0xbcf4c90a	-0.02988102
108	0xbcfa041e	-0.030519541
109	0x3c2a384e	0.010389401
110	0x3d1adb96	0.03780707
111	0x3c6f736e	0.014614923
112	0x3c44c768	0.012010433
113	0x3d10d73f	0.035361525
114	0xbd0aab67	-0.03385487
115	0xbcfc9057	-0.030830545
116	0xbc9a0704	-0.018802173
117	0xbd1c1a8f	-0.038111266
118	0xbcdc0ec7	-0.026862515
119	0xbcf6b5ae	-0.030115929
120	0x3c253084	0.010082368
121	0xbcc69354	-0.024240173
122	0x3ccb8053	0.024841463
123	0x3d1c17a2	0.038108476
124	0xbc5bb4bb	-0.013409789
125	0xbca2493b	-0.01981031
126	0x3d3d27d1	0.04618055
127	0x3c6a02aa	0.014282862
128	0xbce94094	-0.028473176
129	0xbc9fab45	-0.019490847
130	0x3d8cfb91	0.0688392
131	0x3cf66728	0.030078486
132	0x3d1ced2f	0.038312133
133	0x3cc126a1	0.02357799
134	0x3d01c417	0.031681146
135	0xbccbb0b2	-0.024864528
136	0x3d6e4240	0.05816865
137	0x3da139d4	0.07872358
138	0xbbbcdbe5	-0.005763518
139	0x3c9cf5d6	0.019160192
140	0xbd4dcfeb	-0.050247114
141	0xbd0cc4c7	-0.03436735
142	0xbd40b564	-0.047047988
143	0x3ca803e6	0.020509671
144	0xbca9f548	-0.020746842
145	0xbb810741	-0.0039376323
146	0xbcde33b7	-0.027124269
147	0x3bf99c7e	0.0076175323
148	0xbd2a1048	-0.041519433
149	0xbcdfc545	-0.027315745
150	0x3bed3728	0.007239241
151	0x3dae2b27	0.085043244
152	0xbcf56572	-0.0299556
153	0x3db6bc95	0.08922688
154	0x3b66419b	0.0035134319
155	0x3b7742b0	0.0037728958
156	0x3a093495	0.00052339706
157	0xbd740f0c	-0.059584662
158	0x3a261d00	0.0006336719
159	0xbc29759c	-0.010342982
160	0xbbaa7bc1	-0.005202741
161	0xbd35fa1a	-0.04442797
162	0xbd53b6fb	-0.051688176
163	0xbaf98c13	-0.0019038938
164	0xbd1ff0d3	-0.039048027
165	0xbcdeb91c	-0.027187876
166	0xba65b958	-0.0008763275
167	0xbc2f4293	-0.010697025
168	0xbc2e4bf8	-0.01063823
169	0xbd22ced7	-0.03974804
170	0x3d59a766	0.05313816
171	0xbd9c72b5	-0.07639066
172	0x3d266d7a	0.04063175
173	0x3d99dd34	0.07512894
174	0xbd8394c4	-0.06424859
175	0xbd1f8dd6	-0.038953625
176	0xbd858d49	-0.06521089
177	0xbc66300c	-0.014049541
178	0xbd416287	-0.047213104
179	0x3d252e86	0.04032757
180	0x3c702ebb	0.014659579
181	0x3da2207c	0.07916352
182	0x3bc09604	0.0058772583
183	0x3d3f3234	0.046678737
184	0xbd3498f5	-0.044091184
185	0x3d8c34ec	0.068460315
186	0x3d324306	0.04352095
187	0x3c06e016	0.008232137
188	0x3d39337f	0.045215126
189	0x3cb02fcf	0.021507172
190	0x3aaddf3e	0.0013265384
191	0x3cf292fd	0.029611105
192	0xbd9d7c59	-0.07689733
193	0x3d8a01a0	0.06738591
194	0xbd68f3fb	-0.056873303
195	0x3c6ed863	0.014577958
196	0x3bb663f5	0.005566115
197	0xbd24855e	-0.04016625
198	0xbcf892e4	-0.03034348
199	0xbc9dc4e2	-0.01925892
200	0xbc42fa47	-0.011900491
201	0xbc32f363	-0.010922286
202	0x3c03dd7d	0.008048412
203	0xbcd75af2	-0.026288483
204	0xbd12c466	-0.03583183
205	0xbba08019	-0.004898083
206	0xbbb84fef	-0.005624763
207	0x3c25a8c1	0.010111035
208	0x3cc56581	0.024096252
209	0xbc9ab767	-0.018886281
210	0x3af02c0e	0.0018323676
211	0xbd1c80f9	-0.038208935
212	0xbd3ed03d	-0.04658531
213	0xbcb3177d	-0.021861786
214	0xbc677fba	-0.0141295735
215	0x3cbf366a	0.023341376
216	0x3cf810b5	0.030281404
217	0x3c8df03e	0.01732647
218	0x3d031b40	0.03200841
219	0xbd434a2b	-0.047678154
220	0xbcc2058d	-0.023684287
221	0x3be14b15	0.0068754056
222	0x3cba8e66	0.022772979
223	0xbd07056b	-0.03296415
224	0x3bc6fe8e	0.0060728258
225	0xbd2d1147	-0.042252805
226	0x3bd4c7da	0.0064935507
227	0xbca85b1e	-0.02055126
228	0xbd5a4363	-0.05328692
229	0x3ac7586a	0.0015208845
230	0x3d8cae2b	0.068691574
231	0x3d52b3da	0.05144105
232	0xbd095f2e	-0.033538036
233	0xbb411958	-0.002946457
234	0xbc09f32e	-0.008419795
235	0x3d21be33	0.03948803
236	0x3d9ec019	0.077514835
237	0xbd34f1cc	-0.044175908
238	0x3ce569ea	0.028004605
239	0xbd434030	-0.047668636
240	0x3c17c7b2	0.00926392
241	0x3c72842f	0.014802023
242	0xbaf61c8e	-0.001877682
243	0x3ca11ead	0.019667948
244	0x3cdea292	0.027177129
245	0x3d0ef4ae	0.034901313
246	0x39d0ad82	0.00039802125
247	0x3c160e3e	0.009158669
248	0xbd70aabb	-0.05875657
249	0xbcc8ee73	-0.024527764
250	0xbd904349	-0.070440836
251	0xbc0a408a	-0.008438239
252	0xbb875141	-0.0041295593
253	0x3cc26fdc	0.02373498
254	0xbb4a7e59	-0.0030898063
255	0xbd27cdec	-0.040967867

action_model._discrete_distribution.branches.1.bias f4 [3]
0	0x3c809a20	0.015698493
1	0xbc111376	-0.0088547375
2	0xbc9fc0f0	-0.01950118

action_model._discrete_distribution.branches.2.weight f4 [2, 128]
0	0xbcbfec68	-0.023428157
1	0x3c816ee6	0.01579995
2	0xbcf1e6ec	-0.029529057
3	0xbcf4d0a5	-0.029884646
4	0x3d7887b0	0.060676277
5	0xbcbad010	-0.02280429
6	0xbcc8d602	-0.02451611
7	0x3d5f11db	0.054460388
8	0xbd48e47b	-0.04904602
9	0x3c2191c9	0.009861418
10	0x3d242702	0.040076263
11	0x3d596332	0.053073116
12	0x3cf628d3	0.030048763
13	0x3c8445f3	0.016146636
14	0x3cca48f6	0.024692994
15	0x3d40bd0e	0.047055297
16	0x3caa91ca	0.02082147
17	0xbcfd469e	-0.030917462
18	0x3ca4b1db	0.02010434
19	0x3c8c67a6	0.017139267
20	0xbc2e1c90	-0.010626927
21	0xbce77ebe	-0.028258678
22	0x3c01ead7	0.007929525
23	0xbbbde81c	-0.005795492
24	0x3cdf3944	0.027248986
25	0x3c240246	0.010010308
26	0xbcdd70cd	-0.027031327
27	0xbca18c87	-0.019720329
28	0xbd0e19a7	-0.034692433
29	0x3d85dcce	0.06536256
30	0x3d3df9e9	0.04638091
31	0x3cf45d25	0.029829571
32	0xbce1097a	-0.02747034
33	0x3d3a9f87	0.045562293
34	0x3c94093b	0.018070808
35	0xbd07de2c	-0.033170864
36	0x3ca12b20	0.019673884
37	0x3d42401c	0.04742442
38	0xbd131485	-0.03590824
39	0xbca470be	-0.02007329
40	0x3d65c288	0.056093723
41	0x3d1c8590	0.038213313
42	0x3d4400ba	0.047852255
43	0x3cd29a3e	0.025708314
44	0xbcb77966	-0.022396754
45	0xbc4aa8ce	-0.012369348
46	0x3d38ca42	0.045114763
47	0x3d32f56f	0.043691095
48	0xbb71441b	-0.0036814276
49	0xbc16536c	-0.009175163
50	0x3c2fa199	0.01071968
51	0xbcbfcc96	-0.023412984
52	0x3d32b01b	0.04362498
53	0xbcbb5867	-0.022869302
54	0x3c800a4f	0.015629916
55	0xbc417af6	-0.011809101
56	0x3d41ece9	0.047345076
57	0x3cf16bec	0.029470406
58	0xbcf644e2	-0.030062143
59	0x3b88937a	0.004167971
60	0xbd02fd10	-0.03197962
61	0x3ce90326	0.028443884
62	0x3d208532	0.039189525
63	0xbd02e4b5	-0.031956393
64	0x3d24a24a	0.040193833
65	0xbc5df411	-0.0135469595
66	0x3c02c9c5	0.007982676
67	0x3c0cb377	0.00858771
68	0xbbcc2f14	-0.006231198
69	0x3d3a4380	0.04547453
70	0x3cb60e7f	0.02222371
71	0x3d4a3509	0.049366985
72	0xbcacec38	-0.021108732
73	0x3d0aaf45	0.033858556
74	0x3d13e056	0.036102615
75	0x3ce26dcd	0.027640248
76	0x3c13e8f0	0.009027705
77	0x3d8c96cf	0.06864702
78	0xbd057759	-0.032584522
79	0xbd0c37a5	-0.034232754
80	0xbc583ebb	-0.01319855
81	0xbc9532bd	-0.01821267
82	0x3d6235e1	0.055227164
83	0x3cc71cf9	0.024305807
84	0x3ce60809	0.028080003
85	0x3c06dac4	0.008230869
86	0x3d1c0b60	0.038096786
87	0xbcdf365b	-0.027247598
88	0xbc84f094	-0.016227998
89	0x3c084885	0.008318071
90	0xbc4aa3a0	-0.012368113
91	0x3d0cc36f	0.034366067
92	0x3d553c48	0.05205944
93	0x3cf039af	0.02932438
94	0xbd0c5886	-0.03426411
95	0x3d14f94f	0.03637057
96	0xbcba10de	-0.022713121
97	0x3d6d8675	0.057989556
98	0xbd1e5326	-0.038653515
99	0x3d2f5fbc	0.04281591
100	0x3d0b491d	0.034005273
101	0xbd34548d	-0.044025946
102	0xbd1d1c75	-0.038357217
103	0xbbe039d4	-0.006842831
104	0x3d891f04	0.06695369
105	0xbcb447ba	-0.022006858
106	0x3d809c34	0.062797934
107	0xbcc754e7	-0.024332477
108	0xbcfca12f	-0.030838577
109	0x3d43e88d	0.0478292
110	0xbb33bf6b	-0.0027427326
111	0x3cc35eca	0.02384891
112	0x3c57e23d	0.013176498
113	0x3d59f0dd	0.05320822
114	0xbd0d7faf	-0.034545597
115	0xbc4e82ce	-0.012604428
116	0xbcb4cf60	-0.02207154
117	0xbc7feb6a	-0.015620092
118	0xbd2c6bf8	-0.042095155
119	0xbd2e5125	-0.042557854
120	0x3d347edc	0.044066295
121	0x3d99b64f	0.07505476
122	0x3cda1b08	0.026624218
123	0x3d113f4b	0.03546075
124	0xbd476108	-0.04867652
125	0xbcd6909a	-0.026191998
126	0x3d1f8acd	0.03895073
127	0x3cdf8c26	0.027288508
128	0x3cc84039	0.024444686
129	0xbd1b3ea8	-0.03790155
130	0x3d1c61aa	0.038179077
131	0x3c7cf379	0.015438908
132	0xbd93dc19	-0.07219715
133	0x3c4529e2	0.012033911
134	0x3c777655	0.015103896
135	0xbd031a67	-0.0320076
136	0x3c82fe48	0.015990391
137	0xbbb3336c	-0.0054687764
138	0xbd27808e	-0.040894084
139	0xbd8b5d35	-0.06804887
140	0xbd4e2569	-0.050328646
141	0x3b44d229	0.0030032492
142	0xbd39d84f	-0.045372304
143	0xbd2f52a2	-0.042803414
144	0xbcc74d47	-0.02432884
145	0x3cc9070f	0.024539499
146	0xbb7214b5	-0.0036938612
147	0xbccaee90	-0.024771959
148	0x3bc1d820	0.0059156567
149	0x3bbd276f	0.005772523
150	0xba722897	-0.0009237616
151	0x3cb2174e	0.021739628
152	0xbd13c5a5	-0.03607716
153	0xbc0722d5	-0.008248051
154	0x3d06c1eb	0.03289978
155	0x3bc33f55	0.0059584775
156	0x3d2cae4c	0.04215841
157	0xbd0b80c8	-0.034058362
158	0xbd3ae6e5	-0.045630354
159	0xbd28cd40	-0.041211367
160	0x3c9384ec	0.018007718
161	0xbd606ce9	-0.054791365
162	0xbc0eabec	-0.008707982
163	0x3d013108	0.0315409
164	0xbc53f111	-0.012935893
165	0xbd52da76	-0.05147787
166	0x3d4f0734	0.05054398
167	0x3ce67ec5	0.02813662
168	0xbd1bbb32	-0.03802032
169	0xbcc936c9	-0.024562256
170	0xbd43dc55	-0.047817547
171	0xbd05c32a	-0.032656826
172	0x3d146199	0.03622589
173	0x3c8e3c25	0.017362664
174	0xbd3ec3f3	-0.04657359
175	0xbd1e97fb	-0.03871916
176	0xbd085009	-0.033279452
177	0x3c858ccc	0.016302489
178	0xbceb81ee	-0.028748479
179	0x3d0746db	0.033026557
180	0xbd0bed11	-0.03416163
181	0x3ce59652	0.02802578
182	0xbc19a4ef	-0.009377702
183	0x3d120c6f	0.03565639
184	0xbd4b0fb7	-0.049575534
185	0xbd1a73ba	-0.03770802
186	0x3cabe26c	0.02098199
187	0xbc6bcc6a	-0.014391998
188	0x3cc774c9	0.02434768
189	0xbcd61844	-0.026134618
190	0xbccafc7d	-0.024778599
191	0x3d0d6965	0.03452434
192	0xbd322ad4	-0.043497875
193	0x3ccfa4ad	0.025347078
194	0xbcf9f9da	-0.030514646
195	0xbc9396b8	-0.018016204
196	0x3cae4f2b	0.021277985
197	0xbd6c38dd	-0.057671417
198	0xbc308586	-0.010774022
199	0xbd1da38d	-0.038486052
200	0x3c73c86c	0.014879327
201	0xbd00a407	-0.03140643
202	0xbd44307c	-0.0478978
203	0xbca76018	-0.020431563
204	0xbcede33e	-0.029039022
205	0xbd7a9156	-0.06117376
206	0x3d04bfb2	0.032409377
207	0x3cd3be6f	0.025847642
208	0x3c79fe29	0.01525835
209	0x3d1fc08d	0.03900199
210	0xbd812032	-0.06304969
211	0xbd0e9136	-0.034806453
212	0xbcf67cc0	-0.030088782
213	0xbbe20b1d	-0.0068982975
214	0xbd350503	-0.044194233
215	0x3cb42237	0.021988971
216	0xbb972e76	-0.004613693
217	0xbcb9eafe	-0.02269506
218	0x3c2b56a4	0.010457668
219	0xbcbeeabb	-0.023305288
220	0xbd2739ef	-0.040826734
221	0xbcd828ae	-0.026386585
222	0x3d2d379e	0.04228937
223	0xbd1f9b65	-0.038966555
224	0x3cc2d4ff	0.023783205
225	0xbd3f3cc2	-0.046688803
226	0x3c8f32bd	0.017480249
227	0xbd2f44d1	-0.042790238
228	0xbd189363	-0.037249934
229	0x3d061ad2	0.03274042
230	0x3d192af0	0.037394464
231	0x3c070bf7	0.008242599
232	0xbd67df0a	-0.05660919
233	0x3baf6fca	0.0053539025
234	0xbd384e68	-0.04499665
235	0x3d04b51c	0.03239928
236	0x3c874653	0.016513025
237	0xbd57cc97	-0.052685346
238	0xbc62480a	-0.013811121
239	0xbd2b9b99	-0.041896436
240	0xbc86164b	-0.016368052
241	0xbd64eb1b	-0.055888277
242	0x3c6505a6	0.0139783975
243	0x3d3ef8de	0.046624057
244	0x3cd86bbc	0.02641856
245	0x3c804ceb	0.015661677
246	0x3cc1b3b8	0.023645267
247	0x3c98792c	0.018612467
248	0xbd5ee0eb	-0.054413717
249	0xbd2419c8	-0.04006365
250	0xbca69f85	-0.020339737
251	0xbd190aff	-0.037364002
252	0x3cdf7554	0.027277626
253	0x3d186ff8	0.037216157
254	0xbce2f68c	-0.027705453
255	0xbcacb506	-0.021082412

action_model._discrete_distribution.branches.2.bias f4 [2]
0	0x3cb6c74e	0.022311833
1	0xbcb6c74c	-0.022311829
