results/PressButton/PressButtonAgent_ImitationLearning/PressButtonAgent/PressButtonAgent-49961.onnx (onnx, 83197 bytes, 11 tensors)

discrete_act_size_vector f4 [1, 3]
0	0x40400000	3.0
1	0x40400000	3.0
2	0x40000000	2.0

network_body._body_endoder.seq_layers.0.weight f4 [128, 6]
0	0xbe156d6b	-0.14592521
1	0x3f0fa966	0.56117857
2	0x3ead1636	0.33806008
3	0xbf873493	-1.0562919
4	0x3e838239	0.2568529
5	0xbe280689	-0.16408743
6	0xbea06a25	-0.31330982
7	0xbec5b921	-0.38617805
8	0xbed85e3d	-0.42259398
9	0xbeba263d	-0.36357298
10	0x3f214072	0.6298896
11	0xbd4e1e95	-0.050322134
12	0x3e0aee16	0.13567385
13	0xbf45d99a	-0.7728516
14	0x3e29649c	0.16542286
15	0x3d1ee424	0.03879179
16	0xbde67870	-0.112534404
17	0xbb90700f	-0.0044078897
18	0x3e6f46cd	0.23366852
19	0xbec5b909	-0.38617733
20	0xbe0e0cf2	-0.13872126
21	0x3e8bb47c	0.27286136
22	0x3e776a9d	0.24161763
23	0xbeaae3fb	-0.3337706
24	0xbf386239	-0.72024876
25	0xbe786294	-0.24256355
26	0x3ea782d7	0.3271701
27	0xbf02d8cc	-0.51112056
28	0xbe19e726	-0.15029582
29	0x3d1b42eb	0.037905615
30	0x3e20e958	0.15714014
31	0x3e1252d9	0.14289416
32	0x3eebf379	0.46084192
33	0xbea7a2d0	-0.32741404
34	0xbe25163a	-0.1612176
35	0xbd580fd5	-0.052749474
36	0x3e1ec116	0.15503344
37	0x3e352e87	0.1769353
38	0x3e72f714	0.23727065
39	0xbda7225e	-0.08160852
40	0x3f2abe0a	0.66696227
41	0xbc867ffc	-0.01641845
42	0x3e263bd0	0.16233754
43	0xbe138a4b	-0.14408223
44	0x3f099135	0.53737193
45	0xbda87c96	-0.08226888
46	0x3f049b8b	0.5179984
47	0xbede6577	-0.43436787
48	0xbe171891	-0.14755465
49	0xbeb234a8	-0.348058
50	0xbe4375af	-0.19087861
51	0x3ec5e39a	0.3865021
52	0xbe14d793	-0.1453536
53	0x3e07ca96	0.13260874
54	0x3e40c48f	0.18824981
55	0xbd452a51	-0.04813606
56	0xbec75da9	-0.38938645
57	0xbf2b4ce9	-0.6691423
58	0x3ef98b56	0.48739117
59	0x3f04a111	0.5180827
60	0x3c7d2d0a	0.015452633
61	0xbe1368e1	-0.14395477
62	0x3eee5562	0.46549517
63	0x3dbbf1a5	0.091769494
64	0xbe4d0ce4	-0.20024449
65	0x3e7cd097	0.24688946
66	0xbf56e26c	-0.8393924
67	0xbdf0c191	-0.1175567
68	0xbecc7c46	-0.39938563
69	0x3db5c79f	0.08875965
70	0xbef506d2	-0.47856766
71	0xbdafe5d5	-0.08588759
72	0xbdfa57ae	-0.12223755
73	0xbe8b7def	-0.27244517
74	0x3e45312b	0.19257037
75	0xbec9e907	-0.39435598
76	0xbcc1c251	-0.023652228
77	0xbf08fba2	-0.5350896
78	0xbdd3e1b6	-0.10345785
79	0x3da3e159	0.08001966
80	0xbe5f503d	-0.21807952
81	0xbe666abe	-0.22501656
82	0x3f1cdb38	0.61272
83	0xbd86dccb	-0.06585082
84	0x3e2ad76e	0.16683742
85	0x3f67107c	0.9025953
86	0xbe0b07b7	-0.13577162
87	0xbe986003	-0.2976075
88	0xbefc8c83	-0.49325952
89	0xbed5b309	-0.41738155
90	0x3f1a2ea7	0.60227436
91	0x3ed05000	0.40686035
92	0xbe6bc2e5	-0.23023565
93	0xbd35a75d	-0.044349063
94	0x3da94a05	0.08266071
95	0x3ed41989	0.41425732
96	0x3f4b6953	0.79457587
97	0x3f55b301	0.83476263
98	0x3e9f5eda	0.31127053
99	0xbeac923e	-0.33705324
100	0x3e063984	0.13107878
101	0x3e6dfa6d	0.23240061
102	0xbdaa7a34	-0.0832409
103	0x3f0ff5ce	0.56234443
104	0x3ec553e6	0.38540572
105	0x3f4ce941	0.8004342
106	0xbdf297b2	-0.1184534
107	0xbdf9b14b	-0.12192019
108	0x3f6fa92c	0.9361751
109	0xbeda5729	-0.42644623
110	0x3ece993c	0.40351284
111	0x3e3367c4	0.17520052
112	0x3dbe9d33	0.09307327
113	0xbd772a48	-0.060343057
114	0xbe6d5a97	-0.23179089
115	0xbf3ea58d	-0.7447136
116	0x3f60748f	0.87677854
117	0x3dad638f	0.08466255
118	0xbd33ee3c	-0.04392837
119	0x3f1df4c7	0.61701626
120	0xbd21504b	-0.039383214
121	0xbf5f7a78	-0.8729625
122	0x3d72028e	0.059084468
123	0xbed7ddbd	-0.4216136
124	0xbe30df33	-0.17272644
125	0xbde3712c	-0.1110557
126	0xbe96ea08	-0.29475427
127	0xbed62e3e	-0.41832155
128	0x3f137f5b	0.57616204
129	0x3e9d371a	0.30706102
130	0x3cf7c6bc	0.030246131
131	0xbd0468e4	-0.032326594
132	0xbe8aee4c	-0.2713493
133	0xbcc5b7ac	-0.024135433
134	0xbecaaf62	-0.3958693
135	0xbee63564	-0.4496261
136	0x3f0ff835	0.5623811
137	0xbe4d58e9	-0.20053448
138	0x3d9941f3	0.07483282
139	0x3daa20b8	0.08307022
140	0x3d242d86	0.040082477
141	0xbe58bad1	-0.21165015
142	0x3f2be57b	0.67147034
143	0xbe6642c6	-0.2248641
144	0xbedf3e97	-0.4360244
145	0x3f261bf5	0.6488641
146	0x3e5edacb	0.2176315
147	0x3d5e0808	0.054206878
148	0x3f0beaee	0.5465535
149	0xbe87dc0e	-0.26535076
150	0xbd88fe0f	-0.06689083
151	0xbe5896a5	-0.21151216
152	0xbe24ddfa	-0.16100302
153	0x3e0ef8dc	0.1396212
154	0xbddf3d83	-0.10900404
155	0xbdd3c08a	-0.10339458
156	0x3f24bb83	0.6434862
157	0xb983fa7f	-0.000251729
158	0xbf835d2f	-1.0262812
159	0xbf3bc9f8	-0.73355055
160	0x3f3bde89	0.73386437
161	0xbdcf0f16	-0.10110299
162	0x3ef74c97	0.4830062
163	0xbefd21ae	-0.49439758
164	0x3f222e55	0.6335195
165	0xbf297d1b	-0.6620652
166	0x3ec0376c	0.37542284
167	0x3e54e680	0.20791054
168	0x3eaffe41	0.34373668
169	0x3f187c8e	0.59565055
170	0xbd9fca2f	-0.07802235
171	0x3e9c3ed4	0.30516684
172	0xbde47aad	-0.11156211
173	0x3e115c92	0.14195469
174	0xbeee6f64	-0.4656936
175	0xbeeefc31	-0.46676782
176	0xbee9a609	-0.45634487
177	0x3f1e54ea	0.6184832
178	0x3ee863e1	0.45388702
179	0x3eba7ffd	0.36425772
180	0x3ea2badf	0.31783196
181	0xbef9370f	-0.4867482
182	0xbe4cf9d5	-0.20017178
183	0xbe41cd83	-0.18926053
184	0x3bcaf0c4	0.0061932523
185	0xbf44f1f8	-0.76931715
186	0xba7c4363	-0.00096230785
187	0x3e2dff55	0.16991933
188	0xbf398cc9	-0.72480446
189	0x3f59b879	0.8504711
190	0xbf485776	-0.78258455
191	0x3ec4855d	0.38382998
192	0x3f018ca5	0.5060523
193	0x3f70c2d7	0.940473
194	0xbf0964ed	-0.53669626
195	0x3dc307a4	0.09522942
196	0x3e79b548	0.2438556
197	0x3efe2092	0.49634224
198	0xbec285f0	-0.3799281
199	0xbddeed47	-0.10885101
200	0xbf471b3a	-0.7777592
201	0x3d84d1bd	0.06485317
202	0xbe8f37b2	-0.2797218
203	0xbe81058c	-0.25199544
204	0xbf40a7f5	-0.7525628
205	0xbe9b694a	-0.30353767
206	0xbed23bc8	-0.41061234
207	0x3f412573	0.7544777
208	0xbdfdc3f5	-0.123908915
209	0x3eb33f6d	0.35009328
210	0x3eb2d05b	0.34924588
211	0x3fa446e1	1.283413
212	0x3f8e92c7	1.1138543
213	0x3f325905	0.69667083
214	0x3ea54248	0.3227713
215	0xbee537a5	-0.44769016
216	0x3eb284c8	0.3486693
217	0xbe9b4f39	-0.3033388
218	0x3d68faf8	0.056879967
219	0xbd59f24e	-0.053209595
220	0xbee8f6d0	-0.45500803
221	0x3f05af89	0.5222097
222	0xbf9e0ca1	-1.2347604
223	0x3f5384fe	0.82624805
224	0xbd770eed	-0.06031697
225	0xbdc8a544	-0.09797147
226	0x3c67ff1f	0.014159947
227	0xbf993134	-1.1968141
228	0xbbc33c85	-0.005958142
229	0xbf24ec3f	-0.6442298
230	0x3eec7db6	0.4618966
231	0x3de7158f	0.11283409
232	0x3c6968c3	0.014246169
233	0xbf828c3c	-1.0199046
234	0x3bcc14df	0.006228074
235	0x3c9185fd	0.017764086
236	0xbf1bc813	-0.60852164
237	0x3e7270c0	0.23675823
238	0xbd7e7df8	-0.062131852
239	0xbe484154	-0.1955617
240	0x3e96aea7	0.29430124
241	0x3f2cd413	0.675111
242	0x3db10ba1	0.08644796
243	0x3f2b8e67	0.67014164
244	0x3cb73578	0.022364363
245	0xbe709bf9	-0.23496999
246	0x3f26bc22	0.6513082
247	0x3ebff3f9	0.37490824
248	0xbf1a4ab4	-0.6027024
249	0xbebe43ed	-0.37161198
250	0x3e50401a	0.20336953
251	0x3ea42bae	0.32064575
252	0x3e954dc3	0.2916089
253	0xbdd59620	-0.10429025
254	0x3e74267a	0.23842803
255	0x3e7c693a	0.24649516

network_body._body_endoder.seq_layers.0.bias f4 [128]
0	0xbc228785	-0.009920006
1	0xbd0699f2	-0.032861657
2	0xbc811431	-0.015756698
3	0xbce95a71	-0.028485509
4	0xbbebe795	-0.0071992376
5	0x3d2948dd	0.041329253
6	0xbc702481	-0.014657141
7	0xbc2c2b2b	-0.010508339
8	0x3cb519bc	0.022106998
9	0x3da96852	0.08271851
10	0x3cd506b0	0.026004165
11	0x3c9b21f4	0.018937089
12	0xbcd09b88	-0.025464788
13	0x3d8539c1	0.06505156
14	0x3d369c7e	0.044582836
15	0x3c976e02	0.018485073
16	0x3cba93c2	0.022775535
17	0xbaff8f45	-0.0019497654
18	0x3d43a501	0.04776478
19	0xba1b3561	-0.0005920735
20	0xbcb338f8	-0.02187775
21	0xbd093728	-0.033499867
22	0x3cda799b	0.026669314
23	0x3d732c65	0.05936851
24	0x3d336f6e	0.04380744
25	0xbc29e595	-0.010369678
26	0x3d5ae268	0.053438574
27	0x3d815e12	0.063167706
28	0x3c4421b4	0.011970926
29	0xbcb092aa	-0.02155431
30	0xbca8c4e0	-0.02060169
31	0x3cfc4f83	0.030799633
32	0x3d34e970	0.044167936
33	0x3d36f93f	0.044671293
34	0x3d1c40c5	0.038147707
35	0x3d00d1e5	0.03145017
36	0x3d1ed6c5	0.03877904
37	0x3c79e482	0.015252234
38	0xbd31bf9d	-0.043395627
39	0x3d0796b2	0.0331027
40	0x3cc568cb	0.02409782
41	0x3d3f383e	0.046684496
42	0xbbc37b34	-0.0059656147
43	0x3d0cddab	0.034391087
44	0x3ce18df3	0.027533507
45	0x3ccfcbc5	0.02536572
46	0xbce4a580	-0.027910948
47	0xbcbeac67	-0.023275567
48	0x3cebff77	0.028808339
49	0x3d1235c6	0.035695814
50	0xbcf661a6	-0.03007586
51	0x3d1aa1db	0.037752014
52	0x3ccef893	0.025265014
53	0x3d06e25d	0.03293072
54	0xbc0e6387	-0.008690721
55	0x3c06388e	0.008192195
56	0x3d3b887e	0.045784466
57	0xbc131460	-0.008977026
58	0x3ca3601b	0.019943288
59	0x3cbf2996	0.02333526
60	0xbcd8f2b4	-0.026482917
61	0xbb15f8a3	-0.0022883795
62	0xbd411241	-0.04713655
63	0xbc9f0b2b	-0.019414505
64	0x3ca23048	0.019798413
65	0x3cc1cdb3	0.023657655
66	0x3d4b51ee	0.04963868
67	0xbc4fd54a	-0.012685129
68	0x3c94204f	0.018081812
69	0x3d69377a	0.056937672
70	0xbc32713d	-0.010891256
71	0x3c51075b	0.012758101
72	0x3d14815e	0.036256187
73	0xbc0c514a	-0.008564303
74	0x3cc83094	0.024437226
75	0x3d568818	0.052375883
76	0x3cb15df8	0.021651253
77	0xbc687bbe	-0.014189659
78	0x3d5707aa	0.052497543
79	0x3cf70722	0.030154768
80	0x3cba21a2	0.022721115
81	0x3ba9d114	0.0051823948
82	0xbd005835	-0.03133412
83	0x3d276a06	0.040872596
84	0xbc829ef0	-0.015944928
85	0x3d28c93e	0.041207545
86	0x3d570592	0.052495547
87	0xbd2ce228	-0.042207867
88	0x3d261524	0.040547505
89	0xbb8a5abf	-0.0042222436
90	0x3d28b028	0.04118362
91	0x3c243442	0.010022225
92	0x3c9b47be	0.018955108
93	0xbc426372	-0.01186453
94	0xb86688b2	-5.496358e-05
95	0xbc5500e2	-0.013000699
96	0x3d57575f	0.052573558
97	0x3ca4b95d	0.02010792
98	0x3ccc02be	0.024903651
99	0x3c8d338c	0.017236494
100	0x3cb5307b	0.022117844
101	0xbcf1711e	-0.029472884
102	0x3d102f3a	0.03520129
103	0x3c644193	0.01393165
104	0x3d32364b	0.04350881
105	0xbc8565f2	-0.016283963
106	0x3ce65944	0.028118737
107	0x3b62d403	0.0034611232
108	0x3cec5747	0.02885021
109	0x3d75b240	0.059984446
110	0xbcc5448e	-0.024080541
111	0xbbed989e	-0.0072508594
112	0xbce0f360	-0.0274598
113	0xbb6521c3	-0.003496275
114	0xbcdc5a3f	-0.026898501
115	0xbd158cc6	-0.036511205
116	0x3ceeaf25	0.02913625
117	0x3c1cf0fe	0.009578941
118	0x3d722a46	0.059122346
119	0x3d4302a6	0.047609948
120	0x3cf5e42a	0.030016024
121	0xbcce7051	-0.025200041
122	0x3d13134f	0.035907086
123	0x3ccc2d8b	0.02492406
124	0x3c5498f9	0.012975925
125	0x3d22e8d3	0.03977282
126	0xbc4cfb28	-0.012511052
127	0x3cf576f6	0.029963952

network_body._body_endoder.seq_layers.2.weight f4 [128, 128]
0	0xbcaae276	-0.020859938
1	0x3a0b7316	0.00053195783
2	0xbe0a2e45	-0.13494213
3	0x3c1672c1	0.009182633
4	0xbdaad66f	-0.08341681
5	0x3e1ccd92	0.15312794
6	0x3dd93c65	0.106072225
7	0x3d3ecc5e	0.04658162
8	0xbd79d71b	-0.060996156
9	0x3e01cb8d	0.12675305
10	0xbde07e68	-0.1096161
11	0xbe85ebf7	-0.2615659
12	0xbcf88879	-0.030338513
13	0xbccf4cd0	-0.025305182
14	0x3c113df3	0.0088648675
15	0x3d921a31	0.07133902
16	0x3e2f75d7	0.17134796
17	0x3cf06c97	0.029348655
18	0x3e225726	0.15853557
19	0xbc9b93bd	-0.018991346
20	0xbb3d8109	-0.0028916022
21	0xbd2cf877	-0.042229142
22	0xbcd84f4d	-0.026405001
23	0x3e170a77	0.14750086
24	0x3e0d9134	0.13824922
25	0xbde4ec5a	-0.11177893
26	0xbc470490	-0.012147084
27	0x3d8efcc5	0.06981806
28	0xbda0f415	-0.07859055
29	0xbdac8b49	-0.08425004
30	0x3bbb935a	0.005724353
31	0x3e2cd18c	0.16876811
32	0x3de90d90	0.1137954
33	0xbe25596a	-0.1614739
34	0xbd39ff4f	-0.045409497
35	0xbbcc9316	-0.00624312
36	0x3da77d66	0.08178215
37	0xbbde9560	-0.006792709
38	0xbe200bc4	-0.15629488
39	0x3dd68709	0.10474975
40	0x3d828edd	0.06374905
41	0x3d4e268e	0.050329737
42	0x3cf62e3c	0.030051343
43	0x3df9f4f4	0.12204924
44	0xbd8dce40	-0.06924105
45	0x3cfdd148	0.030983582
46	0xbba294e6	-0.0049615977
47	0xbcdb9690	-0.026805192
48	0x3d17d079	0.03706405
49	0x3d057da7	0.032590535
50	0xbdc12d8b	-0.09432515
51	0x3ac99b39	0.0015381343
52	0xbd060246	-0.032717012
53	0xbcb38feb	-0.021919211
54	0xbdc6fb6e	-0.09715925
55	0xbe6fc82f	-0.23416208
56	0xbcfedaef	-0.031110255
57	0x3d809049	0.0627752
58	0x3d9bb941	0.07603694
59	0xbe15061f	-0.14553116
60	0x3ced8ac6	0.028996836
61	0xbd73ebca	-0.059551038
62	0xbdd67892	-0.10472216
63	0x3db8c75b	0.09022399
64	0xbd3f497b	-0.046700936
65	0xbbde4cd1	-0.0067840596
66	0x3dd79c58	0.10527867
67	0x3cb7e494	0.022447862
68	0xbcb925fd	-0.022601122
69	0x3dd28910	0.10280049
70	0xbcda148b	-0.026621124
71	0x3ddc3fbc	0.10754344
72	0x3c967062	0.018364135
73	0xbe73c9c4	-0.23807436
74	0xbd88da99	-0.06682319
75	0xbce53553	-0.027979529
76	0xbdf73321	-0.12070299
77	0x3d825115	0.063631214
78	0xbc5f84a7	-0.013642467
79	0x3d883046	0.066498324
80	0xbe8ef397	-0.2792022
81	0x3e094573	0.13405399
82	0xbd82159e	-0.063517794
83	0x3d3978d0	0.04528123
84	0x3e17de48	0.14830887
85	0x3d5759f6	0.052576028
86	0x3dc0ce4c	0.09414348
87	0x3dca1bf2	0.098686114
88	0x3e7f8647	0.24953566
89	0x3da71c36	0.08159678
90	0x3d79508e	0.06086784
91	0xbcb4cb39	-0.02206956
92	0x3d223369	0.03959981
93	0x3e2da190	0.16956162
94	0xbcd3c862	-0.025852386
95	0xbd420064	-0.047363654
96	0x3d9e1689	0.07719142
97	0xbdeb6962	-0.114947096
98	0x3cdf7e39	0.027281867
99	0x3d76e269	0.060274515
100	0xbd7f201e	-0.06228649
101	0x3d3673c5	0.044544
102	0x3dab0914	0.08351341
103	0xbcb3617f	-0.021897076
104	0x3e09b3da	0.13447514
105	0x3d589f52	0.052886315
106	0x3d3191ec	0.043352053
107	0xbe597291	-0.2123511
108	0xbe65db19	-0.2244686
109	0x3d9ea18f	0.077456586
110	0x3da54284	0.080693275
111	0x3ce815c4	0.028330691
112	0xbd26c14f	-0.040711697
113	0x3d9a95cc	0.07548103
114	0x3da8dbb4	0.0824503
115	0xbdc27c1a	-0.09496327
116	0x3cc13c0f	0.023588208
117	0xbd946d29	-0.07247383
118	0x3e1f342d	0.15547247
119	0x3e06dd92	0.1317046
120	0xbdc4abec	-0.09603104
121	0xbd83a15d	-0.06427262
122	0x3db6e73d	0.08930824
123	0xbe009d2b	-0.12559955
124	0xbc8290f3	-0.015938258
125	0xbd860405	-0.065437354
126	0xbe05c2ce	-0.13062593
127	0x3dca4666	0.09876709
128	0xbc1bf087	-0.009517795
129	0x38f3edc7	0.000116314324
130	0xbd0ce43f	-0.03439736
131	0x3e01724e	0.1264126
132	0x3d255fff	0.040374752
133	0xbd28f846	-0.041252397
134	0x3e1152a4	0.14191681
135	0x3e2deedb	0.16985647
136	0xbddca4e4	-0.10773638
137	0x3cef7f06	0.029235374
138	0x3db92e6c	0.090420574
139	0x3e27bc09	0.16380323
140	0xbe0fc681	-0.14040567
141	0xbbb7bc6e	-0.0056071794
142	0xbd0299a1	-0.031884793
143	0x3bd7f708	0.0065907277
144	0x3e3e1896	0.18564066
145	0xbce8baeb	-0.028409442
146	0x3c6dbc9e	0.014510302
147	0xbdc129c2	-0.09431793
148	0xbda8b2b1	-0.08237208
149	0xbe0ba7cf	-0.13638233
150	0xbcfd9001	-0.030952455
151	0x3d67b63c	0.056570277
152	0xbd2357a9	-0.03987852
153	0xbdf9b725	-0.12193135
154	0x3cc4bede	0.024016794
155	0x3deae7ad	0.1146997
156	0xbc86eaeb	-0.01646944
157	0xbe286d05	-0.16447838
158	0xbe28ff58	-0.16503656
159	0xbbf133ac	-0.007360896
160	0x3dc9d323	0.09854724
161	0x3cf4b9c1	0.02987373
162	0xbda138b1	-0.07872141
163	0x3e0fbd7a	0.14037123
164	0xbcbefd8c	-0.02331426
165	0xbdd75a07	-0.10515218
166	0x3da143af	0.07874238
167	0xbd96bb8a	-0.07359989
168	0xbd677e4c	-0.05651693
169	0xbcffebcc	-0.031240366
170	0xbdd93b7d	-0.106070496
171	0xbc82747d	-0.015924687
172	0x3ba9643b	0.005169419
173	0xbc9d0218	-0.019166037
174	0xbc73f4b4	-0.014889885
175	0xbddf3fb6	-0.10900824
176	0xbe009244	-0.12555796
177	0x3e7fb5f5	0.24971755
178	0xbd1c19db	-0.038110595
179	0xbdcbf0f8	-0.099580705
180	0xbdebf48c	-0.11521253
181	0x3e62a3c8	0.2213279
182	0x3bdcdbea	0.006740083
183	0xbe39a392	-0.18128803
184	0xbdc07803	-0.093978904
185	0x3c371d7c	0.011176463
186	0xbd9bb645	-0.076031245
187	0xbc9cfda9	-0.019163923
188	0xbe5e30ab	-0.21698253
189	0x3d64737d	0.0557742
190	0xbcf00562	-0.029299442
191	0x3c630102	0.013855221
192	0x3d993f31	0.07482756
193	0x3ce21b99	0.02760105
194	0x3e011a95	0.12607796
195	0xbe5338b0	-0.20627093
196	0xbaae175b	-0.0013282107
197	0x3d094b54	0.033519104
198	0xbd8c5409	-0.06851966
199	0xbd76280e	-0.060096793
200	0xbd4e2b91	-0.050334517
201	0xbe5e2a00	-0.21695709
202	0xbe1acd64	-0.15117413
203	0x3e215035	0.15753253
204	0xbe0ad4f5	-0.13557799
205	0x3e5750bf	0.21026896
206	0xbc896d59	-0.016775774
207	0xbe43593e	-0.19077012
208	0xbd85f581	-0.06540967
209	0xbda0433f	-0.07825326
210	0xbe2411fb	-0.16022484
211	0x3e1fedf3	0.15618114
212	0x3dc57b41	0.096426494
213	0xbb998f41	-0.0046862666
214	0xbe26e40c	-0.1629793
215	0xbe177d04	-0.14793783
216	0x3d98a2e6	0.074529454
217	0x3dbb48fb	0.09144779
218	0x3ddee1a8	0.10882884
219	0xbe1d0d05	-0.15336998
220	0xbe082cf9	-0.13298406
221	0xbd483584	-0.04887916
222	0xbb876f60	-0.00413315
223	0xbd050645	-0.032476682
224	0xbd68e833	-0.056862067
225	0xbdbaa0ca	-0.09112699
226	0x3cc5e30b	0.024156114
227	0xbddb1c98	-0.10698813
228	0xbd008cda	-0.031384327
229	0xbe5936e9	-0.21212353
230	0x3d94a269	0.0725754
231	0x3da0103d	0.07815597
232	0x3dee36ee	0.11631571
233	0x3d014a16	0.031564794
234	0xbe27630f	-0.16346382
235	0xbdaf3a3c	-0.08556029
236	0x3e1c27f3	0.15249614
237	0x3ddc9674	0.10770884
238	0xbbbc0fdb	-0.005739195
239	0x3db93379	0.09043021
240	0x3d5d3968	0.054009825
241	0x3daf1cc2	0.08550407
242	0xbdeb9023	-0.11502101
243	0x3dd0d180	0.10196209
244	0x3d03ab95	0.032146055
245	0xbc0a1444	-0.008427683
246	0xbc03c0fb	-0.008041616
247	0x3e5303bd	0.20606895
248	0xbd0b6f55	-0.03404172
249	0xbdbbc569	-0.091685124
250	0x3d3c49df	0.045968886
251	0xbd8bcd45	-0.068262614
252	0x3dc4bf3b	0.09606787
253	0x3d51bde4	0.051206484
254	0xbe2bc22d	-0.16773291
255	0x3cacc40f	0.021089582

network_body._body_endoder.seq_layers.2.bias f4 [128]
0	0x3c49bc4e	0.012312962
1	0x3cf1d4f0	0.029520482
2	0xbc21241b	-0.009835268
3	0x3cd27f00	0.025695324
4	0xbc6bda75	-0.014395346
5	0x3b70b75a	0.003673038
6	0x3d24ad5a	0.040204383
7	0x3cf868f7	0.030323489
8	0xbb5f4fd7	-0.0034074688
9	0x3d2d18bb	0.042259913
10	0x3cdc6128	0.026901796
11	0x3cc343de	0.023836073
12	0xbba9f63a	-0.005186823
13	0x3d1516e5	0.036398787
14	0xbb6bbb9c	-0.0035969978
15	0x3cb443d6	0.022005003
16	0xbc12d4d6	-0.008961877
17	0x3cc9a851	0.024616392
18	0x3cacd5b5	0.021097997
19	0x3c2d9cb6	0.010596445
20	0x3cc33ebe	0.023833629
21	0x3cca661f	0.024706898
22	0x3d232c51	0.039837185
23	0x3d282095	0.041046698
24	0xbc017236	-0.007900765
25	0x3ce0951d	0.027414853
26	0x3c5b9701	0.013402701
27	0x3c20997c	0.0098022185
28	0x3cc20abf	0.023686765
29	0x3cdfb8c7	0.027309788
30	0xbc66f1c1	-0.014095725
31	0x3d0e92e1	0.034808043
32	0x3cda8f1e	0.026679572
33	0xbc8c276d	-0.017108643
34	0xbbe43969	-0.0069648516
35	0xbbb191bc	-0.005418984
36	0x3c320b97	0.010867021
37	0x3c71bb7e	0.014754174
38	0x3d04117d	0.03224324
39	0x3cb89d07	0.022535814
40	0x3c022db2	0.007945465
41	0x3cef3106	0.02919818
42	0x3cde097e	0.027104136
43	0x3cdddd64	0.027083106
44	0x3cab310a	0.020897407
45	0xbc933797	-0.017970843
46	0x3d04e2e5	0.032442946
47	0x3cc99fcd	0.024612332
48	0xbcae69d1	-0.021290692
49	0x3d0b8062	0.034057982
50	0x3d03fe98	0.03222522
51	0x3cfb473a	0.030673612
52	0x3c9ecda8	0.019385174
53	0x3d029554	0.03188069
54	0x3d45441e	0.048160665
55	0x3ce6637f	0.028123615
56	0x3cc828f0	0.024433583
57	0x3c538740	0.012910664
58	0x3d32e893	0.04367883
59	0x3c8428e4	0.01613278
60	0x3d1b73cf	0.03795224
61	0xbc1fe281	-0.009758593
62	0xbc5bdfe6	-0.013420081
63	0x3cccd9ec	0.025006257
64	0x3cf49b8b	0.029859325
65	0x3d48e21c	0.04904376
66	0x3d0a284e	0.033729844
67	0x3c1ed3ed	0.009694082
68	0x3c8d462d	0.017245376
69	0xbbe2c804	-0.0069208164
70	0xbb65ca7f	-0.0035063324
71	0xbc527d63	-0.012847277
72	0x3c86f51c	0.0164743
73	0xbbc6994f	-0.0060607563
74	0xbc093f86	-0.008376962
75	0x3cf3d3a6	0.029764008
76	0x3cd0e1a1	0.025498213
77	0x3d1c836a	0.038211264
78	0x3cdbc086	0.0268252
79	0x3d1145e0	0.03546703
80	0xbc595473	-0.013264763
81	0x3cb6a9c3	0.022297746
82	0xbc6672d5	-0.014065464
83	0x3d0837c8	0.033256322
84	0x3d038230	0.03210658
85	0xbc323203	-0.010876182
86	0x3d1e170f	0.03859621
87	0xbc11cf13	-0.008899468
88	0x3c85005c	0.016235523
89	0x3d1df703	0.038565647
90	0x3c795e24	0.015220199
91	0xbbadaa89	-0.0052998704
92	0x3cdbdaae	0.026837673
93	0x3d116161	0.03549326
94	0xbc5f056b	-0.013612132
95	0x3c8cac2d	0.017171944
96	0xbb91f79d	-0.0044545666
97	0x3d020c68	0.031750113
98	0xbbdd4981	-0.006753147
99	0x3d18a704	0.037268654
100	0x3ca43a0f	0.020047216
101	0x3c32108f	0.010868206
102	0x3bedb12f	0.007253788
103	0xbc6b1f4d	-0.014350724
104	0xba33828c	-0.0006847761
105	0x3c04dbb2	0.00810902
106	0x3d111c71	0.035427514
107	0x3ca3ccc3	0.019995099
108	0x3bba2f9a	0.005681944
109	0xbc5a237f	-0.013314127
110	0xbc1353b9	-0.008992129
111	0x3cb950ad	0.022621477
112	0x3cead049	0.028663771
113	0x3bb891a3	0.0056325956
114	0x3c5cd637	0.013478807
115	0xbab2f289	-0.0013652603
116	0x3cbc781f	0.023006497
117	0x3c365800	0.011129379
118	0xbc5d3cc9	-0.013503262
119	0xbbcba497	-0.006214689
120	0x3c9a60ce	0.018844988
121	0x3ceff942	0.02929366
122	0x3cc3b15a	0.023888279
123	0x3c076991	0.008264915
124	0x3cc08360	0.023500144
125	0xbbd89e96	-0.006610702
126	0x3ca78a6b	0.020451745
127	0xbc4bb0dc	-0.012432303

action_model._discrete_distribution.branches.0.weight f4 [3, 128]
0	0xbc3c3d0b	-0.011489163
1	0xbb9626a2	-0.004582242
2	0x3caa10a1	0.020759882
3	0xbbdc0ada	-0.006715161
4	0x3c14bfc6	0.0090789255
5	0xbd1a1581	-0.037618164
6	0x3b5db1b1	0.0033827836
7	0xbcbff8d4	-0.02343408
8	0x3c67ad7d	0.014140484
9	0x3d1cf0c6	0.038315557
10	0xbd3d752a	-0.046254314
11	0xbc177fc9	-0.009246775
12	0x3d23f8f7	0.040032353
13	0xbc822ef0	-0.015891522
14	0x3cd30e05	0.025763521
15	0xbcedd10f	-0.029030351
16	0x3cbaef4a	0.02281918
17	0x3d3218a2	0.043480523
18	0xbcd73c11	-0.02627376
19	0xbd362c42	-0.0444758
20	0xbccf987a	-0.025341261
21	0xbcb6d833	-0.022319889
22	0x3c8dfea6	0.01733334
23	0x3d073cd0	0.03301698
24	0x3bbe5982	0.00580901
25	0xbca9c0ae	-0.02072176
26	0xbcc5c09d	-0.024139697
27	0xbd1b3b9d	-0.03789865
28	0xbcdbf40e	-0.026849773
29	0xbc96cff9	-0.018409716
30	0x3d10fee5	0.035399336
31	0xbc1f0585	-0.009705906
32	0xbc35cfd5	-0.011096914
33	0x3d0e0393	0.034671377
34	0x3c6cb6f3	0.014447915
35	0x3c95c6df	0.018283306
36	0xbd3e9e9e	-0.046537988
37	0xbc8347ad	-0.016025389
38	0xbd1cc583	-0.0382743
39	0xbcd51c86	-0.026014578
40	0x3ce2ed81	0.027701141
41	0x3beffd4a	0.0073238956
42	0xbcb04def	-0.021521537
43	0xbcd57d4d	-0.026060725
44	0x3cd2ac08	0.025716797
45	0x3d080cb2	0.033215232
46	0xbd2907c6	-0.04126718
47	0xbd13a363	-0.03604449
48	0x3b7ca105	0.0038548124
49	0x3c9946f3	0.018710589
50	0xbc7f3500	-0.015576601
51	0x3c3310cc	0.010929298
52	0xbc185cb5	-0.009299447
53	0xbd7cf468	-0.06175652
54	0x3d3fa164	0.046784773
55	0xbbad43af	-0.0052876095
56	0x3be245d9	0.006905299
57	0xbd16c3f0	-0.036807954
58	0x3d1dcda8	0.038526207
59	0xbcea353c	-0.028589837
60	0x3c10f4f4	0.008847464
61	0x3c939752	0.018016491
62	0x3ce4d59e	0.027933892
63	0xbc87fe5a	-0.016600776
64	0xbc7c98a4	-0.015417252
65	0x3cffea09	0.031239526
66	0xbc8e897e	-0.017399546
67	0xbcb2220c	-0.02174475
68	0xbcbc1bd3	-0.022962486
69	0x3c711278	0.014713876
70	0xbce03a8b	-0.027371665
71	0x3c228569	0.009919503
72	0x3d1282cf	0.03576928
73	0xbb8802b9	-0.004150715
74	0x3c992e20	0.018698752
75	0xba74ddad	-0.00093408936
76	0xbc51c404	-0.012803081
77	0xbc3714c3	-0.011174384
78	0xbc43c673	-0.011949169
79	0x3b287004	0.0025701532
80	0xbbe2f0bd	-0.006925671
81	0xbca8fe1e	-0.020628985
82	0x3afb8512	0.0019189438
83	0xbcaae1a2	-0.020859543
84	0xbcb68aa4	-0.022282906
85	0x3d2262ea	0.039645113
86	0x3c70b133	0.014690685
87	0x3b3956f0	0.0028280579
88	0xbcc8185d	-0.02442568
89	0x3d8b2bf9	0.067954965
90	0xbc1cbbc0	-0.009566247
91	0x3c8ac880	0.016941309
92	0xbc2781ba	-0.0102238
93	0x3c9ee9d7	0.019398613
94	0x3c3d89ec	0.011568528
95	0xbc41c188	-0.011825927
96	0x3d002bec	0.031291887
97	0xbd0d9910	-0.0345698
98	0x3d3e7f0e	0.046507888
99	0x3cb377dd	0.021907741
100	0xbd100fb5	-0.03517123
101	0xbccde25a	-0.025132347
102	0xbd3e498a	-0.04645685
103	0x3d27e839	0.04099295
104	0xbc52ff6a	-0.012878278
105	0x3c10fda2	0.008849533
106	0xbc9f0cd7	-0.019415302
107	0xbd3aedc2	-0.0456369
108	0xbcd38331	-0.025819393
109	0x3c9cecec	0.019155942
110	0x3b892764	0.004185604
111	0xbd62479f	-0.055244084
112	0xbcf38ba9	-0.029729681
113	0x3bac4cc7	0.005258176
114	0xbcb0526e	-0.02152368
115	0x3cf3461a	0.029696513
116	0xbc8aa48f	-0.01692417
117	0x3cc6f3f4	0.024286248
118	0x3c869c28	0.016431883
119	0x3c06fe50	0.008239344
120	0xbd3829e5	-0.04496183
121	0xbcd17086	-0.02556635
122	0xbcb4e8e8	-0.022083715
123	0x3c9b6e76	0.01897357
124	0xbc0db82b	-0.008649866
125	0x3d0c9ae6	0.03432741
126	0xbc0a6a5f	-0.008448212
127	0x3c829b53	0.015943205
128	0xbd90b809	-0.07066352
129	0xbd815b57	-0.0631625
130	0x3c0a827b	0.0084539605
131	0x3b8d8196	0.0043184264
132	0x3bf00276	0.007324512
133	0x3d25f026	0.040512227
134	0xbd4b5513	-0.04964168
135	0x3be5c2d8	0.0070117526
136	0xb92a02f0	-0.00016213558
137	0xbd8ce5b2	-0.068797484
138	0x3c16f538	0.009213738
139	0x3c44cb31	0.012011335
140	0xbc9f6d90	-0.019461423
141	0x3b0707ad	0.002060394
142	0xbc775374	-0.01509558
143	0x3cd0d4ed	0.025492156
144	0xbc5b09a8	-0.013369001
145	0xbd1a90b7	-0.037735667
146	0x3ca3f35e	0.020013507
147	0x3d04fa97	0.032465544
148	0x3c0da8e1	0.008646221
149	0x3c87dcfa	0.016584862
150	0xbd45d3f9	-0.048297856
151	0xbd180fb4	-0.03712435
152	0xbbdc8ab9	-0.006730404
153	0x3c58d374	0.013234008
154	0x3cc46fbf	0.023979066
155	0x3d1a25fa	0.037633874
156	0x3d0c797d	0.034295548
157	0x3c918e10	0.017767936
158	0x3a4290a9	0.0007422069
159	0x3d53e904	0.051735893
160	0xbc527624	-0.01284555
161	0xbb083bd8	-0.0020787623
162	0x3c98b0b1	0.01863894
163	0xbc01453f	-0.007890045
164	0x3cda5dcb	0.026656052
165	0xbb9cebb6	-0.004788841
166	0x3c09e921	0.008417399
167	0x3c75526d	0.014973265
168	0xbc1ea6c0	-0.009683311
169	0xbce96147	-0.028488768
170	0xbbe90948	-0.007111702
171	0x3cc34156	0.023834866
172	0xbc886d0e	-0.016653564
173	0xbd24d82c	-0.04024522
174	0x3c29fe48	0.010375567
175	0x3bf73c81	0.0075450544
176	0x3882aa92	6.230654e-05
177	0xbc014f66	-0.007892465
178	0xbbb8427e	-0.005623161
179	0xbd1e4b2d	-0.038645912
180	0x3c8a8f43	0.016914016
181	0x3da4568f	0.08024322
182	0xbd604fbc	-0.05476354
183	0xbb02107c	-0.0019846251
184	0xbd970b17	-0.07375162
185	0x3c942527	0.018084122
186	0xbd67b99e	-0.056573503
187	0x3ca20232	0.019776437
188	0x398b327d	0.00026549763
189	0x3bc58d3e	0.0060288003
190	0x3cab9156	0.020943325
191	0x3c328f3e	0.010898409
192	0x3bc7da05	0.006098988
193	0xbd6efbb7	-0.058345523
194	0xbbce9cb8	-0.0063053034
195	0x3be358af	0.006938062
196	0x3c5f75bc	0.01363891
197	0xbc4db10e	-0.01255442
198	0x3cdff617	0.027339024
199	0xbc5260a3	-0.012840423
200	0xbd3d6d31	-0.04624671
201	0xbc19a4ea	-0.0093776975
202	0xbcf0b4ce	-0.02938309
203	0x3ca979cb	0.020687958
204	0x3c7009d4	0.014650781
205	0x3b0c3702	0.0021395092
206	0x3b293cf2	0.002582368
207	0xbd7337f6	-0.05937954
208	0x3cb0f390	0.021600515
209	0x3c584b08	0.013201483
210	0xbcb297c0	-0.021800876
211	0x3d613968	0.054986387
212	0x3b01cf2c	0.0019807322
213	0xbc2c03f4	-0.010498989
214	0xbd291b01	-0.04128552
215	0xbabdf251	-0.0014491772
216	0xbac106e2	-0.0014726783
217	0xbd808f85	-0.06277374
218	0x3c3b18c3	0.011419478
219	0xbd14ac49	-0.036297116
220	0x3c623291	0.013806001
221	0xbd50153b	-0.050801497
222	0xbb3e5cb3	-0.0029046952
223	0x3d1fd0fd	0.039017666
224	0xbae343c1	-0.0017338918
225	0x3d06306b	0.03276102
226	0xbd73a112	-0.05947978
227	0xbd106fbf	-0.03526282
228	0x3c89aeb1	0.016806932
229	0x3ca8c92f	0.020603744
230	0x3d0772df	0.033068534
231	0x3c0dd7be	0.008657394
232	0xbbd2b969	-0.006430794
233	0xbd649514	-0.055806234
234	0xb9b12bb2	-0.00033792626
235	0x3bdcf213	0.0067427247
236	0x3c3fda93	0.011709827
237	0xbce57dbe	-0.02801406
238	0xbc18ef8b	-0.009334455
239	0x3d4d8cab	0.05018298
240	0x3cdaab18	0.026692912
241	0xbb052a9d	-0.002031959
242	0x3cd2c48f	0.025728492
243	0xbca7223f	-0.020402072
244	0x3cc80465	0.024416158
245	0xbd6803bd	-0.05664419
246	0xbc47eb4c	-0.012202095
247	0xbceedbd3	-0.029157555
248	0x3cf9dea9	0.03050168
249	0x3c456929	0.012048998
250	0x3c8662b5	0.016404489
251	0xbd1cbd96	-0.03826674
252	0x3d01af88	0.03166154
253	0xbaf4a091	-0.0018663575
254	0x3c761efd	0.015022037
255	0x3b7df7f2	0.0038752523

action_model._discrete_distribution.branches.0.bias f4 [3]
0	0xbc4f0e27	-0.0126376515
1	0x3c1ea70c	0.009683382
2	0xbcaed64d	-0.021342421

action_model._discrete_distribution.branches.1.weight f4 [3, 128]
0	0x3c1197be	0.008886276
1	0x3cc717e6	0.024303388
2	0xbc8df9da	-0.017331053
3	0x3d00d157	0.031449642
4	0xbd1e2754	-0.038611725
5	0xbcce1866	-0.025158118
6	0x3d03ecaf	0.03220814
7	0x3d017183	0.031602394
8	0xbc74d857	-0.014944158
9	0x3cf5f41d	0.030023629
10	0x3c937b12	0.01800302
11	0x3d49d711	0.04927737
12	0xbcced14e	-0.025246289
13	0x3d29b7fb	0.041435223
14	0xbc22249e	-0.0098964255
15	0x3cc0536a	0.023477275
16	0xbcecfe1c	-0.028929763
17	0x3c5b07ad	0.013368529
18	0x3d139039	0.036026213
19	0x3cbb3d7f	0.022856472
20	0x3d0c3ccf	0.03423768
21	0x3c9401da	0.01806729
22	0x3cd02c88	0.02541186
23	0xb91c3053	-0.00014895322
24	0xbc86ae7c	-0.016440623
25	0x3d0e8a87	0.03480008
26	0x3c85392b	0.016262611
27	0x3d20f5fa	0.03929708
28	0x3d12e10b	0.03585915
29	0x3d4d604e	0.05014067
30	0xbcd76e0e	-0.026297595
31	0xbc8c167f	-0.01710057
32	0x3cc0181f	0.023449002
33	0xbcc67997	-0.0242279
34	0xbd01fbb4	-0.031734183
35	0xbcfe1c38	-0.031019315
36	0x3b749082	0.0037317579
37	0x3cdf2b8a	0.02724244
38	0x3cf016f9	0.02930783
39	0x3cf241bc	0.02957236
40	0xbc9c82c7	-0.019105328
41	0xbc0393c8	-0.008030839
42	0x3ce18dc9	0.027533429
43	0x3bebe0cf	0.00719843
44	0xbcc20c1f	-0.02368742
45	0xbc8ac60a	-0.016940136
46	0x3d0eae34	0.0348341
47	0x3ce4192f	0.02784404
48	0xbcbb52c3	-0.022866612
49	0xbc979c44	-0.01850713
50	0x3cc28887	0.023746742
51	0x368bd600	4.1674357e-06
52	0x3d110e5c	0.035414085
53	0xbcb6e774	-0.022327162
54	0xbb5b5b8d	-0.0033471317
55	0x3d09c151	0.033631627
56	0x3d25fe02	0.040525444
57	0x3cc3561c	0.023844771
58	0xbcc8103e	-0.024421807
59	0x3c61490d	0.013750327
60	0x3d04bfb9	0.032409403
61	0xbcec6398	-0.028856084
62	0xbce46d9d	-0.027884299
63	0x3cc545d5	0.02408115
64	0x3cc1190a	0.02357151
65	0xbc69263c	-0.014230307
66	0x3d01ead3	0.031718086
67	0x3c56c3a2	0.013108166
68	0x3cb8a4d5	0.022539536
69	0xbcf469ca	-0.0298356
70	0xbcc9f838	-0.024654493
71	0xbd1e7af6	-0.038691483
72	0x3c89be63	0.016814416
73	0xbca9db58	-0.020734474
74	0xbd0353b4	-0.032062247
75	0xbbc75d1d	-0.006084098
76	0x3cfe7fbc	0.031066768
77	0x3d078360	0.033084273
78	0x3cc1bc43	0.02364934
79	0x3caf4f19	0.021400021
80	0xbc381881	-0.011236311
81	0x3cf64d9f	0.03006631
82	0xbc81feb4	-0.015868522
83	0xbcbb7a38	-0.022885427
84	0x3d23f269	0.040026102
85	0xbcd761a4	-0.026291676
86	0x3c9715b0	0.018442959
87	0x3b2546c3	0.002521918
88	0x3d0f95de	0.035055034
89	0xbb5cf039	-0.003371252
90	0xbb1e688c	-0.0024171202
91	0xbc9fb9f2	-0.019497845
92	0x3cdc1649	0.026866095
93	0x3cfbcc37	0.030737026
94	0xbc187344	-0.009304825
95	0xbbbcb7ee	-0.005759231
96	0xbd134dff	-0.035963055
97	0x3c7a095d	0.015261021
98	0xbb326370	-0.0027219914
99	0xbcc92acc	-0.02455654
100	0x3d06ac96	0.032879435
101	0x3cc3a662	0.023883048
102	0x3beb19e7	0.0071747187
103	0xbd0c4c81	-0.034252647
104	0x3c9345e6	0.017977666
105	0x3c8e57d8	0.017375872
106	0x3cd50761	0.026004495
107	0x3c68ee50	0.014216974
108	0x3c50bd57	0.012740455
109	0xbc170694	-0.009217877
110	0xbc560b49	-0.013064214
111	0x3cdb8801	0.02679825
112	0x3ca6c463	0.020357316
113	0xbb259589	-0.0025266132
114	0x3c97e579	0.018542038
115	0xbcca75b4	-0.024714328
116	0x3c865bc9	0.016401188
117	0x3c3e40d1	0.011612133
118	0xbcd1b1bb	-0.025597444
119	0xba966195	-0.0011473174
120	0x3c35a24e	0.01108606
121	0x3d2e9b27	0.042628434
122	0x3cfec12e	0.031097975
123	0x3d0c9db6	0.034330092
124	0x3cf4d21b	0.029885342
125	0xbcf1a462	-0.02949733
126	0x3cfeb8ae	0.031093922
127	0xbce25cde	-0.027632173
128	0xbc49725f	-0.012295335
129	0xbccb9dc9	-0.024855511
130	0x3c0d7d23	0.008635792
131	0xbc838b68	-0.016057685
132	0x3c00dcaf	0.007865115
133	0xbd2405b9	-0.04004452
134	0xbb1b2d2d	-0.002367805
135	0xbcca6afd	-0.02470922
136	0xbb70a318	-0.0036718305
137	0xbba0118a	-0.0048849033
138	0xbd0ec4a3	-0.034855496
139	0x3b57e4d5	0.003294279
140	0x3d0837af	0.03325623
141	0xb8e32392	-0.00010830829
142	0x3d0c8fe3	0.03431691
143	0xbc9c2757	-0.019061727
144	0x3cab0526	0.020876478
145	0xbc56310b	-0.013073216
146	0xbc4bc0ee	-0.012436135
147	0xbd18c78c	-0.037299678
148	0xbce61cad	-0.028089846
149	0xbca82a1d	-0.020527894
150	0xbc3cb2f6	-0.011517277
151	0xbd0dd6ce	-0.03462868
152	0x3c997cdd	0.018736297
153	0xbd4880f0	-0.04895109
154	0xbc192c37	-0.009348921
155	0xbd5a84d4	-0.05334933
156	0xbca0ea44	-0.019642957
157	0x3ba0c544	0.0049063284
158	0xba9d7267	-0.0012012244
159	0x3d18d64e	0.037313752
160	0x3c153621	0.009107144
161	0x3c0ca1fb	0.008583541
162	0x3c3664c6	0.011132425
163	0xbc154760	-0.009111255
164	0xbc48d9b0	-0.012258932
165	0xbbe836c8	-0.0070866086
166	0x3b7182a4	0.003685155
167	0xbcec4ff3	-0.028846717
168	0xbcdf8eb6	-0.02728973
169	0x3ccbcdf4	0.02487848
170	0xbb5ed8ba	-0.003400369
171	0x3c027a8f	0.007963791
172	0xbd025e27	-0.031828072
173	0x3bac3f16	0.005256544
174	0xbce88325	-0.028382847
175	0xbd200a7d	-0.039072502
176	0x3cba85b7	0.022768838
177	0xbd2a5d54	-0.04159291
178	0xbcb9cd80	-0.022680998
179	0x3c6aae51	0.014323787
180	0xbba63aed	-0.0050729425
181	0xbcbdc97c	-0.023167364
182	0xbcd3367a	-0.025782812
183	0xbcf402ba	-0.029786456
184	0x3b35a987	0.0027719454
185	0xbcb97f51	-0.022643717
186	0xbbfdf9bb	-0.0077507175
187	0xbc56d686	-0.01311267
188	0xbc7ce547	-0.015435523
189	0x3bb4c155	0.005516211
190	0x3a4f441a	0.0007906571
191	0x3c76689a	0.015039587
192	0xbd23c15c	-0.039979324
193	0xbd0f89a7	-0.035043385
194	0xbc824ff0	-0.015907258
195	0xbcf91f3a	-0.030410398
196	0xbd4256bb	-0.047445994
197	0x3b9bc335	0.004753495
198	0xbcad48fb	-0.021152964
199	0x3c91aba8	0.017782047
200	0xbb3edd70	-0.0029123686
201	0x3cccafc2	0.024986152
202	0x3bf94645	0.0076072537
203	0xbab8d59a	-0.0014101744
204	0x3c1f8827	0.009737051
205	0xbc587459	-0.013211333
206	0xbcb70179	-0.02233957
207	0xbc844147	-0.016144408
208	0xbc2ea1bd	-0.010658679
209	0xbc942cf9	-0.01808785
210	0x3ca78926	0.02045114
211	0x3cccb686	0.024989378
212	0xbc3d1a76	-0.011541953
213	0x3b342216	0.0027486137
214	0xbd0c8405	-0.03430559
215	0xb84ab516	-4.8329202e-05
216	0xbca39ff2	-0.019973729
217	0xbba5fd3d	-0.0050655887
218	0xbc952e31	-0.018210502
219	0x3d135518	0.035969824
220	0xbcc51a68	-0.024060443
221	0xbc219e93	-0.009864467
222	0x3ca0cede	0.019629892
223	0x3cab3c8a	0.02090289
224	0x3d33e9f4	0.043924287
225	0x398720d9	0.0002577368
226	0x3ca6fcf2	0.020384286
227	0xbd0940db	-0.033509117
228	0xbd515e00	-0.051115036
229	0xbc6fa13c	-0.014625844
230	0x3b8232b7	0.003973331
231	0x3cbb74d7	0.022882862
232	0xbc49bed6	-0.012313565
233	0xbcf9cbee	-0.030492749
234	0xbb7e29f0	-0.003878232
235	0xbd34021c	-0.043947324
236	0xbc988986	-0.018620264
237	0x3cee67c9	0.029102223
238	0x3d25d520	0.040486455
239	0xbd3a7549	-0.045522008
240	0xbb8fbe66	-0.004386711
241	0x3d052051	0.032501522
242	0x3b494afd	0.0030714863
243	0x3ce615e1	0.028086605
244	0xbc3011f1	-0.010746465
245	0xbab6e536	-0.0013953808
246	0xbae8a95b	-0.0017750667
247	0xbc8fea33	-0.01756773
248	0xbd057df3	-0.032590818
249	0xbca7dc81	-0.020490887
250	0xbce3ae8a	-0.027793188
251	0x3c2a09aa	0.010378281
252	0x3bee1401	0.0072655682
253	0x3cd9df10	0.026595622
254	0xbd1211a4	-0.035661355
255	0x3d45a1c9	0.048249993

action_model._discrete_distribution.branches.1.bias f4 [3]
0	0x3ca6b398	0.020349309
1	0xbc31cdb7	-0.010852269
2	0xbcb41822	-0.021984164

action_model._discrete_distribution.branches.2.weight f4 [2, 128]
0	0x3c0f981d	0.008764294
1	0x3c93af80	0.01802802
2	0xbc8aa970	-0.016926497
3	0x3ca175a0	0.019709408
4	0xbd293e0f	-0.04131895
5	0xbd22a64c	-0.039709374
6	0x3c8a75f5	0.01690195
7	0x3c8746a5	0.016513178
8	0xbcb0e592	-0.021593843
9	0x3d1a17f2	0.037620492
10	0x3d470ddc	0.0485972
11	0x3d13a5c4	0.03604676
12	0xbc3871b2	-0.011257576
13	0x3cd956ec	0.026530705
14	0x3b9d87a2	0.0048074285
15	0x3d1def13	0.038558077
16	0xbcd4a5e6	-0.025958013
17	0x3c2f059e	0.010682492
18	0x3aac686c	0.0013153679
19	0x3d042008	0.03225711
20	0x3b82b30b	0.0039886287
21	0x3cb671bf	0.022271035
22	0x3d006b2f	0.03135222
23	0x3d0c1ead	0.034208942
24	0xbcf5af17	-0.029990716
25	0x3d06d989	0.0329223
26	0x3c11b6fc	0.0088937245
27	0x3c975aa2	0.018475834
28	0x3c9f866a	0.019473273
29	0x3d41ba7b	0.047296982
30	0xbd06c3c1	-0.03290153
31	0xbc991b08	-0.018689647
32	0x3d39261f	0.04520237
33	0xbd3dbfb8	-0.046325415
34	0xbcbf1768	-0.02332659
35	0xbc084eb4	-0.008319546
36	0x3c853f91	0.016265662
37	0x3c2c65a3	0.010522279
38	0x3cba7741	0.022761943
39	0x3d05d555	0.032674152
40	0xbca34203	-0.019928938
41	0x3c86462d	0.016390884
42	0x3cca6de1	0.024710597
43	0x3bdbd6b2	0.0067089433
44	0xbb803ea6	-0.0039137183
45	0xbc99b5f1	-0.018763514
46	0x3ce593d6	0.028024595
47	0x3cba8929	0.022770481
48	0xbce39f73	-0.027785992
49	0x3d6e1184	0.058122173
50	0x3cd91fa2	0.026504342
51	0x3c76c388	0.015061267
52	0x3cb8c1ad	0.02255329
53	0xbc8a72cf	-0.016900448
54	0x3c906660	0.017626941
55	0x3cba9254	0.022774853
56	0x3cbca555	0.023028055
57	0x3cfe93c2	0.031076316
58	0x3d16a26a	0.036775984
59	0x3c8fd3da	0.017557073
60	0x3cc40307	0.023927225
61	0xbc6e19f8	-0.014532559
62	0xbc5dd5ec	-0.0135397725
63	0x3caff9c1	0.021481397
64	0x3cea89b4	0.028630115
65	0x3d4c0edf	0.04981887
66	0x3ce285b0	0.027651638
67	0x3c617986	0.013761884
68	0x3caf576f	0.021403996
69	0xbadac1d3	-0.0016689844
70	0xba499e8f	-0.00076911686
71	0xbcc190cd	-0.023628617
72	0xbac5e8d7	-0.0015099299
73	0xbca335e0	-0.01992315
74	0xbd3fe3c8	-0.04684809
75	0x3cb603b2	0.022218559
76	0x3c89e4d5	0.016832748
77	0x3cba521c	0.02274423
78	0x3d6e0ed0	0.058119595
79	0x3cc7d6b1	0.024394365
80	0x3bfc3e58	0.0076978616
81	0x3d093107	0.03349402
82	0xbce9205f	-0.028457819
83	0xbc73df87	-0.014884836
84	0x3bf6e891	0.0075350483
85	0xbca9a44d	-0.020708228
86	0x3d26923f	0.040666815
87	0x3bd7f092	0.0065899575
88	0x3d03f98e	0.032220416
89	0x3d038e52	0.03211815
90	0x3d1bf8c7	0.03807905
91	0xbd173543	-0.03691603
92	0x3d2b40a4	0.041809693
93	0x3cf1f919	0.029537724
94	0xbd079f03	-0.03311063
95	0x3b9726b4	0.004612768
96	0xbcc4d07b	-0.024025192
97	0xbc655027	-0.013996161
98	0xbb91e1ea	-0.00445198
99	0x3c4ddbd8	0.012564622
100	0x3d34d419	0.044147585
101	0x3d0da84b	0.034584325
102	0xbc2ca3d8	-0.01053711
103	0xbbea170b	-0.00714386
104	0xbba1650c	-0.004925376
105	0x3c2074ee	0.009793503
106	0x3cbed9f8	0.023297295
107	0x3c41df44	0.011833016
108	0x3c9fe9bb	0.019520631
109	0xbc9e83e9	-0.019350009
110	0xbd178fd6	-0.037002407
111	0x3bad7a53	0.005294123
112	0x3d16b17c	0.036790356
113	0xbc5a3390	-0.0133179575
114	0x3ce61aa7	0.02808888
115	0xbc80f67a	-0.01574253
116	0x3d006a87	0.031351592
117	0x3cb14a6b	0.02164193
118	0xbcd3e500	-0.025866032
119	0xbb7f656e	-0.003897037
120	0x3cc5dd00	0.024153233
121	0x3c4eb62b	0.012616674
122	0x3cd35538	0.025797471
123	0x3c964876	0.018345099
124	0x3c8e7df5	0.017394045
125	0x3ba56c2c	0.0050482955
126	0x3cbd4faa	0.023109276
127	0xbc81fb0c	-0.015866779
128	0xbced62b6	-0.028977733
129	0xbd0c9300	-0.034319878
130	0x3cd52ba3	0.026021784
131	0xbd0c9b5e	-0.034327857
132	0x3c90a38b	0.017656108
133	0x3d04c2b1	0.032412235
134	0xbd01ff67	-0.03173771
135	0xbc872b81	-0.016500236
136	0x3ccc76fb	0.024959078
137	0xbd62c2a7	-0.055361416
138	0xbd58ec8b	-0.05295996
139	0xbd4b36a0	-0.04961264
140	0x3c5072d9	0.012722694
141	0xbcbebec6	-0.023284327
142	0xbc98adf3	-0.018637633
143	0xbcdfe297	-0.027329726
144	0x3c0b59f9	0.008505338
145	0xbd05eb41	-0.03269506
146	0xbc9aeb72	-0.018911097
147	0xbd128c2e	-0.035778217
148	0xbc646423	-0.01393989
149	0xbd352ec5	-0.044234056
150	0xbc7d38c4	-0.0154554285
151	0xbcabe24d	-0.020981932
152	0x3d13de3a	0.036100604
153	0xbcadbc66	-0.021208
154	0xbc5322c7	-0.0128867095
155	0xbc9244d1	-0.01785508
156	0xbccaab57	-0.024739904
157	0xbd062f96	-0.032760225
158	0x3cb48a95	0.022038737
159	0xbaae9d16	-0.0013321962
160	0xbcb91daa	-0.022597153
161	0x3d48af7e	0.048995487
162	0x3c63d40c	0.013905536
163	0x3c4132af	0.011791869
164	0xbc64fdcc	-0.0139765255
165	0xbccfffea	-0.025390584
166	0xbce8b815	-0.02840809
167	0xbcfd5b27	-0.030927254
168	0x3c8cfdfc	0.017210953
169	0xbd3d0de8	-0.04615584
170	0xbcd17622	-0.025569025
171	0xbc9accad	-0.018896425
172	0xbc16ddb1	-0.009208129
173	0x3cafd7df	0.02146524
174	0xbc818b19	-0.015813397
175	0xbd0fb819	-0.03508768
176	0x3cacac20	0.02107817
177	0xbd5ee267	-0.054415133
178	0xbd06c170	-0.03289932
179	0xbcd92c7a	-0.026510466
180	0xbd1e951e	-0.038716428
181	0x3cf45214	0.029824294
182	0xbc9b6101	-0.018967154
183	0xbd049c5b	-0.032375675
184	0xbcf163f8	-0.029466614
185	0xbc9809e4	-0.018559404
186	0xbd0fddb8	-0.035123557
187	0xbc47aa53	-0.012186605
188	0xbd06349a	-0.03276501
189	0x3bdcae8a	0.006734674
190	0x3cecca53	0.02890507
191	0xbd3a3ee5	-0.045470137
192	0xbca7649b	-0.020433715
193	0xbcf344aa	-0.029695828
194	0xbcd69134	-0.026192285
195	0xbc87b534	-0.016565897
196	0xbd0ae339	-0.033908103
197	0x3c98c90c	0.018650554
198	0xbab63498	-0.0013901172
199	0x3ceea260	0.02913016
200	0x3bfa3c3d	0.0076365755
201	0x3c76b738	0.015058331
202	0x3d404d60	0.04694879
203	0xbc954f9a	-0.018226434
204	0xbcbabcb2	-0.022795055
205	0xbc721618	-0.014775775
206	0xbd2c6d19	-0.04209623
207	0xbd1f4d18	-0.03889188
208	0x3c077379	0.008267277
209	0xbd32cabd	-0.043650378
210	0x3d1a3e26	0.037656926
211	0x3cb3c4f6	0.021944504
212	0xbc54517f	-0.012958883
213	0x3a55cc8c	0.0008155785
214	0xbd2ced71	-0.04221863
215	0xbc08c646	-0.008348053
216	0xbc8e26b0	-0.017352432
217	0xbd31264e	-0.04324942
218	0xbd19bc4b	-0.037533086
219	0x3d00fcdd	0.03149115
220	0xbd341f5f	-0.04397523
221	0xbd074727	-0.03302684
222	0x3d4ddafd	0.05025767
223	0x3c6c984a	0.014440605
224	0x3c658113	0.0140078245
225	0x3c480e1d	0.012210396
226	0x3ac9102a	0.00153399
227	0xbd0abd21	-0.033871774
228	0xbd08c08f	-0.033386763
229	0xbba8471d	-0.0051354305
230	0xbacb18b8	-0.0015495038
231	0x3ca60ad4	0.020268835
232	0xbc0206c9	-0.007936188
233	0xbc5e905a	-0.013584221
234	0xbd151b2a	-0.03640286
235	0xbd1260cc	-0.035736844
236	0xbcb2d168	-0.021828368
237	0x3cdaf22f	0.02672681
238	0x3d27f4e1	0.04100502
239	0xbabfe453	-0.001464019
240	0xbd1cc71a	-0.038275816
241	0x3d08d45a	0.03340564
242	0xbcc401b2	-0.02392659
243	0x3ce56f80	0.028007269
244	0xbd79a3ab	-0.0609471
245	0xbcba42c4	-0.022736914
246	0x3cd6a947	0.026203765
247	0x3bd6a77c	0.0065507274
248	0xbc8ef534	-0.017450906
249	0xbc7d29e5	-0.015451883
250	0xbcd8ad2d	-0.026449764
251	0xbb9d91fd	-0.004808663
252	0xbc233007	-0.009960181
253	0x3c6dc535	0.01451235
254	0xbca853cc	-0.02054777
255	0x3b9d88eb	0.0048075817

action_model._discrete_distribution.branches.2.bias f4 [2]
0	0x3c57d0d2	0.013172345
1	0xbc57d0d3	-0.013172346
