results/PressButton/PressButtonAgent_ImitationLearning/PressButtonAgent/PressButtonAgent-39979.pt (torch, 533134 bytes, 54 tensors)

discrete_act_size_vector f4 [1, 3]
00000000: 0000 4040 0000 4040 0000 0040
3.0 3.0 2.0

network_body._body_endoder.seq_layers.0.weight f4 [128, 6]
00000000: 6be7 16be 24fe 0f3f e10b a83e 3cd2 86bf
00000010: 9351 823e c2df 31be 5e98 9fbe 8ddc c3be
00000020: 5ff5 d3be 07d6 b9be 17f6 203f 35a6 7cbd
00000030: 4313 0d3e 4c75 45bf 3440 1d3e 8a88 0a3d
00000040: 7927 debd 4459 723b 19ea 703e f1b6 c4be
00000050: 2531 14be 7c18 8c3e 41ba 773e 2fff a9be
00000060: 11f7 37bf b98d 78be eb08 a23e 68bb 03bf
00000070: bf82 17be ffb9 f63c db7c 1e3e cb33 103e
00000080: ebde ef3e d31c a6be 6fba 27be 2ed7 71bd
00000090: 0d8c 1a3e 12e2 353e c7b0 693e 38e7 a2bd
000000a0: f372 2a3f 6b01 eabc 03c2 223e 17c7 12be
000000b0: 8c89 063f f3a3 a2bd ac55 043f 947d e1be
000000c0: 9641 13be 3647 b3be f2b3 4ebe 5da6 c43e
000000d0: b812 13be 9268 0d3e 07f7 3b3e 3e5a 62bd
000000e0: 0f7d c7be 1fdb 2bbf e264 f93e fdd2 023f
000000f0: 824a 923c 5c0a 16be f019 ea3e baf5 b63d
00000100: 1374 4bbe 7b27 753e b712 57bf 8a06 f3bd
00000110: 81f2 d0be 5c21 b53d 9c01 f5be 2f4f 9fbd
00000120: 32b0 f9bd fb27 8abe 711b 3a3e 49ad c8be
00000130: fbfe c7bc c7b5 09bf 01d3 d9bd e8af 993d
00000140: fded 62be 248b 63be ac2a 1c3f f179 9fbd
00000150: baab 273e 8173 663f 933e 00be c556 98be
00000160: 1ca1 fcbe 0337 d1be f515 193f 65ed cd3e
00000170: cef4 63be cc0a 38bd 187b aa3d 7db5 d33e
00000180: 139d 4a3f 1d83 553f a7b3 a33e 0b8b abbe
00000190: fc0f 043e 8c9e 6c3e 50e6 a9bd c865 0f3f
000001a0: 2306 c43e 9274 4c3f 0cfc f0bd 15a9 01be
000001b0: d741 6f3f 0839 dbbe b3f5 d03e 7748 363e
000001c0: f7a7 b93d f991 9bbd a4a3 6dbe 90d5 3ebf
000001d0: 4a61 5d3f 8fff a23d 0c78 24bd 2fa2 1c3f
000001e0: 2c8b 19bd 02da 5ebf 970f 4a3d 9737 dabe
000001f0: 6b63 2cbe 36ac c9bd e95a 94be fb51 d4be
00000200: 55d7 0f3f cd25 9c3e c3f4 023d 8576 fabc
00000210: 4923 8bbe 3338 cebc 933d c3be 551b e6be
00000220: a0fb 0f3f 0b0a 5abe 2ca1 903d 15ad 9f3d
00000230: 8047 033d 2377 55be 6847 2b3f ca00 74be
00000240: 56c2 e0be fb52 253f 2180 5b3e 859b 553d
00000250: 034a 0c3f 12da 87be be6a 83bd 48a6 57be
00000260: 10aa 2fbe a443 0c3e a555 dabd 43bf bebd
00000270: 0dfa 223f 642e 05bc 05e4 80bf 5350 3cbf
00000280: 5848 3c3f fdff e6bd 72d9 f43e ac30 ffbe
00000290: 47ab 1e3f b0e1 29bf 862d c23e 0b7b 523e
000002a0: 1834 ae3e aa85 173f 6b4c 98bd e606 9b3e
000002b0: 6d22 e1bd 23f7 123e dfc0 ebbe 25ad eebe
000002c0: 0702 e7be 03d1 1d3f 3edb e83e 3e25 b43e
000002d0: fa45 a33e f19b f8be c05a 56be 01b0 42be
000002e0: f400 0d3c 32dc 41bf 74a0 7cbb 4375 2c3e
000002f0: e0a9 39bf 309f 593f 3f53 48bf 56ec c83e
00000300: f6c6 003f dcef 6f3f 9e9a 07bf aa6f c33d
00000310: 2776 7b3e 2f9b 013f d3b6 c3be 5c33 e3bd
00000320: e1a0 49bf d93a 833d ec7c 8ebe 0b42 70be
00000330: c0fb 3fbf fe48 9cbe b050 d7be 6cc5 403f
00000340: 0156 fcbd a973 b73e d1cd b13e c407 a43f
00000350: 71a8 8f3f e642 323f 3c43 a53e 6446 e8be
00000360: e27e b13e 7fb4 9cbe 2294 4a3d 8ab8 60bd
00000370: 8218 e8be 63d9 023f 9097 9ebf f5d7 523f
00000380: 9974 87bd a74b ccbd 0317 783c 8675 97bf
00000390: 1496 52ba a033 24bf 44bb e53e 6aa6 e13d
000003a0: 7ad8 943c 0dd5 80bf 04fc 4b3b ff5c 753c
000003b0: 10d4 1cbf 4e32 713e 863f 7cbd 02b1 39be
000003c0: d2ba 953e 253e 2c3f 1396 bd3d 1c3e 2b3f
000003d0: 98e8 ba3c a6c4 6cbe 3cf4 253f 8487 be3e
000003e0: 47f0 17bf 510f bdbe 433d 4f3e 728c aa3e
000003f0: c4af 933e d6ab d1bd 0254 7b3e 8219 7f3e
-0.14736716 0.5624716 0.32821563 -1.0532908 0.2545286 -0.17370513 -0.31170934 -0.38254204
-0.4139814 -0.36296102 0.62875503 -0.061681945 0.13776879 -0.77132106 0.15356523 0.03382162
-0.108473726 0.0036979476 0.23526801 -0.38420823 -0.14471872 0.2736243 0.24192144 -0.33202502
-0.7186137 -0.24272813 0.3164743 -0.51457834 -0.1479597 0.030117987 0.15477316 0.14082257
0.4684976 -0.32443866 -0.16379713 -0.059043102 0.15092488 0.1776202 0.22821341 -0.07954258
0.6658165 -0.02856513 0.15894322 -0.14333759 0.5255363 -0.07941427 0.51693225 -0.4404112
-0.14380488 -0.35015267 -0.20185831 0.38408175 -0.1436261 0.13809422 0.18355952 -0.055261843
-0.389626 -0.6713123 0.4870978 0.5110319 0.017857794 -0.1465239 0.45722914 0.08933587
-0.19868498 0.23940842 -0.8401293 -0.118664816 -0.40810016 0.088442534 -0.4785279 -0.07778775
-0.1219181 -0.26983628 0.1817453 -0.39194706 -0.024413576 -0.53792995 -0.10635949 0.075042546
-0.22161098 -0.22221047 0.6100261 -0.0778693 0.16374102 0.90019995 -0.1252387 -0.297537
-0.49341667 -0.40862283 0.5979913 0.4022018 -0.22261354 -0.04493217 0.083242595 0.41349402
0.79145926 0.8340319 0.31973 -0.3350452 0.12896723 0.23107356 -0.08295882 0.5601468
0.38285932 0.7986537 -0.11766824 -0.12662156 0.9345984 -0.4281695 0.40812454 0.1780108
0.0906524 -0.075962014 -0.23206955 -0.7454462 0.86476576 0.079589 -0.040153548 0.6118497
-0.03748624 -0.87051404 0.049331274 -0.42620537 -0.168348 -0.098473 -0.2897561 -0.41468796
0.56187946 0.3049759 0.031971704 -0.030574093 -0.27175358 -0.025173282 -0.38132915 -0.44942728
0.56243324 -0.21292894 0.07061991 0.07796685 0.03205061 -0.20846228 0.6690583 -0.23828426
-0.43898267 0.64579743 0.21435596 0.052150268 0.5480043 -0.26533562 -0.06416844 -0.21059525
-0.17154717 0.13697678 -0.10660867 -0.09313824 0.636628 -0.008128736 -1.0069586 -0.73560065
0.7354789 -0.11279295 0.47822148 -0.4984182 0.619801 -0.66359997 0.37925357 0.2055475
0.3402412 0.5918833 -0.074364506 0.302787 -0.10992894 0.14352088 -0.46045586 -0.46616474
-0.45118734 0.6164705 0.4547977 0.35184664 0.31889325 -0.48556474 -0.20933056 -0.19012453
0.008606184 -0.75726616 -0.0038547786 0.16841607 -0.72524834 0.85008526 -0.78252023 0.3924281
0.5030359 0.9372537 -0.529703 0.095427826 0.2455679 0.50627416 -0.3822542 -0.110937804
-0.78761107 0.06407709 -0.27829683 -0.23462693 -0.74993515 -0.3052444 -0.42053747 0.7530124
-0.123210914 0.3583043 0.34727338 1.281487 1.1223279 0.6963333 0.32277858 -0.45366204
0.34667116 -0.30606458 0.049457677 -0.05486349 -0.45331198 0.51112956 -1.2390003 0.82360774
-0.06614036 -0.09975367 0.015142205 -1.183274 -0.00080332276 -0.64141273 0.44869435 0.11018069
0.01816963 -1.0065018 0.0031125555 0.014975785 -0.6126108 0.23554346 -0.06158402 -0.1813393
0.29244095 0.67282325 0.0925714 0.66891646 0.022815987 -0.2312189 0.648258 0.37212765
-0.5935101 -0.36925748 0.20238213 0.33310276 0.28845036 -0.10237853 0.24543765 0.24912074

network_body._body_endoder.seq_layers.0.bias f4 [128]
00000000: 8a12 18bc 8f9e f5bc f308 89bc 9b72 dfbc
00000010: 3252 1cbc e5d1 243d 259e 72bc 3622 2cbc
00000020: b3eb a33c 1f46 9c3d e0dd c23c 41b8 973c
00000030: 3025 c1bc 610d 783d db1e 303d e6d6 6b3c
00000040: 2e54 ad3c 26b2 5bbb c762 3e3d 5f1d 9abb
00000050: 3e43 b2bc 7f20 08bd 1f8e d83c 001d 593d
00000060: 5ee5 293d 4154 24bc 2e8e 3d3d 078a 6e3d
00000070: a50a 153c 7b40 b7bc e885 a3bc a0b4 f53c
00000080: 0633 2b3d 2a4c 303d 41aa 153d 61dd f73c
00000090: e9b7 183d 5453 593c b4bc 30bd 6045 ff3c
000000a0: 5e1c b93c bcbf 363d ada5 a5bb d1b3 f83c
000000b0: cf75 db3c 744e c03c 17bf cfbc 2d8a a9bc
000000c0: b09f dd3c db0f 0d3d 3ee4 e1bc ee2e d33c
000000d0: 46a4 c13c 99d6 003d 110c 22bc 4a15 f13b
000000e0: fc4f 353d 0a5d 21bc 5097 7d3c 93cb 813c
000000f0: 2b94 dcbc 006e 2cbb 2c99 39bd 3435 99bc
00000100: d0e2 8d3c 6f80 b63c 4f4b 403d 9e45 4fbc
00000110: 04da 833c a5d4 553d ecfe 55bc c758 303c
00000120: 564b 063d ab41 45bc 8570 c63c d182 433d
00000130: 990d a83c 73a8 5abc c566 4e3d d014 ec3c
00000140: 510d af3c f0f9 453b 0638 fcbc a816 1f3d
00000150: c4fb 77bc 17ed 1a3d 449c 493d 87b3 24bd
00000160: b2d1 103d 0ba8 adbb 2fa6 223d 7c07 013c
00000170: 8b85 933c d577 44bc 6a5f 40ba e1f7 40bc
00000180: c505 443d 130d 9c3c 1886 c23c 3355 893c
00000190: a76e a43c c689 f1bc b17a 0c3d e0b6 4a3c
000001a0: 7272 2d3d 7641 8bbc dacf db3c 1266 4d3b
000001b0: 5410 e43c 5125 653d 4545 c0bc cb8d 0abc
000001c0: c565 ddbc 9b74 c6ba 8b9d d6bc 27ff 17bd
000001d0: c708 e33c 1c81 013c fc3c 653d 0b08 3c3d
000001e0: 40a6 e03c ccfd c8bc 17e8 0b3d 71e7 a83c
000001f0: 1afc 3d3c ee74 1f3d 599a 53bc 8f18 eb3c
-0.009281764 -0.029982833 -0.0167279 -0.027276328 -0.009541081 0.040239234 -0.014808212 -0.010506203
0.020009851 0.07630562 0.023787439 0.018520476 -0.023577303 0.060559634 0.042998176 0.0143944975
0.021158304 -0.0033522933 0.04648092 -0.0047032083 -0.02176058 -0.033234116 0.026434956 0.053006172
0.041478507 -0.010029853 0.04627817 0.058237102 0.009096776 -0.022369614 -0.019961312 0.029993355
0.041796707 0.043041386 0.03653932 0.030256929 0.037284765 0.013264496 -0.04314871 0.03116101
0.022596534 0.044616446 -0.0050551505 0.03035918 0.026789574 0.02347491 -0.025359673 -0.02069577
0.027053684 0.03443895 -0.027574655 0.025779214 0.023637902 0.031454656 -0.009890572 0.007357274
0.044265732 -0.009848842 0.01547797 0.015844142 -0.02692612 -0.0026310682 -0.04531209 -0.018702127
0.017320067 0.022278039 0.04694682 -0.012650875 0.016095169 0.052204747 -0.013061266 0.010763354
0.03278669 -0.012039582 0.024223575 0.047732178 0.020514296 -0.0133458255 0.050390977 0.028818518
0.021368654 0.0030208789 -0.030788433 0.038839966 -0.015135709 0.037823763 0.049221292 -0.040210273
0.03535623 -0.0052995733 0.039709266 0.00787532 0.018008014 -0.011991461 -0.00073384366 -0.011777849
0.047857065 0.019049203 0.023745582 0.016764259 0.020072294 -0.02948464 0.034296695 0.012372702
0.04234547 -0.016998988 0.02683251 0.0031341356 0.027839817 0.05594379 -0.02347053 -0.008456658
-0.027026067 -0.0015140952 -0.02619817 -0.037108567 0.027714146 0.007904317 0.055966362 0.045906108
0.027423024 -0.024535082 0.034156885 0.020618172 0.01159575 0.038929872 -0.012915217 0.028698234

network_body._body_endoder.seq_layers.2.weight f4 [128, 128]
00000000: 8791 b5bc 581a 843a a038 09be 775b 063c
00000010: f47b a7bd 635b 1c3e d9d1 d53d d807 3d3d
00000020: 60a2 72bd 1c2a 003e 4af9 d7bd 4d91 85be
00000030: c934 f7bc ec52 ddbc c61a 0f3c dd86 8d3d
00000040: 0bb5 2d3e 87a6 fc3c a3f4 203e 88d5 81bc
00000050: 70fc 08bb 0ce9 1bbd 918e dfbc f64c 153e
00000060: 5ea9 123e 4849 e1bd 991a 61bc d6d6 8c3d
00000070: 6008 a1bd c55c a9bd bad1 9f3b 1e22 2d3e
00000080: 9a9e e43d 08d6 24be e883 36bd 1132 9dbb
00000090: 6eb8 a13d 4b1d 92bb 356b 1dbe 114e d43d
000000a0: 3333 843d 1491 463d 19a5 e63c 503d 053e
000000b0: 5f31 8dbd e084 f53c 3d4c 53bb 9e97 cebc
000000c0: c986 163d e462 023d fdbe bebd 636a 353b
000000d0: 5f67 02bd d97f bdbc a001 c4bd 3d32 6ebe
000000e0: f52d 0dbd d177 763d b982 993d 6fa9 11be
000000f0: cac7 f13c c1e9 78bd d5c1 d4bd db8b b73d
00000100: 0915 38bd 544e bcbb b2fd d33d 8757 ad3c
00000110: 9bb6 a6bc e1eb cd3d 089e cdbc 09e0 df3d
00000120: cd5a 853c 3ff9 70be 0fa9 87bd b3cb f0bc
00000130: 195d f5bd a916 803d 22fa 63bc 89d7 883d
00000140: 47af 8dbe 5972 063e a72a 81bd 35ad 343d
00000150: 4358 173e a1a9 503d 254c bc3d b287 c83d
00000160: a2cd 7c3e 8e58 a33d b8b8 713d b8ac a6bc
00000170: e1d2 233d 78bb 2b3e b830 cebc 8bae 43bd
00000180: 8392 9c3d 263e eabd 262d e23c 64af 7a3d
00000190: 2e23 7cbd 9841 363d 4b58 a73d 6afb a3bc
000001a0: a701 093e 1de9 5b3d 6bba 373d e941 58be
000001b0: 443d 62be 6d43 9b3d cdb4 a13d 06b7 da3c
000001c0: e872 22bd d09a 963d 2b1d b23d cadb c2bd
000001d0: a0e1 cd3c db9f 92bd 57cb 1c3e d791 053e
000001e0: cb55 c7bd c8bf 80bd 4581 b23d e1a3 fcbd
000001f0: 4d5d 73bc c165 85bd c7af 04be 4e8d c83d
00000200: 7f52 3abc ff5e dd39 d372 0abd 805a 003e
00000210: fd2b 293d 4dff 2abd e5dd 0e3e a2fc 2b3e
00000220: 4907 dabd 4f13 dd3c 9767 c13d 6385 283e
00000230: 9c8c 0fbe 2136 03bc f996 febc 1444 b13b
00000240: c8f1 3c3e 00a6 d2bc c6f4 5a3c 80c8 bdbd
00000250: 7afc a7bd 2039 08be 71c3 02bd 03c7 5c3d
00000260: 5be1 0cbd e235 f6bd ccd0 c03c 4fb9 e43d
00000270: 58aa 86bc d25c 28be 7e04 2abe ed15 d1bb
00000280: 11ef c63d 3b85 fa3c f677 a0bd 5d59 113e
00000290: ba88 0abd cd26 cfbd 101c a73d 6116 96bd
000002a0: c257 61bd 64d0 02bd 8e11 ddbd 75c6 07bc
000002b0: 89fa c93b eb78 9fbc c9a9 72bc 59ba dcbd
000002c0: 094a fdbd 1b5d 7f3e 2b10 20bd 6d63 cabd
000002d0: 5fd9 e9bd 79de 623e f32b c53b 1a50 36be
000002e0: da02 cfbd dc15 133c a0b5 9ebd 8b29 76bc
000002f0: 8210 5fbe 42ec 5d3d 7073 eebc 470a 4c3c
00000300: 4c9c a13d 1877 e33c f91a 003e af7f 54be
00000310: 8125 fb3a ef25 043d da24 8bbd 6f22 6abd
00000320: 68f5 56bd faf3 5bbe 02b8 1abe eb68 1f3e
00000330: 477f 08be 5e5f 553e 23ae 90bc e746 42be
00000340: 85e2 7ebd a37d a3bd 2175 23be 4b2d 1f3e
00000350: 14c3 c43d 5124 c4bb eaf8 27be c4c0 18be
00000360: ae70 943d 0a3a b83d 1e12 e03d f8a6 1abe
00000370: e6f3 06be 0cd7 4fbd cae3 14bb 036e febc
00000380: a830 6dbd bc48 b7bd 3e69 d13c a533 d4bd
00000390: 629b ecbc d1cb 5abe 3c0d 923d 50f9 a43d
000003a0: 497b ed3d 23bd 003d 6b92 24be 37e3 b6bd
000003b0: 15f5 203e 802b da3d aed7 f4bb a467 b63d
000003c0: f71b 5f3d 5a24 ac3d 57fa e5bd 1453 cd3d
000003d0: 8eb1 073d 2f6f eabb d081 23bc beeb 513e
000003e0: 6202 15bd 0f69 bfbd 88e0 353d 8368 8bbd
000003f0: 58be c23d 86e7 523d 147a 2abe f6bd a43c
-0.02216412 0.0010078652 -0.13400507 0.008200518 -0.08177939 0.15269236 0.10440416 0.04615006
-0.059236884 0.12516063 -0.10545595 -0.26087418 -0.030176537 -0.02701708 0.008734411 0.06910489
0.16963594 0.030841125 0.15718322 -0.01584889 -0.0020902418 -0.038064048 -0.02728966 0.1458014
0.14322421 -0.110003054 -0.0137392515 0.06876914 -0.078629255 -0.082696475 0.0048772963 0.16907546
0.11163063 -0.16097271 -0.04455939 -0.004797228 0.07896505 -0.0044590584 -0.15372927 0.103664525
0.06455078 0.0484782 0.028154897 0.1301167 -0.068941824 0.029970586 -0.0032241486 -0.025218781
0.036749635 0.03183259 -0.09313772 0.002768182 -0.031836864 -0.023132252 -0.095706224 -0.23261352
-0.034467656 0.06017286 0.074956365 -0.1422479 0.029514212 -0.0607698 -0.10388533 0.08962222
-0.044941936 -0.005746642 0.10351123 0.0211599 -0.020350745 0.10054756 -0.02509977 0.10931403
0.016278649 -0.2353258 -0.06624042 -0.029394006 -0.119806476 0.06254322 -0.013914617 0.06681735
-0.27672789 0.13129558 -0.063069634 0.044110496 0.14779763 0.05094302 0.09194211 0.09791507
0.24687818 0.07975875 0.059014052 -0.02034603 0.03999603 0.16770732 -0.025169715 -0.04777388
0.076451324 -0.11437635 0.02760942 0.06120242 -0.061556987 0.04449615 0.081711374 -0.020017345
0.13379537 0.05368911 0.044855516 -0.21118893 -0.22093683 0.0758122 0.07895813 0.0266986
-0.039660364 0.07353747 0.086969696 -0.09514578 0.025132 -0.07159396 0.15311943 0.13043915
-0.097331606 -0.06286579 0.087160625 -0.12335945 -0.014853788 -0.06513549 -0.12957679 0.09792577
-0.011372208 0.00042223182 -0.03380091 0.12534523 0.041301716 -0.04174738 0.13951834 0.1679559
-0.10645921 0.026986746 0.09443586 0.16457133 -0.14018482 -0.008008511 -0.031077849 0.005409727
0.18451607 -0.02571392 0.013364023 -0.09266758 -0.08202453 -0.13303041 -0.03192467 0.05390073
-0.034394603 -0.12021996 0.023537062 0.11168157 -0.016438648 -0.16441658 -0.16603276 -0.0063807876
0.09713567 0.030581107 -0.07835381 0.14194246 -0.0338218 -0.101148225 0.08159649 -0.07328487
-0.055015333 -0.031937018 -0.10794364 -0.008287062 0.0061638993 -0.019466838 -0.014810988 -0.107777305
-0.12367637 0.2493786 -0.03907792 -0.09882245 -0.11418413 0.22155179 0.006017202 -0.17803994
-0.10107966 0.00897738 -0.07749486 -0.015024553 -0.21783641 0.05418039 -0.02910778 0.012453622
0.078911394 0.02776675 0.12510289 -0.20751832 0.0019160957 0.03226274 -0.06794138 -0.057161745
-0.05248013 -0.21479788 -0.15109256 0.15567367 -0.13329802 0.20837161 -0.01766116 -0.1897236
-0.062227745 -0.07982948 -0.1596265 0.15544622 0.09607521 -0.0059857746 -0.16403547 -0.14917284
0.072480544 0.08995445 0.109409556 -0.15102756 -0.13178977 -0.050742194 -0.002271878 -0.031058317
-0.05790773 -0.0894942 0.025562879 -0.10361413 -0.028882686 -0.21366812 0.071314305 0.08055365
0.115957804 0.031430375 -0.16071479 -0.089300565 0.15718491 0.10652828 -0.007472 0.08906487
0.05447003 0.08405371 -0.11229389 0.100256115 0.033128314 -0.0071543674 -0.00997968 0.20500085
-0.036379226 -0.0934621 0.044403583 -0.068070434 0.095089614 0.05149033 -0.16648132 0.020110112

network_body._body_endoder.seq_layers.2.bias f4 [128]
00000000: 8bf8 3e3c d7d3 f03c 3b7b 32bc 01d0 cd3c
00000010: 08e2 74bc ee96 1ab9 5611 233d 1254 f63c
00000020: 89f0 99bb 2ff2 283d 7ff5 d03c 90a5 bb3c
00000030: 943e b1bb de3e 113d dcce 7cbb 59fc ac3c
00000040: 5fac 15bc 88cf a83c 7190 aa3c 8be0 2a3c
00000050: 1043 c33c 03ec c13c f70b 213d f5e6 103d
00000060: b9aa 0cbc ccfc da3c 6d46 573c ed3d 1b3c
00000070: bc62 bd3c bb13 d73c e982 6abc 7166 073d
00000080: ddfc ca3c 1676 89bc e011 21bc 60bf a7bb
00000090: 42fd 263c 0be1 5f3c 8d49 003d efb9 b43c
000000a0: fe0a 333b d7d9 cb3c 98f0 d63c 6a77 d43c
000000b0: cdc8 9c3c 6751 88bc 71e2 023d 92de c43c
000000c0: c3cc afbc cd4e f23c 20b6 013d 5585 e13c
000000d0: 4f97 993c 4044 ec3c 87a3 423d f98b dd3c
000000e0: 8d05 c53c 7577 4e3c 03cc 213d 0b42 803c
000000f0: 59cf 173d e3dc 4cbc 2078 7bbc af75 c43c
00000100: e789 ee3c e53b 3a3d 142a 073d 95c4 183c
00000110: 624f 853c e4a4 fabb aa66 94bb be40 52bc
00000120: 589c 8c3c 1497 1cbc 43e1 06bc 95e8 e43c
00000130: f97a c93c c0f3 1b3d ded1 d03c 155d 0f3d
00000140: 6607 63bc 8725 af3c d8f0 5dbc 01e4 fb3c
00000150: ee7c 023d 64ce 2cbc bb77 153d 74d8 1cbc
00000160: b3fb 813c 5941 1a3d 89a8 683c 0346 a4bb
00000170: f968 d43c b728 0f3d dc3a 66bc 864d 853c
00000180: 71e1 8fbb d6b0 fd3c ada3 a7bb 04fd 083d
00000190: 3f7e 9b3c 48e7 2c3c ef4e d13b b6b1 74bc
000001a0: 734b 6dba 89e8 053c ad37 0e3d 66ac 9a3c
000001b0: 536c 9e3b a63d 50bc cee4 13bc ef4f af3c
000001c0: 0df7 e03c 8b03 b43b cf76 4f3c c2f4 aeba
000001d0: e103 b13c 5d6c 233c 1bad 79bc 0258 b4bb
000001e0: ec1a 8d3c 0991 ed3c b39f bc3c 4ad9 e03b
000001f0: c215 b93c 312a cfbb 5c26 a03c cf82 41bc
0.011655937 0.029397888 -0.010893638 0.025123598 -0.014946468 -0.0001474281 0.039811455 0.030069385
-0.0046978635 0.04124659 0.025507687 0.022906095 -0.005409071 0.035460345 -0.0038575446 0.021116422
-0.009135335 0.020606771 0.020820828 0.010429512 0.023835689 0.02367211 0.03931805 0.035376508
-0.008585625 0.026731871 0.013139349 0.0094752135 0.02311837 0.026254525 -0.014313438 0.03305668
0.024778778 -0.01677994 -0.009830922 -0.005119249 0.010192217 0.013664494 0.031320143 0.022061316
0.0027319784 0.024884148 0.02623777 0.025935847 0.019138718 -0.016640378 0.031954233 0.024031911
-0.021459943 0.02957859 0.03166783 0.027529398 0.018748907 0.028841138 0.047519233 0.027044283
0.024050498 0.012601723 0.0395012 0.015656492 0.037062977 -0.012503835 -0.015348464 0.023981897
0.029118491 0.045467276 0.032999113 0.009324213 0.016273204 -0.007649051 -0.00452884 -0.012832819
0.017164394 -0.009557504 -0.0082324175 0.027942935 0.02459477 0.038074255 0.025490697 0.03500088
-0.013856744 0.0213802 -0.013546191 0.03074837 0.031857423 -0.010547254 0.036491137 -0.009573091
0.01586709 0.037659977 0.014200338 -0.005013229 0.025928961 0.034950938 -0.014052119 0.016272318
-0.0043908884 0.030968111 -0.005115947 0.03344442 0.018981097 0.010553189 0.0063875834 -0.014934948
-0.00090520753 0.0081731165 0.034721065 0.018881034 0.0048346906 -0.012710011 -0.009026719 0.02140042
0.027461553 0.0054935864 0.0126626035 -0.001334809 0.021608295 0.009974566 -0.0152390255 -0.0055036554
0.017224751 0.028999822 0.02302537 0.0068618404 0.022593383 -0.0063221683 0.019549541 -0.011810972

action_model._discrete_distribution.branches.0.weight f4 [3, 128]
00000000: 8a76 5dbc 9c1d c6bb 5e10 a93c 6b4f e1bb
00000010: 760d 153c 5160 11bd 6285 8a3a 9f39 bdbc
00000020: a658 653c e1e0 153d f5d1 37bd 120f 17bc
00000030: fbe4 243d c7b2 7fbc 7c43 c93c ff56 e6bc
00000040: 3c90 b93c be9f 283d 09ba d3bc fe80 35bd
00000050: b024 cdbc fb52 b5bc a95c 7a3c 85bd fb3c
00000060: f4c4 bc3b 8696 a0bc 97e0 c5bc efeb 18bd
00000070: caa7 cebc 389a 94bc ea6d 123d a945 07bc
00000080: 284d 33bc 8c43 0a3d 9e14 6a3c 04b2 993c
00000090: 942d 42bd 9262 84bc 30a5 1dbd df3d c9bc
000000a0: 8774 e73c 3b88 ac3b 1057 b2bc be53 cabc
000000b0: 6d68 d03c 259e 0b3d 26de 2bbd 5f74 11bd
000000c0: 6ecd 6e3b 7493 8f3c 26bc 91bc 3c42 0e3c
000000d0: a3e7 08bc 6d9d 76bd 1817 3c3d c117 e1bb
000000e0: 9f5a a93b f36a 15bd 575e 153d 42ca ddbc
000000f0: 71a9 ed3b b3c8 923c 49a5 e43c 6e21 85bc
00000100: 0748 7fbc 8916 f03c 43f9 96bc 2914 a5bc
00000110: 00ee aebc 455f 723c 0282 e1bc 38f9 1d3c
00000120: 9484 103d 56b5 9bbb cdc4 953c f1e3 dd3a
00000130: 61db 4abc dba8 59bc 9d0e 49bc fe17 dd39
00000140: eb86 dbbb 7bf2 a8bc db42 e43a 09b2 99bc
00000150: 68e9 b7bc 6f56 243d 6d57 433c 6965 123b
00000160: 0525 c5bc 0d5e 873d 3f4d 0fbc 75b5 8a3c
00000170: af06 20bc 1c4f 943c f983 333c 927b 1cbc
00000180: 966b ff3c c9c1 0abd 87c1 3e3d b5f1 a63c
00000190: e98e 0fbd 5767 cebc cc1e 3bbd 0a5d 273d
000001a0: 58ca 46bc 25af db3b d4df a2bc 7b4e 33bd
000001b0: 2d16 ccbc 73a2 a03c 0540 823b f6c3 5ebd
000001c0: 58ae f3bc 057c ad3b f526 a9bc 4063 ec3c
000001d0: 327b 73bc 6788 b53c 766e 863c eb04 fb3b
000001e0: 0811 2ebd cae7 cdbc 3914 b2bc 761e 883c
000001f0: 2ac4 ecbb 5b8b 0f3d 8883 eebb 8729 853c
00000200: 8514 8dbd d23a 7abd 5150 0f3c ced1 713b
00000210: 9249 ed3b b2a0 1c3d 1e94 3ebd 513f c83b
00000220: 6457 5c39 2560 89bd 69e1 f03b 9a21 413c
00000230: 2881 9cbc bb74 d33a efbb 71bc 1a26 c03c
00000240: 0b7d 56bc 27ce 16bd a791 a13c 888c 063d
00000250: d793 e53b 2231 7b3c bd9b 3fbd d6b8 12bd
00000260: e0b4 d5bb 7422 4c3c 19db c53c 89db 183d
00000270: e64f 093d be2c 8c3c 2101 103a 9804 4d3d
00000280: 33f9 5cbc 143f e4ba eb16 983c f0da 0cbc
00000290: 8f79 e23c d271 b8bb cdae 033c bbee 663c
000002a0: 5da3 24bc 001d e4bc 8f54 ffbb 3b4a bc3c
000002b0: 967a 8bbc 39c3 25bd beee 213c 4c5a c23b
000002c0: 6d31 d339 4e9e 3fbc dc89 a0bb 3e0c 1cbd
000002d0: b6fc 873c 0ef1 a03d b9b4 5dbd 9c51 60bb
000002e0: 84db 92bd 584b 913c 3216 64bd 9271 9d3c
000002f0: 985e 03b9 2d05 c93b db16 a93c f751 2c3c
00000300: 9776 853b a3f2 69bd 6191 debb a034 c83b
00000310: c646 4e3c a9ad 4fbc 5b41 e53c ad0b 47bc
00000320: 8185 39bd 52fc 10bc 05da eebc f0b5 973c
00000330: 9219 6b3c 7116 443b d8d2 913a 1703 6cbd
00000340: 3aa4 b23c 848d 513c cb23 b4bc 7f1b 593d
00000350: ee7b ec3a 9b07 39bc 5528 22bd 7924 c7ba
00000360: ab2a 05bb 0743 7cbd 0b66 303c 028e 13bd
00000370: cd65 583c bca6 48bd f310 22bb c2f1 1b3d
00000380: 6d53 b3ba 39a9 063d bd06 70bd f5ee 0dbd
00000390: d11d 873c 1165 aa3c 48f5 053d 6b9d 0a3c
000003a0: 57a3 ebbb ae31 5fbd d51e 3cba ed20 bb3b
000003b0: 8828 2e3c a67f e6bc 66ce 11bc 6fa9 4d3d
000003c0: 6ac4 cf3c 6385 caba d1bf d03c f963 a0bc
000003d0: 15f0 b83c c2f5 5ebd 265b 46bc 2689 ebbc
000003e0: f673 ed3c 1b4d 343c 54b0 7c3c c2f3 13bd
000003f0: aca7 fe3c 719a 22bb a5cb 653c 26fc 743b
-0.013517031 -0.00604601 0.020637687 -0.0068759224 0.009097448 -0.035492245 0.0010568316 -0.023098765
0.013998186 0.036591414 -0.044877965 -0.009219902 0.040257435 -0.015606589 0.024568312 -0.028117655
0.022651784 0.041167967 -0.025845544 -0.04431247 -0.025041908 -0.022134295 0.015280881 0.030730018
0.0057607833 -0.019603025 -0.024154944 -0.03733438 -0.025226492 -0.018139943 0.035749353 -0.008256354
-0.010943688 0.033755824 0.014287142 0.018761642 -0.047406748 -0.016160283 -0.038487613 -0.024565635
0.028253807 0.0052652634 -0.02177003 -0.024698135 0.02544042 0.034086365 -0.041959904 -0.03551137
0.0036438364 0.017526366 -0.017789911 0.008682784 -0.008356008 -0.060208727 0.04592046 -0.0068692868
0.0051682736 -0.036478948 0.036466923 -0.027073983 0.007252865 0.017917966 0.027910845 -0.016251292
-0.0155811375 0.02930762 -0.018429404 -0.020151215 -0.021353722 0.014793222 -0.027527813 0.009641938
0.035282686 -0.0047518415 0.018282318 0.0016928894 -0.012381406 -0.013284887 -0.0122715505 0.0004217028
-0.006699433 -0.020623436 0.0017414944 -0.018761652 -0.022450164 0.040121492 0.011922699 0.0022338277
-0.024065504 0.06609736 -0.008746444 0.016932229 -0.0097672185 0.018104129 0.010956758 -0.009550946
0.03117923 -0.033876214 0.04657128 0.020378927 -0.0350484 -0.02519576 -0.045683667 0.040860213
-0.012133203 0.0067042285 -0.01988212 -0.043776017 -0.024912918 0.019608712 0.003974917 -0.0543861
-0.02974622 0.0052943253 -0.020648459 0.02885592 -0.014860915 0.022159768 0.016410094 0.0076604984
-0.04249671 -0.02513494 -0.021738159 0.016616087 -0.007225533 0.03504501 -0.0072788633 0.016255153
-0.068886794 -0.06109125 0.008747176 0.0036898735 0.0072414363 0.03823919 -0.046527974 0.0061110635
0.0002101339 -0.06707791 0.0073510897 0.011787796 -0.019104555 0.0016132811 -0.0147542795 0.023455668
-0.013091336 -0.036817696 0.019722773 0.032848865 0.0070061493 0.015331538 -0.046779383 -0.035820805
-0.006521806 0.012459386 0.024152325 0.03731874 0.033523463 0.017111178 0.0005493332 0.05005321
-0.013487148 -0.0017413818 0.018565616 -0.008597121 0.027645854 -0.005628803 0.008037281 0.014095004
-0.0100487145 -0.02784586 -0.0077920626 0.022984615 -0.017026227 -0.040469382 0.009883581 0.0059311744
0.0004028188 -0.011695458 -0.0048992466 -0.038097613 0.016599994 0.078584775 -0.05412743 -0.003422833
-0.071707755 0.017736122 -0.05568523 0.019219194 -0.00012528372 0.00613465 0.020640781 0.010517589
0.004072975 -0.057116162 -0.006792233 0.006109789 0.012590116 -0.012675681 0.027985265 -0.01214878
-0.045293335 -0.00884922 -0.029156694 0.018519372 0.014349358 0.0029920603 0.0011125458 -0.057620134
0.021806825 0.012790088 -0.021989724 0.053004738 0.0018042305 -0.011293317 -0.039589245 -0.0015193365
-0.0020319622 -0.06158736 0.010766516 -0.0360241 0.013207865 -0.048987135 -0.002472934 0.038072355
-0.0013681479 0.032876227 -0.058600176 -0.034651715 0.01649371 0.020800145 0.03270462 0.008460383
-0.0071911025 -0.054490738 -0.0007176225 0.005710712 0.010629781 -0.02813704 -0.008899307 0.050210413
0.025362212 -0.0015451129 0.02548209 -0.01957892 0.022575418 -0.05443359 -0.012106692 -0.02875192
0.028985959 0.0110047115 0.015422899 -0.036121137 0.031085812 -0.0024811293 0.014025603 0.0037381737

action_model._discrete_distribution.branches.0.bias f4 [3]
00000000: eee5 4cbc fd35 163c 9b0e a7bc
-0.012505991 0.009168145 -0.020392707

action_model._discrete_distribution.branches.1.weight f4 [3, 128]
00000000: 0084 153c 43a7 cb3c 8c25 8ebc 06b8 013d
00000010: 1ecc 1dbd ae8e aebc 478f 033d 145e 023d
00000020: 367c 74bc 5340 f33c 022b ac3c 3bb1 453d
00000030: fa38 d4bc 29fe 233d 4b8c 35bc 9a32 c63c
00000040: 77e2 ecbc 93ae 713c 8fd3 133d 3fb0 d03c
00000050: f2a7 0d3d 15c6 8a3c d6ce cf3c 029d df3a
00000060: 2331 86bc c29c 173d 81cf 813c f78c 293d
00000070: 5c66 0f3d 214b 493d 1300 d9bc 3e21 93bc
00000080: ef40 b33c 5e46 c2bc 2f8f 01bd af7f 01bd
00000090: d655 943b 5733 df3c e4e7 ed3c ee94 f93c
000000a0: f276 91bc 2608 fcbb abce e13c b043 d53b
000000b0: a0e6 b4bc 5e25 8cbc 065e 113d 452d e83c
000000c0: 1c08 bfbc 566f 5cbc d9b0 c43c c2b8 9f39
000000d0: 9876 0c3d b68a 87bc 5a8e bdba f1a2 0c3d
000000e0: 8fa4 293d 4859 c33c 4945 babc cf02 673c
000000f0: 2972 043d d28d edbc 2b25 e5bc 119a bf3c
00000100: 55e5 c93c 71b5 33bc 77ce 023d e829 633c
00000110: 8193 c23c ae8c f5bc 7cd8 bdbc ec0d 20bd
00000120: f0d9 7e3c 6b27 a7bc 9300 00bd 0d10 cfbb
00000130: ee4e f73c 8e57 083d 7ef9 c73c af92 af3c
00000140: 6857 21bc cd42 f73c 9db6 84bc bd80 bbbc
00000150: 68dc 203d 7ad3 d6bc c090 a93c 107a de3a
00000160: 230c 103d 6900 4cbb d87a 13bb 1b31 abbc
00000170: 9705 d63c bebe fd3c f9d9 15bc 2295 a9bb
00000180: 62cd 14bd 6760 6e3c d99d 82bb 9352 adbc
00000190: fd31 0e3d 7d33 c13c 4915 fd3b 4be7 0cbd
000001a0: 7c9a 903c 9a02 943c 0648 d03c 2800 8d3c
000001b0: a836 493c cab6 2dbc 45e2 5fbc 82b3 e63c
000001c0: 2a27 a23c b419 43bb 0d53 8a3c d801 cfbc
000001d0: 2de7 8f3c c898 3a3c e7b0 ccbc 2856 ebb9
000001e0: 13d4 8d3c a3b4 2e3d 1d9f f73c 62eb 043d
000001f0: b874 de3c f78c fbbc 6627 023d 8f1f e8bc
00000200: 97a7 55bc c724 cfbc e669 0d3c adf1 81bc
00000210: d3df 033c f2f4 10bd 886c 3ebb 5ead ccbc
00000220: f327 74bb 1138 d8bb 3d4a 0ebd ad19 8d3b
00000230: 4c4e 063d ad91 4d3a 8be7 ff3c 16ec a1bc
00000240: fe13 ad3c 5d6d 49bc f288 3fbc eb85 06bd
00000250: f094 edbc dc28 afbc 1afe 52bc 548a 09bd
00000260: eb19 9a3c 51b5 42bd 9f59 0ebc 0283 4fbd
00000270: 43b3 a2bc 2245 b83b 59b5 95ba 35c2 1c3d
00000280: 4533 2f3c cb93 083c 361d 3a3c a4c2 04bc
00000290: fa19 c0bb cd97 e6bb 2271 d43b 650d f3bc
000002a0: dbed ccbc 225e ba3c cd40 4bbb 3a14 273c
000002b0: 636e fbbc 56ce 863b 4df7 d2bc 1207 20bd
000002c0: 665f b03c 559b 1ebd 6a49 b7bc 90e8 573c
000002d0: 5126 92bb 7b4a 5dbc d4ca ccbc 4300 f7bc
000002e0: 4473 003b bde6 b1bc 7a64 19bc 1ccb 5cbc
000002f0: afbc 7ebc f0f3 c13b 4b44 a43a cc6a 813c
00000300: 76c8 24bd d6bd 0abd 3d26 85bc 2535 02bd
00000310: fe54 3fbd 0d97 a23b 05b3 91bc 4045 903c
00000320: af24 abbb 165c cf3c 96f2 db3b d0a2 00bb
00000330: e656 423c 8e05 5dbc 5607 b8bc b451 89bc
00000340: 381d 0ebc 49e2 78bc 281d a53c 04dc ef3c
00000350: 2a81 36bc 5542 573b 7459 05bd 61f1 62b9
00000360: 325f a1bc 96ba f9bb 95f4 8cbc 22d2 063d
00000370: 2274 b2bc e98d 34bc fda7 a03c a8c9 ab3c
00000380: c9a1 303d 2587 a33b eb93 9d3c 9fce f3bc
00000390: 8093 3fbd b63d 55bc 9deb e13b d618 ba3c
000003a0: 1bfb 45bc d787 fdbc 8260 6dbb 4931 2fbd
000003b0: 66c9 9cbc 5efd e43c 2ada 213d a0ac 17bd
000003c0: 76e6 7abb e888 003d 3680 8a3b ea34 de3c
000003d0: 85d7 5bbc c5d9 69bb b014 a8ba 8657 97bc
000003e0: 20c8 0bbd e6f7 a8bc 9169 e2bc d58a f83b
000003f0: 8a5a 023c 90e6 d83c 9315 0fbd a65b 443d
0.0091257095 0.02486003 -0.017351888 0.03166964 -0.03852474 -0.02130827 0.03211906 0.031828
-0.014922192 0.029693758 0.021016601 0.048264723 -0.025906075 0.040037308 -0.011080812 0.02419405
-0.02891658 0.014751094 0.03609043 0.025474666 0.034583993 0.016940156 0.025367182 0.0017060342
-0.016380852 0.03701473 0.015846016 0.0413942 0.035009727 0.049143914 -0.026489293 -0.017960187
0.021881549 -0.023715194 -0.03163069 -0.03161591 0.004526834 0.02724616 0.029041238 0.030466523
-0.017756913 -0.007691401 0.027564367 0.006508313 -0.022082627 -0.017107662 0.03549006 0.028341899
-0.023319297 -0.013454279 0.024010109 0.000304645 0.034292787 -0.016545635 -0.001446198 0.03433508
0.0414167 0.023846284 -0.022738116 0.014099791 0.032335434 -0.02899829 -0.027971825 0.023388894
0.024645487 -0.010968552 0.03193518 0.013864972 0.023751976 -0.029974308 -0.023174517 -0.039075777
0.01555489 -0.020404538 -0.031250548 -0.006319052 0.030189004 0.033286624 0.02441096 0.021432249
-0.009847499 0.03018322 -0.016200358 -0.022888536 0.039272696 -0.026223887 0.020698905 0.0016973633
0.035167824 -0.0031128174 -0.002250364 -0.020897439 0.026125712 0.030974742 -0.009146207 -0.0051752487
-0.03632868 0.014549351 -0.003986102 -0.021157539 0.03471564 0.023584122 0.0077234847 -0.034400266
0.017651789 0.018067647 0.025424968 0.017211989 0.0122810975 -0.010602662 -0.013664787 0.028161768
0.019794066 -0.002976996 0.016885305 -0.025269434 0.017566288 0.011388965 -0.024986697 -0.00044886884
0.017313039 0.042652737 0.030227238 0.03245104 0.027155265 -0.030706866 0.031775855 -0.02833536
-0.013040445 -0.025286091 0.008631205 -0.01586231 0.008048969 -0.035389848 -0.002905639 -0.024985012
-0.0037255257 -0.0065984805 -0.034738768 0.0043060393 0.032789513 0.0007841837 0.031238338 -0.019765895
0.021127697 -0.012294141 -0.011690365 -0.032842558 -0.029001683 -0.021381788 -0.012877965 -0.033579186
0.018811187 -0.047536198 -0.0086883595 -0.05066205 -0.01986087 0.0056234756 -0.0011421844 0.038271148
0.010693376 0.008336018 0.0113595035 -0.008103047 -0.0058624716 -0.007037139 0.006483213 -0.029669473
-0.025015762 0.022749964 -0.0031013966 0.0101976935 -0.030692285 0.0041139526 -0.025752688 -0.039069243
0.021529865 -0.038722355 -0.022373874 0.013178006 -0.004460134 -0.013506527 -0.02499906 -0.030151492
0.0019599954 -0.02171647 -0.009362334 -0.013476159 -0.015547915 0.005918972 0.001253256 0.015797995
-0.040230237 -0.033872448 -0.016253585 -0.031788964 -0.046711914 0.0049618543 -0.017785558 0.017611146
-0.005222879 0.025312465 0.006712268 -0.0019628294 0.0118615385 -0.013490094 -0.022464436 -0.016762592
-0.0086739585 -0.015190669 0.020155504 0.029279716 -0.011139194 0.0032845933 -0.032556012 -0.0002164296
-0.019698713 -0.0076211197 -0.01720647 0.032915242 -0.021783892 -0.011020162 0.019611353 0.02097018
0.04312304 0.0049904757 0.019235572 -0.02976161 -0.046771526 -0.013015201 0.0068945424 0.02271692
-0.012083794 -0.030948563 -0.0036220853 -0.04277161 -0.019139003 0.027952846 0.039514698 -0.037029862
-0.0038284338 0.031380564 0.0042267097 0.02712484 -0.013418083 -0.003568278 -0.0012823548 -0.018474352
-0.0341264 -0.02062602 -0.027638229 0.0075849094 0.0079561565 0.026477128 -0.034932684 0.047938965

action_model._discrete_distribution.branches.1.bias f4 [3]
00000000: f3f5 a53c a50a 33bc 39ad b5bc
0.02025888 -0.010927831 -0.022177326

action_model._discrete_distribution.branches.2.weight f4 [2, 128]
00000000: acbd e93b 8c53 853c 0d6a 83bc 0c39 973c
00000010: 101f 26bd 5459 1bbd d893 773c 1312 7e3c
00000020: b3d6 a8bc 3318 0f3d 0ce2 3b3d c3e6 0e3d
00000030: 3f1e 2abc cd2b cf3c 3164 d0b9 b7f2 163d
00000040: 4e57 d0bc df15 ef3b a954 373a 9e4a fe3c
00000050: 253c 3a3b 5a94 ab3c 896b f23c 1eb8 fc3c
00000060: 53eb efbc be1c 013d 4283 0d3c 90d8 8b3c
00000070: 6e06 9f3c ca07 3b3d 4d4e 02bd 5bc3 90bc
00000080: da32 2c3d 98fe 39bd 427e b7bc da8d 01bc
00000090: 010c 753c b971 103c aabe ab3c 56ea 023d
000000a0: b3ec 9bbc 0562 343c dcef ba3c 97a1 e23b
000000b0: 0ef9 a3bb 067f 8ebc b485 d73c 866d af3c
000000c0: a393 d6bc 0324 573d 9be6 c73c 38f1 323c
000000d0: c85a b63c 4d2d 8cbc b700 633c ff11 a53c
000000e0: b0ad ab3c 5420 f93c a96a fa3c 3ca2 973c
000000f0: 04be b33c 33ed 67bc 981e 44bc 40e5 a83c
00000100: f42d dd3c 5e65 393d 96f6 d23c a949 5b3c
00000110: 8cfd a13c 8ff3 79ba 0e3a ceb9 0d5e babc
00000120: 4424 10bb e268 9dbc 2f4e 3cbd 539e ad3c
00000130: c98b 833c 6ff8 ac3c 258a 623d eb3a b73c
00000140: c75f 003c 959d 013d 1d21 dfbc 173f 66bc
00000150: 6f57 de3b 6b04 a8bc 6df5 193d dbd8 c93b
00000160: 0b9d 003d ed71 eb3c 3850 173d e4d9 13bd
00000170: a0c9 253d 77de e13c c711 04bd 6c77 b03b
00000180: a0e9 bfbc f4ad 42bc dcfe 88bb b4b6 fd3b
00000190: e1b8 2b3d 7f48 0a3d 90e6 2fbc 74ae d8bb
000001a0: f5ec abbb 54d7 033c 554e b23c 8bda 273c
000001b0: 1e63 9a3c 9748 9abc bc20 13bd 915b 983b
000001c0: 2152 0e3d 9d89 49bc a0fc e43c 2de1 79bc
000001d0: cd27 f13c 303a 9a3c bc90 c7bc 5571 a4bb
000001e0: 563c ba3c cbcb 3b3c c119 c93c 5a13 8a3c
000001f0: a9fa 983c beaf b73b 1414 b23c 5c3c 71bc
00000200: 1906 e0bc 0a65 05bd 40ec cd3c 127d 07bd
00000210: 8f65 8a3c 7beb fa3c c052 f5bc cddb 7dbc
00000220: 1c68 c43c e8c2 57bd bbc0 4dbd 9f77 46bd
00000230: 661f 423c a793 b4bc f314 5cbc dbe9 d1bc
00000240: c7bc 023c 3b19 f0bc 8bdf 95bc 7491 0dbd
00000250: ab99 51bc 0ec0 2fbd 1763 60bc 1f5d 90bc
00000260: 56fc 103d d942 a2bc 0def 4ebc bfc2 86bc
00000270: 5b2b cabc c8f9 febc b29f ab3c 070c 1abb
00000280: 1c37 9fbc 5eee 443d d8a1 543c d571 3a3c
00000290: a38a 4fbc ea05 c2bc 7eff d9bc 3885 f7bc
000002a0: aca8 853c 5803 27bd 1df8 c1bc 717f 9cbc
000002b0: 8100 05bc f4a0 a43c f2f9 66bc 532a 0abd
000002c0: 50a0 9f3c e6f4 47bd e149 fcbc 5a43 b7bc
000002d0: a961 1dbd 920c f63c f9f5 78bc 63b8 f3bc
000002e0: 536c e0bc 7696 92bc 45e1 ecbc 0f47 57bc
000002f0: 3624 fcbc fa54 d03b a7ee df3c a7b4 36bd
00000300: db08 9abc a4f1 cdbc 1a02 c7bc 439d 84bc
00000310: 4736 04bd 90ec 923c 6175 e7ba a06f e73c
00000320: 1b6a 083c 381d 6b3c c7b7 3c3d 3bea 8cbc
00000330: a663 b4bc c062 57bc 6ee8 20bd 31ff 16bd
00000340: dc32 053c 4b37 2bbd 8b3e 153d c2f4 ac3c
00000350: ee08 48bc b2cf 213a 9f50 20bd 71ba 01bc
00000360: b06d 87bc f250 23bd bc13 15bd 0843 fb3c
00000370: 5ba8 2ebd 9f73 febc c14d 4a3d edef 5f3c
00000380: 70b3 5b3c ea6b 253c fe83 a53a 03fa edbc
00000390: af4a ffbc f648 8dbb be02 b1ba acb0 a13c
000003a0: aa85 f9bb c0f2 41bc 57d5 0ebd a1df 0bbd
000003b0: cb4a adbc ddb6 d63c c785 233d afd2 56ba
000003c0: bf67 14bd e3a9 043d abe3 c2bc 9469 e13c
000003d0: 0dcd 71bd 8932 a3bc 0355 ca3c 1a66 fb3b
000003e0: 8954 83bc 853f 6abc b671 cebc 0d7b 59bb
000003f0: 6629 38bc 6da3 643c 3618 9dbc 0e2b 703b
0.0071332064 0.01627519 -0.01604178 0.01845982 -0.040556967 -0.037926987 0.015110932 0.015507239
-0.020610189 0.034935188 0.045869872 0.03488804 -0.010383188 0.02528944 -0.000397475 0.036852565
-0.025432255 0.0072963084 0.00069935113 0.03104144 0.0028417197 0.020944763 0.029592292 0.030849513
-0.029287016 0.03152155 0.008637251 0.017071038 0.019412246 0.045661725 -0.031812955 -0.017671278
0.042040683 -0.045408815 -0.022399072 -0.007907355 0.014956475 0.008816176 0.02096494 0.03196176
-0.019033765 0.011009698 0.022819452 0.0069162357 -0.005004055 -0.017394554 0.026308872 0.02141453
-0.026193446 0.052524578 0.024401953 0.010921769 0.022260085 -0.017111445 0.013855151 0.020150183
0.020956844 0.030410923 0.030568438 0.018509977 0.021941192 -0.014155674 -0.011970185 0.020617127
0.026999451 0.045262687 0.025752347 0.013384261 0.01977422 -0.0009534889 -0.00039334636 -0.022749925
-0.0021994272 -0.019215051 -0.045973 0.021193659 0.016057866 0.021114556 0.055307526 0.022366961
0.007835335 0.031644423 -0.02723747 -0.014053128 0.0067853252 -0.02050992 0.037587572 0.0061598844
0.031399768 0.028740847 0.036941737 -0.03609647 0.040475488 0.0275719 -0.032243516 0.00538533
-0.02342683 -0.011882294 -0.004180772 0.007742727 0.04192436 0.033760544 -0.010736123 -0.0066125933
-0.0052467533 0.008046944 0.021765867 0.010244976 0.01884609 -0.018833442 -0.03591989 0.0046495874
0.034746293 -0.012300876 0.027952492 -0.01525144 0.029437924 0.018826574 -0.024361007 -0.005018393
0.022733849 0.011462162 0.024548413 0.01685493 0.018674212 0.005605667 0.02173809 -0.014723863
-0.027346658 -0.03256706 0.025137067 -0.03307826 0.01689413 0.030629864 -0.029946685 -0.015494299
0.023975424 -0.05267611 -0.05023263 -0.048453923 0.011848306 -0.022043062 -0.013432729 -0.025624206
0.007979578 -0.029308906 -0.01829507 -0.034562543 -0.012792985 -0.042907767 -0.0136955 -0.017622529
0.035396896 -0.019807266 -0.012630236 -0.016450284 -0.024678877 -0.031124964 0.020950172 -0.0023505704
-0.019435458 0.048078887 0.01297804 0.011379679 -0.012667331 -0.02368446 -0.026611086 -0.03021489
0.01631578 -0.040774673 -0.02367788 -0.019103738 -0.008117796 0.02009628 -0.014097678 -0.03373177
0.019485623 -0.048817538 -0.030796947 -0.022370983 -0.038423214 0.03003529 -0.015195363 -0.029751008
-0.027395403 -0.017894011 -0.02891601 -0.0131395 -0.030778985 0.0063577862 0.027335478 -0.044605877
-0.01880305 -0.025139637 -0.024292994 -0.01618827 -0.032278325 0.017935067 -0.0017658883 0.02825147
0.008326079 0.014350228 0.0460737 -0.017201534 -0.022020172 -0.013146102 -0.039284162 -0.036864463
0.008129802 -0.04180078 0.0364366 0.021112803 -0.01220916 0.00061726116 -0.039139386 -0.007917986
-0.016531795 -0.039872117 -0.036395773 0.030671611 -0.042641025 -0.031060992 0.04939056 0.013668043
0.01340948 0.0100965295 0.0012627838 -0.029049879 -0.031163542 -0.004311676 -0.0013504846 0.019737564
-0.007614811 -0.011837661 -0.034871425 -0.034148816 -0.021153828 0.026210243 0.039922502 -0.00081948465
-0.036231752 0.03238858 -0.023790201 0.027516164 -0.059033442 -0.019921558 0.02469874 0.0076720836
-0.01603152 -0.014297371 -0.025200706 -0.0033184916 -0.011240339 0.013954979 -0.019176584 0.0036646756

action_model._discrete_distribution.branches.2.bias f4 [2]
00000000: f895 543c f995 54bc
0.012975208 -0.012975209

exp_avg f4 [128, 6]
00000000: 2c0e 5439 8241 6b38 24b7 4cb8 5a36 e7b8
00000010: 3f63 1639 23d8 3738 fa03 f2b7 00c5 6938
00000020: 2c43 e336 bd41 0d37 88c7 6d36 53ab bbb6
00000030: 15ab 69b8 d27b ad38 e9f1 c6b8 5425 53b8
00000040: d04b 1d38 d22b ae37 05d9 8638 8bd7 0eb7
00000050: 8ddd 94b8 0859 55b9 5102 8f39 c7a3 a038
00000060: 828d a736 5180 8b37 63e4 37b8 542e 37b8
00000070: bb40 3838 8bad 9237 a74e 8fb8 54fb b4b9
00000080: 1f69 f638 602c 6838 3a46 66b8 f70a 30b8
00000090: 345c a139 f273 a1b8 85bc e9b7 1ea3 52b9
000000a0: 1655 c739 e5df 5738 37ce 4139 ce72 6636
000000b0: f23b 2bb8 4b36 1bb9 efa6 9939 5b4a d437
000000c0: a9a1 8eb8 6551 bf39 9a4d 0db7 22f1 8c39
000000d0: f873 87b9 ef77 92b8 5583 8f37 c9fe 54b8
000000e0: 359f 2fb8 8e49 9536 3a4f d135 f7a2 11b7
000000f0: c5bd 30b8 f09c d039 688c c337 f319 bc39
00000100: 561b cbb9 a45c 80b8 6d5d e7b7 4b05 9539
00000110: 4304 a938 1da5 b039 bf42 9bb9 6fe9 14b9
00000120: 387d e738 bf50 ae37 0751 41b8 12b4 1bb9
00000130: d4d2 3a39 31cf 8438 98d3 4738 432a 4eb8
00000140: ea78 38b6 a3e4 7bb6 4056 ba38 9299 52b7
00000150: 8705 cbb9 c8ba e1b9 a900 cb38 461d 0139
00000160: 4807 16b9 2e26 cab8 4a5e 13b9 eae8 94b9
00000170: 40d8 b135 6abc 8cb6 5f5d 81b8 2233 46b7
00000180: 88e9 28b9 7514 2aba 6ba5 f1b7 fd7c 61b9
00000190: 77fa da38 c410 5b38 fec6 b5b7 a6fb ac39
000001a0: dc96 6838 480e c339 71d2 b7b9 8e24 09b9
000001b0: e7fc e138 a9f6 dfb9 967d 9f37 b590 25b9
000001c0: 7758 4739 7291 0d38 69a1 9eb8 96ea 3338
000001d0: 2549 4bb9 151a 09b9 a3c6 ec38 aff2 d337
000001e0: 8370 34b8 87e3 7f38 4f00 a6b8 a5be 26b8
000001f0: 4fdf b637 71fc 5a37 1dad be36 eb8e 8d36
00000200: 0c8c 09b9 b807 25b9 26f4 3339 5b0d 5938
00000210: 400b 0137 d116 a836 ef8d af36 e77f f635
00000220: 9757 2038 f1d1 27b6 549f 0039 2965 abb8
00000230: f37e f437 7455 49b8 0beb 3239 3e80 ad36
00000240: 3559 2db9 a7c0 6039 47f1 9e38 e4cb f939
00000250: 6a33 e5b9 b40e 56b9 80f4 6fb8 0bc7 7939
00000260: d9e0 6fb8 0a9c 9138 c4af a1b8 4f14 78b7
00000270: 48d2 e3b8 0c14 0eb9 f008 fab6 3a6f 03b7
00000280: 24dd b4b6 730c be36 b881 8739 8498 2a39
00000290: 52ea 39b8 6e46 be37 55c9 3838 9838 60b8
000002a0: 21ef 51b9 9caf d437 847b 9f38 2b33 8739
000002b0: 2a44 91b9 e0cb c7b8 6e93 17b7 2579 2738
000002c0: ea17 68b8 be58 16b8 1ad8 da38 b19e 0f38
000002d0: 432e 3638 7576 1238 89aa dfb7 695d a6b8
000002e0: 0554 de38 dd61 1d38 c93a deb9 75b8 bf39
000002f0: 6b56 b239 d86f 7a3a de91 75ba 1bdb e3b9
00000300: 1572 d9b9 bfe5 e6b9 ed9a ff36 e38d b838
00000310: f66e 5eb9 c627 ceb8 e2f7 3bb9 d2e6 f038
00000320: 4296 fb38 2da8 8839 e811 5cb9 e0c7 28b9
00000330: ccb6 56b8 9cb8 e639 0f71 4d38 9421 e339
00000340: 5416 e2b9 20bf 16b9 64ac a0b9 a89b a7b9
00000350: aa0c 8339 0619 cb39 2780 dfb9 0f8e 1fb9
00000360: 3dde 1b38 8e65 4d39 e50c d338 f627 a339
00000370: 7134 8bb9 56af 85b8 02a0 5cb8 471e b639
00000380: ae79 7538 d75c e039 9285 bcb9 1f07 73b9
00000390: 796b 0db8 208c 03b9 80ba 12b9 1cb8 8fb9
000003a0: 011f 5f39 b04c 0839 9d17 8fb9 7768 cc38
000003b0: 3650 0a39 2d53 c539 c069 cbb9 a8a0 55b9
000003c0: 682a 3bb9 dda3 5bb8 4b14 df38 30aa 7339
000003d0: 074c 90b9 550a b7b8 2402 05ba 97d3 21ba
000003e0: 9b0f 4738 ee97 43b7 8dde b0b8 df98 3cb8
000003f0: 1fed 9638 674d a2b9 dc52 c0b5 1c39 73b9
0.00020223175 5.6089375e-05 -4.8807953e-05 -0.00011025062 0.00014342087 4.3831893e-05 -2.88505e-05 5.5735e-05
6.772947e-06 8.419561e-06 3.5431895e-06 -5.592979e-06 -5.571086e-05 8.272346e-05 -9.486435e-05 -5.0341085e-05
3.7502323e-05 2.0762822e-05 6.430041e-05 -8.514045e-06 -7.098457e-05 -0.0002034643 0.0002727681 7.6599004e-05
4.9934615e-06 1.6629843e-05 -4.38433e-05 -4.3673746e-05 4.3929304e-05 1.7485369e-05 -6.8334215e-05 -0.0003451953
0.000117497744 5.5354438e-05 -5.4901677e-05 -4.197188e-05 0.0003077701 -7.698675e-05 -2.786355e-05 -0.00020087927
0.00038019632 5.1468513e-05 0.00018482735 3.4339496e-06 -4.0825405e-05 -0.00014802178 0.0002930681 2.5306994e-05
-6.801199e-05 0.00036491003 -8.422323e-06 0.0002688254 -0.0002583561 -6.984162e-05 1.7108085e-05 -5.0782026e-05
-4.1871524e-05 4.449109e-06 1.5594771e-06 -8.680617e-06 -4.2138407e-05 0.0003978978 2.3311193e-05 0.00035877488
-0.00038739544 -6.120771e-05 -2.758085e-05 0.00028423438 8.059342e-05 0.00033692355 -0.00029613634 -0.0001420134
0.00011038262 2.0780017e-05 -4.609025e-05 -0.00014849033 0.00017816882 6.332843e-05 4.764236e-05 -4.9153587e-05
-2.7488518e-06 -3.7534999e-06 8.8852365e-05 -1.2552731e-05 -0.00038723295 -0.00043054507 9.679917e-05 0.00012313304
-0.00014307827 -9.639222e-05 -0.00014054138 -0.00028402294 1.3250465e-06 -4.1942594e-06 -6.168591e-05 -1.1813625e-05
-0.00016108726 -0.00064880337 -2.8806468e-05 -0.00021504234 0.00010441703 5.2229283e-05 -2.1669544e-05 0.0003299389
5.545361e-05 0.0003720394 -0.0003506127 -0.00013078956 0.00010775943 -0.0004271765 1.9012758e-05 -0.00015789534
0.00019011075 3.3752476e-05 -7.564092e-05 4.28954e-05 -0.00019386837 -0.00013075054 0.00011290356 2.5266168e-05
-4.302013e-05 6.100864e-05 -7.915554e-05 -3.9755036e-05 2.1800077e-05 1.3052589e-05 5.6825943e-06 4.2187653e-06
-0.0001311751 -0.00015738502 0.00017161723 5.174927e-05 7.6916185e-06 5.0094463e-06 5.2319297e-06 1.8365653e-06
3.8228547e-05 -2.5007141e-06 0.00012266386 -8.172758e-05 2.9146182e-05 -4.800172e-05 0.00017062963 5.170731e-06
-0.00016531798 0.00021434073 7.5789685e-05 0.0004764489 -0.0004371659 -0.00020414108 -5.720975e-05 0.0002382064
-5.7191446e-05 6.943203e-05 -7.709817e-05 -1.478668e-05 -0.000108633714 -0.00013549643 -7.451621e-06 -7.834105e-06
-5.390162e-06 5.6638905e-06 0.00025845855 0.0001626928 -4.4325665e-05 2.2682561e-05 4.4056524e-05 -5.345847e-05
-0.00020020876 2.5354144e-05 7.6047174e-05 0.0002578733 -0.0002770734 -9.527034e-05 -9.0346275e-06 3.9928727e-05
-5.5335382e-05 -3.5845434e-05 0.00010435302 3.424165e-05 4.3435266e-05 3.4919434e-05 -2.6663083e-05 -7.932896e-05
0.00010601435 3.752286e-05 -0.00042386938 0.0003656779 0.00034015192 0.0009553409 -0.0009367744 -0.0004346006
-0.00041474463 -0.00044040193 7.617628e-06 8.800232e-05 -0.00021212906 -9.830254e-05 -0.00017926053 0.000114870854
0.000119966004 0.00026065242 -0.00020987506 -0.00016096188 -5.119182e-05 0.00044006563 4.8981103e-05 0.00043321832
-0.00043122715 -0.00014376314 -0.0003064602 -0.00031968695 0.00024995703 0.0003873782 -0.00042629355 -0.00015216343
3.7161855e-05 0.00019588156 0.00010063666 0.00031119556 -0.00026551218 -6.374593e-05 -5.2601106e-05 0.00034736303
5.8525875e-05 0.0004279378 -0.00035957672 -0.00023176939 -3.371711e-05 -0.00012545334 -0.00013993122 -0.00027412258
0.00021278487 0.00012998539 -0.0002729268 9.746936e-05 0.00013190586 0.0003763674 -0.00038797967 -0.00020373112
-0.00017849507 -5.236628e-05 0.000106372485 0.00023237686 -0.00027522465 -8.7280445e-05 -0.00050738663 -0.0006173192
4.745983e-05 -1.165828e-05 -8.433787e-05 -4.4965065e-05 7.1967246e-05 -0.00030956717 -1.432923e-06 -0.00023195561
