results/PressButton/PressButtonAgent_ImitationLearning/PressButtonAgent/PressButtonAgent-12975.onnx (onnx, 83197 bytes, 11 tensors)

discrete_act_size_vector f4 [1, 3]
000000 00 00 40 40 00 00 40 40 00 00 00 40
       3.0 3.0 2.0

network_body._body_endoder.seq_layers.0.weight f4 [128, 6]
000000 d9 a5 3b bf 85 5f f8 bc 3b ff 5c 3d a1 c4 35 bf
       -0.7329994 -0.030318985 0.053954344 -0.71003157
000010 9a b8 f9 3c c4 05 f9 bd 86 45 29 3f 58 75 cd bd
       0.030483533 -0.12159303 0.6612171 -0.10032147
000020 c4 bb c4 bd 92 17 d9 be 29 af 0d 3f 38 79 e0 3e
       -0.09606126 -0.42400795 0.553454 0.43842483
000030 df cd fd 3e 61 10 86 be 75 29 28 bb 19 82 39 be
       0.4957113 -0.2618437 -0.0025659476 -0.18116035
000040 80 d8 f3 3e 07 73 8f 3d f0 0c e9 3e 03 85 b7 be
       0.47626114 0.070043616 0.45517683 -0.35843667
000050 42 2b 23 bf 14 f3 61 bf dd f7 89 3d 1f 16 f8 3e
       -0.6373788 -0.8826153 0.06736729 0.48454377
000060 91 dc e6 be 5d 10 0a bf f9 6a a2 be 7a c5 1f 3d
       -0.45090154 -0.5393122 -0.3172224 0.039006688
000070 d1 da d5 bd 4c 4c 9b be 91 5f 70 be 4b ee 08 be
       -0.104421265 -0.30331647 -0.23473956 -0.13372152
000080 b5 35 0f bf f1 3c e0 be d7 75 e0 3e 0e 11 98 3e
       -0.55941325 -0.43796495 0.43839905 0.29700512
000090 98 1e a3 be e6 be 00 bb f9 7d c6 bd 20 07 21 bf
       -0.3185928 -0.0019645034 -0.09691996 -0.62901497
0000a0 2d 3d 41 3e 2c b2 29 3f 2f ac 94 3e d7 28 c3 3e
       0.18870993 0.66287494 0.29037616 0.38117096
0000b0 77 12 11 bf f7 f0 2c 3f 45 a1 15 bf 1e 1e a1 be
       -0.566688 0.67555183 -0.584492 -0.3146829
0000c0 6c d2 e7 be aa 00 1e be 4c 35 99 3d c5 72 bb bd
       -0.45277727 -0.15429941 0.07480869 -0.0915275
0000d0 37 e8 c6 bc 26 cd eb be ac 52 b7 be 38 82 22 bc
       -0.02428065 -0.46054953 -0.3580526 -0.009918742
0000e0 2c ff 8a 3e 18 fc b2 bd e9 4b 1e bf 1d 49 4e 3e
       0.27147806 -0.08739489 -0.6183458 0.20145078
0000f0 21 ad 4f 3e 6c 16 8a bd 32 88 97 3e 16 01 7d 3e
       0.20280887 -0.06742558 0.29596096 0.24707446
000100 c5 41 c8 bd a1 fd 87 3e 01 3e af bd 8a ee a4 bc
       -0.097781695 0.2656069 -0.08556748 -0.020133276
000110 67 32 15 bf 59 82 e5 3e f6 58 40 3f 57 b6 1a bf
       -0.5828003 0.4482601 0.75135744 -0.6043448
000120 40 76 e1 3e 46 f9 3b 3e f6 34 05 bc 7e 36 d1 3e
       0.4403553 0.18356809 -0.008130303 0.40861887
000130 19 a3 6f be a6 32 20 3f 29 b0 0c 3d 8e 06 ac bd
       -0.2340206 0.62577283 0.034347687 -0.08399688
000140 32 90 f4 3d 21 08 a3 bc ce 47 8b bd df 92 22 bf
       0.119415656 -0.019901337 -0.06800805 -0.6350536
000150 86 13 47 3e 15 f4 56 bf bc 54 3d be 32 a0 ca 3e
       0.19441041 -0.8396619 -0.18489355 0.39575344
000160 b6 7a 95 bb 9b 50 a3 3e 51 0f ce be 04 52 5d 3e
       -0.0045617474 0.31897435 -0.4024606 0.21613318
000170 b3 e6 97 be 65 74 18 3e 1f 18 d1 bc 3d d3 25 3f
       -0.29668197 0.14888151 -0.025524197 0.6477545
000180 a0 fb 29 3e f6 61 4c bf 43 ef 04 be 49 9a 81 3e
       0.16599894 -0.79836977 -0.12981896 0.25313023
000190 2c a7 48 3f 8e f2 b9 be c5 64 12 3f 13 fa 8b 3e
       0.78380084 -0.36317867 0.5718501 0.2733923
0001a0 94 35 c8 3d b1 fa 12 3f 5a cc fa 3d dc 7e 15 3f
       0.09775844 0.57413775 0.12246008 0.583967
0001b0 75 03 c3 3d b2 80 49 3f d9 ac e1 3e e6 94 0b bf
       0.09522144 0.78712 0.44077185 -0.54524076
0001c0 50 8f dd be 67 4b 9f bd 99 8b 13 bf 2c 70 d4 be
       -0.432734 -0.07778054 -0.57634884 -0.4149183
0001d0 e3 27 96 3e 51 4b 62 3f 08 cd fd 3e 8e 54 d7 3e
       0.29327306 0.88396174 0.4957049 0.42056698
0001e0 a2 ee e7 be 80 63 d6 3e a9 3c 27 3f 76 ac 3b 3f
       -0.4529925 0.41872787 0.65326935 0.7331003
0001f0 c7 b6 6b 3e 13 a6 e8 bd 48 b8 e7 b9 06 64 0c 3f
       0.23018943 -0.11359801 -0.00044197054 0.54840124
000200 47 9d 8b 3e 20 30 9a 3e 0d d0 78 be ed 96 c5 be
       0.2726843 0.3011484 -0.24298115 -0.3859171
000210 38 1a c5 3c 02 c4 56 3f 87 38 4e bf 82 b7 15 bd
       0.024060354 0.83892834 -0.80555004 -0.03655196
000220 05 7b 80 be 4b 2a 81 3d b8 9b 4d 3e 67 45 b3 bc
       -0.25093856 0.06306895 0.20078933 -0.02188368
000230 6d 22 01 3f 10 a9 9e be 80 3d fa be 6e 2b b2 be
       0.50443155 -0.3098836 -0.48875046 -0.3479876
000240 f8 e0 05 3f 28 ab ea bd 4b 8f 33 bf 32 19 1c bf
       0.522964 -0.11458427 -0.7014052 -0.60975945
000250 14 34 26 3f d0 63 6c 3d 08 5a b4 be ab c5 f1 3e
       0.64923215 0.057712376 -0.35224938 0.4722112
000260 d9 2d 1e 3e b2 08 6d 3d ef 65 0f be 24 9f a2 bf
       0.15447177 0.05786962 -0.14003728 -1.2704816
000270 b7 d0 c8 3e e4 fc 1f 3e 57 00 8c bf 09 18 a2 3e
       0.39221737 0.15623814 -1.0937604 0.31658962
000280 00 eb a0 3e fe 30 99 3e 48 b4 6d 3f 43 fa e2 be
       0.3142929 0.2992019 0.9285321 -0.4433156
000290 89 7e 51 3f cf fe 2c 3e 38 51 a4 3c a3 a1 5f be
       0.818337 0.16894077 0.02005826 -0.21839003
0002a0 ef c8 e3 3e a7 7a 1d bf 3b b8 f4 bd e7 bb 11 be
       0.44489238 -0.6151528 -0.11949202 -0.14231835
0002b0 71 cc 63 be 48 e6 3f 3e 8f fb 35 be bc ff b8 3e
       -0.22245957 0.18740189 -0.17771743 0.3613261
0002c0 12 31 04 bf 88 c1 59 3e 73 92 c1 bd d9 50 c4 be
       -0.51637375 0.21265233 -0.09451761 -0.38342932
0002d0 7d 9f 4e be d5 6a 14 be 3a 25 6e be 7d ed 98 3e
       -0.20178027 -0.14493878 -0.23256388 0.2986869
0002e0 af 4e 17 3f 0c 40 2a 3e 6b 2e f6 bd 3c 57 1c 3d
       0.59104437 0.16625994 -0.12020572 0.03816913
0002f0 50 7b 94 bc 89 55 34 3f c0 64 08 3f 38 03 3d 3f
       -0.018125206 0.70443016 0.5327873 0.73833036
000300 eb 51 02 3e 90 9d 38 bf 62 69 08 bf 4c d5 2c bf
       0.12726562 -0.7211542 -0.532858 -0.67512965
000310 90 d7 64 3e eb 14 6f be 8b b0 6c be 0c a9 dd be
       0.22347856 -0.23347823 -0.23114221 -0.43293035
000320 cd 1b bc be 9f c3 20 be 69 7c 53 3e a1 aa 9d be
       -0.3673996 -0.15699624 0.20652927 -0.30794242
000330 90 46 15 3e a5 4e dd 3e e3 da d2 be e6 a7 0c 3d
       0.14577699 0.43224064 -0.41182622 0.034339808
000340 b2 ac 9e be 97 ca 2d 3e 5a 7d 0c 3f ba ad a3 3c
       -0.3099113 0.16971813 0.5487877 0.0199803
000350 2b 23 26 3f b6 86 82 bf 0c 9d cb be df bf 86 bf
       0.6489741 -1.019736 -0.39768255 -1.0527304
000360 25 8f 28 be 62 49 c0 be 6b 8d cc 3d e6 bb 0d 3f
       -0.16460855 -0.37555987 0.09987911 0.55364835
000370 09 a0 ec bd 2b 5f b8 be 5f 65 18 3f e0 1b a1 3e
       -0.11553962 -0.36010107 0.5952968 0.3146658
000380 f9 71 f4 be 98 5f 0f be 16 80 78 3e 4f f9 ff bc
       -0.47743204 -0.1400131 0.24267611 -0.03124681
000390 f6 02 bd 3e 6f e9 74 3e 66 ed cf be c9 c9 e0 bd
       0.36916322 0.23917173 -0.40610808 -0.109759875
0003a0 4b 2a 37 bf c3 6a a6 be dd d7 d1 3b 6e 8b 64 3e
       -0.7154891 -0.32503328 0.0064039067 0.22318813
0003b0 aa 78 b1 be 7b 2f 84 3d 89 a4 09 bf 4d 37 f4 3e
       -0.34662372 0.06454369 -0.53766686 0.4769844
0003c0 30 d7 5f bf 15 9b 0d 3f 3c 8a 54 3f 56 e3 3a 3e
       -0.87437725 0.5531476 0.8302343 0.18250784
0003d0 b0 b9 07 bf 85 d1 9e 3e 22 3a 83 be a2 2b 2b bf
       -0.5301771 0.31019226 -0.2563029 -0.66863453
0003e0 49 b2 af bd be 1f 53 3f 04 a7 28 bf ab 43 80 bd
       -0.08578927 0.8247031 -0.65879846 -0.06262907
0003f0 15 19 98 3e 85 70 40 be f4 a1 83 3e 77 37 10 bf
       0.29706636 -0.18792923 0.25709498 -0.5633463

network_body._body_endoder.seq_layers.0.bias f4 [128]
000000 36 f9 09 bc 65 16 8b bb 90 41 6d 3c b1 65 55 bc
       -0.008421233 -0.004244613 0.014480963 -0.013024733
000010 c2 81 c0 bc e4 5a 42 bc 18 66 a4 3c 10 67 55 3c
       -0.023499373 -0.01186249 0.020068213 0.01302506
000020 d4 f4 de 3c 03 41 34 3c 74 40 b8 3c 34 f9 a0 bc
       0.027216353 0.011001828 0.022491671 -0.01965008
000030 bf bb 89 3c 33 41 b7 bc 83 ee b1 bc 9a da 92 3c
       0.016813157 -0.022369957 -0.021720177 0.017926503
000040 37 d1 ab bc 04 66 cf 3c 46 15 a7 3c 64 d3 93 3c
       -0.020973785 0.0253172 0.020395886 0.018045135
000050 30 6e ae 3c 9f 52 5a 3c 41 b3 7d 3c ad 24 07 bc
       0.021292776 0.0133253625 0.015484632 -0.00824849
000060 d3 e9 b2 bb 75 c1 57 3c 6b 95 d1 3c df 38 c0 3c
       -0.005460003 0.013168682 0.025583943 0.023464618
000070 da 22 3c bc 65 cb e9 3c 17 5a d0 bc 6e cc 2e 3c
       -0.011482919 0.028539369 -0.025433583 0.010668857
000080 e3 33 9c bb 95 9b 93 bc 25 6f 27 3c 5e 5b 99 3c
       -0.0047669276 -0.018018523 0.01021937 0.018720325
000090 08 b3 2b bc 10 6f 9e 3c 63 c0 b2 3c 0d 8d 80 3b
       -0.010479696 0.019340068 0.021820253 0.0039230646
0000a0 79 42 bf 3c 2c b1 bd 3c db 25 ad bc b9 e1 b7 bb
       0.023347126 0.023155771 -0.021136215 -0.005611625
0000b0 74 32 11 3c 30 46 00 bd 82 9c 90 bc 6f c3 50 bc
       0.008862127 -0.031316936 -0.017652754 -0.0127419075
0000c0 40 36 9c bb 61 45 a6 3c 44 29 da 3c ee 0a c4 bc
       -0.0047672093 0.020296754 0.026631005 -0.023930993
0000d0 04 df ce bc 89 6d a1 3c 6a 08 e3 3c c4 47 5a bc
       -0.025252827 0.01970555 0.027713973 -0.013322774
0000e0 68 97 9c bc 79 b4 7d ba 2a 76 82 3c 0d c2 ae bc
       -0.019115165 -0.00096780766 0.015925486 -0.021332765
0000f0 01 75 59 bb df 15 85 3c b4 a6 ac bc d1 53 98 bc
       -0.0033181312 0.01624578 -0.021075584 -0.018594654
000100 22 99 96 bc ba b7 78 bc c4 23 a5 3c c1 c5 a4 3c
       -0.018383566 -0.015180523 0.020158656 0.020113828
000110 15 ac ee bb 98 56 8a bc 7f 83 52 bc 33 5b c6 3b
       -0.0072836974 -0.016886994 -0.012848734 0.0060533523
000120 01 ba bc 3c d2 16 8c bc 6c f4 5b 3c 46 b5 eb bb
       0.023037912 -0.017100725 0.013424974 -0.0071932403
000130 19 49 c2 3c d7 b1 46 3c ff 3d c6 3c a8 5b b4 3c
       0.023716496 0.012127361 0.024199484 0.022016361
000140 5b 4d 67 3c fe 74 c7 bc e1 a5 03 bd 34 ee 40 3c
       0.014117564 -0.024347778 -0.032140616 0.011775542
000150 e8 d8 c6 3c e6 70 5b bc fc a5 6f 3c 21 d7 da bc
       0.02427335 -0.013393616 0.014626976 -0.02671391
000160 fa a3 71 bc a4 7f 18 bc 09 64 81 3c 4b e0 b2 3c
       -0.014748568 -0.009307776 0.01579477 0.021835467
000170 02 bb 78 bc b7 37 55 bc 39 f6 ca bc 3d 8d c0 3c
       -0.015181305 -0.013013772 -0.024775611 0.023504848
000180 85 47 a9 3c 43 25 b7 3c 51 ae 2b 3b 77 d4 9c bc
       0.020663986 0.022356635 0.002619643 -0.01914428
000190 07 bf 7d 3c d6 96 c6 3c ad 94 cc 3c 04 8e 80 bc
       0.015487439 0.024241846 0.024973238 -0.015692718
0001a0 85 db b2 bc b0 94 e3 3c 72 fa 0e bc 8d a9 b3 3c
       -0.02183319 0.02778086 -0.008726703 0.021931434
0001b0 4f b7 b2 3c d7 54 d0 3c 5c 3e 6b 3c b5 f6 86 bc
       0.021815924 0.02543108 0.014358129 -0.016475061
0001c0 5b f7 6c bb 10 1d 58 bc ff bc e9 3c a2 ba 8b bb
       -0.0036158178 -0.013190523 0.028532503 -0.0042641917
0001d0 83 63 24 bb 70 84 99 bc 52 6d 9a bc 8b 68 c0 bc
       -0.0025083728 -0.018739909 -0.018850956 -0.02348735
0001e0 c2 b5 87 3c a7 e2 f0 bb 27 74 c2 3c cf 99 bc 3b
       0.016566161 -0.007351238 0.023737026 0.00575564
0001f0 a3 dd 17 3c fa 3a 80 3c 27 b2 4a bc 68 1f 7d bc
       0.009269151 0.015653122 -0.012371576 -0.015449382

network_body._body_endoder.seq_layers.2.weight f4 [128, 128]
000000 dc 82 8d be d7 6b 85 bd 1e c6 d8 3d aa 41 db 3d
       -0.276389 -0.065147094 0.10584663 0.10705884
000010 e6 20 fc 3c 70 a8 11 be 79 cb d3 bd 4a 8b 34 3d
       0.030777406 -0.1422441 -0.10341544 0.04407815
000020 c8 23 59 3c 28 03 96 bd 06 bf 84 3c be 79 2e bd
       0.01325316 -0.07324821 0.016204368 -0.04259657
000030 a1 eb ad 3d eb 39 ff 3b b8 c7 cd 3c 94 c9 65 3e
       0.08492208 0.007788887 0.025119647 0.22440177
000040 b6 1d 62 bd 50 93 d7 3d d7 7e f7 3c 99 d2 83 3c
       -0.055204116 0.105261445 0.03021185 0.016091632
000050 59 f4 ed 3c 74 a5 09 3e 6a 29 16 bd dc 52 d9 bb
       0.029047178 0.13442022 -0.03666059 -0.006632192
000060 cb 16 50 bd 11 98 a2 3a f2 85 3e 3e de 7a 21 be
       -0.050802987 0.0012404938 0.18605784 -0.15769526
000070 34 5b 89 bc e6 dc 06 bc 0e 63 ef bd b4 2a a6 3d
       -0.016767122 -0.008231377 -0.11688815 0.08113614
000080 80 90 cc bc fe 0c b2 bd b8 0d 15 3d f9 fc 6e bd
       -0.024971247 -0.08693884 0.036390036 -0.058346722
000090 5f 13 06 3e 1b 22 4a 3c 2f 51 27 3d d0 f3 81 3d
       0.13093327 0.012337233 0.040848907 0.06345332
0000a0 75 26 3d bd 91 0c ed 3c 7b 1a fb 3d 10 73 76 bd
       -0.046179254 0.028936656 0.1226091 -0.060168326
0000b0 dc 78 a5 bd db fe 13 3e 5c e0 a8 bd b7 cd d9 bb
       -0.08079693 0.14452688 -0.08245918 -0.0066468376
0000c0 df 59 97 3b 76 c0 c3 bb 83 0b 09 be 7d d2 df bd
       0.0046188678 -0.005973871 -0.13383298 -0.10928819
0000d0 0e b4 c5 3c aa 30 bb 3d 04 b8 81 3c f0 0a ff 3c
       0.024133708 0.09140141 0.015834816 0.031133145
0000e0 e2 af 2a bd cc e7 b9 bd 55 33 78 bd 6f 07 70 bd
       -0.04167164 -0.09077415 -0.06059583 -0.05860084
0000f0 3d 30 38 bc 79 39 c4 3d ce 6c 19 be d0 f2 31 3b
       -0.01124197 0.095812745 -0.14982912 0.0027152784
000100 cb a5 4b b9 7c 96 05 3d 57 bc 3e bd 2a 74 c1 3d
       -0.00019421351 0.032614216 -0.046566334 0.09445985
000110 17 c6 5a bd 31 6b b0 3b a4 13 ea bd 42 5e 87 bc
       -0.05341157 0.005383872 -0.114295274 -0.016524438
000120 e3 bb 28 3d 51 9d a9 bd e8 43 4e 3d f8 d0 34 bc
       0.041194808 -0.08281959 0.05035773 -0.01103615
000130 06 99 db 3d d1 2e 32 3d 92 5d 23 bc b2 39 25 bd
       0.10722546 0.04350168 -0.009971039 -0.040338226
000140 04 64 3d bc 2a 1b d6 3d c7 56 88 bd a3 37 a9 bd
       -0.01155949 0.104544 -0.066571765 -0.08262565
000150 df b8 8a 3d 2e cf 28 3d 6e 74 94 3d c8 75 20 be
       0.067735426 0.041213207 0.0724877 -0.1566993
000160 0d 17 29 3d 33 af 05 3e cc b1 13 3e a8 2f 30 be
       0.04128175 0.13055114 0.14423293 -0.1720568
000170 54 94 0c 3e 38 58 5d bd f1 37 9c bd d1 51 fd 3d
       0.13728458 -0.05403921 -0.076278575 0.12369121
000180 0b 62 a5 3c f8 c3 15 bd fe ba c9 3d 6a 94 4d bd
       0.020188352 -0.036563843 0.09850119 -0.050190367
000190 4a e1 bb bd dc d0 2f 3d b0 ad 90 bd c9 7a f2 3c
       -0.0917383 0.042923793 -0.07064378 0.029599564
0001a0 c6 b2 f3 3d 84 85 5d bb d0 2a 97 3c 83 99 9b bc
       0.11899333 -0.0033801505 0.018453032 -0.018994099
0001b0 3a 9d 97 bd 96 3d ab 3d ef 9f 9a bc f4 29 66 3d
       -0.074030355 0.08361356 -0.01887509 0.056192353
0001c0 71 68 cc 3d 16 70 0a 3e c5 ca 61 3d ca 96 06 3c
       0.09980858 0.1351932 0.055125017 0.008214662
0001d0 0a 9f 3b bd 14 c7 93 bc 1a 39 79 bd 16 43 41 3d
       -0.04580597 -0.018039264 -0.060845472 0.04718312
0001e0 c6 65 0f bd fa 55 e6 3b cf 22 34 bd 2d 42 d2 bd
       -0.035009168 0.007029292 -0.04397851 -0.10266528
0001f0 7f c1 92 3c 94 1e ba bd da 32 9b 3b 51 91 8c bc
       0.017914532 -0.090878636 0.0047362866 -0.017159136
000200 d5 96 72 bd 24 3f 12 bd 4f 52 02 3e 51 3b 06 be
       -0.059225876 -0.035704747 0.1272671 -0.13108565
000210 82 5f 86 be 4a 24 f1 bd fa 59 88 3e f2 c6 04 bd
       -0.26244742 -0.117745 0.26631147 -0.03241629
000220 34 66 41 3d c0 c0 94 3c 7a d8 41 bd a6 7f 86 bc
       0.04721661 0.018158317 -0.04732559 -0.01641829
000230 3f a8 bf ba 42 ad 05 be 52 bb b6 3b 4b a8 33 3e
       -0.0014622285 -0.13054374 0.0055765295 0.17544667
000240 cd 22 88 bd 48 85 d5 3d 90 10 19 3e c1 ad d3 3c
       -0.06647263 0.10425812 0.14947724 0.025839688
000250 6c 7f 11 3d 3d 42 90 3d 87 36 80 bd 46 0f d5 3c
       0.03552191 0.07043884 -0.062604 0.02600826
000260 ce ef fd bc d2 4c 33 bd fb 52 79 bd 93 e1 11 bd
       -0.030998137 -0.043774433 -0.060870152 -0.035615515
000270 b4 c8 2b be 82 93 46 3d 48 d9 48 be 7f ab cf 3d
       -0.16775781 0.04848052 -0.19614136 0.10140132
000280 a6 4b a7 3d e5 aa bc bc 79 d5 06 be b1 bb 92 3c
       0.08168726 -0.023030708 -0.13167371 0.017911764
000290 21 35 8f bc de 75 9c bb 1b dd 1e bd b3 37 80 bd
       -0.017481389 -0.004774793 -0.03878508 -0.06260624
0002a0 b2 fc f0 3c a9 29 d0 bd ee be ca bc ab 0b 71 bd
       0.02941737 -0.10164196 -0.024749245 -0.058849018
0002b0 c8 7f 33 3d be 11 df 3d b0 a3 48 3d 9d 17 2a 3d
       0.043823034 0.10892056 0.04898423 0.041526426
0002c0 02 49 9d bd af 99 0a 3e 19 df 5e 3c 8f f9 25 3c
       -0.07679941 0.13535188 0.013602995 0.0101303
0002d0 f9 7b 47 bd c2 66 fe 3d 81 22 4a 3d a8 ff 6b 3d
       -0.048702214 0.12421943 0.04934931 0.05761686
0002e0 71 a4 6d bd 88 5b 2b 3e be 7e 3b 3e 77 b4 95 3d
       -0.05801815 0.16734135 0.18310067 0.073098116
0002f0 fb f5 bb bd 70 d5 94 bd 74 e8 f5 bd e4 ba d8 bb
       -0.091777764 -0.072672725 -0.120072275 -0.006614076
000300 df 15 1e be 62 b2 64 3c 83 56 88 bb 70 99 9b bd
       -0.1543803 0.013958545 -0.0041607036 -0.07597625
000310 43 88 ce 3d df b3 ff 3c d4 88 76 bd 12 85 72 bd
       0.100845836 0.031213699 -0.060189083 -0.059208937
000320 87 eb 82 bd 56 74 dc bd c7 64 32 bd 6e de c9 3d
       -0.063925795 -0.10764377 -0.04355314 0.09856878
000330 64 79 e0 3c 7e 21 74 3d 84 6f 8a 3d 84 f7 a9 3d
       0.027401634 0.059602253 0.06759551 0.08299163
000340 6d 0a fc 3d 0c 0d 08 3d 33 6f 4b be 50 40 73 3d
       0.12306676 0.033215567 -0.19866638 0.059387505
000350 75 79 ee 3d f9 e1 fa bc 2b 52 99 3d 6c 77 71 3c
       0.1164426 -0.03062533 0.074863754 0.014737945
000360 39 68 ba ba 14 f9 02 3c 0b b5 84 be 65 9e d9 3d
       -0.0014221735 0.007993955 -0.25919375 0.106259145
000370 4c 34 f4 3d 0c c8 96 3d 3f 84 a0 bd 12 f8 98 bc
       0.11924037 0.07362375 -0.07837724 -0.018672977
000380 31 7d fe 3d c5 c9 02 bd 4f 6e 29 be f4 55 67 bd
       0.12426222 -0.031930704 -0.16545986 -0.056478456
000390 a0 72 39 bd 6f ec 7a 3d 26 d2 4e 3e b5 e3 a3 3d
       -0.04527533 0.061260637 0.20197353 0.08002416
0003a0 3e 92 da 3b 0e c7 75 3d 70 3c fe 3d fd bb 1a be
       0.0066702655 0.060004286 0.12413871 -0.15110774
0003b0 46 f2 27 3d 45 e9 4e 3e 5f 38 32 bd 63 86 c9 3c
       0.041002534 0.20206173 -0.04351079 0.024600213
0003c0 db db a0 3c ec 64 c9 bc f7 6a b6 3e 56 24 4e 3d
       0.019636085 -0.024584256 0.35628483 0.05032762
0003d0 3a 5e 1e 3e 7f 09 86 bd 90 5f cd bd 14 48 6e bd
       0.15465632 -0.0654478 -0.10027993 -0.058174208
0003e0 19 fc b3 3d e2 0e 8e bd 56 10 70 bd 9c b6 2e bd
       0.08788318 -0.069364324 -0.05860933 -0.04265462
0003f0 86 8c a2 3d 56 23 54 3c 82 0c 06 bd 16 90 d6 bd
       0.07936959 0.012947878 -0.032726772 -0.10476701

network_body._body_endoder.seq_layers.2.bias f4 [128]
000000 15 1a 5a 3c 14 27 c8 3c ea d3 96 bc 1f 5e fd bb
       0.0133118825 0.024432696 -0.018411595 -0.0077321674
000010 fe 95 62 bc 64 bd 77 3c ba 26 4d 3c 59 cf 88 bc
       -0.013829706 0.015120838 0.01252144 -0.016700434
000020 e6 49 64 bc 22 b4 99 3c 5b 13 4d 3c f4 ff df 3c
       -0.013933634 0.018762652 0.012516822 0.027343728
000030 8e 08 95 3c 17 a1 df bb 32 cb b0 3c dd c4 9b bb
       0.018192556 -0.0068246233 0.021581266 -0.0047536925
000040 44 1c 9f 3b e8 98 38 3c 19 d7 93 3c 97 e3 3c bc
       0.0048556644 0.011266924 0.018046902 -0.011528871
000050 53 ad 8b bc 50 28 0e 3c c8 9a 3b bc fb ec 40 bc
       -0.01705042 0.008676603 -0.011450477 -0.011775251
000060 a6 c8 ca bc 0b ec 33 3c ea 83 43 bc 50 2c 81 3c
       -0.02475388 0.01098157 -0.011933306 0.0157682
000070 9e 6f d4 3c b4 1d c8 3c f8 56 82 3c 30 01 88 3c
       0.02593213 0.024428226 0.01591061 0.016602129
000080 58 f6 b4 3c 03 85 94 bc 85 5b 86 bc 5b 23 ec 3c
       0.022090122 -0.018129831 -0.016401062 0.028825453
000090 9a 98 78 bc 3e 1f 2c bb f3 d3 1d 3c 01 3a 36 bc
       -0.015173102 -0.002626374 0.009633052 -0.011122228
0000a0 e0 4f 02 3d ae 8c 6a bc 99 15 f0 bb 2a 32 73 bc
       0.031814456 -0.014315767 -0.0073267934 -0.014843503
0000b0 37 77 93 bc da b9 d2 bb eb 49 6c bc c6 43 55 bc
       -0.018001182 -0.0064308466 -0.01442192 -0.013016647
0000c0 29 37 9a bc 90 b9 2d bc f8 f7 9d bc c0 69 bc 3c
       -0.01882513 -0.010603324 -0.01928328 0.022999644
0000d0 03 84 90 3c cf eb 7d 3c 29 55 51 bc 5b bb 87 3c
       0.017641073 0.015498116 -0.012776651 0.01656883
0000e0 d0 23 9d 3c c8 c9 39 3c 2a b5 ab 3c 5f 04 b0 3c
       0.019182116 0.011339612 0.02096041 0.02148646
0000f0 c2 a1 96 3c 27 cb d1 3c 24 cd a8 bc 14 28 a3 bc
       0.018387679 0.025609566 -0.020605631 -0.019916572
000100 d3 c8 af 3c 36 94 d4 3c 7f 49 9f bc 72 60 c6 3c
       0.021458065 0.025949579 -0.019444225 0.02421591
000110 19 4f 05 bc 0d 5d 4c bb 81 c3 d9 bc 18 6c e0 bb
       -0.008136534 -0.0031183392 -0.026582481 -0.0068488233
000120 d9 0f 5f 3c a6 c2 b8 3c 45 81 96 3c 6a e5 a3 bc
       0.013614618 0.022553753 0.018372187 -0.020006854
000130 b8 31 23 bc 56 80 ca 3c d3 e9 b1 bc c3 91 59 bc
       -0.009960584 0.024719398 -0.021717941 -0.013279381
000140 a2 1e 68 bc ec 03 eb bb 82 79 49 bc c8 ee 3a 3c
       -0.01416746 -0.0071720984 -0.012297036 0.011409469
000150 77 ca 98 bc be 75 84 3a c1 a3 82 3c 3e c7 83 bc
       -0.01865123 0.0010105891 0.015947225 -0.016086217
000160 d2 19 83 bc 45 50 04 3c b6 6a 4d 3a d5 88 8b bc
       -0.016003523 0.008075778 0.00078360306 -0.01703302
000170 23 87 4a bc 6f e4 a5 bb 67 13 34 bc 7a a1 bf 3a
       -0.012361321 -0.005062632 -0.010990954 0.0014620267
000180 b5 2c 85 3c 2c b5 e1 3c f4 8c 3e bc 97 7d 7d bc
       0.01625667 0.02755221 -0.0116302855 -0.0154718375
000190 d3 84 94 3c 37 39 e2 3c ed 80 9f bc 5c d8 ae 3c
       0.018129742 0.027615173 -0.019470656 0.021343403
0001a0 db 7f 82 3c 3b 25 1b bc a3 a1 92 3c f4 d5 d8 bb
       0.015930107 -0.009469326 0.01789934 -0.006617302
0001b0 6a e2 01 3c 4e 1f 64 bc f6 96 36 bc cb 28 40 bb
       0.0079275165 -0.013923479 -0.01114439 -0.002932119
0001c0 e2 57 64 bc c9 48 3d bc 1d bc 9d bc 53 71 a3 3c
       -0.0139369685 -0.011552998 -0.019254738 0.019951498
0001d0 54 bf 98 bc a2 bd a8 3c d9 f1 92 bc 1f 41 a0 bc
       -0.01864592 0.020598236 -0.017937588 -0.019562302
0001e0 fa e1 d1 3c f6 7e 82 bc ec af 37 bb ac ff 8c bc
       0.02562045 -0.01592968 -0.0028028442 -0.017211758
0001f0 7f 57 88 3c 9a 6f 5a bc 5c bd d7 3c dd 98 a5 bc
       0.016643284 -0.013332272 0.02633541 -0.020214492

action_model._discrete_distribution.branches.0.weight f4 [3, 128]
000000 47 3b 94 bc 40 b1 c8 bb 50 bc 0f 3b 86 eb c3 3c
       -0.018094672 -0.0061246455 0.0021932311 0.023916017
000010 76 59 f2 39 e4 da 36 bc 53 3e 98 bc d1 10 1a 3c
       0.0004622449 -0.011160586 -0.018584406 0.009403423
000020 ac e5 0c 3b a6 cd 9d 3a 70 f2 d4 bc e7 1b 9c 3b
       0.00214992 0.0012039437 -0.02599451 0.0047640684
000030 00 c3 df bb 28 57 09 3d 9d ad a8 bc ae 72 e7 3c
       -0.0068286657 0.033530384 -0.020590598 0.028252926
000040 f2 6f 89 3c 34 e8 f5 bb b9 b0 e0 bc da 54 6d bc
       0.016777012 -0.0075044874 -0.027428018 -0.014485562
000050 52 03 08 bc 9d ec e2 bc 74 c4 2d 3b e1 de 3c bc
       -0.008301573 -0.027700717 0.00265148 -0.011527748
000060 b9 7d 8c 3b d4 ed 86 bb 78 4c b6 3c da aa 6e bc
       0.0042874482 -0.004117707 0.02225326 -0.014567101
000070 ba 98 1a 3c 2a a4 fc bb 6d 0d 84 bc 0b 31 fe 3b
       0.009435827 -0.0077099996 -0.016119683 0.007757311
000080 ae a2 b2 ba 14 e8 2c 3b 28 a8 76 ba b7 45 05 3c
       -0.0013628805 0.0026383447 -0.00094092125 0.008134297
000090 f0 3a 77 3c 45 b3 c6 3c 8d f2 84 bc e4 9e c5 bb
       0.015089735 0.024255404 -0.016228938 -0.006030904
0000a0 ff f4 8c 3c 3e 2a 5f 3c f7 66 f4 3b 18 ce e6 3b
       0.017206667 0.013620911 0.0074585634 0.0070436113
0000b0 a2 89 13 bc 0c f6 bb bc 80 53 54 3c e4 dd 62 3c
       -0.009004982 -0.022944473 0.012959361 0.013846848
0000c0 51 16 77 bb fa de 71 3c 9a a2 53 3a eb 9c be bb
       -0.003770251 0.014762634 0.0008073241 -0.005817046
0000d0 2b 8f bf bc a2 fa 02 bd 9b 34 4c 3c 67 61 31 bc
       -0.023383697 -0.031977303 0.012463714 -0.010826445
0000e0 33 13 1e bc 59 4f 1a bc 59 a6 c0 bb 07 87 e6 bb
       -0.009648132 -0.009418332 -0.005879205 -0.0070351395
0000f0 99 dc 36 bc 3b 99 4e ba d6 a0 fc bb 94 5c 13 3c
       -0.011160993 -0.00078811095 -0.007709603 0.00899424
000100 c9 61 bf 3b d6 56 2f 3b e2 38 0f ba bb d5 03 bc
       0.0058405143 0.002675464 -0.0005463493 -0.008046563
000110 53 41 7d 3b 17 d0 10 bb a1 84 21 bb 5d 69 de 3c
       0.0038643673 -0.0022096687 -0.0024645703 0.02714985
000120 d1 cc 96 bc ef 99 17 3c fc a1 0d bd b7 f6 37 3b
       -0.018408211 0.009253009 -0.03457831 0.0028070637
000130 a5 67 a7 3c 23 b9 19 bb 1a b5 28 bc 23 32 b6 3c
       0.020435164 -0.0023456297 -0.010297084 0.022240704
000140 b0 dd 34 3c 0a 94 7d 3c 41 9b eb 3c eb 56 cc 3c
       0.011039183 0.01547719 0.028760554 0.02494379
000150 c6 ed 08 bc 4c 4e bb 3b 37 56 76 bc 27 1d 0a 3c
       -0.008357471 0.005716121 -0.015035204 0.008429802
000160 4a 2a 82 3b ee eb 85 bc 50 d2 01 bc 09 3a ad 38
       0.0039723264 -0.016347852 -0.007923678 8.260093e-05
000170 b7 0e 6a 3c ce a8 ff 3c 5d db 8f 3c a9 50 b6 bc
       0.014285735 0.031208422 0.017560655 -0.022255259
000180 c2 e1 d9 bc dd 70 02 39 b2 0d e8 3c 70 1b 28 bc
       -0.026596908 0.00012439811 0.028326843 -0.010260448
000190 9e d1 12 bb 7b f4 c0 3b 8d 74 7f bc 48 32 68 bb
       -0.0022402774 0.0058885193 -0.015591753 -0.003543036
0001a0 47 24 c6 bc cf e2 38 3c 86 55 5e bb 37 2a a5 3c
       -0.02418722 0.011284544 -0.0033925488 0.020161731
0001b0 22 b2 aa bc 8b 8b 67 bc a0 33 29 3c 08 40 18 3c
       -0.020836893 -0.014132391 0.01032725 0.00929261
0001c0 2b f7 01 3c 47 e2 ce 3c 60 a2 6a bc 12 aa 8f bb
       0.007932465 0.025254382 -0.01432094 -0.0043842876
0001d0 12 56 80 3c b5 cd cd bc 0b 3e e0 3a af ad e5 bb
       0.015666042 -0.025122503 0.0017108334 -0.00700923
0001e0 47 03 12 3b 72 5b 02 3b cb ae 0b 3a d1 a3 ef 3a
       0.0022279785 0.0019890931 0.00053284754 0.0018283074
0001f0 f1 29 fa bb 6f 31 25 3c f0 bb 9d 3c 5d 4a 9e 3b
       -0.0076343943 0.010082587 0.019254655 0.004830642
000200 8b f0 23 3c c3 a0 0e bd 4f ed 38 bb e7 7b c2 bc
       0.01000608 -0.034821283 -0.0028217619 -0.023740722
000210 5e de 5a 3a 7e 0b e2 3a 63 0e a7 3c be ad 5e bc
       0.00083491753 0.0017245857 0.020392602 -0.013591228
000220 16 8f ff 3b ab d6 1e 3c a7 68 88 3c a1 58 da ba
       0.0077990396 0.0096947355 0.016651465 -0.0016658494
000230 42 73 67 3c f8 77 ed bb 46 c2 b5 3c 94 ad ba bc
       0.014126601 -0.0072469674 0.022187363 -0.022787847
000240 45 ba 9f bc f7 89 d0 3c e4 dd d4 3c a2 f3 35 bc
       -0.019498 0.025456412 0.025984712 -0.01110545
000250 29 df 82 3c 82 26 bf 3c d0 f4 ec 3a bc 62 83 3c
       0.015975552 0.023333792 0.0018078331 0.016038291
000260 1a 20 1c 3c 9f c2 18 bc 1a c2 96 bb c7 f1 d9 bc
       0.009529138 -0.009323745 -0.0046007754 -0.026604546
000270 3d 4b 9e 3b 37 a9 7a 3c e6 36 b6 3c bd 59 93 bc
       0.0048307464 0.015299133 0.022242974 -0.017987126
000280 e4 41 10 3c f9 e0 dd 3b 13 19 fd bb d1 78 87 bc
       0.008804772 0.0067712036 -0.0077239363 -0.016537102
000290 03 83 54 3c 90 60 ae bc 95 f1 c4 3c 71 2a 48 3b
       0.012970689 -0.021286279 0.024040977 0.0030542875
0002a0 36 ca 9b bc 0a 3c 1a bc 04 ed 3a bc 42 1b 0b bc
       -0.01901732 -0.0094137285 -0.011409048 -0.0084903855
0002b0 e8 cb 39 bb 80 5f 62 3c 1d 94 17 bc 9c 16 ca bc
       -0.0028350297 0.013816714 -0.009251622 -0.024668984
0002c0 1e 69 8b 3c 85 3f 75 bc 4f 8b 28 bc 25 75 ac 3c
       0.017017897 -0.0149687575 -0.01028712 0.021051953
0002d0 bb 8a ea 3b 55 63 e3 3c 84 a5 27 ba 8c e1 ed 39
       0.0071576512 0.027757326 -0.0006395208 0.00045372208
0002e0 c3 2f 29 3c 3b cb e2 3c 5c 1a 96 ba 47 d9 83 3c
       0.010326329 0.027684798 -0.0011451948 0.016094817
0002f0 ae 99 5d 3c cc 1d 98 bc 93 0a 70 3c f0 ae b9 bb
       0.01352541 -0.018568896 0.014650959 -0.005666606
000300 87 46 8c 3b a7 71 09 3c ea 15 b9 3b 18 98 cb bc
       0.0042808685 0.008388913 0.0056483643 -0.024852797
000310 d7 38 b2 bb 82 39 d8 3c f9 6c 8e 3c 75 d5 35 bc
       -0.0054389047 0.02639461 0.017385947 -0.011098255
000320 b1 96 c6 3b c9 43 ae 3c 48 65 98 3c 67 00 e9 bb
       0.0060604443 0.021272557 0.018602982 -0.0071106437
000330 08 41 f7 3b 4d 9b 5d 3b 75 5e 72 3c 91 3d 02 bb
       0.007545594 0.003381449 0.014793028 -0.0019873122
000340 3f a2 1c bc b7 3b c9 ba cc e1 94 bb e8 55 fb bc
       -0.009560167 -0.001535288 -0.0045435186 -0.030680612
000350 b1 28 b3 3b 65 21 ad bb 11 32 8f 3a 83 a4 3b bc
       0.0054674973 -0.005283522 0.0010924955 -0.011452797
000360 98 a8 24 bb 4b b8 03 3d 11 5b d9 3c e8 54 33 bc
       -0.0025124904 0.032158177 0.026532682 -0.010945536
000370 92 bf 86 3c f0 80 fa bb a4 c5 a5 bb c0 4d a6 bc
       0.01644877 -0.007644765 -0.005058961 -0.020300746
000380 83 4d e4 3c bd 7c 21 bc bc 89 09 bc 62 fd 00 bc
       0.027868992 -0.0098564 -0.008394655 -0.007872911
000390 b1 1c db 3b 7b 8c 55 bb 44 8f ef 3b 2a c6 9d ba
       0.00668677 -0.0032584954 0.0073107798 -0.0012037207
0003a0 50 4d 0d 3d 2f 87 89 bb 8f 59 75 3b e8 b9 3c 3b
       0.03449756 -0.0041970233 0.0037437414 0.0028797332
0003b0 be 80 1d 3c 40 ca e8 bb 9b 13 78 ba 72 a8 30 bc
       0.009613214 -0.007104188 -0.00094633707 -0.010782348
0003c0 14 62 c6 bb fb 9e 49 bc 63 e9 8a 3c 10 3e ca 3b
       -0.0060541723 -0.01230597 0.01695699 0.006171949
0003d0 ab d5 b1 3a f8 d2 aa 3c 3c bb 9b 3c 71 34 eb 3b
       0.0013567706 0.02085255 0.019010179 0.0071778824
0003e0 dd f6 eb ba b5 8b 1c bc 84 29 f5 3c bb fd b8 bb
       -0.0018002648 -0.009554793 0.029927023 -0.0056454814
0003f0 be ae 66 3c 92 0c 12 3b fa aa ff b9 91 37 ae bc
       0.014079748 0.0022285325 -0.00048764778 -0.02126673

action_model._discrete_distribution.branches.0.bias f4 [3]
000000 57 46 1b bb 13 39 f6 3b e0 4d d4 3b
       -0.002369305 0.007514128 0.00647901

action_model._discrete_distribution.branches.1.weight f4 [3, 128]
000000 75 cb c9 3c 4d 31 ea 3c bd 10 e3 bc af 14 0c bd
       0.024633149 0.028587962 -0.027717942 -0.034199413
000010 44 af af bc dd 79 df 3c c6 ce d6 3c 3d cc 32 bc
       -0.021445878 0.027279789 0.026221644 -0.010912952
000020 d8 9e c8 bc 57 bd 0a 3c d0 2c 8c 3c 40 d8 d7 3c
       -0.024489805 0.008467994 0.017111212 0.026348233
000030 35 35 6c 3c 24 14 84 bc 46 28 de 3c 7f 4c 04 bc
       0.014416982 -0.016122885 0.027118813 -0.008074879
000040 33 64 81 bc 63 5f a6 3c b7 e0 e2 3c 00 a3 a2 bc
       -0.015794849 0.020309156 0.027695043 -0.019853115
000050 42 a8 ae bc 97 47 d4 3c 80 14 61 bc 57 0f 0f bc
       -0.021320466 0.025913043 -0.013737798 -0.008731685
000060 00 cb d0 bc 19 34 93 bb 56 12 cf bc 2e 5d cc 3c
       -0.025487423 -0.0044922945 -0.025277298 0.024946775
000070 e5 e3 07 3c ac b2 a6 3c f3 48 a9 3c 0d 53 9c 3b
       0.00829408 0.02034887 0.020664668 0.0047706426
000080 a1 bb a2 3c aa 73 d1 bc 93 72 f0 bc b6 cc 62 3c
       0.019864859 -0.025567848 -0.029351508 0.013842752
000090 fd b1 0f bd 60 30 be bc 87 8a 90 3c e3 62 f1 b9
       -0.035081852 -0.023216426 0.01764418 -0.00046040778
0000a0 e1 80 02 3d 58 09 c3 bc 2c f5 b7 bc 87 d8 ac bc
       0.03186119 -0.023808166 -0.022455774 -0.021099342
0000b0 30 08 08 bd 5c e5 a3 ba ce dd 8b bc 30 50 a7 bc
       -0.033210933 -0.0012504268 -0.017073538 -0.020423979
0000c0 c8 14 aa bc d9 b6 d0 bc d7 e3 c8 bc 80 7b ca 3c
       -0.020761862 -0.025477814 -0.024522705 0.024717093
0000d0 17 d9 13 3d a4 45 12 3d 8d 0b c6 bc 03 70 de 3c
       0.036095705 0.035710946 -0.02417543 0.02715302
0000e0 b1 67 13 3d 37 d1 27 3c e7 0b df 3c 15 c0 00 3d
       0.03598756 0.010242752 0.027227355 0.031433184
0000f0 83 82 f2 3c 98 d3 bf 3c 02 fe 69 bc d6 8b d8 bc
       0.029603248 0.023416325 -0.014281752 -0.026433866
000100 78 0a cd 3c 10 b8 bd 3c 18 d0 9b bc 95 5a df 3c
       0.025029406 0.023159057 -0.019020125 0.027264873
000110 f7 f3 69 bc 2a d1 3f bc 1e 5e 59 bc 53 ca ed bc
       -0.014279357 -0.011707583 -0.013267068 -0.02902714
000120 98 07 9c 3c 94 8f f3 3c b2 bd fd 3c ba 89 a6 bc
       0.01904659 0.02973155 0.030974243 -0.020329345
000130 16 1b c2 bc 92 93 ed 3c 8e 73 c3 bc c2 3a 2e bc
       -0.023694556 0.029001031 -0.023858812 -0.010634126
000140 88 84 c7 bc 6e 6e 79 bc 7f d0 54 ba 1c 25 b0 3a
       -0.024355188 -0.015224082 -0.00081182265 0.0013438794
000150 97 28 dc bc 1b 75 a9 bb ff 3f de 3b f1 7d 13 bd
       -0.026874823 -0.0051714308 0.0067825313 -0.03600878
000160 ef b8 2a bd 7a f1 8d 3c 4e a7 87 3c 55 79 c5 bc
       -0.041680273 0.017327059 0.01655927 -0.024105707
000170 1d f1 7b bc 5d 8e 65 bc 03 7a 63 bc 7c 32 af bb
       -0.01537731 -0.014010993 -0.01388407 -0.0053465944
000180 c2 d4 b0 3c 30 04 d4 3c e1 75 e8 bc f3 f7 da bc
       0.021585826 0.025880903 -0.028376522 -0.02672956
000190 b9 ac 14 3d fd bc d4 3c 85 93 65 bc e1 4e 53 3c
       0.036297534 0.025969023 -0.014012222 0.012897224
0001a0 8a 35 f9 3c 88 9a e8 bc 48 04 86 3c b8 4f aa bc
       0.030421037 -0.028393999 0.016359463 -0.020789966
0001b0 94 9b 9a 3c 92 d0 c5 bc 53 2e 0e bc 4f ae 90 bc
       0.018873014 -0.024147306 -0.008678037 -0.017661242
0001c0 d5 d0 00 bd 61 cc 70 bc 3b 1c 60 bc fa a3 99 3c
       -0.031449158 -0.014697165 -0.013678606 0.018754948
0001d0 5b 84 08 bd 77 96 f0 3c 50 00 c2 bc 7e c2 d1 bc
       -0.03332935 0.029368622 -0.02368179 -0.025605436
0001e0 01 5d f1 3c 8f 36 a1 bc 3b 91 aa bc 8a d3 cb bc
       0.029463293 -0.019679336 -0.020821204 -0.024881143
0001f0 72 82 e1 3c 45 1c d7 bc e0 07 c1 3c c3 64 bc bc
       0.027528021 -0.026258597 0.023563325 -0.022997266
000200 4f 1c ba 39 d3 9b 2d bd ca 60 e4 3c f2 a6 3c 3d
       0.00035497776 -0.042384934 0.027878184 0.04605765
000210 90 85 5c 3c c9 73 8e bc 5a 5e 1d bd af aa a0 3c
       0.013459578 -0.017389195 -0.03842006 0.019612638
000220 24 0b d8 3c f6 03 99 bc 68 89 11 bd fe 45 99 3a
       0.0263725 -0.018678647 -0.03553143 0.0011693833
000230 a5 ab a7 bc 73 27 83 3c 4a d2 89 3c 20 35 65 bc
       -0.020467589 0.016010022 0.016823906 -0.013989717
000240 3d 9c 8c 3c 16 1c 24 bd 1d 70 cd bc de f0 58 bc
       0.017164344 -0.040065847 -0.025077874 -0.013241021
000250 15 af 53 3c a7 0a 86 bc 43 61 16 3d 71 0b fa 3b
       0.012920161 -0.016362501 0.03671385 0.0076307585
000260 1d 3a 65 3c ef 59 10 bd 51 21 f0 3c eb 25 08 bb
       0.013990906 -0.035242017 0.029312762 -0.0020774554
000270 d5 75 9c bb bb 47 62 bb 3f 26 a4 bc 4c ea d2 bc
       -0.004774789 -0.0034527618 -0.020037768 -0.025746487
000280 b9 70 a2 bc 74 77 6f 3c 48 3d 18 3c a1 f1 7e bc
       -0.019829141 0.014615882 0.009291954 -0.0155605385
000290 65 08 10 3c e8 3a b0 ba 27 ff dc bc 08 25 c7 bb
       0.008791064 -0.001344529 -0.026977135 -0.0060774125
0002a0 ea 7c c4 bc 48 c2 0c 3d 50 b8 1a 3c f1 57 d7 3c
       -0.023985345 0.03436497 0.009443358 0.02628705
0002b0 ba ab c1 3c 9e 3a 72 bc ad 5c 25 3d fc 6d 9c 3c
       0.023641456 -0.014784483 0.040371586 0.019095413
0002c0 ac 97 00 3d d4 17 7b 3c d8 4e a1 3c ab 97 43 bd
       0.031394646 0.015325505 0.019690916 -0.047752064
0002d0 2b 33 e5 bc 88 0d ff bc 28 14 e3 3c 4d 40 fd bc
       -0.0279785 -0.031134382 0.027719572 -0.03091445
0002e0 42 df d8 bc 33 f3 19 bd e5 31 3b bd d3 4f d7 bc
       -0.026473645 -0.03758545 -0.04570188 -0.02628318
0002f0 61 5f 4d bd a1 3d c3 3b 01 a1 14 3d ad 86 29 3d
       -0.05013979 0.0059582745 0.036286358 0.041388202
000300 f1 96 2b bc a1 0c 3e 3b 03 0e 95 3c f4 d8 9c bc
       -0.010472999 0.0028999227 0.018195158 -0.01914642
000310 a1 c5 3f 3a b9 38 67 3c b2 ff 11 3d 0d ea 2f 3d
       0.0007315521 0.014112645 0.03564424 0.042947818
000320 85 82 4c bd e7 f4 78 bc 82 d3 01 bd d8 7a 71 3c
       -0.04992916 -0.015195108 -0.03169585 0.014738761
000330 a4 c4 d5 3c 6e 84 ea bc 70 7f 24 3c 0a 37 9d 3c
       0.026094742 -0.0286276 0.010040149 0.019191284
000340 b5 fe d8 3c 65 a4 a2 3b 43 be a0 3c 29 2d e4 36
       0.026488641 0.004963445 0.019621974 6.800187e-06
000350 6d 76 21 3d f4 bd 2c 3d a7 36 7b bc ed a0 c1 3c
       0.03941958 0.04217334 -0.015332854 0.023636306
000360 93 cd 03 3d 4d 91 12 3b 36 73 86 bc e0 be 71 3c
       0.032178473 0.0022364438 -0.016412359 0.014754981
000370 10 d1 0f 3d 1b 15 f2 3a 6c 50 33 3d 86 7b 30 bb
       0.035111487 0.0018469425 0.04377787 -0.0026929094
000380 a8 97 1c bd 4b ed 73 bc 92 b7 a9 3c 2b 50 a5 3c
       -0.03823057 -0.014888118 0.020717416 0.020179829
000390 e5 b0 00 bc 6a a3 2a bc 83 af aa 3c 3c f8 cc bc
       -0.007854675 -0.0104149375 0.020835644 -0.025020711
0003a0 25 22 f9 bc 94 17 b6 3c a0 a7 68 bb ad ca 07 3c
       -0.03041179 0.02222804 -0.0035500303 0.008288068
0003b0 cb 5d 0c bd 28 f1 f8 3b ff b8 06 3d 49 e4 12 39
       -0.034269135 0.0075971074 0.03289127 0.00014008688
0003c0 25 16 4c 3b c3 5d ae ba 3d 18 77 3c cb 20 84 bc
       0.003114113 -0.001330309 0.015081462 -0.016128918
0003d0 c6 f3 bc 3c 62 2e c7 bc 50 b8 23 bb 23 5e 1a 3c
       0.023065459 -0.02431411 -0.0024981685 0.009421858
0003e0 c4 e3 ca bb 88 e2 31 bb c9 5c 35 bc 19 9d c6 3c
       -0.0061917026 -0.002714308 -0.011069485 0.024244832
0003f0 77 2f 00 bd f9 31 6a 3c 0e 60 59 bb cb 73 1f 3d
       -0.031295266 0.014294141 -0.0033168825 0.03892879

action_model._discrete_distribution.branches.1.bias f4 [3]
000000 a1 b8 97 3c 0f 6e 76 bc 41 51 85 bc
       0.018520655 -0.015040888 -0.016274096

action_model._discrete_distribution.branches.2.weight f4 [2, 128]
000000 c1 58 24 3b 84 ee e2 3c f3 b4 ee bc 95 73 ef bc
       0.0025077316 0.027701624 -0.029139018 -0.029229918
000010 f3 22 88 ba a5 8e cd 3c 45 43 9d 3c 84 08 a2 bc
       -0.0010386392 0.025092432 0.019197116 -0.019779451
000020 19 cc 54 bc 24 e4 d4 3c 8f b9 98 3c 62 28 c0 3c
       -0.012988114 0.025987692 0.018643169 0.023456756
000030 37 d9 1d 3d 43 93 29 bc 07 7b 2a 3c 00 e8 91 bb
       0.03853723 -0.010350051 0.010405309 -0.0044527054
000040 fe 0f 31 3c 9e 1a 08 3c 8e 0c bb 3c 42 dd 8b bc
       0.0108070355 0.008307127 0.022833135 -0.017073277
000050 b2 e2 6d bc 47 e9 48 bb 75 cc c0 bc a6 bf a3 bb
       -0.01451938 -0.0030656622 -0.023534993 -0.0049972115
000060 12 e0 87 bc 43 f3 ec 3b f3 84 c5 bb bc df b0 3c
       -0.016586337 0.0072311475 -0.0060278117 0.02159106
000070 0e b8 03 3d 51 88 8a 3c af 42 88 3c b0 80 94 3c
       0.03215795 0.016910704 0.01663336 0.01812777
000080 78 9b 8c 3c 18 9e e6 bc 6a 71 9f bb 74 d3 d8 3c
       0.017163977 -0.028151557 -0.004865815 0.026468016
000090 ee 34 be bc 51 f6 d0 3b b8 c8 07 3c bc 21 c9 bb
       -0.023218598 0.0063770195 0.008287601 -0.0061380547
0000a0 26 2e 1c 3c 39 07 42 bc eb b5 29 bc fe 87 af bc
       0.009532487 -0.011842542 -0.010358314 -0.02142715
0000b0 93 1e 69 bc 97 21 3e bb c5 d1 d7 3a d9 da 88 bc
       -0.014228481 -0.002901172 0.0016465714 -0.016705917
0000c0 81 20 f6 bc 0a 74 8b bc 62 ca f1 bc 84 d1 56 3c
       -0.030044796 -0.017023105 -0.029515449 0.013111476
0000d0 6b 1f d6 3c a0 a7 c3 bb bf c4 c8 bc 38 d8 a4 3c
       0.026138028 -0.00597091 -0.024507878 0.020122632
0000e0 3c f4 77 3c aa d9 32 3c 7c 02 ea 3c 15 87 e3 b8
       0.015133914 0.010916153 0.028565638 -0.000108493645
0000f0 e5 86 aa 3c 52 9b dc 3c 81 26 df bc 5a b9 1f bc
       0.020816276 0.026929531 -0.02724004 -0.009748781
000100 28 66 85 3c e4 0a 91 3c 0c 97 97 bc 30 33 d6 3c
       0.016284063 0.017705388 -0.018504642 0.026147455
000110 96 6d 91 bc 04 b9 40 3c 8a 03 a1 bc 59 3a 23 39
       -0.01775245 0.011762861 -0.019655008 0.00015566628
000120 66 99 78 3c ce 56 dd 3c 8a 25 84 3c 0c e8 c1 bc
       0.015173292 0.02701893 0.016131181 -0.023670219
000130 8f f7 91 bc 6d 6c 3f 3c 59 cc 5f bc 11 b1 a0 bc
       -0.01781824 0.011683566 -0.01365956 -0.019615682
000140 69 65 00 bc 69 bd 6b bc 68 e3 ba bc 51 91 4f 3c
       -0.007836678 -0.014388421 -0.022813514 0.0126689235
000150 b2 1a e3 bc ed 06 4c bc 6c d1 76 3c 9f 91 cd bc
       -0.02772269 -0.012452823 0.0150645785 -0.025093852
000160 2a ce da bc 32 fe a0 3b eb e2 d8 3b 77 20 79 bc
       -0.026709635 0.004913115 0.0066188476 -0.015205494
000170 87 be 64 bc 98 26 7e bc fb 7a bb bc e7 cc 17 bc
       -0.013961441 -0.015512131 -0.02288579 -0.009265161
000180 2d b4 03 3c 20 b4 88 3c 3e c8 fd ba 08 0e ff bc
       0.008038563 0.016687453 -0.0019362045 -0.03113462
000190 21 8e e0 3c 29 30 d7 3c 9c 26 ec bc 83 3b 6c 3c
       0.027411522 0.026268082 -0.028827004 0.014418486
0001a0 a2 9d ae 3b 51 d7 f3 3b 0e 05 c2 3c 56 ed a0 ba
       0.00532885 0.007441439 0.02368405 -0.0012277763
0001b0 73 53 b7 3c 2a df 9c bc b4 03 b9 bc 54 9c 49 3b
       0.022378659 -0.019149382 -0.022584774 0.0030763345
0001c0 de 8b af bc 1d 40 f2 bc 3f 74 01 bb 2f 5f a7 3c
       -0.021428999 -0.029571587 -0.0019753126 0.02043113
0001d0 3f 04 d2 bc 1f 02 bb 3c 55 57 1f 39 38 cf b8 bc
       -0.02563679 0.02282816 0.00015195955 -0.022559747
0001e0 6a 9e c2 3c 8c bf de bc dc 70 8d bc 65 1b 86 bc
       0.023757178 -0.027190946 -0.01726573 -0.016370485
0001f0 2d d2 49 3c 08 aa 89 bc ce f4 be 3c 93 d9 52 bc
       0.012318176 -0.01680471 0.023310091 -0.012869257
000200 42 7f 29 bc 0a d4 db bc 96 04 1d 3d d4 10 98 3c
       -0.010345282 -0.026834507 0.03833445 0.018562712
000210 e0 6d c4 3c 50 e8 db bc 1f 9e fa bb 10 5a ed 3c
       0.023978174 -0.026844174 -0.007648244 0.02897361
000220 4e a9 e5 3c d6 4e 8e bc 5c 01 30 bc 98 8c f6 bc
       0.028034832 -0.017371576 -0.010742512 -0.030096337
000230 b2 3a ca bc be 57 37 3b 14 37 a1 bb 91 38 f5 b7
       -0.024686191 0.0027975882 -0.004919896 -2.9232617e-05
000240 2a a4 4c 3c 51 f1 8a bc 4d 9c 95 bc f8 6f d7 3c
       0.012490312 -0.016960772 -0.018263007 0.026298508
000250 b3 b8 93 3c f1 e3 fa 39 8c 47 18 3c 0c eb 49 3c
       0.018032407 0.00047853545 0.009294402 0.012324106
000260 87 1a fa 3c b2 26 b5 bb a3 1a a8 3c c9 32 13 bc
       0.030530227 -0.0055282945 0.020520514 -0.008984276
000270 b7 35 07 bd 69 03 80 bc 28 75 00 bc c7 57 ad bc
       -0.03301021 -0.015626626 -0.007840432 -0.02116002
000280 9a dc 6d bc e1 f0 a7 3c ce 04 a8 3c 18 58 29 bd
       -0.014517928 0.020500602 0.020510104 -0.04134378
000290 d7 1a 22 3d e4 1d 98 3b 44 f0 d3 bc 65 40 ad 3c
       0.039576378 0.004642235 -0.025871404 0.02114887
0002a0 93 00 f3 bc 17 6c ea 3c 1a f3 89 3c 7f ba a5 3b
       -0.02966336 0.028615994 0.016839553 0.0050576325
0002b0 ea e8 21 3c 15 1f fd 3b 3f 12 e9 3c f0 e7 a1 3c
       0.009882191 0.0077246525 0.028451083 0.019763917
0002c0 68 59 0d 3d 6a f4 d6 3b 01 cc 86 3c 38 0e 77 bc
       0.034509093 0.006559898 0.016454699 -0.015079074
0002d0 4c 74 a5 bc 1b 52 69 bc 51 25 07 3d fa c0 2f bc
       -0.020197056 -0.014240767 0.032994572 -0.010727162
0002e0 07 46 31 bc 3a c9 b5 bc ff f7 e8 bc 1b 8a 97 bc
       -0.0108199185 -0.022190679 -0.028438566 -0.018498471
0002f0 2d 17 eb bc eb e5 02 bd e3 50 63 3c b1 ea e4 3c
       -0.028697575 -0.031957548 0.013874265 0.02794394
000300 03 5f 94 bb 10 d4 17 bd 17 68 cc 3c 7b 35 f9 bc
       -0.004527928 -0.037067473 0.024951978 -0.03042101
000310 79 fe 83 bb 1a 04 8d bb 12 7a a3 3c de ae 27 3a
       -0.0040281382 -0.0043034675 0.019955669 0.00063966017
000320 52 c9 cd bc e8 3f a3 bc c0 de 87 ba 59 a1 d3 3c
       -0.025120411 -0.019927934 -0.0010366067 0.025833772
000330 a7 c2 a7 3c c9 96 bd bc e3 36 b6 3c c1 f7 ef 3c
       0.02047856 -0.023143189 0.022242969 0.029292943
000340 e1 33 e5 3c 7d 70 ab 3c e2 d7 a3 3c 6a 90 e5 bb
       0.02797884 0.020927662 0.020000402 -0.007005741
000350 c2 6d e7 3c 1c e5 35 3c 94 3d 9c bc ec c9 c5 3c
       0.028250579 0.011101987 -0.019072331 0.024144135
000360 73 5e 96 3c 3a 15 91 3c ee 67 ac 3b 22 00 ef 3c
       0.018355584 0.017710317 0.005261413 0.029174868
000370 1b 01 bf 3c 4f aa 61 bb 70 08 88 3c ba cd 03 3c
       0.023315957 -0.0034433787 0.016605586 0.0080446545
000380 73 41 e9 bb 16 7a 06 bd 94 8d 19 3c be 0e d6 3c
       -0.007118398 -0.032831274 0.009372134 0.026130076
000390 12 65 e1 bc e8 8a 9c bc bf 00 c2 3c 7e 73 c7 bc
       -0.027514014 -0.019109204 0.023681996 -0.024347063
0003a0 4d 2d 15 3a 01 5b bf 3b fa 4f dd bc 05 c0 d9 3b
       0.0005690649 0.005839706 -0.027015675 0.006645205
0003b0 a4 88 14 bc 1d 78 54 3c 40 e5 98 3c 90 d3 a9 3c
       -0.009065781 0.01296809 0.018664002 0.020730764
0003c0 50 34 c1 3c bb 47 00 3c d4 c4 0d 3d 18 e5 7b bc
       0.023584515 0.007829602 0.034611538 -0.015374444
0003d0 7e 77 82 3c 90 b8 4f bc b5 bf b0 3c 68 38 98 3c
       0.015926119 -0.0126782805 0.021575788 0.018581584
0003e0 6d 5b 11 bd cb c5 5e 3c 72 88 d0 3c 38 c8 b2 3c
       -0.03548758 0.013596962 0.025455687 0.021823987
0003f0 ec 2d 91 bc 4b c8 fa 3b c0 28 91 bc c2 c7 12 3c
       -0.017722093 0.0076532713 -0.017719626 0.008958759

action_model._discrete_distribution.branches.2.bias f4 [2]
000000 00 9e 76 3c 00 9e 76 bc
       0.015052319 -0.015052319
