results/PressButton/PressButtonAgent_ImitationLearning/PressButtonAgent/PressButtonAgent-199986.onnx (onnx, 83197 bytes, 11 tensors)

discrete_act_size_vector f4 [1, 3]
00000000: 0000 4040 0000 4040 0000 0040
3.0 3.0 2.0

network_body._body_endoder.seq_layers.0.weight f4 [128, 6]
00000000: 53aa 0ebf d582 a43e 9169 5fbf 4034 183f
00000010: 9aa6 673e 8e5d 493f 80ac 62bf 9cfb 26bf
00000020: 7f89 d63e a587 293d 258b 5abf c8dd 3c3e
00000030: 3266 ab3f 38d4 713f 3e9a 433e c5a3 d73e
00000040: 81e4 d43e 6415 ad3e b939 7e3e 61af 38bf
00000050: 1870 1a3f d91d 9f3d 681a 163f 79f2 08bf
00000060: e990 17bc 645a 52be dd4a 743e 8887 c0be
00000070: f1a0 3f3f 7d7e 723e 91ff e5be 8ede cfbe
00000080: 7e99 113f 2a5f 2d3d 97d8 71bf ffcb cf3e
00000090: f79e e53e 810c ab3e 52e0 033f f67b 22be
000000a0: 74ea 903f 9c30 03bf 9ac9 b7bd 6052 28bf
000000b0: 6c1b 6c3e 7e25 20bc 4868 2a3e 0d1f 94be
000000c0: 58d1 a33d f4cf f43e 43ca 203d fbc3 f6be
000000d0: 96b0 c63e 9f34 e4be 2e29 c7bd 3833 cabe
000000e0: ffa2 523d 0eb6 2cbe 12b3 0bbf 11b6 9cbe
000000f0: 90a1 84be 65dc 003f a322 4fbe c869 8b3d
00000100: 2bf5 0c3f 3c4e 28bf 8114 163f 9b50 0a3d
00000110: 7799 2bbe 0f08 b73e c561 43bf ed64 c6be
00000120: 31cc a13f 8342 b2be 1222 88be 1e0c 733e
00000130: c5d9 383e 5017 253f f3cb 36bf 0ba5 24be
00000140: 788c 103e b6f6 f5be acf1 9a3e 1de5 a63e
00000150: 3daf cc3e 4744 8d3e 457e c93d 4647 2dbe
00000160: f7cf 783e 5316 a33e be75 fa3c 8b7b 9abe
00000170: c6b1 f83e 2933 74bf e567 bdbe 5862 ac3e
00000180: fe5c 38bf 2229 39be adbc 6abc 57f7 01be
00000190: ec1e 543e bfaa b73e ae74 11bf f31d 083e
000001a0: a3ee 783f f2da 88be 7473 ce3e c482 82bf
000001b0: 7dcb 653f fae1 a13e cd44 8f3e 3e87 663e
000001c0: a162 6bbe 29ea c13e ea8d 053e 26cd 00bf
000001d0: a821 283f fb27 a1be c5ad 0dbe 7170 27bf
000001e0: d7aa a03e b493 7bbd ac68 ccbe 0a3e 48bc
000001f0: 5b48 b23c 127f 99be 7231 5b3f 2dd2 573e
00000200: b770 78bd 2fa5 3dbf 4a71 1ebd d85d aabe
00000210: b0c4 1d3e 7adb 5cbe 0e27 4a3f 55a2 923e
00000220: 1cc9 a6be 880b 09bf de9d 25bf e303 053f
00000230: d99f 013f 2ae4 63bf d8ec d53e 3d1f 9bbd
00000240: 2e71 2cbd 107e c93e 3bf9 4abf 47a1 483f
00000250: 5354 913e 3d1b 143e dabf 313d 8093 3fbd
00000260: 5529 dc3e 7a32 4a3d 6b93 32bf 71f9 fdbd
00000270: 1b65 21bf b2a9 12be f55e 943e efc0 043f
00000280: 08c6 89be dde3 5cbf 9239 d2be f29e 6f3e
00000290: 5224 db3e bbcd 113e c633 993e 9588 7bbe
000002a0: db39 cabd 56a3 c8be cc61 6bbe 8268 20bd
000002b0: cd5e 24be 7f91 d3be 9381 bc3e d9e3 80be
000002c0: d4ff 8a3e 8678 b5bc e708 1b3e 55f5 62be
000002d0: 0632 273f c50b 2abf c292 2bbf 6765 513f
000002e0: 4c2e 323f 0cc6 db3e ff2c 52be 3fac 9b3e
000002f0: 024d 0c3f c758 c23d c015 1a3e 14f7 273e
00000300: f081 c8be e69d b6be 01dd 09bf be4e f9be
00000310: 3a8a 33bf 6bc6 d93e aa58 adbe ad3c f2bd
00000320: b552 3ebf 4b97 383f f29c a9be b6fa ebbd
00000330: db66 093e 487d d83e f338 8cbe 1060 41bd
00000340: f35b 44bf 304b 4abd 8337 cebe 00c1 f8be
00000350: 0f02 e33c 01e7 98be dc60 c43b e432 0fbd
00000360: 4602 94be 03f2 53be 5e72 853f 2a61 ab3e
00000370: 8837 3fbf 2216 53bf de78 95be 43c0 8f3d
00000380: 26f8 ec3e f7c8 71be d608 113f 96b3 f43d
00000390: 67ac 163f c5bd ccbe 9d44 943e ac7d 373f
000003a0: 7f32 273e 2fa2 89bf 420a 293f c417 2d3f
000003b0: 4855 893e f1fe 193e 8160 18be 9412 0dbf
000003c0: 7ece ae3d eb61 643e 4772 b2bd deda 713d
000003d0: 2596 84bf 96c0 19bd 7c16 de3e 5c40 f43e
000003e0: bf7a 013e 3020 b13e ca75 1d3f aa6e b83d
000003f0: d0a2 e33e c754 0b3e 9032 573f 1bb9 8e3d
-0.55728644 0.32131067 -0.87270457 0.5945473 0.22622147 0.7865838 -0.88544464 -0.65227675
0.41901776 0.041389126 -0.8536857 0.18443978 1.3390563 0.94464445 0.19101807 0.42117134
0.41580585 0.33805382 0.24826707 -0.72142607 0.6032729 0.07769365 0.5863404 -0.53494984
-0.009250858 -0.20542294 0.23856683 -0.37603402 0.7485495 0.23681064 -0.44921544 -0.40599483
0.56874835 0.042327084 -0.94471115 0.40585324 0.44847843 0.33407977 0.5151416 -0.158676
1.132155 -0.5124605 -0.08973999 -0.65750694 0.23057336 -0.009774564 0.16641343 -0.2892994
0.079989135 0.47814906 0.03925539 -0.48196396 0.388066 -0.44571397 -0.09724651 -0.39492202
0.051424976 -0.16866323 -0.54570115 -0.30607656 -0.25904512 0.50336295 -0.20228057 0.068072855
0.55061597 -0.65744376 0.58625036 0.033768278 -0.16757761 0.35748336 -0.7632106 -0.38748875
1.2640439 -0.3481637 -0.26588494 0.23735091 0.18051822 0.644887 -0.7140495 -0.16078584
0.14116085 -0.48039788 0.30262506 0.32596675 0.39977446 0.27591154 0.09838537 -0.1692172
0.24298082 0.3185297 0.030573722 -0.3017238 0.4857313 -0.95390564 -0.36993328 0.3366878
-0.72016895 -0.18082097 -0.01432721 -0.12692009 0.20714921 0.35872456 -0.56818664 0.13292675
0.9723913 -0.26729542 0.4032246 -1.0196157 0.89763623 0.3161772 0.27982178 0.22512528
-0.22986843 0.37873963 0.13042417 -0.5031303 0.65676355 -0.31475815 -0.13835819 -0.65405947
0.3138034 -0.061420158 -0.39923608 -0.0122218225 0.021763017 -0.2997976 0.8562232 0.2107627
-0.06065437 -0.74080175 -0.03868226 -0.33274722 0.15407062 -0.21568099 0.7896584 0.28639475
-0.3257531 -0.5353322 -0.6469401 0.51959056 0.50634533 -0.89020026 0.4178226 -0.075743176
-0.042100124 0.3935399 -0.79286546 0.7837109 0.28384647 0.14463516 0.043395855 -0.046771526
0.43000284 0.049364544 -0.6975619 -0.12401093 -0.630449 -0.14322546 0.28978696 0.51856893
-0.26908898 -0.8628519 -0.41059548 0.23400477 0.42801148 0.14238636 0.29922312 -0.2456382
-0.09874316 -0.39187115 -0.22986525 -0.039162166 -0.16051789 -0.41321942 0.36817607 -0.25173834
0.27148306 -0.022152197 0.15140115 -0.22163899 0.65310705 -0.6642421 -0.6702081 0.8179535
0.69601893 0.42924535 -0.20524977 0.3040485 0.54805005 0.09489589 0.1504736 0.16402847
-0.39161634 -0.35667342 -0.5385285 -0.48692888 -0.7013279 0.42534193 -0.33856708 -0.11827979
-0.7434495 0.72105855 -0.33127552 -0.11522429 0.13418142 0.42283082 -0.273872 -0.047210753
-0.76702803 -0.04938811 -0.40276727 -0.48584747 0.027710943 -0.29863742 0.005992992 -0.034960642
-0.28907984 -0.20697789 1.0425527 0.33472568 -0.7469411 -0.82455647 -0.29193777 0.07019093
0.46283072 -0.23611818 0.5665411 0.11948316 0.58856815 -0.39988533 0.28958598 0.71676135
0.16327856 -1.075262 0.6603128 0.6761439 0.26822877 0.15038659 -0.14880563 -0.5510647
0.08535479 0.22302978 -0.08713203 0.05904662 -1.035832 -0.03753718 0.4337653 0.47705352
0.1264448 0.3459487 0.61507857 0.090054825 0.44460154 0.13606559 0.8406153 0.069689

network_body._body_endoder.seq_layers.0.bias f4 [128]
00000000: 2133 fa3d 2ba6 3b3d d56d a93c c1b2 d03c
00000010: 4618 5f3d 864f 993d e439 903d e56b 563d
00000020: 6814 3fbd 92f3 e03c aa34 74bc ceb0 053d
00000030: a6ad 843d 6f5b f2bc 228b e93c c9a0 bc3d
00000040: 127e 3fbc 547c c43c d27e c63c e13a 3a3d
00000050: a53d 87bc 2248 1e3d c065 e43d af47 e03b
00000060: b311 303d 392b 743d a9e0 a13d 7297 3b3d
00000070: 88b3 9b3d 09a1 943c f5f1 373d 82cc 673d
00000080: 07b6 a83d 0e28 f53d e5dd 623d a2c1 d23c
00000090: cb3c 983d d2c9 0f3c 7b5c 963d 112e bb3c
000000a0: 875d 353d 189d 233d d21d 513d 4db6 3b3d
000000b0: 74ec 3bbd 1d0a b03c 7b0b f63c d625 2a3d
000000c0: c5ad cd3d 70f9 d13d 3083 52bc 8aaf c83c
000000d0: cd16 663d d222 a33c 0b32 a73d 13b6 4dbc
000000e0: 71cc d13c 49ba c33d c96a 733d 38ca e43d
000000f0: 2410 b83b 6bca 2c3c e314 8f3d 58c5 bf3c
00000100: 890f eb3c 421a 773d 24da 573c 0cec d73c
00000110: 7842 383c 9281 b33c f892 3b3d a0ee f6bb
00000120: e37f 893d 1c31 253d 0f70 833c 45b6 063d
00000130: 684e d93d d5d9 8d3d 31af d43c 09cb 96ba
00000140: 11d0 f03b 0fc5 073d 70d1 a13d 4711 3d3d
00000150: 7d37 563c 0eed 633d e6af 9c3d 841d d3bc
00000160: 0741 493d 58a5 f43c 37b9 af3b 29a4 0a3c
00000170: d237 a8bc f8bd 04bc 95ed eb3d 0382 723d
00000180: 1df8 053d e4d4 c83d b76d 973d 41a2 3f3d
00000190: faa6 203d 27ad 65bc 16be d43d 7ccd 783d
000001a0: f430 e73c 0d54 8b3d fd48 713d 8253 033d
000001b0: 9f26 013d f0ab 8abc bd43 783d a1f1 7c3d
000001c0: e240 b13d 2862 163d 942f 773c 6a69 b63c
000001d0: cc5e 813d c803 9c3d c5a1 c03b 8b10 ab3c
000001e0: 3748 a73d 6c13 c13d a19f 483d fe0b 9d3c
000001f0: 6db4 1c3c 7507 cd3d 08f2 303d d141 373d
0.12216783 0.045812767 0.020682255 0.025475862 0.05446651 0.07485871 0.07042292 0.05234899
-0.04665032 0.027459893 -0.014905134 0.032639317 0.06478433 -0.029584615 0.028508727 0.09210355
-0.011687772 0.023985066 0.024230395 0.045466308 -0.016508887 0.03864301 0.1115222 0.006844483
0.04298563 0.059611533 0.07904179 0.045798726 0.07602602 0.018143194 0.044908483 0.05659152
0.08237844 0.119705305 0.055387396 0.025727097 0.0743347 0.008776145 0.07341858 0.022849115
0.044278648 0.03994474 0.05105383 0.045828152 -0.045879796 0.021489197 0.030034771 0.04153999
0.100429095 0.102526546 -0.01284866 0.024497766 0.05617409 0.019914065 0.08163842 -0.012555617
0.02561018 0.095570154 0.05942801 0.11171383 0.0056171585 0.010546307 0.06986406 0.02340953
0.028693931 0.060327776 0.013174567 0.026357673 0.011246316 0.02191237 0.045794457 -0.0075357705
0.067138456 0.040330037 0.016044645 0.03288867 0.10610658 0.06926314 0.025962444 -0.0011504601
0.007349022 0.033146914 0.07901275 0.046159055 0.013074753 0.055645995 0.076507375 -0.02577091
0.04913428 0.029863998 0.0053626555 0.00846199 -0.02053443 -0.008101933 0.115199246 0.05920602
0.032707322 0.09806231 0.07393973 0.046785597 0.03922174 -0.0140183335 0.103878185 0.06074284
0.028221585 0.06803141 0.058907498 0.03206206 0.031530973 -0.01692769 0.060611475 0.061753873
0.086549535 0.036714703 0.015087027 0.022267062 0.06316909 0.07617909 0.0058786594 0.020881912
0.08168071 0.094275326 0.04898036 0.019170757 0.009564501 0.10011188 0.04319957 0.0447405

network_body._body_endoder.seq_layers.2.weight f4 [128, 128]
00000000: 356f 0a3d fa73 07be 0cd0 16bb 23ff 3d3d
00000010: e961 dabb 7371 8bbe 873a 6b3d 9856 a4bd
00000020: 8015 a43d 1674 6fbd 94af c53d 3e44 fbbd
00000030: bf40 613d febe 3abd fd6f bf3c 3d40 663d
00000040: 21e4 4f3b bbf3 0fbe 771c 143e 6f14 e7bd
00000050: 25fd 233e b8b0 bb3d 0eef c1be b2ea 6bbe
00000060: 7f71 103e 5601 8ebe cc5f 1ebe 5c02 4dbe
00000070: 05da 6a3d 307f 6aba 9923 07bd b18f 27be
00000080: 9f60 1fbc d40a bfbd 79e9 91bd 57a2 7ebd
00000090: 6d90 7cbe a10e 0d3d e619 82be b159 4d3c
000000a0: 8f00 ffbd 2eca 333c d061 fcbc 9b57 383e
000000b0: 16ad 3a3e 48f7 ddba a92c 563d fa7b 81be
000000c0: 279d bb3d b227 e13d 4a50 bbbd 54df acbd
000000d0: a4c2 51bc 75a3 b83d d653 04be 4ed7 44bd
000000e0: 8fd2 e53c fffe 9abb c424 3fbd 7637 193d
000000f0: 767b 74bd 3003 8a3d b2a7 f23c aee0 783d
00000100: aba6 df3d 0286 63be 17c0 afbc ac2b 8bbd
00000110: ef61 bdbd 4677 8439 9e78 6a3c a06e a03d
00000120: 62d9 5f3e b2c4 433e 73d6 2ebd c633 ba3d
00000130: ebb6 753d 0603 423b f891 eabd 7064 8a3c
00000140: eb07 b4bd 61b8 2dbe 5f48 02be 260c df3d
00000150: e781 5cbc 4d46 563e 5456 98bd 5855 d23d
00000160: d1e2 84bd 16d1 373e 62f7 c2bd ca91 68be
00000170: 6610 983e f868 efbc 8842 cfbd a35a 033e
00000180: b201 c43c 6e01 a1bb edec c1bd 98e2 5abd
00000190: cb04 81bd 0b76 ddbc bc1f 383e 8f26 c83d
000001a0: 48fc 94bc e85f 573c bc82 573d 449a 24bd
000001b0: 31c4 003e 67c0 a63d 1f98 d23d 6014 1d3d
000001c0: 86ea 4d3d 9b5b 29be a644 863b 954c c2bd
000001d0: e278 2dbe 70d5 bc3b d87e d43d c90f 553e
000001e0: ab02 a4bc f09a 2e3c 27d3 013e 9e61 a43c
000001f0: 5fc1 17be 9ba3 833c 41bf 57bd f926 583d
00000200: 1d31 dbbc 7796 a83d 00bc 4dbd a148 24be
00000210: d5f3 1abe 876d 963d 9e19 6bbd cab7 79bd
00000220: 4c06 ae3d 42c6 82bd 4494 cd3d 2d60 0a3e
00000230: 0d59 68bc 1172 fe3c 1e11 15bc ed44 b33d
00000240: fdb4 b6bd 5510 463d 4538 863d ccd8 42bd
00000250: 8a9e d7bd e362 5cbe f4ef 103e e2d0 83bd
00000260: 47c2 8c3d c325 463e 30c4 163d 5a94 b83e
00000270: eab0 3c3d 25d5 09bc 75c9 383d 7734 493e
00000280: f996 96bb 2fcb 1f3c 4685 06be 8275 3dbd
00000290: c8b9 36bd 104e 08be 7922 3d3c f7e0 973d
000002a0: 79df 133e f5a2 e5bd 138c 343c 094b 573d
000002b0: 77f5 eebd 2419 e3bd f45d 853d 81af 763d
000002c0: 9ab3 7a3d 664d 683d 7c03 c6bd 5b6e 9b3c
000002d0: de79 fe3d a2a7 61bd ce49 0d3e c011 46bd
000002e0: 4fed 073d a577 96bd 24f7 593d 0870 973c
000002f0: aa80 94be 0bfa 073e 1f64 9cbd 8713 a7bc
00000300: d0f7 933d a308 0a3d 6e22 e83d cf00 993d
00000310: f292 d7bd 298a b7bd 28e7 2c3e 7e30 83be
00000320: 6878 dfbc eef2 673d b159 b73d aba8 8dbc
00000330: 2cbf 28be 3e00 43bc 2869 e63c 08c0 6ebd
00000340: c2e8 13be d55d 913a d48a 093e fb36 c53d
00000350: c9df 99bc d3e4 18bd 7f5e 103e a7de e4bc
00000360: f896 28bd 3a09 c3bd 2f0b 1ebe 3bcc 7c3d
00000370: 9ba6 f3bd 4248 263e 6749 c0bc 3b58 4bbd
00000380: 8ff4 0bbc 4b2e 62be 28ed 2f3e 478d 0bbe
00000390: 8f48 e53c 36a0 dabd e4a8 02bd d93c 6ebc
000003a0: f3cb 9b3e f926 e4bd c581 6cbb 4169 d4bd
000003b0: cb52 b83c 7c6e 4abe 704b 99bd 0b8c df3d
000003c0: 7ac9 2ebe b4e9 f73c f09d cbbd 37a3 563b
000003d0: c544 f23c 6365 9e3d 5b38 163d a362 d43d
000003e0: 796e c43c fdbc 843e 5e05 993c 9c5b f4bd
000003f0: 550a 2b3b 241d 0dbe b8a8 7ebd 39a2 113e
0.03379746 -0.13227835 -0.002301219 0.046385895 -0.006664504 -0.27234992 0.057428863 -0.08024329
0.08011913 -0.058460318 0.096526295 -0.122688755 0.054993387 -0.0455923 0.02336883 0.056213606
0.0031721669 -0.1405782 0.14463983 -0.11283194 0.16014536 0.09164566 -0.37877697 -0.23038748
0.14105795 -0.27735394 -0.15466231 -0.20020431 0.057336826 -0.0008945344 -0.032992933 -0.16363408
-0.009727626 -0.09328237 -0.071246095 -0.062166538 -0.24664469 0.03443778 -0.25410384 0.012533591
-0.124512784 0.010973496 -0.03080836 0.18002169 0.1823009 -0.0016934657 0.052288685 -0.252899
0.09160834 0.109938994 -0.09146173 -0.08441034 -0.012802754 0.09015552 -0.12922606 -0.048056893
0.028054504 -0.004730105 -0.04666592 0.037406407 -0.059688054 0.06738889 0.029620979 0.060761146
0.10920461 -0.22219089 -0.0214539 -0.06795439 -0.09247195 0.00025265868 0.014310984 0.078336
0.21860269 0.19118002 -0.042684983 0.09091906 0.059988897 0.0029603853 -0.114536226 0.016893595
-0.08790573 -0.16964866 -0.1272292 0.10890989 -0.0134587055 0.20925255 -0.07438341 0.10270184
-0.06488574 0.17950854 -0.09519841 -0.22711864 0.2970001 -0.029224858 -0.10120112 0.12827544
0.02392659 -0.0049135005 -0.09469018 -0.053438753 -0.06299742 -0.027033826 0.17980856 0.097729795
-0.018186703 0.013145424 0.052614912 -0.04018618 0.12574841 0.081421666 0.10282921 0.03834951
0.050272487 -0.16538851 0.004097539 -0.09487263 -0.16940644 0.0057627484 0.10375756 0.20806803
-0.020020803 0.010657057 0.12678204 0.020066079 -0.14819859 0.016069224 -0.05267263 0.052771542
-0.026756817 0.08231824 -0.05022812 -0.1604333 -0.15132077 0.073451094 -0.057397477 -0.06096629
0.08497295 -0.06385471 0.10038045 0.1351325 -0.014181388 0.03106025 -0.009098319 0.08753381
-0.089212395 0.04835542 0.06553701 -0.047570035 -0.10528286 -0.21522097 0.14154035 -0.064363256
0.06872993 0.19350342 0.036808193 0.36050683 0.046067156 -0.008412634 0.045114 0.1964892
-0.004595634 0.009753033 -0.13136777 -0.046254642 -0.04461077 -0.13311028 0.011543863 0.074159555
0.14440717 -0.11212722 0.011019724 0.052561793 -0.116679125 -0.110887796 0.06512061 0.060225967
0.061206438 0.056714438 -0.09668633 0.01897352 0.12425588 -0.055091508 0.13797686 -0.04835677
0.0331853 -0.07347039 0.053214207 0.018486038 -0.29004413 0.13278978 -0.07636284 -0.020395054
0.07225001 0.033699643 0.11334692 0.07470857 -0.105260745 -0.08961899 0.16885054 -0.25622934
-0.027279094 0.05662816 0.08952654 -0.017292341 -0.16479176 -0.011901913 0.028126314 -0.058288604
-0.14444259 0.0011090586 0.13431865 0.09629627 -0.018783467 -0.0373276 0.14098547 -0.0279382
-0.0411596 -0.09523244 -0.15433954 0.061718207 -0.11897012 0.16238502 -0.023472501 -0.04964469
-0.008542194 -0.22087972 0.17180312 -0.13628112 0.0279887 -0.10675089 -0.031899348 -0.014540874
0.30429038 -0.11140246 -0.003608809 -0.10371638 0.022500416 -0.19768709 -0.07485092 0.10915383
-0.17069045 0.030262806 -0.099422336 0.0032751092 0.029573807 0.07734182 0.03667484 0.10370376
0.023978459 0.25925437 0.018679317 -0.119315356 0.0026098688 -0.13780648 -0.06217262 0.1422204

network_body._body_endoder.seq_layers.2.bias f4 [128]
00000000: f09f 503c 5ce3 3d3d f6f1 45ba 747a b53c
00000010: 82fa 503c e3ac a23c 8f9c 143d cd33 413d
00000020: 515b 8f3a 3584 143d c0a3 203d 1f65 a33c
00000030: 20ed 0e3d 15ea 4b3d ae77 8a3c 8b40 123d
00000040: 8aee 4a3c a05e a53c f33b 4a3d 1cb1 9b3d
00000050: 3961 083d be92 e13c 63a2 8b3b 7f45 df3c
00000060: b96a 893c 2bbe 333d ddee 1e3c 3201 e1bc
00000070: 4346 b73c 21b4 093d 601e 1ebd d66f e63c
00000080: 394f 9ebc 6d90 16ba fc8a 1b3d 2230 2c3d
00000090: 3b20 0c3d 969d 83bc ca40 263d 7150 c83b
000000a0: 42ac 08bd 57f2 ea3c c71d db3c cf33 753c
000000b0: a40d bc3c ca99 7e3d 6312 0dbb 4c78 073d
000000c0: 6121 e43c 5d8c e03b 7fc1 3a3d 5975 f53c
000000d0: eec1 e53c e685 cc3b ad90 313b cdb4 823d
000000e0: f0ef 413d afaf b33c 1bc1 053d 58c0 d63c
000000f0: f26e 6fbc 5827 c1bb 766b 5bbc 74c6 f23c
00000100: 763d 943c 191e 243d 21ec f93c d02b ed3c
00000110: 7a89 813c b766 8e3d 4db4 243d b460 273d
00000120: a368 273d 52d8 8a3c f12b e0bc b708 543c
00000130: 533b 9a3c 97a4 403d b28b 923c 1f65 813c
00000140: ba3f 6b3c 9d2c 653c 87d9 243d b52c 963c
00000150: a376 563c 1f59 3d3d 0ec6 1c3d 8293 213d
00000160: c884 05bd 9d75 c23c 2ca4 253d d82d ce3c
00000170: 2a27 213d c1d0 823c e57f 053d b534 e23c
00000180: 2a4f c03a 1026 d5b9 cdd8 863c 6e9b b43c
00000190: a091 d53c bcca 153c 19b7 babc 5f19 153d
000001a0: d86e 8f3c 2b85 a13c caff 90bc 7c5a 313d
000001b0: 6813 4e3d 6213 003d 0c07 2c3d 2808 9ebb
000001c0: becf f13c b773 ac3b 2afa 953c 5282 2c3d
000001d0: d61e d13b 626f f13c d96e 3b3c 59c3 763c
000001e0: 2af3 183d 1b87 6b3d 5d72 5cbc 9720 9f3b
000001f0: 9f66 9d3c 7710 b8bb 6711 0dbd 7572 ca3c
0.012733445 0.046359405 -0.00075510086 0.022153117 0.012755038 0.01985783 0.03628212 0.04716854
0.0010937249 0.036258895 0.039218664 0.01994568 0.03489411 0.049783785 0.01690277 0.035706084
0.012385974 0.020186722 0.04937358 0.0760214 0.033295844 0.027535792 0.0042613014 0.027254818
0.016774522 0.04388253 0.009700504 -0.02746639 0.02237237 0.03361905 -0.038603187 0.0281295
-0.019324886 -0.0005743567 0.037974343 0.04203809 0.034210425 -0.016066354 0.04058913 0.006113105
-0.033367403 0.02868001 0.026747597 0.014965965 0.022955723 0.062158383 -0.0021525852 0.03307371
0.027847948 0.00685267 0.04559469 0.029963182 0.028046574 0.006241548 0.002709429 0.06382141
0.047347963 0.021934358 0.032654863 0.026214764 -0.014613854 -0.0058945827 -0.01339232 0.029635645
0.018095713 0.040067766 0.030508103 0.028951555 0.015812624 0.06953185 0.04021101 0.040863708
0.040871274 0.016948853 -0.027364703 0.012941531 0.018827116 0.047031965 0.017888878 0.015795289
0.014358455 0.013987687 0.040246513 0.018331865 0.013089809 0.04622757 0.038274817 0.039447315
-0.032597333 0.023737723 0.04043977 0.025168344 0.03934399 0.015968682 0.032592673 0.027613023
0.001467203 -0.00040654885 0.0164608 0.02204677 0.026070416 0.009142574 -0.022792386 0.03640115
0.01750891 0.01971682 -0.017700095 0.043299183 0.050311476 0.031268485 0.041998908 -0.0048227496
0.029518005 0.0052628177 0.018307764 0.04211647 0.0063818498 0.029472057 0.011440002 0.015061223
0.037341274 0.057501893 -0.013455001 0.00485618 0.019213973 -0.005617197 -0.034440424 0.02471278

action_model._discrete_distribution.branches.0.weight f4 [3, 128]
00000000: ab96 2e3d 4e8d 62bd 00df 8abc c61b 8bbd
00000010: 6dbe 2b3b 1e71 9fba 1b62 e73a fc96 a23c
00000020: d401 cdbc 9183 473c e31b ccbc 32ab aabc
00000030: cb6c cb3c 8b77 583d cb8a 8bbc 3715 8abd
00000040: 8959 3c3d 2edb 07bc 0f54 3dbc 9adb 463d
00000050: 9d28 ee3c ff05 0cbd c1f8 03bd 472b 44bd
00000060: dc96 423c 18b4 6dbd 3eb9 b53b f9d6 6d3d
00000070: 653c b53b c907 5bbd 791d 9c3a a3a4 763b
00000080: 589f bfbc 1f83 953c 17fd 043c e008 6c3c
00000090: 2339 1ebd a607 b63b ef63 02bd 3465 673d
000000a0: b70b 4e3d 5c51 3ebd 62ab 74bd aaf6 bb3b
000000b0: 4e7d 5cbd 8dee 8fbc 1aea 323d ad7b 4c3c
000000c0: 5504 d3bb 0c4d 93bb 3003 5c3d 3946 04bd
000000d0: fb80 8cbc 0af0 22bd f61e 4f3c 93a9 3b3d
000000e0: af13 78bd 0a4d 83bc b692 81bd 567a 76bb
000000f0: e329 91bb 4631 b93c e0c4 ac3d cb81 22bd
00000100: 2b4c ff3c 7460 373d d4af 1fbb 79e7 303b
00000110: cbc6 a73b 291e 71bb 072f edbc 33dd 92bc
00000120: 4fc7 033d c3af 063d 50ca 87bc 607a 0dbc
00000130: 7c40 bd3c a08a a1bc ecdd d23c 8951 3fbd
00000140: 1857 8abc 37a4 5d3d 442a f2bc 1573 f1bc
00000150: 659e 1a3c f998 e5bc 4e24 813d 4825 a33c
00000160: 3f3a 373c 78d9 c8bc 802e d93d 3e46 983b
00000170: 7a58 f63b eea8 86bb cd95 21bd d900 9bbb
00000180: de24 a73d 68fe 033d 8556 3fbc 4edd d1bc
00000190: 9aaf 06bd 2da4 063d e6fe 073d 0f54 4a3c
000001a0: 2c9e 463d c5de 813c c753 233d 6e83 85bc
000001b0: 3c47 9fbc 1366 34bd 224f 833c 3651 1a3d
000001c0: d031 e7bc 867b d8bb f46f 91bd 2506 49bd
000001d0: 0c7d 9abc d66b a6bc 4492 4e3b 0924 55ba
000001e0: 7abe b73c 4471 f63c 195e 3d3d f337 19b9
000001f0: fcd4 cc3c d142 c33c dd6f 5b3d 91bf 16bd
00000200: f0db 39bb ae00 643d f616 48bd a03b a63c
00000210: 3a85 d2bc 0aa9 1a3d 22f8 75bd 0c40 7f3d
00000220: 764e 4d3d c90b 99bd 2687 2abc f648 5fbc
00000230: 7e20 62bd f860 10bd df25 81ba 6da1 0b3d
00000240: 447b e8bc 34d7 e63c 9332 c03b 4c0b 22bd
00000250: f74f 27bd 392e 913c c7d6 b13a 5a40 e23b
00000260: 47db 1cbc dbc7 753b bba1 0c3d 7343 78bd
00000270: 757f 533d 1c4d c93c 7773 f9bc 4318 5f3d
00000280: ffb2 213d 2880 9ebc cde7 f93c ee3f 40bd
00000290: 62e9 3e3d 5407 95bc 3925 3c3c d107 0bbd
000002a0: 17d6 7fbd bf9f 043d 1f76 c83c 9a99 1c3c
000002b0: 40b7 243d f22b 58bc b5f7 b2bc 8172 5a3b
000002c0: d600 df3c eeef 623d 0354 82bd 3d8a 813d
000002d0: 240c 953d 73f5 c13c cf09 8c3c 120f c8bc
000002e0: 5a73 8f3d 4b7f 5e3d 386d 093d b319 d1ba
000002f0: bdb0 f7bc 0647 46bd 2ffc 53bd 9951 d53c
00000300: 5f94 b4bc 5415 923d 5fb5 8dbd a95f 84bd
00000310: a9db 9bbd 6bfc 123d e8a3 773c 8304 323c
00000320: c6c2 41bd 302c fa3c 9de6 b43c a29c f3bc
00000330: 63b5 53bb 3967 883c 5b47 a8bd b651 c23c
00000340: 2441 15bc 6925 43ba 4098 87bb c8fc ef3b
00000350: d824 96bc c363 71bc 4aa5 66bc 1dd0 d2bb
00000360: f7a3 c6bb 9f1a 7bbb 2f62 86bd 3171 a6bc
00000370: d87f 42bb d953 95bb 7826 de3b a817 7d3c
00000380: 6971 19bd 065a 1cbd 63e5 8dbc deac 363d
00000390: 70bf 44ba 145a d33b f765 c0bc 98d1 35bd
000003a0: 7983 b9bc 7363 673d 0733 98bc afb9 273d
000003b0: 5d16 58ba f2f5 583d 864b a2bd 1752 abbd
000003c0: 22b3 3b3d f26f 18bc 03d8 693d 82a7 6f3d
000003d0: f51d a03c 0b0f 403d 725f 8ebd 5207 883d
000003e0: 965a 0ebd eb17 38bd 8ae7 09bb ec1d 9dbd
000003f0: 7a2f 77bd 767e 1cbd 9a56 45bd 8b3b b53c
0.042624157 -0.05531054 -0.016952038 -0.06792407 0.0026206032 -0.0012164449 0.0017653139 0.019847386
-0.025025286 0.012177364 -0.024915641 -0.020833585 0.02483215 0.05284838 -0.017033955 -0.06742328
0.045983825 -0.008292003 -0.011555686 0.048549272 0.0290721 -0.034185406 -0.032219652 -0.047892835
0.011876788 -0.05803308 0.005545764 0.058066342 0.005530881 -0.05347422 0.0011910639 0.0037634752
-0.02339141 0.018251 0.008116982 0.014406413 -0.03862871 0.005555111 -0.031833585 0.056493
0.05030414 -0.04646431 -0.059733756 0.0057361918 -0.053830437 -0.017569805 0.043680288 0.0124806585
-0.0064397254 -0.0044952687 0.053713977 -0.032293532 -0.017151346 -0.0397797 0.012641659 0.045816015
-0.060565647 -0.016027946 -0.06326811 -0.003760954 -0.004430042 0.022606503 0.084359884 -0.03967456
0.03116425 0.04476972 -0.0024366276 0.0026993437 0.0051201335 -0.0036791658 -0.028953088 -0.017927742
0.032172497 0.032882463 -0.016575962 -0.0086351335 0.023102038 -0.019719422 0.025740586 -0.046708617
-0.016887233 0.054111686 -0.02956117 -0.02947382 0.009437178 -0.028027045 0.06305753 0.019915238
0.011183321 -0.02451776 0.10604572 0.0046470454 0.0075178714 -0.0041094935 -0.0394495 -0.0047303257
0.08161329 0.032225043 -0.011678343 -0.025618222 -0.03288231 0.032871414 0.033202074 0.012349143
0.04849069 0.015853295 0.03987482 -0.016298022 -0.019443147 -0.044042658 0.016028944 0.037675105
-0.028221995 -0.006606522 -0.071014315 -0.049078126 -0.018858455 -0.020315092 0.0031520287 -0.0008130675
0.022429693 0.030083306 0.046232317 -0.0001461206 0.025003903 0.023835571 0.053573478 -0.036803786
-0.0028359853 0.05566471 -0.048850022 0.020292103 -0.025698293 0.037758864 -0.06005109 0.06231694
0.050123654 -0.07472951 -0.010408198 -0.013628235 -0.05520677 -0.035248727 -0.0009853205 0.034089494
-0.02837909 0.028178789 0.005865404 -0.039561555 -0.040847745 0.017722236 0.0013568037 0.006904644
-0.009573764 0.0037503156 0.034333926 -0.0606112 0.051635224 0.024572901 -0.030450566 0.054466497
0.039477345 -0.019348219 0.030506039 -0.046935968 0.04660929 -0.01819197 0.011483484 -0.033943
-0.06246003 0.03237891 0.024470387 0.009558106 0.040213823 -0.013194071 -0.021846632 0.003333241
0.027222078 0.055404596 -0.0636368 0.06325195 0.07277706 0.02367661 0.01709452 -0.024421249
0.070044234 0.054320615 0.033551425 -0.0015953094 -0.030235643 -0.048407577 -0.051754173 0.026039885
-0.022043405 0.07132974 -0.069193594 -0.06463558 -0.07610256 0.035885256 0.015114762 0.0108653335
-0.04730489 0.030538648 0.022082621 -0.029737774 -0.003230416 0.016650783 -0.08216735 0.023720603
-0.009109769 -0.0007444234 -0.0041380227 0.007323835 -0.018328115 -0.014733258 -0.014077494 -0.0064335004
-0.0060620266 -0.0038315428 -0.06561696 -0.020317646 -0.0029678252 -0.0045571146 0.006779488 0.015447535
-0.037461672 -0.03817179 -0.017321294 0.044598453 -0.0007505333 0.006449947 -0.02348612 -0.044389337
-0.022645699 0.056491327 -0.01857902 0.040948566 -0.00082430785 0.052968927 -0.07924561 -0.08365267
0.04582513 -0.009304034 0.05709077 0.058509357 0.019545535 0.046889346 -0.069517985 0.06642021
-0.03475436 -0.044944685 -0.002104255 -0.07671723 -0.06034801 -0.03820654 -0.048178293 0.022123119

action_model._discrete_distribution.branches.0.bias f4 [3]
00000000: aab4 dcbc ec97 183d 399d f7bc
-0.026941616 0.03725426 -0.030226337

action_model._discrete_distribution.branches.1.weight f4 [3, 128]
00000000: a5e1 94bd c603 c73c 9f18 d7bc cb21 183d
00000010: 3e23 4abc 7c4f 36bd 13fb 24bd f733 56bc
00000020: e3a6 5fbd 5161 4a3c fc5b 893d 32e7 7c3b
00000030: b7e3 003c 8c90 e13b 4f75 4c3d c02f 513d
00000040: 76da 7fbd d593 0e3d 6c1c 5f3d c638 203c
00000050: a657 1dbd f312 b73c b83d 0e3d e6e9 f73c
00000060: 465a 94bd 939b 223d 602c 5bbd 7f70 2fbc
00000070: 5278 e03c e322 943c 1774 0abd 13d2 d73b
00000080: a0cc 31bd d690 91bb c737 0c3d a73c d8bc
00000090: 5d16 f53c e085 2bbd 32fa 443d b570 89bd
000000a0: be73 303b 8f2c 1a3c 0014 003d a9ff b9bd
000000b0: be3c cabd edd8 6f3d 4ede 0dbc 622e 88ba
000000c0: 07bd 0f3d c643 78bd 3e26 99bb ba98 c73c
000000d0: 23dd d7bc 28c1 903c 6679 55bd 45c5 e7bc
000000e0: 168d 50bd 1a61 ef3c baac 0b3d 5833 20bd
000000f0: 3420 a2bc a66f 8fbc abeb 82bc ac9e a83c
00000100: 6459 93bd 5c0c 733c c2b5 d63c 9b92 533c
00000110: 453b 513c f7d3 0abd 7324 0dbd fdf9 6f3d
00000120: 0519 98bc 6408 9f3c 38ba 1dbd 4d74 9cbd
00000130: f87d 92bd 47db 3b3d 961f 7dbb 4a7c eb3c
00000140: c4b7 463d 7899 3cbd bfed 173d 8717 1f3d
00000150: e906 62bd 219c 5d3d 8a56 013d 0060 57bd
00000160: cd4e 2dbd 94d0 5f3c 4194 5abc 1736 733d
00000170: 852f 243d c462 fe3c a997 603d 4a3c dcbd
00000180: 55a4 6ebc ebcd 0dbd 6f92 2a3d 19f4 82bd
00000190: 598c 473d 52be 16bd 6156 60bd 32a1 973c
000001a0: 125d efbc 078e bfbd b590 f1bc d34e e7bb
000001b0: f5c3 683d e76e 15bd 758d 0abc 6e83 883c
000001c0: d910 9abd 6fbb 493d f032 acbd 10a1 3a3c
000001d0: e226 a2bd f3f8 1abc cce5 dbbb 6cfa cc3b
000001e0: bfe6 9dbc 8e1c 9abc 606a 95bc 91c4 a3b9
000001f0: 5eeb 06bb a8f0 f9bc bb76 0c3d de1f be3c
00000200: e7a0 193e 0b8a 2e3d 21fd 8c3c a717 0dbd
00000210: 7ed1 f03d 448b d2bd 7cb4 ae3d d5aa 0f3d
00000220: d1a5 43bd 6ff2 0fbd 9587 8b3b 2fd1 65bd
00000230: e3ff 2fbb 48d1 02bd e407 9abd 4d15 1ebd
00000240: 00ab af3b 5ea0 f3bc bce1 ca3b afc2 33bd
00000250: 61f8 b53d 7a83 4cbc 8c53 2bbd 3fa0 fc39
00000260: 926c d63d 2f57 993b ff2c 5f3b 56cb ed3d
00000270: 67e5 ebbc 2178 65bc a0d3 2cbd 45f0 bdbd
00000280: bf8c 49bd b2ff b0bd ff8f 8c3b 03f5 6ebd
00000290: 29cc c5bb 2cbf 29bc 1562 d3bb e4bb de3d
000002a0: 8421 c6bc 4e68 8a3c d849 08bd 0766 333e
000002b0: 1c5a 723d 5e67 3e3d fe04 abbc 6f30 19be
000002c0: 0107 d1bb 58d5 963d bc5f bcbd 2109 0dbd
000002d0: 8be3 11be 7668 0ebd 3995 073e 48ba 28bd
000002e0: 7097 b2bb 93d7 83bd b786 56bc c97b d3bd
000002f0: 47c7 c13c 0b28 8a3c 8e89 edbd d2e3 7e3c
00000300: 9632 da3d b5ab 1abd a74a 37bc 6daf 27bd
00000310: f6b8 06bd ccdb acbd 9260 79bc d852 efbb
00000320: a145 93bd ae49 6b3c 248a 88bd 9cef ec3d
00000330: f246 093e 576d 54bc 5014 e3bc 5be7 6dbd
00000340: afa6 0ebd 518f b1bd 1955 b63c 3e56 2dbc
00000350: 235d 083e 143e 2b3c 739d 9abc 17d9 8abd
00000360: 8df5 edbb 23c7 1ebe 8879 cbbd 0721 0dbd
00000370: 1dd1 ff3c cce3 07bd 9d36 85bc 6ec1 0d3e
00000380: 68d0 a9bd b313 923d b9eb 1cbd 70b4 ab3d
00000390: e3b3 cebc 1fd4 e63c 4bab 2b3d 9d82 56bb
000003a0: 1562 473d e8cf 3f3e 48bf bc3d 48d8 d3bd
000003b0: c1ad 3cbc b3fa cb3c 9ebb cbbd b690 003c
000003c0: 258e 9f3d 7572 84bd 8dc0 ab3c 7b09 20bd
000003d0: 588f 263e 6f7e 923c 252a e6bc d19d f7bc
000003e0: c3f0 b43d 0f4a 70bd bf59 c5ba 057c df3b
000003f0: 175c a0bc c07a 283d 613d f93b 281a 0cbd
-0.07269601 0.024293792 -0.026256857 0.037141602 -0.012337504 -0.044509396 -0.040278506 -0.013073913
-0.054602515 0.012352304 0.06706998 0.0038589952 0.007866791 0.0068836864 0.04991656 0.05107093
-0.0624642 0.034808952 0.054470465 0.009779161 -0.038413666 0.022347903 0.03472683 0.030262899
-0.07243781 0.03969915 -0.053509116 -0.0107079735 0.027401123 0.018083042 -0.03380212 0.006586322
-0.043408036 -0.0044423146 0.03423288 -0.026396109 0.02991789 -0.04187572 0.048090167 -0.0671095
0.0026924456 0.009410038 0.031269073 -0.090819664 -0.09874867 0.058556486 -0.008658959 -0.00103898
0.03509238 -0.06061151 -0.0046737483 0.024364818 -0.026350563 0.01767023 -0.052117728 -0.028292308
-0.0509158 0.029221106 0.03410027 -0.039111465 -0.019790746 -0.017509293 -0.015981516 0.020583473
-0.07194784 0.01483449 0.026209716 0.012913371 0.012770479 -0.03389355 -0.03445859 0.058588017
-0.018566618 0.01941318 -0.03850767 -0.0763937 -0.07152933 0.045863416 -0.0038623563 0.02874579
0.048515096 -0.046044797 0.037091967 0.038840797 -0.05518237 0.054103974 0.03157667 -0.052581787
-0.04231148 0.013660569 -0.013341011 0.059377756 0.04008438 0.031052954 0.054832134 -0.10753687
-0.014565547 -0.034620207 0.041643556 -0.06394214 0.04871783 -0.036802597 -0.054769877 0.018509481
-0.029219184 -0.093532614 -0.029487947 -0.007058957 0.056827504 -0.036482718 -0.008456578 0.016664233
-0.07522745 0.049251016 -0.08408153 0.011390939 -0.079175726 -0.009458768 -0.0067107435 0.0062554386
-0.019275067 -0.018812444 -0.0182392 -0.00031236236 -0.0020587067 -0.030510262 0.034292918 0.023208555
0.15002786 0.042612117 0.017210545 -0.034446385 0.117587075 -0.10280469 0.085305184 0.035075027
-0.047765557 -0.035143312 0.004258106 -0.056107696 -0.0026855401 -0.031937867 -0.07521036 -0.038594533
0.005360961 -0.029739555 0.0061914604 -0.043886837 0.08885265 -0.012482518 -0.041827723 0.00048184578
0.10469927 0.0046795825 0.003405392 0.11611049 -0.028795911 -0.014005692 -0.04219401 -0.092743434
-0.04920649 -0.0864252 0.0042896266 -0.05833913 -0.0060363007 -0.01036052 -0.0064509013 0.10875681
-0.024185903 0.01689544 -0.033273548 0.17519389 0.059167966 0.046485297 -0.020876404 -0.14959882
-0.0063790088 0.07364911 -0.091979474 -0.034432534 -0.14246957 -0.03476759 0.13240518 -0.041193277
-0.0054501817 -0.06437602 -0.013093642 -0.103263445 0.023654593 0.016864797 -0.11598502 0.015557246
0.1065418 -0.03776141 -0.011187232 -0.040938783 -0.032891236 -0.084403604 -0.015220778 -0.007303577
-0.07191015 0.014360828 -0.06666973 0.11569139 0.1340597 -0.012965522 -0.027719647 -0.058081966
-0.03482693 -0.086699136 0.022257375 -0.010579644 0.13316779 0.010451812 -0.018873906 -0.06779688
-0.007261938 -0.15505652 -0.099352896 -0.034455325 0.031227643 -0.03317623 -0.016261393 0.13843319
-0.082917035 0.071326636 -0.03831074 0.08384025 -0.025232261 0.02817732 0.041911405 -0.003273166
0.048677523 0.18731654 0.092161715 -0.10343987 -0.011516036 0.024899816 -0.099478945 0.007847002
0.07790784 -0.064671434 0.020965839 -0.03907154 0.16265619 0.017882554 -0.028096268 -0.03022662
0.08834984 -0.058664378 -0.0015056654 0.006820204 -0.019575162 0.04113269 0.007606194 -0.034204632

action_model._discrete_distribution.branches.1.bias f4 [3]
00000000: 48c9 b23c 386b 8a3c 3fdd 57bd
0.021824494 0.016896829 -0.05270123

action_model._discrete_distribution.branches.2.weight f4 [2, 128]
00000000: f3aa 93bc 0638 4e3c 7f16 9dbc f6a2 1f3d
00000010: 7eb2 60bd f737 1f3d 291a 9fbd 659c 68bd
00000020: bdf9 853c dd34 c53d 1453 ee3a b8eb 19bd
00000030: a8f9 c63d e7f9 ec3d da7e a03d 287c 3e3d
00000040: e02f 57bd 72fe 7f3d d3fc aa3d ba43 2b3e
00000050: f1c0 82bd 2e50 653a 2cee 043b 0aed 373c
00000060: 2d89 62bc 14d7 493b a393 7bbd ba0e b83c
00000070: 5717 793d af2e 113d 13e6 b1bc 24f8 af3d
00000080: 6d23 10b7 cef6 633c fc0a 543d b639 ed3d
00000090: 11dd 2b3d 5d1e 67bc cead 243d c909 c8bc
000000a0: 8d55 013c 31b4 403c 8979 443d fc14 1cbd
000000b0: 6414 44bd 046a 903c 0d00 553d efc6 853c
000000c0: 5658 373d d31f 4bbd b88a 73bd 0036 563d
000000d0: 05de 78bc c034 da3c fc0c edbc a41d 86bd
000000e0: 27b1 04bd 6b8d 943d e46f d73c 7cb8 663c
000000f0: 579f 3fbd 0ca3 23bb 13b0 75bc abe6 bb3c
00000100: c229 29bd 7f86 6abd d207 a53d b427 ba3d
00000110: 8240 973d ac7f 303d 2036 26bc 5446 e33d
00000120: 7f55 8bbd b1f5 563d 1f27 c6bc 6ae4 48bd
00000130: 3df1 eebb 4828 c63d 7a64 913d 70ba 273d
00000140: 35e1 523d 9d0d 043d 96c8 fb3b 56c7 8e3c
00000150: 1476 03bd bc35 593d 4fb4 e03d 2434 173e
00000160: c1b6 bfbc 9ba9 7bbc d626 42bd 2adb 543d
00000170: fc4e 133c bf1a 903d cf27 6a3d 5f58 ddbc
00000180: 93a0 0abc f3ef b5bb d117 573d 0a99 63bd
00000190: d1e3 1c3d 6214 83bd 5902 9bbc cba9 9b3d
000001a0: 099a 253d 4869 5abc e7b8 413c a43d a9bd
000001b0: 42fd 743c ecc2 47bd 1944 bd3d eda8 7f3d
000001c0: 7821 b0bd 3898 0c3d 378b a23b 9b2e c23b
000001d0: 54ca abbc 9f82 babd d10f 7d3d 58a1 183d
000001e0: e769 a6bd b3f2 55bd 98dd 093d eb27 443d
000001f0: 9699 6a3d 699d 7d3c 42d3 953d 0c72 de3c
00000200: 6537 a93b 3183 d6bc 025d 6b3b c2d7 3abc
00000210: f92f 993d 26b6 10bd c0d7 a63d 922e 9b3d
00000220: 1d67 7dbc f24c b3bd e0ee cdbc 09a3 5d3d
00000230: 8475 d4bd c0d8 06be b1d7 c9bd 3ac0 61bd
00000240: f5e7 1f3d df2e 99bd c4e1 92bd 77d3 23be
00000250: 0118 073d c5a0 6abc 4221 293c 45a1 f2ba
00000260: 2d81 ae3c b750 cebb 427f 713d 885f 9ebc
00000270: 117b 46bd d0f0 c1bc 1196 dd3c c32e 8bbd
00000280: fd4b 373c e4c6 b5bb 9acc 55bd 692f c0bd
00000290: 2b06 1cbd a535 273c 7751 12bd f48e ae3c
000002a0: 43b9 2d3c 396c 7ab8 6cd9 ebbc fd25 e53c
000002b0: 9ce6 5a3d 44a2 89bb e8de 78bd 38e0 dcbc
000002c0: f71d 19bd 05a5 313d fb89 4b3d 9700 41bd
000002d0: b6f6 d03c 08de d2bc 2a86 5c3d 8ecc 893d
000002e0: a1d7 c13c 5723 92bd 604f bfbc ebc5 a3bb
000002f0: 96af fa3c 01fd a43c 6e8f dd3b 1bbb 69bc
00000300: f777 493d b3a0 493d 9d4f a9bd 4feb bfbd
00000310: 41cb 6abd 9caf 29bd 5e08 33bc adbe cfbd
00000320: 2cc5 a83d 118f 65bd 5d0e 793c 02ee 313d
00000330: 1ffd a23c 2cc0 e7bd 84cd 93bd 7750 04bd
00000340: 06a5 8bbd 6ec9 e0bc 1683 c1bc 6a6f febc
00000350: e55c 973c 2ee0 26bd 76e1 e6bd db3a 03be
00000360: 8843 b63c 1a42 133c df3f f03c ba53 70bd
00000370: 5d25 8ebb b65e 86bd ab70 29bd b2b3 bd3c
00000380: 0941 6f3c 2387 b43c fc80 65bd ef4b 403d
00000390: 0ad7 04bd bd07 713d a30b 5c3c 68fe 91bd
000003a0: a735 17bd 845c a5bb 796c 4abc 8a3b a83d
000003b0: 40e1 e6bc c218 543d de73 c7bd 2265 91bd
000003c0: 95b0 b13d 6198 86bd 8be2 01bc 759d b3bc
000003d0: c7ff 0e3d cb6c cc3d d034 74bd 3ac6 64bd
000003e0: a522 ba3d c189 273d 1758 4bbd 01d0 78bd
000003f0: 0d22 a8bd d224 78bc c41f 9dbd 8f76 51bc
-0.01802585 0.012586599 -0.019175766 0.03897377 -0.054857723 0.03887173 -0.077686615 -0.056789774
0.016354436 0.096292235 0.0018182718 -0.037578315 0.09715587 0.115711026 0.07836695 0.046505123
-0.05253589 0.062498517 0.08349004 0.16725054 -0.06384457 0.00087476044 0.0020283563 0.011225948
-0.013826651 0.0030798363 -0.061420094 0.02246796 0.060813274 0.03544491 -0.021716153 0.08592251
-8.591317e-06 0.013913823 0.051768288 0.11583273 0.041958872 -0.01410636 0.040204816 -0.024418728
0.007893932 0.011761711 0.047967467 -0.03810595 -0.04787101 0.017628677 0.052002 0.01633021
0.044761978 -0.049590897 -0.059458464 0.052297592 -0.015189652 0.026636481 -0.028936855 -0.06548622
-0.03239551 0.07253536 0.02629847 0.01408207 -0.046782818 -0.002496901 -0.014995593 0.02293714
-0.04129959 -0.05725717 0.08058132 0.09089604 0.07385351 0.043090507 -0.01014474 0.110973984
-0.068034165 0.052480403 -0.024188576 -0.049045958 -0.0072919414 0.09675652 0.070992425 0.040949285
0.051484305 0.032239545 0.007683824 0.017429035 -0.03209503 0.05302976 0.10971891 0.14765984
-0.023402574 -0.015360261 -0.047400318 0.051966824 0.008990999 0.070363514 0.05716687 -0.027019678
-0.008461135 -0.005552286 0.052512947 -0.05556587 0.0383032 -0.06400372 -0.018922018 0.07600745
0.040430102 -0.013330765 0.011823869 -0.0826371 0.0149529595 -0.048769876 0.09241504 0.06241696
-0.08600134 0.034324855 0.0049604434 0.005925966 -0.020970501 -0.09106945 0.06178266 0.037263244
-0.08125668 -0.05223341 0.033658594 0.04788963 0.057275377 0.015479424 0.07315685 0.027153991
0.0051640742 -0.026185604 0.0035913591 -0.01140398 0.07479853 -0.03532996 0.0814662 0.07577242
-0.015466479 -0.087549105 -0.025138319 0.05411056 -0.10373977 -0.13168621 -0.09855593 -0.055114962
0.03903957 -0.07479643 -0.071719676 -0.15998636 0.032981876 -0.014320557 0.010322871 -0.0018511197
0.02130183 -0.006296243 0.058959253 -0.019332662 -0.04845721 -0.023674399 0.027049096 -0.067960285
0.011187551 -0.0055473913 -0.052197076 -0.09384043 -0.03809182 0.010205661 -0.035722222 0.0213084
0.010603252 -5.9705435e-05 -0.028790198 0.027972216 0.053442582 -0.004200252 -0.060759455 -0.026962385
-0.037382092 0.043370266 0.049692135 -0.047119703 0.025508266 -0.025740638 0.053838886 0.06728469
0.02366239 -0.07135647 -0.023353279 -0.004997959 0.030601304 0.020140173 0.006761483 -0.014265801
0.049186673 0.04922552 -0.08267138 -0.093710534 -0.057322744 -0.04142724 -0.010927288 -0.101437904
0.082407326 -0.056044642 0.015201178 0.043439873 0.019896088 -0.11315951 -0.07216933 -0.0323033
-0.06818585 -0.0274398 -0.023622077 -0.031058986 0.018476913 -0.04074114 -0.11273472 -0.1281542
0.022248998 0.008987928 0.029327331 -0.058673598 -0.00433795 -0.065610334 -0.041367214 0.023156974
0.014602908 0.022037094 -0.056031212 0.046947416 -0.03243164 0.05884527 0.013430509 -0.07128602
-0.0369164 -0.005046429 -0.012354963 0.08214481 -0.02818358 0.051781423 -0.09738897 -0.07099368
0.086762585 -0.06572033 -0.007927547 -0.021925667 0.034911897 0.09981688 -0.05962068 -0.055853106
0.09088639 0.040902857 -0.049644556 -0.060745243 -0.0820962 -0.015145497 -0.076720744 -0.012784614

action_model._discrete_distribution.branches.2.bias f4 [2]
00000000: 9115 893c 8d15 89bc
0.016733916 -0.016733909
