results/PressButton/PressButtonAgent_ImitationLearning/PressButtonAgent/PressButtonAgent-99994.onnx (onnx, 83197 bytes, 11 tensors)

discrete_act_size_vector f4 [1, 3]
00000000: 0000 4040 0000 4040 0000 0040
3.0 3.0 2.0

network_body._body_endoder.seq_layers.0.weight f4 [128, 6]
00000000: fafc 04bf 3df6 6f3e 6057 2ebf 5d35 0f3f
00000010: c7c2 823e 23ce 293f 5e19 59bf f137 26bf
00000020: 6cd9 a63e 2a49 a73b a2d9 4ebf 5ae1 503e
00000030: f6e9 aa3f ccab 6b3f 06dd 4c3e fe40 d53e
00000040: 1eb5 d03e fc7f 8a3e ca99 5c3e 0063 3ebf
00000050: 2eb6 163f 63c1 e33d 0cfe 0c3f 53ea f2be
00000060: 4d34 15bc 33c4 5cbe bf7f 3a3e ae15 d8be
00000070: 64a0 2e3f 484e 213e 84a9 dcbe 5c87 cfbe
00000080: ad59 003f f29f d93c 5c74 6dbf 752a bf3e
00000090: 261b da3e f7d0 993e 1bec e13e 64f1 1cbe
000000a0: a222 8e3f f45a f2be aaa5 e9bd c1cb 28bf
000000b0: 2bf3 5b3e c365 6bbd 2763 5d3e 1a03 7cbe
000000c0: 992b 893d 7ffe f43e 51fa 5c3c 95cf f1be
000000d0: a3d0 c33e 8ef2 debe eef7 6bbd b5c5 c4be
000000e0: a28f 1fbc 0b9a 40be 01b1 ffbe 41a4 88be
000000f0: f5dd 72be 456e fa3e b407 5cbe 3647 8d3d
00000100: ae84 0c3f f6d2 1ebf 9ed7 1c3f 85c3 ca3c
00000110: 040c 6abe df78 ae3e 4c75 40bf dc36 b5be
00000120: 758d 9d3f faec babe 16c5 8bbe e436 6f3e
00000130: a5ca 403e 0532 1d3f 864d 37bf 8199 11be
00000140: 080b 223e 755d f5be 0849 a43e ab25 ad3e
00000150: 81d6 bf3e 80c0 813e 313c cd3d e984 29be
00000160: 9511 6b3e 4775 863e 6b0c ab3c bd04 94be
00000170: e5c1 df3e a624 6cbf 9b9f d5be ec4d b83e
00000180: b9cf 35bf d020 1ebe 6f39 ce3d 33c0 0abe
00000190: f3db 6a3e 6967 a83e e661 1cbf 19b4 e03d
000001a0: d5cb 663f 878e 8dbe 6e21 d13e 3284 7ebf
000001b0: 2685 663f 0296 a03e 7896 6a3e 0659 493e
000001c0: 06cd 62be 1e6d ae3e 2c15 b63d 7116 04bf
000001d0: 747d 1b3f 7e9c a6be 1b33 16be b204 23bf
000001e0: ebf2 ac3e e387 32bd ccf1 c2be 6548 9b3b
000001f0: bc56 9f3c 0d6b 8abe e0d2 583f a082 5b3e
00000200: 26c1 d5bd 38e8 3abf e870 22bd 21b8 9abe
00000210: cf02 fc3d c698 7dbe 7a41 263f 214d 7b3e
00000220: b20c 96be ad55 e9be 6f69 1ebf 26a2 093f
00000230: 1c30 dc3e b778 60bf d7bc cb3e 7d30 50bd
00000240: ff3c f7bb 1b5d ba3e 20cd 2fbf 42b1 423f
00000250: 5d87 943e d89a cb3d 68f1 893d 5f70 5bbd
00000260: fb89 9d3e 2921 093d a1bc 2ebf 296c e4bd
00000270: 102b 10bf 4ed3 1ebe ce4c 253e 8079 fc3e
00000280: 3c00 77be 02a7 49bf 175a bcbe 6365 683e
00000290: 6253 9a3e 4299 043e 2c71 a23e 54ca 34be
000002a0: 7fa2 89bd 3a12 c1be 847e 84be b0f0 97bd
000002b0: 8734 d6bd 834c c6be 403f b03e adc8 83be
000002c0: bd9d 693e 9d68 0dbd efb5 1e3e 718e 48be
000002d0: 5953 233f a84d 2fbf 176f 21bf ef69 4a3f
000002e0: c67a 3d3f 8c7f c53e fc54 6fbe 48be 913e
000002f0: 3d87 093f d273 8f3d db70 283e 9efc 003e
00000300: 3f46 cabe 6e86 b4be 5ac6 c1be bc44 0fbf
00000310: 7c09 1fbf 0ad0 bf3e 6ade 7ebe 1644 f6bd
00000320: bfb2 3fbf 4bdf 333f 04ea 99be 5ce6 f0bd
00000330: b952 1e3e 0a3c c93e 73d6 86be f3a0 32bd
00000340: 4d4e 44bf 77b7 6abd 0b3a d0be 064e 00bf
00000350: daa2 24bd 9a58 afbe 088a 763d 26fd 7c3d
00000360: df87 8cbe 3783 64be df0b 633f 6958 9c3e
00000370: 1c7a 39bf 1dd4 51bf 9eaf 99be e6ef 993d
00000380: 1429 cf3e 068c 55be 4da4 093f ed30 143e
00000390: 5a33 103f 5e0a d2be e1f3 263e d82d 2c3f
000003a0: f1e2 6b3e f452 80bf b0a6 293f 870a 2b3f
000003b0: 6a8e 633e 94c4 0b3e 8e7b 1bbe fb2e 0cbf
000003c0: 7a5c e23d 21f1 4e3e ae4f b8bd e361 813d
000003d0: 273f 84bf c289 3dbd 4f41 d53e a120 e43e
000003e0: 17a3 e43d c62f aa3e 6bc3 1f3f 804c 0b3d
000003f0: dea7 d43e 84de fd3d d63a 413f 2dcc 553d
-0.5194851 0.23433776 -0.68102074 0.559408 0.25539228 0.66330165 -0.8480433 -0.6492911
0.32587755 0.0051051574 -0.8080083 0.20398465 1.3352649 0.92059016 0.20006189 0.41651148
0.4076318 0.2705077 0.21543041 -0.7436981 0.58871734 0.1112087 0.55075145 -0.474444
-0.009106708 -0.21559219 0.18212794 -0.4220404 0.68213487 0.15752518 -0.4309808 -0.40532959
0.50136834 0.026565526 -0.92755675 0.3733708 0.42598838 0.3004224 0.44125447 -0.15326458
1.1104319 -0.47335017 -0.11408551 -0.65935904 0.2147948 -0.057470094 0.21619855 -0.24610558
0.06697769 0.47850415 0.013487414 -0.47228685 0.38245115 -0.4354443 -0.05760949 -0.38432088
-0.009738835 -0.18808763 -0.4993973 -0.26687816 -0.23717482 0.48912254 -0.21487314 0.06898348
0.54889953 -0.6204065 0.61266506 0.024751434 -0.22856146 0.34076592 -0.7517898 -0.35393417
1.2308794 -0.36508924 -0.27298802 0.23360783 0.18827303 0.6140445 -0.71602666 -0.14218713
0.1582452 -0.47922865 0.32086968 0.338178 0.3746834 0.25342178 0.10021246 -0.16554607
0.22955926 0.2626135 0.020879945 -0.28909865 0.43702617 -0.9224342 -0.41723332 0.3599695
-0.71020085 -0.15442204 0.10069548 -0.1354988 0.22935466 0.32891396 -0.6108688 0.10971851
0.90154773 -0.27647802 0.40845817 -0.99420464 0.9004692 0.31364447 0.22908962 0.19662866
-0.22148523 0.34067625 0.08890757 -0.5159674 0.607383 -0.3254127 -0.14667933 -0.6367904
0.33779082 -0.043586623 -0.380751 0.0047388547 0.019450538 -0.27034798 0.8469677 0.21436548
-0.10437231 -0.7301059 -0.039658457 -0.30218604 0.12305223 -0.2476531 0.6494366 0.24541141
-0.2930656 -0.45573178 -0.6187963 0.53763044 0.43005455 -0.87684196 0.3979251 -0.050827492
-0.007545113 0.3639916 -0.6867237 0.76051724 0.29009524 0.099416435 0.06735498 -0.053573962
0.30769333 0.03347889 -0.68256575 -0.111534424 -0.5631571 -0.15510294 0.1614258 0.49311447
-0.24121183 -0.7877046 -0.36787483 0.22694926 0.3014174 0.12949088 0.31726968 -0.17655307
-0.06720447 -0.37709218 -0.25877774 -0.07418954 -0.104592375 -0.3873025 0.34423256 -0.2573904
0.22814079 -0.034523595 0.1549909 -0.19585587 0.63799053 -0.6847787 -0.63060135 0.7906789
0.7401546 0.38573873 -0.23372263 0.28465486 0.5372198 0.07004513 0.16449301 0.12596366
-0.3950672 -0.35258812 -0.37846643 -0.55964255 -0.62123847 0.3746341 -0.24889532 -0.12024705
-0.7488212 0.70262593 -0.30061352 -0.117626876 0.15461244 0.3930362 -0.26335487 -0.043610524
-0.7668198 -0.057303872 -0.40669283 -0.50119054 -0.04019437 -0.34247285 0.06019023 0.06176486
-0.2744741 -0.2231568 0.8868999 0.30536202 -0.7245195 -0.81964284 -0.30016798 0.0751646
0.40461028 -0.20854196 0.5376633 0.14471789 0.56328356 -0.41023535 0.1630397 0.6725745
0.2303579 -1.0025315 0.6626997 0.6681294 0.22222295 0.13649207 -0.15183851 -0.54759187
0.11052795 0.20209171 -0.08999573 0.063174985 -1.0331773 -0.046273954 0.4165139 0.44556144
0.111639194 0.33239573 0.6240756 0.034008503 0.41534323 0.12395957 0.754804 0.05219667

network_body._body_endoder.seq_layers.0.bias f4 [128]
00000000: 6953 673d d9b0 563c a90f f03c 93e9 1dba
00000010: 499a 073d 0955 843d 1376 2a3d 9cb5 853c
00000020: be3e 46bd 2148 20bc 04d5 38bc ffe0 013d
00000030: c581 b63c 1949 ddbc e430 4b3c 96e3 c33d
00000040: 20da 4fbc 8b15 d0bb bc83 1d3d 1502 7f3c
00000050: 39b3 34bb 8498 0f3d ae0e 8f3d 2d82 1a3c
00000060: 75ac 493d bd8a 733d 79e8 6c3d 0558 3e3d
00000070: b309 053d b5a2 903a a490 113c 8e8f 603d
00000080: 2fc3 863c fc02 bc3d b9ef 2d3d bd2e d0bb
00000090: 17bd 4b3d fcca 943b 762c 2b3c 30a9 0e3d
000000a0: 733d 1e3d 80d1 a03c be97 4e3d 7199 223d
000000b0: aeba 12bd 1381 953a e971 ddbc 6d5f 0a3d
000000c0: 5902 4f3d ce7f a33d b1b1 19bd a9f3 f63c
000000d0: 5685 583d fef8 3e3c d6f7 733d 7f38 613c
000000e0: feb9 023d fa3f 8c3d ab1c 533d 1613 a93d
000000f0: 4c4a 9abc 19ea 233c 2fe3 393d 57a8 ad3c
00000100: 71cf 283c e715 523d cfa9 f5b9 2703 293d
00000110: 3a3d 74bc be02 803c 0378 3d3d 6213 aabc
00000120: e213 333d c742 e83a bd36 973c 6f53 b2ba
00000130: 8977 c33d 702d 633d 1339 883b 0129 b7bc
00000140: 9ee9 84bc 115a 483d d4e3 953d 0703 583d
00000150: dd2c d13c f124 0c3d 5698 303d d1be 4cbc
00000160: 4e0b 453d cf39 673d d444 67bc 9b02 6d3c
00000170: 513d 0bbd 7a98 bbbc a051 b53d 8e79 353d
00000180: 6b5c 853c 6217 893d ae30 7b3d d2eb 403d
00000190: 81af 353d 1a52 babc 6bfd 453d c28a 4a3d
000001a0: d6e4 ed3c c837 6a3d a1f7 1a3d 7e98 b73c
000001b0: 928b 8a3c 7cf2 91bc a737 7aba 8831 553d
000001c0: c705 203d f22d 423d 40e8 c3bc 8e68 bb3c
000001d0: 284d 1d3d c482 093d 39ed 723c 79e5 b73c
000001e0: fbae 463d b52d 773d 5003 9b3c 5932 b5bb
000001f0: 8a70 a73c 6606 9d3d a786 2d3d 69ac 0e3d
0.05647603 0.013103687 0.029304342 -0.000602388 0.033106122 0.06461532 0.04161651 0.01632195
-0.04839968 -0.009782822 -0.011281256 0.031708714 0.022278676 -0.027012395 0.012401793 0.09564893
-0.012686282 -0.0063502244 0.03845571 0.015564461 -0.0027572645 0.03505756 0.06985222 0.00943045
0.049236733 0.059458483 0.05783889 0.04647066 0.032479953 0.0011034819 0.008884583 0.054824404
0.016450493 0.09180257 0.042464945 -0.006353228 0.049740877 0.004540799 0.010447612 0.03482932
0.03863282 0.019631147 0.05043768 0.039697114 -0.035822563 0.0011406265 -0.027031856 0.03378241
0.05053935 0.07983361 -0.037522975 0.030145483 0.052861534 0.011656044 0.059562527 0.01374638
0.031915657 0.0684814 0.05154101 0.082555935 -0.018834256 0.010004544 0.045382675 0.021198435
0.010303364 0.05129042 -0.0004685656 0.041262772 -0.014907176 0.015626308 0.04625703 -0.020761196
0.043720134 0.0017720097 0.018458718 -0.0013605187 0.09544284 0.055463254 0.0041571944 -0.02235842
-0.016224679 0.04891402 0.073188454 0.052737262 0.025534088 0.034214918 0.04311403 -0.012496666
0.048106484 0.056451615 -0.014115531 0.014465953 -0.033994023 -0.022899855 0.08853459 0.044305377
0.01627942 0.06693913 0.06132572 0.047099896 0.044356827 -0.022744227 0.04833738 0.049448736
0.029039782 0.057182103 0.037833814 0.022411581 0.016912255 -0.01781582 -0.0009545036 0.05204919
0.03906801 0.047407098 -0.023914456 0.022877004 0.03840366 0.033571973 0.014827066 0.022448288
0.048506718 0.060346324 0.018922478 -0.0055296835 0.020439405 0.07667236 0.042364743 0.034832392

network_body._body_endoder.seq_layers.2.weight f4 [128, 128]
00000000: 52a4 873c a18c ccbd c8d3 cdbc 9a38 bc3d
00000010: 422c 90ba 6143 36be ef16 453d 816f 37bd
00000020: 25f7 aa3c 689c f4bc 291c b53d 883c d5bd
00000030: 0b53 1e3d d01b fabc ff1f 81bc ee52 933d
00000040: 1f91 7d3c a898 dfbd 446f 013e e2dc 6cbd
00000050: 834c 193e b8b9 6c3d 53e4 16be b928 78be
00000060: 6241 113e 8d82 2dbe c99e 8abd 557a 44be
00000070: 2535 ba3d 7123 9cbc 4450 54bd 9a9e 76bd
00000080: b70a 87b9 fb86 48bd 0746 babd cdb6 2dbd
00000090: d799 9bbd e34d 023d 2793 cabd 6691 4b3b
000000a0: 9262 ebbd cf6f 9f3a be47 95bc 5433 3a3e
000000b0: cddb 213e f0ad 053d 6706 8e3d 760b 28be
000000c0: 91ce d93b 2faf b83d 0209 a8bd 376b d2bd
000000d0: 8312 9d3c b792 443c fc4a 64bd 2790 65bd
000000e0: 12ab 183c e542 1f3c eeba 0b3d 48ee 2a3c
000000f0: dcf3 d6bc 6e08 603d 31f6 7b3d 7f2c 783d
00000100: 552d 973d 9eab a4bd 487b d2bd 1e74 9bbd
00000110: 5493 87bd fe66 b6bc 0ce9 1b3e 3612 a83d
00000120: 1303 3f3e 1f37 0c3e 478a abbd 991b 7a3d
00000130: f9cb d43c ca4b 213d 71d8 e0bd 4f35 1a3d
00000140: 3d2a 2abd fa01 f1bd 2615 20bd b88a 1b3e
00000150: 888f 94bc 932c 413e 6e7c c2bc b3ea ad3d
00000160: 799d 8bbd 4d70 1b3e e625 c4bd 4532 17be
00000170: f4b0 663e 1c24 653d 6e90 5dbb 3a19 dc3d
00000180: b4db b0bc 34de b63c ad67 5fbd 7e00 043d
00000190: b848 b4bd ffb7 843c d586 163e ce69 903d
000001a0: 7b07 19bb ae36 a5bb 61ad 3a3b dc43 f7bc
000001b0: 37a3 cd3d 452d 413d 8711 bd3d 2d12 833c
000001c0: 0844 ad3d 156d 14be 8c6b e7bc 803b d8bd
000001d0: ffa2 d9bd adbe f93c d786 9d3d 4594 373e
000001e0: 74b8 2cbd 35f2 b53c 2c49 1d3e 57e3 603c
000001f0: 0fe1 1bbe 5411 d63c c666 c13a af1b a63c
00000200: 80d9 3a3b 3e1a 803d 1c93 0fbd ea6d 1abe
00000210: 509b 19be f696 ad3d 0753 68bd 5c5d 52bd
00000220: beb3 793d 03b5 68bd bda1 b53d a39d 0e3e
00000230: 954e 2b3c dd2d 1d3d 26b9 adbc bc7b b43d
00000240: 6458 b0bd 623f 093d d957 9d3d 0d1a ecbc
00000250: a79d 25bd fe14 64be c52f d73d 30a3 87bd
00000260: 1f86 a03d 2057 3c3e 4fcd cf3c 190e 8a3e
00000270: b47a 883d e2d4 9ebc 2feb 4e3d 6fa9 103e
00000280: 2ce8 9d3c 2a72 df3c ac4d 0abe 56eb 20bd
00000290: 83f1 81bd 4818 08be 7540 0b3d d8e7 943d
000002a0: 0a35 123e 96a0 b3bd 2c0e 8bbb f7df 943d
000002b0: 7d14 e3bd d44f cbbd 7e64 9a3d 29fb e03c
000002c0: 0f86 c83d bc94 3d3d 61b4 b5bd 93af dc3c
000002d0: bcf6 fa3d ba4e 7bbd d6d7 043e c6fc 3fbd
000002e0: f1c1 8c3d 9289 5abd 4202 803d 06f7 c2ba
000002f0: fc5f 8abe c001 0a3e c6c6 92bd 7597 09bd
00000300: 9de0 993d e1c4 0a3d f93a bd3d 30bd 8f3d
00000310: 2b57 e1bd be9c 85bd 65fb 283e 3d59 76be
00000320: 256b 5bbd 25cf 673d c93d b03d d800 83bc
00000330: c6e5 40be 859f 0dbb 5041 ae3c 7ab8 58bd
00000340: d99a 03be dc06 1f3b 8cbf 783d e0fb cb3d
00000350: 8cf5 ddbc 57f4 163c bd5b f23d aafa 0d3d
00000360: 6a2a 01be 77bc d0bd 03c9 15be 05d6 6b3d
00000370: 79f7 f5bd 43a1 af3d bb2b 53bc 196c 42bd
00000380: 1bc0 e6bb 8d58 4fbe 33b0 253e e4a6 f1bd
00000390: 21fa 243d cf86 b9bd 5347 1a3d c31f 433c
000003a0: 9a47 9c3e 5c4d abbd 46a5 55bc 7753 04be
000003b0: 3d94 383d 631a 4bbe 0258 e5bc af8c f23d
000003c0: 449c 22be 80f7 913c 9609 cfbd e017 523a
000003d0: e5fd 133d 29a6 2d3d c257 3b3c 5b71 d83d
000003e0: 430b 663d 73ee 963e 0196 f33c 5c3d ebbd
000003f0: 70b6 70bb c137 ddbd ee21 a1bd 76db 2b3e
0.016557846 -0.0998776 -0.0251254 0.091904834 -0.0010999518 -0.1779914 0.048117574 -0.044784073
0.0208698 -0.029859737 0.08843262 -0.10411936 0.038653415 -0.03053084 -0.015762327 0.07193552
0.015476494 -0.10917789 0.126401 -0.057827838 0.14970593 0.057794303 -0.14735536 -0.24234284
0.14185098 -0.16944332 -0.06768567 -0.19187291 0.09092168 -0.019059869 -0.05183436 -0.060209848
-0.0002575719 -0.048956852 -0.09095388 -0.04241066 -0.07597702 0.03181256 -0.09891348 0.0031062006
-0.1149341 0.0012164059 -0.018222686 0.18183643 0.15806504 0.032636583 0.06934815 -0.16410622
0.006646939 0.090177886 -0.08204843 -0.10274356 0.019173866 0.01199787 -0.055735573 -0.056045678
0.00931813 0.009720539 0.034113817 0.010432787 -0.026239328 0.05469554 0.061514083 0.06058931
0.07381693 -0.08040546 -0.1027742 -0.07590507 -0.066198975 -0.022265907 0.15225619 0.082065985
0.18653516 0.13692902 -0.08375984 0.061061475 0.025976168 0.03937892 -0.10978783 0.037648495
-0.041544188 -0.11767955 -0.03908267 0.15189636 -0.018134847 0.1886466 -0.023740973 0.08492031
-0.06817145 0.15179558 -0.09577541 -0.1476527 0.2252844 0.05594264 -0.003380801 0.10746999
-0.021589138 0.022322752 -0.054542232 0.032227032 -0.088029325 0.016201017 0.14699872 0.07051431
-0.0023350406 -0.0050419187 0.002848469 -0.030183725 0.100408964 0.047162313 0.09231859 0.015999878
0.084602416 -0.14494736 -0.028249525 -0.10558224 -0.10626792 0.03048643 0.07691734 0.17927654
-0.042168096 0.02221022 0.15359944 0.013726077 -0.15222572 0.02613131 0.001475536 0.020276872
0.0028510988 0.06255005 -0.035052404 -0.15080991 -0.15000653 0.08476059 -0.056719806 -0.051358566
0.06096243 -0.05681325 0.0886874 0.13927321 0.010455747 0.038373817 -0.02120645 0.08812663
-0.08610609 0.033507712 0.07682771 -0.028821016 -0.040433552 -0.22273633 0.10507158 -0.066229224
0.078380816 0.1839261 0.025366453 0.2696388 0.06664029 -0.01938862 0.050517257 0.14127134
0.019275747 0.027276117 -0.13506192 -0.039286934 -0.06344893 -0.13290513 0.033997018 0.07270783
0.14278045 -0.08770864 -0.004243633 0.072692804 -0.11087892 -0.099273354 0.075386986 0.027463512
0.09791195 0.046284422 -0.08872295 0.026939189 0.12254092 -0.061354376 0.1297296 -0.046871923
0.06872929 -0.053353854 0.06250431 -0.0014874644 -0.27026355 0.1347723 -0.07166819 -0.033591706
0.07513545 0.033879165 0.09239764 0.070185065 -0.11002954 -0.06524037 0.1650215 -0.24057479
-0.053568978 0.056594033 0.086055346 -0.015991613 -0.18837652 -0.0021609974 0.021271378 -0.052910306
-0.12852038 0.0024265563 0.06072955 0.09960151 -0.027094625 0.009213529 0.11833904 0.03466288
-0.12613836 -0.10192197 -0.14627461 0.05757715 -0.12010092 0.0857568 -0.012888844 -0.04746637
-0.0070419437 -0.20248623 0.16180496 -0.1179941 0.040277604 -0.09058916 0.037665676 0.011909428
0.30523378 -0.083643645 -0.013039893 -0.12922464 0.045063246 -0.19834284 -0.027996067 0.118432395
-0.15879923 0.017818213 -0.1010925 0.0008014422 0.036130805 0.04239479 0.011434497 0.10568496
0.056163084 0.29478797 0.029734613 -0.11486313 -0.0036729835 -0.1080165 -0.078678 0.16782936

network_body._body_endoder.seq_layers.2.bias f4 [128]
00000000: acec 94ba 83a3 283d dc1e 71bc faaa 9e3c
00000010: a156 803c c747 993c 027c 87bc 1175 413d
00000020: 6006 c5bb 4389 dd3c 62b2 053d b837 d93c
00000030: a724 003d 21c2 f33c 07af c33c 1f36 0a3d
00000040: 1ce7 fc3a c656 b53c 5d6e 143d c377 4b3d
00000050: 5b5e 31bb feaf b43c f12d 43bb 69ee a33c
00000060: cd6e 24bc ebd9 083d 0424 973b 6c5d 25ba
00000070: 9ce1 bb3c fbea 053d e84b d2bc 9066 173d
00000080: 9ad7 94bc 2bdd 2ebb c62b 073d 1f13 1d3c
00000090: 7985 f93c 990b 0dbc 357b f43c 19b6 29bc
000000a0: 71a6 d5bc cc23 cd3c a0b5 d73c 16fa eb3b
000000b0: e563 553c 93f7 543d db83 1bbb 6ba8 e93c
000000c0: c090 a03c cb73 6d3c 7379 14bd fbfe 1a3d
000000d0: 2e84 3d3c 8be6 073c 413e 903b ce53 9d3c
000000e0: 4296 533d 4253 ec3c 1526 ee3c 82b6 b93c
000000f0: cd6f cbbc 139e d4bb d23e 43bc 63d6 cd3c
00000100: 14e5 2dbb 442e 143d 6ea5 e03c 0998 cf3c
00000110: 06c3 7a3c 8813 8d3d 5070 2c3d c512 ee3c
00000120: bfcc d33b e05f 8d3c 44d0 8dbc 5517 54bc
00000130: a5c8 72bb cdb0 193d db21 db3b e421 df3c
00000140: 9838 903c 2fc7 773c 34eb f93c b21a 763c
00000150: 6e4d 12bb 8304 233d 2df8 1f3d 0e5f 7a3c
00000160: c746 b7bc c1f8 093d e109 73bc 2896 db3c
00000170: a20e 0b3d 5579 723c 6a95 e03c 1bb7 ed3b
00000180: ad58 b6bb 94ea 1fbc ca2a 933c 1539 c33c
00000190: 9569 c63c c0c5 563b 2a9a babc 2fa4 123d
000001a0: 7290 453c c06e 603c 040c 93bc b62e 803c
000001b0: 42f5 303d ebe2 123d 756c 803c 3b4c d2bb
000001c0: 576b 6a3c a997 a63c ec85 a43c 66fa 373d
000001d0: 029e 6c3b c8ec c53c ea04 9c3b f99e d73c
000001e0: ab7a 3d3c 9e61 b7bc 7d21 4bbc 999a 563b
000001f0: 3683 393c f4da 63bc d3b2 f9bc 4ead bf3c
-0.0011362038 0.041171562 -0.01471683 0.019368637 0.015666308 0.018710984 -0.016538624 0.047230784
-0.006012723 0.02704299 0.032640822 0.026515827 0.031284954 0.029755654 0.02388717 0.03374302
0.001929495 0.022136103 0.036238063 0.04967476 -0.0027064297 0.022056576 -0.0029782022 0.020011144
-0.010036183 0.033410948 0.0046124477 -0.00063081714 0.022934727 0.032694798 -0.02567096 0.036963046
-0.018169213 -0.002668212 0.03300073 0.009587078 0.030459153 -0.008608722 0.029843906 -0.010358357
-0.026080342 0.025041483 0.026331723 0.0072014434 0.013024305 0.051993918 -0.0023729715 0.02852269
0.019600272 0.014492939 -0.036248636 0.037840825 0.011567159 0.008294712 0.0044019525 0.019205
0.05165697 0.028848294 0.029070893 0.022670034 -0.024833584 -0.0064885705 -0.011916833 0.025126642
-0.0026534246 0.036176935 0.027422633 0.02534105 0.015305286 0.06888491 0.042099297 0.029061684
0.0064636166 0.01725763 -0.017311223 -0.012945016 -0.0037045863 0.037522126 0.0066873855 0.02723784
0.017605111 0.015123173 0.030507661 0.015021013 -0.0022323984 0.039799225 0.03905504 0.015281452
-0.022372616 0.033684496 -0.014833898 0.026804999 0.0339495 0.014799436 0.027414996 0.007254494
-0.00556477 -0.009760518 0.01796474 0.02383093 0.024220267 0.0032771677 -0.02277859 0.03580111
0.012058364 0.01369828 -0.017950065 0.015647274 0.043202646 0.035860937 0.015676716 -0.006417779
0.014307818 0.02033599 0.02008339 0.044916533 0.0036104922 0.024160758 0.004761328 0.026320921
0.011564891 -0.022385415 -0.012398121 0.0032745956 0.011322787 -0.013907183 -0.030480778 0.023398068

action_model._discrete_distribution.branches.0.weight f4 [3, 128]
00000000: 05ef 103d 7837 27bd de58 193c 6097 52bd
00000010: fc87 e33c b7e4 5f3b d348 0a3c eabf 0c3d
00000020: 4513 55bb 1fc2 413c df4d a9bc fbe6 8bbc
00000030: bbf5 d73c c038 633d 7c95 c5bc 077e 58bd
00000040: 001c 073d 54b4 23bc 9117 80bc 4bf2 433d
00000050: 8d4b 4a3d 2d78 fabc a3c7 d9bc 6684 0fbd
00000060: 4440 3f3c 8656 31bd ed1e 4e3b 2327 893d
00000070: 9f0f 6f39 8433 46bd 6759 003b 6254 f7bb
00000080: c85b d13b 6592 dc3c 4d45 803b 982d 913c
00000090: 4c64 dabc d0a8 7d3c 704a debc 4242 253d
000000a0: fe45 1a3d 2a8e 02bd 52fc 34bd 4ca2 4e3c
000000b0: 7d85 ecbc 3696 9bbc c426 173d 447d 943c
000000c0: abf2 1abc 2b1c 8b3b 81ee cb3c 2bcb d4bc
000000d0: 2b64 37bc 3691 04bd 3030 1d3d 72d5 f53c
000000e0: f097 20bd e23d 47bc 43f0 33bd 126f aa3b
000000f0: f8c1 35bc 1ad1 7f3c b718 b93c bcbd 06bd
00000100: 7b06 1b3d b674 e53c c243 1d3b 50c9 6f3b
00000110: 1de5 d83b 3efb 22bc 4a49 93bc 58ba 8cbc
00000120: 397f 8b3c 3dd6 993c 8424 5a3c c198 86bb
00000130: f94b d23c 7223 92bc e48f 003d 9c6e 17bd
00000140: 7087 a1bc 4d24 883c 57b8 fbbc ccb2 ddbc
00000150: 662e 403c 5ad0 d7bc 47d0 553d 633d c93c
00000160: 4ef1 0f3c acb6 d9bc 0ecb 2f3d 4059 c7bb
00000170: 92aa b43b ed57 18bc 79f9 f4bc 4760 413c
00000180: bec7 9c3c c5be a83c 6c3d b6bc 56e6 8ebc
00000190: f96a f2bc 8756 633c 154e b03c 68a3 613c
000001a0: 9f85 263d 0563 ef3c c037 343d ec6f 7cb8
000001b0: c91c 9bbc 85e6 bcbc 7abf 963c 869e fa3c
000001c0: 7f6c c5bc 475b 43bc 1f13 13bd 3e59 41bd
000001d0: 4499 923c bbbe 1dbc ef37 bd3b b18f 67bb
000001e0: 7631 a53b 0c44 c73c f269 523d cb55 1bba
000001f0: c2ec cb3c fc62 003d 2376 173d c87c 13bd
00000200: 9a92 bbbc 9706 6d3d f33a 23bd d477 b43c
00000210: 2276 07bd bbcf ce3c bbdd 7fbc a322 703d
00000220: 4181 a53c 205f 4dbd 476c 57bc 861f 95b8
00000230: 5983 45bd 2b34 26bd 7f6a 24bc 38ba eb3c
00000240: 20b2 c8bc 05e1 973c 91c2 c63a b791 36bd
00000250: c233 32bd 5f49 953c 154f c5b9 bd0e b73b
00000260: 188e 8ebc c6f7 d43b 009b 033d 11f1 a8bd
00000270: dab0 2e3d cc9e b43c ab7b c2bc da6a 273d
00000280: 4025 903c b9d5 b5bc d806 f53c ac3c 4dbd
00000290: ab2f 283d 6f76 1fbc 030d 093c b6fa 1ebd
000002a0: b607 6abd 042f 053d 974f e13c dbbd 31bc
000002b0: 4b5d 203d a7bf 88bc c567 3ebd a524 b4b9
000002c0: 9bd1 b43c 8fd7 113d 3a3a 2dbd df8c 633d
000002d0: c6c4 7f3d 96cb 833c 0310 30bc d190 f4bb
000002e0: bb16 753d ac4d 2c3d 4019 043d a412 d53b
000002f0: 6598 b9bc b485 3fbd 892b 2abd 0add c23c
00000300: e565 f2bc 6b8d 8c3d a1a2 82bd 00c7 49bd
00000310: 19db 7ebd 3e94 bd3c 607b e83c 7291 683b
00000320: d5ed 52bc 9a97 b93c c804 713c cf07 fabb
00000330: ebd1 bbbc 32a6 f43b 80fe 9abd 1421 c23c
00000340: 031a a7bc 3866 64bc 4823 17bc 872c 153c
00000350: 5289 cbbc a109 8cbc be38 29bc 09d0 1bbc
00000360: 1d45 ad3a 8afb 2f3c e58d 1abd 7234 f5bc
00000370: 12c8 0cbc 710e 8dbc 6ec0 a93a b655 53ba
00000380: 9029 c3bc cb29 08bd 91ad d8bc 6fee 7f3d
00000390: 9c62 b4bb 6f40 d23c 664b a8bc 87b3 0abd
000003a0: 382e 25bd 5f08 a33c a3fb 2bbd fb80 043d
000003b0: 9792 81bb 7c71 823d 7c4e 6fbd a789 a5bd
000003c0: 8c6d 613d 946d d8bb ade6 2b3d 7551 5c3d
000003d0: f3a5 b1bb b86c 713d 165d 6dbd 94b2 6c3d
000003e0: 6f55 1a3c 769b e7bc 0509 fabc af1b 90bd
000003f0: 0a0c 49bd cc9f 4bbd 43cd 87bd 8c7d 923c
0.035384197 -0.040824383 0.0093595665 -0.051413894 0.027774803 0.0034163424 0.008440214 0.03436271
-0.0032512706 0.011826067 -0.020667015 -0.017077914 0.02636229 0.055474043 -0.024119131 -0.052854564
0.032985687 -0.009991724 -0.015636237 0.04783849 0.049388457 -0.030574882 -0.026584452 -0.035038374
0.011673037 -0.043295406 0.0031451539 0.06696918 0.00022798635 -0.048388973 0.0019584538 -0.007547901
0.006389115 0.026925275 0.0039145113 0.017721936 -0.026659153 0.015482143 -0.027135104 0.04034639
0.037664406 -0.03187386 -0.044185944 0.012611937 -0.028872246 -0.018992525 0.036902204 0.018126138
-0.009457271 0.0042453012 0.024894001 -0.025975784 -0.0111933155 -0.032365046 0.038376033 0.030009005
-0.0392074 -0.01216075 -0.043930303 0.005201229 -0.011093609 0.015613819 0.022594793 -0.03289579
0.037847977 0.028009754 0.0023996686 0.0036588497 0.0066191093 -0.009947596 -0.017979283 -0.0171787
0.017028438 0.018778915 0.01331437 -0.004107565 0.025670992 -0.017839167 0.031387225 -0.03697072
-0.019717902 0.016618872 -0.030727549 -0.027062796 0.011729812 -0.026344467 0.052200582 0.024565404
0.008785559 -0.026576363 0.042918257 -0.0060836375 0.0055134976 -0.009298307 -0.029904114 0.011802739
0.019138213 0.020598779 -0.022246085 -0.017443817 -0.029592024 0.01387561 0.021521607 0.013771869
0.040654775 0.02922202 0.04399848 -6.0185717e-05 -0.018934624 -0.023059139 0.01840185 0.030593168
-0.024099587 -0.011923618 -0.035906907 -0.04720425 0.017895348 -0.009627993 0.00577449 -0.003533345
0.0050412966 0.02432444 0.05137057 -0.0005925565 0.024893168 0.0313444 0.0369779 -0.036007673
-0.022897054 0.057867613 -0.03985114 0.022029795 -0.033071645 0.025245538 -0.0156168295 0.058626782
0.020203235 -0.050139546 -0.013148374 -7.110745e-05 -0.048220966 -0.040577095 -0.010035156 0.02877532
-0.024499 0.018539915 0.0015164186 -0.04457256 -0.04350639 0.018223463 -0.0003763369 0.0055864737
-0.01740174 0.0064992635 0.03213024 -0.08249105 0.042649128 0.022048377 -0.02374061 0.040873386
0.017595887 -0.022196637 0.02991049 -0.05010669 0.041061085 -0.009732827 0.008364919 -0.038813315
-0.05713626 0.03251554 0.027503772 -0.010848488 0.03915147 -0.01669295 -0.04648568 -0.00034359578
0.022072604 0.035605963 -0.042291857 0.055554267 0.062443517 0.016088288 -0.010746005 -0.0074635525
0.05983613 0.04206626 0.032250643 0.0065024663 -0.022655675 -0.04675837 -0.041545425 0.02378704
-0.029589603 0.06862911 -0.06378675 -0.049262047 -0.062220667 0.023141976 0.028379142 0.0035487083
-0.012874086 0.022655297 0.014710613 -0.0076303254 -0.022927245 0.007466101 -0.07568073 0.023697414
-0.020398146 -0.0139403865 -0.00922472 0.009104854 -0.024845753 -0.017094435 -0.01032847 -0.009510049
0.001321945 0.010741124 -0.037732977 -0.029932234 -0.008592622 -0.0172188 0.0012951025 -0.0008061783
-0.02382353 -0.033242982 -0.02644995 0.062483247 -0.005504919 0.02566549 -0.020543765 -0.033862617
-0.04032728 0.019901453 -0.041988026 0.032349568 -0.0039542424 0.06369302 -0.058424458 -0.08082896
0.055036113 -0.0066048596 0.041968036 0.05378862 -0.005421394 0.058941573 -0.0579501 0.057787493
0.009419783 -0.028272372 -0.030521879 -0.0703653 -0.049083747 -0.04971294 -0.066309474 0.017882131

action_model._discrete_distribution.branches.0.bias f4 [3]
00000000: 4eeb 84bc 0889 fa3c c1d7 0bbd
-0.016225483 0.03058292 -0.034141306

action_model._discrete_distribution.branches.1.weight f4 [3, 128]
00000000: 8429 e2bc 9518 c73c a398 c6bc 4f03 063d
00000010: 4ed4 debc 37e8 2ebd 3d4a 87bc 1924 cebc
00000020: 0a89 5abd 0aab 713c dd48 6b3d f6b2 a1bb
00000030: df83 893c f13a 913c deae 1b3d 0a4b 3b3d
00000040: 412c 5abd a1ac fb3c c18b 4b3d ab98 613c
00000050: ebab 92bc aae2 5e3c 8768 ab3c af22 c23c
00000060: 66cb 0ebd 1130 0f3d 8332 70bd e99d fe39
00000070: 00cf 9d3c 868b 223c a434 0bbd 4b5d 72bb
00000080: 391f 6ebd 3ede 25bc a36f e73c f8fd 8dbc
00000090: 40ea e33c 37a5 33bd 3e3e 353d 2fbe 08bd
000000a0: 0de8 a93b c199 cb3b 83de dd3c 4559 4dbd
000000b0: c4f5 20bd b636 543d 16b4 683b 0115 99bc
000000c0: fc30 c23c f389 82bd 446e bbbc 9aa1 9a3c
000000d0: 7149 54bd 8c12 ba3b 5002 b2bc 0949 01bd
000000e0: 1ab0 56bd d279 ad3c 9b86 e53c 21a2 35bd
000000f0: 1070 48bc 2ed7 3ebc 90d0 f8bc 37ee 4a3c
00000100: 9e95 11bd f4c4 1cbc a887 f93c 0f9a b73c
00000110: 491b 8b3c d9b5 2cbd d21c f1bc bae2 743d
00000120: db8a 04bd c569 a23c 57d1 4abd 24b6 f7bc
00000130: 3f5b d6bc efa8 443d 857c 903b c4a6 bf3c
00000140: 491d 4a3d 7b8f 79bd 0ac3 e73c 5753 093d
00000150: 41b6 71bc e3db 473d 4734 df3c 9851 2ebd
00000160: 743e 29bd a7cb 05bc add5 d2bc 7f86 393d
00000170: 0ce4 e73c 694c 043d f12a 4a3d 32e2 8bbd
00000180: 5322 c0bc 6d68 7bbc 73a6 043d f4ee 08bd
00000190: f185 1d3d 5429 edbc 73d0 33bd 45d2 a73c
000001a0: 9074 6abc c522 44bd 4754 98ba efb0 2fbd
000001b0: 922a 3d3d c7e2 febc 8d2a 723a 23a9 b13c
000001c0: 0017 b8bc 34ec 3f3d 3f98 4cbd 7f9b a9bb
000001d0: 554f 45bd a81e 42bc 0857 b9bb b453 61ba
000001e0: fa58 8cbc 36ac f6bc 56af febb 0dc2 eeb8
000001f0: c621 8ab6 80ea a0bc ad40 043d 09f3 5d3c
00000200: 6647 953d bd92 a53c ac48 42ba 2d86 25bd
00000210: 0df8 123e 5f7d 3bbd 11df de3c d227 263d
00000220: 56d0 003b cf41 b4bc 35b6 8bba 7e2c 6fbb
00000230: 91ac dd3a 6c8c c7bc 2482 5cbd e0c5 61bd
00000240: 0a44 cb3c 3bf0 06bd 8569 0d3c 2d21 babc
00000250: 1146 303d 218c c5bb 68f6 84bc 7f66 39bc
00000260: 9a0c 553d 6712 93bb 64c6 9d3c e0ca e33d
00000270: ef53 ddbc 2cf6 93bc 2bda 9bbc 1b75 96bd
00000280: bdde 75bb a805 47bd 94bd 063c 9e12 2fbd
00000290: fa08 d7bc 3887 26bc 1171 9dbc 890d 3d3d
000002a0: dd8e 16bc 05c0 473b 31f2 3fbd 582c c43d
000002b0: 478e 553c eab2 063d 34d6 dabc 5659 73bd
000002c0: cd99 6e38 a1b1 b23d 63a3 6d3c 3aa3 23bd
000002d0: 6d5e 22bd 9850 edbc 2f1d a53d 2dd1 a33c
000002e0: 3356 cabb f8f6 82bd 7472 bbbc 451c 3ebd
000002f0: 6429 613c 03e6 a43c b4f9 bbbc f8f5 da3b
00000300: 6964 303d 1155 893c 27a0 41bc 6f5d 41bd
00000310: 6d26 07bd da1f 46bd ea59 d7bc b7ad c5bc
00000320: d0dc 0d3c fff3 d0bb e8be 8cbc 2e56 f33c
00000330: ba03 603d a299 d9bc 3882 7cbc 39db 71bd
00000340: 4b96 41bd 0097 d4bc c56f 9a3c f44c a4bc
00000350: ecd4 533d 923a 48bb afbe fc3b de96 41bd
00000360: e9a9 0c3c 135e 76bd 82c8 8d3c d715 a2bb
00000370: e4ec 153d 820c 1fbd 5dfd e7bc 6b72 4e3d
00000380: 194c c7bb 089c d73c 0362 d1bc f379 113d
00000390: f7d9 a2bc 3d44 593c 6fb9 0a3d c383 3b3b
000003a0: 6a70 833c a4cb d93d 321c 733d 3617 89b9
000003b0: 58f2 93bb 5268 903c 470e a9bd 9e74 543c
000003c0: f366 083d 9869 69bd aa1b 83bc ec98 9bbc
000003d0: c709 dd3d 60c9 7f3c e683 d4bc 61b4 debc
000003e0: 6ad3 563d ce15 313c 7198 dbbb 72c8 193c
000003f0: 66a5 ffbb 20f0 99ba 8b0b 043d 6e06 ebbc
-0.027607687 0.024303714 -0.024242705 0.032718 -0.027200844 -0.042701926 -0.016514892 -0.025163697
-0.053353347 0.014750252 0.057442535 -0.004934664 0.016786514 0.0177283 0.038008563 0.04572586
-0.05326486 0.030721964 0.049693827 0.013769309 -0.017904243 0.013603846 0.020923866 0.023698179
-0.034861945 0.03495795 -0.05864192 0.00048564308 0.019263744 0.00992096 -0.03398575 -0.0036981876
-0.058135245 -0.010123787 0.028251475 -0.017333016 0.02782166 -0.043858733 0.044248812 -0.0333845
0.0051851333 0.0062133973 0.02708364 -0.050133962 -0.03929688 0.05180999 0.003550773 -0.018686773
0.023704998 -0.06373968 -0.022879727 0.018875886 -0.05182785 0.0056784805 -0.021729618 -0.031563792
-0.052414037 0.021176253 0.028018286 -0.04434407 -0.012233749 -0.0116479825 -0.030372888 0.012385896
-0.035543077 -0.009568442 0.030460194 0.022412328 0.016980784 -0.04216561 -0.029432688 0.059786536
-0.032358985 0.019825825 -0.04951605 -0.030238219 -0.026166556 0.04801267 0.004409375 0.02339495
0.049344335 -0.06092785 0.028291244 0.033526745 -0.014752925 0.048793685 0.027246607 -0.042558283
-0.041319326 -0.00816623 -0.025736654 0.04529428 0.028306983 0.032299433 0.04935736 -0.06830253
-0.023453867 -0.015344721 0.0323853 -0.03343101 0.038457815 -0.02895037 -0.043899965 0.020486007
-0.014310017 -0.04788472 -0.0011621796 -0.042893346 0.046183176 -0.031113995 0.0009237908 0.021687096
-0.022471905 0.04685612 -0.04994988 -0.0051760073 -0.04817136 -0.011848129 -0.005656127 -0.00085955416
-0.017132271 -0.030111413 -0.0077723665 -0.00011384869 -4.1166522e-06 -0.019643068 0.032288242 0.013546714
0.07289009 0.020211572 -0.00074113416 -0.040411163 0.14352436 -0.04577386 0.027205976 0.04056532
0.0019655428 -0.022004036 -0.001065916 -0.0036495025 0.0016912391 -0.02435895 -0.05383505 -0.05512035
0.024812717 -0.032943945 0.008631115 -0.022720898 0.04303557 -0.0060286676 -0.016230777 -0.011315941
0.05201397 -0.0044882777 0.01925964 0.1112268 -0.027017562 -0.01806172 -0.019024929 -0.07346555
-0.0037516796 -0.04858938 0.00822391 -0.042742364 -0.026249398 -0.010164075 -0.019218953 0.046155486
-0.009189335 0.0030479443 -0.04686183 0.095787704 0.01303441 0.03288547 -0.026713468 -0.05941137
5.688686e-05 0.08725286 0.014504286 -0.039950587 -0.039640833 -0.028969094 0.08062207 0.019997204
-0.0061748265 -0.06394762 -0.022881724 -0.04641368 0.013742778 0.02012921 -0.022946216 0.006682154
0.04306451 0.016764196 -0.011817968 -0.047208246 -0.03299563 -0.04837022 -0.026287992 -0.024130685
0.008658603 -0.006376743 -0.017180875 0.02970418 0.054691054 -0.026562516 -0.015411906 -0.059046958
-0.04726247 -0.025950909 0.018852124 -0.020056225 0.05171673 -0.0030552489 0.007713161 -0.04726302
0.008585432 -0.06014831 0.017307524 -0.004946451 0.03660287 -0.038830288 -0.028319055 0.050402086
-0.0060820696 0.026319519 -0.025559431 0.03551669 -0.019879324 0.013260898 0.03386825 0.0028612472
0.016044814 0.106345445 0.05935306 -0.0002614797 -0.0045149736 0.017627869 -0.08254676 0.012967257
0.033301305 -0.056985468 -0.016004402 -0.018993817 0.107928805 0.015611976 -0.0259418 -0.02718562
0.052447714 0.010808421 -0.006701522 0.009386169 -0.0078016995 -0.0011744536 0.03223757 -0.02868959

action_model._discrete_distribution.branches.1.bias f4 [3]
00000000: 306d ac3c f366 10bb 81b1 f6bc
0.021048158 -0.0022034019 -0.030113937

action_model._discrete_distribution.branches.2.weight f4 [2, 128]
00000000: 3968 7abc cc94 c23c ab23 e3bc c294 163d
00000010: 2b50 fdbc 047a 3d3c f037 c0bc 0f48 cdbc
00000020: 2c97 abbb 1c7a 9a3d 3301 e83b cb11 36bb
00000030: b49b a83d 3abd b03d 1da8 593d e764 f33c
00000040: 4f19 ccbc 5941 393d 0c34 853d cf4e f23d
00000050: 72b7 24bd 3fcb b33b f72b 183c 8958 803c
00000060: 525a 91bc fdd3 913c 5a85 0ebd 4c3d b33c
00000070: e2be 3f3d 89cc e63c 598f efbc f43d 503d
00000080: 1a22 79bc cd75 afbb 2b0e 1c3d 70e1 a73d
00000090: 4c4c 113d 9e74 e3bc 0d5b 0f3d f974 c9bc
000000a0: 87fc 2a3b 9526 593c 952f 383d 40b4 e1bc
000000b0: fef3 0cbd 9bd7 b73c ff20 e13c 5a84 57bb
000000c0: 55d6 1a3d 8519 15bd 6346 e6bc 8c4a 1f3d
000000d0: ffc8 ecbc 6576 853c 2994 7dbc 0cbc a3bc
000000e0: a4a0 2bbd b71d 483d 2bef e33c 2cee 8bbb
000000f0: 4f5f 34bd ebcf debb 0fdb 04bd a397 c73c
00000100: 0289 dbbc d23e 1bbd d7f7 873d 203f 8c3d
00000110: eac3 763d ff37 6bba 404a eebc 9e86 a13d
00000120: f02d b8bc 754a 043d fda8 14bd 7d08 0fbd
00000130: 820f 95bb 086d 7b3d 7c01 6b3d 0cd3 c33c
00000140: 7008 eb3c cccf 4ebc c30c 393c 5849 333c
00000150: 94f3 edbc eb88 393d bf1d 9a3d 9a84 b63d
00000160: d3cb 05bd 4f71 443b f2e2 05bd 31d9 1a3d
00000170: 64d4 843c 7489 4d3d 8964 3f3d 4d38 90bc
00000180: b49f a8bc c154 27bc 7b09 123d 7808 c1bc
00000190: 4d50 0a3d 5da3 0abd 4f36 bfbc c0d5 813d
000001a0: ffad b63c 1b43 09bc f83f 973b 442d 03bd
000001b0: 38e7 913c da05 cfbc 03fc 893d bfa4 413d
000001c0: 3010 5abd 23d9 a23c 0f7e fabc b721 923b
000001d0: 967b 3ebc 8cf2 27bd e850 4e3d da6e c03c
000001e0: 1e98 17bd 2262 e0bc 871d 273c f64e 273d
000001f0: e38a 363d 9b83 7b3b 426a 1f3d c867 ca3c
00000200: 9ab7 1e3b fcfd 18bd 81f1 463c 019f 16bc
00000210: b355 503d 9f72 03bc 382e df3c ce64 343d
00000220: cdaf c83b 3392 88bd 100a f9bc b230 9e3c
00000230: 9217 b6bd e274 d1bd e82c 96bd 8ef6 1cbd
00000240: 0c13 3b3c d2a0 6bbd 0032 5abd 486e e3bd
00000250: 4b36 193c cb18 9bbc 30c3 483b a230 cebb
00000260: e596 ce3c 542d acbc f870 043d 168e 99bc
00000270: a422 0dbd fa5f 86bc b19f 0d3d 55ab 06bd
00000280: 0825 d83c 35ce 603c d8cf 1dbd 3fae 75bd
00000290: 6d75 01bd 5380 c33c 6efd f9bc 2afa af3c
000002a0: e427 823c 0267 cbba 7545 d3bc 43b0 8e3c
000002b0: 31c6 233d 89ac 13bc 606f 14bd 64a3 f0bb
000002c0: e937 f9bc 773d f73c e544 963c 2615 0abd
000002d0: 61a8 203d 723f 7cbc b164 253d af77 b23c
000002e0: 42db 073d a149 43bd b3ce cbbc 87cc 5a3c
000002f0: 722f e43c a23c c83c f341 c63c 998e 80bc
00000300: ae12 0e3d 00b2 f43c a93f 8cbd ba02 92bd
00000310: 0a0e 33bd 1cce 273b 0956 033c fbfe 8dbd
00000320: 3af6 163d e0e3 12bd e5b1 df3c 2d24 f03c
00000330: b484 8c3c 6c4e 9fbd 8bd3 6fbd fefd 79bc
00000340: 05ed 39bd b3b9 8e3c 5f17 dfbc bf4c c9bc
00000350: d3c8 7c3c 6233 07bd e84a a0bd 0892 8ebd
00000360: 3c12 013d cd83 19bc 7f70 6f3c c651 36bd
00000370: 876c 3dbc 6e11 3abd d25a fdbc 5327 613c
00000380: f1ef da3c 90b5 da3c ae72 20bd 6ddc 743c
00000390: 1e87 e4bc ac04 eb3c b939 923c c154 70bd
000003a0: 4fe5 99bc 89d4 23bc 12a7 a8bb 0c29 013d
000003b0: f549 febc 8db1 e73c cf2b 94bd 20c6 64bd
000003c0: 5c2e 5d3d f804 52bd 912f e23c 3f9a a7bc
000003d0: f172 d13c f6c6 4b3d e875 45bd 545c 2cbd
000003e0: 9809 3f3d 5290 833c a783 d6bc 0ef7 5bbd
000003f0: c01a 8ebd 37a1 65bb 4303 2ebd 0962 29bc
-0.015283638 0.023752593 -0.027726969 0.03676296 -0.030922016 0.011564735 -0.023464173 -0.025058774
-0.005236527 0.07542822 0.007080221 -0.0027781602 0.08232823 0.08629842 0.05313884 0.0297112
-0.024914412 0.045228336 0.06504068 0.11831438 -0.04021401 0.0054868753 0.009287826 0.015667217
-0.017743263 0.01780128 -0.034795143 0.021879815 0.0468129 0.028173702 -0.029243158 0.050840333
-0.015205884 -0.005354619 0.03809945 0.08197296 0.035473153 -0.027765568 0.034998942 -0.02459191
0.002609046 0.013253828 0.044967253 -0.02755177 -0.034412377 0.022441676 0.027481554 -0.0032885284
0.03780206 -0.03640129 -0.028109735 0.038889453 -0.028904436 0.016291806 -0.015477219 -0.019987129
-0.041901246 0.048856463 0.027824005 -0.0042703357 -0.044036206 -0.006799688 -0.032435473 0.024364298
-0.026798729 -0.037901707 0.066390686 0.06847978 0.060245432 -0.00089728826 -0.02908814 0.07887004
-0.022482842 0.03229757 -0.036293972 -0.034920204 -0.004548968 0.061383277 0.057374462 0.023904346
0.028690547 -0.012622785 0.011294547 0.0109427795 -0.029046811 0.04529659 0.07525205 0.089120105
-0.032665085 0.0029974764 -0.032687135 0.037804786 0.016214557 0.050179914 0.046726737 -0.017604971
-0.020583965 -0.010213078 0.035653573 -0.023563609 0.033767987 -0.0338472 -0.023341326 0.06339598
0.022299765 -0.008377816 0.00461578 -0.03202559 0.017810449 -0.025271345 0.067375205 0.047276255
-0.053238094 0.01987893 -0.030577688 0.0044595855 -0.011626145 -0.041002795 0.050370127 0.023490358
-0.037010305 -0.027390543 0.010199911 0.040846787 0.044566046 0.0038378004 0.038919695 0.02470769
0.0024218322 -0.037351593 0.01214254 -0.009193183 0.05086298 -0.008022933 0.027243719 0.044041447
0.0061244727 -0.0666851 -0.030400306 0.01931033 -0.088912144 -0.10227372 -0.07332784 -0.03832107
0.011418115 -0.057526417 -0.05327034 -0.11105019 0.009351323 -0.01893272 0.003063392 -0.0062924186
0.025218436 -0.021017708 0.032334298 -0.01874451 -0.034456864 -0.016403187 0.03457612 -0.03287824
0.026384845 0.013721039 -0.038528293 -0.059980627 -0.031606127 0.0238649 -0.030516353 0.021481592
0.015888162 -0.001551837 -0.025789956 0.017418033 0.039983932 -0.009013304 -0.036239028 -0.0073436964
-0.030422168 0.030180676 0.018343398 -0.033711575 0.03922308 -0.015395986 0.04037923 0.021785585
0.033168085 -0.04767764 -0.024878835 0.013354427 0.027854655 0.024442974 0.024201369 -0.015692996
0.034685783 0.029870033 -0.0684808 -0.07129426 -0.04371456 0.0025605028 0.008016118 -0.06933399
0.036855914 -0.03586185 0.027306506 0.029314125 0.017153122 -0.0777863 -0.058551352 -0.01525831
-0.045392055 0.017422533 -0.027232824 -0.024572728 0.01542874 -0.033007987 -0.07826787 -0.06961447
0.03151153 -0.009369803 0.0146142235 -0.04451158 -0.0115615195 -0.04542678 -0.030927096 0.013742286
0.026725741 0.026697904 -0.039171867 0.014945132 -0.02789646 0.028688751 0.01784979 -0.058674578
-0.0187861 -0.009999403 -0.0051468695 0.031533286 -0.031041125 0.028282905 -0.07234918 -0.05585301
0.05399929 -0.05127427 0.027610572 -0.020459292 0.025567504 0.04975029 -0.048208147 -0.04208024
0.04664001 0.016060028 -0.026185824 -0.053702407 -0.06938696 -0.0035038718 -0.04248358 -0.010338315

action_model._discrete_distribution.branches.2.bias f4 [2]
00000000: b2a5 9f3c b1a5 9fbc
0.01948819 -0.019488188
