results/PressButton/IL-newRewards-test1/PressButtonAgent/PressButtonAgent-39991.pt (torch, 533134 bytes, 54 tensors)

discrete_act_size_vector f4 [1, 3]
00000000: 0000 4040 0000 4040 0000 0040
3.0 3.0 2.0

network_body._body_endoder.seq_layers.0.weight f4 [128, 6]
00000000: 9de6 62bd db9d abbe 1b53 abbe 2886 6ebd
00000010: fadb 853e 4ecd a1be 3356 213f ff4d 02bf
00000020: a705 373f 07fe 81be 2f68 fdbe abbd e43e
00000030: e6f1 5bbd 387a f8bd 8ced 01bf 59f3 0d3e
00000040: 1ec0 b1be b6a7 80bd 7686 d6be abaa 7c3e
00000050: 506d 0f3f eb36 1bbe 61a7 243f 673d 553f
00000060: b5b4 053e cc40 443e cbb9 ce3c 6704 9a3e
00000070: f5a1 143e 27d8 d83e 1d1e a23d a2d9 03bf
00000080: 84f8 773d 81b7 f43d de3e 003b 65b5 d63e
00000090: 93fb 083d 25ec c13d a68f 4f3f 1ae9 26bf
000000a0: a4ba 75be 9247 de3e 50e2 2cbf 0b39 ab3e
000000b0: 8239 003e 2ce3 6fbf 7bed 2d3e bfb1 84bf
000000c0: 3f44 d03e b1c8 d73e 2958 07bf c015 173f
000000d0: ce98 e53e 18c6 283f 6719 b43f 9f34 3d3f
000000e0: a653 60be f860 4e3e 70fb 98bf 6135 bcbd
000000f0: d852 853d dcfd 8abe e3a4 23bf 19f7 98bd
00000100: b899 a43e b10e e13d 7ab6 b8be 5301 173e
00000110: 393c 4ebf eb93 58be bf96 8ebe 4985 d73e
00000120: 0d83 27bf ecdb 4ebf 4fd0 7e3d f83c 86be
00000130: 5023 ac3e b9d3 f33e 6f71 843f cf92 e6bd
00000140: 71d2 ef3a e3a0 243f eb35 c9be a48a f5be
00000150: 03e1 e3be 0c14 fcbe b983 243f 2d6c ba3e
00000160: f689 f43d 1148 18bf b143 de3e 57af 5b3f
00000170: 3b33 0e3f 04b0 ef3d dec8 acbe 316a 083e
00000180: 8acf a3bf 63f3 00bf f871 9f3d 3737 80bd
00000190: 8a3d 81bd 84cf 073e aa9e 64bd 37cb c73e
000001a0: ac40 d1be 807e 78bd c636 46be c67b 6bbe
000001b0: 8111 49be 3cbf a03e 4e33 543e bac3 533d
000001c0: 1c3a 633e a905 35bf e7fb 1fbe 808d dbbd
000001d0: 6b94 363c ee83 693e d804 20bd 59a5 7e3e
000001e0: f3b7 8d3f 2b37 70be ab50 b2be bc6d 40be
000001f0: 0f5b b8bd abd1 ef3d d5f2 0dbf 414b ebbe
00000200: faeb 1dbf 79a5 0a3e 9c37 813e 0109 f2be
00000210: cf12 adbe d03d c8bd fcae 7abe 492f b1be
00000220: d162 9d3d 8f2d 2f3e 98c0 0dbe 8cf5 52be
00000230: f09c a6b9 4877 30be 83ba b5bf f88f 2e3e
00000240: 9bfc a73e 329f 603e d7e5 18bf d90e 7b3e
00000250: 889b 2d3e 3b1b acbb 246d 0cbf abe7 cabe
00000260: 1ac9 da3d 0eeb 19bf 1642 683e 7f2f 9fbe
00000270: 32f7 b03e 2001 bfbc d3c4 8dbe 0f7a 43be
00000280: 37e6 2c3f 7fe0 01bf 967a 46bf 1fc2 ae3e
00000290: 7b3f 47be 6abe 323f 8efc 123d 0f82 053f
000002a0: 6906 19bf ca75 42bf 5399 61be 9f94 c73e
000002b0: c569 ca3d 6472 343f 486b 57bf 4e2b 80bf
000002c0: 5a44 123e 6364 95bd 2d52 66bd 5ebf 7a3e
000002d0: ac21 8dbe e316 0dbd fc53 40bf b42c 86be
000002e0: 7226 1a3e 2d28 77bc c329 473f 9036 2fbe
000002f0: 5ecd 06bf c2e5 9ebf a01d 183f b277 133b
00000300: 6c08 dd3e 21b8 013f 5c06 1fbe 09a0 cabe
00000310: 127e 073f e5a6 86bd 5b76 e03d ce78 24bf
00000320: fee5 aebd df1e 883d c6be f93e 5478 183f
00000330: 0eca 9d3e eb97 5c3a 5543 7d3e 9d1b 35bd
00000340: 6956 c73c dfcd c2be 90bd b1be c2bc 0dbd
00000350: fbd2 943e 184a 27bf f0a7 b73e 8c98 39bf
00000360: a0ed 29bd 39ea 21bf 7059 6e3d 2c92 bb3e
00000370: e32b f93e 06d7 a53e a7b7 9d3e 75d4 023f
00000380: 3972 71bf c1a5 08be 0dcc 773c 1489 ca3e
00000390: 3f00 fbbd 99c1 83be e2ac 17bf 21c8 66be
000003a0: 4fcc 63be ca16 c9be 0244 173f 6f56 a2be
000003b0: 68a8 873e ed38 de3d 106d 8fbe 7cc1 963e
000003c0: 087b e8bd d472 36bf 6d64 7c3e 15eb c3be
000003d0: 3140 033f 61ca a23e 13b0 343e 5aea a43e
000003e0: 6d42 553d 5a2c 1bbe 3f59 04bf f77f fa3e
000003f0: b9f7 90be 520b 983e e466 bd3e 12c3 153c
-0.05539571 -0.33518872 -0.33461842 -0.05823341 0.2614439 -0.31601948 0.63022155 -0.5090026
0.71493 -0.2538912 -0.49493548 0.44675955 -0.05369749 -0.121326864 -0.5075309 0.13862361
-0.34716886 -0.06281988 -0.4189946 0.2467448 0.5602617 -0.15157668 0.643179 0.8329682
0.13057216 0.19165343 0.025235077 0.30081484 0.14514907 0.4235241 0.079159 -0.51503956
0.060539737 0.11949063 0.0019568722 0.41935268 0.033443045 0.09468869 0.81078565 -0.65199435
-0.23996979 0.4341398 -0.67532825 0.33441958 0.12521937 -0.9370601 0.16985123 -1.0366744
0.40677068 0.42145303 -0.52868897 0.5901756 0.44843143 0.6592727 1.4070252 0.7390842
-0.2190691 0.20154178 -1.1951733 -0.09189869 0.06509942 -0.27146804 -0.6392347 -0.07469005
0.32148528 0.1098913 -0.3607672 0.14746599 -0.8056064 -0.21150176 -0.27849385 0.42093876
-0.6543434 -0.80804324 0.062210377 -0.2621839 0.3362069 0.4762247 1.0347117 -0.1125847
0.0018296969 0.64307994 -0.3929895 -0.47957337 -0.44507608 -0.49234045 0.6426349 0.36410657
0.119403765 -0.59484965 0.4341102 0.8581442 0.5554692 0.11703494 -0.33747 0.13321759
-1.2797711 -0.5037138 0.0778541 -0.062605314 -0.06310566 0.13262755 -0.055815376 0.39022228
-0.40869653 -0.060667515 -0.19356832 -0.22996435 -0.19635583 0.313959 0.20722696 0.05170033
0.22190136 -0.7071176 -0.15623437 -0.10720348 0.011143784 0.22804233 -0.03906712 0.24867763
1.1071762 -0.23458545 -0.3482717 -0.1879186 -0.09001743 0.11709913 -0.5544866 -0.45955852
-0.61688197 0.13539685 0.2523774 -0.47272494 -0.33803412 -0.09777415 -0.24480814 -0.34606388
0.07684863 0.17107223 -0.13843 -0.20601481 -0.00031778915 -0.17233002 -1.4197544 0.17047107
0.3280991 0.21935728 -0.5972571 0.24517383 0.16953862 -0.0052522696 -0.54854035 -0.39629874
0.10682888 -0.6012429 0.2268146 -0.31090924 0.34563595 -0.023315966 -0.27689227 -0.1908953
0.6753878 -0.5073318 -0.775308 0.34132478 -0.1945781 0.698218 0.035885386 0.5215158
-0.59775406 -0.7596098 -0.22031145 0.38980576 0.09883455 0.70487046 -0.84148073 -1.0013216
0.14283887 -0.07294538 -0.056230713 0.24487063 -0.27564752 -0.034445655 -0.7512815 -0.2620598
0.15053728 -0.015085262 0.777981 -0.17110658 -0.52657115 -1.2413867 0.59420204 0.0022501764
0.43170488 0.50671583 -0.1552977 -0.39575222 0.52926743 -0.06574801 0.109600745 -0.64246833
-0.08539961 0.06646513 0.4877836 0.59558606 0.30818218 0.00084149715 0.24732716 -0.044215787
0.024333196 -0.38047692 -0.34714937 -0.03460384 0.29067215 -0.65347433 0.35870314 -0.72498393
-0.041486382 -0.6324802 0.058190763 0.36634958 0.48666295 0.32390612 0.30804178 0.51105434
-0.94314915 -0.1334448 0.015124333 0.39557707 -0.12255906 -0.2573364 -0.59248173 -0.2253728
-0.22245906 -0.392752 0.59088147 -0.3170657 0.2649567 0.108507015 -0.28012896 0.29444492
-0.11351591 -0.71268964 0.24647684 -0.3826529 0.51269823 0.31795028 0.17645292 0.32210046
0.0520653 -0.15153638 -0.5169868 0.48925754 -0.28313997 0.29696137 0.36992562 0.009140747

network_body._body_endoder.seq_layers.0.bias f4 [128]
00000000: 51d3 c9bc 91a5 97bc 5682 1f3d d79a 52bb
00000010: 71cf eb3c b8a2 4bbd 0ca9 c6bc 6957 073c
00000020: 2f1b 343d 459e 113d a00d 68bb d981 083b
00000030: c639 a23c 374d 393d 4b15 b73c 71fd 0b3d
00000040: 1ea5 a9bc d9db 0b3d 2b96 da3c b5d7 153d
00000050: ef5c b13b af81 7fbc c3fa d8bc 5284 3e3d
00000060: 655d 3e3d 8b90 0dbd 1df0 033d 56dc c73c
00000070: 2a28 2bbc 0420 3b3d 5d01 52bb 14bb ba3c
00000080: eabd 2e3b cbbe f3bc f5f6 cebc 97ca 48bb
00000090: 9a50 74bc 3c29 393d 52a1 033a 38a3 183d
000000a0: ed27 88bc 1d1b 173d 88f6 ed3c 1ba7 1cbc
000000b0: 8119 9ebb 5b01 f5bc aad4 fd3c 4f7e a13c
000000c0: 8254 ae3c 7002 1f3d 5ad3 b7bc b858 cb3c
000000d0: ea7f 1e3c a741 d23b 2991 bdbc 7173 efbc
000000e0: cede d03c ac91 12bd 3538 483d c350 b3bc
000000f0: 53b1 03bd d6d9 0fbc 98aa 883b 85f1 c5bc
00000100: 815f 0b3d 4989 2a3c 1bcf 1e3d becd bb3c
00000110: 0525 123d 644b 0a3d ec80 bc3c 5387 113d
00000120: 5f25 b93c e082 183d 9318 a83c e54e b03c
00000130: 122d 65bc d98e 113d e906 ccba 96db 233d
00000140: 65e3 9dbc c572 e63c a119 9b3c be0d 16bd
00000150: 6f70 df3c e9da 19bd b08f 2dbc 9148 dc3c
00000160: 6ef8 5ebb 96c6 0ebd 54fc 8cba 0013 2e3d
00000170: 1c9b 33bd 95ea d13c bb37 93bb 7602 f0b9
00000180: f8e0 bcbc 61ed 013d c336 a03b b4cd 4a3c
00000190: ed42 dc3c 1cce e13c 8083 373c f1e7 0a3d
000001a0: 6c6a 223c 8215 6636 2986 393d a710 13bc
000001b0: fe16 353d e9a9 4dbb 3877 1bbd af7f 123d
000001c0: a9fe 723b ebb1 373d 2940 293d 3e24 26bc
000001d0: 58ea b63c b806 033d 339f fbbc 38eb 083b
000001e0: 5e76 203d 7b62 983c d572 3a3d 86f4 50bc
000001f0: 3529 3b3d c426 09ba 3c0e 1f3d 23d0 2abb
-0.024636896 -0.018511565 0.038942657 -0.0032135749 0.02878544 -0.049715728 -0.02425053 0.008260586
0.043971237 0.03555133 -0.0035408512 0.0020829348 0.01980294 0.045239653 0.02234902 0.034177247
-0.020708617 0.03414521 0.026682934 0.036582667 0.00541269 -0.015594884 -0.02648676 0.04651291
0.046475787 -0.034561675 0.03221141 0.024397057 -0.010446588 0.04568483 -0.003204427 0.022794284
0.002666349 -0.029754063 -0.025264243 -0.003063833 -0.014911795 0.04520534 0.0005021292 0.037265033
-0.0166206 0.03689109 0.02904822 -0.009561325 -0.0048248176 -0.029907873 0.030985195 0.019713549
0.02128053 0.038820684 -0.022439647 0.024822578 0.009674052 0.006416518 -0.023140507 -0.029229851
0.025496867 -0.035783455 0.04888173 -0.021889096 -0.03215153 -0.0087799635 0.004170727 -0.024163017
0.034026626 0.010408708 0.03877173 0.022925254 0.035679836 0.033763304 0.023010693 0.035529446
0.022600828 0.037234187 0.02051953 0.021521995 -0.013987796 0.03553662 -0.0015566024 0.040004335
-0.01927347 0.028130898 0.01893312 -0.0366342 0.027275292 -0.037562285 -0.01059334 0.026890071
-0.0034022587 -0.034857355 -0.0010756352 0.04249859 -0.043849096 0.025624553 -0.0044927276 -0.000457782
-0.023056492 0.031720523 0.0048893406 0.012378145 0.026887381 0.0275641 0.011200786 0.033912603
0.009913068 3.428519e-06 0.04529396 -0.008976138 0.04421138 -0.0031381792 -0.037955493 0.0357663
0.0037078059 0.04484741 0.041320954 -0.010140477 0.02232854 0.03198883 -0.03071556 0.0020892154
0.039175384 0.018601647 0.04551967 -0.012753611 0.045693595 -0.0005231912 0.038831934 -0.0026064

network_body._body_endoder.seq_layers.2.weight f4 [128, 128]
00000000: 2231 213d 0ea1 883d d284 ecbd 67e5 2d3e
00000010: d13c 7e3c 6545 92bd 9485 733d 4527 af3d
00000020: 78d6 153d cc55 c7bd d5dd b13c 188b 1ebe
00000030: a6b7 513d dd5f cfbd 1663 1e3e 567e 18be
00000040: c383 ca3c 89f9 363e 03d9 21be e0fa d53d
00000050: b3c8 1ebd 3544 3abe 6737 2e3e f50d cdbc
00000060: b331 df3d 1013 453e 8925 9ebd 9ee6 d83d
00000070: f16a 6ebe d251 51bd 1a19 003d fe9e 19be
00000080: 485c 54bd de27 ae3d 01a5 15bd b57e 533e
00000090: 1cfd f43c a91d 79bd bf17 c83d d60c cfba
000000a0: 69aa 653d 2c6a a6bd 077f b73d 44aa 0a3d
000000b0: 6ce4 3c3e 217d 5e3e 6b46 99bc a230 05bd
000000c0: 4d59 60bd d88a 173d 870c c83d 414f 803e
000000d0: 827b 64bd e051 3b3e c764 363e e8d1 283d
000000e0: 0fe1 8a3d 5da5 bbbb e1e4 c1bd ad17 d53d
000000f0: 5ff4 f0bc 5ae6 8b3e fd4a 3dbe 54ed 9d3d
00000100: 245b 893d e7c5 f7bd 7fcb debd 59cc 883b
00000110: 78a5 abbc f7b0 943d ca29 bdbc e5c4 923d
00000120: 28cd a9bc 1605 bdbd 336d 8dbc 96e4 ca3b
00000130: c20b 003e 7dfc 44bd 029a 2abe 2fca aabd
00000140: 3f9b 223d 0710 023d 3cbc c3bb 909d 243e
00000150: 5754 723d 2994 bc3b 1c26 a63d 2822 2abd
00000160: 45dc f33c c9d1 21be 0d5d ae3d 9ff9 b3bd
00000170: 42e8 483d 29fe f2bc 47ac 49b9 bddf 143d
00000180: 5ca4 75bd d3fe 6abd 8c9c 38be 4671 143d
00000190: 7764 30be 49d3 3f3c a321 0abd 9a34 dabc
000001a0: e01b c23d 9282 693d 5cd9 a13c d589 4a3e
000001b0: e022 263d 6e9e 603d ec6d 8a3d 473a 97bc
000001c0: 47ac 7dbd 838a 3abc 81a6 b03d 39dc 7f3d
000001d0: 58f3 1c3e e720 e63c f0bc 00bd b835 4a3d
000001e0: 30ac 49ba bbab d03c 236e 5fbe e6d7 4f3d
000001f0: a019 e2bd c435 4abd 3180 24bc 6ddd f6bd
00000200: c636 41bd 01f2 94bd adcf 7a3d d883 bb3b
00000210: 6a4f 503d 1146 debd ea29 67bc 3945 8ebd
00000220: 166d 96bb 9bac 473d 0560 9d3d 3956 9ebb
00000230: 19cf b73c 0ea6 c93d 245b bfbc d2da 9fbb
00000240: 5eb2 ca3d a95f 07be b83e f73d bb61 f43d
00000250: dd1c 093e 649b b6bb e1ac b83d d3df 64bc
00000260: d7bd e63d c353 193d 6e90 14be d9c0 6d3b
00000270: f599 893d 67fa 3a3d dce2 1f3d c53b 85bc
00000280: cc01 0c3e e7b4 2abe 4366 40be 23a5 1dbe
00000290: 5145 ae3d c831 b83d 5b02 c73d ec24 70bd
000002a0: a7b5 e6bd 9399 e73d 4bea 193e f1a3 05be
000002b0: 2ab8 ecbc 43de 633c b4fb b3bd 9f99 013d
000002c0: ee6a 633d 981c 0d3c cea5 323d f0cf 1bbd
000002d0: 2b77 fcbd 4b77 f7bd 820a bc3d 0ab9 c4bd
000002e0: aa21 8c3e cf55 b9bd 97ca da3d 5c9d 83bd
000002f0: 7593 003d d96a f2bd a200 9fbd 0a94 fbbc
00000300: 3a4a 4bbd 7734 4cbd d8d1 033d ac4c 143e
00000310: 830e 103e c476 fcbc b089 3c3d 136b d83d
00000320: 055e eb3d 116a 9b3d c203 cf3b a3ca 05bb
00000330: a970 4bbd 48a8 debd 8371 c6bd e7ac acbd
00000340: 9ee6 9fbc 16af 2e3d a34c 0cbe 70f5 0cbd
00000350: 8cfa ed3d 240f 203d 230f c13c 578f e9bd
00000360: ad00 31bd 0881 9ebc f14c 3ebe 0e25 3cbe
00000370: 9221 8ebd 543e 8c3d 2f43 8cbd aef3 82be
00000380: 122b 30bd 1c7f 94bd b34c 6c3b 73a9 ba3d
00000390: 4f9c b1bd ca6c 0c3e 71d6 fcbc 8bc7 a03d
000003a0: b29b 713c 0856 15be 0768 81bd 9e62 233d
000003b0: 4762 d7bc 7b92 0fbd 2a51 adbd 76ef 5f3d
000003c0: 9a85 0c3e 5ea5 313e b591 b43d a158 0dbc
000003d0: 35fe 9cbd 1d5d 0e3e 7928 b9bd 147b 083e
000003e0: e396 cc3b f141 293d 5749 183e f8ec 95bd
000003f0: a100 e83d 1f8d cbbb 6bfe a13c 6d96 d53c
0.039353497 0.06671344 -0.11548771 0.16982041 0.015517429 -0.07142142 0.059453562 0.08552412
0.036581486 -0.09733161 0.021712223 -0.15482748 0.05120053 -0.10125706 0.15467486 -0.14891943
0.024721032 0.17868628 -0.1580544 0.10448241 -0.03876562 -0.18190081 0.17013322 -0.02503107
0.10898151 0.19245553 -0.07722003 0.10590862 -0.23282982 -0.05110342 0.03127394 -0.15002057
-0.05184582 0.08503698 -0.036534313 0.20653804 0.029905848 -0.0608193 0.09770154 -0.0015796672
0.05607072 -0.081257194 0.089597754 0.033853784 0.18446511 0.2172742 -0.018710336 -0.032517083
-0.054772664 0.036997646 0.097680144 0.25060466 -0.05578185 0.18292952 0.17811881 0.041215807
0.06781208 -0.0057265 -0.09467483 0.104049064 -0.0294134 0.27324182 -0.18485637 0.07711282
0.06706837 -0.12098294 -0.108786575 0.0041747508 -0.020952925 0.07260316 -0.023091216 0.07166461
-0.020727709 -0.09229486 -0.017263984 0.0061918003 0.12504485 -0.048092354 -0.16660312 -0.08339345
0.039698835 0.031753566 -0.005973367 0.1607573 0.059162464 0.0057549668 0.081127375 -0.04153648
0.029768119 -0.15802683 0.08513842 -0.08787846 0.049049623 -0.029662209 -0.00019233032 0.036346186
-0.0599712 -0.057371926 -0.18028468 0.03624084 -0.17225824 0.011708089 -0.033723485 -0.02663641
0.09477973 0.057009287 0.019756965 0.19779141 0.040560603 0.05483859 0.06759247 -0.018460406
-0.061931875 -0.011385563 0.08625508 0.06246588 0.15327203 0.028091861 -0.031430185 0.049367636
-0.00076931994 0.025472512 -0.21819358 0.050743006 -0.11040044 -0.04936768 -0.010040329 -0.12053952
-0.047171377 -0.07272721 0.06123321 0.005722504 0.050856985 -0.10853208 -0.014109114 -0.06946797
-0.004590641 0.048748594 0.0768433 -0.004832056 0.022437619 0.098461255 -0.023358889 -0.0048783803
0.09897302 -0.13220085 0.120725095 0.11932703 0.13389917 -0.005572723 0.09017349 -0.0139693795
0.11266678 0.037433397 -0.1450822 0.0036278276 0.06718818 0.04564896 0.03903471 -0.016263852
0.1367256 -0.16670571 -0.1878901 -0.15395026 0.08509315 0.0899387 0.09717246 -0.05862896
-0.11265116 0.11308589 0.15030782 -0.1305082 -0.02889641 0.013907972 -0.08788243 0.031640645
0.055521898 0.008612774 0.043615155 -0.0380401 -0.12327417 -0.120833 0.09181692 -0.09605606
0.27369434 -0.0904957 0.10683172 -0.06426498 0.031390626 -0.11836786 -0.077637926 -0.030710239
-0.049631335 -0.049854722 0.032182544 0.14482373 0.14068036 -0.03081835 0.046029747 0.10567298
0.11492542 0.0758859 0.0063175866 -0.002041497 -0.049667988 -0.10871941 -0.096896194 -0.08431416
-0.019519147 0.042647444 -0.1370111 -0.034413755 0.11620054 0.03907694 0.023566788 -0.11404293
-0.043213535 -0.019348636 -0.18584038 -0.1837351 -0.06939997 0.06847826 -0.06848752 -0.25576538
-0.043009825 -0.07250807 0.0036056458 0.09114351 -0.086723916 0.13713375 -0.030863972 0.0785056
0.014746593 -0.145836 -0.0631867 0.03988897 -0.02629198 -0.035051804 -0.084627464 0.054671727
0.1372284 0.17348239 0.08816854 -0.008627088 -0.07665674 0.13902707 -0.09040923 0.133282
0.006243573 0.041322652 0.14871727 -0.07320589 0.11328245 -0.0062118913 0.019774636 0.026072705

network_body._body_endoder.seq_layers.2.bias f4 [128]
00000000: 8524 e9bc 8650 c53c 163a 1a3d a395 0dbc
00000010: cd9b 8abc 9b17 0b3d a5cb e93c 6ba9 d33c
00000020: 0423 b43c 6742 bc3c 97d7 cebc a459 9ebb
00000030: 9441 60bc 9526 00bc c7c6 a73c a557 e03c
00000040: 9226 d3bc 1c85 0f3d bb94 b43c 269c f4bc
00000050: 3634 93bb cbe0 52bc 8132 d33c c6db 273d
00000060: 5b70 08bd 53b8 ef3c 0d5e c33c 95d0 ba3c
00000070: c55d 6f3c 9b3d edbb c5f0 e43c 8287 963c
00000080: a598 253c d307 c93c eb6f 9cbc e14e 0d3d
00000090: 20d5 e63c 6355 243d 2757 c43c 1610 db3c
000000a0: 4cb8 8c3c 9a56 e33c a3d3 dd3c a83d d33c
000000b0: 6b57 a8bc 2990 473c 43d7 bc3c 151a dcbc
000000c0: 34e1 633c ce0a ce3c c08b f33c 7df4 1c38
000000d0: a8e9 f33c 7f1d ca3c 9d00 dd3c b816 edbc
000000e0: 1889 90bc 83ec 093d 6870 413d 05f5 c83c
000000f0: a846 7e3c b0b5 123d 1ef0 0a3d 9acd d13a
00000100: b417 053d 223f 033d b4af b63c ccf0 8abc
00000110: e70a e4bc 4571 88bc 518c 293d bddb 76bc
00000120: 7381 c33c 756d 53bb a0fc 95bb ef6f ef3c
00000130: f630 19bc cc3a 1b3d 5edc ef3c 5a9c d03c
00000140: b147 343c bc38 d03c 6f72 193d 544a c1bc
00000150: 0182 9a3c 059e abbb e3b5 d7bc 3e9f efbb
00000160: 0fe2 8c3b fec0 833c 8e01 a83c d9dd 103d
00000170: 7109 9bbb 90bc fb3c ee25 0c3d 4839 ea3c
00000180: 0eaa e6bc b91b be3c 8979 c63c 25d7 bbbc
00000190: b08b 6abc 01e6 143d 8f87 253d 3747 91ba
000001a0: 9a7d ec3c 8e92 0d3d ea4a 92bc 7186 b2bc
000001b0: a163 1e3d 1a12 053d 44ef 493d 68ea f93c
000001c0: b328 063d b009 f23c 01bb 243d 1fee 8e3c
000001d0: 7bea e83c 8d01 46bc 98ee 253d 11ec 5dbc
000001e0: ca9a b8bb 21ba e13b 90fd e93c 5786 153d
000001f0: d3d8 c83b 2680 4b3c fd13 0a3d 6537 123d
-0.028459797 0.024086248 0.03765305 -0.008641633 -0.016919995 0.03395806 0.028539488 0.02583762
0.021989353 0.022980882 -0.025249286 -0.0048324633 -0.01368751 -0.007821699 0.020480527 0.027385542
-0.025775228 0.035039052 0.022043576 -0.029859614 -0.004492308 -0.012870978 0.025780918 0.040981077
-0.033310276 0.029262697 0.023848558 0.022804538 0.014609759 -0.00724001 0.02794684 0.018375162
0.010107194 0.024539864 -0.019096335 0.034499053 0.028177798 0.040120494 0.023967339 0.026741069
0.017177723 0.027751256 0.027078455 0.025786236 -0.020549497 0.012180367 0.023051864 -0.026867906
0.013908673 0.025151636 0.029729724 3.7420996e-05 0.029774502 0.024672268 0.026977831 -0.028941497
-0.017643496 0.03367282 0.04722634 0.024530897 0.015519775 0.035817802 0.0339204 0.0016006709
0.03249331 0.03204263 0.022300579 -0.016960524 -0.02783723 -0.016655574 0.04139358 -0.015067038
0.023865437 -0.0032261286 -0.0045772344 0.029228179 -0.009350052 0.03789787 0.029279884 0.02546518
0.011003421 0.025417678 0.037462648 -0.023595013 0.018860819 -0.0052373433 -0.026331848 -0.0073126843
0.004299409 0.016083237 0.020508554 0.03536782 -0.00473135 0.030729562 0.03421586 0.028591767
-0.02815726 0.023206579 0.024227874 -0.022929737 -0.014315531 0.03635216 0.040412482 -0.0011083846
0.028868485 0.034563594 -0.017857987 -0.021792622 0.038669232 0.032487966 0.049300447 0.030507281
0.032753658 0.029545635 0.040217403 0.01744753 0.028432122 -0.012085331 0.040510744 -0.013545052
-0.0056336867 0.0068886434 0.02856329 0.03650507 0.006129363 0.01242069 0.03371047 0.03569736

action_model._discrete_distribution.branches.0.weight f4 [3, 128]
00000000: 81dc 383c 7d06 7fbc ef7d 063c 2b2c 9f3b
00000010: 2b5c 2e3c 4d57 48bb 73c3 c9ba ca68 4c3d
00000020: 0241 f2bb 1e63 9fbc 03ae cd3c 7b50 e43c
00000030: 3940 183c 4acd b13a 4f7c d8bb 5e94 99bc
00000040: 34dc 163d 91af 01bc cd21 f93a c9c1 a23b
00000050: 88d8 033d 21fb a53c 92cc 50bc 3917 f6bb
00000060: 72f6 893b 0f6c 4cbc 782c 53bc 10c7 fa39
00000070: 4410 e43a a96c bf3b c882 2abd 1851 29bc
00000080: aa6e 63bc bbb7 8abb 1010 863b 569f e9bb
00000090: 589c b2bc 95e3 05bc 30dd 133d 1a38 8bbc
000000a0: b3a2 693c c2ff 783c 09e9 c7bc 11f5 c63c
000000b0: d6cc ae3c 1ce9 1abc 3475 80ba 8c6b 2c3c
000000c0: 6755 49bd a8b9 8cbc a225 5cbc d276 353d
000000d0: efc8 b3bc f463 05bc 94f6 3ebd 962d 873b
000000e0: 1cca bfba 50a3 e3bb dcd8 07bd e0ef acbc
000000f0: 9db8 23bd b614 2ebc 5025 9bbc 8a94 c03c
00000100: 3488 a0bb 0067 a0bc 668f c9bc 12e9 1c3d
00000110: b061 da3c fc21 a83c d7e0 88bb 1202 9cba
00000120: ec5a f63a fc55 9b3c 840f c73a 00ad 33bc
00000130: f14a 48bb bf80 7dba 6adf 27bc 0426 21bc
00000140: 76d2 24bd 139a b0bc 5df4 a3bb 04ce 5c3b
00000150: e16b 2f3b bfbd 9b3c e570 313c 9ab4 b53c
00000160: 0d07 ee3c 6dad daba bac4 85bb 2f2f 96ba
00000170: 84be b13c 7c57 ccbc 4fda 08bd 02f7 5b3c
00000180: 244f c33c c0d5 0abd feaa 4a3c 234f 81ba
00000190: 2da1 163d 8128 623c 4c03 c6bc 23b2 0f3d
000001a0: 788f 4bbc b0f6 03bd 5285 b93c 0c37 653b
000001b0: f729 aabc 8dac dd3a 2c60 23bd 734f f83b
000001c0: 20b2 91bc c2b5 273d ebb0 4dbc e9f2 2dbd
000001d0: 23b4 91ba d47a a53c 5102 5ebc 8acd 493c
000001e0: b3ca 973b 15bc fbbc ef62 663b 07c1 d6bb
000001f0: c9f4 4cbc 8d0a c23b 70e9 a5bc 1770 edbc
00000200: 3423 903b 6ae0 cc3c dd2f df3c 9232 41bc
00000210: d601 ca3c a993 fb3c a7a3 5bbd ad5a f2bc
00000220: 08b7 233d 88ee 2f3d 1993 1abc 5de1 02bd
00000230: 7999 a7bc b98c 66bc 7c0e 8d3c b85b 9e37
00000240: 0f51 c0b9 efa0 4abd 47fa 413c 2b0a 08bb
00000250: 723d 753c 8d8f f6bc 5aa6 a53c 49a4 833c
00000260: eea2 83bc 6428 503c 4051 5abd 0984 a3bb
00000270: 9849 2bbd 5e61 76bc 03e2 063d cb68 443c
00000280: 6ac7 2c3c 65af 0fbd 60e1 223b 38ee 66bd
00000290: 5601 3a3d bc7c db3c 7f36 22bd 8487 193d
000002a0: f827 bcbc a88f 56bd 29be f53b 52ac 03bd
000002b0: a1c3 83bc 7ef3 1ebd f53f 013c c289 d1bc
000002c0: 95eb 483d 9105 2e3c 28ad d53c c197 1fbd
000002d0: ec8d e93c cf67 323d b10a 563d e1c0 37bc
000002e0: 61a7 1dbb f55f 33bd e822 603d d2ce 343d
000002f0: 97e4 d43c bde1 d13c 8697 cd3c 3d59 36bd
00000300: e22f 3c3d 824a 223d c60e ad3c a9d1 afbc
00000310: 29b9 bbbb 25c4 6ebb f45f 9a3c aa9f 193a
00000320: 73c1 fdbc 6d7e 8cbc e916 4ebd 064e e63c
00000330: 0d41 3dbb 242e ab3c 1bcc c93b 7f4b 193c
00000340: 7508 143d 6861 323d d5ad 90bd ed55 46bc
00000350: 9512 8cbc f101 3b3c 999b b33b f6b5 c3bc
00000360: fdc2 3dbd 1769 0a3d 5625 003d db3e 5a3c
00000370: 4b81 19bd ebe9 413d 655b 21bd 4900 53bd
00000380: 99e8 cebc a2c1 303d 708a dbbc e298 443c
00000390: 7b12 acbc a51f 65bd 9501 443d e24c 033c
000003a0: a34e 563d 250b 3a3c ed26 ca3c f702 b23a
000003b0: ebe5 0c3d 37af 78bd 6544 0c3d a96a 7f3b
000003c0: faea 273d 7195 46bd 3678 d13c a82c f63c
000003d0: 5f62 43bd 5177 1fbc faf7 cf3c c429 c1bc
000003e0: b514 9a3c 9a14 153d e776 23bd 66b9 e53c
000003f0: 0348 2e3d ac56 47bd f45f e43c c874 ac3c
0.011283041 -0.015565512 0.008208736 0.00485756 0.010642092 -0.0030569613 -0.0015393331 0.049904622
-0.0073930034 -0.019456442 0.02510739 0.027870407 0.009292656 0.0013565209 -0.0066066156 -0.018747505
0.036831096 -0.007915393 0.0019007266 0.0049669486 0.032188922 0.02026135 -0.012744086 -0.0075100926
0.004210287 -0.012476935 -0.01288902 0.0004783203 0.0017399867 0.0058418107 -0.04162863 -0.010334276
-0.013881365 -0.004233328 0.0040912703 -0.00712959 -0.021803066 -0.008171936 0.036099613 -0.016994525
0.014259982 0.015197696 -0.024403112 0.024286779 0.021337908 -0.009454992 -0.0009800554 0.010523688
-0.04915371 -0.017178372 -0.013436707 0.04430277 -0.021946399 -0.008141506 -0.046621874 0.0041253073
-0.0014632377 -0.0069469586 -0.033165798 -0.021110475 -0.039970983 -0.010625055 -0.01893869 0.023508329
-0.004899049 -0.019580364 -0.02460451 0.03830821 0.02665791 0.020524018 -0.0041771936 -0.0011902472
0.0018795407 0.018961899 0.0015187119 -0.010966539 -0.0030562247 -0.0009670369 -0.010246137 -0.009835724
-0.040239774 -0.021557843 -0.0050034956 0.003369213 0.0026767182 0.019011376 0.010830139 0.022180844
0.029056096 -0.0016683765 -0.0040822895 -0.0011458154 0.02169729 -0.02494406 -0.03341132 0.0134255905
0.023841448 -0.033895254 0.012369869 -0.0009865504 0.036774803 0.013803602 -0.024171494 0.035081994
-0.012424342 -0.03221768 0.02264658 0.0034975437 -0.020771964 0.0016912386 -0.03988664 0.0075778305
-0.017785132 0.040944822 -0.012554388 -0.042467985 -0.0011116307 0.02020017 -0.013550357 0.012317071
0.004632318 -0.030729333 0.0035154184 -0.0065537724 -0.012509533 0.005921668 -0.020252913 -0.028984113
0.004398728 0.025009353 0.027244503 -0.011791842 0.024659079 0.030710058 -0.053622868 -0.029584253
0.039969474 0.04295209 -0.009434485 -0.031953204 -0.020458924 -0.014071637 0.01721882 1.8877778e-05
-0.00036681487 -0.049469884 0.011839456 -0.0020758014 0.014968263 -0.030097747 0.020220924 0.016069548
-0.016068902 0.012704942 -0.053300142 -0.004990105 -0.04181823 -0.015037863 0.032930385 0.011987875
0.010545591 -0.03507938 0.0024853572 -0.056379527 0.04541143 0.026792876 -0.039602753 0.037482753
-0.022968277 -0.052383095 0.0074994755 -0.03214676 -0.016084494 -0.03880643 0.007888784 -0.025578383
0.049052794 0.010621444 0.026083544 -0.038963083 0.028510056 0.04355603 0.05225629 -0.0112154195
-0.0024056064 -0.043792684 0.05472079 0.04414255 0.025987906 0.025620336 0.025096666 -0.044518698
0.045944102 0.039621837 0.021125209 -0.021462278 -0.00572886 -0.003643283 0.018844582 0.00058602786
-0.030976033 -0.017150128 -0.050314818 0.028113376 -0.0028877885 0.020896025 0.0061583645 0.009356379
0.036140878 0.043549925 -0.07064406 -0.012105447 -0.017098704 0.011414037 0.005481195 -0.023890477
-0.046328533 0.033791628 0.031285606 0.01332065 -0.03747682 0.047342222 -0.0393938 -0.051513944
-0.025257396 0.043153413 -0.02679941 0.011999341 -0.021004906 -0.05593838 0.04785307 0.008013936
0.052321088 0.011355196 0.024676764 0.0013581206 0.034398954 -0.060713973 0.034244914 0.0038973487
0.040995575 -0.048482362 0.025570016 0.03005059 -0.047701236 -0.009733037 0.0253868 -0.023579486
0.018808702 0.0363966 -0.039908316 0.028042506 0.042549144 -0.04866664 0.027877785 0.02105178

action_model._discrete_distribution.branches.0.bias f4 [3]
00000000: baed d2b8 226d 043c 3dcd a13c
-0.0001005786 0.00808266 0.019751186

action_model._discrete_distribution.branches.1.weight f4 [3, 128]
00000000: bd65 a5bc 6adc 683c 371d 073d df0c 14bc
00000010: 3858 e5bc c77a f53c 3e51 463c 4005 eabc
00000020: 6de3 41bc 9a1d db3c 9c4c 2abd 44f2 80bb
00000030: 57ed a4bc bb53 94bc f77b 0d3c 167a eb3c
00000040: ed5d 3cbc c1a4 783c e27f 6d3c c1c7 04bd
00000050: 9b80 f0bc 0e0c d4bc 7341 123d ae76 223d
00000060: 1b2f 9abc 408d b53c 5edc 183c e5be b03c
00000070: 9482 863c 98e2 fdbc d471 0f3d d26a e73c
00000080: 9aa9 a23c 98a6 483c 31c8 4bbc b68d 963c
00000090: 4905 b2bc 1a71 de3c 5c4d 16bc f95d 2b3d
000000a0: 96d5 953c 066b a33c 54a9 b03c 9e1b b3bc
000000b0: 0087 49bc a42e 393c 9fb2 7c3c 7c77 e3bc
000000c0: 3742 69bc 82d0 b63c 8711 543d 013f 77bc
000000d0: 74fd c83c d0e5 beba 28fb c23c 39e5 1fbd
000000e0: a957 0ebd 94d9 f13c 70e6 3abc 8d1b 35bc
000000f0: 733c 1d3d 8665 103d 0336 c63c eeeb 43bb
00000100: 33e0 913b 2dac f93c ce06 b43c 8d3f e8bc
00000110: e4ae c9bc cc30 23bd 1d18 253d 5282 c0bc
00000120: 2b1d b63c d503 babc 31b3 3c3c 798a 253d
00000130: 3153 05bd e207 1e3d 723b 273d c155 0b3d
00000140: 2448 753b 9215 cd3c c1ea 033d e3df 2abd
00000150: 6002 503c ebad 8bbc 4a9e dbbc 48d5 10bd
00000160: 2d0d aabc ec5e c13c 853b 93bc 2b98 f33c
00000170: cf35 583c a554 e73c 236c c73c 8aec 9abb
00000180: bcee d8bc 61ab 9b3c 66cd b43c 4abe b4bc
00000190: 38a4 1fbc f973 b83c c6f4 70bc 7af5 c4bc
000001a0: 7615 5abc c506 db3c 4943 dbbc bec2 a3bc
000001b0: e5fb b03c 5a3c 8e3c 7ca9 c23a 2cbf 1f3d
000001c0: 785c 403c 58ac b2bb 492a bb3c c261 a43c
000001d0: 02af 603c 8284 84bb fb9c 283d 546c abbc
000001e0: 32ae 9dbc 7f9f 733c d5c9 d13c e53f b53c
000001f0: ae3e 2cbc 15e4 913c 2108 0e3d 016f 013c
00000200: a38e fa3b 7e8b 52bb f2a9 b5bc c240 9eba
00000210: 4a98 7c3b ef94 d23b 368c 3dbc e454 07bd
00000220: 2fea 6f3a 8258 13bc 7aae 613c de82 193d
00000230: a9c1 543c c72a d33c 4996 573c 3909 eabb
00000240: 3851 5dbc 7bcb 1b3c a254 20bd 9827 e63b
00000250: 4ea0 e33c 8998 8a3c 476c b2bc 8bf1 363c
00000260: 4916 803c b8dc 08bd 521a 34bd 9b5a c8bc
00000270: 9588 ee3b 9f57 4c3d eadc d7bc f113 02bd
00000280: 226b 3cbc 65ff a9bc a018 673c 3146 67bd
00000290: 43fc cdbb 7535 9dbb 0f6b b3bc e213 d6bc
000002a0: 058c 9abc 6147 ccbc a333 bb3c 2103 78bd
000002b0: 90d1 883c 5591 da3b fda1 81bc 8501 24b8
000002c0: 25ec c4bb 9f76 10bd 37bf e1bb bc8d f13b
000002d0: 0809 21bd 359e bf3c 4497 52bc dd71 873c
000002e0: 545c f53c 8b88 1dbb 2756 bcbc a004 65bc
000002f0: 8ad6 54bd ad6b b9bb 7911 89bb d0d7 47bb
00000300: 3cc1 b13a 2545 14bd eb99 a7bc c6e4 b13a
00000310: 08df 693c f302 8cbb cb4e 32ba a516 233c
00000320: 2bb1 1f3b 46cf 343d cbe4 b5bb edd5 2abd
00000330: 45c7 5c3d 15b4 9fbc 1ce8 dfb9 205c 15bd
00000340: 914b d1bb 073a 88bd 82dc 88bc 7eb1 e63c
00000350: 7a56 c4bc 1915 873c ced6 b63a 3fa0 503d
00000360: f339 7f3d 1194 c8bc 7709 e53b 0a8a ac3b
00000370: 341f 05bd fdcb 48bc ff39 7bbc ff69 f23a
00000380: 96b3 0c3a 3fc7 22bc 9be5 74bc eb30 7c3c
00000390: 4ad3 e9bb 6ddf 74bc 433e 3b3c 8b4e c8b9
000003a0: 0c6e a73c 97fb b73c 68d4 d73c 2204 8e3c
000003b0: 35a7 db3b 0437 5cbc c7ee e2bc 47b5 07bd
000003c0: 4188 933b 41bd fdbc 7c0d a5bc 82ff a5bc
000003d0: 4ba5 b1bc 411e b13b ed0d d8bb 0a98 e43c
000003e0: 35b6 fd3c 27d7 dd3a eb1f f2bc 0bdd ccbc
000003f0: ad54 3d3d ee5e 99bb 7b87 32bd 6697 83bc
-0.020190114 0.014212707 0.032986846 -0.009036272 -0.027996168 0.029965771 0.012104331 -0.028566957
-0.011834008 0.026747514 -0.041576967 -0.0039351303 -0.020132704 -0.018106332 0.008635513 0.028744739
-0.011497003 0.015175999 0.014495822 -0.032417063 -0.029358199 -0.025884654 0.03570695 0.039663963
-0.01882129 0.02216208 0.009329883 0.0215754 0.016419686 -0.030991837 0.035020664 0.028249178
0.019856263 0.01224675 -0.012437866 0.01837812 -0.021731036 0.02715354 -0.009173717 0.041837666
0.018290322 0.019948494 0.021565117 -0.021863755 -0.012300253 0.011302624 0.015423446 -0.027766936
-0.014236978 0.022316221 0.051774528 -0.015090705 0.024534918 -0.0014564339 0.023801401 -0.039036963
-0.034751568 0.029522695 -0.01140748 -0.011053932 0.038387727 0.03525307 0.024195677 -0.0029895264
0.0044517755 0.030477608 0.021975901 -0.028350616 -0.024619527 -0.03984146 0.0403062 -0.023499642
0.022230705 -0.022706905 0.011517332 0.04041526 -0.03255004 0.038581736 0.040828176 0.03401733
0.0037427032 0.0250347 0.0322063 -0.04171742 0.012695879 -0.017050704 -0.026808877 -0.03535965
-0.020758236 0.023604833 -0.017972717 0.029735645 0.013196423 0.028238604 0.024343556 -0.0047279047
-0.026481025 0.019002618 0.022070598 -0.022063393 -0.009743743 0.022516238 -0.014706796 -0.024042834
-0.013310781 0.026736626 -0.026765483 -0.019990321 0.021604488 0.017362762 0.0014851536 0.039000675
0.011740796 -0.005452674 0.022847312 0.020066146 0.0137136 -0.0040441165 0.041165333 -0.020925678
-0.019248102 0.01486957 0.025608936 0.022125194 -0.010512991 0.017808953 0.03467572 0.007900001
0.007646398 -0.00321266 -0.022175763 -0.0012073743 0.003854292 0.0064264457 -0.011569073 -0.033039942
0.00091520225 -0.00899327 0.013774509 0.03747832 0.012985625 0.025777234 0.013158389 -0.0071422127
-0.013508134 0.009508963 -0.039143212 0.007023763 0.0277864 0.016918438 -0.021780146 0.011165987
0.015635626 -0.03341362 -0.043970414 -0.024457267 0.0072794654 0.04988825 -0.026350457 -0.0317573
-0.011500152 -0.020751664 0.014104992 -0.056463424 -0.0062861755 -0.0047976323 -0.021901635 -0.026132528
-0.018865595 -0.02493638 0.02285177 -0.06054986 0.01670149 0.006670157 -0.015824312 -3.9102062e-05
-0.006009596 -0.035269376 -0.0068892497 0.0073716324 -0.039315253 0.023390869 -0.012853447 0.016533786
0.029951252 -0.0024037685 -0.0229903 -0.0139781535 -0.051962413 -0.005658588 -0.004182991 -0.0030493625
0.0013561617 -0.036198754 -0.020459136 0.0013572208 0.014274366 -0.0042728125 -0.0006801902 0.009954129
0.0024367075 0.044142984 -0.005550956 -0.04170792 0.053900976 -0.01949505 -0.0004270681 -0.03646481
-0.006387182 -0.06651693 -0.016706709 0.028160807 -0.023967016 0.016489552 0.0013949515 0.050934073
0.062311124 -0.024484666 0.0069896537 0.005265479 -0.03250046 -0.012255666 -0.015333652 0.0018494724
0.00053673366 -0.009935199 -0.01494732 0.015392522 -0.0071357833 -0.014945847 0.011428419 -0.00038205492
0.020438217 0.022458835 0.0263464 0.017335955 0.0067032822 -0.013440851 -0.027701749 -0.033131864
0.0045023267 -0.030974032 -0.020148031 -0.020263437 -0.021685263 0.005405218 -0.006593457 0.02790453
0.030970672 0.0016925082 -0.029556235 -0.025007745 0.04622333 -0.004680506 -0.043586235 -0.016063403

action_model._discrete_distribution.branches.1.bias f4 [3]
00000000: 0784 b03c 359d 39bc b869 a4bc
0.02154733 -0.011328985 -0.020069942

action_model._discrete_distribution.branches.2.weight f4 [2, 128]
00000000: 9b24 d1bc e134 db3c 4490 c83c 950d bfbc
00000010: 370f 68bc 2e65 8d3b dcf2 ba3c 1c1b 363d
00000020: 04f8 a3bc 684e 123d c000 ffbc f4fe 093c
00000030: 6323 8cbc 749e 12bd 34a2 b53c 2ffa e43c
00000040: 6db2 c3bc 028b 153d 9c42 f83c b0df 0abd
00000050: 7e46 aebc 497a 18bd d38d 2e3d af36 133d
00000060: fe25 1bbd c5c5 3b3d e1a2 283d 5a6e 033d
00000070: 0b17 0e3c cf1f 17bd 6677 493b 47ad 043d
00000080: 98ed 933c 7984 223d 3c00 9cbc d726 193d
00000090: 3fad afbc 6748 0a3d 6717 423d fed6 8b3c
000000a0: 7834 aa3c b047 263d 39b9 d23c f996 413d
000000b0: 81a6 5bbc d0bf 193d a329 be3c 9c62 07bd
000000c0: 47ac b4bc 3da3 4b3d 2bd0 9c3c fc7a 11bc
000000d0: 8181 563d 3aa9 9abc 9a1d 153d 8443 f7bc
000000e0: cf29 04bd fe99 273d ceb1 c1bc 3b72 6bbc
000000f0: 1c44 aa3c 2377 0e3d ef20 473d d37e 233c
00000100: 3ac7 243c 8f0f c23c 4bd9 bc3c e47d b6bc
00000110: 5ddb 28bd f416 01bd 206a 023d b356 1abc
00000120: d5dc d63c 609e 03bd 6ce1 e23c b5f7 2a3d
00000130: 0e07 4abd 0cb3 893c 6f18 323d c920 143d
00000140: f813 bfbb 3e4d 423d 08d9 0b3d 0cf1 cdbc
00000150: 46af 193d d850 d4bc dca0 03bd 6bcf 17bd
00000160: 870e a6bc 6188 cc3c 8a8b 1cbc 671b 163d
00000170: e70a ce3b 28a4 153d bb96 523d 0fe6 143d
00000180: 4957 f1bc c9ad 3b3b 311d c93c 730d 06bd
00000190: ac2b 2bbd f50c 303d 5b7e b7bc 8e60 9bbb
000001a0: 6d38 d9bc 4333 1b3d 6731 39bd e214 c8bc
000001b0: 8e14 b93c e661 3b3d 862d 48bb 41c9 c03c
000001c0: e345 bb3c a7f5 3f3d cb5d 3f3d b901 303d
000001d0: c80f 143d cdff 13bd 6e73 e53c 46da 07bd
000001e0: cfe4 96bc 146a 473c 4a5c a43c edfb f33c
000001f0: 85b4 adbc c60c 023d 59ee 013d 27c2 173d
00000200: d0a7 2d3d 15cd a4bc 4f89 76bc 0428 b73b
00000210: 8581 233d cc2a 13bd 08c4 17bd 8e9c f2bc
00000220: 67b9 393c c9b5 2bbd 8644 b33c 15f7 d8bb
00000230: b552 f93c d253 c13c 9b9c d1bb 78fd c7bc
00000240: fe35 b33c ad7b 40bd ab7a 23bd 5dac e53c
00000250: 75eb 8d3c 6a13 973c 49a3 2cbd 1a27 f7bc
00000260: e52e af3c 3a8f 07bd 002f 45bd 6bee 01bd
00000270: 3a0f 02bd 179e 0d3d 4162 b9ba 6ec7 11bd
00000280: 63e7 92bb 91ea 5ebd e8a8 973c a466 45bd
00000290: 373e d93c 042b fbbc 68f2 f8bc d47c c0bc
000002a0: 6e69 05bd 792b a1bc f4de efbc a1b3 01bd
000002b0: f521 b63c a3f9 74bc 546e 24bd 2b4a 033d
000002c0: 2ed4 d73c ba04 c2bc 66a4 d4bc 5358 b1bb
000002d0: 98b9 17bd 16f1 943c 74b1 18bd 3361 e73c
000002e0: ae71 1f3c e304 c8bc 85ca 913c ff77 263c
000002f0: 65e7 28bd b195 98bc 4154 03bd 05b9 23bc
00000300: 2709 88bc 4ed9 e6bc 680c b2bc a058 a23c
00000310: 79da 153d b95c e73c 5a35 1bbd a16b 493c
00000320: 5753 e1bc 2ca2 253d 498a 2abb c79c 4abd
00000330: 6133 b03c 71f9 90bc d34b 5fbc b48d 28bd
00000340: 8749 e5ba b024 46bd 976a 1fbd 95ea f03c
00000350: 59f8 22bd ae0a 323d 2ab0 1b3d e59f 383d
00000360: 1e12 d63c 446e 86bc 72ac 323c 3328 21bd
00000370: bdd5 0a3b 5e63 26bd ad63 59bd 7dfe f9bc
00000380: 143c 193d 2102 e7bb 3820 18bd 171b cf3c
00000390: a61b 373d 9257 e9bc 7cc5 b73c f76b ab3c
000003a0: b9e6 e83c 98a0 16bd acee 813c 2145 023d
000003b0: 8520 f6bc 11e5 adbc 9618 b33a d01d e3bc
000003c0: 9258 1abc 6713 2dbd 8185 1ebd 5dac f2bc
000003d0: 77a7 6dbd 4fd1 363d 02b2 17bd bb58 0d3d
000003e0: db66 ab3c 6a28 8ebb 68ea e4bc 6f68 1abd
000003f0: 06be 003d ecf0 c3bc 3eb7 1ebd 8966 07bd
-0.02553015 0.026758613 0.024482854 -0.023321906 -0.014163784 0.00431504 0.022820882 0.044459447
-0.020015724 0.035719305 -0.031128287 0.008422602 -0.017106717 -0.035795644 0.022172071 0.027951328
-0.023888791 0.03650952 0.0303052 -0.03390473 -0.021273848 -0.037225995 0.042615723 0.035940822
-0.03787803 0.045842905 0.04117096 0.03208766 0.008672486 -0.03689557 0.0030741333 0.032391813
0.01805763 0.039677117 -0.01904308 0.037390556 -0.021444915 0.033760455 0.0473856 0.01707029
0.020776972 0.04059571 0.025723087 0.04726312 -0.013406397 0.037536442 0.023213213 -0.033053026
-0.022054804 0.049716223 0.019142231 -0.008879419 0.0523696 -0.018879522 0.036405183 -0.030183561
-0.032266434 0.040918343 -0.023644354 -0.014370496 0.02078443 0.034781586 0.048615392 0.009978968
0.010057265 0.02368906 0.023052832 -0.022276826 -0.041224826 -0.03151603 0.03183949 -0.009420085
0.026228348 -0.03213346 0.02769538 0.041740138 -0.049323134 0.016809009 0.043480333 0.03616408
-0.005831238 0.047436945 0.034142524 -0.025139354 0.03752067 -0.025917456 -0.03213583 -0.037063044
-0.020270599 0.024967374 -0.009554753 0.036647227 0.0062879208 0.036533505 0.05141328 0.036352213
-0.029460566 0.002863752 0.024550052 -0.03272767 -0.041789696 0.042981107 -0.022399118 -0.004741735
-0.026516164 0.037890684 -0.04521313 -0.02442402 0.022592809 0.04574766 -0.0030544712 0.023533465
0.022860473 0.04686513 0.046720307 0.042970393 0.036147863 -0.036132623 0.028009143 -0.033167146
-0.018419651 0.012171287 0.020063538 0.029783214 -0.021204242 0.031750463 0.031721447 0.037050392
0.042396367 -0.020117322 -0.015047385 0.005589487 0.03991844 -0.035929486 -0.037052184 -0.029615667
0.011335707 -0.04192141 0.02188326 -0.0066212513 0.030434946 0.023599539 -0.0063968427 -0.024412856
0.021876331 -0.046992946 -0.039911907 0.02803629 0.017324189 0.018441875 -0.04214791 -0.030170012
0.021384666 -0.033095576 -0.048140526 -0.031721514 -0.031752802 0.034574594 -0.0014143662 -0.03559058
-0.00448315 -0.05442292 0.018513158 -0.04819359 0.026518924 -0.03066016 -0.030389026 -0.023497023
-0.03257125 -0.01967405 -0.029281117 -0.031665448 0.022232989 -0.014952096 -0.04014428 0.032053154
0.026346292 -0.023683894 -0.025957298 -0.0054121404 -0.03704223 0.018181365 -0.037278607 0.02824459
0.009731693 -0.024416393 0.017796764 0.010160445 -0.0412363 -0.018626066 -0.032062773 -0.009992843
-0.016605927 -0.02817979 -0.021734431 0.01981765 0.036585305 0.028242456 -0.037892677 0.012293727
-0.02750556 0.040437862 -0.0026022366 -0.04946592 0.021508874 -0.017697068 -0.013628918 -0.041150764
-0.0017493226 -0.04837483 -0.03892001 0.029408732 -0.039787624 0.043467216 0.0380098 0.045074362
0.026131686 -0.01641 0.010905372 -0.039344978 0.0021184527 -0.040622108 -0.053073574 -0.030516857
0.03741081 -0.0070498143 -0.0371401 0.025281472 0.044704102 -0.02848414 0.022433035 0.020925505
0.02843033 -0.036774248 0.015860878 0.031804208 -0.030044803 -0.021227391 0.0013663943 -0.027724177
-0.009420531 -0.04225483 -0.038701538 -0.029623205 -0.058021035 0.044633206 -0.037034996 0.034508448
0.020923069 -0.004338314 -0.027943805 -0.037697252 0.03143122 -0.023918591 -0.038748972 -0.03305677

action_model._discrete_distribution.branches.2.bias f4 [2]
00000000: c444 783c c344 78bc
0.015153114 -0.015153113

exp_avg f4 [128, 6]
00000000: 22b5 dd38 e582 40b9 aa9e 3038 8bae b8b9
00000010: e1d3 90b9 f3c9 2338 2179 0b3a 9c11 0e3a
00000020: 8b13 f535 a910 8bb8 6085 e2b6 d475 9937
00000030: f278 8db9 95e1 7239 c233 bc38 508e db39
00000040: 7aa6 7739 018e d1b8 25f8 8a39 d408 21b9
00000050: 7095 16b8 85f2 eeb9 0a80 dab9 e6d2 23b7
00000060: 0e9f a8b9 9896 8437 2e03 c4b8 7ad8 df39
00000070: ac96 b539 1be2 28b6 7b16 6237 9a99 f8b7
00000080: 77f5 3d37 592c 19b9 1867 00b9 26c6 73b6
00000090: 7159 8739 960e 6539 4184 8a33 b7f7 9fb8
000000a0: 6c8e 47b8 5c13 0537 c588 7839 e5f0 57b9
000000b0: 2c72 2cb7 ac89 e7b9 1023 83b9 1465 0939
000000c0: 0950 ccb9 cf88 0b38 ed36 adb7 623d f539
000000d0: 1cc8 c639 aa55 c7b5 e3b4 6fba 62f4 3fba
000000e0: 79b8 3fb9 4004 9c39 886d 2239 70c3 06b8
000000f0: 99d9 bc37 2149 88b9 12a8 d237 0c40 9fb9
00000100: e606 8ab9 c533 7537 d022 64b9 de71 a8b8
00000110: 2603 9738 9c79 ba38 2473 5838 1e5d 6fb7
00000120: 6a36 29b8 17df 0ab8 2b51 a7b7 556a 83b8
00000130: de63 77b8 562c b7b6 a541 36ba 7897 80b8
00000140: f22c 21b9 ab01 383a f3ae f639 930f d9b8
00000150: a1dd eab7 162c 9739 43f4 86b5 192a 8639
00000160: 3cb5 3739 af24 79b8 6beb 28ba 1853 9a37
00000170: 5c71 a2b8 f84a 373a c135 0e3a 9c24 2fb8
00000180: 7d83 42b8 6d4f 3db9 3773 4bb7 b415 29b9
00000190: 4214 f5b8 1e31 4d37 71e7 5bb9 3b39 04b9
000001a0: 1475 f9b7 f767 ec38 df3d 6438 e6cc 29b7
000001b0: f7df 71b9 1730 d739 82f9 d6b7 1e99 2b3a
000001c0: 9261 fe39 3bea ccb8 740c 94b9 b4c1 093a
000001d0: cf23 8837 d747 4a3a 55ce 143a 60a9 cab8
000001e0: 2737 043a dbbf 1f38 388c f5b8 11e8 85b9
000001f0: b1c5 43b9 888d 3f38 b3e7 3d36 3065 96b9
00000200: 6648 2937 4ba4 bbb9 bab4 91b9 d439 1238
00000210: 8013 2139 ad7b 13b9 3750 1937 0723 9bb9
00000220: 015b 7fb9 1db0 8b37 580a b3b9 93f9 49b9
00000230: 1428 8137 d609 a238 1705 36b9 6baf cbb8
00000240: 438d 82b9 34f9 d0b9 9265 84b8 deb1 acb8
00000250: 2cc1 9cb8 1754 1638 b107 4d37 80ea 1538
00000260: db6c 0c37 a47b fbb6 87e9 92b6 8592 2536
00000270: 94d0 d639 202d 3cba 48b7 36b8 b913 8cba
00000280: 6e37 66ba 2abc 0639 c8cd 52b9 e628 7a3a
00000290: f3e2 f237 e0bc 993a 2004 5c3a 1fb6 12b9
000002a0: 4e98 a0b8 e611 23b7 3479 7436 9837 95b8
000002b0: 5130 08b8 bdf8 50b7 737f a4b8 8b33 8ab7
000002c0: 5857 ccb7 25a1 05b8 7190 6eb7 a429 a8b5
000002d0: 183b 0638 d768 07b9 d966 3938 52fe 42b9
000002e0: 189b 17b9 e262 5837 2c2e bf38 9645 a8b8
000002f0: 8cfc 3ab7 aac8 dab8 e388 f8b8 a986 f5b6
00000300: 92cc 173a 4176 00ba 5f3f afb8 9153 80ba
00000310: 19a1 51ba e77f e538 6a98 9838 b745 1738
00000320: fde8 4d37 019c 23b9 79a9 10b9 c9f2 44b7
00000330: 620e ad39 85b1 b3b9 8dfb 15b8 7ebf 14ba
00000340: 0643 c4b9 6881 f138 bc5e 3439 e6ec acb7
00000350: a52b 7634 a916 67b9 d5e8 32b9 d9aa 1638
00000360: d066 6b38 85fe 13b9 6517 f835 0c0d 98b9
00000370: 579d 86b9 1594 90b5 5e14 9fb9 1042 d0b9
00000380: 6d26 8bb8 73b6 5ab8 9e97 83b8 61f2 0d38
00000390: 34d8 3d36 961c 17b8 e79d 6038 96b3 99b8
000003a0: 3b73 2cb8 a1fd 8337 1ffe ec38 8ceb 18b8
000003b0: 0fb0 dab8 bfa7 f0b7 e385 4d37 dc26 1338
000003c0: afcd 9637 1b47 21b7 2c3b 3434 0d5f b4b8
000003d0: 7573 b6b8 2e2d c6b6 b576 0aba b5b3 a8b9
000003e0: eeec abb8 12b2 7d39 8727 2239 8e5d 14b6
000003f0: b443 cdb9 f011 ae39 f209 4236 7fb5 3b3a
0.0001057184 -0.00018359309 4.2109437e-05 -0.0003522526 -0.00027623682 3.905031e-05 0.0005320479 0.0005419494
1.825961e-06 -6.63114e-05 -6.7508518e-06 1.829389e-05 -0.00026983727 0.00023162954 8.974179e-05 0.00041876966
0.00023617773 -9.992347e-05 0.00026506293 -0.00015357445 -3.590196e-05 -0.0004557559 -0.00041675597 -9.764661e-06
-0.00032161962 1.5805752e-05 -9.3466006e-05 0.00042695162 0.0003463527 -2.5165562e-06 1.3475884e-05 -2.963543e-05
1.132243e-05 -0.00014607738 -0.00012245437 -3.632516e-06 0.00025815846 0.00021844576 6.4501826e-08 -7.627851e-05
-4.7577938e-05 7.931925e-06 0.00023702074 -0.00020593738 -1.0278582e-05 -0.00044162327 -0.0002501239 0.00013102993
-0.00038969543 3.3267595e-05 -2.0648784e-05 0.00046775775 0.00037914596 -1.4851587e-06 -0.00091440807 -0.00073224877
-0.00018283901 0.00029757805 0.00015490327 -3.2130105e-05 2.2512673e-05 -0.00025994427 2.5112215e-05 -0.00030374562
-0.0002632655 1.46151915e-05 -0.00021756743 -8.032074e-05 7.2008275e-05 8.891823e-05 5.1605646e-05 -1.4267191e-05
-4.0343417e-05 -3.3109533e-05 -1.9945748e-05 -6.266373e-05 -5.8982398e-05 -5.4589864e-06 -0.0006952531 -6.131729e-05
-0.000153709 0.00070192915 0.00047051124 -0.00010350267 -2.7998178e-05 0.0002883381 -1.0054868e-06 0.00025589837
0.00017519755 -5.940039e-05 -0.00064437714 1.8396924e-05 -7.745877e-05 0.0006992067 0.000542488 -4.1757346e-05
-4.6375662e-05 -0.00018054033 -1.2126568e-05 -0.00016125181 -0.00011686284 1.2230388e-05 -0.00020971686 -0.00012609821
-2.9737632e-05 0.00011272722 5.4417058e-05 -1.0120892e-05 -0.00023066984 0.00041043825 -2.5626974e-05 0.00065459486
0.0004851935 -9.771107e-05 -0.00028238038 0.0005254999 1.6229138e-05 0.00077163934 0.0005676498 -9.663659e-05
0.0005043619 3.8087233e-05 -0.00011708628 -0.0002554064 -0.00018670295 4.566976e-05 2.8298061e-06 -0.0002868562
1.00900415e-05 -0.00035789827 -0.00027791207 3.486297e-05 0.00015361421 -0.00014065085 9.138187e-06 -0.0002959
-0.00024352597 1.66521e-05 -0.00034149247 -0.00019261827 1.5396661e-05 7.726594e-05 -0.00017358769 -9.7124685e-05
-0.0002490078 -0.00039858522 -6.3131694e-05 -8.2347295e-05 -7.474641e-05 3.58411e-05 1.2220743e-05 3.5742763e-05
8.369995e-06 -7.4947766e-06 -4.3783252e-06 2.4672202e-06 0.00040972664 -0.0007178355 -4.3562875e-05 -0.001068703
-0.00087820634 0.00012849332 -0.0002010382 0.00095428375 2.895433e-05 0.0011729263 0.00083929487 -0.0001399149
-7.6577635e-05 -9.719724e-06 3.6429383e-06 -7.115229e-05 -3.2469925e-05 -1.245568e-05 -7.843869e-05 -1.6474884e-05
-2.4359368e-05 -3.185975e-05 -1.4219536e-05 -1.2529094e-06 3.2003125e-05 -0.00012913659 4.420322e-05 -0.00018596023
-0.00014458259 1.2897626e-05 9.11619e-05 -8.023826e-05 -1.1145265e-05 -0.00010432427 -0.00011851059 -7.3172455e-06
0.0005790676 -0.00049004337 -8.356454e-05 -0.000979053 -0.00079967227 0.000109433946 7.276314e-05 3.6066132e-05
1.2273199e-05 -0.00015603007 -0.00013796044 -1.1739038e-05 0.00033007847 -0.00034273803 -3.5758643e-05 -0.00056742865
-0.0003743397 0.00011515879 0.00017201429 -2.0614312e-05 2.2926413e-07 -0.00022038318 -0.0001706214 3.59219e-05
5.6124118e-05 -0.00014113828 1.8484249e-06 -0.0002900142 -0.000256757 -1.0771934e-06 -0.00030342018 -0.00039722072
-6.635194e-05 -5.214517e-05 -6.274808e-05 3.3842753e-05 2.8289041e-06 -3.6027828e-05 5.355282e-05 -7.329059e-05
-4.1115312e-05 1.5734522e-05 0.00011300691 -3.6458994e-05 -0.000104278435 -2.8688342e-05 1.2250125e-05 3.508372e-05
1.7977172e-05 -9.612903e-06 1.6785333e-07 -8.6007734e-05 -8.699942e-05 -5.9061194e-06 -0.0005281971 -0.0003217735
-8.198047e-05 0.00024194297 0.00015464249 -2.2108175e-06 -0.0003915109 0.0003320123 2.8914042e-06 0.0007160529
