results/PressButton/IL-ex0.1-gail1.0-bc1.0/PressButtonAgent/PressButtonAgent-19981.pt (torch, 533134 bytes, 54 tensors)

discrete_act_size_vector f4 [1, 3]
00000000: 0000 4040 0000 4040 0000 0040
3.0 3.0 2.0

network_body._body_endoder.seq_layers.0.weight f4 [128, 6]
00000000: 8dad 043e d5c7 b13e eb79 f83e b206 6cbe
00000010: 9c40 0c3d 58bc d63e bcb1 053e e6f7 f8be
00000020: ac02 8ebe 6ccc 383e e055 323d 2d32 b33e
00000030: 6e3a 483f 6554 8cbe 058a 31bf 2119 7dbe
00000040: 82b1 323f 39cc 22be c260 4cbf 13d6 18bd
00000050: e85e e7bd dba5 99be 7528 d53e 91b9 533e
00000060: 3b35 00be 36d8 f73c 7c0f bd3e 92a6 a8bd
00000070: 5f73 11be a02e afbe 7305 f0be a69e 29bf
00000080: c3e7 d1be 012c b33d 1c50 9cbe b01c 433f
00000090: c8b4 24be 7278 cf3c f3bc c83e dc26 823f
000000a0: efa9 d13e 6a65 76bd daf9 ee3d 0b38 5f3e
000000b0: 5e8b a43e 7cdf 163f a20b 11be b08a 46be
000000c0: 32b5 5fbd f0d3 b43e 27de 443f 58cb bebe
000000d0: 2d97 1cbe 917b d93d cf73 dc3e c8e0 72bf
000000e0: b26a 9dbe 61c1 b1be 7377 90bd da35 a13d
000000f0: ef6f fd3c d273 23bd 25cd bbbd 5eea a4be
00000100: bd49 533c 58a5 80bf d688 193e 80e3 c6bd
00000110: dd78 e93e 489d 8d3e 9a64 c6be 712e 16be
00000120: f405 2abf 17fc d7be bdce a6bd 6ea3 d4bd
00000130: 88b5 8b3e 628f ad3e e510 c93d 0df3 313b
00000140: c9dd 663e e45d d1be e76f 06bf 11ff 71be
00000150: 6cd1 13bf 1d31 783e 9442 0a3e ecef af3e
00000160: 9aa2 1cbd 49c8 573f ae49 743e 9473 07bf
00000170: bc6e f6bc 81d8 7a3f 5a1d 71be 448a cc3e
00000180: 1c65 713e e833 df3d 9027 e1be 2457 8d3e
00000190: f09d 763e 196d aabd ff30 c6be 1582 3bbe
000001a0: 1626 983e 8b45 193f 1857 dd3e 2739 05bf
000001b0: 9213 9b3e f695 f83e 79a0 5bbe b43d 93be
000001c0: d3eb bd3e d933 85bd 054c c9bd 72cc 8e3e
000001d0: 6f89 45be b786 b5be fe64 e13e ce15 b8be
000001e0: 154f 1fbf d620 9f3e 4616 1b3e 69ed 283d
000001f0: 6770 843d ed54 7e3e 6c24 24be df1e e73e
00000200: 209b 153f f16f 793f 9054 ccbd 6f3d cdbe
00000210: 3a38 ca3f 5694 bcbc 6803 e43e 05b5 2cbf
00000220: 08dc 8e3e 9759 883d 975b b0bd d784 a43e
00000230: d0f8 87be 2fc5 2b3d a0f0 90be 0606 fa3d
00000240: a000 92bd af3a 53bf c95b ce3e dc92 063f
00000250: b860 4e3e 16a8 973d 2718 363f 26ea 81bf
00000260: 301d 84bd c45c b63e e21a bdbe 8501 a0be
00000270: cb4b 21bc fb1b f4be 4fb4 b8be 414d b33d
00000280: a053 553e ebc8 24bf 03fc 04bf bbc3 093e
00000290: c2ee 963e 998d 933e c30c b1be 8fda af3e
000002a0: e4b1 d13e b090 7bbe b35f 99be 71f5 e43d
000002b0: ac36 e03e ddb7 273f e994 be3d 880a 183f
000002c0: f351 573d a7ef 2a3f 867f c8be d5ac 1a3f
000002d0: 630c c2be 4c5b 0f3f 5c66 04bd 7eb4 20be
000002e0: 63d0 d7bc 3045 febd 7c6e 323f 93ca fd3e
000002f0: 94a1 e4be 83ac 133e fc14 593e 4681 b13d
00000300: 2fe8 00bf 57a6 123e 220f c73e 950b 163f
00000310: 6505 47be db9b 963f 7b17 ee3e dae8 5bbf
00000320: bec0 89be 3171 e03e 991d 893e 59b7 bc3e
00000330: 0327 d0be 853c b0bd 7a67 01be 12b7 87bb
00000340: 49b1 9fbe a0f2 803f e455 553e a1b6 b03e
00000350: d251 ffbe 0630 f6bd 7ef5 3b3f dc14 213e
00000360: e2b3 703e 33f6 b53e f865 85bf bc0a 753e
00000370: 16be 49be 5baf 0cbf 87b6 f4be e00f 373e
00000380: 2061 323e d2e1 2cbf a8ba 9c3e 2b5d 58be
00000390: 4eb3 2ebf dd5d 7d3d 7720 3d3c ad8a 943e
000003a0: c17a fa3e b815 263f 6ef9 90be 405e 29bf
000003b0: 82d7 203f 7b51 b9bd c387 f73e 2175 673f
000003c0: 5fdc 073f cb1a b33e 8324 683e d484 98be
000003d0: 632f cfbe 589c 89be c029 1bbf fc4c 4f3e
000003e0: 308b 3f3e e0fb 983e fe59 3a3f 8505 343e
000003f0: 4668 2c3d 85b9 4cbc 7586 a9be fc19 cebe
0.1295683 0.34722772 0.48530516 -0.23049429 0.034241304 0.4194057 0.13056082 -0.48626631
-0.27736413 0.18046731 0.043538928 0.3499922 0.78214157 -0.27408138 -0.69351226 -0.24716617
0.69802105 -0.15898217 -0.7983514 -0.037313532 -0.11297399 -0.3000935 0.4163243 0.20676257
-0.12520306 0.030254465 0.36925876 -0.08234896 -0.14204167 -0.3421526 -0.46879157 -0.66257703
-0.40997133 0.087486275 -0.3052987 0.7621565 -0.16084588 0.025325987 0.39206657 1.0168109
0.40949962 -0.06015531 0.11668749 0.21798722 0.3213758 0.5893476 -0.14164594 -0.19388843
-0.05461616 0.35317945 0.7690148 -0.37264514 -0.15292044 0.106192715 0.43057105 -0.9487424
-0.30745465 -0.3471785 -0.07054033 0.078715995 0.030937163 -0.039905377 -0.091699876 -0.32210058
0.012895999 -1.0050459 0.14993605 -0.09711361 0.45600024 0.2765906 -0.38748628 -0.14666153
-0.66415334 -0.42184517 -0.08144901 -0.10382734 0.27286935 0.33898455 0.098176755 0.0027152926
0.22545542 -0.40891945 -0.525145 -0.23632456 -0.5774143 0.24237485 0.1350196 0.34362733
-0.038241006 0.84289986 0.23856232 -0.52910733 -0.0300821 0.9798661 -0.23546353 0.39949238
0.23573726 0.10898572 -0.43975496 0.27605546 0.24083686 -0.0832159 -0.38709256 -0.18311341
0.29716557 0.5987174 0.4323051 -0.5204033 0.30288368 0.4855191 -0.21447934 -0.28758013
0.37093982 -0.0650403 -0.09828953 0.27890354 -0.19290708 -0.35454342 0.44022363 -0.35954136
-0.62230045 0.3107974 0.15145215 0.041242037 0.064667515 0.24837084 -0.16029519 0.4514074
0.58439827 0.97436434 -0.099770665 -0.40085933 1.5798409 -0.02301995 0.4453385 -0.67463714
0.27902246 0.06657713 -0.086112194 0.321326 -0.26557016 0.041936096 -0.28308582 0.1220818
-0.071290255 -0.8251142 0.40304402 0.5256784 0.20154083 0.07405107 0.71130604 -1.0149581
-0.064508796 0.3561765 -0.36934572 -0.3125116 -0.009844731 -0.47677597 -0.36075065 0.087549694
0.20832682 -0.64369076 -0.5194704 0.13453571 0.29479033 0.28818968 -0.3458005 0.34346434
0.40956032 -0.24566913 -0.29955825 0.11179627 0.4379171 0.6551493 0.09305746 0.5939107
0.052568387 0.6677193 -0.39159793 0.6041997 -0.37900075 0.5599868 -0.03232418 -0.15693852
-0.026344484 -0.1241554 0.69699836 0.49568614 -0.44654524 0.14421277 0.21199411 0.08667235
-0.50354284 0.14321266 0.38878733 0.5861142 -0.19435652 1.1766313 0.4650229 -0.8590218
-0.26904863 0.43836358 0.26780394 0.36858633 -0.40654764 -0.08605293 -0.1263713 -0.0041416967
-0.31189945 1.0074043 0.20833546 0.34514335 -0.4986711 -0.120208785 0.73421466 0.15730613
0.2350612 0.35539398 -1.0421743 0.23929876 -0.19701418 -0.5495507 -0.47795507 0.1787715
0.17419863 -0.67532074 0.30611157 -0.21129291 -0.6824235 0.061857093 0.011543385 0.2901205
0.4892178 0.6487689 -0.283153 -0.6615944 0.6282884 -0.09048744 0.48345765 0.904131
0.53070635 0.3498138 0.22670178 -0.2978884 -0.4046584 -0.26877093 -0.6061058 0.20244211
0.1870544 0.29879665 0.7279357 0.1758023 0.04209163 -0.012495403 -0.33110395 -0.402542

network_body._body_endoder.seq_layers.0.bias f4 [128]
00000000: fb41 123d ed91 89bc ee12 803d baf7 30bd
00000010: ca10 4e3c d11f 8c3c 0486 de3c 62fa d23c
00000020: 1210 213d a42a 25bd ef26 71bc aafa ca3c
00000030: f302 e2bc 273b eabc 430f c83c b389 5e3b
00000040: 6903 413d f2c0 ddbc 96bd 533d d147 2ebb
00000050: 72af 943c b463 703c c329 1f3d 2773 0b3d
00000060: a4f9 05bd 3f57 9abc a0aa 2ebd eb85 093d
00000070: e921 2dbc 8a31 1c3c 936e 133b e642 453d
00000080: 8278 0f3d 8c6d 05bd 2ada 733b 7b50 5e3d
00000090: 3d99 473d b8e4 3abd c27b 6bbc 68fb d8bc
000000a0: ac32 903c 78fc 5ebc b2fb 70bc bd8d 70bc
000000b0: abdb e9bb 9c35 5ebd 94ed 303d 02cc 88bb
000000c0: 14d5 483d 0580 05bd 03fb bebb fd20 533d
000000d0: 7e20 acbb ec78 253d 5e92 1d3d 363e 6fbb
000000e0: 5c0a a5bc be96 873c 2e5f e73c 7e8b 373d
000000f0: bd7e c53c 4ae6 933c 4615 423d 0967 49bc
00000100: 5ec7 293d 8380 c23c 6bae 0d3d 7fc3 053d
00000110: ad52 ad3c abd1 4d3c 9761 a93c c1e4 0c3d
00000120: 2820 e03a ecf3 c7bc deac de3c 8d62 873c
00000130: 7b98 2b3c 109f 383d d5ac b63c 547f 3f3c
00000140: 5972 8a3c d87f fc3c bda7 4c3d 11cd 183d
00000150: 36f1 3e3d 6091 c639 4f02 09bd f734 073d
00000160: 3a38 e73c d356 33bc 3b86 253c 240f a6bc
00000170: 904d 04bd 6c1e ab3c 2e6d 983c 40cf 183d
00000180: 9cf8 243d 85c2 003d 53f2 1e3d 606d 1e3d
00000190: 26d4 573d 18a3 253d 3fb8 483d 6151 143d
000001a0: 5bf8 a8bc ae2b 00bc fccd 563d 32d4 16bd
000001b0: 901f 293d c87a febc 7b3a 093d 3a92 8a3c
000001c0: 2609 fabc c4a3 33bd bdf2 33bd ea90 0e3c
000001d0: 9479 ec3c e2cd ea3c cf36 d63c f843 c8bc
000001e0: cea5 ddbc cfbd 1bbd c7dc 89bc 136c 193d
000001f0: aff9 763d 4e26 8ebc adac 243d 27e6 21bd
0.035707455 -0.016793216 0.062536106 -0.043205 0.012577245 0.017105015 0.027163513 0.025754157
0.039321966 -0.04032387 -0.014718755 0.024777729 -0.027589297 -0.02859266 0.02442134 0.0033956587
0.047122393 -0.027069543 0.051694475 -0.00265931 0.018150065 0.014672209 0.038858186 0.034045365
-0.03270878 -0.01884043 -0.04264319 0.03357498 -0.010567167 0.009533295 0.0022496327 0.048159502
0.035027035 -0.032575175 0.0037208893 0.05427597 0.048730124 -0.04562828 -0.014372768 -0.026487067
0.017602287 -0.013609998 -0.014708446 -0.014682231 -0.007136782 -0.054250345 0.043195322 -0.0041747103
0.049031332 -0.032592792 -0.005828263 0.051545132 -0.005252897 0.040398523 0.038469665 -0.0036505586
-0.020146541 0.016551372 0.028243627 0.044810764 0.024108285 0.018054146 0.04738357 -0.012292632
0.041449897 0.02374292 0.034590166 0.032657143 0.021157587 0.012562196 0.020676417 0.034397844
0.0017099427 -0.024408303 0.027182039 0.016526485 0.010473366 0.04507357 0.02229921 0.011688072
0.016900228 0.03082268 0.049964655 0.03730494 0.046616755 0.00037873816 -0.033449467 0.033009496
0.028225053 -0.0109459935 0.010102804 -0.020270891 -0.032300532 0.02088853 0.018606748 0.037307024
0.040276155 0.03143551 0.038805317 0.038678527 0.052692555 0.04043874 0.049003836 0.03621042
-0.020626238 -0.007822914 0.052442536 -0.03682346 0.041289866 -0.031064406 0.033503037 0.01691543
-0.03052194 -0.04385735 -0.043932665 0.008701542 0.028866567 0.028662626 0.026149182 -0.024446473
-0.0270566 -0.038022812 -0.016828908 0.037456583 0.06029671 -0.01735225 0.04020374 -0.03952613

network_body._body_endoder.seq_layers.2.weight f4 [128, 128]
00000000: aa04 f2bc 7b49 d03b 99bf 573d 78cc a93d
00000010: 6c3f 143e ec8f ef3b 5837 993d bcf5 79bd
00000020: c84f 90bc 0afa 2abb 1408 4b3e c6c9 ebbd
00000030: e3da b13d 5eab 05be f98f c43d dcd1 b63d
00000040: 9340 403c dde0 6b3e 9f9e 05be ebb4 3f3c
00000050: ea52 683d 0870 9ebd 5e8d 86bd b514 253d
00000060: 3c17 99bc 272e 033d 10ec d33c ab13 ce3c
00000070: de14 81bc 8790 d2bd b7f7 98bd 7495 bebd
00000080: ae1c fd3d bfba eabd 5256 fa3a 1ae9 92bd
00000090: 2523 2bbd 762e 8a3d e0ae 103a 3184 62bd
000000a0: bd8a f1bd 362f f23d 4351 343c 596b 07be
000000b0: a55a a9bc b526 f03c 15e9 62bb 1c35 1b3d
000000c0: 5e79 66be 1036 263b bd6c 563e c956 f33d
000000d0: 74cd 183d dcee 0e3e a34a 20be bbd9 aebd
000000e0: 7e29 143d 0fb5 f9bc 38d1 c13c 217e 40bd
000000f0: 4160 8dbd de46 19bd 6b2a 9ebd bbb4 a13d
00000100: aaa4 4abe 914d 653d c783 483c c5e3 07bc
00000110: d673 3e3c 5387 81bd 6628 9abd 9129 de3c
00000120: 179e 91bc b719 c43d 6889 f53c 0276 91bc
00000130: 82a9 1dbe 13cb 403d 0838 20bd 8c93 0cbe
00000140: 985f 16bd 734c 31be ed76 333d 9eb3 8d3d
00000150: 62b8 03bd 4144 3c3d d8de d03d 36b1 42be
00000160: 9781 b83c 3c91 55bd 3958 adbd 0aa7 fdbd
00000170: d44a d6bc c056 2ebe 0d68 f3bc ca46 9bbd
00000180: 826c efbc 511a a9bd bfd7 d3bd 6466 4bbc
00000190: 5b7c 5fbe 619c e03b 04ff 89bd 88e2 a0bc
000001a0: 2d95 f93c 6ae6 5cbd 4e85 16bc a134 183e
000001b0: 1d02 e13c 78f8 f5bd 5a0f 543d 5fe0 fbbd
000001c0: a77a 68bd 4449 22bd 335b 40bd 9d9d 113e
000001d0: 4c53 1b3e e4cd 0d3c 659f 85bc d45c 57bc
000001e0: f3c8 ba3c 3814 243d 432f 37be 20fd 59bd
000001f0: f465 ab3c 5946 5fbd bb6e 813d f4b3 00bc
00000200: c20e f1bd 18a5 db3b ed21 ef3d 7760 95bd
00000210: afe9 a13c 1030 4abd a0cb be3d 8175 643e
00000220: 3a05 d0bd 94cd 113d 0d60 c5bd 12d3 53bd
00000230: ee9c 76bd ccff 0fbd adcf 103e 9974 8a3d
00000240: aabf 843d aa01 353e 2b74 74bd 487a 65bd
00000250: 8224 b03d 0d81 26bc 499a 0d3e cc54 19bd
00000260: a41a ef3d b7d3 b7bd 7cf4 f5bb 6e85 373d
00000270: 7356 87be dca8 bb3c 2820 213d 4d5c 1abd
00000280: 8b4c dc3b 5b5d 613d d708 a33d f1e7 ac3c
00000290: 80cb 853c ce34 b63d 9cec 283c 81cb 653d
000002a0: 6f73 c2bc 2595 3abe c990 673d 41d7 e33d
000002b0: a2a5 12bd dc9a b13c e8ee 45bd 31c7 26be
000002c0: d0d9 06bd 7455 b8bc e9cc 6cbc bbe1 42be
000002d0: 0a74 fdbd 2a69 a63c 3411 e03d 1ffe c7bd
000002e0: ae05 d0bc 9cee 433c 5d0c 15bd 82ad 57bb
000002f0: eafc 323d cf73 1a3e ae68 f93b 909a 923c
00000300: 8970 fbbb da70 333e 03a3 793d f285 1ebe
00000310: 9540 18bd dccd 56bd 177e 613d c343 3a3e
00000320: 444f 323e d952 153d 0059 dc3b 9098 183e
00000330: 62d1 003e 31a4 ee3d abee 0c3d fa9a bdbd
00000340: 430c b13d b027 89bd f343 e5bd a9d4 a23d
00000350: dad5 e33d 2254 703d 74d1 4b3c 53d8 f2bc
00000360: b63a 843c 42f9 8fbd 2040 2a3d 0109 cbbd
00000370: 4350 8dbc 1e22 373e 92a4 093d 6d60 9abc
00000380: 0de5 18bc 3cd7 a63d f3b1 5fbd 3524 0a3e
00000390: 3d0a 60bd ac5d 62bd d334 253c abca 29bd
000003a0: 639e 413d 09f1 003d b3c9 53bc 7dc8 efbd
000003b0: 07b9 bcbd 3a0b 0d3d 0e24 03be ea9b aebc
000003c0: 0afd 12bc e000 a1bd ee15 2c3d 664b af3d
000003d0: 63af d83c 1244 34be 3461 64bd b36c 143c
000003e0: 1e9a 263d e118 d9bc f2c6 3f3d 747b 213c
000003f0: b46d 59be 0967 f8bc d744 9b3d 835a 8ebd
-0.02954324 0.006356416 0.052672956 0.082909524 0.14477319 0.007310858 0.07481259 -0.061025366
-0.017616168 -0.0026088976 0.198273 -0.115130946 0.086843275 -0.13053653 0.09597773 0.08926746
0.011734146 0.23034997 -0.1304879 0.011700849 0.056719698 -0.07736212 -0.065699324 0.04030295
-0.018687837 0.032026436 0.0258694 0.025155863 -0.01575702 -0.10281473 -0.07469123 -0.0930585
0.12358986 -0.114614 0.0019099212 -0.07173367 -0.041781563 0.06747143 0.00055192225 -0.05530185
-0.1179404 0.11825411 0.011005702 -0.13224544 -0.020673105 0.029315332 -0.003462379 0.037892446
-0.22507235 0.0025361814 0.20939918 0.11881787 0.03730531 0.13958305 -0.15653472 -0.085376225
0.036172383 -0.030481843 0.023659334 -0.046995286 -0.069031246 -0.0374211 -0.07722934 0.078958
-0.19789377 0.055982176 0.012238449 -0.008294051 0.011624297 -0.06324639 -0.07527237 0.02711943
-0.017775578 0.09575217 0.029972747 -0.017756466 -0.15396693 0.047068667 -0.039115936 -0.1372816
-0.03671226 -0.1731432 0.04381459 0.06919025 -0.032158263 0.04596353 0.10198754 -0.19012913
0.02252273 -0.05214046 -0.08464093 -0.12385376 -0.026158728 -0.1702528 -0.029712701 -0.07581861
-0.029226545 -0.082569726 -0.10343885 -0.012414549 -0.21824782 0.0068545793 -0.067380935 -0.019639269
0.03046664 -0.053930677 -0.009187056 0.14863826 0.027466828 -0.12010282 0.051772453 -0.12298655
-0.056757595 -0.039620653 -0.046961974 0.14220281 0.15168494 0.008655045 -0.016311357 -0.013144691
0.022800898 0.040058345 -0.17889123 -0.053219914 0.020922638 -0.054510448 0.06319948 -0.007855404
-0.11770393 0.0067030303 0.11676393 -0.0729379 0.01976475 -0.049362242 0.09316182 0.22310449
-0.10157247 0.035596445 -0.09637461 -0.051714964 -0.060208254 -0.035156056 0.14141722 0.067605205
0.064818695 0.17676416 -0.0596811 -0.05602482 0.08600713 -0.010162604 0.13828386 -0.037434384
0.11675003 -0.08975928 -0.0075059514 0.044804983 -0.26433143 0.022907667 0.039337307 -0.03768568
0.006722992 0.05502067 0.079606704 0.021106692 0.016332388 0.088967904 0.010310318 0.05610228
-0.023736684 -0.18220957 0.056534562 0.11125041 -0.03580249 0.021680288 -0.048323542 -0.16286923
-0.032922566 -0.022501685 -0.014453151 -0.19031422 -0.12375648 0.020313818 0.10940781 -0.097652666
-0.025393333 0.011958744 -0.036388744 -0.0032909815 0.04369823 0.1508324 0.0076113557 0.017895967
-0.0076733273 0.17523518 0.060946476 -0.15480784 -0.037170965 -0.052442417 0.05505189 0.18189912
0.1741305 0.036455963 0.006724477 0.14901948 0.12579873 0.11652411 0.0344073 -0.09258075
0.08644917 -0.06697023 -0.11194601 0.07950718 0.11124773 0.058673985 0.012440074 -0.029644167
0.016141277 -0.07029964 0.04156506 -0.09913827 -0.017250186 0.17884108 0.033604212 -0.018844808
-0.009331954 0.081465214 -0.054613065 0.13490374 -0.054697264 -0.055265114 0.010083395 -0.041453045
0.04727019 0.03147987 -0.012926507 -0.11708162 -0.09214979 0.034434535 -0.12806723 -0.02131458
-0.008971462 -0.07861495 0.0420131 0.08559303 0.026450818 -0.17604092 -0.055756763 0.009059119
0.04067432 -0.026501121 0.04682059 0.009856094 -0.21233255 -0.030322568 0.075814895 -0.069508575

network_body._body_endoder.seq_layers.2.bias f4 [128]
00000000: e3b8 8ebc 5393 ce3b 87da c93c 318c 0f3d
00000010: 1a57 fc3c 18a6 0b3d ebfa c63c 6b3f d93c
00000020: cc56 a0bc 05a3 7cbc a3d4 b4bc 96b9 85bc
00000030: 8f8a 863c 3629 b4bc d879 c03a 042b 0abd
00000040: 2cd3 7abc 08d2 b2bc f301 e2bb 96d8 4c3c
00000050: 9ea4 26bb d324 673d 81cb f83c 8a10 84bc
00000060: 17ce c7bc 1e4e 513d 5700 02bd a391 553d
00000070: ad6b f5bc 5c46 383d 0b00 cfbc 1f37 503c
00000080: 9977 d2bc f35e d9bb 19f7 413d 38d6 45bc
00000090: 32a8 adbc 31a2 12bd 8a40 a23a 9994 b0bb
000000a0: d1f7 f6bc adf1 933c f483 fb3c 9366 febb
000000b0: 7560 fb3c 0bd4 d7bc c21b cc3c 74d8 e6bb
000000c0: 0845 a23c a0f6 a3bb cc65 4a3d 643b 03bd
000000d0: 8766 33bb 9215 0a3d edf1 5a3c cac1 0d3c
000000e0: f508 f2bc 957d 313d 4b44 0e3d 3cda 96bc
000000f0: 6dc7 563c 14a6 843c 80b5 3c3d c894 a6bb
00000100: 3876 363c 587c bf3c a224 c7bc 7354 c73c
00000110: 287a bcbb 90fa 08bd e0b3 9e3c 7c9f 9fbc
00000120: 2812 b8bc 6ac2 9dbc 9e6b a2bc 8135 b0bc
00000130: 9541 063b 7a91 9c3c 2dcb 9cbc 37c9 6a3b
00000140: a1b9 253d a7ba 343d b18b a03c 6b3a b9bc
00000150: 5986 f43c ba9a 91bc 6231 e0ba a533 093d
00000160: 6b78 653d db98 2a3d 18df 8e3c c7c5 003d
00000170: dee9 e83c 9556 933b 194f 303d 2fa1 e03c
00000180: e820 073d afee b6bc 1973 da3c 1af8 aeb7
00000190: e42e cc3c 14a5 cc3c cf7b bcbc c169 2f3d
000001a0: 9844 cf3c 039f a9bc 0d79 913c 25f3 123d
000001b0: 60f4 0a3d 6e54 353d 869a c03c 85ae 0cbd
000001c0: 26a2 ed3c 288a d03c 9f26 023d f11b e93c
000001d0: 84a3 66bc 192f f8bc 6806 fe3c 5960 4e3c
000001e0: d85c ebbc 53b3 d23c cfa6 853b 0c4e b33c
000001f0: 6ca0 f43c 35e3 f03b 58b2 87bc 5fa6 a83b
-0.017422145 0.0063041835 0.024640335 0.035045806 0.030803252 0.034093946 0.024289569 0.026519498
-0.019572638 -0.015419726 -0.02207405 -0.016323846 0.016423492 -0.021992307 0.001468475 -0.03373243
-0.015309136 -0.021828666 -0.006897205 0.01250281 -0.002542771 0.056431603 0.030370476 -0.016121168
-0.024390263 0.05109989 -0.031738605 0.052140843 -0.02995857 0.044988975 -0.025268575 0.012708454
-0.025691794 -0.0066336333 0.04735479 -0.0120749995 -0.021198366 -0.03579921 0.0012378853 -0.005388808
-0.030147465 0.018059576 0.030702569 -0.0077636926 0.030685643 -0.026346227 0.02491558 -0.007044846
0.019808307 -0.005003765 0.049413487 -0.03203906 -0.0027374343 0.033711977 0.013363344 0.00865216
-0.029545287 0.043332655 0.034733098 -0.01841461 0.01310907 0.016192473 0.04607153 -0.005083654
0.011136584 0.023374721 -0.02430946 0.02433226 -0.005751867 -0.03344208 0.01937288 -0.019485228
-0.022469595 -0.019257743 -0.019826706 -0.021509888 0.0020485867 0.019112337 -0.01913985 0.00358255
0.040460233 0.044123318 0.01959786 -0.022610864 0.029849218 -0.017773975 -0.0017104561 0.033496518
0.056023043 0.04164968 0.017440364 0.031438615 0.028431829 0.0044964054 0.043044183 0.027420608
0.032990366 -0.02233061 0.026666211 -2.0857948e-05 0.024924703 0.02498106 -0.023008255 0.042825464
0.025301263 -0.020705706 0.017757917 0.035876412 0.03392446 0.04426997 0.023511183 -0.034346122
0.029007982 0.025456503 0.031775113 0.028455706 -0.014077071 -0.030295895 0.031008914 0.012596213
-0.028730795 0.025720274 0.004078723 0.021887802 0.029861651 0.007351304 -0.016564533 0.005146786

action_model._discrete_distribution.branches.0.weight f4 [3, 128]
00000000: 801f b63c e79c 49bd 1801 f6bc c9f8 d1bc
00000010: bc41 29bd c542 fdbb 5dd9 303b e468 b3bc
00000020: 534b cf3c 9076 423c d5c4 b23a ec17 753c
00000030: e6fc ddbc 568f 6b3b 287d 98bc dfd8 c93c
00000040: e219 853c ec40 d13c 2d77 9bbc 4c78 22bd
00000050: 7d40 65bc f226 3b3d 7435 c6bc ad3a 88bb
00000060: 1b62 a63c 15f6 363d 94c9 1c3c 29d8 253d
00000070: 08ac 923c 9f8f 6c3c d363 5f3c bc0c 9c3c
00000080: 7b4e 893c c51a 083d 346b 4cbc 0f8d 423c
00000090: 1e9e 033c fd8f 9a3c 3da1 e13b 76b6 65bb
000000a0: a79d 653b 4fb2 0bbd 35cd c7bc 89aa fa3b
000000b0: 29ad 81bc 1bdb 303d ef57 8dbc 2b7c c13b
000000c0: d388 f2bc 2cb5 f33c fb80 0e3d 7c0c 803b
000000d0: 074e e23c cbf7 55bc 8af7 1abd e7dc 70bc
000000e0: 4b6f 493c 2364 cb3c 0069 acbc a04d 1f3c
000000f0: c097 05bd f63c 0abd dfca 90ba a8a2 f73c
00000100: 456f dfbc ff18 c1bc a96c 9a3c 6d9c 0cbd
00000110: 79dc 4dbb 0b3a 153c 8de1 a1bc f82c bf3c
00000120: d63c a63c feb7 8f3c 0b44 a93c f1a0 083b
00000130: d017 20bd 511b f3bc 6c50 de3c 909d 293c
00000140: 49d3 fc3b d2be a43c ba13 ccbc 745d ca3c
00000150: 9322 29bd b3b2 b63c a044 ccbb e061 debc
00000160: a291 303d e83d 983c 0b3e f6bc f6a2 57bc
00000170: 2272 1dbd 95a5 4c3c e3b0 873c 0621 963c
00000180: 691a 08bd 4b74 583c 973a 9a3c 6a9e b1bc
00000190: 7370 48bc 1c7c 92bc de23 833c f14d b0bb
000001a0: 71ef 56bd f253 623c e658 b8bc 8bf1 1b3d
000001b0: 7e57 8bbc 5767 de3a 5c6f 293b 3f69 283c
000001c0: 952e b3bc d365 cfbc 3ad6 973c 3d22 41bc
000001d0: 379f 1d3d 44a3 bb3b aa5f 7fbc 61c2 08bd
000001e0: 9595 893c 7560 d8bc 857e ff3c 0eb9 34bd
000001f0: e8fd 51bc d7dc a2bc d348 bf3c 086a b43c
00000200: b0ea 73bb 187b 303d a53f 183c c78a cebb
00000210: 5895 af3b fe4f c2bb 7cc3 1bbd 32e6 6b3d
00000220: 1970 c8bc 27f5 e1bb 27a3 57bc 067d b6bb
00000230: 4dd7 173c d3bb 22ba bb64 943b 8a60 1dbb
00000240: 02a5 02bb e32f 91bc 8a68 853c a346 1a3d
00000250: bdbb 0e3c ed08 91bd b658 803c 7c81 03bc
00000260: be04 d037 8d34 88bd 481a ce3b bf9a 5abd
00000270: 1215 133c 0d22 8fbd 9a2c 92bb 7c80 78bd
00000280: 07fb d23b 1884 d5bc 3aed b2bd dd12 adbc
00000290: 3206 6abc a609 48bb b4ac 933b 4c0c ac3c
000002a0: be07 da3b 1c1d 893c 7cc2 89ba 4905 9eba
000002b0: 243c 1ebd 9b6b aa3c 60fb e23c ead2 1fbc
000002c0: dc4c c93c b9b6 4fbd ea89 62bd d49f 1cbc
000002d0: 885a ecbc 724a 463c 0a25 1a3d 46d8 8f3d
000002e0: 8196 debb a75d 79bd 4c10 683c 02f7 bebc
000002f0: a47a 313d 4cca 0f3d e4b9 9cbd ec6c 98bc
00000300: d210 0f3d 417f 093d 0742 00bc cf66 b93c
00000310: cf08 e33b 7215 943c f630 713c 45d9 52bc
00000320: 5d4d 3dbc 2c56 98bc 7804 a2bc 7304 983a
00000330: 1ef7 3a3d d57e b33c 159e 64bc 6f36 0f3d
00000340: 8afc 8dbd 07b5 5dbd 3f2b 2e3c a809 1abc
00000350: ee76 ee3c 38f4 1abc 3b66 1ebd e9c9 563c
00000360: 3ba5 64bd 6de0 46bd 8a96 3b3d b459 31bc
00000370: 40ab 263d 48e7 31ba c367 8fbd 6300 93bd
00000380: ed0a a13c 0143 23bc d275 75bd 6c2f f43c
00000390: 921c b83c 070e 883c 1c93 82bc e4c0 54bd
000003a0: 7dad 793c 0143 41bc ccff 5a3d b631 18bd
000003b0: 61d4 1b3c 2ec2 7bbd 500d ecbc 52f9 01bc
000003c0: 879c c63a c315 bc3c e61a 80bd b137 933b
000003d0: 0afd 83bc 3651 20bb 73bf 55bc b77f 0d3d
000003e0: fcfd 55bb e56b 153d 1c43 dfbc cbcb 053d
000003f0: 2103 ef3b 04a5 e73c 3634 d5ba 92af 4ebb
0.022231817 -0.0492219 -0.030029818 -0.025631325 -0.041322455 -0.007728907 0.0026985027 -0.021900602
0.025304472 0.011869088 0.0013638983 0.014959317 -0.02709813 0.003594359 -0.018614367 0.024639545
0.016247693 0.025543652 -0.018977726 -0.039665505 -0.013992426 0.045691438 -0.02419541 -0.0041573853
0.020310452 0.044668276 0.009569544 0.04048935 0.017904297 0.014438539 0.01363464 0.019049041
0.016761055 0.033228654 -0.012476731 0.011874451 0.008033304 0.018867487 0.006885676 -0.0035051382
0.0035036595 -0.034105595 -0.024389843 0.007649724 -0.01582964 0.043177705 -0.017253844 0.0059046946
-0.029606258 0.029749475 0.034790974 0.0039077383 0.027625097 -0.013059567 -0.037833728 -0.014701105
0.012294601 0.024828022 -0.021046162 0.009723097 -0.032615423 -0.033749543 -0.0011046788 0.030228928
-0.027274737 -0.02357149 0.018850641 -0.034328867 -0.003141193 0.009108077 -0.019760871 0.023336872
0.02029268 0.017543789 0.020662328 0.0020847882 -0.03908521 -0.029676111 0.027137958 0.010352507
0.007715617 0.020110521 -0.02491175 0.024702765 -0.04129274 0.022302007 -0.0062337667 -0.02714628
0.043107636 0.018584207 -0.030058881 -0.0131614115 -0.038438924 0.01249065 0.016563838 0.018326294
-0.03322831 0.01321132 0.018826766 -0.021681983 -0.012233841 -0.017881446 0.016008314 -0.005380385
-0.052474443 0.013813959 -0.022503328 0.03807215 -0.017009493 0.0016968054 0.002585373 0.010278999
-0.021872798 -0.025317108 0.018534768 -0.011787948 0.038481917 0.00572625 -0.015586773 -0.0333885
0.01679496 -0.026413182 0.031188259 -0.044121794 -0.012816884 -0.019880695 0.023350155 0.022023216
-0.0037218742 0.04308614 0.009292518 -0.0063031646 0.0053583793 -0.005929946 -0.038028225 0.05759258
-0.024467515 -0.0068956795 -0.013161457 -0.005569103 0.00926764 -0.00062077976 0.0045286096 -0.002401384
-0.0019934778 -0.01772303 0.0162852 0.03766502 0.0087117525 -0.070817806 0.0156673 -0.008026477
2.479774e-05 -0.06650648 0.006289754 -0.053370234 0.0089771915 -0.069889165 -0.0044608833 -0.060669407
0.006438616 -0.026063964 -0.087366536 -0.021127159 -0.014283704 -0.003052333 0.004506672 0.021001957
0.006653755 0.016737513 -0.0010510231 -0.0012056018 -0.038631573 0.020803263 0.027707756 -0.009754876
0.024572782 -0.050711367 -0.055307306 -0.00955959 -0.028851762 0.01210271 0.03763298 0.07023673
-0.006792844 -0.06088033 0.014164042 -0.023311142 0.04332985 0.035105035 -0.07652643 -0.018606625
0.03492815 0.033568624 -0.007828242 0.02263203 0.0069285403 0.018076632 0.014721146 -0.012869184
-0.011554089 -0.018595777 -0.019777521 0.0011598006 0.045645826 0.021911064 -0.013953705 0.03496402
-0.06932934 -0.05412772 0.010630428 -0.009401716 0.029109444 -0.00945764 -0.038671713 0.013109663
-0.05582164 -0.048553873 0.045797862 -0.01082461 0.04069066 -0.0006786478 -0.07002213 -0.07177808
0.01965853 -0.009964705 -0.059926815 0.029807769 0.02247456 0.016608251 -0.015939288 -0.051941767
0.015239117 -0.01179576 0.053466603 -0.037156783 0.009511084 -0.06146448 -0.028814942 -0.007932978
0.001515285 0.022959596 -0.062551305 0.004492723 -0.01611187 -0.0024462468 -0.013046133 0.034545626
-0.0032652607 0.03647985 -0.02725368 0.032665055 0.007294074 0.028276928 -0.001626617 -0.0031537754

action_model._discrete_distribution.branches.0.bias f4 [3]
00000000: f1d1 3dbc cec2 a23b d630 34bc
-0.011585698 0.00496707 -0.0109979715

action_model._discrete_distribution.branches.1.weight f4 [3, 128]
00000000: 20c5 48bd 588a 693c c8fc 873c 1b99 e03c
00000010: b8de d83c 8228 013d 095b da3b 50d6 eebb
00000020: 9190 cfbc 3c5b 18bc 5b8f c0bc a9d1 b3bc
00000030: ec9c 673c 9c4d efbc 3115 e73b adb5 d6bc
00000040: a10d adbc 9392 ecbc f389 793c 88d9 013d
00000050: d0c1 b2bb e8f2 743c 54b6 193d 92d1 ebbb
00000060: 9d66 f8bc cc95 b33c 149a c8bc aa51 053d
00000070: 9887 07bd 60dc 083d e325 25bc 6b20 dc3c
00000080: 664d eabc 75cb 07bc 7eff f63c 08f4 09bd
00000090: e2d5 19bd f882 fbbc 3047 a2bc e4d5 c43a
000000a0: 7639 b8bc cec0 c13c 9418 cf3c 8d1a abbc
000000b0: c010 a53c 17a3 c2bc 8a5a 063d 94dc 09bd
000000c0: 6dda e53c 2cd3 60bc 8547 873c 1b22 83bc
000000d0: 5d97 c0bc f69f ea3c 872d b83c 32a5 a3bc
000000e0: df42 05bd 9aa3 ea3c 34ab d93b b6ad c3bc
000000f0: c1a9 dc3c 9756 953c 3856 ea3c 4e46 8bbc
00000100: 936c 8d3c fc95 123c f061 02bd 6cd6 273d
00000110: 1204 e7bb 207e 24bd d780 e63c e0a2 54bc
00000120: 3137 cabc d2b8 b1bc bf1e 51bc 3557 7fbc
00000130: 9da2 e33a 5a81 d33c 6120 dbbc 8f39 f5bb
00000140: 825e b93c 0d0c c83c 70fc 913c de3d 60bc
00000150: eeae 613c f9f5 04bd d642 c33b aa30 903c
00000160: 6cee 6835 ae53 f83c 50e6 81bc b01b 5f3c
00000170: 4a61 e43b 4e8d 34bc d7b4 c63c e389 963c
00000180: 8bd1 1e3d 34a2 d8bc 14c4 eb3b 8628 263c
00000190: c5d9 f33c 514d 083d 5ecf babc 72e2 dd3c
000001a0: 1fe4 8f3c dc9b 90bc b045 383d d24a 92bc
000001b0: 6e99 e73b 2d9d 7a3c d9ef 5b3c 8c8f bebc
000001c0: 6c8d ee3c ee35 da3c 47ad 8c3c 7f8d c43c
000001d0: 6d6f 89bc aceb 93bc db40 313d f650 073d
000001e0: d457 fbbc b475 173d 739a a2bc 3994 e13c
000001f0: b34b 953c 57ea 913c 1c33 c8bc fe51 21bb
00000200: ad53 c23c c80c 3e3d d0fc 0dbd 2ef4 a0bc
00000210: d6ad 6abc 166f 07bd 6f72 01bd 823d ea3c
00000220: 4b26 f03c e891 ff3c dbdc d73c 9a48 9e3c
00000230: e18a 2cbc 4efa ea3c 0f8a b73a 2abb 2d3d
00000240: 1493 f93c 1b91 2f3d 85e8 2bbc 1a2b 30bc
00000250: 8c97 4abc 27f8 20bd 7889 00bd b208 a13c
00000260: b754 9b3c 9b0b 16bd 28e2 063d ce7e 9dbb
00000270: 3fe1 b73c 4b44 2dbd 71a8 e33c ea50 84bc
00000280: f82a ae3b bdfa 123d cf15 a3bc 2d6d cbbb
00000290: 650c 103d e637 e73c 181a 793c 7640 09bc
000002a0: cc5d 113d f517 cfbc b724 21bd 4f50 e43c
000002b0: d02c 70bc a0d5 fd3c c72a 5fbc 386f a93c
000002c0: bc15 a6bc b9d6 69bb 6fd6 4fbb 9105 423d
000002d0: 506b 933c 82aa d3bc 83b9 e1bb 86eb 093d
000002e0: 6e59 3a3d 3b91 0bbd 2024 3ebd 84fb ee3c
000002f0: 1c75 79bb 4e5e 1abd 22ba c1bc 4d81 e43c
00000300: 1b2a afbc 6165 0dbd 17f1 083d 48b9 0ebd
00000310: 8c07 ac3c d0c2 083d d95b d0bc a9ab dd3c
00000320: 2d4e 143d 7046 fd3c a48a 603d ab9e 073d
00000330: e748 4a3d 1025 d3bc dd22 be3c ed3c 5739
00000340: 648f 6bbc 0673 63bb e57c 19bd fda4 bf3c
00000350: e0df 33bd 2a59 e83a 2d8d 373c 8d17 5fbd
00000360: fbc6 ebb9 5bb3 e1bc cfe2 a33c 960f d6bc
00000370: 122f 13bd d538 173c 4d00 b5bc 656f 89bc
00000380: 03ca 25bd 5252 fb3c 4ddc 19bd e559 a4bb
00000390: 97c5 b2bc 3002 3cbd 9171 8f3c 5ee9 debc
000003a0: 8851 bf3b 0157 473c d7f8 94bb 8faf cebb
000003b0: 4116 4fbd 02f3 0bbd 72cf 91bc 7e24 023d
000003c0: d990 39bc 7be1 1dbd 4c69 4dbc a50b 0cbd
000003d0: 12ec d23b bd7b 243d dad7 7cbc f08a b9bc
000003e0: 6ea7 a33c 06d9 c7bc d445 dcbb bc93 cbbb
000003f0: 69c6 82bc 078c 033a a88f b43c 65d2 0b3d
-0.049016118 0.014254175 0.016600028 0.027416756 0.026473388 0.031532772 0.0066636843 -0.0072887316
-0.02533749 -0.009299096 -0.023505857 -0.02195056 0.014136534 -0.029211812 0.0070520868 -0.026209677
-0.021124663 -0.028878486 0.015230644 0.031701595 -0.005455233 0.0149504915 0.037527397 -0.0071966136
-0.030322367 0.021922015 -0.024487533 0.032548584 -0.033088297 0.03341329 -0.010079834 0.026870927
-0.02860136 -0.008288254 0.030151125 -0.033679992 -0.03755749 -0.0307021 -0.019809335 0.0015017358
-0.022488337 0.023651507 0.025280274 -0.020886684 0.020149589 -0.023759408 0.03280119 -0.033657625
0.028058255 -0.013722222 0.016513595 -0.016007474 -0.023509676 0.028640728 0.022482647 -0.019976232
-0.032534476 0.028642464 0.0066427235 -0.023886543 0.026936414 0.018229766 0.028605565 -0.017001297
0.017263686 0.008946892 -0.03183168 0.040975973 -0.0070500458 -0.040159345 0.028137607 -0.012978286
-0.02468452 -0.021694575 -0.012763678 -0.015584757 0.0017367188 0.025818516 -0.026748838 -0.007483668
0.022628073 0.024419809 0.017820567 -0.013686625 0.013774617 -0.03246114 0.005958895 0.01760133
8.6773684e-07 0.03031334 -0.015856892 0.013617441 0.0069696056 -0.011020018 0.024256153 0.018376296
0.038774054 -0.026444532 0.007195005 0.0101414975 0.029766927 0.03327686 -0.022803959 0.027085517
0.017564831 -0.017652445 0.044988334 -0.017857943 0.007067851 0.015296263 0.013423883 -0.023261808
0.02912017 0.026637044 0.017172469 0.023993252 -0.016776765 -0.018056713 0.04327474 0.033036195
-0.030681528 0.036977485 -0.019849038 0.027536498 0.018224573 0.017811937 -0.024438433 -0.0024615522
0.02372154 0.046398908 -0.03466493 -0.019647684 -0.014323672 -0.033064924 -0.031603273 0.028593782
0.029315135 0.031197503 0.02635043 0.019321728 -0.010531158 0.028683808 0.0014002937 0.04241482
0.03046564 0.042862993 -0.010492449 -0.010752464 -0.012365233 -0.039299157 -0.0313811 0.019657467
0.018961294 -0.03663216 0.032930523 -0.004806376 0.022446273 -0.042301457 0.02779028 -0.016151864
0.005315181 0.035883654 -0.01990786 -0.006208083 0.03516807 0.028224897 0.015203975 -0.008377185
0.035489842 -0.025279978 -0.039341655 0.027870325 -0.014659122 0.030985653 -0.013621039 0.020682916
-0.020274036 -0.0035680963 -0.0031713506 0.04736859 0.017995507 -0.02583814 -0.00688857 0.03367188
0.045495443 -0.03407405 -0.04642117 0.029172666 -0.0038064187 -0.037687592 -0.023648325 0.027893687
-0.021382382 -0.03452051 0.033433046 -0.034844667 0.020999692 0.033388913 -0.025434421 0.027059393
0.036207367 0.030917376 0.054819718 0.033110302 0.04938593 -0.025774509 0.023209983 0.00020526694
-0.014377449 -0.003470601 -0.037472624 0.023394102 -0.043914676 0.0017726768 0.0112030925 -0.05446582
-0.00044970945 -0.027551344 0.020005612 -0.026130479 -0.03593356 0.009229858 -0.02209487 -0.01677675
-0.040475857 0.030678902 -0.03756361 -0.005015599 -0.021822734 -0.045900524 0.017510207 -0.027210888
0.0058385767 0.012166739 -0.0045462656 -0.0063075493 -0.050558332 -0.034167297 -0.017799113 0.031773083
-0.011326038 -0.038545113 -0.012537312 -0.034190793 0.006436833 0.04015707 -0.015432322 -0.022649258
0.019977298 -0.024395477 -0.0067221913 -0.0062126797 -0.01596375 0.0005018119 0.022041157 0.034136195

action_model._discrete_distribution.branches.1.bias f4 [3]
00000000: 3309 9f3c 6f77 b2bc 2e81 82bc
0.019413566 -0.021785466 -0.015930738

action_model._discrete_distribution.branches.2.weight f4 [2, 128]
00000000: 26f5 bbbb b79d b8bc 3ef7 c43c e141 f03c
00000010: 1346 473d 9d08 253d 5144 f33c 0854 72bc
00000020: 7ddf c6bc 6b3d bfbc 879b c3bc 6578 20bd
00000030: f5f1 fa3c e326 77bc 2921 503c d799 07bd
00000040: 5c5b a4bc b0fa ebbc 294d 01bc d5a3 863c
00000050: 5025 d73a 83c0 fb3c 1b08 d13c ee03 e7bc
00000060: 0250 27bd 4a47 2a3d 4018 cfbc 3eba 483d
00000070: 4d71 08bd c43e 1d3d cb26 47bc 36c6 3c3c
00000080: 4534 e3bc 37d1 74bc a432 253d 535d d6bc
00000090: 9bd6 44bd c81b 03bd a9b2 0abc 48c7 07bc
000000a0: 0b90 13bd 028b 9f3c 86aa af3c ae58 23ba
000000b0: e1b1 d13c 9382 28bd 2a99 cf3c c3c8 0abc
000000c0: 8689 603c f968 323c c160 3f3d 41ab 25bd
000000d0: 462e 73bc 8396 d93c 49c9 333c aba1 4dbc
000000e0: ed75 48bc 49de 423d 8dbe c53c e02b 4fbd
000000f0: 4469 a33c a3bf 043d f649 ff3c 8eb7 21bd
00000100: 1223 de3c 2dc4 d53c 8e3f d2bc 2f3b ee3c
00000110: dedc cebc f29a b1bc 577e 883c 0e4c e8bc
00000120: c081 83bc 2e5c d3bc edaf d7bc 4997 d5bc
00000130: 8289 21bd 2f09 6d3c 49ce 50bd 4b43 11bd
00000140: 7af0 293d d480 063d 0fac e13c b750 02bd
00000150: 4798 213d 7998 17bd 0c14 043b be20 423d
00000160: 1be1 033d d2c0 673d 2257 dcbc 9be4 223d
00000170: 8123 ed3c 6b96 9bbc 287e 223d 783e f83c
00000180: ed5c 263d 7290 6bbd 5868 e43c dd36 eeba
00000190: 1b6f f03c bc4e 873c f119 80bc 2b23 273d
000001a0: 6590 273c 1476 a9bc 0739 333d 30d9 483c
000001b0: 388f fd3c 7ab7 423d 97ff 3b3c 5820 c1bc
000001c0: 0bd7 0a3d d137 b83c 470d 0f3d 5450 ea3c
000001d0: 0a05 b6ba 1620 8abc 40a4 733c 473c ec3c
000001e0: b71d bcbc 34d9 e43c e42f 3f3a c7c0 173d
000001f0: 650a 1a3d b076 e13b 6509 94bc 9614 563b
00000200: 805b a33c c38e f0ba 6ecc 2ebd 8e6f f0bc
00000210: 67a7 d1bc 8472 12bd 9c7f e1bc e652 943c
00000220: 6d71 173d af2d cd3c ec74 8f3c 993d 193d
00000230: 1033 05bd 141b a83c 4e3a b4b9 3532 103d
00000240: 4813 f23c dbdf c43c 614d 2dbc f161 00bc
00000250: 9487 fc3b 2246 34bd a0e6 04bd 5e27 373c
00000260: 344f fe3c 2379 12bd e5e7 093d 131a 06bd
00000270: 169a b83c 9136 00bd 9246 4d3d fdc0 61bc
00000280: e3e6 033d 79df f63c 6637 15bd 44ae 483c
00000290: 97b9 3d3d 353d 993c 6f6c 2a3c b03f bebb
000002a0: 7520 8f3c a2e4 c9bc 4f60 1fbd b205 543a
000002b0: 0b5b 03bd c1d1 f93c 4093 03bd 04a2 bf3a
000002c0: 775d ebbc 0e6c 6e3b e86e 0bbd bece 0f3d
000002d0: 4297 c63c 988b 0abd 23b8 20bc 0275 133d
000002e0: 21de 093d 8ae7 f3bc 79e0 27bd 1f8c 253d
000002f0: ca35 64ba 58e9 11bc fd9d f7bc a6d9 2a3c
00000300: 1cab 85bc 16a2 23bd b6be 943b 935d 90bc
00000310: 9365 3f3c 93db 243d 3741 ddbc 640c af3c
00000320: 8939 d93c 0abd 943c e256 c83c 0a06 f63c
00000330: 0090 fb3c 09d4 dfbc fde9 403d 7635 cd3c
00000340: 7338 b4bc b06c 49bd e5e1 8abc 64a8 4e3c
00000350: 8692 f2bc 5bc8 503d 5620 9bbb b916 05bd
00000360: 1132 48bd a119 0ebd a4d3 c93c 7ef5 0ebd
00000370: 9a9e c9bc 79b3 2e3c f90d 2bbd a2c3 9abc
00000380: 85a6 29bd 5225 4a3d 84de 03bd f899 93bb
00000390: 1728 e9bc fa18 05bd f2df 083d 0e4f 4dbd
000003a0: 73f6 e1bc a464 b43c 6462 20bd 361a 84bc
000003b0: 5b08 55bd ca95 37bd c47b e8bc ad9b 133d
000003c0: 8e41 e8bc 1018 14bd 2730 25bd bfb3 f3bc
000003d0: dfcf aa3c 442f ef3c 0fc5 b2bc 61c3 08bd
000003e0: 0d5e ef3c 05f0 09bd e819 6f3b c110 04bd
000003f0: 58e7 10bd 6512 0e3b 3d99 d73c 0173 9b3b
-0.005736011 -0.022536142 0.024043676 0.029328289 0.048650812 0.040291417 0.029695662 -0.014790542
-0.02427649 -0.023344716 -0.023877872 -0.039177317 0.030632952 -0.015084955 0.0127032185 -0.033105697
-0.020063095 -0.02880606 -0.007891932 0.016435543 0.0016414318 0.030731445 0.02551656 -0.028200116
-0.040847786 0.041571893 -0.025280118 0.04900574 -0.033311177 0.038389936 -0.012155245 0.011521867
-0.027734885 -0.014942459 0.040331498 -0.026167547 -0.048056226 -0.032008916 -0.008465447 -0.008287258
-0.036026042 0.019475464 0.021443617 -0.0006231171 0.025597515 -0.04114015 0.025341589 -0.008470717
0.013704663 0.010889285 0.04672313 -0.040446524 -0.014842575 0.026561027 0.010973283 -0.012550752
-0.012235147 0.04757527 0.024138713 -0.05057895 0.019947655 0.03240932 0.031163197 -0.039481692
0.027116332 0.02609452 -0.02566507 0.029080955 -0.025251802 -0.021680329 0.016661806 -0.028356578
-0.01605308 -0.02580079 -0.026329005 -0.026073115 -0.03943778 0.014467522 -0.05097798 -0.035464566
0.041489102 0.032837704 0.027547864 -0.031815257 0.039451864 -0.037010644 0.002015355 0.047394507
0.0321971 0.056580372 -0.026897017 0.039768796 0.028947594 -0.018992623 0.039671093 0.030303225
0.040615965 -0.0575108 0.027881786 -0.001817431 0.029349854 0.016517036 -0.01563737 0.040805023
0.010227297 -0.020686187 0.043755557 0.012258813 0.030952081 0.047538258 0.011474512 -0.023574993
0.033896487 0.022487553 0.03492477 0.028602757 -0.0013887 -0.016861003 0.014870703 0.028837336
-0.022963388 0.027935602 0.0007293208 0.03704908 0.03760757 0.0068806037 -0.018070886 0.0032666079
0.019941092 -0.0018353093 -0.042675428 -0.029350068 -0.025592519 -0.03575374 -0.02752667 0.018105935
0.036973406 0.025046198 0.017511807 0.03741226 -0.0325194 0.020520724 -0.00034375716 0.03520413
0.02955021 0.024032524 -0.010577531 -0.007835851 0.007706592 -0.044012196 -0.032446504 0.011178819
0.031043626 -0.035760056 0.033668417 -0.03273971 0.022534411 -0.03130204 0.05011613 -0.013778922
0.032202613 0.030135857 -0.036429785 0.012248579 0.04631957 0.018705944 0.010401829 -0.005805932
0.017471531 -0.024645153 -0.038910206 0.0008088007 -0.032069247 0.030495526 -0.03212285 0.0014620428
-0.028731091 0.0036380324 -0.034041315 0.035109274 0.024242047 -0.033824533 -0.009809527 0.03600026
0.033659104 -0.029773492 -0.04098556 0.040416833 -0.0008705525 -0.008905731 -0.030226702 0.010427868
-0.016316943 -0.0399495 0.004539336 -0.017622745 0.011681932 0.040248465 -0.027008636 0.021368213
0.026516693 0.018156547 0.024455491 0.030032177 0.030708313 -0.027322786 0.04709815 0.025049906
-0.021999573 -0.049175918 -0.016953418 0.01261339 -0.029610883 0.050972324 -0.0047340794 -0.032492373
-0.048875872 -0.03469241 0.02463705 -0.03490209 -0.02461176 0.010662907 -0.041761372 -0.018892113
-0.04141857 0.049351998 -0.03219463 -0.0045044385 -0.0284615 -0.032494523 0.033416696 -0.05012422
-0.027583336 0.022020645 -0.039156333 -0.01612578 -0.05200992 -0.044820584 -0.028379329 0.036037136
-0.028351571 -0.03615576 -0.040329125 -0.029748796 0.020851074 0.029197343 -0.02182248 -0.033389453
0.029219652 -0.033676166 0.0036483947 -0.03224254 -0.035376877 0.0021678444 0.026318187 0.004743934

action_model._discrete_distribution.branches.2.bias f4 [2]
00000000: d8b2 bd3c d7b2 bdbc
0.023156568 -0.023156567

exp_avg f4 [128, 6]
00000000: cab9 ef36 bf34 1336 6641 0438 a8c0 3cb8
00000010: c4d4 3b37 e521 38b8 9cf8 9736 5ce4 3e38
00000020: 1a8e 95b8 b006 cd38 3d2c a0b8 c8ec 59b8
00000030: 9533 c337 2237 fcb8 d365 d239 5e4f bab9
00000040: 8e80 5a39 a546 5239 79e9 1bb7 af60 8238
00000050: 188d f8b8 2b88 2139 365d a7b7 0a78 48b8
00000060: 81f7 23b8 4380 0739 4b0a 84b9 b6c5 ae39
00000070: 63f6 7ab9 ef6a 81b9 b831 8636 5817 e138
00000080: 206d 35b9 f93f 7839 8620 19b9 39d2 12b9
00000090: 6108 05b8 5938 2c39 1b10 4cb9 44f5 a739
000000a0: 49b7 60b9 fca3 8bb9 91d0 c837 28a7 e038
000000b0: 5fa6 b637 72a1 ee38 74e1 a7b8 0e8c 0eb9
000000c0: de0d a135 8cf7 9137 b6a5 a737 18b1 8cb7
000000d0: 1a7b a937 9353 ceb7 ca4b 5eb7 d2a1 8236
000000e0: 1832 c5b7 5abf 3638 d075 b8b6 ed82 e7b7
000000f0: 8f68 f8b6 d469 78b9 ff7f 9239 4714 f4b9
00000100: 9bf7 bf39 4f32 c839 2289 f0b7 df39 e838
00000110: 1542 22b9 6691 8439 44a7 f4b8 988c 58b9
00000120: 62c5 deb5 9994 1038 5c45 a3b8 264f d438
00000130: c746 95b7 7f5d 17b8 c13a a0b7 1580 b1b5
00000140: 1b81 feb7 7b63 e437 ddf4 9eb7 9c49 2cb6
00000150: ce03 43b7 10fd 0939 dc00 3cb9 68ea 9539
00000160: eaec f4b8 ba2d 57b9 df27 3bb7 7bbe 8739
00000170: a92d f3b9 4fbe 203a c739 e0b9 bbd3 dfb9
00000180: c6c3 3138 82fd 64b9 f91e 193a 2e5c 17ba
00000190: 0980 a839 5d3f 9939 76a2 d5b7 9547 e638
000001a0: 7f79 c1b9 195d dc39 f5a2 39b9 f810 2db9
000001b0: 15fe d537 2703 45b9 8397 c939 54aa d2b9
000001c0: fcf2 7739 d90f 6a39 1b30 0cb8 1239 4ab9
000001d0: fdfa 5c39 70d5 9ab9 8be3 8b39 49ae 6d39
000001e0: 54fd c6b7 3155 3939 da4a 98b9 02b8 ce39
000001f0: ea41 82b9 d4c7 70b9 9a5f 6cb8 06b6 8539
00000200: 0fa4 c2b9 439b 1e3a 8b80 dcb9 767d feb9
00000210: 1262 0638 9b5c a937 c553 8338 3756 b3b7
00000220: e84c bdb6 27f8 15b7 d2b2 9838 3578 1838
00000230: ac66 7838 44d6 18b8 9d0a efb7 7487 33b8
00000240: 8793 15b6 c4d6 9437 6a5d 05b9 5023 2139
00000250: a78d 3fb8 bb61 6bb8 d317 8fb6 c22d ad37
00000260: e4d9 18b8 4dca e337 fea3 a5b7 90fb 45b7
00000270: 3635 d9b6 a155 7d38 8fc7 64b9 6b63 4939
00000280: ab03 adb8 a41b c3b8 d429 55b7 1816 e538
00000290: e458 04b9 944b 5d39 cf6b edb8 51cd 56b9
000002a0: a627 86b7 f953 99b8 7c06 0d39 2696 16b9
000002b0: 2b48 6738 a3d8 9338 7b50 3438 6282 1739
000002c0: 3a1c e2b8 2cc9 4f39 ec27 33b9 cbcb 7bb9
000002d0: 7e55 4537 0d96 c238 91c5 5cb8 526a 1739
000002e0: 7b49 aeb8 bd14 c4b8 9431 c538 ab68 78b9
000002f0: 2c27 323a e88c 39ba b663 c339 24f0 b239
00000300: a72f 12b8 a8a6 0239 b829 52b9 35c7 9839
00000310: 090e 30b9 49bc 64b9 1d64 94b5 c9a2 94b5
00000320: 2cd0 31b7 eabe aa37 2868 9437 0941 58b6
00000330: 280e 83b6 888c db38 1767 53b9 3f3d 8139
00000340: e9f9 edb8 c457 1ab9 a51e 0437 bc8e fcb8
00000350: 4641 7739 701a 7cb9 59c5 df38 6cee fb38
00000360: e735 b338 ad64 a2b9 9b48 523a 1ce5 49ba
00000370: 6538 e339 ccf2 d639 a2a0 04b8 ad9f 4eb7
00000380: 06a1 b1b8 648c 8638 bf86 60b7 0ded 18b7
00000390: c512 bdb7 8bce 0f39 a90a 68b9 39e2 a139
000003a0: f5f0 b2b8 a218 9db8 b779 65b6 6066 8fb7
000003b0: d323 5237 c009 4ab7 b2d0 6437 b669 8c37
000003c0: 16d3 0438 1aad 81b8 dd5b 6c39 c814 7db9
000003d0: 809d 3d39 b7d4 f038 7a66 aeb7 7754 2c35
000003e0: d7a6 30b9 543e a638 3c8d 0ab8 c6a1 6837
000003f0: 091d b135 dc01 4cb8 fd1e cc38 bd22 dab8
7.1443837e-06 2.193541e-06 3.153216e-05 -4.5002118e-05 1.1195607e-05 -4.3900585e-05 4.5290926e-06 4.5512206e-05
-7.131342e-05 9.7764074e-05 -7.6376346e-05 -5.195735e-05 2.3269831e-05 -0.00012026566 0.00040130186 -0.00035535818
0.0002083799 0.00020053478 -9.2930795e-06 6.216892e-05 -0.00011851842 0.00015404883 -1.9951356e-05 -4.779551e-05
-3.9092734e-05 0.00012922384 -0.0002518467 0.00033335172 -0.00023933644 -0.0002468447 3.999299e-06 0.00010733184
-0.00017302157 0.00023674955 -0.00014603333 -0.00014001959 -3.1717474e-05 0.0001642419 -0.00019460956 0.0003203546
-0.00021430584 -0.00026634324 2.393898e-05 0.000107122876 2.1773563e-05 0.00011378796 -8.0051745e-05 -0.0001359435
1.1999471e-06 1.740062e-05 1.9985117e-05 -1.6771766e-05 2.0203694e-05 -2.4596031e-05 -1.3249877e-05 3.8931403e-06
-2.3507557e-05 4.357039e-05 -5.4973425e-06 -2.7598313e-05 -7.403148e-06 -0.00023690547 0.00027942655 -0.00046554414
0.0003661484 0.00038184455 -2.8674087e-05 0.000110734014 -0.00015474141 0.00025285332 -0.00011665982 -0.0002065174
-1.6597735e-06 3.4470668e-05 -7.785365e-05 0.0001012369 -1.7795142e-05 -3.608828e-05 -1.9100846e-05 -1.3224804e-06
-3.0339279e-05 2.7226042e-05 -1.8949091e-05 -2.5672844e-06 -1.1623792e-05 0.00013159611 -0.00017929397 0.0002859414
-0.00011678955 -0.00020521032 -1.1155352e-05 0.00025891126 -0.0004638259 0.0006131874 -0.00042767657 -0.00042691626
4.2382417e-05 -0.00021838213 0.0005841102 -0.0005773929 0.0003213885 0.00029229643 -2.546723e-05 0.00010980588
-0.0003690235 0.00042031033 -0.00017703681 -0.00016504887 2.5509895e-05 -0.00018788558 0.00038450593 -0.00040181226
0.00023646274 0.00022321883 -3.3423403e-05 -0.00019285482 0.00021074335 -0.00029532192 0.0002668168 0.00022667008
-2.3721404e-05 0.00017674711 -0.00029047468 0.00039428478 -0.00024844642 -0.00022962625 -5.635582e-05 0.00025503355
-0.00037124797 0.00060503575 -0.00042057442 -0.0004854013 3.2039425e-05 2.0189493e-05 6.26217e-05 -2.137861e-05
-5.641592e-06 -8.9388695e-06 7.281233e-05 3.6351576e-05 5.922343e-05 -3.6439174e-05 -2.8495962e-05 -4.2803076e-05
-2.2288602e-06 1.7742983e-05 -0.00012718668 0.00015367311 -4.5669873e-05 -5.6119385e-05 -4.2645056e-06 2.0644515e-05
-3.644255e-05 2.7154712e-05 -1.9745898e-05 -1.18006865e-05 -6.4732985e-06 6.039965e-05 -0.00021818116 0.0001920589
-8.249966e-05 -9.303473e-05 -1.2705528e-05 0.00010923686 -0.00012621615 0.00021104357 -0.000113211216 -0.00020485117
-1.5992508e-05 -7.31125e-05 0.00013449223 -0.0001436105 5.5141903e-05 7.049858e-05 4.2990298e-05 0.00014449054
-0.000107817774 0.00019816 -0.00017085642 -0.00024013144 1.176202e-05 9.27859e-05 -5.2636085e-05 0.0001444009
-8.310653e-05 -9.349871e-05 9.402927e-05 -0.00023690115 0.0006795998 -0.00070781866 0.0003726759 0.00034129724
-3.4853492e-05 0.0001245985 -0.00020042702 0.0002914012 -0.00016789896 -0.00021813916 -1.1055996e-06 -1.1074236e-06
-1.0598491e-05 2.035448e-05 1.7691476e-05 -3.2224364e-06 -3.9057522e-06 0.0001046891 -0.00020160932 0.0002465043
-0.0001134759 -0.0001471928 7.874948e-06 -0.00012042883 0.00023580072 -0.00024042442 0.000106702275 0.00012013022
8.545425e-05 -0.00030974057 0.00080216833 -0.00077016815 0.0004333883 0.00040998159 -3.1620853e-05 -1.2315734e-05
-8.470011e-05 6.415768e-05 -1.3382813e-05 -9.115099e-06 -2.2539296e-05 0.00013714486 -0.00022129215 0.00030876862
-8.532583e-05 -7.4909316e-05 -3.4194506e-06 -1.70946e-05 1.2525316e-05 -1.2042408e-05 1.363845e-05 1.6738526e-05
3.166784e-05 -6.183442e-05 0.00022540936 -0.00024135702 0.00018083118 0.00011483713 -2.0790136e-05 6.4197906e-07
-0.0001684682 7.927106e-05 -3.30333e-05 1.3865943e-05 1.3195978e-06 -4.863912e-05 9.73325e-05 -0.000104015206
