results/FlappyBird/FlappyAgent_ImitationLearning3/FlappyAgent/FlappyAgent-29897.pt (torch, 708705 bytes, 41 tensors)

network_body._body_endoder.seq_layers.0.weight f4 [128, 59]
00000000: 2af0 c13d eb51 28be 9b13 85bd 519d 983b
00000010: f995 ae3d 0792 eebd df2f 193e d1b3 453e
00000020: 1cc1 01be 5259 cb3d 7fce 44bd 93e8 143e
00000030: 2911 ddbd 988b c73d addf 68be 4d2b 82bd
00000040: f3b1 163e 0ca6 a43e fea4 a7be 158f 473d
00000050: 31fe 10be 1319 93bd b122 843c fe23 c43b
00000060: 7be2 35be 8f56 92bd 7720 8dbe 7e5b c8be
00000070: a896 333b 8257 0cbe f002 873c efe7 3ebe
00000080: 32e9 d7bb 1f28 24be 39ff 06bc bda1 4fbd
00000090: 2cfd 91be edb3 04bc d51c 60bc b272 6b3e
000000a0: 7c32 82bd 248d 17bd d0cc b73d f323 e63d
000000b0: 3908 99be d3be 1fbe c0ef 8abc 8c74 43bc
000000c0: e8c9 a9bd 338d 1d3c 9574 153e 7ec2 bcbc
000000d0: 44d1 f93d 533b fdbb 09d6 45bd da3f 023e
000000e0: f976 7d3e 97c0 d3bd 5070 cbbd 9e83 4e3d
000000f0: 64b7 f33d 1cd4 04bd cdb0 ad3d 0ed0 09bd
00000100: 9b36 9f3d d76a cebd 15de 4c3d 7451 57bb
00000110: 486c 04be 28d0 5e3e 310e cabd 2897 db3d
00000120: 1f68 a63d 0cd1 a83d 9104 963d ceb4 0e3e
00000130: af9b 293e 1ef4 9d3c 6d27 ccbc a27c 503b
00000140: 4880 253e 8754 943d d2e2 bdbc 1901 0a3e
00000150: 7cc7 16bd 96c2 6ebe 37c6 bdbc 8d29 e4bd
00000160: cbb0 c53c a7d7 98bd d867 163e 40ac c5bd
00000170: 8513 a0bd 71d8 9abd a99f 26bc eb6b 603e
00000180: fd27 20bd c700 48bd 0eb9 373e f5c5 bbbd
00000190: daf5 0a3e 0625 363e e360 3abc b369 c6bc
000001a0: 2796 cd3c 0869 0fbd 51cb 4ebe 4628 8a3e
000001b0: a7e4 00bc c12b 073e 7fe7 8c3d 3765 8abd
000001c0: 4fe7 11bd 917e 04bc 379c 593e ca52 79be
000001d0: b33f 6cbc f130 bdbc 94bf 993d a891 0cbc
000001e0: e652 be3b afc6 0b3e 721e d83d 2bde 02be
000001f0: 9de0 a8bd eb65 50bd d7e3 bbbc d95f 3b3e
00000200: 3117 d2bd f8ce d0bd dee6 b13d be1f 18be
00000210: 043f d73c baa3 fc3d 4bce ea3d 5ebe 563e
00000220: 5be5 ce3d 0905 303d 7ff6 43bd 0a8d de3d
00000230: f368 aabd 3547 d3bd a242 f13d 87cc 273e
00000240: 2624 07be 6ea0 87bd 8d86 05be 6bec 6d3e
00000250: 99aa c5be e803 173e 768c 09be d463 683d
00000260: 945a fabd f6f1 3a3e c723 2b3e a124 33be
00000270: 51c9 a4bd 32e5 853d 621a 1cbe 6759 8abc
00000280: ab74 083e a92d 263d 3973 b9bd b856 273d
00000290: 6d6c 89bd 26b7 183e ce9e 04be b4d4 9d3e
000002a0: d9f2 443d ea41 213d 0c31 f83c 6030 5c3d
000002b0: d9f4 093e 0e0e 9c3e 1229 083c 6a14 1e3d
000002c0: 4cc1 853c b348 f6bd fec6 a33c 7d09 dabd
000002d0: c021 eb3c 0942 d0bd efdf 053e c5e9 b7bd
000002e0: e37c 1e3e b2ae 62bd 2b20 263e 041b 54bd
000002f0: 1efd 89bc 3959 88bd a121 aebd df00 4ebe
00000300: bd2f 353c 2807 2abd 209c 923c dada 053e
00000310: 8087 58bc 0000 8f3c 1988 773e 401c cabc
00000320: 0ae4 343e e3c0 42bd e2be c13d a1b6 1a3e
00000330: 5793 2a3d 3f6f 133e 6cad 123e e494 89bd
00000340: a7fd 1abe 766e 303e ae2a f53c 98ee 923d
00000350: 2d70 3dbe bdc9 5d3c 3189 a0bd c83f a33d
00000360: 9c1c b4bd 57c4 853e 8a1d 0bbd 9cd9 853e
00000370: e437 4d3e 34ab 46bd 3fb3 833e 6242 7e3e
00000380: 3afd 373d 75ba a8be 01b3 943d 3160 9cbc
00000390: 8ac1 2dbc 5acc 473c f377 15bc cf85 7fbe
000003a0: 762e 753e 41b8 5cbe a9d9 adbc bd5d 4b3d
000003b0: ad3c b73c e5df 923c 5bc4 a03e e53f 67bd
000003c0: 9b94 41bd 4d1c c13d 16ea 373b db86 e73d
000003d0: 12dc 2b3e 2a4d b63d 8309 8ebd 0fe1 533e
000003e0: 3126 6bbe 4ebb ba3b ad9e 083e b1b4 98be
000003f0: 0fca 3c3e 6641 123e 3e93 423e 70cd 73bd
0.09469636 -0.16437499 -0.0649788 0.0046574255 0.08524699 -0.11648946 0.14959668 0.19306876
-0.12671322 0.09929146 -0.048048493 0.14541845 -0.10794289 0.09743422 -0.22741576 -0.06355915
0.1471632 0.32157934 -0.32743067 0.048720438 -0.14159466 -0.07182517 0.016129823 0.005985736
-0.17762177 -0.07145416 -0.2756383 -0.39132303 0.002740303 -0.13705257 0.016480893 -0.18643163
-0.0065890783 -0.1603093 -0.008239561 -0.050691355 -0.28513467 -0.008099538 -0.013678749 0.22992972
-0.063572854 -0.036999837 0.08974612 0.112373255 -0.29889086 -0.15600137 -0.016960025 -0.011929642
-0.08290464 0.009616184 0.14595254 -0.02304196 0.121981174 -0.0077280193 -0.048299823 0.1271967
0.24752416 -0.10339468 -0.09933531 0.05041849 0.11900213 -0.032428846 0.08480988 -0.033645682
0.07774087 -0.10078972 0.05001648 -0.0032854946 -0.12931931 0.21759093 -0.09865988 0.1072219
0.08125328 0.082429975 0.0732509 0.13936159 0.16563295 0.019281443 -0.024921143 0.0031812568
0.16162217 0.07242685 -0.023179445 0.13476981 -0.036811337 -0.23316416 -0.023165805 -0.11140738
0.024132153 -0.074630074 0.14688051 -0.09651995 -0.07816223 -0.07560814 -0.010169902 0.21916167
-0.039100636 -0.048828866 0.17941687 -0.09168617 0.13570347 0.17787561 -0.011375639 -0.024220323
0.025096012 -0.035012275 -0.20194747 0.2698385 -0.007867015 0.13200285 0.06880092 -0.067575864
-0.035620984 -0.008086816 0.21250997 -0.24347988 -0.014419484 -0.023094626 0.07507244 -0.008579649
0.005808222 0.1365001 0.10552682 -0.12780063 -0.082459666 -0.050878447 -0.022935791 0.18298282
-0.1025833 -0.10195726 0.086866125 -0.14855859 0.026275165 0.12335916 0.114651285 0.20971057
0.1010234 0.042973552 -0.0478425 0.10866745 -0.08320799 -0.10316316 0.11780287 0.16386615
-0.13197383 -0.066223964 -0.13039608 0.23234718 -0.38606718 0.14747584 -0.13432488 0.05673583
-0.12224308 0.18256363 0.16712867 -0.17494442 -0.080462106 0.06537856 -0.15244439 -0.016888333
0.13325755 0.04057089 -0.0905518 0.040854186 -0.06710134 0.14913616 -0.12951204 0.30826342
0.04808316 0.0393695 0.030296825 0.05375707 0.13472308 0.30479473 0.008310573 0.038593687
0.016327523 -0.12025585 0.019992348 -0.10646341 0.028702617 -0.10168845 0.13073705 -0.08980135
0.15477328 -0.055342384 0.16223209 -0.051783577 -0.016844328 -0.06657643 -0.08502508 -0.2011752
0.011058745 -0.04151073 0.017896712 0.13071766 -0.0132158995 0.017456055 0.24173011 -0.024671674
0.17665115 -0.047547232 0.09460236 0.1510873 0.04164442 0.14397906 0.14323968 -0.06717852
-0.15135823 0.17229638 0.029927578 0.071744144 -0.18499823 0.013536868 -0.07838667 0.0797115
-0.08794519 0.26126358 -0.033963718 0.26142585 0.20040852 -0.048503116 0.2572269 0.2483001
0.04491923 -0.32954755 0.07260705 -0.019088836 -0.010605225 0.012194717 -0.009122836 -0.24953388
0.23943505 -0.21554662 -0.021221953 0.049649943 0.0223678 0.017929027 0.31399807 -0.05645742
-0.04726086 0.09429226 0.002806311 0.113050185 0.16783169 0.089014366 -0.06935408 0.20691322
-0.22963788 0.005698598 0.1334178 -0.29825357 0.18436454 0.1428276 0.19001481 -0.059522092

network_body._body_endoder.seq_layers.0.bias f4 [128]
00000000: 5290 87bc 34de 903c 9d08 55bb bab8 943c
00000010: a7d7 c23c db17 833c 7ec3 d23b b6b0 3c3c
00000020: 4450 36bc 7755 c6bb d814 ff3c f2bb 83bc
00000030: 2e9c bd3c 7ad1 ee3c 0e30 253d ad0d 96bc
00000040: 222a 533c 8f17 5b3c cb2b 033d 1b5d 6a3c
00000050: f962 bc3c 8a6c cb3c 63be 033d 2296 133c
00000060: 8074 e63b bb2c ca3b bf36 043c 84a0 9cbc
00000070: 35f8 43bd 4b48 d83c e9b4 343c 8c29 c53c
00000080: ec50 46bd 8c30 babc abf9 563d e87e 293d
00000090: aa03 813d 28b2 7a3d f3dc 403d f254 f83c
000000a0: 55a7 98bc 7793 943c 3577 913c b89b 333d
000000b0: 9071 4f3c a46a a43c ccb4 4dbc 9540 46bc
000000c0: aadb 4a3d 2572 58bd e2d7 b4bc d3cb 0abc
000000d0: e2c9 333c 613a b03c 5a0f ed3c 9366 5abd
000000e0: e34b d13c c89a c33c 7ee8 0ebd f853 2b3d
000000f0: 88f5 ed3c 818c 183d f099 0dbc ceed d43c
00000100: 3482 15bd dd97 e63c cfb1 0d3d b4da 8d3c
00000110: 3b25 533d a2a8 1cbc deea 9fbc 9a11 103c
00000120: 1d2c 5d3c 8934 b83c 5441 ae3c e56c 0ebd
00000130: e655 a63c 47b3 c03c b2fc 393c 4a17 d0bc
00000140: a766 bc3c cb26 6abd 5e31 2d3c 48c2 aa3c
00000150: bce7 86ba 1959 853c 7b1a f63c 209c 213d
00000160: 61aa 56bd 53bf fa3a 7231 96bc d89f a23c
00000170: 7483 a1bc 7646 04bd 60e4 3e3d 079f 823c
00000180: 3da1 b93b 7f18 4bbd aa19 ba3c 77da 8ebb
00000190: 325d 2b3c 8604 103d 136b 1d3c 07cc 35bd
000001a0: 8083 09bd ef5d 163d 4456 c5bb 5287 0d3d
000001b0: 10ea c63b a2a6 2c3d e5c4 5abc 6af9 123d
000001c0: d23f a23c c8d0 d53b 732e aa3c 9c87 a03c
000001d0: dfaf 6abc 383e 9b3a b135 55bd 09e2 a83c
000001e0: 3b6c a43c 0335 203d da39 333c d42b 743d
000001f0: 9284 d03c bb32 98bc 08da 513c c508 ba3c
-0.01654831 0.01768408 -0.0032506355 0.01815449 0.023784472 0.016002586 0.006431996 0.011516741
-0.011127535 -0.0060526687 0.031137869 -0.01608083 0.023145761 0.02915262 0.04032903 -0.018317068
0.012888463 0.013372316 0.032024186 0.014304425 0.022996413 0.024832029 0.03216399 0.009007962
0.007032931 0.006169883 0.008069693 -0.019119509 -0.04784413 0.02640166 0.0110294605 0.024067663
-0.048417017 -0.022728227 0.052484196 0.041380793 0.06299527 0.06120506 0.047085714 0.030313943
-0.018634478 0.018136723 0.017757038 0.043849677 0.012661353 0.020070381 -0.012555312 -0.0121003585
0.049525894 -0.05284323 -0.022075597 -0.008471447 0.010973426 0.021512212 0.028937984 -0.05332048
0.02554888 0.023877516 -0.03488969 0.041828126 0.029047742 0.03724337 -0.008642659 0.0259923
-0.036501125 0.028148586 0.0345934 0.0173162 0.051549178 -0.00956169 -0.019521173 0.008793259
0.013499287 0.022485988 0.021271385 -0.03477182 0.020304631 0.023522986 0.011351751 -0.02540173
0.022998167 -0.057165902 0.010570852 0.020844594 -0.0010292451 0.016277837 0.030041924 0.039455533
-0.05240858 0.0019130505 -0.018334124 0.01985161 -0.019716002 -0.03229376 0.046604514 0.01594497
0.005664973 -0.04958391 0.022717316 -0.004359539 0.010459231 0.035160564 0.009608048 -0.04438403
-0.033572674 0.036710676 -0.0060222466 0.03455288 0.006070383 0.0421511 -0.013352607 0.03588239
0.019805823 0.006525133 0.020774102 0.019595914 -0.0143241575 0.0011844104 -0.052053157 0.020615594
0.02007114 0.039113056 0.010939086 0.05961211 0.02545384 -0.018578878 0.01280833 0.02270926

network_body._body_endoder.seq_layers.2.weight f4 [128, 128]
00000000: fbee a8bc b681 5b3a 6562 3ebd c2d8 653b
00000010: 596e 3bbc 34b8 a4bd b709 d63d e597 243d
00000020: 6c2d a3bd f46f a0bd 6f83 a53d 3c16 87bd
00000030: f265 0dbe 5c18 b1bd 1d7b bf3d 2462 b13d
00000040: 6c5d 293d d940 eabd df18 c43d 0891 9e3c
00000050: fe80 6fbd 7b01 9bbd 1524 f239 54ae 1d3e
00000060: 6245 5e3d 0420 40bc 0394 553c 3969 3abe
00000070: 8a4f a53c e6db f63d 2930 d4bd 44e0 233e
00000080: 634f c4bd 3536 ddbd ad36 b73c 78bc a13d
00000090: 5d2a 2f3e 91df 10bd eb0e c03d c3a0 9e3d
000000a0: 1781 dcbd f99a b9bc cee9 6ebd 9912 3f3c
000000b0: 4cb6 963d b5bf 6c3c 513b 28be 83b5 46bd
000000c0: a808 c6bd 54a0 a9bd dfdb 3fbe f28b dabd
000000d0: 05fb 13bd f445 363e c945 ea3d ccd4 4dbd
000000e0: bc63 7bbd 129c 2dbd 4840 e3bd ec0b 2d3e
000000f0: 350d e4bb 1a70 4c3e 9588 6c3a 47ec 58be
00000100: ba46 f6bc d5ce f6bd 1f48 663d 8ff0 0ebd
00000110: 977f 523d 579c 8c3d e3a2 09bd f5ea 503d
00000120: c010 fc3d 06bd bc3d 321c e8bd cc05 71bd
00000130: 4e84 9c3d 465c e83c 6471 2b3e 1214 17be
00000140: 1cd7 66bd 09c1 3cbd 98e0 f0bd b41b e03c
00000150: 4b8c 01bd fccb 873b 71f2 4e3e cb5e 553e
00000160: 5429 eebd e6df 95bc a900 af3d be0d eebd
00000170: fd03 4f3d 7bff 27bd 3104 493c b5bb 49bd
00000180: 40a2 40bd 3ca7 7b3d 7a1e 0cbd 378e 133d
00000190: e629 2abe a90f ba3d ae52 0e3e 712a a03d
000001a0: 3bb1 9f3d b5d8 38bd 8802 52be c6e0 64bc
000001b0: 1c59 92bc ebbb 16bb 314e f8bd 5c4c b23d
000001c0: fe22 303d ceb2 383d 9796 7ebd bca1 bebc
000001d0: 2ad0 bfbd afc7 f33d 4876 e2bd 75a3 bebd
000001e0: 9c1a e73c 74de bcbd e57d 86bd f722 c9bc
000001f0: 9b0f 18bc 8d5e 21bd 7fee 44bd bb4e c4bd
00000200: 75f8 913d 2661 f43d 3031 41bb d8b8 e4bb
00000210: 793c fcbc c8a5 f9bc 3584 5dbd 0f95 103c
00000220: 778d f03c 3865 4ebc 8628 e63d 2453 0abe
00000230: ec17 25be ab90 03be 3555 76bb 4f32 2cbe
00000240: f3a4 903d 747e c8bc 295e 013e 6692 ecbb
00000250: edfc a1bd d8bf 66bb 11bd 65bd 1208 fcbd
00000260: b808 b33d bdd4 ac3d d028 0f3d bd28 e6bb
00000270: ef53 a33a 8cae 633e 7418 8cbc d822 29bc
00000280: a0f1 20bd 975e 05bd 57d6 0c3e c1d3 1a3e
00000290: f52b 5c3e 11e6 ba3d c78f efbb a15a 293e
000002a0: 5bb2 9abd b86a c93b 4481 41bd d56c eb3d
000002b0: e4f4 ddbd a624 df3c fcc1 53bc f02d 3b3a
000002c0: 2190 dabd 3e28 04be 3653 47bd be2c 1e3d
000002d0: b3e0 3f3e 8b7b c43d a514 093d e19a 1e3d
000002e0: 0f9d 72bd b283 7a3d 0967 71bd af6e c6bc
000002f0: 7007 0bbd e096 733d f5ed 59be 9e8c 263b
00000300: d9b2 5cbe b06d e8bb af65 6d3d d9cd 8bbc
00000310: a2f9 4b3e 51e0 fcbc 2772 c43d e328 053b
00000320: 4d6b 6c3e f9d9 2c3e f36f 4fbe 9ae8 c83d
00000330: e7b7 4ebd 9e2f 59bd 2528 23bc f121 f33d
00000340: d4a3 8cbd ba3e f6bd a1a8 463e 86e5 21bd
00000350: 624c 0ebd 51cb 70bd 05ec 4d3e 85cf ac3d
00000360: 09eb 23bd 0fe5 5b3e 713e a2be 1817 a6bd
00000370: cacc 9abc 4631 80bd a6d2 423e 714b 0c3e
00000380: 92da b7bd afa1 a03d 2fe6 2cbd 2b5f c0bd
00000390: f940 a9bd 631c bd3d 7245 603e d9ea 723d
000003a0: a44d e73d 96d9 963c 8195 ab3d f687 30bd
000003b0: f14d 353e 48d5 1e3e d465 22be b40f 7a3e
000003c0: 86c0 cb3d 07b0 ff3c d9e9 47bd 0782 30bd
000003d0: 0745 e3bd 61d3 46bd a539 14bc 5e3c 5dbd
000003e0: 9b7a ed3d 67d8 8bbd 347e fbbc b8fc 98bd
000003f0: f15e 9dbc 768d ce3d 324a 31be 8c17 e5bc
-0.020621767 0.00083735154 -0.046480555 0.0035071825 -0.011439883 -0.080429465 0.10451072 0.04018392
-0.07967648 -0.07833853 0.080817096 -0.06596038 -0.1380842 -0.08647224 0.09349654 0.08661297
0.04134886 -0.1143815 0.09575056 0.019356266 -0.058472626 -0.07568642 0.0004618472 0.15398532
0.054265387 -0.011726383 0.013035777 -0.18204202 0.020179529 0.12053661 -0.10360748 0.1600352
-0.09585454 -0.10801355 0.022364939 0.07897276 0.17106004 -0.03536946 0.093778454 0.077455066
-0.107668094 -0.022656905 -0.058328442 0.011662149 0.07358989 0.014450003 -0.16428877 -0.048512947
-0.0966962 -0.08282533 -0.18736218 -0.10671224 -0.036128063 0.17800122 0.11439092 -0.050251767
-0.06137441 -0.04238517 -0.11096245 0.16899079 -0.006959582 0.19964638 0.0009023038 -0.21183883
-0.030063022 -0.12051169 0.056221124 -0.034897383 0.05139121 0.06865757 -0.033602607 0.051005322
0.12307882 0.09215741 -0.11333503 -0.05884342 0.076424226 0.028364312 0.16742474 -0.1475375
-0.056357488 -0.04608253 -0.11761588 0.02735696 -0.031627934 0.00414419 0.20209672 0.20836942
-0.116289765 -0.01829524 0.08545048 -0.11623715 0.050540913 -0.04101513 0.012269066 -0.049251277
-0.047029734 0.061438784 -0.034208752 0.0360243 -0.16617545 0.09085018 0.13898727 0.07820595
0.07797476 -0.045128543 -0.20508778 -0.013969606 -0.017864756 -0.0023000191 -0.12124289 0.08705971
0.04300212 0.045092396 -0.062155332 -0.02327048 -0.09365876 0.11903321 -0.110577166 -0.09308521
0.02821093 -0.09222117 -0.06566981 -0.024552805 -0.009281064 -0.03939681 -0.04807901 -0.09585329
0.071274675 0.11932592 -0.002947878 -0.006980043 -0.030790554 -0.030474558 -0.05408116 0.008824601
0.02936433 -0.012597375 0.11238198 -0.13508278 -0.16122407 -0.12848155 -0.0037587408 -0.16816066
0.070627116 -0.02447436 0.12633575 -0.0072196005 -0.0790957 -0.0035209563 -0.05608851 -0.12306227
0.08741897 0.08439014 0.03495103 -0.0070238994 0.0012460927 0.22234553 -0.017101504 -0.010323249
-0.03929293 -0.03256091 0.13753639 0.1511984 0.21501143 0.09125913 -0.0073108408 0.16538478
-0.0755355 0.006146755 -0.047242418 0.114953674 -0.10837725 0.027239155 -0.012924667 0.0007140329
-0.10672022 -0.12905976 -0.04866334 0.03861689 0.1873806 0.095938765 0.033466954 0.038721923
-0.059231814 0.06116075 -0.058936153 -0.0242227 -0.03394264 0.059470057 -0.2128218 0.0025413404
-0.215526 -0.007093154 0.0579583 -0.01706593 0.19919446 -0.030868681 0.09592085 0.002031856
0.23087807 0.16880025 -0.20257549 0.0980999 -0.05046835 -0.053023927 -0.009958302 0.11871708
-0.06867185 -0.12023683 0.19400264 -0.03952553 -0.034740813 -0.058787648 0.20109566 0.08438019
-0.04001907 0.21474098 -0.31688264 -0.081098735 -0.01889648 -0.06259398 0.19025669 0.13700654
-0.08977236 0.07843339 -0.042211708 -0.09393152 -0.08264346 0.0923393 0.21901491 0.059306
0.11294106 0.0184143 0.08378125 -0.043098412 0.17705514 0.15511048 -0.15859157 0.24420053
0.0994883 0.031211866 -0.048807 -0.043092754 -0.1109715 -0.04854143 -0.009046947 -0.05401265
0.11595651 -0.06828385 -0.030699827 -0.07470077 -0.01921031 0.10085575 -0.1731346 -0.02796533

network_body._body_endoder.seq_layers.2.bias f4 [128]
00000000: b11e 8e3c 4132 0a3d 331a 3c3c d429 6cbc
00000010: 3085 e53c d05a e03c 4075 8a3c 4d05 203d
00000020: 0b22 3d3d ff16 62bc 3dab e13c e489 183c
00000030: b8d9 103d cbaf d03a 6e34 a43c 7b16 3e3d
00000040: 5549 4d3c af38 b13c 6d29 d23c 85f3 2c3c
00000050: db29 083d ef40 cd3c 6a1f cc3c 3080 863c
00000060: a3f3 95bc 5e9e 9d3c 91a4 8a3c 20c7 f23c
00000070: d881 a73c 207f 423d 5271 823c 3a4c 6a3c
00000080: de2f 673c 574d 583c 0e7c a23c b585 013d
00000090: 9564 8d3c 8431 4c3c 6b7b 9a3c 71d2 bebc
000000a0: 1676 b83c b968 013d 7ac7 bc3c 347c 0d3d
000000b0: 6e4e d13c 919c 833c 947c 8e3c fc1b 913b
000000c0: 6eb0 903c 17ea 543c dabe 1abc 9b6a 433d
000000d0: 15d5 183b 720f b03c e13b 8f3c 1bfa 5e3c
000000e0: bd89 673c 0632 353c 9ceb 6c3c a748 133d
000000f0: a4a2 103c aeb3 423d 3896 2d3c 366e ba3c
00000100: 6323 623c 11fe 873c fa45 b43c d9bc fcbb
00000110: 86dd 5c3c d43f 56bb 9eb1 783c 0575 e33c
00000120: 5e12 9c3c 236a b43c e160 b43b 0392 943c
00000130: 1b24 633c e982 a13c 691e 803c b381 76bb
00000140: 1680 ef3c 8ee5 003d d615 2d3c 409a bb3c
00000150: 3c68 f23c 7120 503c 7e65 103c 4ee9 f73c
00000160: 202f b03c 5f80 54bc 74b0 9a3c 9ad0 763c
00000170: 7a6a 333b e300 c43c 877c 683c 7f3d 98bb
00000180: 34b2 693c eab7 ef3c 7ecd 393c 734c be3c
00000190: 98cb 003c 04d6 fd3c c36b 003c fc1f c2ba
000001a0: 13ee b23c 28f3 ab3c db5d 78bc f3e3 163d
000001b0: 1a89 a93c 28e9 b339 6f88 cc3c 2a3a 0ebc
000001c0: ad54 013c 487e ba3c 8449 463c 8139 ab3c
000001d0: 6829 1abc c64a b23c a008 28b9 4e21 133d
000001e0: 8bc6 093c 9ba9 f33c 76be 4e3c f955 ea3c
000001f0: 1f85 b83c c5cc a43c 0aff 8abc f0a9 97bb
0.01734862 0.033739332 0.011480856 -0.0144142695 0.02801761 0.027387053 0.016901612 0.039067555
0.046175044 -0.013799428 0.027547473 0.009310219 0.035363883 0.0015921531 0.020044532 0.046408158
0.012529691 0.021633474 0.025654519 0.010556106 0.03324304 0.025055377 0.024917323 0.016418546
-0.018304652 0.019240554 0.016924175 0.029635966 0.020447657 0.047484517 0.015923176 0.0143004
0.0141105335 0.013202033 0.019834545 0.031621654 0.017259875 0.012462977 0.018857678 -0.023293706
0.022517245 0.031594012 0.023044337 0.034542277 0.025550094 0.016065868 0.017393388 0.004428385
0.017662253 0.0129952645 -0.009444917 0.04770909 0.0023320366 0.02149174 0.017484607 0.0136094345
0.01413196 0.01105929 0.0144604705 0.03595796 0.008827839 0.047534637 0.010594897 0.02275763
0.013802382 0.01660064 0.022006024 -0.007712942 0.01348055 -0.0032691853 0.015179066 0.02776576
0.019051727 0.022023266 0.005504713 0.01813603 0.013863589 0.019715743 0.0156395 -0.0037613928
0.02923588 0.03146892 0.010564288 0.0229007 0.029590718 0.012703047 0.00881326 0.030262616
0.021506846 -0.012970059 0.018882968 0.015064383 0.0027376697 0.023926204 0.014189846 -0.004646003
0.014263678 0.029262502 0.011340497 0.023229813 0.0078610405 0.03098584 0.007838192 -0.0014810557
0.021842038 0.02098997 -0.015159096 0.036838483 0.020695258 0.00034315255 0.0249674 -0.00868086
0.007893723 0.022765294 0.012102488 0.020901443 -0.009409286 0.02176417 -0.00016024942 0.035920434
0.008409153 0.02974396 0.012618652 0.028605448 0.022524415 0.020117173 -0.016967315 -0.0046284124

action_model._discrete_distribution.branches.0.weight f4 [2, 128]
00000000: 09b0 23bd 3144 75bd 0cc0 163d 3169 143d
00000010: 6333 8d3d dea0 933d 258a 3e3d 148e 7abd
00000020: 6779 9cbd ce5e 333d 5b6c 27bd 2cf1 27bd
00000030: eae8 66bd d776 383c 35c8 413d 3b1a 3abd
00000040: 87f6 0ebd 1c08 3cbd d84e d7bc 72f6 4ebd
00000050: 3d0f 55bd 0f10 743d b7f0 95bc 0487 3c3d
00000060: 640e fe3c c242 e23c fbb4 1cbd 4786 de3d
00000070: 11cd 78bc 0680 6bbd 4a7b 0e3d 0d0f 55bc
00000080: d9b0 833d e8b7 aebb 6690 82bd 4747 f2bc
00000090: 61c1 1f3d 7db4 8f3c cab2 253d 2c27 e53b
000000a0: 60db 39bd 3ff4 1fbd ceed 783d 283e c9bc
000000b0: 986d 5bbd 671e 2e3d 1ee1 803d 5ef5 fabc
000000c0: 7b87 333d 51f6 23bd 22a8 b2bc ff0b 8abd
000000d0: a4ad 663d 0112 2fbd 2bba c3bc 95d3 933c
000000e0: 0783 03bd 62a5 083d 5828 1f3d cd01 27bd
000000f0: 567a 03bd a36b f5bc 527c d1bc e564 363d
00000100: edd7 043d 5403 dc3c 50a7 69bd 3bbf 183d
00000110: 2ea0 f83c f28b ebbc e72e 2c3d cfc0 89bd
00000120: dc28 603d 937d 6fbd 6438 1abd 9f20 293d
00000130: cb3e 413d 77d4 46bd 265e 2d3d b243 23bc
00000140: b90c 46bd c4e6 f7bc 4e85 5e3c 4d63 96bd
00000150: b3b7 09bd c3e8 30bd 6728 31bd 49fd d9bc
00000160: b42c e2bc 57a0 bc3c 4cc6 543d b2ab 86bc
00000170: 7ab3 1fbd c974 17bd efee 073d 3a20 f4bc
00000180: 6e26 603d 39dd 413d 58b4 133d bf04 06bd
00000190: 72d2 acbc c5e2 fcbc d4f3 673c a467 233d
000001a0: d27f 493d 6284 96bd 3182 823c 2f0b 79bd
000001b0: ba02 c73d c514 3f3c 29a6 3abd 0037 233d
000001c0: 2e02 dd3b ae82 4a3d 7bad 1cbd be96 67bd
000001d0: 6581 c7bc 61cd 363d 9f8e 693b 9182 b2bd
000001e0: f850 633a afdb 743d 7d71 babc fe7a bdbd
000001f0: feaf 39bd 312e 803d 944e 983c 9ca9 8cbc
00000200: bde4 403d 88f4 683d 3f51 efbc 43c5 f6bc
00000210: 2ae8 73bd 6cec 8abd e3db f5bc 4302 9e3d
00000220: 2529 723d 234d b3bc 808c 173d fe10 3e3d
00000230: c757 193d 3066 a83b 8899 72bd dde1 363d
00000240: e550 ea3c eb4c 4a3d 054d 233d c8e4 2b3d
00000250: e9f1 fd3c 84fa 5cbd cdaf 6f3c c274 34bd
00000260: 6a11 cabc 7cc4 62bd 1515 343d 32ee cfbd
00000270: 4d3a 29bc eefa 833d f53d 37bd 2eb7 5e3c
00000280: ad3a 81bd f34c 823c 00f0 713d b6e0 be3c
00000290: 3237 1cbd 75a6 0cbd 8a9c 02bd d52c 35bc
000002a0: 1056 f23c 07d7 523d 8e0e 78bd 4b43 303d
000002b0: 5ca7 683d 5931 02bd 8191 7bbd 17ad 863c
000002c0: 833b 08bd fac7 1b3d f650 8f3c 944c 843d
000002d0: 64c3 6ebd 5fbb 403d cbc9 283d e518 fcbc
000002e0: 3643 043d a9d3 1dbd d654 0fbd d3ec 763d
000002f0: 8455 363d 199a 103d 06e7 0e3d 3c39 3fbd
00000300: 260d 0ebd 7676 1fbd 0f32 643d 16bd 4bbd
00000310: 765d d5bc 9810 6f3c ca6a edbc c941 903d
00000320: ca2c 5fbd 7037 7f3d 776b 043d 0c41 e8bc
00000330: 9d27 40bd 70f6 663d 4172 00bd ce5c 6f3c
00000340: 71cb 3b3d e460 023d 4a63 8ebc 1ecb 893d
00000350: 7110 d13c 2216 e03c 8155 333d e2f4 c13c
00000360: 0920 123d 4451 cabc e676 3fbd 49c4 ac3a
00000370: 22c2 ec3c 6dab 1e3d 566b d3bc 7fc1 a23c
00000380: e1ac 28bd 2c16 54bd 0cc7 e0bc cb64 053d
00000390: 5798 013d 78be 4b3c eb46 0abd a42f 00bd
000003a0: 0434 80bd d9d6 4e3d c5c2 56ba ce5b 7f3d
000003b0: fe97 a6bd 21cd 01bd d827 403d 556a 01bd
000003c0: c638 123c 7211 7ebd 5438 303d 9d1c 883d
000003d0: 2ffe 983c 838b 30bd 3fc3 9abb 8230 663d
000003e0: 92e1 7dbb 334a 62bd 060a d53c 0de5 963d
000003f0: 7105 4d3d 10e3 7fbd 59ae afbc 5157 353c
-0.039962802 -0.059879486 0.036804244 0.03623313 0.06894567 0.07208417 0.046518464 -0.061170653
-0.07640343 0.043791585 -0.04087482 -0.041001484 -0.056374468 0.011258802 0.047310073 -0.04543517
-0.034903076 -0.04590617 -0.026282713 -0.050527997 -0.052016485 0.059585627 -0.018303258 0.0460272
0.031012721 0.027619723 -0.038258534 0.10865455 -0.01518561 -0.05749514 0.034785546 -0.013004077
0.064302154 -0.005331982 -0.06375198 -0.029575003 0.03900278 0.017542118 0.04045371 0.006993195
-0.045375228 -0.03905129 0.060773663 -0.024565771 -0.053571314 0.042509463 0.06292938 -0.030634578
0.043830376 -0.040029828 -0.021808688 -0.06740569 0.05631794 -0.04274178 -0.023892483 0.018045226
-0.03210738 0.033360846 0.038856834 -0.0407732 -0.03209909 -0.029958552 -0.025571976 0.044529814
0.032432485 0.026857056 -0.057044327 0.037291747 0.030349817 -0.028753255 0.042036917 -0.067262284
0.054726467 -0.058469366 -0.037651435 0.041290876 0.047179025 -0.048542466 0.042326115 -0.00996487
-0.048351977 -0.030261405 0.013581587 -0.07343159 -0.033622455 -0.04319073 -0.04325142 -0.026610034
-0.027609207 0.023025675 0.051946923 -0.016439293 -0.03898952 -0.03697661 0.03318685 -0.029800523
0.05472415 0.047330115 0.03606066 -0.03271937 -0.021096442 -0.03086985 0.014157254 0.03989376
0.049194165 -0.07349469 0.01593122 -0.06080168 0.09717317 0.011662667 -0.04556862 0.039847374
0.0067446446 0.049441032 -0.03825138 -0.056540243 -0.024353692 0.04462946 0.0035637987 -0.0871631
0.0008671428 0.05977982 -0.022759194 -0.092519745 -0.045333855 0.0625881 0.018592156 -0.01717072
0.04709314 0.05687383 -0.029213546 -0.030123359 -0.05954758 -0.06783375 -0.030012077 0.07715275
0.05912127 -0.021887368 0.036999226 0.046402924 0.037437227 0.005139135 -0.05922845 0.044648994
0.028603027 0.04938976 0.039868373 0.04196623 0.03099914 -0.053949848 0.0146293165 -0.04405666
-0.024666507 -0.055363163 0.043965418 -0.10152854 -0.010328841 0.064443454 -0.04473682 0.013593478
-0.0631002 0.015905833 0.059066772 0.02330051 -0.038138576 -0.034338433 -0.03188757 -0.011058052
0.029582053 0.051474597 -0.060560755 0.043032926 0.05680023 -0.031785343 -0.06141806 0.016439958
-0.03325988 0.03803251 0.01749466 0.064599186 -0.058291808 0.04705369 0.04120807 -0.03077359
0.03229066 -0.038531933 -0.034993015 0.060284447 0.044515148 0.03530321 0.03488829 -0.046685442
-0.034680508 -0.038931333 0.055711802 -0.049740873 -0.026045542 0.014591359 -0.028981585 0.070437975
-0.054486074 0.06230873 0.03232905 -0.02835133 -0.04691278 0.056387365 -0.03135896 0.014609529
0.045848314 0.031830683 -0.01738133 0.06728195 0.025520535 0.027354304 0.043782715 0.02367634
0.035675082 -0.024696954 -0.04674425 0.0013181056 0.028901163 0.038737703 -0.025808018 0.019867657
-0.041180495 -0.051778957 -0.027438663 0.032566827 0.031639423 0.012435548 -0.03375904 -0.031295434
-0.06259921 0.050497863 -0.0008192475 0.06234341 -0.08134459 -0.031689767 0.046912998 -0.031595547
0.008924669 -0.062028356 0.04302247 0.066460826 0.018675892 -0.0431018 -0.004722982 0.056198604
-0.0038739187 -0.055246543 0.026005756 0.07367907 0.050054017 -0.062472403 -0.02144544 0.011068181

action_model._discrete_distribution.branches.0.bias f4 [2]
00000000: d6c0 d93b cfc0 d9bb
0.0066453023 -0.006645299

exp_avg f4 [128, 59]
00000000: 6a96 cd39 f407 2eb7 5d93 a7b8 0000 0000
00000010: 17fc 6238 dba7 8739 9cad fe38 bc47 a4b8
00000020: 0000 0000 dc39 6a38 e4c3 7539 4487 1a39
00000030: ff90 a7b8 0000 0000 24e7 5538 05b3 8539
00000040: 5c23 7237 95e9 0738 0000 0000 92eb 6f38
00000050: 3401 2f39 b910 4f39 8d1e 83b8 0000 0000
00000060: 8cb2 6138 0b96 8c39 4e1b 7bb8 c73a c438
00000070: 0000 0000 73b6 3c38 8e0d 6739 b6d8 b738
00000080: 2fe8 ceb6 0000 0000 e4f8 5f38 c43b 7339
00000090: 5b7e 24b7 921d a738 0000 0000 2355 0a38
000000a0: fb33 aa39 9778 ebb7 af38 b136 0000 0000
000000b0: e991 8b38 02b3 1f39 ee6b 0f39 513b 5637
000000c0: 0000 0000 26c7 6737 02b3 1f39 ee6b 0f39
000000d0: 513b 5637 0000 0000 5124 c438 c57c 01b6
000000e0: 0000 0000 6be1 dab8 3711 0838 edfa 043b
000000f0: 259f 85b9 bb6d 0db9 0000 0000 1789 1239
00000100: cff1 d93a 7817 e338 5317 0ab9 0000 0000
00000110: 7c2b 1839 5810 bd3a 02ef ad39 ef5d 0db9
00000120: 0000 0000 d16f 0639 73eb ef3a b37a d5b9
00000130: 9a9c 6239 0000 0000 f2c5 1a39 077a 9b3a
00000140: c09f 103a c798 ceb8 0000 0000 d5ad 0639
00000150: 60c6 f83a 33ea 1fba 4c3c b839 0000 0000
00000160: eb2e f138 00c4 b23a 72a8 a039 21b8 01b8
00000170: 0000 0000 197e 1039 f739 c43a 46eb 8bb8
00000180: bb28 5b39 0000 0000 539f 8338 e81e 073b
00000190: c3cf 2dba 6453 7c39 0000 0000 9c00 2839
000001a0: 5dcd 833a 2761 7f3a 5776 b2b9 0000 0000
000001b0: 75e2 d1b7 5dcd 833a 2761 7f3a 5776 b2b9
000001c0: 0000 0000 82f6 3f39 48d8 36b7 0000 0000
000001d0: 9093 18ba 8cfa d338 08f5 983a 70e0 35b9
000001e0: c792 fab8 0000 0000 d0f4 1d39 7428 543a
000001f0: 3d94 3d39 4b6f f3b8 0000 0000 1c79 2139
00000200: 30dd 3b3a 4b24 9139 e67d fab8 0000 0000
00000210: 6d0b 1539 ef71 513a 8818 25b9 30cf 7339
00000220: 0000 0000 d022 1d39 dd7b c139 3662 153a
00000230: 6204 88b8 0000 0000 23c4 1039 8d47 683a
00000240: de25 b8b9 fbd5 b139 0000 0000 6f43 ee38
00000250: cd39 133a abbc a339 bec3 ee33 0000 0000
00000260: 7a34 1d39 eca8 3f3a 11ae 08b9 6544 8f39
00000270: 0000 0000 a558 9138 4b6c 863a 8e92 dfb9
00000280: 9820 9039 0000 0000 f0e5 2639 ffaa f839
00000290: 9d98 f239 9d11 84b8 0000 0000 e5bb e536
000002a0: ffaa f839 9d98 f239 9d11 84b8 0000 0000
000002b0: ac8f 3e39 6b24 d4b6 0000 0000 ef6d 9fb9
000002c0: 2336 b538 b48d 25ba 9dd3 5238 9e97 e638
000002d0: 0000 0000 bd92 91b8 8316 0aba 47d4 59b8
000002e0: 0032 e138 0000 0000 426d 9bb8 1ae9 b8b9
000002f0: 3dae 6fb9 a994 e638 0000 0000 37fa 83b8
00000300: 2e9a 0fba 68de d338 dce4 cdb7 0000 0000
00000310: fbc2 aab8 ba00 94b9 7363 98b9 7924 d538
00000320: 0000 0000 17cd 90b8 8996 0bba 2e33 5d39
00000330: 270f 1db9 0000 0000 12ad 8cb8 523b bbb9
00000340: c900 11b9 820a ca37 0000 0000 8860 98b8
00000350: 3bd3 bfb9 9593 f537 1e42 0db9 0000 0000
00000360: 6c8e 42b8 15cb 2bba d232 8039 b7bd 7db8
00000370: 0000 0000 942d d2b8 cbb5 51b9 8d19 beb9
00000380: 9665 bf38 0000 0000 c608 6bb6 cbb5 51b9
00000390: 8d19 beb9 9665 bf38 0000 0000 022a 07b9
000003a0: 904a a935 0000 0000 d5d6 5439 3fb4 1eb8
000003b0: 137e 1cbb 8ff0 8439 2bb6 d839 0000 0000
000003c0: 26ad b2b9 6f6d d8ba 113c f8b9 e2a7 d339
000003d0: 0000 0000 1c8f bab9 aa05 96ba 0db8 81ba
000003e0: f6ac d839 0000 0000 9abc a4b9 a29d d6ba
000003f0: fb8f 9339 5c63 bfb9 0000 0000 e7f0 bab9
0.00039212714 -1.037306e-05 -7.990629e-05 0.0 5.4117376e-05 0.0002587427 0.00012144001 -7.833491e-05
0.0 5.5843833e-05 0.00023437996 0.00014736975 -7.990188e-05 0.0 5.0998424e-05 0.00025501117
1.4432557e-05 3.240405e-05 0.0 5.7201432e-05 0.00016689749 0.00019747288 -6.252257e-05 0.0
5.3810465e-05 0.00026814672 -5.9868493e-05 9.3569564e-05 0.0 4.4992612e-05 0.00022034926 8.7664856e-05
-6.166308e-06 0.0 5.339914e-05 0.0002319655 -9.804581e-06 7.9686884e-05 0.0 3.2981054e-05
0.00032463655 -2.8070337e-05 5.28161e-06 0.0 6.6552144e-05 0.00015230107 0.0001367775 1.2769205e-05
0.0 1.3815041e-05 0.00015230107 0.0001367775 1.2769205e-05 0.0 9.352773e-05 -1.9295123e-06
0.0 -0.000104370374 3.244096e-05 0.0020291165 -0.0002548631 -0.00013487686 0.0 0.00013974715
0.0016627851 0.00010828575 -0.00013169395 0.0 0.00014512049 0.0014424426 0.00033175206 -0.00013481801
0.0 0.0001282089 0.0018304422 -0.00040717944 0.00021611378 0.0 0.00014760325 0.0011861929
0.00055169687 -9.8513025e-05 0.0 0.00012843993 0.0018980019 -0.0006100267 0.0003514014 0.0
0.00011500515 0.0013638735 0.0003064308 -3.092748e-05 0.0 0.00013779885 0.0014970888 -6.6718596e-05
0.00020900641 0.0 6.276243e-05 0.0020617787 -0.0006630385 0.00024063658 0.0 0.00016021956
0.001005571 0.0009741955 -0.00034038976 0.0 -2.5020194e-05 0.001005571 0.0009741955 -0.00034038976
0.0 0.00018307011 -1.0898402e-05 0.0 -0.00058203284 0.00010107932 0.0011669705 -0.00017345115
-0.000119482684 0.0 0.00015063887 0.0008093186 0.00018079668 -0.00011607873 0.0 0.00015399273
0.00071664434 0.00027683596 -0.000119443794 0.0 0.00014214004 0.0007989695 -0.00015744765 0.00023251469
0.0 0.00014985655 0.00036904114 0.00056985335 -6.485802e-05 0.0 0.00013805977 0.00088607596
-0.00035123428 0.000339195 0.0 0.00011361285 0.0005616218 0.0003123035 1.1118344e-07 0.0
0.00014992236 0.0007311243 -0.00013034815 0.00027326043 0.0 6.93065e-05 0.0010255662 -0.00042643066
0.00027490105 0.0 0.00015916652 0.00047429648 0.00046271543 -6.297531e-05 0.0 6.8466056e-06
0.00047429648 0.00046271543 -6.297531e-05 0.0 0.00018173334 -6.322332e-06 0.0 -0.0003040875
8.640836e-05 -0.0006315366 5.0264982e-05 0.000109954955 0.0 -6.941471e-05 -0.0005267637 -5.193453e-05
0.00010738149 0.0 -7.411327e-05 -0.0003526889 -0.00022857725 0.00010994945 0.0 -6.293173e-05
-0.00054779917 0.000101026904 -2.4544475e-05 0.0 -8.1425496e-05 -0.000282293 -0.00029065795 0.00010163425
0.0 -6.904656e-05 -0.00053248607 0.00021095268 -0.00014978331 0.0 -6.707957e-05 -0.00035711617
-0.0001382857 2.408517e-05 0.0 -7.265905e-05 -0.00036587738 2.9275e-05 -0.00013471438 0.0
-4.6385845e-05 -0.0006553394 0.00024451927 -6.0496586e-05 0.0 -0.0001002207 -0.00019999516 -0.0003625866
9.1265116e-05 0.0 -3.5022836e-06 -0.00019999516 -0.0003625866 9.1265116e-05 0.0 -0.00012890252
1.2613182e-06 0.0 0.00020297927 -3.7838003e-05 -0.0023878857 0.00025356232 0.00041334456 0.0
-0.0003407981 -0.0016512106 -0.00047347 0.0004037014 0.0 -0.0003558331 -0.001144578 -0.000989677
0.00041327596 0.0 -0.00031421037 -0.0016373883 0.000281453 -0.00036504387 0.0 -0.0003565617

exp_avg_sq f4 [128, 59]
00000000: d964 8634 3346 3034 64d3 a333 0000 0000
00000010: ad2e f932 a9aa 0734 052f 8734 d82e e233
00000020: 0000 0000 09c3 e732 b38b 8634 c0fa 2434
00000030: df48 a433 0000 0000 6cc8 0733 983d bf33
00000040: 3840 4d34 40b8 5a34 0000 0000 b451 d332
00000050: dada 6034 a356 3c34 c055 aa33 0000 0000
00000060: 592e 2e33 31cc b933 b26a d333 06b3 a734
00000070: 0000 0000 b68b a832 2074 3834 8a70 0034
00000080: e88b 3034 0000 0000 b84c 5b33 1062 9e33
00000090: 1a90 3833 d903 ce34 0000 0000 fc2a 9232
000000a0: 55b2 cc33 4cba c833 ce6d 9a34 0000 0000
000000b0: e265 8133 ce6b 8a33 41fe 7333 d340 c834
000000c0: 0000 0000 3a5c 7c32 ce6b 8a33 170b 7433
000000d0: de3f c834 0000 0000 385a 8d33 cdd0 ff2f
000000e0: 0000 0000 151c d733 9e22 a832 62d7 dd36
000000f0: 2839 1936 b2fc 8034 0000 0000 9b40 b534
00000100: 7aa5 ab36 f2ff 6436 f17f fa34 0000 0000
00000110: b63e ae34 e320 f836 a6e1 e635 0970 8334
00000120: 0000 0000 813b cd34 b80a 8a36 10e5 6336
00000130: da1c a935 0000 0000 04ec ac34 ac18 c636
00000140: 5aae 3c36 0666 9034 0000 0000 8cda 0035
00000150: 9b2c 7436 ae14 0636 1101 4136 0000 0000
00000160: 46c0 9d34 c531 9736 8800 5136 fd2e 9435
00000170: 0000 0000 8faa 2a35 cdec 3236 ab5d 0836
00000180: a934 7836 0000 0000 88ac 9034 460e 7536
00000190: d2c3 f235 ffbd 4736 0000 0000 c560 4e35
000001a0: 61a1 1936 5914 1a36 2b31 7936 0000 0000
000001b0: 9c9d 8934 61a1 1936 b615 1a36 2430 7936
000001c0: 0000 0000 331f 5335 408b 8132 0000 0000
000001d0: 0e1a d435 48c8 a234 7b01 1636 7b3e 8a35
000001e0: 679a 1834 0000 0000 a5cd 6834 1527 c035
000001f0: 4f61 e535 e1b5 8834 0000 0000 5ac3 6034
00000200: f0b1 2136 3262 7535 88ce 1934 0000 0000
00000210: fd83 8134 85d4 7735 220d d635 f3b6 5535
00000220: 0000 0000 4b51 5b34 5c13 db35 622d cf35
00000230: ceb8 2a34 0000 0000 8866 a234 3ff0 4535
00000240: b2fd 5d35 0c5f e935 0000 0000 5d9f 4534
00000250: 693a 6735 4141 e735 9419 3535 0000 0000
00000260: 15da d034 1eca 0c35 5a35 1d35 d1bc 1536
00000270: 0000 0000 2d85 3034 5c25 3035 a11c 3535
00000280: 5b07 ff35 0000 0000 52a4 f234 4ddd e734
00000290: db3b 1735 ce8f 1736 0000 0000 b59b 2734
000002a0: 4ddd e734 643d 1735 838f 1736 0000 0000
000002b0: 3e2f eb34 a159 9931 0000 0000 b5cc 1435
000002c0: adb9 0734 8d79 0835 60fa 8d34 9eda 8533
000002d0: 0000 0000 6f64 0533 47b3 f734 d260 9a34
000002e0: 268b cc33 0000 0000 ad26 0433 7d91 1535
000002f0: 1ac9 9c34 342b 8f33 0000 0000 f12d 0f33
00000300: cb08 cd34 3477 9534 3281 4334 0000 0000
00000310: 1937 0333 4c1f ff34 d02f b534 0ca1 a133
00000320: 0000 0000 ca83 3433 0051 9f34 ac84 9034
00000330: 6832 9034 0000 0000 5de1 0433 49f1 d934
00000340: f91c 8734 f9c6 4c34 0000 0000 95b7 6033
00000350: bd70 6334 ca67 8734 fefe bb34 0000 0000
00000360: 2294 0e33 e28f bc34 0025 3734 f583 a934
00000370: 0000 0000 e5fc 7833 5048 4834 97e9 8c34
00000380: 97bd c734 0000 0000 edbd 0f33 5048 4834
00000390: a7e9 8c34 94bd c734 0000 0000 9765 8633
000003a0: e905 2131 0000 0000 ae2a f333 4f09 f532
000003b0: 2e33 1b37 9449 c636 f548 3a35 0000 0000
000003c0: a3e0 8935 02b6 c336 fd43 1037 8165 ac35
000003d0: 0000 0000 506f 8535 1a55 2237 7134 b236
000003e0: 5e07 3b35 0000 0000 d08e 9835 dfa1 6436
000003f0: 358c 0c37 3a39 7136 0000 0000 03f8 8035
2.503282e-07 1.6416816e-07 7.628731e-08 0.0 2.900864e-08 1.263494e-07 2.517992e-07 1.0532466e-07
0.0 2.6980631e-08 2.506109e-07 1.5364913e-07 7.6501e-08 0.0 3.161442e-08 8.9053344e-08
1.9115475e-07 2.0369862e-07 0.0 2.4600787e-08 2.0941243e-07 1.7540383e-07 7.93184e-08 0.0
4.0554685e-08 8.651876e-08 9.844861e-08 3.123643e-07 0.0 1.9621307e-08 1.7178581e-07 1.196187e-07
1.6442175e-07 0.0 5.1059686e-08 7.375286e-08 4.2971898e-08 3.837329e-07 0.0 1.7016184e-08
9.531929e-08 9.347113e-08 2.876463e-07 0.0 6.025563e-08 6.445735e-08 5.680909e-08 3.730007e-07
0.0 1.46893e-08 6.445735e-08 5.6820763e-08 3.7299372e-07 0.0 6.582235e-08 4.6532592e-10
0.0 1.0016826e-07 1.9573516e-08 6.611387e-06 2.2832046e-06 2.4025718e-07 0.0 3.3760884e-07
5.115461e-06 3.4123627e-06 4.6659218e-07 0.0 3.2455654e-07 7.3948045e-06 1.7202008e-06 2.4482168e-07
0.0 3.822752e-07 4.1139683e-06 3.3958968e-06 1.2599878e-06 0.0 3.220922e-07 5.903732e-06
2.811567e-06 2.6896322e-07 0.0 4.8001743e-07 3.6384797e-06 1.9979593e-06 2.8759862e-06 0.0
2.9383426e-07 4.5059446e-06 3.1143736e-06 1.1040535e-06 0.0 6.357813e-07 2.6661903e-06 2.0320101e-06
3.6985532e-06 0.0 2.6947623e-07 3.6516153e-06 1.8087396e-06 2.9763903e-06 0.0 7.68818e-07
2.2892712e-06 2.2959632e-06 3.713251e-06 0.0 2.5632914e-07 2.2892712e-06 2.2960426e-06 3.7131913e-06
0.0 7.8649026e-07 1.50809e-08 0.0 1.5802814e-06 3.0320575e-07 2.2352604e-06 1.0299985e-06
1.4212274e-07 0.0 2.1681497e-07 1.4316489e-06 1.709015e-06 2.5464308e-07 0.0 2.0932694e-07
2.4094443e-06 9.1412505e-07 1.4324371e-07 0.0 2.4124157e-07 9.2323927e-07 1.5948065e-06 7.961491e-07
0.0 2.0425539e-07 1.6322406e-06 1.543591e-06 1.5899715e-07 0.0 3.0249453e-07 7.3737823e-07
8.269809e-07 1.7387515e-06 0.0 1.8405031e-07 8.6139204e-07 1.7229833e-06 6.7464975e-07 0.0
3.8901695e-07 5.2448183e-07 5.8564694e-07 2.2312636e-06 0.0 1.6439726e-07 6.5619474e-07 6.7469415e-07
1.9001121e-06 0.0 4.519557e-07 4.318812e-07 5.6338985e-07 2.2584459e-06 0.0 1.5609733e-07
4.318812e-07 5.634122e-07 2.2584288e-06 0.0 4.3806534e-07 4.4630757e-09 0.0 5.5432184e-07
1.2640403e-07 5.084083e-07 2.6445468e-07 6.2330614e-08 0.0 3.105782e-08 4.6137777e-07 2.875518e-07
9.524801e-08 0.0 3.076882e-08 5.571854e-07 2.9203585e-07 6.666815e-08 0.0 3.3336566e-08
3.8190623e-07 2.7840144e-07 1.8207791e-07 0.0 3.0550925e-08 4.7520223e-07 3.3748665e-07 7.526441e-08
0.0 4.2029377e-08 2.9674993e-07 2.6918622e-07 2.6858766e-07 0.0 3.093861e-08 4.0594958e-07
2.516679e-07 1.9071366e-07 0.0 5.232103e-08 2.1182036e-07 2.5221226e-07 3.5016996e-07 0.0
3.3196677e-08 3.5122417e-07 1.7056664e-07 3.1574714e-07 0.0 5.7972006e-08 1.8652759e-07 2.624699e-07
3.7204583e-07 0.0 3.346752e-08 1.8652759e-07 2.6247037e-07 3.7204575e-07 0.0 6.25834e-08
2.3431943e-09 0.0 1.1323333e-07 2.8525987e-08 9.250636e-06 5.9094255e-06 6.9396566e-07 0.0
1.0272673e-06 5.8326414e-06 8.598899e-06 1.284454e-06 0.0 9.941668e-07 9.675767e-06 5.3109184e-06
6.967365e-07 0.0 1.1366446e-06 3.406887e-06 8.377295e-06 3.5945109e-06 0.0 9.608924e-07

exp_avg f4 [128]
00000000: 5441 9e39 5be0 d63a 9a1f 653a 0f1b f7b9
00000010: 7992 e1ba c3ee 653b 40c3 cb3a 3291 b7ba
00000020: 974a cf3a b8d1 a33a 77d5 8d3b f7f1 4bb8
00000030: c290 443b a6fa a239 d8ad 1bbb 05d3 cf39
00000040: d5ec 373b 804e 68b9 72ba 29bb 6f87 14bb
00000050: a87c 6a3b 5108 d73a 0640 2b3b 46b5 8a3b
00000060: bfc0 07bb ba48 3bba da86 cbba 7915 45b9
00000070: 6a5c 073a bb0c 5ebb 147c a6ba 495c 71bb
00000080: ecbf 3c39 a122 8bba 8682 69bb c646 c8bb
00000090: 6d69 e7bb e498 b838 4cc1 20bb fb80 65bb
000000a0: f08c 1639 2c44 5b3a ce2a fa3a a00d 89bb
000000b0: 39a1 093b 0795 22ba 10cd 6d38 fc01 ca3a
000000c0: d0e5 8a39 44f9 e538 8fe9 f338 7e3a 2eba
000000d0: 1895 9dba 4b5b 38bb 54b9 39bb 3e11 2a38
000000e0: 99f8 d03b c264 99bb 5d10 5d3a a57f 81bb
000000f0: 471a 14bb 24cf 89bb bbce 973a a0ae 753b
00000100: daed da39 50f3 4d3b 80a2 ab3a 6911 443b
00000110: 30e6 9dbb 6e7a b639 7344 8e38 cb38 5d3a
00000120: 2521 84ba 5808 67bb 09e1 5f3b 8c48 d439
00000130: 8758 d23a 3798 ceba aa9d 0bbb 6d18 0ab9
00000140: 1335 a03a 4b80 9f39 9614 c6ba e488 29b9
00000150: ff06 403b a487 bbb9 e7da cdba b3c6 12bb
00000160: e554 5339 bd90 3cba 0d9a 583a ddc2 d53a
00000170: c5ce b0b9 1e5c ebb6 ce3e 62bb ba51 a7b8
00000180: f3e3 1d3a 1d44 8136 fa2d 473b 4518 463b
00000190: 1065 e33a f1a0 1bbb 9fb5 66ba dc1b ff38
000001a0: 87e5 9439 7e70 ba3b 55bb bd3a b56b 1c3b
000001b0: c346 00bb 89a8 61bb 67f7 5b3b de06 84bb
000001c0: b02a 973b 3599 fab9 e7cd e639 4538 373b
000001d0: 0be2 7139 1245 9cba 6f02 1839 b4dd 983b
000001e0: 03b9 adba 7522 1cbb ce7d f139 6644 8bbb
000001f0: baed 823b 6f78 1c3a 97ff 413a c8c9 953b
0.00030184782 0.0016393767 0.0008740366 -0.0004713167 -0.001720979 0.003508494 0.001554586 -0.0014005064
0.0015815076 0.0012498414 0.0043284255 -4.862432e-05 0.002999351 0.00031085795 -0.0023754742 0.00039639339
0.0028064747 -0.00022154488 -0.0025898484 -0.0022663733 0.0035779867 0.0016405677 0.002613069 0.0042330353
-0.002071425 -0.0007144321 -0.001552786 -0.00018795383 0.0005163612 -0.00338821 -0.0012701773 -0.0036828688
0.00018000574 -0.0010615179 -0.0035630777 -0.0061119525 -0.0070621283 8.802282e-05 -0.0024529276 -0.0035019505
0.00014357618 0.00083643454 0.0019086243 -0.0041825324 0.0021000637 -0.00062020164 5.6696183e-05 0.0015411968
0.00026492635 0.00010966 0.000116306466 -0.0006646289 -0.0012022583 -0.0028130587 -0.0028339224 4.0547216e-05
0.0063772914 -0.0046812007 0.0008432919 -0.003951984 -0.002259867 -0.0042056013 0.0011581996 0.0037488118
0.00041757413 0.0031425543 0.0013094693 0.0029917604 -0.0048187003 0.00034804962 6.783837e-05 0.0008438944
-0.0010080679 -0.0035252776 0.003416123 0.00040489843 0.0016048112 -0.0015761916 -0.0021303692 -0.00013169805
0.0012222849 0.0003042243 -0.0015112336 -0.00016168092 0.0029301045 -0.0003576848 -0.0015705497 -0.0022396266
0.00020154154 -0.00071931985 0.00082627014 0.0016308684 -0.0003372339 -7.0142696e-06 -0.0034522298 -7.978403e-05
0.0006023042 3.852429e-06 0.0030392394 0.0030226868 0.0017348845 -0.0023747052 -0.00088008674 0.00012164537
0.0002839977 0.0056896796 0.0014475385 0.002386791 -0.0019573427 -0.003443273 0.0033564211 -0.004029139
0.004613243 -0.00047797864 0.00044022428 0.0027957123 0.00023067759 -0.001192244 0.00014496756 0.004665101
-0.001325399 -0.002382425 0.00046060834 -0.004250097 0.0039956244 0.0005968874 0.00074004516 0.0045711733

exp_avg_sq f4 [128]
00000000: 9343 2735 a02e 3b37 9b77 8636 a31b 8535
00000010: 6030 9b37 5f67 ca37 a240 a136 9e21 9a36
00000020: 3672 8837 1bec bd36 09c9 9d38 d41d 3435
00000030: b3f3 f937 f07c 7735 9277 0b38 ff7f db34
00000040: 4ce4 9837 8103 d034 8111 a938 01ed 5236
00000050: d737 4738 5a50 b736 b2ac 5438 dcda 1738
00000060: 24c0 d336 757c 3a36 6fb3 0a38 03e1 1934
00000070: b0d7 4736 a5fc f237 131c 5636 c808 1038
00000080: 3339 c035 01c8 9535 faed 8638 85f8 a738
00000090: 495b 6739 03de d434 adc5 1d37 debc 8b37
000000a0: 05a6 cb34 994f 3137 ccd0 5f37 aa7d 7738
000000b0: 0754 3b37 b7fa 2f36 fc93 0933 0ad2 1837
000000c0: 2bfe 4736 2b62 6c33 1c2d be33 5fde 8436
000000d0: 0f72 6236 118f bb37 6778 ab38 7e71 8434
000000e0: 75c1 c538 74a5 9038 4d31 ee35 ce88 5038
000000f0: 1791 1737 e791 6638 6b6b 0237 ffc7 3838
00000100: 8376 8334 6b51 e637 1c4f 9537 a33f 8737
00000110: d7ca b938 fa63 2e36 465c e734 d6eb 0336
00000120: 0d3f d437 973f 6338 7b54 0838 8351 3d34
00000130: 914a 4d37 6696 3a37 c364 e937 08a4 ba32
00000140: 0bf3 8337 215f 6035 47ea 0f37 a865 4d36
00000150: 7574 3937 e51f 5933 b987 f536 edad 1f37
00000160: 9c1d b134 b4e2 c436 ebdf 1036 2aa4 a537
00000170: ef73 9b35 b6e7 f232 06a6 e737 c70e 2635
00000180: c349 6f36 200c 8132 0d39 3f38 76ac f937
00000190: ad72 8e37 2ec7 5937 39a0 d634 aa20 c833
000001a0: 7664 5d35 193e a538 1d6f 3737 b487 9a37
000001b0: 6049 1137 7149 fb37 f299 c637 ab21 6d38
000001c0: bc6e 8538 ba4b 1f35 ddd3 8e35 2049 a638
000001d0: e9a1 ff33 12f2 2236 a67e 4734 030b 9e38
000001e0: 2b5b 9137 b112 5c38 ce22 1636 7a00 8838
000001f0: 76ae ae38 42ef c536 2ca9 9436 bb91 2f38
6.231068e-07 1.1156924e-05 4.007435e-06 9.917316e-07 1.8499966e-05 2.4128412e-05 4.805698e-06 4.593471e-06
1.6265647e-05 5.660125e-06 7.523789e-05 6.709863e-07 2.9796594e-05 9.219648e-07 3.325154e-05 4.0885058e-07
1.8226121e-05 3.8745569e-07 8.061808e-05 3.1430393e-06 4.7497302e-05 5.463179e-06 5.0705574e-05 3.6205034e-05
6.310658e-06 2.7788603e-06 3.3068874e-05 1.4331094e-07 2.9778857e-06 2.8966295e-05 3.1904826e-06 3.4340454e-05
1.4321762e-06 1.1159574e-06 6.4339445e-05 8.009471e-05 0.00022063883 3.9649612e-07 9.403954e-06 1.665804e-05
3.7932492e-07 1.0568555e-05 1.334045e-05 5.9006423e-05 1.1165633e-05 2.6222967e-06 3.203239e-08 9.1088095e-06
2.9801256e-06 5.5037315e-08 8.85577e-08 3.959794e-06 3.3743015e-06 2.2358758e-05 8.176342e-05 2.4669492e-07
9.429726e-05 6.897273e-05 1.774673e-06 4.9718474e-05 9.034083e-06 5.4972155e-05 7.773614e-06 4.405528e-05
2.448688e-07 2.745605e-05 1.7799022e-05 1.6122887e-05 8.859269e-05 2.5986214e-06 4.309424e-07 1.9657796e-06
2.530173e-05 5.418024e-05 3.2503605e-05 1.763165e-07 1.22363135e-05 1.1121481e-05 2.7822685e-05 2.1727843e-08
1.5729593e-05 8.3584933e-07 8.578011e-06 3.0606552e-06 1.1053974e-05 5.0553258e-08 7.317369e-06 9.517634e-06
3.2990363e-07 5.867647e-06 2.158801e-06 1.9745978e-05 1.1582141e-06 2.8277878e-08 2.7614657e-05 6.186132e-07
3.565671e-06 1.502309e-08 4.559108e-05 2.9763421e-05 1.698112e-05 1.2980583e-05 3.9977184e-07 9.319167e-08
8.2475106e-07 7.87938e-05 1.0933521e-05 1.8421422e-05 8.659757e-06 2.995573e-05 2.3675126e-05 5.653656e-05
6.36256e-05 5.934231e-07 1.0641485e-06 7.9291174e-05 1.1903814e-07 2.4280785e-06 1.8579394e-07 7.536078e-05
1.73278e-05 5.2469495e-05 2.2372e-06 6.485074e-05 8.3294624e-05 5.898911e-06 4.430438e-06 4.1858973e-05
