results/FlappyBird/FlappyAgent_ImitationLearning3/FlappyAgent/FlappyAgent-19824.onnx (onnx, 102775 bytes, 6 tensors)

network_body._body_endoder.seq_layers.0.weight f4 [128, 59]
00000000: f069 c03d 56de 27be ea30 84bd 519d 983b
00000010: 9c6e ac3d 0965 f3bd b98d 1a3e f34f 463e
00000020: 1cc1 01be e4ce c83d 5af8 48bd 6da7 153e
00000030: 812f dcbd 988b c73d 89f4 69be 3280 84bd
00000040: 6532 173e 8318 a53e fea4 a7be 07cd 413d
00000050: 0c37 12be 0731 8fbd 7dcf 843c fe23 c43b
00000060: 0aee 36be 8d3a 94bd 4d96 8dbe e5be c7be
00000070: a896 333b f8e0 0dbe 9e5d 813c 2bb0 3bbe
00000080: 85c1 ebbb 1f28 24be 998c 0ebc 246b 55bd
00000090: 7912 91be 5dd0 fbbb d51c 60bc fdb7 693e
000000a0: ba69 80bd 1fe8 15bd be25 b73d f323 e63d
000000b0: 61f7 98be 5224 22be c775 86bc 3bb7 30bc
000000c0: e8c9 a9bd 0230 023c 160f 133e f648 b8bc
000000d0: f328 fc3d 533b fdbb 9a84 3fbd 9c11 023e
000000e0: f976 7d3e 3d79 e2bd 961d ccbd f424 4e3d
000000f0: 83d2 f13d 56f1 01bd cdb0 ad3d a745 0ebd
00000100: 9481 9c3d 8c2c cdbd e237 503d 7451 57bb
00000110: 99c1 05be a8ae 5d3e b4e7 c7bd f800 dd3d
00000120: 1f68 a63d 5950 a63d 305b 953d ccc6 0e3e
00000130: 5498 2a3e 1ef4 9d3c dcbb d7bc 90c8 f53a
00000140: ca4d 273e f979 963d d2e2 bdbc 94ad 083e
00000150: ee65 18bd e773 6ebe f18d bbbc 8d29 e4bd
00000160: cbe2 b93c dc23 9abd d872 183e d2ef c6bd
00000170: 8513 a0bd 117c 9cbd 14fa 3cbc 71e2 613e
00000180: c99f 1fbd c700 48bd b4ef 353e 3955 b9bd
00000190: c28e 0a3e 3188 353e e360 3abc 9ac9 c9bc
000001a0: 76e3 bb3c a31a 07bd 19f3 4ebe 4628 8a3e
000001b0: 8489 20bc 6af5 043e a70e 913d d1b4 8abd
000001c0: 4fe7 11bd e11e edbb 6088 593e ca52 79be
000001d0: aaaf 9dbc 0980 c5bc 8863 993d 16f6 18bc
000001e0: 85b9 e03b afc6 0b3e 7b79 d63d 275f 05be
000001f0: 2f97 a6bd 8844 4bbd d7e3 bbbc 3c4d 3a3e
00000200: f08f d5bd 763d cdbd 910c b43d be1f 18be
00000210: 8488 cf3c 463f f93d 7dbc eb3d 0d68 583e
00000220: 5be5 ce3d 5e79 2a3d d5a4 4fbd 7413 e43d
00000230: c06c a9bd 3547 d3bd eb39 ef3d 76e5 263e
00000240: 06e9 06be 7772 86bd 8d86 05be 7b22 6c3e
00000250: 4bab c6be 7c7b 193e 3104 0abe d463 683d
00000260: fd0c fbbd 8136 393e a2d4 2b3e ada1 32be
00000270: 51c9 a4bd 75cb 813d 6936 1bbe dfc9 85bc
00000280: bb33 083e a92d 263d b573 b9bd e234 1b3d
00000290: 44ae 86bd 4844 193e ce9e 04be f3c8 9c3e
000002a0: 03d1 383d 34be 263d 2c9a fc3c 6030 5c3d
000002b0: 6b25 0b3e e590 9c3e 1229 083c b835 073d
000002c0: f290 803c e6e1 f5bd fb36 a23c 04aa dbbd
000002d0: c021 eb3c 2ddf cbbd 4852 073e 82fa babd
000002e0: 7b3b 1d3e b2ae 62bd 55ac 283e 4c29 4fbd
000002f0: 4d0c 93bc 94c5 89bd a121 aebd 27b9 4bbe
00000300: 6338 323c aeb5 2cbd 4cc7 8c3c dada 053e
00000310: b554 2fbc d97d 973c a1b6 753e 6ca9 cebc
00000320: 0ae4 343e 757f 39bd 3b43 c33d a0cf 193e
00000330: e896 293d 3f6f 133e 35c6 143e cf64 89bd
00000340: c627 1ebe 4c8a 313e ae2a f53c 186a 963d
00000350: 0b21 3bbe 3964 273c 04c2 9fbd c83f a33d
00000360: 4176 b0bd 76b0 843e 1609 0abd c485 863e
00000370: e437 4d3e 5907 43bd c395 853e 3cd3 7a3e
00000380: 691e 363d 75ba a8be 3f0f 983d f66e 7cbc
00000390: 0fb4 64bc fd50 403c f377 15bc 29bf 80be
000003a0: 1190 743e 41b8 5cbe f98f 4dbc ecd4 4e3d
000003b0: 79e4 bc3c 5ee4 8e3c 93eb 9f3e e53f 67bd
000003c0: 17b2 3cbd 05de c63d ede0 893a 0311 e43d
000003d0: 12dc 2b3e 5929 b93d a754 89bd 3271 513e
000003e0: 15d7 6cbe 4ebb ba3b c0fa 093e f6e6 97be
000003f0: 19dd 3b3e 584d 103e 3e93 423e 4241 6dbd
0.09395206 -0.16393408 -0.06454642 0.0046574255 0.084195346 -0.11884505 0.15093125 0.19366436
-0.12671322 0.09805086 -0.04906497 0.14614649 -0.10751248 0.09743422 -0.22847189 -0.06469764
0.14765318 0.32245263 -0.32743067 0.04731467 -0.14278811 -0.06991773 0.01621222 0.005985736
-0.17864242 -0.0723773 -0.27653733 -0.39012828 0.002740303 -0.1385535 0.01579171 -0.18328921
-0.0071947 -0.1603093 -0.008700513 -0.05210413 -0.28334406 -0.007684751 -0.013678749 0.22824092
-0.06270166 -0.03659832 0.089427456 0.112373255 -0.29876235 -0.15834168 -0.016413582 -0.010785873
-0.08290464 0.007946016 0.14361224 -0.022495728 0.12312498 -0.0077280193 -0.046757318 0.1270203
0.24752416 -0.110582806 -0.099665806 0.05032821 0.1180773 -0.031724297 0.08480988 -0.034734394
0.076419026 -0.10018262 0.050834544 -0.0032854946 -0.13062133 0.21648657 -0.09760991 0.107912004
0.08125328 0.08120794 0.07292783 0.13943022 0.16659671 0.019281443 -0.026334696 0.0018751789
0.16338268 0.07347483 -0.023179445 0.13347465 -0.037206583 -0.232864 -0.022894831 -0.11140738
0.022691151 -0.07526371 0.1488756 -0.09713711 -0.07816223 -0.07640851 -0.011534233 0.22059037
-0.038970742 -0.048828866 0.1776722 -0.09049458 0.1353102 0.17727734 -0.011375639 -0.024632264
0.02293561 -0.032984387 -0.20209922 0.2698385 -0.009798411 0.12984243 0.07082873 -0.06772769
-0.035620984 -0.007236347 0.21243429 -0.24347988 -0.019248802 -0.024108903 0.07489687 -0.009336015
0.006858053 0.1365001 0.10472389 -0.13024579 -0.08134305 -0.049625903 -0.022935791 0.18193525
-0.104278445 -0.10021488 0.08791459 -0.14855859 0.02533365 0.121702716 0.11510561 0.21133442
0.1010234 0.04161965 -0.050694305 0.11136523 -0.082726955 -0.10316316 0.11680969 0.1629847
-0.13174829 -0.06564801 -0.13039608 0.23060028 -0.3880256 0.14988512 -0.13478161 0.05673583
-0.12258337 0.18087198 0.16780332 -0.17444487 -0.080462106 0.063376345 -0.15157475 -0.016331611
0.13300984 0.04057089 -0.090552725 0.03789223 -0.06576207 0.14967453 -0.12951204 0.30622062
0.045121204 0.040708736 0.030835234 0.05375707 0.13588493 0.30579296 0.008310573 0.033010215
0.015694115 -0.12005977 0.019801607 -0.10725787 0.028702617 -0.09954677 0.13214982 -0.09129812
0.15354721 -0.055342384 0.1647199 -0.050576493 -0.017950201 -0.06727138 -0.08502508 -0.19894849
0.010877701 -0.04216545 0.017184876 0.13071766 -0.010701348 0.018492626 0.23995449 -0.025227271
0.17665115 -0.045287568 0.095343076 0.15020609 0.04140368 0.14397906 0.14528735 -0.06708681
-0.1544486 0.17337912 0.029927578 0.073444545 -0.18274324 0.010216766 -0.078006774 0.0797115
-0.08616305 0.2591588 -0.03370007 0.2627393 0.20040852 -0.04761443 0.26090822 0.24494642
0.044462595 -0.32954755 0.07424783 -0.0154073145 -0.013958945 0.011738059 -0.009122836 -0.25145844
0.23883082 -0.21554662 -0.012546533 0.050496027 0.023058163 0.017442878 0.31234416 -0.05645742
-0.046068277 0.097103156 0.0010519304 0.11136057 0.16783169 0.090410896 -0.06705599 0.20453337
-0.23128922 0.005698598 0.1347456 -0.29668397 0.18346061 0.14092004 0.19001481 -0.057923563

network_body._body_endoder.seq_layers.0.bias f4 [128]
00000000: 667a 83bc af80 8f3c 483d 59bb ea20 903c
00000010: 14e9 c03c 3207 773c 9e06 c13b ac6d 393c
00000020: e1e5 28bc 3e04 d9bb 788c fe3c fc24 7cbc
00000030: 8e6c ba3c 5272 ee3c 2caa 263d b226 8fbc
00000040: 1119 4a3c 3878 513c 45a4 043d 0294 3c3c
00000050: 84b1 b73c 615f c13c 016a 023d 7e19 033c
00000060: 4060 a23b e9d8 b03b 3723 0b3c ca4b 9cbc
00000070: f81a 3ebd 1005 ca3c cd2a 303c 8abb c53c
00000080: 32e1 45bd 1e1f b9bc b0b2 5b3d de85 283d
00000090: f9be 803d bd9f 773d fbf9 3e3d 4290 f13c
000000a0: d97d 9bbc f7cc 943c e55f 903c b6c5 313d
000000b0: c44d 503c bc3e 933c 90d6 50bc 9fc8 51bc
000000c0: d46e 4a3d 7ed6 51bd 4713 b9bc 479b eabb
000000d0: fc85 2f3c f343 aa3c 536b ed3c 8ff8 58bd
000000e0: 797b d13c 4c5f c43c 482a 0ebd 5bf3 243d
000000f0: 5070 ed3c d5c3 183d 8e0f 0dbc bd17 d43c
00000100: 32ca 17bd 20d5 e43c 865d 0d3d 09ac 883c
00000110: f167 533d 7535 1dbc b118 9fbc 7edc 043c
00000120: 7171 4f3c 6506 ba3c 28ad af3c d836 16bd
00000130: bd64 a13c dfb0 b73c f235 433c 06ea d8bc
00000140: fdeb b83c a31a 62bd e1a0 2f3c 99e1 a93c
00000150: d332 b4ba 341f 733c d470 f13c 35d9 1e3d
00000160: 400a 54bd 775c 0a3b ea2e 9cbc 8f9a a23c
00000170: 29ea 9cbc 295a febc b3bc 3c3d 51cc 8d3c
00000180: b0f4 b53b 9c05 46bd dd83 b83c 86fb acbb
00000190: afe2 2d3c db20 103d acd4 4a3b fbf2 2ebd
000001a0: 74c6 08bd fcc8 143d b1d1 bbbb 8b46 0a3d
000001b0: 45f0 a63b 57ed 2b3d 8114 62bc eb08 0f3d
000001c0: 43d5 a13c ad47 c43b 8a5d a63c 981a 9f3c
000001d0: 1f9d 5bbc fbe6 aa3a 604b 4dbd 1413 ab3c
000001e0: 91d9 a93c 8c45 223d 5069 323c 14a3 763d
000001f0: 264b d03c 3815 9abc f569 4d3c 6903 b53c
-0.016049575 0.017517416 -0.0033148099 0.01759382 0.02354864 0.015077399 0.0058906814 0.011317652
-0.010308714 -0.00662282 0.03107284 -0.015389677 0.022756841 0.029107247 0.040689632 -0.017474506
0.012335078 0.01278501 0.032383222 0.011509897 0.022423513 0.02360505 0.031839374 0.008001683
0.0049553216 0.0053969515 0.008492283 -0.019079108 -0.04641244 0.024660617 0.010752392 0.024137277
-0.048310466 -0.022597846 0.053637207 0.04114329 0.06286425 0.060455073 0.04662512 0.029487733
-0.018980907 0.018164141 0.017623851 0.043401442 0.012713853 0.01797425 -0.012746468 -0.012804179
0.0494221 -0.051229946 -0.0225922 -0.007159624 0.010713097 0.020784354 0.02898184 -0.05297142
0.025571572 0.023971222 -0.03470829 0.040271144 0.028984219 0.037296135 -0.008609666 0.025890226
-0.037058063 0.027933657 0.03451302 0.016683595 0.051612798 -0.009595265 -0.019420953 0.00810921
0.012661324 0.022708127 0.021444872 -0.036673397 0.019701356 0.022423206 0.011914717 -0.026478779
0.022573465 -0.055201184 0.010719509 0.020737456 -0.0013748057 0.014838982 0.029472746 0.038781364
-0.051767588 0.0021112242 -0.01906534 0.01984909 -0.019154625 -0.031048851 0.046078395 0.01730934
0.0055528507 -0.048345193 0.022523815 -0.0052790074 0.010613128 0.035187583 0.0030949516 -0.042712193
-0.033392385 0.036324486 -0.0057317843 0.03375868 0.0050945603 0.04197439 -0.013798834 0.034920614
0.019755011 0.0059899897 0.020308275 0.01942186 -0.01340416 0.0013038808 -0.05012071 0.02088312
0.020733627 0.039617106 0.010889366 0.060214117 0.025426459 -0.018808946 0.012537469 0.022096353

network_body._body_endoder.seq_layers.2.weight f4 [128, 128]
00000000: 681a aebc 78ba 6e3a 0cc3 43bd 4653 603b
00000010: 04b3 55bc 07b8 a0bd 05ef d93d 81a7 233d
00000020: 6732 a7bd ab72 9cbd 8959 a43d 45c3 87bd
00000030: d87a 0cbe 0b2b afbd 5df1 c13d b185 b13d
00000040: 7bbc 2d3d 52df efbd 8f40 c53d b069 6d3c
00000050: 628f 66bd 4571 92bd 2635 8f3a 7158 213e
00000060: 6da5 533d 890c 83bc 4143 713c 3b6f 39be
00000070: 51c7 9f3c 84d3 e93d c7a1 d8bd 8f53 243e
00000080: 0fcf c4bd 0fee dabd bfea df3c d4db 9e3d
00000090: 34c2 2d3e 7e03 19bd 5178 bd3d 782c 993d
000000a0: ad0f dcbd 23c3 bdbc f1a6 6ebd c918 423c
000000b0: 1ca9 963d 1fba 2e3c 601e 28be 0f37 3ebd
000000c0: c917 c8bd 9056 a9bd 73db 3dbe c577 d4bd
000000d0: e93e 11bd ae70 333e 8606 e93d 36d2 4bbd
000000e0: 8623 7dbd 9185 2bbd 61fd e1bd 2012 293e
000000f0: c884 f5bb 1057 4b3e d006 de3a 8119 59be
00000100: 09b2 edbc 4cfd f6bd 8829 5a3d 2665 04bd
00000110: 518f 523d e432 8c3d 743c 0cbd 095a 553d
00000120: 8fdf f53d a28e bd3d a0e9 e9bd 36e2 68bd
00000130: d285 a03d 0541 cf3c ff93 2c3e 2208 17be
00000140: 0fc7 62bd cb26 3dbd 59cf efbd 84f4 d83c
00000150: cf37 efbc a795 083b 4cdb 4d3e b282 543e
00000160: c837 eebd ed52 98bc e6b6 b63d fb21 f1bd
00000170: 1079 503d 9378 2abd a3e7 3b3c d90f 54bd
00000180: 7ba3 48bd 14ce 7f3d 3961 0cbd 6072 1a3d
00000190: bcb6 2bbe 82b4 bb3d e534 0a3e a7a9 a03d
000001a0: ae23 a03d 9d2a 39bd 3d27 52be a06f 33bc
000001b0: 25f0 bebc ac16 3bbb 6be6 f2bd 314a a83d
000001c0: ee0d 2f3d 6067 353d 372a 80bd 9d1b c2bc
000001d0: fe69 bebd ea2d f53d 2f1f e2bd 6b21 c2bd
000001e0: 0442 053d a5f7 b9bd fb7f 86bd b971 bfbc
000001f0: f4cc 1dbc 73a4 23bd cfd7 3cbd 9115 c0bd
00000200: 5d86 913d 9827 f43d 5c61 84bb f4f5 efbb
00000210: c303 06bd 0524 efbc ff71 56bd 6983 0e3c
00000220: bf95 e23c 89b6 37bc d4cf e43d 4438 0abe
00000230: e28a 24be b725 03be ffbf 4ebb 659a 2cbe
00000240: 10fc 913d e64b debc 2b56 013e 8286 42bc
00000250: 79e3 9ebd 2e8c 9cb9 3718 63bd 464b f6bd
00000260: bdbb ad3d 7526 a53d b20a 143d b296 b9bb
00000270: ba06 873a 635f 5d3e 443f 9cbc 9c5a 28bc
00000280: 2e10 20bd 6b40 00bd 5a33 113e dcf4 183e
00000290: 2457 5a3e 17be b53d d28e 06bc 0609 263e
000002a0: 5c3c 99bd eff1 b53b a076 44bd b260 eb3d
000002b0: c697 debd 12e4 c23c b729 4abc c89e 0f3b
000002c0: aaed dcbd c597 03be 250c 3ebd 49ca 2b3d
000002d0: ff1d 413e 3bfb be3d 7836 053d 400b 223d
000002e0: c3ae 73bd 4280 7b3d 3c3e 6fbd 7a25 e6bc
000002f0: fc70 0ebd 4f58 6e3d 64d6 58be 2e9b 013b
00000300: ff37 5bbe 1502 fbbb 7904 603d 82e3 73bc
00000310: 1cb0 4b3e 4cd9 fdbc b1a1 c33d b155 293b
00000320: d961 693e 38b0 2c3e 5ff1 50be 88ba cd3d
00000330: f139 48bd 83e8 64bd 9694 0bbc e110 f43d
00000340: fe89 8bbd ed66 f5bd ee94 463e 82a2 23bd
00000350: f9c1 04bd 43d0 76bd 198b 4c3e fe7f aa3d
00000360: 875a 22bd 44ee 5a3e aa3e a0be 8adc a9bd
00000370: a88e 93bc dea1 80bd e6a7 413e db5a 093e
00000380: 0e87 bdbd a8be a33d ffe4 2ebd 3099 bcbd
00000390: fb6f acbd a7d7 bd3d dfc8 5c3e d3a5 753d
000003a0: 4816 e83d 8036 953c b749 ac3d a988 26bd
000003b0: 9521 303e a5ca 1d3e e89c 1fbe 23e9 743e
000003c0: 578e ca3d b27a f63c 6285 4abd 0a34 34bd
000003d0: d141 e1bd 8d12 43bd 4a38 0bbc 6ee6 65bd
000003e0: 76af f53d b275 8abd 4555 ffbc 0adb 97bd
000003f0: d32a a3bc b7f0 cd3d f878 2fbe cca7 d9bc
-0.021252826 0.00091067655 -0.047793433 0.0034229322 -0.013043169 -0.078476004 0.106412925 0.039954666
-0.0816391 -0.07639059 0.0802489 -0.066290416 -0.13718736 -0.08553132 0.094698645 0.08668078
0.042416077 -0.11712517 0.09631454 0.01449053 -0.056289084 -0.07150511 0.0010925874 0.15756394
0.051671434 -0.015997188 0.014725507 -0.18108837 0.019504221 0.114172965 -0.105777316 0.160475
-0.09609806 -0.10689937 0.027333615 0.07756773 0.16968614 -0.037356846 0.09251464 0.07479185
-0.107451774 -0.023164338 -0.058264676 0.01184673 0.07356474 0.010664492 -0.16417837 -0.046439227
-0.09770162 -0.082684636 -0.18540744 -0.10374407 -0.035460386 0.17523453 0.11378197 -0.04976102
-0.061801456 -0.041875426 -0.11034656 0.1651082 -0.0074926354 0.1985743 0.0016939286 -0.21201135
-0.029015558 -0.12060031 0.053262264 -0.032323025 0.05140621 0.06845644 -0.03423734 0.052087817
0.12005531 0.09255721 -0.114215136 -0.056856357 0.07838024 0.025299558 0.16853331 -0.14749196
-0.05536562 -0.046179574 -0.1170947 0.026483782 -0.029201416 0.0020841153 0.20103186 0.20752981
-0.11631733 -0.01859423 0.08921604 -0.117740594 0.050896704 -0.041618895 0.011468801 -0.051772926
-0.048984032 0.06245239 -0.034272406 0.037706733 -0.16768926 0.091652885 0.1349674 0.078448586
0.07819305 -0.045206655 -0.2052278 -0.010951906 -0.02330787 -0.002854745 -0.11860355 0.08217276
0.042737894 0.04428804 -0.06258052 -0.023694808 -0.0929756 0.11971648 -0.11041104 -0.0947903
0.03253366 -0.090804376 -0.06567379 -0.023369657 -0.009631384 -0.039951753 -0.04610425 -0.093791135
0.07105706 0.119216144 -0.0040399265 -0.007323021 -0.03271843 -0.02919198 -0.05235481 0.008698323
0.027659295 -0.011212953 0.111724526 -0.13498026 -0.16068605 -0.12807356 -0.0031547544 -0.16855772
0.07128155 -0.0271358 0.12630527 -0.0118728895 -0.07758231 -0.0002985908 -0.055443015 -0.12026076
0.08483074 0.08063976 0.036143012 -0.0056637162 0.0010301687 0.21618418 -0.019073136 -0.010275509
-0.03907793 -0.031311434 0.14179745 0.14937156 0.21322304 0.088741474 -0.008212762 0.1621438
-0.07482216 0.0055525224 -0.047964692 0.114930525 -0.10868792 0.023790393 -0.012339047 0.002191471
-0.10787518 -0.12850864 -0.0463983 0.04194096 0.18859099 0.09325262 0.03252265 0.03956151
-0.059492838 0.061401613 -0.05840896 -0.028094042 -0.03477572 0.058189686 -0.21175534 0.0019776332
-0.2140808 -0.0076601603 0.054691765 -0.014885785 0.19891399 -0.030987404 0.095523246 0.002583843
0.22791232 0.16864097 -0.20404576 0.10045344 -0.048883382 -0.055885803 -0.008519312 0.11917282
-0.06813429 -0.11982522 0.1939275 -0.0399499 -0.03241155 -0.060257208 0.19974937 0.08325194
-0.039637115 0.21379954 -0.3129781 -0.082940176 -0.01801236 -0.06280874 0.18911704 0.13413565
-0.09254275 0.07995349 -0.042698856 -0.09208906 -0.08419796 0.09269648 0.21561001 0.059972595
0.11332375 0.018214464 0.084124975 -0.040657673 0.1720031 0.15409334 -0.15587199 0.2391706
0.098904304 0.030087803 -0.04944361 -0.04399494 -0.109988816 -0.047625113 -0.008497307 -0.056127958
0.11996357 -0.0676073 -0.03116859 -0.07414825 -0.019917881 0.10055678 -0.1713599 -0.02656927

network_body._body_endoder.seq_layers.2.bias f4 [128]
00000000: cc57 893c 890d 063d 2bb6 3b3c 9283 6fbc
00000010: 7067 e23c b0e6 db3c 352c 893c 6651 1e3d
00000020: de32 3c3d 2394 75bc 2d09 e23c 32ac 0b3c
00000030: a913 113d fb25 9f3a 7b81 a23c b082 3a3d
00000040: 8853 373c a27e a83c d19c d13c 7c7b 203c
00000050: bfb6 073d f3ef c93c f4a6 cb3c f82b 833c
00000060: 80f3 97bc 1ceb 9a3c b161 853c f9e6 ef3c
00000070: 1697 a73c f6d4 423d 6e94 803c 88f1 673c
00000080: 9494 633c 7c3e 5f3c c520 a33c c6be 003d
00000090: 08c1 8c3c f879 463c 459d 963c 1e5d c0bc
000000a0: 1356 b43c 4a79 003d 73a8 ba3c 6180 0e3d
000000b0: 2763 ce3c 8aad 813c bb5d 883c 4ce5 5e3b
000000c0: 3066 8e3c c73a 513c 3d37 27bc 403c 413d
000000d0: fb64 ce3a 9c27 a83c 9dea 8c3c abe1 553c
000000e0: 8320 6a3c 1a97 2b3c 3046 633c ac0d 123d
000000f0: 91df 093c cfce 423d 7422 2b3c 5c24 b83c
00000100: 7187 603c 1fc3 843c 8578 a43c a3aa 16bc
00000110: 8d99 5d3c fd65 55bb 0933 713c 1d65 e23c
00000120: 5683 963c c115 b03c d984 b63b d2e1 933c
00000130: a408 5f3c 8c38 9b3c 1af4 763c 0d0f 9cbb
00000140: df70 ee3c 336f fc3c e23e 2c3c 6d7b b93c
00000150: 429b f33c 9cdf 393c e322 033c 6c53 f93c
00000160: d6ab ab3c ebe6 58bc 7744 9b3c 05a9 7a3c
00000170: 05e3 fe3a 6d64 c03c 3cf2 6a3c 40ce 9ebb
00000180: 36a0 673c 8e47 ec3c fea9 323c 8822 ba3c
00000190: 5803 063c f0af f83c 002e f43b d9f3 04bb
000001a0: f462 b13c df85 aa3c 4e52 79bc 81c3 133d
000001b0: ce61 a63c e332 6db9 e8d6 cb3c aeef 1dbc
000001c0: bdad 0d3c 493e b93c 0273 3e3c 03af a93c
000001d0: 2034 14bc 1a5a b23c 5cea 13ba 6075 113d
000001e0: 0d9a 063c bc1a f33c 65f8 323c 0d21 e93c
000001f0: dcb8 b63c 764e a23c aa54 93bc c6a7 a7bb
0.016765498 0.032727752 0.011457006 -0.014618771 0.027637213 0.026843399 0.016744712 0.038651846
0.04594695 -0.014988932 0.027592266 0.008524941 0.03541914 0.0012142056 0.019837132 0.04553479
0.011189349 0.020568196 0.025587471 0.009795066 0.033133265 0.02465055 0.024859883 0.016012177
-0.018548727 0.018910937 0.016281934 0.029284941 0.020457786 0.047566377 0.015695777 0.014156707
0.013890404 0.013625737 0.019913087 0.031431936 0.017181888 0.012114041 0.018385539 -0.023481902
0.0220137 0.03136567 0.022785401 0.0347904 0.025193764 0.01582982 0.016646257 0.0034011183
0.017382711 0.012770361 -0.010206041 0.0471766 0.0015746647 0.0205267 0.017201716 0.013054292
0.014289978 0.010473037 0.0138717145 0.03565757 0.008415119 0.04756051 0.010445226 0.022478275
0.013704167 0.016206322 0.020077 -0.009195956 0.013525379 -0.003256201 0.01472164 0.027636105
0.018373173 0.021494748 0.005570036 0.018052015 0.0136129 0.018947862 0.015072847 -0.0047625364
0.029106556 0.030814743 0.010513039 0.022641862 0.029737119 0.011344817 0.008003923 0.030435286
0.020955961 -0.013238649 0.018953545 0.015299086 0.0019446319 0.023485387 0.01433998 -0.0048463643
0.014137318 0.028842714 0.010904787 0.022721544 0.008179508 0.030357331 0.0074517727 -0.0020286946
0.02165363 0.020815788 -0.015217377 0.03607512 0.020310309 -0.00022621038 0.024882749 -0.009639664
0.008647379 0.022612708 0.0116241 0.020713335 -0.009045631 0.02177148 -0.0005642527 0.03551233
0.0082154395 0.029675834 0.01092348 0.028458143 0.022304945 0.019812804 -0.017984707 -0.0051164357

action_model._discrete_distribution.branches.0.weight f4 [2, 128]
00000000: 797d 16bd 4daf 68bd d96a 163d a0b0 0f3d
00000010: 0403 8b3d 46df 903d 40c8 3d3d e892 74bd
00000020: 5206 9bbd 2923 2a3d 763e 27bd cc3a 18bd
00000030: 17e6 65bd 3495 243c f61c 3f3d 7480 2ebd
00000040: 51c6 05bd 4bc2 30bd d319 d2bc 7956 4abd
00000050: d615 53bd ee40 703d 2f05 8abc 205f 383d
00000060: 04e5 f43c 69e6 da3c 7146 12bd 1338 dc3d
00000070: 8825 86bc 4224 6cbd e3fb 0c3d d638 4ebc
00000080: 501c 823d bf09 acbb 1991 82bd cfea e5bc
00000090: ec29 203d d9d6 873c 2a14 223d fd2d c43b
000000a0: 726e 33bd 1170 1cbd de49 763d ae9c cfbc
000000b0: 9e56 55bd 1ed2 2b3d 55a2 783d af23 f2bc
000000c0: ebe2 303d b83e 21bd 3f50 adbc 48c6 86bd
000000d0: 4f21 5d3d 36af 22bd 0155 b1bc 241b 873c
000000e0: ee94 04bd 755a 003d 0a64 193d d43d 22bd
000000f0: 4ecf fabc 8c7f f4bc a3d3 c5bc d0dc 323d
00000100: a153 043d 9194 ce3c 5e65 57bd 0c03 043d
00000110: 376d f93c c349 efbc 2856 263d 89de 88bd
00000120: 5b28 5a3d 9897 66bd db4f 19bd 62cc 273d
00000130: acf0 3d3d 99a9 3abd 868e 253d 0cc3 17bc
00000140: e671 43bd ac5a e7bc 6c64 5c3c 0861 94bd
00000150: 0bcc 09bd bda9 29bd 07cc 23bd bba8 d6bc
00000160: d721 d1bc ee98 b63c fae8 543d 76de 86bc
00000170: e147 1abd 679f 11bd fbaa 093d d797 edbc
00000180: b092 5e3d f69e 3d3d 7ef8 0e3d ae5e f9bc
00000190: 250e b8bc b250 eabc cec1 503c 606b 183d
000001a0: 0ced 463d b4c6 94bd 8966 913c dad6 6dbd
000001b0: eee9 c43d 4579 273c 63ef 38bd 168d 123d
000001c0: 98ff ca3b 8f7e 483d d1d8 15bd 91f1 63bd
000001d0: 0fd9 c9bc 3cff 363d 8d10 153b 43b2 afbd
000001e0: 3d4b d2ba 729c 743d 3306 b6bc 426c bcbd
000001f0: 1b11 34bd 8335 7e3d d936 8a3c eb64 87bc
00000200: 2db2 333d a45f 5c3d d9a6 eebc 1654 edbc
00000210: 7487 6fbd d42a 88bd 1258 f4bc af04 9b3d
00000220: f042 6f3d ecd5 a0bc 9b5e 173d 9e5a 2e3d
00000230: f454 183d 7529 d03b 49ee 6fbd 1648 2b3d
00000240: 74f0 d73c 1a07 3f3d 81b2 203d cf44 273d
00000250: 14ff f93c 632b 59bd c0d8 573c de4c 30bd
00000260: 0ee8 c0bc 4d16 5fbd 8ba6 293d fe9f cdbd
00000270: 47bc 15bc 174d 843d 8fbe 35bd f8e0 573c
00000280: 494c 7fbd 66a1 813c 69f1 713d 3d84 b23c
00000290: bd9f 1cbd a1b7 08bd d1fb fdbc 3eb0 24bc
000002a0: 397c e53c d952 4f3d 9e6a 75bd 8c72 333d
000002b0: 6290 623d 21ca ffbc 9b71 72bd cfb6 7b3c
000002c0: f396 05bd 6110 193d 13f9 893c dc06 813d
000002d0: 0f37 65bd 9258 343d 3797 1f3d 7460 efbc
000002e0: 1d55 053d bc88 15bd 8790 09bd da28 723d
000002f0: d642 303d 0b24 103d af12 093d 27b1 3bbd
00000300: da88 0dbd 12bf 18bd 1df0 513d e600 37bd
00000310: 7f2a d6bc 408c 763c 49b9 e1bc 835f 8f3d
00000320: 492c 59bd 7551 763d ee82 033d 8698 e5bc
00000330: 7ed9 3cbd 92cb 5a3d 3a45 f1bc 27dc 633c
00000340: 9e30 393d b835 f43c d752 8dbc d9c8 873d
00000350: 2d39 d13c 1d98 d13c 21f9 253d 54a0 be3c
00000360: 9b9a 093d d849 c4bc 9499 3fbd 98f0 af3a
00000370: ecea e13c 0bd6 183d 7ee3 d6bc 1c39 9c3c
00000380: 2319 27bd e9d7 4fbd 574f d7bc c61e f83c
00000390: 3336 073d 539a 263c 657a 04bd bf66 eabc
000003a0: 40d5 7dbd 725b 4b3d 51d3 2cbb 7d27 743d
000003b0: 317f a4bd 80cc f7bc 1271 3e3d e580 e1bc
000003c0: 163a 1b3c 530d 7cbd a963 293d 064a 863d
000003d0: d855 9b3c 5ebd 30bd 6d08 61bb df8f 603d
000003e0: 6acf b7ba f60a 62bd bc9e d03c 51d6 953d
000003f0: 8e66 473d 31bc 7dbd 9f96 a1bc ddcd 2a3c
-0.036740754 -0.056807805 0.03672299 0.035080552 0.067876846 0.07073836 0.04633355 -0.059710413
-0.07569565 0.041537438 -0.04083105 -0.037165448 -0.056127634 0.010045338 0.04665848 -0.04260297
-0.032659832 -0.043154042 -0.02564708 -0.049398873 -0.051534496 0.05865567 -0.016848175 0.045012593
0.02989436 0.026721196 -0.03571171 0.10752883 -0.016375318 -0.057651766 0.034419905 -0.012586793
0.063530564 -0.0052501853 -0.063753314 -0.028066067 0.03910248 0.01658194 0.03957001 0.0059869275
-0.0438065 -0.038192812 0.06012904 -0.025343265 -0.052084558 0.04194843 0.060701687 -0.02955803
0.043185156 -0.039366454 -0.021156428 -0.06580788 0.053986844 -0.039717875 -0.021646978 0.016492434
-0.032368593 0.031336267 0.03744892 -0.039609745 -0.030616429 -0.029845975 -0.024148768 0.043667614
0.032306317 0.025217326 -0.052586906 0.03222947 0.030447586 -0.029209977 0.04060951 -0.0668307
0.053261142 -0.056296915 -0.03742967 0.0409664 0.0463721 -0.045571897 0.040419124 -0.009262811
-0.047716044 -0.028241478 0.013451677 -0.0724507 -0.033641856 -0.04142164 -0.039989498 -0.026203504
-0.025528831 0.02228972 0.051979996 -0.0164635 -0.037666205 -0.03555241 0.033610325 -0.029003067
0.05433911 0.046294175 0.03490495 -0.030440655 -0.022467682 -0.028602932 0.012741519 0.037211776
0.04856591 -0.07264462 0.017749088 -0.058066227 0.09614931 0.010221784 -0.045150172 0.03577908
0.00619502 0.04894882 -0.036583725 -0.055650298 -0.024639634 0.044677004 0.002274546 -0.085789226
-0.0016044151 0.05971951 -0.022219753 -0.09200336 -0.043961626 0.06206275 0.016871857 -0.016527614
0.043871094 0.053802148 -0.029132294 -0.02897076 -0.058478788 -0.06648794 -0.029827151 0.07569253
0.058413446 -0.019633256 0.036955457 0.042566888 0.037190393 0.0063525983 -0.058576856 0.041816793
0.026359774 0.046637632 0.039232735 0.040837105 0.030517139 -0.053019892 0.013174236 -0.043042056
-0.023548152 -0.054464627 0.041418593 -0.10040282 -0.009139127 0.06460016 -0.044371184 0.013176195
-0.06232861 0.015824031 0.059068117 0.021791572 -0.038238276 -0.033378247 -0.031003864 -0.010051785
0.028013336 0.05061612 -0.05991613 0.043810412 0.055313475 -0.031224312 -0.059190374 0.015363409
-0.03261466 0.037369136 0.0168424 0.063001364 -0.05596071 0.04402978 0.03896257 -0.029220797
0.032551873 -0.036507353 -0.033585098 0.05912099 0.04303249 0.035190623 0.033465084 -0.045823243
-0.03455434 -0.037291594 0.05125438 -0.04467859 -0.02614331 0.015048087 -0.027554171 0.07000639
-0.05302075 0.060136277 0.032107286 -0.02802683 -0.046105854 0.053416796 -0.029451955 0.013907469
0.04521238 0.029810771 -0.017251415 0.066301055 0.025539959 0.025585229 0.04052079 0.02326981
0.03359471 -0.023960993 -0.046777323 0.0013423143 0.02757784 0.037313502 -0.026231524 0.0190702
-0.040795457 -0.050743017 -0.02628295 0.030288111 0.033010673 0.01016863 -0.032343287 -0.028613446
-0.06197095 0.049647756 -0.0026371072 0.05960797 -0.08032072 -0.03024888 0.04649455 -0.027527282
0.009474298 -0.061536144 0.04135481 0.065570876 0.018961832 -0.043149345 -0.0034337298 0.054824706
-0.0014023606 -0.055186234 0.025466315 0.07316268 0.04868179 -0.06194705 -0.019725142 0.010425058

action_model._discrete_distribution.branches.0.bias f4 [2]
00000000: 213d d83b 1a3d d8bb
0.006599084 -0.0065990807
