results/PressButton/IL-25ksteps-run2/PressButtonAgent/PressButtonAgent-9984.pt (torch, 532981 bytes, 54 tensors)

discrete_act_size_vector f4 [1, 3]
00000000: 0000 4040 0000 4040 0000 0040
3.0 3.0 2.0

network_body._body_endoder.seq_layers.0.weight f4 [128, 6]
00000000: 4f27 7f3d 4286 bb3e 83c7 193f 07a2 e73e
00000010: faa6 19be 6226 42be 16d9 303f dd40 bd3e
00000020: de52 5abf 0b7a 8cbd 8b32 efbe bc8b e4be
00000030: 211c bd3e 0924 6a3e d446 a4bf 5660 6dbe
00000040: 3bb0 33bd d4b0 20bd 021a 373e 723e a7be
00000050: 555e fabe a604 adbe 4c98 533e 2c10 8bbd
00000060: 48a6 bf3d 89f3 9dbe 3342 c83e c9d1 033f
00000070: 0a5f 373f f2a9 1fbe 3f2f a13e 190c 793c
00000080: 95c5 ac3e 31c9 6bbe 0b87 d63e 9591 2f3e
00000090: 9c53 f83e f05f 373f dbef 16be 36db a33e
000000a0: 6f23 0e3f cb9c e33d 92e3 7bbe 0c6b 87be
000000b0: 5d7d 013f 95a9 2a3f 122f 3bbf 5f32 2bbf
000000c0: 1eb8 5dbf 2bfc 053f e573 b83e ce61 b4bd
000000d0: 2ca4 903e 9496 863f 8fe6 bcbc f0ed 03bf
000000e0: fe56 c0bd dbe0 603e c112 7ebe 53a1 ba3e
000000f0: 682a b03e 9bfe eb3e c99e fd3e c051 e53d
00000100: 8198 f8bd cd73 0abe 12e5 6bbf f900 c4be
00000110: 00b1 f8be b3ae 2bbe 8108 f8be cede 1f3f
00000120: 5105 563e 943c 34bf f0d0 cc3d 1325 1bbd
00000130: e17f 20be f2db 933f 4a02 bdbe 4e33 15bf
00000140: df1b 523e b66a 113f 72fd bbbe 3048 bf3b
00000150: fa9b d03e f34e 143f 2365 38be 96c4 3a3f
00000160: 34a9 1c3e f8b1 833e 3437 1fbf a38d 073f
00000170: 0443 87bd 1805 1dbf 48f3 12bf da71 1d3f
00000180: 7964 763d 0806 603d 2044 cabd d7a5 0c3f
00000190: b0e1 36bf 4cb9 d3be 0f2e 71be 309a 3e3f
000001a0: a7e4 01bd 66b8 df3e ec72 a33e b0dc 1e3f
000001b0: bfed 9fbd ab12 9ebd 8fa6 043f 6ed2 86bf
000001c0: e7f6 103f 65ec 82be bf7e a73e 624a b4be
000001d0: af83 9d3c 5f34 89be 0ca2 df3d f7dc b63d
000001e0: 2658 303e 63e9 e4bd f0e4 dbbe cf79 383e
000001f0: dde3 ce3e da24 b4be 3e25 fc3d a49b 49bc
00000200: 62e7 13bf 0e68 243f ed06 7fbd be41 1e3e
00000210: 2917 2bbf 2f36 25be 4569 d2bd 4382 16bf
00000220: d35b 453f e44e 44bd 4a97 e53e 9805 073f
00000230: 5f29 d4be e098 ee3e 89ac 24bf 8a3c a0bc
00000240: 3b7b 4d3e ef2a ab3e 704d cd3e 78e7 a4be
00000250: 3086 bd3e 51c6 973e de36 d6bd 7846 3fbe
00000260: a6af af3e beae 8d3e cc01 d83e 9913 d2be
00000270: 5dab 64bf 3986 86bc 5d95 3f3f f316 79be
00000280: d357 883e 67e6 abbe 4966 a93d ff4a 41bf
00000290: 746b 563f e7ba 9b3e 8991 3ebe e0d8 03be
000002a0: f4ad 953d dd93 5cbe 35ca 4b3e 8ba6 78be
000002b0: 1191 d23e 7bc0 4e3e f025 c0be 9b86 a53c
000002c0: 5b81 9a3e 1975 f43e 511b 5b3c acc0 b83e
000002d0: 65b7 af3e 1202 883e 53f1 febd 08d1 03bf
000002e0: 3388 7abe 3ee3 043f 45f8 973e e858 443e
000002f0: cb06 0dbe 87e5 cf3e d806 863e 07a0 6abd
00000300: b02d 1ebe 9725 9c3e 8c0a 1ebe 3128 b63d
00000310: 09f2 143e 7346 2d3e fb7b 073f fac3 9fbe
00000320: 8584 97bf ca57 b3be bd71 b73d 7f31 153d
00000330: 7233 f4be 9ef0 0c3d db72 76be ad9d a03e
00000340: e074 0e3f b33a 523e c33d f53e 3273 76b9
00000350: d3ce 64be 29f2 363f 1eec 0abe 11d2 12bf
00000360: 7e7c cdbe 78f6 3bbe 0641 dabd 79ea c03e
00000370: af38 cabe 7199 693f d630 8dbe cbd9 88bf
00000380: a6af 663d 6ca9 283f 5ff5 5f3e cdc8 c4be
00000390: a16e 243e 3af0 cdbe a0fb 113e 8414 c7be
000003a0: ade9 a43e b4f1 d3be 40fa 23bf 8e87 a2be
000003b0: b2d7 bc3d ac0e 243f 8721 d43e 72e9 53be
000003c0: 5fda e23e 6ade d1be 262b f43e 7f4e 56bd
000003d0: 50b8 02bf c0e4 d6be 802e 0b3e d6ec 483e
000003e0: 355b 553e d587 debe 9c15 95be 53da 63bf
000003f0: fdc0 10bf edbc 1ebf 4505 a03e 15e6 cd3d
0.062293347 0.36625868 0.60070056 0.45240805 -0.15005103 -0.18959954 0.69081247 0.3696355
-0.85282695 -0.06859215 -0.4671825 -0.4463786 0.36935523 0.22865309 -1.2834115 -0.2318128
-0.04386924 -0.039231136 0.17881015 -0.3266483 -0.48900095 -0.3379261 0.20663565 -0.06790194
0.093578875 -0.30849865 0.39113006 0.5149198 0.71629393 -0.15592173 0.31481358 0.015200638
0.33744493 -0.23025967 0.41899905 0.17145379 0.4850129 0.71630764 -0.14739935 0.32003182
0.5552282 0.1111389 -0.2459853 -0.26448858 0.50581914 0.6666501 -0.731187 -0.66873735
-0.86609066 0.523379 0.3602592 -0.08807717 0.28250253 1.0514703 -0.023059158 -0.5153494
-0.093915924 0.21960776 -0.24811842 0.36451206 0.34407353 0.46092686 0.49535206 0.11197233
-0.12138463 -0.13520737 -0.9214641 -0.38281992 -0.4857254 -0.16765861 -0.48443988 0.6244935
0.20900466 -0.70404935 0.10000789 -0.037877154 -0.15673782 1.1551497 -0.3691581 -0.5828141
0.20518444 0.5680345 -0.367168 0.005837463 0.40744 0.57932967 -0.1800733 0.72956216
0.15298921 0.25721717 -0.6219361 0.52950495 -0.06604579 -0.613359 -0.5740247 0.6150185
0.060154412 0.05469325 -0.09876275 0.5494055 -0.7143812 -0.41352308 -0.23552726 0.7445402
-0.0317122 0.43695372 0.31923616 0.6205549 -0.07809018 -0.077184044 0.5181665 -1.0532968
0.56626743 -0.2557098 0.32713887 -0.35213 0.01922783 -0.26797768 0.1091958 0.089288644
0.17221126 -0.111773275 -0.42948103 0.18015216 0.4040822 -0.35184366 0.12311791 -0.012305174
-0.5777494 0.64221275 -0.062262464 0.15454766 -0.66832215 -0.1613395 -0.10273985 -0.58792514
0.7709324 -0.0479268 0.44841987 0.5274291 -0.41437814 0.4660101 -0.6432577 -0.019560117
0.2006654 0.33431193 0.40098143 -0.32207847 0.3701644 0.2964349 -0.10459684 -0.18679225
0.34313697 0.2767238 0.4218887 -0.41030577 -0.8932398 -0.016421424 0.74837285 -0.2432516
0.26629505 -0.3357422 0.082714625 -0.7550506 0.8375771 0.30416033 -0.18610205 -0.128757
0.073085696 -0.2154078 0.19901355 -0.24282281 0.41126302 0.20190613 -0.37528944 0.020205786
0.30176815 0.47745588 0.013373212 0.36084497 0.34319606 0.2656408 -0.12448373 -0.5149083
-0.24466018 0.51909244 0.29681602 0.1917454 -0.13772123 0.40604803 0.26177096 -0.05728152
-0.15447116 0.3049743 -0.15433711 0.08894385 0.14545454 0.16921405 0.52923554 -0.31204206
-1.1837317 -0.35027915 0.08957241 0.036424156 -0.476955 0.034409158 -0.24067251 0.31370297
0.5564709 0.20530204 0.47898683 -0.00023503302 -0.22344522 0.7146326 -0.13566634 -0.57351786
-0.40134043 -0.18355739 -0.106569335 0.37678888 -0.3949637 0.9124976 -0.2757632 -1.0691465
0.056319855 0.6588352 0.21870945 -0.3843445 0.16057827 -0.4022234 0.14256144 -0.3888284
0.3220953 -0.41395342 -0.64053726 -0.31744045 0.09220828 0.6408489 0.4143183 -0.20694521
0.4430723 -0.4099 0.4768917 -0.052320953 -0.5106249 -0.41971397 0.13591957 0.19621596
0.20835574 -0.43463007 -0.2911805 -0.8900501 -0.56544477 -0.6200703 0.3125402 0.1005365

network_body._body_endoder.seq_layers.0.bias f4 [128]
00000000: b654 193d d0f7 403d 0636 883d 015c c2bc
00000010: a1ec 363d 9c59 8d3d 5bd6 263d ac04 803c
00000020: 2914 84bc 15a0 b6bc 2c2d 6b3d d7fe fc3c
00000030: 90de 8f3b 84b1 9c3c 7e58 193d cd1a a73b
00000040: 6870 b83c 2a1d d83c 89bb 10bd 09ee e1bc
00000050: 6f41 eabc d018 ac3c 847e 69bd 1ac1 a43c
00000060: 81d6 663d 0394 1fbd 8905 b1bc d8df e7bc
00000070: ec52 983b 0b87 b53c 36c7 793d c5f1 2c3d
00000080: 62fb b73b 7dde a43d e1bc 7fbc a062 193d
00000090: 6450 bb3b 77b4 0d3c 3dd7 ddbc 78bd 043d
000000a0: 4f04 08bc 223f 4d3d 9a31 373c a676 efbc
000000b0: 7b50 0d3d 563b ffbc d96f 483b 0943 3f3d
000000c0: 0260 f3bc 2fba 7b3c d173 873c 3b1b bcbc
000000d0: 4838 9e3c 11bf 1ebd e129 b5bc 28ae 31bc
000000e0: 9f6f 273d b57c f0bc f595 d13c 23a8 cf3b
000000f0: 4f19 513d 4118 183d f1cd 1dbc c6ee 003c
00000100: 35a5 9b3c da86 283b 9421 7c3d 748c fd3c
00000110: 9b61 b3bb 56bf c5bc 5e6c e5bc 9989 5f3d
00000120: 1e79 24bd c0b5 09bc 2ae6 c23c 5067 683b
00000130: 9864 50bd e2b9 7d3c ed25 033c 04b3 9cbc
00000140: 2190 1e3d dd50 1abd 47da d3bb d91d f63c
00000150: 9288 083d 2143 fe3b 2bec 4a3d f8ca 73bc
00000160: 5f37 e73c c706 693d 1250 23bd 08b8 8e3c
00000170: 26fb 23bd f51c fb3c d257 073d df28 d93c
00000180: fbdf 22bd c4f2 533d d2c2 4f3d 9745 363d
00000190: 36c1 b23c cc33 973d 9553 443d 1d44 243d
000001a0: 7c8b b43c 2410 42bc 1caf 6f3b cb2b 2dbc
000001b0: 31e2 7c3d 46e9 a43c 172f 3dbd bdd9 d53d
000001c0: c02c 3a3d 7a9a 58bb 8583 07bd c383 8dbc
000001d0: 3e03 33bc 75ab 603d 524e 543d 56c8 f13c
000001e0: 4e3f c73c f6a2 2b3d fec0 c73a 153c 173c
000001f0: 1631 d3bc db57 d4bc d089 db3c fb8d 1dbd
0.037434302 0.047111332 0.06650929 -0.023725512 0.04465926 0.06901857 0.04073177 0.015627228
-0.016122894 -0.02229313 0.057416126 0.030883236 0.004390545 0.019127615 0.03743791 0.0050996304
0.022514537 0.026381094 -0.035335097 -0.027579324 -0.028595654 0.021007925 -0.05700542 0.02011161
0.05635691 -0.038959514 -0.021609085 -0.02830498 0.004648557 0.02215912 0.060980998 0.042222757
0.005614684 0.08050249 -0.015608997 0.03744757 0.0057163704 0.008648983 -0.027080173 0.032407254
-0.0083018085 0.050109036 0.0111812595 -0.02923138 0.03450058 -0.031156223 0.0030584245 0.04669479
-0.029708866 0.015364214 0.016534718 -0.022962203 0.019313946 -0.038756434 -0.022114696 -0.010844745
0.040877935 -0.02935634 0.0255842 0.006337182 0.051049527 0.037132505 -0.00963162 0.007869428
0.018999675 0.0025715143 0.06155546 0.030950762 -0.005474282 -0.024139088 -0.028005775 0.054574583
-0.04015457 -0.008405149 0.023791391 0.003546197 -0.050877184 0.015486212 0.008004648 -0.01912833
0.03871167 -0.037674773 -0.0064652297 0.03004353 0.03333337 0.0077594672 0.049541634 -0.0148799345
0.028224645 0.05689123 -0.039871283 0.017421737 -0.040034436 0.030653456 0.033042736 0.026508747
-0.039764386 0.05174519 0.050722905 0.04449996 0.021820646 0.07382926 0.047931273 0.04010402
0.022039168 -0.011844669 0.003657288 -0.010569523 0.06173915 0.020130765 -0.046187486 0.10441921
0.045452833 -0.003305106 -0.03308441 -0.017274743 -0.010926066 0.054851014 0.051832505 0.029514473
0.024322178 0.04190346 0.0015240011 0.009230633 -0.025780242 -0.025920799 0.026799113 -0.03846548

network_body._body_endoder.seq_layers.2.weight f4 [128, 128]
00000000: 6dd2 0b3e b62c 8e3c 4dd4 bcbd 68de ffbc
00000010: ee1f ddbd 555e 283d fd3f b33c e5dc d13d
00000020: fe7f 9f3d 19f6 bf3c 8e86 1c3e ffc2 40bd
00000030: b351 15be 2883 43bd 6f20 913d bd78 653d
00000040: 7e43 923c 0e6d 31bd c356 973d abc7 78bc
00000050: 248d 713b 4932 14be da7c 8bbd 4d47 ac3c
00000060: 85eb 1a3e ad1c febc 07d6 e2bd 121c 27be
00000070: f2c5 d73c e295 2fbd 1c14 a6bd 011d 96bd
00000080: 52ef 97bd cae3 94bd 1ed2 82bd 656b 6b3c
00000090: e2bd 913e 2028 06bd f43c ecbc b6be 123d
000000a0: 04c8 f7bd 2edb c03d b435 a23d d108 39be
000000b0: ff6b 60be ad9d 30be 3155 f2bc b9f5 973d
000000c0: e3c4 babd a120 a6bc e9af a33d e618 f0bb
000000d0: 9be6 ccbd 902c e9bd f624 67bc 3f66 3dbd
000000e0: ae2c efbd c520 573c 5ba0 22be 469c 47bd
000000f0: 299e bc3d 6d74 533e cee7 8abd a55b 9e3e
00000100: ef59 3fbd 6cbe 483d 0844 1f3e 1396 2f3e
00000110: 539f b7bd bfda 963c 97c5 d3bc 41f8 c13c
00000120: 736b 2fbe 2928 f73b ef99 c83c 3fb6 c7bd
00000130: 3b43 ffbc 4b8d 91bd b8ef 043e a088 1d3e
00000140: a15c bbbc a013 bd3b fd7b 72bd fbbf 5e3c
00000150: a253 33bd f7af 57bc 9f6d 343e 550a 273e
00000160: 32dd 5c3e 357c 833d 9558 dbbc 47b3 bcbd
00000170: d9a5 babd 94d2 e63d ee6f 093e 94cc afbd
00000180: bfab 313d 3814 3238 1953 3c3b ec5b e73c
00000190: f6ef 1e3e 03e0 833d 0f66 b43d b8fd 983d
000001a0: 068e 24bd 26fd 3bbe f2ac 8e3d 58a5 313d
000001b0: 2c5d 80bd 79a5 c83d 31f4 363c 3ecc 01bd
000001c0: 478b 6dbd 9bf7 1e3d fe26 3dbd 003d 53be
000001d0: d8c1 45bd a303 7d3d 9cc1 a6bd a544 ecbd
000001e0: 823c 9fbc c336 a6bc 4691 313e 9971 c6bd
000001f0: fd2c fabc e4a2 b8bd 08f6 7f3d 4a4f 35bd
00000200: 7873 233d 9129 bbbd 964e e8bd 8f64 94bd
00000210: 8c4f 173e 7f3b d4bd 19b3 5b3d 8de0 753d
00000220: 5cc0 ad3a 40fb 44bc a886 f5bc a79a 6cbb
00000230: 7e44 3e3d 0736 323e a540 d4bd 9a46 1cbe
00000240: ba3a 37be 9a37 a0bd ad2d 1fbb 2570 e3bd
00000250: b610 873d e95c 40bc 557c 69bc 9122 c6bc
00000260: 7e91 103d 5fd3 093d 911f d23c 0d75 b4bd
00000270: 1686 b63c 357d 203e f87a fa3c 80d8 a3bd
00000280: 8ca2 f1bd b3f6 383d 9f4d 7b3c 5217 1a3d
00000290: 8d07 cc3d 2173 a03b 5257 693d 64d6 133c
000002a0: 70fd a83d b3c3 03be f405 003e ac7d a9b9
000002b0: 23d6 943d b0cf 4b3d 8997 a63d 033d a5bb
000002c0: f62a 0f3e 6887 5b3c e703 9abd e5a7 ed3d
000002d0: 526f c3bd 41f5 283e ee21 ea3d 1b99 d8bc
000002e0: f074 a23c 9d4f b5bd 3846 973d 1092 f9bd
000002f0: 0f4f 04bd 633b 843c b344 08bd 3a73 2f3b
00000300: 533e 47be dd55 c03d e6fa 443d c261 48bd
00000310: 553c 953d e603 b53d 56f0 ddbc 9354 0e3e
00000320: c81f c83c 902c b6bd 5c37 053c b010 0e3e
00000330: fa7a ebbc 51cc 02be c575 c4bc f128 1e3d
00000340: 73ab 823c bb65 77bd 095c 843e f944 273d
00000350: b47a cd3d 57f9 b2bd 1d2c d2bd 4405 8f3d
00000360: 4977 453c 2576 efbd 2aaf 6ebb 7624 de3d
00000370: c97c 06bc 2ca1 f13c 94ee 593d 1302 c73c
00000380: 7554 cc3d cd53 16be 5003 873d e978 303e
00000390: d59c f7bb 50bf 0b3e 21a3 04bd 58b2 a03c
000003a0: 530a 6abc c2fd 703e 40b0 5cbd 5593 5a3d
000003b0: a35e 9d3c dab1 2bbe 6cb4 723e aea6 8bbd
000003c0: 0040 74be 7c82 213d 50dd cd3c 998d 4cbd
000003d0: 6dd5 14be c803 7e3c d0a0 4fbd 7989 4abe
000003e0: 37fc 1a3e ed18 0abe 7e12 793d 9b8b 303e
000003f0: 4d54 0bbd 6d0a b4bd e103 623c 1f76 75bd
0.1365449 0.017355304 -0.09220181 -0.031233981 -0.10797106 0.041105587 0.021881098 0.102472104
0.077880844 0.023432778 0.15285704 -0.047060963 -0.14581947 -0.047732502 0.07086264 0.056023348
0.017854448 -0.043316893 0.07389595 -0.015184323 0.0036857808 -0.14472307 -0.06810923 0.021030093
0.15128906 -0.031019533 -0.11075979 -0.16319302 0.026339505 -0.04286755 -0.08109304 -0.07329751
-0.074186936 -0.0727001 -0.06387733 0.014368867 0.28465182 -0.03275311 -0.028837658 0.035826407
-0.12098697 0.09416805 0.07920399 -0.1806977 -0.21916197 -0.17247649 -0.029581638 0.07419915
-0.091195844 -0.02027923 0.079925366 -0.007327187 -0.10004922 -0.11385453 -0.014107933 -0.046240088
-0.11678444 0.013130371 -0.15881483 -0.04873302 0.09209854 0.20649882 -0.067824945 0.30929294
-0.046716627 0.049009725 0.15553296 0.17147093 -0.089659356 0.018414853 -0.025851054 0.023677947
-0.17130832 0.0075426293 0.024487464 -0.097515576 -0.031159988 -0.071070276 0.1298207 0.1538415
-0.022871317 0.0057701617 -0.059200276 0.013595576 -0.04378093 -0.013164512 0.17619942 0.16312535
0.21568754 0.06420175 -0.026775638 -0.09213882 -0.09113664 0.11270633 0.13421604 -0.08583942
0.04337668 4.2457337e-05 0.0028736054 0.028242074 0.15521225 0.06439211 0.08808529 0.07470268
-0.040174507 -0.18358287 0.069665805 0.043370575 -0.06267771 0.097971864 0.011166618 -0.03168892
-0.057994153 0.038810354 -0.046179764 -0.20628738 -0.048280567 0.061771046 -0.08142397 -0.115365304
-0.019438032 -0.020289784 0.17340574 -0.09689636 -0.03053903 -0.09015444 0.062490493 -0.04426507
0.03990504 -0.091387875 -0.11343114 -0.072457425 0.14776438 -0.103629105 0.053637598 0.0600286
0.001325618 -0.012022793 -0.029971436 -0.0036102922 0.046452038 0.17403422 -0.103638925 -0.15261307
-0.17893496 -0.07823105 -0.00242887 -0.11105374 0.06594984 -0.0117409015 -0.0142508345 -0.024186404
0.035295002 0.033648845 0.025649818 -0.08811388 0.022280734 0.15672763 0.030576214 -0.080002785
-0.117985815 0.045157146 0.0153383305 0.037619896 0.09962378 0.004896537 0.05696804 0.009023283
0.08251464 -0.12867622 0.12502271 -0.00032327825 0.07267406 0.049758613 0.08134372 -0.0050426736
0.13981232 0.013398983 -0.075202756 0.11604289 -0.09542717 0.16499807 0.11432253 -0.026440194
0.01983115 -0.08853076 0.0738644 -0.12186062 -0.03230196 0.016141599 -0.03326864 0.0026771561
-0.19457369 0.09391377 0.048090838 -0.048921354 0.07286898 0.08838634 -0.02709214 0.1389945
0.024429217 -0.08895218 0.0081308745 0.13873553 -0.028745163 -0.12773253 -0.023981938 0.038613264
0.015950894 -0.060399752 0.25851467 0.04083726 0.100331694 -0.08738964 -0.1026232 0.06983426
0.012052366 -0.11692456 -0.0036420324 0.10846798 -0.008208462 0.029495798 0.05320604 0.024292981
0.099770464 -0.14680405 0.06592429 0.17233624 -0.0075565376 0.13647199 -0.032382134 0.01961629
-0.014284688 0.23534301 -0.053879023 0.053363163 0.019210165 -0.16767064 0.23701638 -0.06818901
-0.23852539 0.03943108 0.025129944 -0.049939726 -0.1453454 0.015503831 -0.050690472 -0.19779004
0.15135275 -0.13486071 0.06080865 0.17240755 -0.034015942 -0.08791051 0.01379487 -0.059927102

network_body._body_endoder.seq_layers.2.bias f4 [128]
00000000: 904f f93c 8b53 4fbc 7dfb b63c fcb2 313d
00000010: 72f8 ab3c 4840 c63a 071a e73c 6a60 863c
00000020: 8197 c13c b88a 98bc e57d 883c 77fa 39bc
00000030: f885 eb3c fa21 a6bc 0474 39bc d4d9 533c
00000040: e134 dc3a c1e8 ad3c 5581 7cbc 2d01 0f3d
00000050: b297 85bc 20ab e23c 5e9f 103d 98d9 023d
00000060: b079 e83c 163b 423d 31d9 bb3c 4c2a 1cbc
00000070: 8abb 4a3c 6c22 6a3c c27a 38bc 507c b8bc
00000080: 0ab2 0c3d c2a2 333c 70ee b0bc 191d e63c
00000090: f01d f53c d6c6 a9bc 74ce 9c3d f13c dcbb
000000a0: ab66 8fba 0581 153c c96e e3ba 4f09 dc3c
000000b0: a9bd 543d e233 803d 587b e63c 2426 003d
000000c0: 5295 a73c 07dd 243d 6446 ba3c 7a58 9dbc
000000d0: 1f2c db3c 667b 7e3d 0d3a b13d 550a b7bc
000000e0: efde 82bc 068e 503d 1d90 a0bc f373 a9bc
000000f0: 27c3 c63c 8538 413c a517 d83c 73cc ca3c
00000100: 32ba 85bc e510 243d 5a7a 9c3c 5e08 8d3b
00000110: e8fd 963c cbc5 4c3d 5345 c5bb e56a 2dbc
00000120: b117 68bb 2a70 133c 0aa8 0e3d 56b5 993b
00000130: cc48 963b b376 baba 6197 92bc 2287 74bc
00000140: 7437 193d 1a88 bdbc f12d 9d3d cab6 d3bc
00000150: bcc6 da3c 94fa ca3c 7702 c13c cc4a c1bc
00000160: fdf9 15bc 1d4e 0a3d 4c63 d13c 542b 113c
00000170: 8270 eabc a4c7 393d 3d33 153d 3fa1 b9bc
00000180: a61f 17bc 1822 803b 3868 b2bc 9f82 a13c
00000190: 08a6 b23c 8135 dfbb 9b5d d43c bd79 173d
000001a0: 02fd 683a 1e63 c2bc 1e81 4b3d 6349 19bc
000001b0: a317 b93c e557 be3c bbfa 343d 9064 4e3d
000001c0: ceec 31bb 94eb 5139 3b8e a73b a835 213d
000001d0: 2342 01bc 075c 1f3d 0163 26bc 1db6 dc3c
000001e0: 1645 343b d512 b73c 3d47 95bc 90dd d53c
000001f0: aad1 40bc e14d a0bc 7176 27bc 2dc2 acbc
0.030433446 -0.012654196 0.022336716 0.043383583 0.020992491 0.0015125358 0.028210653 0.016403396
0.023631813 -0.018620834 0.016661594 -0.011351219 0.028750405 -0.020279873 -0.011319164 0.012930352
0.0016800427 0.02122915 -0.0154116945 0.03491323 -0.016307686 0.02766949 0.035308234 0.031945795
0.028378338 0.04741963 0.022930713 -0.009531569 0.012373814 0.014290433 -0.0112597365 -0.022520214
0.03434948 0.010964097 -0.02159807 0.028090047 0.029921502 -0.020724695 0.07656565 -0.006721132
-0.0010940632 0.009124999 -0.0017351742 0.026859907 0.051938687 0.06259896 0.028134987 0.031286374
0.020456944 0.04024985 0.022738643 -0.019207228 0.026754437 0.0621294 0.086536504 -0.022343794
-0.015975444 0.050916694 -0.019599969 -0.020685172 0.024262978 0.01179326 0.026378462 0.024755692
-0.016324136 0.040055174 0.01910131 0.004303976 0.018431619 0.049993318 -0.006020227 -0.010584568
-0.0035414512 0.00899891 0.034828223 0.0046908064 0.004586315 -0.0014226049 -0.017894449 -0.014924796
0.0374064 -0.023136187 0.07674778 -0.025843997 0.026706092 0.024777688 0.023560746 -0.023595236
-0.00915384 0.0337659 0.025560044 0.008860428 -0.028618101 0.045356408 0.036425818 -0.022659896
-0.009223854 0.0039103143 -0.021778211 0.019715605 0.021807685 -0.006811798 0.02592354 0.036981333
0.0008887799 -0.023728903 0.049683683 -0.009355876 0.022594279 0.02323527 0.044184428 0.050388873
-0.0027149203 0.00020019553 0.0051133907 0.03935781 -0.007889303 0.038906123 -0.01015544 0.026942307
0.0027506999 0.022347847 -0.018222446 0.026106626 -0.011768738 -0.019568386 -0.01022111 -0.021088684

action_model._discrete_distribution.branches.0.weight f4 [3, 128]
00000000: 5f8b 28bd d1ca 143c 6ed1 06bd 5855 823c
00000010: 89e2 ebbc 40f7 b4bc 08ff 66bc c041 e9bc
00000020: 4f19 44bd 738f a93c 713b abbc bf05 183d
00000030: c536 56bc b97c 893c 98af c83c 6406 a2bc
00000040: c8ef ef3c a7e1 ddbc 18d9 5b3c bfcf e23c
00000050: 8ada 8f3c 3ead 07bd 5f5a 0fbd 9bc1 05bd
00000060: c545 923c 42f5 fb3c c853 60bd 08df 37bc
00000070: 8716 853c e09d 75bd 5ad2 043c e1fa 253c
00000080: 05a2 e2bc c4ad 37bd c258 ce3c bd30 d6bc
00000090: 958f 46bc c2c5 6e3c 1b90 ee3c 1723 ad3c
000000a0: 8856 9c3c 8656 4b3c 49f2 833c 982a 57bc
000000b0: 2f9e 4a3c 2b91 973d c125 3ebd 382c ffbb
000000c0: f472 c9bc 6af4 29bc 9191 a0bc 75b9 863c
000000d0: eb50 b8bc 7f40 573d eb52 803d 7f0b 613c
000000e0: 222c 9f3c 3f99 31bc 93c7 063d 08fd b23c
000000f0: 12b1 c8bc 04ad 3a3c 5f9d 22bd ae10 fbbc
00000100: 460b bd3b 129f 55bc e9ae 07bd 87eb 563c
00000110: d97d fbbc 11e3 eb3b adc6 b23c 16d5 563c
00000120: 8ebd 323c 2f9e 96bc 0bf0 23bd 7dd9 ccbc
00000130: b350 4fbd d98d 993b 4c7e 803c 0147 c63b
00000140: 4af9 19bd ded9 853c c961 3e3d 4f6b eb3b
00000150: 4d77 26bc b001 15bd 1eda a8bc 7c2c 8b3c
00000160: bf85 b33c 3c46 fdbc 8c9d dcbc 173b 96bc
00000170: 7e69 c8b7 732a fd3b 0a47 fa3c 8e8f c73b
00000180: 18cf c93c ee48 21bc 4f99 8a3c 73d7 04bd
00000190: 5ea2 30bd 8031 fd3b fb5f 97bc 4491 b6bc
000001a0: 7e1f b03c c05e fb3b 4763 f7bb 330e 0cbc
000001b0: db43 0cbd 4ba9 babc 32cc 653d 87ca 173c
000001c0: 75cd 323b 20bb 99bb 3c67 5a3d 2be0 203b
000001d0: 7acf 6bbc f276 c9bb 55c1 e9bb 6030 16bd
000001e0: 1414 a93c 19ec 97bc 030f 1c3d 364c 1abd
000001f0: ebda 6dba fcc7 c23b 9ecf 433c 7c89 da3c
00000200: 1000 843c fd9d 72bc e710 bd3c 2589 eabd
00000210: 1a83 f43a 6289 763d 5367 60bc aed1 bd3c
00000220: 50db 853c cde8 b2bc dc4b d53b bb9c eebb
00000230: c4d9 5fbc 9e40 31bc 6f98 133c 3a98 313c
00000240: 3795 96bc 5cef d53c 9d4d 79bc aa70 babd
00000250: ec93 51bc 6ab7 a13c 0b25 293c 8eb9 9ab9
00000260: 2f2c a5bc 5e9f 57bd 9e8a 5d3d 89ac 8d3c
00000270: e28b bdbb 26f2 a53c d71c 02bd cbcc 85bc
00000280: 3e38 b73b ceb9 883d 3d61 6abb a027 153c
00000290: 13b9 45bc 8f9e 1fbc b804 9dbd b530 acbc
000002a0: 079f b8bc 9eed 8a3d 7ef7 5fba f5da 8d3c
000002b0: 10bb a2bd c5fb a3bd 9177 10bb d165 623c
000002c0: 71b1 4b3c a0fc b43c 1072 9d3c b4c0 8f3c
000002d0: 5c6b a13c 837f debd 4ab4 aebd 2694 943b
000002e0: 3426 33ba 14b5 9cbc 2c48 06bd dc73 ffbb
000002f0: e0aa e53c 751f 92bc c842 3f3c 576c d43b
00000300: e7b6 c63b 5e3c 633c fefc a63d cfd5 66bc
00000310: 69d3 9039 33af a0bd 843d 163c 48f4 9b3c
00000320: 1aa7 103b e110 1e3b 9d34 97bb 9a9f ad3d
00000330: cf1e e63c 4f76 e53c 9620 b5bc 9d61 9fbc
00000340: 886b 793a 8f3c f8bb fa31 cbbd 9754 d93b
00000350: 83d0 663c 0b48 943c 48ca 773c 2964 5bbc
00000360: 1b88 17bc e693 68bb fddb 12b7 1dc0 003c
00000370: 8128 89bb 3071 bdbd a5bf 85bd a9ef 923c
00000380: 0ddf 4fbc b2d3 4b3d 3308 35bc 5389 8abb
00000390: 2d2d 053d 1329 9abc b99e f6ba 41f7 d93b
000003a0: d5f8 d93b 8363 3dbb 9533 3ebd 718b 323a
000003b0: 6ec8 943b d481 b23a 9aa3 45bd d9dc 93bd
000003c0: 5047 3d3d 71c1 1a3d acaf 3ebd 4b50 6bbd
000003d0: 0df8 a13c 58eb 2e3c de68 1dbb 3040 e13b
000003e0: 44ca 35bc 959b 923c a560 28bb 71cf 49bc
000003f0: e088 a9bb cff1 aabb b851 cabc 247d 693c
-0.04114854 0.009081558 -0.03291457 0.015909836 -0.028794544 -0.022090554 -0.01409889 -0.028473735
-0.0478757 0.020698285 -0.020902367 0.037114855 -0.0130745815 0.016783105 0.024497792 -0.019778438
0.029289141 -0.027085138 0.013418458 0.027686952 0.017560262 -0.0331242 -0.034998294 -0.03265534
0.017855534 0.030756596 -0.0547674 -0.011222608 0.016246093 -0.059965014 0.008106792 0.010130615
-0.027665148 -0.04484345 0.025188807 -0.026146287 -0.012119194 0.014573516 0.02912145 0.021134896
0.01908423 0.0124107655 0.016106742 -0.013132714 0.0123668155 0.074007355 -0.046422724 -0.0077872537
-0.024590947 -0.010373214 -0.019600661 0.016445855 -0.022499522 0.052551743 0.06265815 0.013735651
0.019430224 -0.010839759 0.032905173 0.02184917 -0.024498496 0.011393789 -0.039700862 -0.030647602
0.005769166 -0.013038414 -0.03312579 0.0131176775 -0.030699657 0.0071986993 0.021823252 0.013112327
0.010909451 -0.018385975 -0.040023845 -0.02500605 -0.05061407 0.004686099 0.015685223 0.006050945
-0.037591256 0.016339239 0.046479974 0.007184423 -0.010160279 -0.036378562 -0.020611819 0.016988985
0.021914361 -0.03091728 -0.026930593 -0.018338723 -2.3890982e-05 0.0077260076 0.030551452 0.006090111
0.024634883 -0.009844048 0.016918806 -0.03243203 -0.043123595 0.007726848 -0.018478384 -0.022286065
0.021499392 0.007671207 -0.0075496766 -0.008548307 -0.0342444 -0.022785803 0.05610294 0.009264595
0.0027283106 -0.0046914965 0.05332111 0.0024547677 -0.014392728 -0.0061482126 -0.0071336427 -0.036667228
0.020639457 -0.018545197 0.038100254 -0.037670337 -0.0009073454 0.00594425 0.011951355 0.026676886
0.016113311 -0.014808175 0.023079349 -0.114519395 0.0018654794 0.060189612 -0.013696509 0.023171272
0.016339928 -0.021839524 0.0065092873 -0.0072818673 -0.013662759 -0.010818629 0.009008511 0.010839516
-0.018381698 0.026115112 -0.015216258 -0.0910352 -0.012791615 0.019740779 0.010323773 -0.00029511418
-0.02016267 -0.05264222 0.054087274 0.017294185 -0.0057844976 0.020257067 -0.031765785 -0.016333004
0.0055914214 0.066760644 -0.0035763525 0.009103686 -0.012068051 -0.009742393 -0.07666916 -0.02101932
-0.022536768 0.06783603 -0.0008543654 0.01731632 -0.079458356 -0.080070056 -0.0022043923 0.01381822
0.012432442 0.022093117 0.019219428 0.017547943 0.019704513 -0.10864165 -0.08530481 0.004534262
-0.0006834001 -0.019129314 -0.032783672 -0.007795794 0.028035581 -0.017837266 0.011673637 0.0064826417
0.006064284 0.013869373 0.08153723 -0.014089062 0.00027623333 -0.078459166 0.00916994 0.01903738
0.0022072257 0.0024118947 -0.0046144263 0.08477707 0.028090863 0.028010515 -0.022110265 -0.019455725
0.00095146196 -0.0075755785 -0.09921642 0.0066323983 0.014087799 0.018100759 0.015123911 -0.013390579
-0.009248759 -0.0035488545 -8.753498e-06 0.007858303 -0.0041857366 -0.092501044 -0.06530694 0.017936544
-0.012687457 0.049762435 -0.011049318 -0.004227796 0.032513786 -0.018818414 -0.0018815614 0.0066517894
0.0066519775 -0.0028898425 -0.04643591 0.00068109395 0.0045404946 0.0013619014 -0.048251726 -0.07219858
0.046210587 0.037782136 -0.046554253 -0.05744962 0.0197716 0.0106762275 -0.0024018805 0.006874107
-0.011095587 0.017896453 -0.002569237 -0.012317524 -0.0051737875 -0.005216814 -0.02469717 0.014251027

action_model._discrete_distribution.branches.0.bias f4 [3]
00000000: f9bb 1abc 270f 463c 7fad 30bc
-0.00944423 0.012088574 -0.010783552

action_model._discrete_distribution.branches.1.weight f4 [3, 128]
00000000: a8c2 b43c 0fe6 b9bc f5d7 4c3c da0d af3c
00000010: 5038 b23c 012d 2ebc 161a 713c 8ff3 853c
00000020: 58f1 8d3c e7a5 0bbd 6957 ed3c c52c 9bbc
00000030: c2c0 4c3c 21fe 0ebd ca9b eebc 86fe 923c
00000040: 565d 8abc 263c 073d 78b1 bcbc 4204 b43c
00000050: e8ca 93bc dad7 b33c fd1d 1d3d e449 043d
00000060: 7a35 cabb e5b1 4a3d 533e 263c e6f7 20bb
00000070: ac8c 82bc 0ddc a33c 0240 4dbd 2fac b7bc
00000080: f299 693c 718d d1bc 509b 8bbc 1c5a be3c
00000090: d9ca c83c f681 0ebd eda3 01bc 97ac e0bc
000000a0: 606b 81bc cd27 93bc ec3a 18bd 516f f93c
000000b0: fa85 e53c 4611 133c 4a7a b13c 7daf 033d
000000c0: 2101 033d 72ba 0f3d d467 17bb 5982 f0bc
000000d0: f2b9 8b3c b47c 2d3d bdbf eb3c bcbb acbc
000000e0: 1c57 d2bc b5cc fe3c 236d f6bc acce 56bc
000000f0: f7c6 de3c 0300 a93b a5e8 e13c 5231 843c
00000100: 869d cebc 40dd 153d 0b14 ddbc a4c7 05bd
00000110: 55b5 b73c 5bba c63c 4f8b 6fbc e887 14bd
00000120: 7264 e5bb 6d83 9d3c 1ada fc3c 3e8d 1cbd
00000130: 8067 4abc 5d13 8dbc 68da debc 0f1b 48bc
00000140: 782b 7e3c 8729 12bd ea58 073d 8b08 21bd
00000150: 2148 c53c e13a a13c f8de c23c 7e28 05bd
00000160: 2fd0 d8bc 8c16 093c 2ca2 a13c 63e2 1c3c
00000170: 405f b9bc 4a56 db3c c0c6 0d3c 30cc a9bc
00000180: f302 d6bc 1a8e 52bd e290 e0bc bd95 bc3c
00000190: acfd 263b 8abd 7bbc f6de b33c 5f8e 333d
000001a0: 4813 9bbc fc14 cbbb d005 c43c dcf9 16bc
000001b0: 2957 d93b 7bbe 833c 62f3 91bc b849 f03c
000001c0: 324e c8bc d832 f0bc 5e53 08bd 04d6 ba3c
000001d0: 7dae d33b 72de dd3c e7f2 04bd 0436 ea3c
000001e0: 8293 03bc 2fea 2c3c 461e c2bc a97b 7c3c
000001f0: edc2 84bc 9996 ecbc d661 1cbd 092c 2dbd
00000200: 9b1f 24bd fc8f c83b 687b 49bd 7bcb 01bd
00000210: b630 d0bb d140 d43c d8e2 8ebc 1735 5cbd
00000220: 9072 b2bc 8a06 d43c f6d1 edbc c536 06bb
00000230: c869 06bd 75b9 08bc 723c da3c eb75 e2bc
00000240: db55 f2bc 6081 52bc 46f7 033d 64c2 66bc
00000250: 47bf ac3c 2346 2abd c85f 0abd 80d5 9ebc
00000260: b3c7 783c 2ee3 70bd 5dc7 89bd aab5 5c3c
00000270: c475 99bc 8232 d6bc e9c1 513d 4b2a ae3c
00000280: 1531 3dbd b8a0 d43b 2584 433d c093 63bd
00000290: 81a0 483c a75a 21bc 9d34 0ebb b09c 67b9
000002a0: 359e 08b9 7268 e43c 1fcd 2bbc cd97 e9bc
000002b0: 4c67 ebbc 7c51 9e3c 84b3 06bd ce9d 45bb
000002c0: d2f8 edbb 8957 8e3c 8c62 ebbc e75b 0b3d
000002d0: 3d0f 96bc e326 29bc 1c30 29bc ae1e e43c
000002e0: c8f7 333d 0c0c 79bd fb8f 6f3c 29e1 143d
000002f0: 4762 4ebd cc0b a43b 987d 9cbc 1c20 b63b
00000300: 6200 073c 10f3 a2bc 35ba 743b 4b70 c0bc
00000310: f6c9 2dbd 779a cebc 3c28 20bc 2ab2 1d3d
00000320: 0895 303d 5398 61bc 2a00 83bb c891 5dbc
00000330: d44c 8bbb 8310 6a3c c3fc 7c3c b1fb 723d
00000340: 1398 08bd ef73 993c 64b3 0fbd 12d1 713c
00000350: ca37 b5bc fa44 0cbd fcd6 28bd 812b 6e3c
00000360: 2ae0 4d3c 6e69 cbbb 627e f23b 3bd3 81bb
00000370: 65d7 2c3d ad4d 09bd 519e 16bd 48cb 103d
00000380: 80fc 8f3d 7c0b c63c cdb9 e73b 5184 ddbc
00000390: 49f1 07bd b1a2 253d c7c8 a939 4a81 7fbd
000003a0: 2c7f f6bb c078 363d 370c 78bc 4b94 7b3c
000003b0: 6d5b 5c3c 8701 0f3b 928c 06bd 4a2b bbbc
000003c0: 1348 ef3c 56b0 4c3d 13e6 813d 30f0 88bd
000003d0: 3b1d 4fbc 80a5 9b3c 822b adbb e844 3ebd
000003e0: c01e 273d 84b4 e93b c3c2 f33c 5b3e 0ebd
000003f0: 5332 e33c dda1 023c e2d0 853c b859 2e3d
0.022065476 -0.022692708 0.01250266 0.02136891 0.021755368 -0.010630847 0.014715692 0.01635149
0.017326996 -0.034093764 0.028972344 -0.018942246 0.012497129 -0.034910325 -0.02912702 0.017943632
-0.01689021 0.033016346 -0.023033842 0.021974687 -0.01804109 0.021953512 0.038358677 0.03229703
-0.0061709257 0.04948606 0.010146695 -0.0024561821 -0.015936218 0.02000239 -0.05010987 -0.02242097
0.014257895 -0.02558014 -0.017041832 0.023236327 0.024510788 -0.03479191 -0.007912618 -0.027426047
-0.01579827 -0.017963314 -0.037165567 0.030448588 0.028017987 0.008976286 0.021664757 0.03214978
0.0319835 0.035089917 -0.0023102658 -0.02935903 0.01705644 0.042355254 0.028777951 -0.021085612
-0.025676303 0.031103471 -0.030081337 -0.013110798 0.027194483 0.005157472 0.027576754 0.016136799
-0.025221597 0.036587954 -0.026987096 -0.032661095 0.022425333 0.024258783 -0.014620616 -0.036262423
-0.0070004994 0.019227708 0.030865718 -0.038220637 -0.012353778 -0.017221147 -0.027203754 -0.0122134825
0.015513293 -0.035684135 0.03304378 -0.039314788 0.024082245 0.019681396 0.02378796 -0.03250932
-0.026466457 0.008367192 0.01973065 0.009575459 -0.022628427 0.026774544 0.008653343 -0.020727247
-0.026124453 -0.05140505 -0.027412836 0.02302062 0.002548079 -0.015365014 0.021956902 0.043836948
-0.018930092 -0.00619757 0.023928553 -0.009214845 0.0066327048 0.01608204 -0.01781625 0.029332027
-0.024451349 -0.02932112 -0.03328263 0.022807129 0.0064600096 0.02708361 -0.032458212 0.02859021
-0.008030774 0.010553881 -0.023696076 0.015410342 -0.01620623 -0.028880404 -0.03817924 -0.042278323
-0.040069204 0.00612068 -0.049189955 -0.031688195 -0.006353463 0.025909813 -0.017442152 -0.053761568
-0.021783143 0.025882024 -0.029030781 -0.0020479423 -0.032815725 -0.008344998 0.02664015 -0.027644118
-0.029581955 -0.012848228 0.03221824 -0.014084432 0.021087302 -0.041570794 -0.03378275 -0.019388914
0.015184331 -0.058810405 -0.06727479 0.013471046 -0.018732913 -0.02614713 0.051210318 0.021260401
-0.046189386 0.0064888857 0.047733445 -0.055560827 0.012245298 -0.009848273 -0.002169884 -0.00022088247
-0.00013028907 0.027881835 -0.010485916 -0.028514767 -0.02873578 0.019325964 -0.032886043 -0.0030153873
-0.0072623277 0.017375724 -0.028733514 0.03402319 -0.018317813 -0.010324213 -0.010326412 0.02784666
0.043937474 -0.060802504 0.01462173 0.036347542 -0.050386693 0.005006289 -0.019102857 0.005558027
0.008239837 -0.019891292 0.0037342433 -0.023491045 -0.042428933 -0.025220139 -0.009775218 0.03849999
0.043110877 -0.013769227 -0.0039978223 -0.0135235265 -0.004251102 0.014286163 0.015441122 0.059322063
-0.033348154 0.01873204 -0.03508319 0.014759319 -0.022121329 -0.03424547 -0.04122065 0.014536739
0.012565652 -0.0062076366 0.00740032 -0.003961948 0.042197604 -0.033521343 -0.036772076 0.035350114
0.070305824 0.024175398 0.0070717097 -0.027040632 -0.03318909 0.040438358 0.00032383783 -0.06237916
-0.0075224843 0.04454875 -0.015139631 0.01535518 0.013449532 0.0021820979 -0.032848902 -0.02284779
0.029209172 0.049972855 0.06342711 -0.06686437 -0.012641246 0.018999815 -0.0052847276 -0.046452433
0.04080081 0.007132115 0.029755956 -0.034727436 0.027733957 0.0079731615 0.016334955 0.04256603

action_model._discrete_distribution.branches.1.bias f4 [3]
00000000: 0315 993c 619d 8dbc b4a6 91bc
0.018686777 -0.017286958 -0.017779686

action_model._discrete_distribution.branches.2.weight f4 [2, 128]
00000000: 23d4 263d 6682 9dbc 69ee 6a3c 8cca 713d
00000010: 4df8 373c 236a 3ebd 9542 313d a493 ad3c
00000020: a20b 113a 2388 9ebc 1358 3f3c 35fc d8bc
00000030: ddad 093d ba01 f0bc 5ff3 a8bc be04 fd3c
00000040: 000a 43bc 914e 303d f114 04bd d437 353d
00000050: 5090 efbc 9a56 0a3d e4e2 483d 1797 e43c
00000060: 9e51 8bbc c26b a43d 37be 603a 4003 0cbd
00000070: e6d2 85bc 7e86 99bb 71a8 ddbc 113e 58bd
00000080: 127c 113d 090a 77bd 44f9 16bd b2ea 0a3d
00000090: 66d7 993c 7b1c 18bd 8262 d83c e811 c5bc
000000a0: 439a 9cba 4547 4cbd 115b 0cbd 9a46 113d
000000b0: 6684 973d 1f76 923d 7a09 743d 2712 293d
000000c0: 12b1 a4b9 0313 173d 982c a03c eec0 38bd
000000d0: 4343 6cbb e0e0 8f3d 2824 613d 690b 19bd
000000e0: 0307 adbc 2d29 893d bac0 05bd a1a5 01bd
000000f0: c731 273d d55e d63c b1dc bf3c b45e be3c
00000100: 348b 0cbd 35bb 5a3d f1a4 3fbd 29f7 61bc
00000110: c38c ec3b b931 943d 7676 bdbc 25af e9bc
00000120: bd64 edbb 3b55 2b3c 62a1 163c deb4 45bd
00000130: e2b0 1fbc 9eb5 e5bc a918 fbbc 0981 fabc
00000140: f74e 173d 38a2 16bd d511 a63d dfb7 37bd
00000150: 1a0b e53c 25de 053d d878 353d 3976 c1bc
00000160: 684c e9bc 67f9 353d b463 513b 4a4e a53c
00000170: 23fd 09bd 6e2e 513d bafc 903d 4217 67bd
00000180: 8ea5 b3bc 34d7 56bd ea34 17bd 3188 fe3c
00000190: 66a6 9cbc 419a b2bc db21 8a3c 6b58 5d3d
000001a0: eedb b2bc 7134 17bd 3424 743d 0e44 bfbc
000001b0: cf5b a83c c006 ab3c ced4 b53c d31e 933d
000001c0: daf3 01bd 221d 18bd 1de5 7a3b 5e59 4b3d
000001d0: 380e e1bb 1271 0e3d fc0b 98bc aeef 143d
000001e0: 2e46 83bc fc7c 753c 0ea9 0dbd 5474 0b3d
000001f0: 7b5e d7bc fdd2 f2bc e614 1fbd ad6a 3dbd
00000200: cbda 17bd ccc7 d33c 61b5 e6bc 3b1d 7fbd
00000210: 0ab5 49bc 1b91 013d a725 efbc a6aa 03bd
00000220: 7377 dbbc 4eb3 3f3d e4fc 41bc 65fe 6e3c
00000230: 844e 4abd 3d47 223d ebdd ff3c 1f67 ccbc
00000240: c08e 9d3c ea58 1ebd 543e 153d 021a 71bd
00000250: d47f ef3c 7748 2ebd 6569 65bd 7181 34bd
00000260: 6aaa fe3c 1e73 6abd e1ba 863b 018b 3d3d
00000270: 0a48 063c 6904 7cbc 938e 0f3d 578e 323d
00000280: 4238 06bd 6220 433d e0d7 f33c c9eb 36bd
00000290: 9dad c0bc 1909 fc3c b112 e8bc a0aa c53c
000002a0: 5b70 a13c de09 323d da82 0e3d 48e6 78bd
000002b0: 75a2 74bd 47a9 aebd 2fe9 96bc 5907 09bd
000002c0: 88ff 96bb ae7d 32bd a3fe 98bb 4c13 583d
000002d0: 4046 ddbb 78b5 82bd 4874 79bd 546b 1e3d
000002e0: 7ed4 373d 86b5 74bd 19ce 203d 1557 083d
000002f0: 5aee 10bd b84f cbbc 5643 febc 2bad 84bc
00000300: 4f5f 4a3c 3b15 5ebd f2d1 233d 44af ab3c
00000310: 5e0a 84bc 6c1d 88bd a0ff 2e3d b3a7 703d
00000320: 941f ba3c 077b 21bc 6591 20bc 2828 7f3d
00000330: 4697 113d 9410 773d 2cbb b13c 1baa 0e3d
00000340: 627a 63bd aed8 443d 274b 84bd c5fc 433d
00000350: 474d d9bc 1563 11bd 386b f4bc 955f 193d
00000360: e8ba d73c 6058 1cbd c353 b5bc 386d 7dbc
00000370: a525 0e3d 0cce 9abd 195d 64bd 6d6a e93c
00000380: d2d4 a73c e21e 213d 4994 0e3d a3c3 0cbd
00000390: 6f75 99bb 6725 eb3c b058 9bbc a153 53bd
000003a0: f347 0a3d 4c06 c43c 22c6 7fbd 5c87 ee3c
000003b0: f86d bcbc 12dd bdbc 74f2 e6bc 1f6d 79bd
000003c0: 6a5c 593d 4696 3c3d d4c2 fc3b e33d 83bd
000003d0: adc9 1f3c 5bec 0ebd f967 243d 253e fcbc
000003e0: 3c24 133c 1872 15bd 7d20 103d 08ee eebc
000003f0: 4bf3 4a3c 8aa2 233d 6a00 e13c d135 c13c
0.040729653 -0.019227218 0.014339068 0.059031054 0.011228633 -0.04648794 0.04327639 0.021188565
0.00055330445 -0.019352024 0.011678713 -0.02648745 0.033613075 -0.029297698 -0.02062386 0.03088605
-0.01190424 0.043043677 -0.032246534 0.044242695 -0.029243618 0.033773996 0.049044505 0.027904077
-0.017006692 0.08028366 0.0008573266 -0.034182787 -0.016335916 -0.004685222 -0.027057858 -0.052793566
0.035518713 -0.060312305 -0.036858812 0.03391523 0.018779468 -0.037136536 0.02641416 -0.02405639
-0.0011947829 -0.049872655 -0.034266535 0.03546772 0.073983 0.07151436 0.05957935 0.041277077
-0.00031412445 0.036883365 0.019552514 -0.045105867 -0.0036050833 0.070253134 0.054966122 -0.037364397
-0.021121508 0.06697307 -0.0326545 -0.031652097 0.040818956 0.026168266 0.023420664 0.023238517
-0.034312442 0.05340119 -0.04678816 -0.013791838 0.0072189285 0.07236046 -0.023127776 -0.028525898
-0.007244675 0.010457332 0.00919375 -0.04826819 -0.009746762 -0.028040703 -0.030651407 -0.030579107
0.03694054 -0.036775798 0.0810887 -0.044853088 0.027959395 0.032682557 0.0443047 -0.023615943
-0.028478816 0.0444273 0.0031950297 0.020178933 -0.033688676 0.05106967 0.07079454 -0.056418665
-0.021929529 -0.052451327 -0.036915697 0.0310708 -0.019122314 -0.02180207 0.016861847 0.0540394
-0.021833386 -0.036915246 0.05960484 -0.02334788 0.02055159 0.020877242 0.0221962 0.07183614
-0.031726696 -0.03713716 0.0038283535 0.049645774 -0.00686815 0.0347758 -0.018560402 0.03636139
-0.016024675 0.014983412 -0.03458505 0.034046486 -0.026290169 -0.029641623 -0.03883829 -0.046244312
-0.03707389 0.025852107 -0.02816266 -0.062283736 -0.0123112295 0.031632524 -0.029192759 -0.032145165
-0.026790356 0.046801858 -0.011840079 0.01458702 -0.049391285 0.03961872 0.031233748 -0.024951516
0.019233108 -0.038659014 0.036436394 -0.058862694 0.029235758 -0.042549577 -0.056008715 -0.044068757
0.03108712 -0.05723869 0.004111633 0.046275143 0.008195886 -0.015381911 0.03504808 0.043592777
-0.032768495 0.047638305 0.029766023 -0.044658456 -0.023520285 0.030766057 -0.028329225 0.024129212
0.019706896 0.04346644 0.03479276 -0.06076649 -0.059725244 -0.08528381 -0.018421737 -0.033454273
-0.0046080984 -0.04357689 -0.004669027 0.052752778 -0.006752759 -0.06382269 -0.06090191 0.038676575
0.044880383 -0.059743427 0.03925905 0.033286173 -0.03538356 -0.024818286 -0.031037968 -0.016195854
0.012351825 -0.054219466 0.03999514 0.020957597 -0.016118225 -0.06646237 0.04272425 0.05875368
0.022720136 -0.009855992 -0.00980029 0.062294155 0.035544656 0.060318545 0.021695696 0.034830194
-0.055536635 0.048058204 -0.06459647 0.04784848 -0.026526107 -0.035494883 -0.029836282 0.03744467
0.026334241 -0.03817022 -0.022134667 -0.015467934 0.03470387 -0.075588316 -0.055752847 0.02849313
0.020487223 0.039336093 0.034809384 -0.03436626 -0.0046831886 0.028704358 -0.018963188 -0.051593427
0.033760022 0.023928784 -0.062444814 0.029117279 -0.023001656 -0.023176704 -0.028191783 -0.06089508
0.05306665 0.04604175 0.007713655 -0.06408288 0.009752673 -0.034893375 0.04013822 -0.030791352
0.008980807 -0.03648576 0.035187233 -0.029166237 0.012387107 0.03994993 0.027466018 0.023585232

action_model._discrete_distribution.branches.2.bias f4 [2]
00000000: fc7a da3c fd7a dabc
0.026669972 -0.026669974

exp_avg f4 [128, 6]
00000000: 3b81 f537 373e f638 dda8 17b9 4d62 c038
00000010: 97e0 be38 5459 d9b8 eb30 f6b8 5656 53b9
00000020: cf0c 16b9 e2d7 9c38 1834 ca37 9115 beb8
00000030: f6cb d3b8 f231 b8b8 f409 ffb8 a00e db38
00000040: 8f0e 3cb7 bf45 d1b8 0567 d3b6 4e11 a9b8
00000050: 4946 c038 5684 3ab8 506e beb7 80c7 1238
00000060: cff3 6439 c97b 3ab9 3215 1839 63e1 13b9
00000070: 846b 0439 1116 fc38 8408 4238 438b dfb8
00000080: 0d30 4b37 49f0 5eb7 814c 9338 a44f 3437
00000090: 32b2 c3b8 2aa6 9cb9 8c9d 58b9 766d 0db8
000000a0: 05e4 4239 13b2 4bb6 b600 a7b8 d997 093a
000000b0: 7513 4638 bfac ad39 5eb7 81b9 7837 8db9
000000c0: 2966 2a38 ef2d 0a39 6b4e c437 d27a ba38
000000d0: dfe4 61b8 eb5f 06b8 aeec 47b6 8bb1 7038
000000e0: 074c 1b39 1d7c e5b7 0daa c5b8 b710 6d38
000000f0: 90be 5938 fdb4 7f36 9e2d 27b9 549a cf37
00000100: 80a7 1139 27ae 53b8 b3e2 01b7 7e1e 6b38
00000110: 75cc 8c38 71c1 f1b7 d034 beb7 d0fc 0c38
00000120: 15d1 c838 1921 b7b5 9b28 bb38 76dd 8936
00000130: 972d e9b5 0396 9e36 815b efb8 2aca a639
00000140: 3ac6 b436 0393 fd38 3a3a 12b9 1d87 b7b8
00000150: 7b4d 16b8 d215 b638 c5be 81b9 f067 2239
00000160: e6e8 be38 5652 19b9 b9c7 9738 c435 9b39
00000170: 1493 aeb7 db80 2139 1c04 a8b8 119e fdb8
00000180: ca1c 10b8 3eff 033a f958 c6b8 6b11 b039
00000190: ea15 06b9 5ea4 9ab9 9784 3836 1b84 e238
000001a0: da0f 05b9 1f1e 8f38 0231 4938 763e 50b8
000001b0: 2891 1039 4d2f 98b8 6186 0139 d431 bab6
000001c0: 1ccd e235 b4cb 0337 718b ec38 8658 21b9
000001d0: 2388 3139 7ea5 29b8 f98f 0c37 3dd4 1d38
000001e0: 235f 78b8 26a8 cab9 3411 0838 6471 48b9
000001f0: f139 8138 f616 2339 2dd4 7eb8 c2f5 2539
00000200: 06da a6b7 4ab6 4239 e29b 04b9 d5a5 28b9
00000210: a0dc 6b37 e6a2 f0b6 d0dc 6d38 b1b1 8ab8
00000220: 7229 09b8 572e 4638 7fe4 97b8 bf9c 8739
00000230: dfd3 d8b8 c416 6739 1d7c d7b8 de77 65b9
00000240: 875c 9638 f4a4 d1b9 2cd6 1839 9040 07b9
00000250: 85e6 0e39 38fb e538 115e 0239 8cff 6cb9
00000260: 9e18 3c39 4ac8 32b9 47f3 a037 5bef 3139
00000270: 3370 8d38 e930 e737 5c3a f438 a9db 06b8
00000280: 6e6f 64b8 8bfc 7c38 fce2 4c39 b2f3 68b7
00000290: bb81 8639 780b 23b8 ced3 87b8 412d 9f38
000002a0: 1f39 1939 f5f7 55b8 b11c 0c39 1fe9 06b8
000002b0: a1f4 2d37 9d1f fa37 0997 61b7 7562 7039
000002c0: bdbc 5bb5 28fd 9838 5440 4eb8 51b0 61b8
000002d0: 98b4 96b8 95f3 cfb8 cdcb 1ab9 5d86 f3b7
000002e0: 6c23 6a38 8966 7536 eb32 27b7 4069 8538
000002f0: 79a3 5ab9 a022 2d39 0fda d538 f872 22b9
00000300: dded 09b8 91f5 6738 cdcb 84b8 3e37 5a38
00000310: ae17 cab6 55a3 4eb8 5214 e4b8 1043 06b9
00000320: bbbd 67b8 eeab 6938 050d 73b7 b82b 31b8
00000330: 4dea abb7 3834 bab8 5bd1 df38 69a1 07b9
00000340: adcf 9ab8 a046 de38 1802 c8b7 3fdb 1539
00000350: d73c edb8 6b48 3939 8565 dfb6 5da4 21b9
00000360: 6824 13b8 da76 8039 b8c5 c7b7 72b8 7f38
00000370: b1c3 80b8 65a8 54b8 48b4 4737 c75b b537
00000380: 595f 2339 99fe e3b8 4f97 c6b8 5228 e838
00000390: dbc8 f738 5ec7 c3b8 302c 3239 64d6 abb8
000003a0: aa5c dbb6 6d65 9138 81d3 dcb7 6937 7138
000003b0: eef3 0e39 153e 5b37 5aef 33b9 de6c 0f36
000003c0: 42a4 5739 a396 33b9 d82e 8939 fb45 bbb8
000003d0: 1c5b 9c37 7c51 ce38 6c43 ea36 ebc2 1bb9
000003e0: 1978 19b9 062f 80b7 6880 1139 e693 81b7
000003f0: c02d 3e38 1489 6438 ed7f 3639 594f b9b8
2.9266454e-05 0.000117417825 -0.00014463389 9.1735834e-05 9.101739e-05 -0.00010364005 -0.00011739306 -0.0002015469
-0.00014309886 7.478871e-05 2.4104535e-05 -9.063923e-05 -0.00010099255 -8.783107e-05 -0.000121612014 0.00010445458
-1.1209063e-05 -9.978888e-05 -6.300283e-06 -8.061771e-05 9.168365e-05 -4.4469103e-05 -2.2701133e-05 3.499491e-05
0.000218346 -0.00017784456 0.00014503745 -0.00014102976 0.00012628554 0.000120204066 4.6261135e-05 -0.00010659408
1.2110931e-05 -1.3288177e-05 7.023756e-05 1.0747379e-05 -9.331516e-05 -0.0002987844 -0.00020658056 -3.3718963e-05
0.00018586226 -3.035301e-06 -7.963313e-05 0.00052487623 4.7225e-05 0.00033125837 -0.00024741417 -0.00026934943
4.0626303e-05 0.00013177817 2.3401537e-05 8.892048e-05 -5.3857333e-05 -3.203742e-05 -2.9791076e-06 5.738581e-05
0.00014810274 -2.7356722e-05 -9.4253664e-05 5.652077e-05 5.1914307e-05 3.810331e-06 -0.00015943355 2.4748188e-05
0.00013890676 -5.0468512e-05 -7.741782e-06 5.6056764e-05 6.713803e-05 -2.8819517e-05 -2.2674358e-05 3.361405e-05
9.575688e-05 -1.3644195e-06 8.924418e-05 4.1086996e-06 -1.7373121e-06 4.7262306e-06 -0.00011413452 0.0003181261
5.3874946e-06 0.00012091363 -0.00013945336 -8.751287e-05 -3.5834946e-05 8.6825006e-05 -0.00024746932 0.00015488244
9.103287e-05 -0.0001462189 7.237442e-05 0.00029603962 -2.0810905e-05 0.00015402159 -8.01163e-05 -0.00012093422
-3.4359087e-05 0.00050352875 -9.457948e-05 0.00033582313 -0.000127874 -0.00029495632 2.7495314e-06 0.00010801126
-0.00012689774 6.824382e-05 4.7967776e-05 -4.9649236e-05 0.00013786985 -7.256735e-05 0.00012352459 -5.5490327e-06
1.6898007e-06 7.855637e-06 0.0001127933 -0.00015387134 0.0001693075 -4.0446866e-05 8.3781715e-06 3.762938e-05
-5.921641e-05 -0.00038653723 3.244095e-05 -0.00019115728 6.161992e-05 0.00015553445 -6.0755923e-05 0.00015827178
-1.9890267e-05 0.0001856919 -0.00012646572 -0.00016083506 1.405846e-05 -7.1715212e-06 5.671085e-05 -6.6134504e-05
-3.2701944e-05 4.7250036e-05 -7.242802e-05 0.00025865991 -0.00010339147 0.00022038358 -0.00010275117 -0.00021883796
7.169792e-05 -0.00039986486 0.00014575635 -0.00012898655 0.0001362805 0.00010966364 0.00012432809 -0.00022601912
0.00017938248 -0.00017050016 1.9186771e-05 0.00016969202 6.744303e-05 2.7560121e-05 0.00011645697 -3.2152664e-05
-5.4463213e-05 6.031668e-05 0.00019539514 -1.3885017e-05 0.00025655128 -3.887291e-05 -6.476753e-05 7.59014e-05
0.00014612496 -5.1014085e-05 0.00013362129 -3.21652e-05 1.0368561e-05 2.9817043e-05 -1.3446211e-05 0.00022924862
-8.185851e-07 7.295079e-05 -4.9174138e-05 -5.3808388e-05 -7.1861956e-05 -9.9159e-05 -0.00014762506 -2.9030425e-05
5.5822937e-05 3.6567528e-06 -9.965831e-06 6.3615385e-05 -0.00020850998 0.00016511464 0.00010197248 -0.00015492353
-3.2884873e-05 5.5303393e-05 -6.332211e-05 5.20267e-05 -6.022826e-06 -4.9266342e-05 -0.00010875672 -0.00012804219
-5.5251392e-05 5.571165e-05 -1.448696e-05 -4.2240805e-05 -2.0493893e-05 -8.878898e-05 0.00010672464 -0.00012934733
-7.381975e-05 0.0001059894 -2.3842833e-05 0.00014291423 -0.00011312373 0.00017669953 -6.6577363e-06 -0.00015415387
-3.5081437e-05 0.00024502614 -2.3814719e-05 6.0968516e-05 -6.139966e-05 -5.070157e-05 1.1903299e-05 2.1619619e-05
0.00015580411 -0.00010871626 -9.469559e-05 0.00011070132 0.0001181529 -9.3354596e-05 0.00016991864 -8.193849e-05
-6.537496e-06 6.933031e-05 -2.6324533e-05 5.7510482e-05 0.00013633046 1.3067872e-05 -0.00017159936 2.137203e-06
0.00020565189 -0.00017126887 0.00026165578 -8.92989e-05 1.8639075e-05 9.838023e-05 6.9815924e-06 -0.00014854565
-0.00014635957 -1.5280686e-05 0.00013876113 -1.5446869e-05 4.5342138e-05 5.44871e-05 0.00017404529 -8.836267e-05
