results/PressButton/IL-20ksteps-test3/PressButtonAgent/PressButtonAgent-9993.pt (torch, 532981 bytes, 54 tensors)

discrete_act_size_vector f4 [1, 3]
000000 00 00 40 40 00 00 40 40 00 00 00 40
       3.0 3.0 2.0

network_body._body_endoder.seq_layers.0.weight f4 [128, 6]
000000 3a 79 81 3e f3 82 f7 3c 21 11 4e 3e 85 39 b7 3e
       0.252878 0.030213809 0.20123722 0.3578607
000010 9c 6f 5f bf 9b 9e e2 3e 71 61 75 3e f8 a8 3a bf
       -0.8727968 0.4426163 0.23962952 -0.72914076
000020 6a df 2d bf 6a 33 86 3e 2e 74 6f bc c4 c1 08 3f
       -0.6791903 0.262111 -0.014615102 0.5342066
000030 8d 9a 54 3f da 78 ca be c0 4d c7 be b5 85 b5 be
       0.83048326 -0.39545327 -0.38926506 -0.35453573
000040 69 7b 02 3e 06 53 fc be 53 be 33 3f 22 7e 44 be
       0.1274239 -0.49282092 0.70212287 -0.19188741
000050 49 f2 a2 be dd 82 4d be e3 cc 07 3e 06 52 c5 be
       -0.31825474 -0.20069452 0.13261752 -0.3853914
000060 57 2a 9e be cd 29 ec bd f4 cd 81 bc 57 41 a2 3e
       -0.30891678 -0.1153141 -0.015845276 0.31690475
000070 53 51 5d 3f eb 9c f7 bd b4 04 de 3e a7 f2 5d bd
       0.86452216 -0.120904766 0.43362963 -0.05418649
000080 ee c4 db be 6d e6 20 3f 98 86 db 3e d6 ab 00 be
       -0.42923683 0.628516 0.42876124 -0.1256555
000090 c3 39 b4 be 5a 19 0b bf e7 71 16 be 17 d1 53 bd
       -0.3520032 -0.5433556 -0.14691888 -0.051713075
0000a0 0a 80 c6 3e 52 88 2a be cc 02 a0 3f 0a 92 31 3f
       0.3876956 -0.16653565 1.2500854 0.6936346
0000b0 10 1c b8 be f2 6a 99 be 70 93 36 bf 12 a0 d5 3e
       -0.3595891 -0.29964405 -0.7131872 0.41723686
0000c0 36 dc 19 3d ca be dc be a1 18 d6 3c 6c 54 e5 3e
       0.037563525 -0.4311431 0.02613479 0.4479097
0000d0 67 62 37 3e f7 2c a7 bd e8 35 80 bf f8 b8 2e 3f
       0.17908631 -0.08162873 -1.0016451 0.6825099
0000e0 0d 00 61 be 13 e7 9a 3e 09 07 d3 3e 2f cd 73 3e
       -0.21972676 0.3025442 0.41216305 0.2380874
0000f0 d0 ce 4a 3d a0 a3 d7 bd 86 60 9a be b0 ec 6e be
       0.049513638 -0.10529256 -0.30151767 -0.23332477
000100 1c e5 e0 bd b6 8e bc be 94 66 58 be 67 57 2e bd
       -0.10981199 -0.3682763 -0.2113288 -0.042563822
000110 61 7b ee be b6 94 df be be 51 ff 3e e9 14 ea bb
       -0.46578506 -0.43668145 0.49867052 -0.007143606
000120 f0 14 d4 be 13 d3 87 be 1c ff 25 3e 50 05 4c be
       -0.41422224 -0.26528224 0.16210598 -0.19923902
000130 0d ea 0f 3e 0c 3e 6e 3f 27 d5 c0 3e 97 f4 0f 3e
       0.14054127 0.93063426 0.37662622 0.14058147
000140 be fd 3c bf cd 12 fa be 5d 60 c0 3e d9 71 08 3f
       -0.7382468 -0.4884247 0.3757352 0.5329872
000150 f7 95 14 bf 31 c8 58 be 55 9a 53 3e 7a 7b 42 3e
       -0.5804133 -0.21170117 0.20664342 0.18992415
000160 6f 5f 26 be b7 26 c2 3d 72 e3 72 3f c2 ef 4d 3f
       -0.16247343 0.094800405 0.94878304 0.80443966
000170 df 6d 72 bf 40 d1 d7 3e ae 22 ed 3e a2 0e fe 3e
       -0.946989 0.42151833 0.4631552 0.4962054
000180 79 68 15 be 7d c6 13 bf cc d4 1e 3e 4b ed 0f bf
       -0.14590634 -0.57724744 0.15510863 -0.56221455
000190 bd 46 bd 3e a1 74 3c 3f 4a 98 52 be 20 e7 68 3e
       0.36968032 0.7361546 -0.20565906 0.22744417
0001a0 9d a6 76 be e3 ff f1 be 02 fd 35 be be 5c 61 be
       -0.24086995 -0.4726554 -0.17772296 -0.22008035
0001b0 e3 d3 78 bf e0 4f c2 be f7 c5 56 be a6 c2 41 3f
       -0.97198313 -0.37951565 -0.20973955 0.75687635
0001c0 7a 28 56 3e 86 be 00 bf c3 e1 08 3e ad d0 0c 3f
       0.20913878 -0.50290716 0.13367371 0.55005914
0001d0 8f 59 f5 3d d5 a9 1c bf 6f 2d a7 be 38 78 5c bf
       0.119799726 -0.61196643 -0.3265185 -0.8612094
0001e0 61 7b d0 3e 1d 87 2a be fb 9d 4e be e0 34 6d 3f
       0.4071913 -0.16653104 -0.20177452 0.92658806
0001f0 dc ec 91 3e 39 73 cd bb 36 84 d1 3e 71 86 51 3c
       0.28501022 -0.006269839 0.4092118 0.012788401
000200 a1 60 13 3c f1 22 eb 3e f2 3b e2 be 90 d6 ba 3e
       0.008995206 0.45925096 -0.4418636 0.36491823
000210 59 a4 e8 3e cf fc b8 3d 78 a1 1f 3f 3a f9 57 bd
       0.45437887 0.090325944 0.62355757 -0.052727915
000220 49 a3 17 3f 01 f6 9b be e6 01 d7 3c c4 3e a9 be
       0.5923353 -0.30461124 0.026246022 -0.330557
000230 1b ff 23 bf 50 f6 60 3c 6c 47 92 3e d0 c8 86 3e
       -0.64061135 0.0137306005 0.28570116 0.26325083
000240 0b 35 ae 3e e4 5b 02 3f 11 42 fd be 4e 57 2d bd
       0.34024844 0.50921464 -0.49464467 -0.04231959
000250 98 05 26 be 42 a1 90 be 08 60 c0 3d 7b 05 0e be
       -0.16213071 -0.2824803 0.093933165 -0.13869278
000260 35 9d cc 3e 9b 91 d9 be 67 09 20 3f da 4e 3e 3e
       0.3996369 -0.424939 0.62514347 0.18584767
000270 19 9e 93 3e 8c 87 fc 3e d3 96 86 3e a7 c2 4b be
       0.28831556 0.49322164 0.26286945 -0.19898473
000280 1f aa b7 3e 62 8d fe 3d d7 2e 99 3e 4f 33 a4 be
       0.3587198 0.124293104 0.29918548 -0.32070395
000290 f8 50 bf be 07 f1 b2 bd 12 b0 cd bb cd 31 23 bf
       -0.37366462 -0.087373786 -0.0062770927 -0.63747865
0002a0 64 1b 0b 3f a1 4f a3 3e 70 87 3e bf f0 ef 42 be
       0.5433867 0.3189669 -0.7442541 -0.19036841
0002b0 78 53 c5 be ad 8b 2d 3e b1 cb 60 3e 29 b7 16 be
       -0.38540244 0.16947813 0.21952702 -0.14718308
0002c0 1e e7 5d be f7 b6 8b 3e ce c0 a3 be 90 08 12 3e
       -0.21670195 0.2728803 -0.31983036 0.14261079
0002d0 ef 9c 81 bb 10 2d dd 3e 3b 19 00 3f 13 ee 8b 3e
       -0.0039554755 0.43198442 0.500385 0.27330074
0002e0 22 1c de 3e ee b7 1f be 3c 8a ec 3e b1 73 62 bf
       0.4338084 -0.15597507 0.46199214 -0.8845778
0002f0 b4 b9 5f be 13 c1 dd bd cc 55 b0 be 4c 6d 00 be
       -0.21848184 -0.108278416 -0.34440458 -0.12541693
000300 ac bf ff 3e bc 06 63 3f 2b 15 90 3e 76 57 ee 3d
       0.49950922 0.8868215 0.2814115 0.116377756
000310 c2 74 58 3e 8c b4 18 3f 25 89 ea 3e de ef 95 3f
       0.2113829 0.5965049 0.45807758 1.1713827
000320 2d fc 89 3e 9a a2 05 3f 26 ab 7d bb cd de 96 3e
       0.26950207 0.52201235 -0.0038706749 0.29466859
000330 07 d0 bc 3c 0f 33 26 3f 88 e9 8d 3d 02 ea f1 bd
       0.023048414 0.6492166 0.06929308 -0.118122116
000340 bf 08 a9 3d 19 76 81 3f 95 79 6f 3e f8 11 10 3f
       0.08253621 1.0114166 0.23386224 0.5627742
000350 7d 33 aa be a5 80 88 bd fa cb 72 3f bf 8b f4 3c
       -0.33242407 -0.06665162 0.94842494 0.029851792
000360 73 7f 0e bf 8e 1e f6 bd 96 98 ba 3c 50 8f 16 be
       -0.5566322 -0.120175466 0.022777837 -0.14703107
000370 50 af 69 be 7f d8 66 be 0c 57 0a bd ac 2e 84 3e
       -0.22820783 -0.22543524 -0.03377442 0.25816858
000380 f6 bf 21 3e 63 b5 3f 3e 69 88 cc 3e b5 53 11 3f
       0.15795884 0.18721537 0.39947823 0.5676835
000390 85 a3 42 bd 96 e4 07 bf bc a6 15 3c 96 a6 2e bd
       -0.047519226 -0.5308317 0.009133991 -0.042639337
0003a0 9e ba 4f be e2 18 58 3e c2 64 a5 3e a3 15 27 3e
       -0.20286033 0.21103242 0.32303435 0.16316848
0003b0 f7 bd 99 be dc 72 e0 3e 86 e2 a7 be 4e 54 66 bd
       -0.30027744 0.4383763 -0.3279001 -0.056232743
0003c0 61 e1 f0 be 2a 1b 13 be c2 44 fe be dc a7 a7 3e
       -0.4704695 -0.14365831 -0.49661833 0.32745254
0003d0 2c c0 70 be a3 67 00 bf bd d5 20 3e 73 7a 55 3d
       -0.23510808 -0.5015814 0.15706535 0.05211873
0003e0 de 6d b5 be 20 05 3f 3f 1d d1 88 bd 13 e4 1f be
       -0.35435385 0.74617195 -0.0668051 -0.15614347
0003f0 1a 80 c9 bd a2 6f dc bc 90 da 00 bd e2 26 b8 be
       -0.098388866 -0.0269087 -0.031458437 -0.35967165

network_body._body_endoder.seq_layers.0.bias f4 [128]
000000 06 d3 84 3c 89 1c 0a bc af d9 ea 3c b0 b5 3a 3d
       0.016213905 -0.008429655 0.028668253 0.045583427
000010 39 62 b6 bc c3 be 33 3c 76 b7 56 bc 7c c9 11 3d
       -0.022263633 0.010970774 -0.013105264 0.03559254
000020 d8 f0 92 bc bd 7d c0 bc e8 6b 9f bc 49 77 8d bc
       -0.017937109 -0.023497457 -0.019460633 -0.017268794
000030 26 4d 8b 3b aa ac 96 3c 49 93 78 3c 05 5a 07 3d
       0.00425114 0.01839288 0.015171834 0.033044834
000040 53 da 2b 3c 12 79 35 bc 0d bc 17 3c 33 e7 0c 3d
       0.010489064 -0.011076229 0.009261143 0.034400176
000050 9c af c7 3c f8 4b 91 3c c8 02 83 3d 99 39 74 bc
       0.02437573 0.01773642 0.06397015 -0.0149063105
000060 03 e6 35 3d ab 61 4a 3c 6d d4 28 3d 0f d0 07 bd
       0.04440881 0.012352387 0.04121821 -0.033157405
000070 79 02 30 3d c6 95 16 3d b8 5f be 3c 0b a8 6a bc
       0.042971108 0.03676393 0.023239002 -0.014322291
000080 1c 66 3a 3d 4f b9 d2 3c 41 7a 62 bc 07 52 84 3d
       0.045507535 0.025723128 -0.013823093 0.06460958
000090 7b a2 97 bc 7a 98 4c ba f9 bc 94 bc 0f 6f 98 3c
       -0.018510094 -0.0007804703 -0.018156515 0.018607644
0000a0 ad 41 35 3d a0 e3 94 3c 26 5c af bc 52 43 3c 3d
       0.044252086 0.018174946 -0.021406244 0.04596264
0000b0 36 b4 0e bb 36 c2 9f bc 60 ba 5f 3c 68 6f c3 ba
       -0.0021774895 -0.019501787 0.013655275 -0.0014910521
0000c0 68 9f 34 bc 1f 0d 5b bc d2 0f bd 3c fb 43 a0 3c
       -0.011024334 -0.0133698275 0.023078833 0.019563666
0000d0 92 1e 95 bb 1b a8 1f bb 23 45 13 3d 19 84 f2 3c
       -0.0045507634 -0.0024361673 0.035954606 0.029604005
0000e0 cc 2e bd bc 5a b7 42 bc 39 b8 08 3d 99 5f 67 bc
       -0.023093604 -0.011884535 0.033378813 -0.014121913
0000f0 d4 d6 79 3c 22 8e 19 3d cd 34 59 bb 35 66 87 3c
       0.015248973 0.037489064 -0.0033143044 0.016528228
000100 1e dd ac 3c 0a 43 1a 3d fc d3 77 3d b3 e8 31 bc
       0.02110153 0.03766159 0.0605049 -0.0108587025
000110 fc 47 06 3d d8 95 e8 bc ca df e1 3c 2b d9 22 3d
       0.032783493 -0.028391764 0.027572531 0.03975789
000120 0d 7a 30 3c bb f8 d3 3c 71 ce 0e 3d 74 c5 04 bd
       0.010771287 0.02587544 0.034864847 -0.03241487
000130 5e bd 05 3d e7 0a 7c bb 72 cf e4 bc 00 c7 72 3d
       0.032651298 -0.0038458647 -0.027930949 0.059271812
000140 bc 43 2e bb 87 c8 54 3d cf 61 68 3b df 2d 04 3d
       -0.0026590666 0.05194905 0.003545869 0.03227031
000150 c7 8a 18 3d 8a 2c de bc 53 1e 20 3c 34 87 1f 3d
       0.037241723 -0.027120847 0.009772855 0.0389473
000160 73 40 94 3c 84 06 1c 3d 92 dd 28 3d 5b 72 3d bc
       0.018097138 0.03809215 0.04122693 -0.011562909
000170 f7 2d a5 3c d2 73 db 3c a4 60 8f 3c bf 89 6d 3d
       0.02016352 0.026788626 0.017502137 0.057992693
000180 1f cd 74 3c 3b 32 0f bb e2 d1 bc bc 9b e5 64 3c
       0.014941483 -0.0021850008 -0.023049299 0.013970758
000190 0d d3 7f bc 27 3c 1c 3d d0 c0 9e bc e6 7d 7b 3c
       -0.015614283 0.038143303 -0.01937905 0.015349841
0001a0 04 8f 69 3c 18 a6 b5 3c 10 38 b9 bc 72 a3 ad bc
       0.014255289 0.022173926 -0.02260974 -0.0211961
0001b0 c6 f2 40 3d c1 b1 5b 3d a4 25 03 3b e5 97 a2 3d
       0.047106527 0.053636316 0.002001145 0.07939128
0001c0 ae 56 9a 3c 3d 51 87 ba 1b 82 31 3d 5a 89 a3 bc
       0.01884016 -0.0010323894 0.04333697 -0.019962955
0001d0 f9 1a e8 3c 34 80 66 3d 86 3d b1 3c 6d bd aa 3c
       0.028333174 0.056274608 0.021635782 0.020842278
0001e0 5a 9c 70 bc 54 30 75 3a b0 97 8c 3d c2 2b 57 3c
       -0.014685715 0.000935321 0.068648696 0.013132991
0001f0 fe e1 5f 3c d0 ae c7 3c f0 ec 9b 3d c6 70 36 3d
       0.013664721 0.02437535 0.076135516 0.044541143

network_body._body_endoder.seq_layers.2.weight f4 [128, 128]
000000 47 0e 90 3c c3 40 1a 3e 85 9f d5 3d 67 5b 04 3d
       0.017584933 0.15063767 0.104308166 0.03231373
000010 d6 a1 b8 3c d4 37 6e 3e 9a cf c8 bd db 32 3e 3d
       0.022538107 0.23263484 -0.09805222 0.04643522
000020 68 77 84 3d c6 da 11 be c7 4a 58 3e c0 27 a5 3d
       0.064680874 -0.14243612 0.21122275 0.08064222
000030 3c e0 b8 bc 4d 2f 7f 3d ee 5e 59 bc ff 43 bf 3d
       -0.02256786 0.06230097 -0.013267262 0.09339141
000040 58 c1 c0 3d 10 a6 c8 3c 6c 6e b1 3d cb 54 a5 bd
       0.094118774 0.024493247 0.086636394 -0.080728136
000050 60 13 80 bd 30 04 d2 bc a2 6b 3c bd 14 5c 74 3d
       -0.062536955 -0.025636762 -0.046001084 0.059658125
000060 d6 6d 67 3e 27 7f 02 be 05 f0 98 bd 60 d8 4c b9
       0.22600493 -0.12743817 -0.07467655 -0.00019535562
000070 e0 b7 28 3e b3 a0 d9 3d 28 8e cc bd a9 0c 00 3e
       0.16476393 0.10626354 -0.09988052 0.1250483
000080 a4 86 1d bc 4c 0e a0 bb 78 a7 06 bd e9 f0 83 3b
       -0.00961462 -0.004884517 -0.032874554 0.0040265215
000090 48 87 6f bd bd e9 32 be b3 e7 05 3d a4 a2 2a 3c
       -0.058478624 -0.17471977 0.03269167 0.010414753
0000a0 bf 4f 95 3c b8 a8 ee 3d 70 2d ff 3d b7 de af bd
       0.018226502 0.11653274 0.124598384 -0.08587401
0000b0 10 e0 8a bc 5f 19 bb 3d 7b aa 4e bd 64 7c 48 3d
       -0.016952544 0.091356985 -0.05045555 0.048946753
0000c0 d0 ba b4 3c 0a f8 fd 3c 4e c6 cb bd f7 09 0f 3d
       0.022061735 0.031002063 -0.09949933 0.034921613
0000d0 f0 44 46 3d a2 dd 05 3e 48 cc 41 bd e0 76 94 3d
       0.048405588 0.13072827 -0.04731396 0.07249236
0000e0 e8 c2 8c bd 83 31 89 3d 50 89 db 3d 3a 8d 9e 3d
       -0.06873113 0.06698897 0.1071955 0.077417806
0000f0 ec 89 eb bc 74 b0 13 3c e5 64 e4 3d 23 c8 d0 3d
       -0.02875229 0.009014238 0.111520566 0.10194423
000100 79 fc 14 be 90 86 0a 3e 60 23 82 3d 98 3c 1c 3d
       -0.14549436 0.13527894 0.063544035 0.038143724
000110 1f 6d 23 3d 77 d4 7e 3d 18 7b d3 bd f7 b4 19 3d
       0.039898988 0.06221434 -0.10326213 0.037526097
000120 da 3d 5e 3e 92 a8 34 bc 7e 36 d9 bd b0 0a f2 3d
       0.21703282 -0.011026518 -0.10606097 0.11818445
000130 db f1 b8 3c 60 79 32 3b c4 ab dc bb 64 d0 6f 3b
       0.022576263 0.002723299 -0.0067343432 0.0036592716
000140 cd 2c e5 3d 94 67 2b 3d 65 5a 47 bb 1f ad 67 bd
       0.11190186 0.041846827 -0.003041887 -0.056561586
000150 22 01 c2 bd 53 e9 f7 bc c9 87 74 bd 35 40 a0 bd
       -0.09472872 -0.030262625 -0.059699807 -0.078247465
000160 e7 41 75 bd 18 ee 18 3d b4 d7 58 3d ca e4 91 bd
       -0.059877302 0.03733644 0.052940086 -0.07123716
000170 f6 11 e3 bc d5 8f 52 bb 09 11 41 3c cb a7 ff bd
       -0.027718525 -0.0032129188 0.011783847 -0.12483176
000180 93 a8 01 be 9e f2 e9 bd c5 94 06 be f9 15 3c 3d
       -0.12661962 -0.11423229 -0.13142689 0.045919392
000190 5a 89 fe 3b cd da ab bc 92 f4 39 3e d2 cd 21 bd
       0.0077678384 -0.020978356 0.18159702 -0.039502926
0001a0 53 1f a3 bd 8c 11 a1 bd a6 ce fb bc 65 be ed 3d
       -0.07964959 -0.07864675 -0.030738186 0.116085805
0001b0 38 6c 8b 3d 4f b2 21 bd 62 15 1c bd c1 24 f8 3d
       0.068077505 -0.03947669 -0.03810633 0.12116385
0001c0 da 4d cd 3c ed 15 87 3d 85 3f d0 bd 58 12 3e bc
       0.025061537 0.06595979 -0.101683654 -0.011601053
0001d0 16 8a 2f bd 64 47 52 be a3 a5 2f bd e3 bd 68 3d
       -0.0428563 -0.20535046 -0.042882573 0.056821715
0001e0 77 26 21 3e 78 3b e5 3d ad b6 98 3d 8c 7b 51 bd
       0.1573733 0.111929834 0.07456718 -0.051143214
0001f0 c9 5c a5 3b 45 79 fc bd bb e8 d2 3c e5 e3 11 be
       0.0050464612 -0.12327818 0.02574574 -0.14247091
000200 89 39 9c bd 8c 43 a1 be 97 8b 72 3d ee d2 02 3e
       -0.076281615 -0.31496847 0.059215154 0.12775776
000210 ef f2 ed 3b 1a e4 44 3d 3e 4f 16 3e 8a 35 b3 bc
       0.007261626 0.048069097 0.14678666 -0.021876115
000220 ae 33 ee bd 8f 52 a8 3d 4f 61 09 3e 4d 4f de 3c
       -0.11630951 0.08218872 0.13416027 0.027137423
000230 de 17 66 be c9 fa 60 3d d0 00 60 3d 1d 3b d1 3d
       -0.22470042 0.054926667 0.054688275 0.10216353
000240 21 49 cb 3d 4e 1f 87 bd 82 71 cd 3c de 09 08 bc
       0.099260576 -0.06597768 0.025078539 -0.008303134
000250 01 1b 3e 3d d6 dd 98 bd 9b 63 8c 3e 18 db 35 bc
       0.04641247 -0.07464187 0.27419743 -0.011099599
000260 6e e8 62 3e 31 32 59 3c 80 1a 1b 3e 8d c5 f2 bb
       0.22158977 0.0132565955 0.15146828 -0.007408804
000270 35 33 70 bd a4 0b 7b bd fb 59 68 3d 3f b1 5d be
       -0.058642585 -0.0612904 0.056726437 -0.21649645
000280 4d a8 91 3c 49 5f 24 3e dc 22 59 3d 2d 09 22 3e
       0.017780447 0.16051973 0.05301176 0.15823813
000290 df 1f df bd 46 4b 94 bc 26 77 19 be fe 96 18 3d
       -0.10894751 -0.0181023 -0.14986858 0.037253372
0002a0 e1 7e f2 3b 1d a5 b5 bd 10 d9 d4 bd d2 61 4f 3d
       0.007400379 -0.088693835 -0.10392964 0.050630398
0002b0 fb d8 23 3e f1 cb e6 bd ae 5b 31 be d3 4c 43 3e
       0.1600074 -0.112693675 -0.1732013 0.19072275
0002c0 fe fa 71 3d be 96 bc 3d a9 f1 2e bd 12 17 96 bd
       0.059077255 0.09208439 -0.042710934 -0.07328619
0002d0 15 3d 6d 3d cb 75 89 3d 80 fd 87 bb 8b 45 12 bd
       0.05791958 0.0671192 -0.0041500926 -0.035710853
0002e0 a1 d4 98 bc b3 62 e1 bc fd 09 9f bd b2 d9 d9 bd
       -0.018656077 -0.027512884 -0.07765577 -0.10637225
0002f0 28 5e af 3a b1 6e 58 3e 08 73 a1 be e4 dd 2b bd
       0.0013379501 0.21135975 -0.31533074 -0.04195966
000300 98 5b a7 3c f1 5f 2e bd a5 e0 68 3e 1a 64 c5 bd
       0.020429417 -0.042571966 0.22741945 -0.096382335
000310 39 9c e5 3d 00 4f 05 be 47 bb fa 3c 2c 4f 60 bd
       0.11211438 -0.13018417 0.030606879 -0.054763004
000320 c1 22 c4 3d e2 f1 26 3e 53 0b a6 3c 7e 62 b9 bd
       0.09576941 0.16303208 0.020269072 -0.09051989
000330 06 a8 42 3e 28 3a 6f be 53 94 97 bc ed 38 a3 3d
       0.19009408 -0.23362029 -0.018503344 0.07969842
000340 b8 33 1a be 6f 8e 43 3e 81 d0 18 be 74 49 19 3e
       -0.15058792 0.19097303 -0.14923288 0.14969426
000350 c9 52 09 be da 61 e6 3d 06 a1 93 be 8d d2 0a 3e
       -0.13410486 0.112491325 -0.2883379 0.13556881
000360 f8 e2 44 bd cb 01 0e be 98 56 d1 bc b5 17 b1 bc
       -0.048068017 -0.13867871 -0.025553986 -0.02161775
000370 28 20 93 bb 75 a9 f7 3d 9b d7 a8 bd 92 32 71 3d
       -0.0044899173 0.12092868 -0.082442485 0.05888612
000380 48 8c 9a 3d 79 e8 c0 3c ce 9c bf 3d 1e 1f 33 bd
       0.07546288 0.023548352 0.0935608 -0.043730848
000390 40 7c e8 bd f6 54 d4 bd ee eb 27 be 6e 7c b8 bd
       -0.11351824 -0.103677675 -0.16398594 -0.09008108
0003a0 a1 39 40 be 7b 86 c6 3b 84 e9 c6 bd da 60 0e 3d
       -0.18771984 0.006058512 -0.09712508 0.034760334
0003b0 2e 1a f8 3c 7f 07 13 3e 48 6c 0e 3c af 14 0b 3e
       0.030285921 0.14358328 0.008692808 0.13582109
0003c0 cd 54 85 bd 8a 5f cc 3c b2 18 1c be c1 77 4a bd
       -0.06510315 0.0249479 -0.15243796 -0.049430612
0003d0 2d 60 95 bd 96 60 88 bd 19 cf 90 bb a3 5d 3e 3c
       -0.07293735 -0.06659047 -0.004419219 0.011619004
0003e0 6f b8 6a bd fa d0 63 bd 34 27 1e be f1 a8 1e be
       -0.057304796 -0.055619217 -0.15444642 -0.15494134
0003f0 93 4f ee 3c 14 f6 5a bd 5d e2 65 3d b3 72 9f 3d
       0.029090678 -0.053457335 0.05612408 0.07785549

network_body._body_endoder.seq_layers.2.bias f4 [128]
000000 8b ae ab 3a 8d 31 91 3d 09 cd 0f 3d 92 f2 40 3d
       0.0013098283 0.07089529 0.035107646 0.047106333
000010 67 ac f6 3c d4 be 13 bc c3 20 c7 3c 1b 47 79 3d
       0.030111505 -0.009017665 0.024307614 0.060858827
000020 28 46 be 3c 29 b1 71 bb 84 ff 14 3b 89 0e 0c bc
       0.023226812 -0.0036879277 0.0022735307 -0.008548387
000030 37 00 07 3d 5d a4 d7 3c 9b 14 e4 3c aa b7 f1 3c
       0.03295919 0.026323492 0.027841857 0.029506523
000040 f6 f1 1c bc c9 ec bc 3c 39 f4 04 bc 1f 7a 80 3b
       -0.009579172 0.023062127 -0.008114868 0.003920808
000050 92 99 4f 3c 14 57 93 bc 9c 75 9c 3c 39 34 11 bc
       0.012670891 -0.017985858 0.01909905 -0.0088625485
000060 60 90 ff ba 44 ee 26 bb b0 6f 47 bc 7f 55 84 bc
       -0.0019497983 -0.0025471607 -0.0121726245 -0.016154049
000070 86 cb 16 bc 8d e8 53 3a d3 a8 8b bb 98 6b a7 3c
       -0.009203797 0.0008083664 -0.004262069 0.020437047
000080 ff f0 f9 3c f9 6d ff bb d4 ed 67 3c e4 a1 00 3d
       0.030510424 -0.007795092 0.014155824 0.03140439
000090 54 03 1a 3c e4 3c 74 3d 68 dc 58 3d e9 bb 09 3b
       0.009400208 0.059628382 0.05294457 0.0021016544
0000a0 d3 b7 be 3c 5c 01 02 3c 16 8f 7a 3c a6 ab 73 3c
       0.023281014 0.007934894 0.015292903 0.014872467
0000b0 82 a0 c8 3c 2e 75 a9 3c 8d 0b 95 3c fb ef 68 3c
       0.024490599 0.020685758 0.018193984 0.014217372
0000c0 3d 0a 5d 3d bc 1c 53 3c 49 42 da 3c 11 53 da 3c
       0.053964842 0.012885269 0.026642935 0.026650937
0000d0 7a 7c d0 bb de 32 84 3c ed f3 9a bb 5f bc 20 bc
       -0.006362495 0.016137537 -0.0047287853 -0.009810536
0000e0 61 2f 3e bc a2 9f 80 3c 36 99 e8 3c 38 61 4c bc
       -0.011607976 0.015701119 0.02839337 -0.012474351
0000f0 ef b9 1b 3d bb 6c 16 3d 42 81 5d 3c 33 2f 83 3c
       0.038019117 0.036724787 0.013519587 0.016013717
000100 2b 9a 6a bc f9 28 87 bc 7f e3 78 b9 b5 c4 2f b9
       -0.014318983 -0.01649903 -0.00023735872 -0.0001676258
000110 2a 91 1d bc 83 1d 37 3c 24 41 e2 3c 1e 49 9c bb
       -0.009617129 0.01117647 0.027618952 -0.0047694584
000120 97 9c 00 3d e3 c9 61 bc a7 5a 89 3c 52 27 f8 3c
       0.031399336 -0.013781044 0.01676686 0.030292187
000130 40 ea 84 3c cf 76 85 3c ba d5 44 3d d9 b2 7e 3c
       0.01622498 0.016292004 0.048055388 0.01554557
000140 f8 88 e8 b6 27 75 d6 3c 24 ec ac 3c 00 c3 3c bc
       -6.930084e-06 0.02617891 0.021108694 -0.011521101
000150 0d 57 4b 3d 6f aa 49 bc 1f 9e 3f 3c 0e 0b cf 3c
       0.049643565 -0.012308701 0.011695414 0.025273826
000160 7d e4 31 bc 30 94 d5 3c 85 d6 5b 3c 4e 1c 91 3c
       -0.0108576985 0.026071638 0.013417845 0.017713692
000170 b7 ad c8 3c 47 c0 86 3c cf 88 80 bc b9 5e 11 3d
       0.024496896 0.016449107 -0.015690235 0.035490725
000180 9d 3d 41 3c cb 82 96 3c 2a 9e aa 39 2d 19 7f bb
       0.011794475 0.018372914 0.00032542768 -0.0038924918
000190 6d 5e dc 3c 48 15 eb 3c ea a7 5d 3c 06 61 18 3d
       0.026900494 0.028696671 0.013528803 0.037201904
0001a0 73 d1 81 3c 3b a2 c9 3c df 0f b5 3a c0 6e 71 ba
       0.015846943 0.02461349 0.0013813934 -0.00092099234
0001b0 bc a6 0f bb a1 3d af 3c 04 5d ff 3a a3 91 65 3c
       -0.002191945 0.021391692 0.0019482677 0.014011773
0001c0 eb c1 d4 3c 0d d6 9b 3c 9f 16 d6 bb 37 e0 05 3d
       0.025971374 0.019022966 -0.0065334584 0.03268453
0001d0 66 b2 12 bc dc 26 3b bc d0 c7 99 3c 2a a9 aa 3a
       -0.008953666 -0.011422839 0.018772036 0.0013020386
0001e0 3f 1c 3d 3d ad 9f 02 3d 97 09 1e 3c 9a a5 3d 3c
       0.046169516 0.03189056 0.009645841 0.011575127
0001f0 8d 69 14 bb 56 08 0a 3d 98 bf 30 3d de dd aa 3c
       -0.002264592 0.033699356 0.043151468 0.020857748

action_model._discrete_distribution.branches.0.weight f4 [3, 128]
000000 66 94 00 3d 72 6e 38 3d ae 84 30 bd 4f 60 95 3c
       0.031391524 0.045027204 -0.043095283 0.0182344
000010 dc a9 b9 bc fb 18 0b 3d e7 4f af bc 69 d4 22 3d
       -0.022664003 0.03395937 -0.021400405 0.03975335
000020 b9 86 0d bd fa 6a af 3c 1b 06 89 3c dc e0 69 3c
       -0.03455231 0.021413315 0.016726544 0.014274802
000030 2d ad 19 bd 2e 5c 18 bd 79 1a 36 bc 1f 0c d4 bb
       -0.03751867 -0.037197284 -0.01111471 -0.0064711715
000040 06 d9 10 3c d7 7e 51 b9 2d 43 02 3d 6f 70 d8 3c
       0.008840805 -0.00019979045 0.031802345 0.0264208
000050 a0 4e 00 bd 61 2e 09 3c 38 c8 f1 bc 48 f4 19 3c
       -0.031324983 0.008372874 -0.029514417 0.00939662
000060 f2 70 b7 3b 1c 32 09 3d b1 3a 9a 3c bb 2c d5 3b
       0.005598181 0.033495054 0.018826814 0.0065055764
000070 a9 2e 24 3d 08 bb ab 3c 66 e7 08 3c fd d8 07 bd
       0.04008356 0.020963207 0.008355951 -0.03316592
000080 c5 ef a9 bc db 5b 3d 3c 8f f7 2d bd 2a fa a1 bc
       -0.020744214 0.011557545 -0.04247242 -0.019772608
000090 1f d5 19 bd 97 8d 4e 3d 4b a7 f1 3c 16 4d 1a 3c
       -0.037556764 0.050428 0.029498717 0.009417793
0000a0 24 21 5b bc 43 a0 c3 bb 59 ff 3b bd 6d dd bb bc
       -0.013374601 -0.0059700324 -0.045897815 -0.022932732
0000b0 e7 b9 89 bc 3c 0b 17 bd 02 4c 68 bc 88 5d 68 bc
       -0.016812278 -0.03687595 -0.014178278 -0.014182456
0000c0 4b 8a 52 3d 40 32 33 3d 98 9b 5e bc fb 81 72 bc
       0.051401418 0.043749094 -0.013586901 -0.014801498
0000d0 21 52 f4 3c 81 78 fe bc ee 7d fb bb 54 c9 bd 3c
       0.029824318 -0.03106332 -0.007674924 0.02316729
0000e0 68 b7 a9 3c 1e b5 63 bc 26 26 4a bb 3e d6 5d 3c
       0.020717338 -0.013898162 -0.0030845492 0.013539849
0000f0 a0 0a 95 3b 72 b7 a6 bc 7a b6 2b bd 7a 39 86 bc
       0.0045483857 -0.020351145 -0.04192207 -0.016384829
000100 22 ca 3f 3c de 5d e5 3b a4 18 74 3c 15 ac 4c 3c
       0.011705907 0.006999715 0.014898453 0.012492199
000110 8c 2b a1 3c 72 0d a9 bc 2d 19 8d bc d4 aa 07 3d
       0.019674085 -0.020636294 -0.017223919 0.0331219
000120 9c 91 b7 3c de dd 38 3c 44 a8 17 bd b5 bc d3 bc
       0.0224083 0.011283366 -0.037025705 -0.025846818
000130 3b dd ea bc 40 54 d6 bc 2c da 1a 3d 0b 86 3d bd
       -0.028669944 -0.02616322 0.03780572 -0.04627041
000140 c2 bb 0b 3d e7 15 83 bc 2e 08 1a bc d7 7c 22 3c
       0.034114607 -0.016001655 -0.009401364 0.009917459
000150 d9 33 63 3c 3b ad 8d 3c 97 a9 2c bd 2e 8a 2f 3d
       0.013867342 0.017294517 -0.04215392 0.042856388
000160 59 74 9b 3c eb 25 fb bc 7c fa 11 bd d7 60 61 bc
       0.018976377 -0.03065773 -0.03563927 -0.013755999
000170 58 3c e6 bb b5 79 67 bd 88 29 2f 3c a0 2f d9 bb
       -0.0070262365 -0.056512553 0.010691054 -0.006627992
000180 9f da ba bc f4 ee 8d bc c8 70 bd 3c 7a e2 c8 3b
       -0.022809325 -0.017325856 0.023125067 0.0061305137
000190 58 b2 9f bc ed ad 1c bd 35 d6 26 bd 67 5d e7 bc
       -0.01949422 -0.038251806 -0.040731627 -0.02824278
0001a0 ef 1e 7d bc 19 53 a6 bc df 5e ba 3c 88 2a 10 3d
       -0.01544927 -0.020303296 0.022750316 0.03519681
0001b0 38 15 2b 3d fc a5 be bc ee b9 9d 3c 7e 48 91 bc
       0.041768283 -0.023272507 0.019253697 -0.017734762
0001c0 ed a9 b4 bc ff 84 07 bd 0b 5b df 3b 2f 1b 36 39
       -0.022053683 -0.03308582 0.006816273 0.00017366999
0001d0 9e e4 88 3c 50 cf 60 3c f8 5e 86 bc da 35 ab 3c
       0.016710576 0.013721302 -0.016402707 0.020899702
0001e0 b7 d8 6f 3d 21 74 05 bd 37 a3 84 3b 31 e8 ae bc
       0.058556285 -0.032581452 0.004047777 -0.021350952
0001f0 ce 7d 46 3c 89 8f d9 3b 3a 18 03 3d 43 e0 52 bc
       0.012114955 0.006639425 0.032005526 -0.012870851
000200 4c b2 17 bc f7 e2 6d bd f2 d1 79 3d 02 df 84 bd
       -0.009258818 -0.05807778 0.060991235 -0.06487848
000210 30 5b 26 3c 29 f0 9b ba 34 cd e5 3c f6 26 92 bd
       0.010153577 -0.0011897135 0.02805195 -0.071363375
000220 a7 64 22 3c 75 d9 15 bc b8 36 a5 bc b2 2d 46 3c
       0.009911693 -0.009146084 -0.020167693 0.012095856
000230 c8 39 ae 3c 7d 4c af 3c d4 f9 b3 3d 5b 43 3c bd
       0.021267787 0.021398777 0.08787885 -0.045962673
000240 9b 2e d4 bc 37 3f dc bc 1a 44 5b 39 f5 02 95 bc
       -0.02590113 -0.026885612 0.00020910837 -0.018189887
000250 4e 88 64 bb f5 da 4e bc fe f4 88 3c 66 0d de bb
       -0.0034871283 -0.012625446 0.016718384 -0.0067764996
000260 25 9e da ba 6f b8 79 bc 7e 36 a1 bc ff 42 ce bc
       -0.0016679211 -0.015241726 -0.019679304 -0.02517843
000270 a7 2c b1 39 94 13 aa 3c a7 91 73 bb 18 f2 c7 3a
       0.0003379334 0.020761289 -0.0037165673 0.0015254645
000280 b4 47 ca 3b b3 56 18 bb 76 49 76 bc de 4d 0e 3c
       0.0061730985 -0.0023245036 -0.015032163 0.008685557
000290 b3 a7 fc 3c bb 5d 8e bd 23 b7 88 bd 08 30 d2 3c
       0.030841684 -0.069514714 -0.066755556 0.025657669
0002a0 b1 30 1a 3b c6 12 2b 3d 28 5e f7 3c ba d7 d6 3c
       0.0023527557 0.04176595 0.030196264 0.026225913
0002b0 aa 61 b6 3b 26 65 28 3c fb 92 50 3c c4 df d1 3b
       0.0055658417 0.010278022 0.012730355 0.006404849
0002c0 b1 86 4a bd b4 95 01 bd 42 a7 c7 bc 5a 91 99 3c
       -0.049444858 -0.03163691 -0.024371747 0.018746067
0002d0 d0 59 6c 3b 65 90 bf 38 64 b1 88 3c 1a 4a 7d bc
       0.0036064275 9.134485e-05 0.016686149 -0.015459562
0002e0 f2 16 4b bc 04 2f 3c 3d 04 71 69 bd 7f 10 1a bc
       -0.012395607 0.045943275 -0.056992546 -0.009403347
0002f0 84 a6 8f bd 1c 03 0b bd 78 31 9a 3c 04 c5 bb 3b
       -0.07014182 -0.033938512 0.018822417 0.005730273
000300 ec 80 93 bc cc 34 ba bb d1 e3 99 3b f2 e5 9b bc
       -0.01800581 -0.0056825634 0.0046963473 -0.019030545
000310 54 22 56 bc 78 d1 2d 3c b1 47 31 3b d9 dc 55 3c
       -0.013069708 0.010609023 0.0027050788 0.013053142
000320 14 1e 0b bd c8 7a 8f bc 03 ca 6c 3c 3d 55 2e 3c
       -0.03396423 -0.017514601 0.01445246 0.01064044
000330 ae cd ad 3c b0 f7 96 3c 87 2c 7b bd 01 95 aa 3c
       0.02121624 0.018428653 -0.06132176 0.020823004
000340 83 15 7e 3c d1 15 3f bc ef 47 92 3c fd 55 8b bb
       0.0155080585 -0.011662916 0.017856566 -0.004252194
000350 9e cb b3 bd db a3 95 bc 22 4c 4c 3d 7f 91 6b bc
       -0.08779071 -0.018266609 0.049877293 -0.014377951
000360 6c af b6 bb 6c 8b b7 3b d2 3a 0d 3c 1e bc 87 3c
       -0.005575111 0.005601337 0.008619981 0.016569193
000370 ed 3b 8e 3c 86 4e 4e 3d bd 99 de bb d2 17 64 bd
       0.01736256 0.050367855 -0.0067932294 -0.05568678
000380 64 df 0e 3d a4 f1 06 3d a7 c0 c5 3c 0e 7f 84 bc
       0.03488101 0.03294529 0.024139715 -0.016173866
000390 47 04 87 bd ea 8f d0 3a 15 1c e0 3c c4 a6 4c 3c
       -0.06592613 0.001591203 0.02735714 0.012490932
0003a0 23 97 c1 3c 9d 8a 07 3d 53 09 1b bd 40 51 b1 3b
       0.023631638 0.033091176 -0.03785069 0.005411297
0003b0 8f ca 83 bc e8 29 b2 3b e9 8d 93 bc b8 79 7f 3c
       -0.016087798 0.0054371245 -0.018012004 0.015592985
0003c0 99 d4 9c 3d 78 17 3b 3c 9d cf 3b bb 95 68 20 bd
       0.07657737 0.01141917 -0.0028657683 -0.039162237
0003d0 ed 73 2e bd 23 db d6 bb 7b 2c a6 3c 1c de 4b bc
       -0.042591024 -0.006556885 0.020284882 -0.012443092
0003e0 b5 d5 8b bd d0 6f 8b 3c 8c e4 f2 bc 83 f1 09 3c
       -0.06827871 0.01702109 -0.029649995 0.008419397
0003f0 3d 42 46 3c eb 20 50 bd d3 94 31 bd f1 5b fc 3c
       0.012100753 -0.050812643 -0.04335482 0.03080556

action_model._discrete_distribution.branches.0.bias f4 [3]
000000 cb dc 02 bc 7f d9 85 3c 35 5c 3f bc
       -0.007987211 0.016339062 -0.011679699

action_model._discrete_distribution.branches.1.weight f4 [3, 128]
000000 fc 9e eb bc 5d 89 f1 3c 21 d1 e5 ba 79 eb 11 3d
       -0.028762333 0.029484445 -0.0017533639 0.035624955
000010 d9 f2 e0 3b e7 a9 0c bc 93 de 07 3d f6 84 ba 3c
       0.006864887 -0.00858543 0.033171248 0.022768479
000020 2e 65 b8 3c 46 88 8e bc 2b d2 00 bd 2c 4d 8c bc
       0.022509184 -0.017398965 -0.03145043 -0.017126642
000030 ec 76 10 3d 51 a0 c0 3c d4 01 1c bd 96 8f 13 3d
       0.035269663 0.023513945 -0.03808768 0.036025606
000040 50 e2 6b bc 5f c3 0a 3d 5d 96 e1 bc 9d b4 a0 bc
       -0.014397219 0.033877727 -0.02753752 -0.019617373
000050 28 99 62 3c 09 ff 18 bc 1b bf d9 3c f6 2a 14 bc
       0.013830461 -0.009338149 0.026580384 -0.009043446
000060 ff e1 38 bc 18 ff c7 bc 6d fb 95 bc 97 de 8b bc
       -0.01128435 -0.02441363 -0.018308366 -0.017073913
000070 67 73 7f bc 12 51 36 bd 20 9e 05 bd 7d bf 18 3d
       -0.015591479 -0.04451091 -0.032621503 0.037291992
000080 03 c9 18 3d a1 ae aa bc 43 d1 3b 3c 8c bd 0a 3d
       0.037301075 -0.020835223 0.011463466 0.033872172
000090 19 2c 96 3c 65 cc d7 3c a7 17 58 3c 02 bd 9e bc
       0.018331574 0.02634258 0.013189233 -0.019377235
0000a0 ba 45 bc 3c d1 9d 1d bd ea c4 26 3c 8f bc 8e 3c
       0.022982467 -0.038480584 0.010178784 0.017423896
0000b0 e7 8c cc 3c f6 41 18 3d 95 9e 05 3d bf 3c ca 3c
       0.024969531 0.03717228 0.03262194 0.02468717
0000c0 c2 db 10 3d 69 9d 0b bc 91 e1 07 3d 7a 01 22 3d
       0.035365827 -0.008521416 0.0331741 0.03955219
0000d0 d8 ea 4a bc ab 70 06 3d f0 c5 e7 bc 4f 2c 92 b8
       -0.012385093 0.032822292 -0.028292626 -6.9700756e-05
0000e0 00 b1 46 bd 7a 4c cc bc dc 5f 29 3d 65 08 fd bc
       -0.048508644 -0.02493881 0.041351184 -0.030887792
0000f0 77 ff aa 3c 03 41 e7 3c 61 66 a6 3c 25 4a 5e 3c
       0.020873768 0.028229242 0.02031249 0.013567482
000100 f1 bb e4 bc 1c 41 c2 bc 3b f8 95 bc bd 22 c8 bc
       -0.027921649 -0.023712687 -0.018306842 -0.024430627
000110 0c 79 08 bd 46 be f8 3c d3 ae 0d 3d b0 3c 93 bc
       -0.033318564 0.030364167 0.034590553 -0.017973274
000120 08 14 e4 3b 35 38 a0 bc 86 9f ea 3c 01 88 eb 3c
       0.0069603957 -0.019558052 0.02864052 0.028751375
000130 06 ec f2 3c 3c e8 9b 3c 8e 63 fd 3c 0a f1 0d 3d
       0.02965356 0.019031636 0.03093126 0.0346537
000140 72 1c 34 bc 6a 16 21 3d 2a 58 31 bb 6c ec f8 bc
       -0.01099311 0.039328016 -0.0027060607 -0.030386172
000150 aa 63 c6 3c 81 19 f0 bc c4 97 f8 3b 37 e2 b9 bb
       0.024217445 -0.029309036 0.0075864512 -0.005672719
000160 2a 3e d3 bc 37 1a b2 3c 7c d6 67 3c ee 7e 7e 3c
       -0.025786478 0.021741016 0.014150258 0.015533192
000170 09 05 0a 3d 50 70 93 3a a4 ef 29 bd 47 ed b4 3c
       0.03369621 0.0011248682 -0.041488305 0.022085799
000180 7f c6 8d 3b f7 95 c3 3c ce 44 3d bc 36 8e 1f bd
       0.004326641 0.02387522 -0.011552049 -0.038953982
000190 8c d7 f4 3c f2 b5 22 bb 73 eb 2c 3c 7b d3 e6 3b
       0.029887937 -0.0024827686 0.010554182 0.0070442534
0001a0 e1 67 f0 3c e5 e8 d6 3c a4 3a ac bc 34 37 a2 bc
       0.029346408 0.0262341 -0.021024056 -0.019801714
0001b0 aa 9f bc bc c9 a0 1e 3c d2 a6 7a 3b 62 8e 40 3c
       -0.023025353 0.009681889 0.0038246405 0.011752697
0001c0 93 cb 77 bc fc b5 ad 3c 5e 84 87 bc f5 09 b7 3c
       -0.0151242195 0.021204941 -0.01654261 0.022343615
0001d0 c1 de f1 bc 06 9b db bc d9 c6 b4 3c 70 9f 08 bd
       -0.029525163 -0.02680732 0.022067474 -0.033355176
0001e0 78 bf 1c 3c 30 21 4b 3c 70 35 0a bd af 9e bc 3c
       0.009567134 0.012398049 -0.03374237 0.023024885
0001f0 47 92 d1 ba c7 b4 45 3c 89 43 4d bc 4d 6b d7 3c
       -0.0015989029 0.012067026 -0.012528309 0.026296282
000200 ff 19 7a 3d 44 f4 d4 bc e5 4c 9d 3c a8 1d f3 bc
       0.061059948 -0.025995381 0.019201705 -0.029677227
000210 06 e3 51 3c 20 11 9b 3b 8c 05 5d bd c7 d6 e0 3b
       0.012810474 0.004732266 -0.053960368 0.006861541
000220 a9 b8 0d bc f6 2a 2a 3d 80 8d b5 3d 9d ea 70 3c
       -0.008649983 0.041544877 0.088648796 0.014704374
000230 d8 10 86 bd bb cf 67 bd 32 a0 eb bc 43 aa 02 bd
       -0.065461814 -0.05659459 -0.02876291 -0.031900655
000240 54 da 59 bc c4 13 90 bc 8b 3d 29 3c f4 1c 3f 3c
       -0.013296682 -0.01758755 0.010329614 0.011664618
000250 29 a7 47 ba ef ae 19 3c 8b 36 92 bb d1 96 f8 3b
       -0.00076161564 0.009380086 -0.0044620684 0.007586338
000260 cd 11 8c bc 49 f4 04 3b 7d 52 2a bc 7a 8c 65 3d
       -0.017098332 0.0020287207 -0.010395643 0.056042172
000270 91 90 a2 bc 45 ab 0f 3d be 94 0f 3c 5b 30 ba bc
       -0.019844325 0.035075445 0.00876349 -0.022728136
000280 6c 5d 58 bd b8 bc fd 3c c3 a4 ba bc 1d 2a db bb
       -0.05282347 0.030973777 -0.022783643 -0.00668837
000290 25 0d 02 bd 87 b7 da 3a 6b f0 6f bc 43 c5 2b 3a
       -0.031750817 0.0016686775 -0.014644722 0.00065525266
0002a0 be 76 06 bd 42 b5 69 3d 88 b3 88 bc cb f1 d1 bc
       -0.032828085 0.057057627 -0.01668717 -0.025627991
0002b0 b3 06 d7 bc 9b 24 1e bd 23 5a 34 bd 62 a1 9b bc
       -0.026248312 -0.03860913 -0.044031274 -0.018997852
0002c0 a0 c4 c9 bc 8f 82 81 bc ad 64 3c bc 1c f7 6b bc
       -0.02462989 -0.015809326 -0.011498612 -0.014402177
0002d0 fa 5f 9d 3c 69 7e 91 bc 6d fb 80 3d 83 6e 70 bb
       0.019210804 -0.017760472 0.06297956 -0.0036686964
0002e0 72 ad 36 3d f4 ab 0d 3c 84 8a 8d bb b0 1d 58 bc
       0.044599004 0.008646954 -0.004319491 -0.013190672
0002f0 5b 0e 6e bb ff 02 72 3c 38 e9 0e bd 5c de 2c bc
       -0.0036324474 0.014771222 -0.034890383 -0.0105510615
000300 6b 96 5c bc 4e fc 8c 3b c9 ad d3 3c df 32 cc 3c
       -0.013463597 0.004302538 0.025839703 0.024926601
000310 63 8e 0e 3d 6d e2 6e bc 7e 82 46 3c da dd dd bc
       0.03480376 -0.014580351 0.012116073 -0.027083326
000320 8a 8b 71 bc 49 a2 0b 3d e1 71 18 bd ba 70 8f bd
       -0.014742741 0.034090314 -0.03721798 -0.07003923
000330 f1 6b a9 bc 21 4c 58 3b 26 5d 47 bd 93 ea 18 bd
       -0.020681353 0.003300436 -0.048672818 -0.037333082
000340 49 1e 00 bd 44 9b 81 3b 4b f6 aa 3c b8 32 18 3d
       -0.031278882 0.0039552767 0.020869395 0.037157744
000350 6f a2 b1 bc 38 4f 0c 3d dd b2 1b bd 2e 83 4b bd
       -0.0216839 0.034255236 -0.038012374 -0.04968565
000360 79 4c 0d 3d 6e 35 96 3c e6 73 57 bb 07 ad 03 bb
       0.034496758 0.018336024 -0.0032875477 -0.0020092146
000370 c2 18 2c bd e8 18 e5 bc 87 93 32 3d 64 96 18 bd
       -0.0420158 -0.027965978 0.043597724 -0.0372528
000380 a4 5d de bc 44 78 2f bd c6 76 19 bd e1 e5 0c 3d
       -0.02714426 -0.042839304 -0.037466787 0.034398917
000390 45 b9 9f bc be 9c df 3c b2 09 19 3c 74 2c ae 3b
       -0.019497523 0.02729642 0.00934069 0.005315358
0003a0 7a 84 73 bb 9b 68 4f bd e4 a9 03 3d 2d f3 24 bd
       -0.003715782 -0.05063687 0.032144442 -0.040270973
0003b0 a6 ba 39 bc 9f 66 3f 3b 24 b6 59 bc c4 49 bd bc
       -0.011336004 0.0029205454 -0.013288055 -0.023106463
0003c0 76 5e c6 3c b0 8a cc bc 2e a0 57 ba a0 bd 2a 3c
       0.024214964 -0.024968475 -0.0008225468 0.010421187
0003d0 6a 31 86 3d 22 8d 83 3b ac db c3 3b eb f9 5e 3d
       0.06552394 0.004014627 0.0059771147 0.05443756
0003e0 ca bf 25 bd 28 01 c0 ba 16 0f b2 3d 28 de 57 bc
       -0.040466107 -0.0014648782 0.08694284 -0.013175525
0003f0 4b 81 b7 bc ab 7c 08 bc 04 26 0b 3d b3 5d 2b 3c
       -0.022400519 -0.008330504 0.0339718 0.010459351

action_model._discrete_distribution.branches.1.bias f4 [3]
000000 d1 08 9f 3c 77 46 49 bc 77 53 97 bc
       0.019413384 -0.0122848665 -0.018472416

action_model._discrete_distribution.branches.2.weight f4 [2, 128]
000000 44 36 8a bc 9f f1 17 3d 20 c8 cb bc 0e 85 9b 3d
       -0.016871579 0.037095662 -0.0248757 0.075937375
000010 f7 a4 9e 3c 0b 0e 81 bb 09 7c fd 3c 82 04 48 3d
       0.01936577 -0.0039384416 0.030942934 0.048832424
000020 54 25 b2 3c 91 87 0b bd 5d 9c c1 bc 41 fb db bc
       0.021746315 -0.034064833 -0.02363413 -0.026853206
000030 24 f5 ad 3c f8 c9 68 3c 0e b6 5e bc b8 5d 99 3d
       0.021235056 0.014208309 -0.01359321 0.074885786
000040 85 02 a9 bc 89 33 4d 3d 10 59 09 bd 3c 41 90 bc
       -0.020631084 0.050097976 -0.033532202 -0.017609231
000050 a2 ec 14 3b 71 71 01 bd d8 7b 94 3c 5e a3 a7 bc
       0.0022724052 -0.031602327 0.01812546 -0.020463642
000060 9e 8e d2 bc 18 f0 23 bc 7e da d6 bc 7e 09 bd bc
       -0.02570277 -0.010005973 -0.026227232 -0.023075815
000070 fa 95 d1 bc 81 d6 ab bc 85 8e e1 bc 71 17 a9 3c
       -0.02558421 -0.020976307 -0.027533779 0.02064106
000080 38 22 4c 3d 92 6e f6 bc 1a 21 f5 3c a3 26 a3 3c
       0.04983732 -0.03008202 0.02992301 0.019915884
000090 37 8b cf 3c ea 73 a9 3d 10 dd 63 3d 07 8c db bc
       0.025334937 0.08274062 0.055630744 -0.026800169
0000a0 9b 6d 3f 3d 37 84 21 bd 77 63 a1 3b e8 37 03 3c
       0.046735387 -0.03943273 0.004925187 0.008008935
0000b0 7b f9 00 3d 9b 8f ab 3a 64 30 9f 3c e4 a4 eb 3c
       0.031487923 0.0013089062 0.019432254 0.02876515
0000c0 0e ba 82 3d fd a0 37 3d f8 ca f9 3c f5 e5 20 3d
       0.06383143 0.044831265 0.03049229 0.039281804
0000d0 08 87 1d bd ee f1 d9 3c 02 a7 73 bd 08 d0 01 bd
       -0.038458854 0.026604619 -0.059485443 -0.031692535
0000e0 55 7d 1d bc 50 0c 31 bd 61 87 82 3d fc f7 c6 bc
       -0.009612401 -0.043224633 0.06373478 -0.02428817
0000f0 8b 8b 5a 3d e6 bf 56 3d cd 94 08 3d 7e 0c 73 3d
       0.053355735 0.052429102 0.033345032 0.059338085
000100 ec 4b 7f bc fe c6 c8 bc 07 a4 de bc 18 11 b5 bc
       -0.015582066 -0.02450895 -0.027177824 -0.022102877
000110 0c 36 aa bc f1 98 9b 3c 26 2e 1e 3d 44 e4 76 bc
       -0.020777725 0.018993827 0.03861823 -0.015069071
000120 52 b0 5a bc 2f 84 d6 bc 16 61 04 3b e9 a9 5e 3c
       -0.013347702 -0.026186077 0.002019947 0.013590314
000130 a1 e1 a9 3b 75 ca 17 3c 10 51 91 3d 47 3b a5 3c
       0.0051843678 0.009264578 0.070955396 0.020169867
000140 0e fc 4c bc 1c 21 e3 3c a9 3a 8f 3c a2 54 0b bc
       -0.012511266 0.027725749 0.017484026 -0.008504065
000150 83 83 40 3d df f2 e9 bc 34 db 10 3b 8a ce a2 3b
       0.04700042 -0.028558193 0.0022103311 0.004968469
000160 41 49 d6 bc 88 48 b6 3c 52 35 38 3c 92 d7 21 3d
       -0.026157977 0.022251382 0.011243181 0.039512224
000170 b8 b2 f2 3c a2 55 d8 3c f8 29 8b bc c0 91 5a 3d
       0.029626235 0.02640802 -0.016987786 0.053361654
000180 b6 0b 16 3c be 83 31 3d e6 31 07 bd 99 57 99 bc
       0.009158066 0.04333853 -0.03300657 -0.018718528
000190 6a 76 66 3d 67 d7 ba 3c 27 bb 6a 3c c6 ab 1c 3d
       0.056265272 0.02280779 0.014326847 0.038249753
0001a0 98 34 9a 3c e1 51 0f 3d 61 35 ab bb 3a ce e8 bc
       0.018823907 0.034990195 -0.005224869 -0.028418649
0001b0 3c 9d 02 3c da 7d 06 3d 61 bb cb bc b0 39 e0 3c
       0.007972058 0.032834865 -0.024869623 0.027371258
0001c0 b0 90 10 bd fd 53 0f 3d 18 ca 05 bd 27 7d 38 3d
       -0.035294235 0.034992207 -0.032663435 0.04504123
0001d0 15 ed b5 bc c9 a1 74 bc 2f 0e 2a 3c 1a 38 85 bc
       -0.022207776 -0.014931151 0.010379358 -0.016262103
0001e0 b6 e3 99 3d 8e 92 bb 3c 4c f2 71 bc 8b fb ce 3c
       0.075141355 0.022897031 -0.014767241 0.02526643
0001f0 46 07 01 bd f7 84 54 3d a8 d0 34 3d 9c 98 9c 3c
       -0.031501077 0.051884618 0.044144303 0.019115739
000200 98 0b ad 3c 97 cc 2e bd 42 2f dc 3c 79 d5 8f bd
       0.021123692 -0.04267558 0.026878003 -0.070231386
000210 e1 24 52 bc b8 0b a6 3c c5 f7 e2 bc 46 e7 7d bd
       -0.012826175 0.02026926 -0.027706036 -0.061988138
000220 f5 be 5d bc e1 fc b7 3c 76 f6 70 3c 20 e6 05 3d
       -0.013534297 0.02245945 0.014707198 0.032690167
000230 2d e7 f3 bc 34 d6 d5 bc aa b3 a3 3c 9e c2 84 bd
       -0.02977332 -0.026103117 0.019983131 -0.06482433
000240 cd e9 bc 3c 56 d3 70 bd 25 8e c5 3c 72 41 61 3c
       0.023060704 -0.058795296 0.024115631 0.013748514
000250 06 d9 b2 bc 2e 5f 09 3d ca 06 03 bc d5 a5 ee 3c
       -0.021832 0.033538036 -0.007997224 0.02913181
000260 da 39 92 3c d5 bc b7 3c 7b 31 00 3d 60 b3 0e 3d
       0.017849851 0.02242891 0.03129719 0.034839034
000270 a0 ee ff 3c d6 8f 30 3d 6d 8d a6 3c 87 9d 06 bc
       0.031241715 0.043105923 0.020331109 -0.008216268
000280 a9 e0 39 bd 86 10 f6 3b 97 ae 9c bc 5c 16 fd bc
       -0.04538027 0.007509294 -0.01912622 -0.03089445
000290 5f 23 fc bb 4f 9f 84 bd 25 16 57 bd 47 1e 51 3d
       -0.0076946463 -0.06475698 -0.052511353 0.051054265
0002a0 ee 1e 30 bd 5c 1d dd 3c 77 93 9b bc 27 59 96 bc
       -0.042998247 0.026991539 -0.018991215 -0.018353058
0002b0 d6 10 e2 bc 78 48 60 bc 13 aa c7 bc 81 5c 94 bc
       -0.027595919 -0.013689153 -0.02437309 -0.018110516
0002c0 53 c7 8a bd 88 36 23 bd 30 cf 04 bd ca a3 05 bd
       -0.06776299 -0.039846927 -0.032424152 -0.032626905
0002d0 72 de b0 3c bf b1 ea bc e2 0a 33 3d 56 56 28 3d
       0.021590445 -0.028649209 0.04371155 0.04109796
0002e0 ab d6 ee 3c bf cf 2b 3d 37 77 60 bd 27 16 1d 3c
       0.029155096 0.04194617 -0.054801192 0.009587801
0002f0 3d e3 75 bd d9 25 14 bd c0 3d c7 bc 9e 61 2b bd
       -0.060031164 -0.036168907 -0.024321437 -0.041841142
000300 27 34 fd 3c cf cb 2c 3d 01 e1 74 3c e3 4b dc 3c
       0.030908657 0.042186555 0.014946223 0.026891654
000310 c2 15 09 3d 1c d5 a3 bc 88 da bc bc 03 29 0e 3d
       0.033468015 -0.01999908 -0.023053423 0.03470708
000320 7d 8d fa 3a 9c 75 94 3c ca 23 05 bd a6 6e c5 bc
       0.0019115653 0.018122487 -0.032504834 -0.024100613
000330 7e b9 f6 bc db 56 a0 bc 74 9d 84 bd e9 b0 b2 bc
       -0.030117746 -0.019572666 -0.06475344 -0.021812873
000340 80 0c d1 3c 22 96 21 bd 66 ce 1a bd 2b 3d 0f 3d
       0.025518656 -0.03944982 -0.037794493 0.034970444
000350 05 42 7e bd 30 33 bd 3c 70 32 6a bb 1b 3b 85 bc
       -0.06207468 0.023095697 -0.003573563 -0.016263535
000360 51 22 05 3d 4a 89 c6 bc d1 3f a5 bc 1a ef b6 bc
       0.03250343 -0.024235386 -0.020172032 -0.02233081
000370 4a de 19 bd 2a 2f 8c bc 40 e2 35 3d bb 82 44 bd
       -0.037565507 -0.017112333 0.044405222 -0.047976237
000380 af 70 98 bc bf e3 06 bd ae d8 c3 3c 0e b6 e4 3c
       -0.01860842 -0.03293204 0.023907032 0.027918842
000390 b7 ee 8c bd 4d cb 06 bd 06 33 bb bc 8d 83 e1 bc
       -0.06881469 -0.032908726 -0.022851478 -0.027528549
0003a0 f4 e7 ce bc 65 d1 0d bd 89 99 ef ba 54 c7 22 3d
       -0.025257088 -0.034623522 -0.001828001 0.039740875
0003b0 b2 32 a2 bc 52 cf 37 bd fa 01 a4 3c c9 4f 89 bc
       -0.019799564 -0.04487545 0.020020474 -0.016761677
0003c0 d6 79 e6 3c 0a 54 b2 bc 0f a5 81 3c b3 ed 69 bd
       0.028134268 -0.021768589 0.015825776 -0.057111453
0003d0 1f ea 41 3c cb 96 98 3c 95 54 dc bc 7c 3a d9 3b
       0.011835604 0.018626591 -0.0268958 0.0066292863
0003e0 4b 0c a2 bd e9 47 9b bc 0a d9 10 3d 6b 60 3e bc
       -0.07912501 -0.018955188 0.035363235 -0.0116196675
0003f0 37 e3 c9 3c 9b 13 6b bd 5e 1e 56 bd 4f 0a 99 bb
       0.024644477 -0.057391744 -0.052275054 -0.0046704183

action_model._discrete_distribution.branches.2.bias f4 [2]
000000 a1 aa 7d 3c a2 aa 7d bc
       0.015482576 -0.015482577
