results/PressButton/IL-ex0.1-gail0.5-bc1.0/PressButtonAgent/PressButtonAgent-50036.pt (torch, 533134 bytes, 54 tensors)

discrete_act_size_vector f4 [1, 3]
00000000: 0000 4040 0000 4040 0000 0040
3.0 3.0 2.0

network_body._body_endoder.seq_layers.0.weight f4 [128, 6]
00000000: 38fc d53e ecb9 6f3c 818b 7cbd 02da fe3d
00000010: 92f8 83be c11f 1d3d ebf1 8fbd 8cee 2b3d
00000020: 4541 cbbd 2502 ba3e 143e 31be 6340 c83e
00000030: 9d7f e83d a50f 42bf 3f8c ef3d d109 10be
00000040: d7a8 4fbe af32 b03e 9c67 96be 6e0f 21bf
00000050: a803 f13e 8891 dfbe 2b1f c33e fa52 72be
00000060: 0c20 1ebf 7589 18bf 1813 5c3e 60ea cb3e
00000070: 6a31 b43e fdc0 99be e23c 45be 05d4 7cbf
00000080: 27b6 67bd bc77 68bf 5dc4 0c3d 2950 8b3e
00000090: 03cc bbbd b07b 113c 4b79 5a3e 5d32 0fbf
000000a0: 67f1 95bd c271 33bd 29d6 d23e 4964 f2be
000000b0: e404 a03d 05eb a4bd 7c97 1fbd 8d21 273e
000000c0: 07cb 33bf 0ffb b5be b88c 1e3e e83f 963e
000000d0: 09af c5be 81d8 cb3e 39cb 373f 1d20 563e
000000e0: 1db9 123e c926 843e 68ff 98be 193a af3e
000000f0: 3b9e 73be 8964 253f 9e97 50be 7493 8fbd
00000100: 6c55 083f 0f47 a1bc 6c7b 47be 1d98 b73c
00000110: aa03 ee3e 9c01 8f3d 28f6 6abf d362 9c3e
00000120: a7b1 8ebd a91a 483f d70b b43e 376d 1a3f
00000130: 13a9 c7bd 4a28 00bf 5b84 53bf 2eab 94be
00000140: 7b28 a93c 9130 12bf b112 233f 377d 1d3f
00000150: aa22 c63b 49a6 f7be 4db8 273f 2fec 273c
00000160: ec44 303e ed97 2b3e e211 003f 0aed 443f
00000170: 1bbb 6c3e 1897 613e 552c 183f d4fe e23e
00000180: d311 4abf 5ce9 86be a421 f7bd c2bd 273f
00000190: 5f14 823b 36c2 df3e 661f 353f 85fc 73be
000001a0: 2e29 94bc 6c99 a43e dc99 96bd 7e7f 65be
000001b0: 9260 da3e 9bad 8e3e b912 52bf c1ff babe
000001c0: f77a dd3d 1b7f ab3c 4cf0 d4be a52d 3e3f
000001d0: 1006 99be cc70 1dbd 388b 383f 04d2 98bf
000001e0: 0c8b 2cbf 594d 87be 23a9 82be d236 723e
000001f0: 8ac4 14bd 3840 143f a3c2 693e 736b 7dbe
00000200: dad9 9abc fcd2 c43a 53cf 823d deba 9f3e
00000210: 5452 8ebc 02af 453f 92e4 0d3f aa0c 16bf
00000220: c0ea 273e 81fb ff3d a50c c5be f71a 973d
00000230: 6525 043e 4137 f23d dad2 8c3d 87cd 613e
00000240: c70d d7bc 5a96 f0bd 10ec 8ebf f2f0 9a3e
00000250: 53de 8d3e dc6b 90bd 07d5 c33e a47c 2abf
00000260: a264 2e3f adda 6c3e edb9 9c3e 3c22 513f
00000270: fcea 48bf 224e 503e 1509 9a3e c9c5 e2be
00000280: 4a81 a6be e469 efbd f943 b2bd 91ea d7bd
00000290: 9547 debe c263 9ebe c92d 2f3e fc71 99bc
000002a0: 0274 5b3d c822 a2be 7f62 3dbf c186 f6be
000002b0: ec0c 3f3e 61d5 a43e f441 e9be d33c 643e
000002c0: 141c 4a3e 3b8b 2ebf ac02 523e d4d0 f13c
000002d0: 80ed d1bd 4261 15bc 044b 3c3e 2d86 5dbe
000002e0: 56ea 3d3f feac ea3d 33df b63d a22b 0e3e
000002f0: 0756 063f 74bb 40be dbb6 803f c559 aa3e
00000300: 1b07 e23d 90b6 5dbd abcd 45bf 23f4 1d3f
00000310: 9ed9 f5bc 8e43 68bd 3576 103f 2747 32bf
00000320: 71d5 ffbe 0db2 78bf 2db0 febd 1060 2bbe
00000330: d7dd 0abf 1b45 143f aa01 11bf da54 1cbf
00000340: f425 8dbe 7c1e 3a3f 998c 14be 4b04 3cbf
00000350: 1338 003e 79bd e43d 1a93 d6be 7fbc 5cbe
00000360: 8d27 dc3e b7b2 7d3d d9c2 edbe 3472 e8be
00000370: e26a fcbe c792 643c 548a 85bc b266 ecbd
00000380: c5a9 263f 34e4 4bbf d466 72be 744f 9fbe
00000390: 7927 413e e395 4f3f 4a6c 093f 56b2 4abe
000003a0: 4806 da3d 65fd 85be 688b 91be 7cdc d3be
000003b0: c9cb b2bd 18af 8c3c 67f9 9fbd d261 52be
000003c0: 68c7 d63e c8d1 50be 8228 6e3f 0155 af3c
000003d0: 08a7 173e c438 b0bd b380 6abd 4812 11be
000003e0: 7e5f 983e 6d7e 87bf fbad 833e bfde ed3e
000003f0: bb21 363b 2643 39bf f91f 86be c665 6d3e
0.4179399 0.01463173 -0.06165648 0.124439254 -0.25775582 0.03836036 -0.07028564 0.041975543
-0.099245586 0.3632976 -0.17308837 0.39111623 0.11352465 -0.7580512 0.11696672 -0.14066245
-0.20279251 0.3441367 -0.29375923 -0.6291417 0.47073102 -0.4366572 0.38109717 -0.23664466
-0.6176765 -0.5958474 0.21491659 0.3982725 0.3519395 -0.3003005 -0.19261506 -0.98761016
-0.0565702 -0.908077 0.034366954 0.27209595 -0.091697715 0.008879587 0.21335332 -0.55936223
-0.073214345 -0.04380966 0.41179016 -0.47342137 0.07813433 -0.08052639 -0.038962826 0.16321392
-0.7023167 -0.35543105 0.15483367 0.29345632 -0.38610104 0.39813617 0.7179447 0.20910688
0.14328428 0.2581084 -0.2988236 0.34224012 -0.23790829 0.6460653 -0.20370337 -0.07010546
0.53255343 -0.019687204 -0.19480675 0.0224114 0.4648717 0.06982729 -0.91781855 0.30544147
-0.06967478 0.7816568 0.35165283 0.603229 -0.09749045 -0.50061476 -0.82623833 -0.2903685
0.020649185 -0.57105356 0.63700396 0.6151919 0.0060466127 -0.48369053 0.65515596 0.010249182
0.17213792 0.16757174 0.50027287 0.7692419 0.2311825 0.22030294 0.59442645 0.44335043
-0.7893345 -0.26349914 -0.12066963 0.6552392 0.0039697136 0.4370286 0.70751035 -0.23826797
-0.018086042 0.32148302 -0.07353565 -0.22411916 0.42651802 0.27866825 -0.8205982 -0.3652325
0.10814469 0.020934632 -0.41589582 0.742884 -0.29887438 -0.03843765 0.7208743 -1.1939092
-0.6739967 -0.264262 -0.25519666 0.23653725 -0.036320247 0.5791049 0.22828154 -0.2474802
-0.018902708 0.0015016492 0.063872 0.31197256 -0.017373241 0.77220166 0.55426896 -0.58613074
0.16398144 0.124991424 -0.3848621 0.0737819 0.1290489 0.11826945 0.06876154 0.22051059
-0.026251687 -0.11747427 -1.116579 0.30261952 0.27708682 -0.070518225 0.38248464 -0.66596437
0.68122303 0.23130293 0.306106 0.8169286 -0.7848356 0.20342305 0.30085054 -0.44291523
-0.32520515 -0.11690119 -0.08704371 -0.10542787 -0.43413988 -0.30935484 0.1710731 -0.01873111
0.05357743 -0.3166716 -0.7397842 -0.48149684 0.18657273 0.32194045 -0.4555813 0.22288828
0.19737273 -0.681812 0.20508832 0.029518522 -0.10250378 -0.009117426 0.18387991 -0.21633215
0.74185693 0.11458777 0.089292906 0.13883832 0.5247502 -0.18821508 1.0055803 0.33271614
0.110365115 -0.054129183 -0.7726695 0.6170065 -0.030010995 -0.05670505 0.5643037 -0.6963982
-0.4996753 -0.97146684 -0.124359466 -0.16735864 -0.5424475 0.57917947 -0.56643164 -0.61066973
-0.27568018 0.72702765 -0.14506759 -0.7344405 0.1252139 0.111689515 -0.41909105 -0.2155628
0.42998925 0.061938014 -0.4643772 -0.4539963 -0.49300295 0.01395101 -0.016301312 -0.11543025
0.651028 -0.79645085 -0.23672038 -0.31115305 0.18862714 0.81088084 0.5368086 -0.19794592
0.10645729 -0.26169887 -0.2842667 -0.41379154 -0.08730275 0.017173335 -0.078112416 -0.20545128
0.4194901 -0.20392525 0.9303056 0.021402838 0.14809811 -0.08604577 -0.057251643 -0.1416713
0.29760355 -1.0585457 0.25718674 0.46459004 0.00277911 -0.72368085 -0.26196268 0.23183355

network_body._body_endoder.seq_layers.0.bias f4 [128]
00000000: 3826 093d f628 a63c a659 9dbc ea20 c63d
00000010: d824 32bc e30e 1e3d efe2 7fbc ebb5 ddbc
00000020: 1845 003d d53d fc3c 19d1 733c c8a0 6c3c
00000030: e64f a03c d1f1 a23d ce73 45bc 6dd7 363d
00000040: 330e cb3c 5f24 ea3c 2712 443c 7f61 083d
00000050: 779b 133d 3b8b 5ebc 8731 263d 5af5 0fbb
00000060: caef fbbb 9fcf a93d 5d03 67bc ac93 ec3c
00000070: b0fe 17bd 216b c1bc 2d37 5b3c 7a21 b33c
00000080: 4ecd b43c 6d97 4d3a 9c81 0c3d 1f42 71bc
00000090: 697b 483d b16e f2bc 3a91 143d 8f20 fabc
000000a0: a38a 64bc ab68 dfbc ef58 1ebd d3a2 a1bc
000000b0: f735 453d 0890 14bd 09ed 453d 09f4 143d
000000c0: e79e 063d 2fb8 0e3d fef3 6a3c 5450 923d
000000d0: 0b52 c4bc f2ee 1e3c 2771 3f3d 6193 1f3d
000000e0: 14de 023d cd2e 023c 8366 89bc a4e6 aa3c
000000f0: 74d9 943c db8d 493d 20ac dabc b8c3 553d
00000100: ad0b 203d 2738 513d 4c4c 003d ca66 153d
00000110: 62ee 093d 6044 033d 9e7f 36bd a1b6 b8bc
00000120: 5535 f73c 5656 0d3d e59a 273d cb8b b13c
00000130: 0150 c9bc a15c a1bc 8742 763c 13ee be3c
00000140: 8aed 8ebc bf66 0e3d b2e8 8438 cc88 363b
00000150: d6b5 f53b 1148 f2bc 0178 e83c 92b7 ff3c
00000160: fe10 d03c 2871 ac3c d342 51bd 25a2 433c
00000170: 171e 303d e726 9c3b cc8b f83c 5d51 9b3c
00000180: 01ce 4a3d 473a e73c 4e85 683d 1eee 9e3c
00000190: 3173 f2bc b6e5 043d 12cc 33bd 5ff4 6f3d
000001a0: 652b 813c 5ca5 cf3c 01e7 dd3c ce5c ccbc
000001b0: e7ab 2fbc 5fe4 7cbc 44e4 8b3c d9f3 00bd
000001c0: 18fd 463d be21 1abd 8fab e23c dbbd d5bc
000001d0: ecbf 283d b4a0 a93c 539b 2b3d 5400 a83b
000001e0: 6325 0a3d 9256 203d 95a2 4d3c 8062 033d
000001f0: 69c1 103c f024 093d e87d a03c cd3f 343c
0.033483714 0.020283204 -0.019207787 0.096742466 -0.010873042 0.038588416 -0.01561807 -0.027064284
0.031315893 0.030791203 0.014881396 0.01444263 0.019569349 0.07956279 -0.012051536 0.04463904
0.024787044 0.028581796 0.0119672185 0.033296105 0.036036935 -0.013583 0.040574577 -0.002196631
-0.007688497 0.08291554 -0.014099923 0.02887901 -0.037108123 -0.023610653 0.013379854 0.021866549
0.022070553 0.00078426936 0.034303293 -0.014725237 0.048945818 -0.029593797 0.03627131 -0.030533103
-0.013949069 -0.02727159 -0.038659032 -0.019730961 0.048147168 -0.03627017 0.048321757 0.036365543
0.032866385 0.03484362 0.014340399 0.071442276 -0.023964902 0.009700524 0.04673877 0.03895891
0.03195007 0.0079457285 -0.016772514 0.020861931 0.018170096 0.04920755 -0.026693404 0.052188605
0.039073635 0.05107894 0.031322762 0.03647498 0.033674605 0.03204763 -0.0445553 -0.022548022
0.030176798 0.034506164 0.040919203 0.021673104 -0.024574282 -0.01969749 0.01503051 0.023306882
-0.017447252 0.034765955 6.3375934e-05 0.0027852533 0.007498483 -0.02957538 0.028377535 0.031215463
0.025398728 0.02105005 -0.05108912 0.011940514 0.042997446 0.0047653797 0.030340098 0.018959695
0.049512867 0.028226031 0.056767754 0.019400652 -0.029595943 0.032445632 -0.04389579 0.05858266
0.015767762 0.025347404 0.02708769 -0.024946596 -0.010722137 -0.015435307 0.017076619 -0.03148255
0.048581213 -0.037629835 0.027669696 -0.026091507 0.041198656 0.020706512 0.041896176 0.0051269922
0.03372706 0.03914506 0.01255097 0.03207636 0.008835175 0.033482492 0.019591287 0.011001539

network_body._body_endoder.seq_layers.2.weight f4 [128, 128]
00000000: 8c4f 6dbd 8175 2fbd dc5b a83d e48b 543d
00000010: f0c5 2bbe 4816 22bd 6910 133c 21cb 21bc
00000020: c424 a93c 01c1 a1bd 06b9 81bd 8404 453e
00000030: 2efd 27bd 7f28 af3d e907 57bd d9a2 37bd
00000040: db3d 913d fd77 07bd c845 90bd 696c 28bd
00000050: e2dd c13d 9221 02be bc2d f9bd 1918 9d3c
00000060: 7a73 bdbd b8ec af3a 14c3 cabb 927a 14be
00000070: 778b d73b 19e9 8abc 9394 b23d 3171 0f3e
00000080: e68e 55bd 8d2f 80bb fc63 1b3e b8aa 01be
00000090: f273 66bd 8a8c 95bc 5e24 8ebd 4932 a5bd
000000a0: a5b5 16be 6560 063b 65ab 87bd 3571 ed3d
000000b0: e924 19bd b63a ba3d c13c 223d 2a6e 193d
000000c0: 7be4 9c3d 0815 5dbc 5681 10bd 25ff 78bc
000000d0: ac39 c3bd be24 a03d 0cd3 273d aadd f43d
000000e0: 376c e4bd f478 873d 562c 14be 26ae 0ebe
000000f0: bddf 25be c5f1 2d3d 3473 b5bd 62d1 95bc
00000100: 95c3 2cbe ca17 a9bd 48c3 1d3e edf8 d5bc
00000110: c7ae c73c e130 183e abf4 cfbc 8dda 14bd
00000120: 1b92 553c 644c 99bd 7619 783e 6d2c 1a3b
00000130: 23b1 423e d41a 91bd 83dc 333e d9ae 2dbd
00000140: 4ba8 d1bc b24a de3d 1617 b13d 8386 a5bb
00000150: feb6 f93d 9fdc c2bc fb0a 853c 622c fe3c
00000160: fe22 0ebd dc79 0dbd 3029 253e 78fb 313d
00000170: 0ea4 91bd 1f34 a93c e388 54be 824c 383d
00000180: 0ea7 dcbd 11ad 023d b7fb f2bd 5181 633d
00000190: 7418 f1bc 595e 053e b26b 2dbd c613 6cbd
000001a0: f9d0 55bd 1ff5 ce3d 01b3 853d d12a ffbc
000001b0: f499 833e 0359 33be f9dc 233e 27b3 c33a
000001c0: 210f a0bc 895b c03c 793f aa3c 8c74 8239
000001d0: 6553 563c f59e 6abd d2e1 0bbd 8987 b3bb
000001e0: c36b 1d3d 8f7b 79bd 7014 9c3d c5c7 6a3d
000001f0: b2bb 31bc 91a6 e93d 08c7 12bc 2c50 393c
00000200: 4343 17be 31a2 87bc fa8a 773c 5b1c 363c
00000210: f243 26be 6c0e 03bd 9074 89bc 0f7c 2a3d
00000220: 407c 1fbd 3229 b43d dc6f f4bb e4df 68bd
00000230: 1197 1ebc 7b8b 413d 5ceb 20bc ff6c 11be
00000240: 3bec 73be c391 07be 41bb 1cbd 1faa a2be
00000250: eca3 7b3e 56a8 f43b 27d8 933b f76f 35bd
00000260: b3db 7a3d 85ae 903d 1b8f 353e 3391 b2bd
00000270: e11b a33c 0aea 913d 90d5 cb3d bba0 b33c
00000280: f427 8f3c 6312 be3c 01b0 443e b1a8 1b3d
00000290: f14c f33c 13df 673c 1c41 9cbd bed9 363d
000002a0: ba31 bc3d 214f 5ebd f808 b0bd c53a 843d
000002b0: e1f7 a4bd b2d7 8abb c3d1 143d 884d 1ebe
000002c0: 44a5 463d c8ba 1f3e c538 a93d 5084 06be
000002d0: 1bf5 173d a7b8 703c de4a 46bc e4b5 7cbd
000002e0: 2e82 33be 0d7e b3bc 4a5e e33d 0a4a b13d
000002f0: 795c a4bc 78c1 5fbe 5e69 a63d 957d 923d
00000300: bdbb 3cbd 7738 dfbd 3860 02be 697c b0bd
00000310: a224 07bd f622 b83c 6975 7a3d 0fcf 9b3b
00000320: 0e13 da3c 32f1 68bd 1179 14bd 3d9d 1fbc
00000330: 9875 843d f4f9 b9be d9d4 3bbc 22d3 1b3d
00000340: 0d62 6c3e ede8 c5bc ef35 07bd dbfb 57bd
00000350: 07e3 7dbc 2e2d 043e f1e0 dd3d fda0 91bd
00000360: 1fae e1bc 547f 23bd faa7 403d d386 d1bd
00000370: 6d9a d53b ac0c 84be b7a2 483e ebef ba3d
00000380: e55f 0bbe 834f e43b 21f5 f7bd 1458 a53d
00000390: 3b26 62bc 8b62 d5bc b93f 64be 60fe 153d
000003a0: 1869 e4bd 94b6 84bc b852 bd3c 323c ba3d
000003b0: bba0 0b3d 5a24 ca3d 0767 77be c8ea e43d
000003c0: be47 a4bc a508 e5bd 394a 45bd d82e 39be
000003d0: f9dc a2bd a30a a8bd 0a6b 8cbd 8953 263c
000003e0: 210f 00be dfec 843d cd4d 053d a4d8 493e
000003f0: 449d 41bd fcc2 c1bc 6358 e7bd ca79 5c3d
-0.05793719 -0.04283667 0.08220646 0.051891223 -0.16774726 -0.03957203 0.00897608 -0.00987509
0.020647414 -0.07898141 -0.063341185 0.19240004 -0.041012935 0.08552646 -0.052497778 -0.044833038
0.07091876 -0.033073414 -0.0704456 -0.041119013 0.09466149 -0.12708119 -0.12166926 0.01917653
-0.09250541 0.0013421988 -0.006187806 -0.14499882 0.006577905 -0.016956853 0.087197445 0.14008023
-0.05213823 -0.0039119185 0.1517486 -0.1266278 -0.056262918 -0.01825549 -0.0694053 -0.08066232
-0.1471773 0.0020504233 -0.06624488 0.11593858 -0.037388716 0.090932295 0.03960872 0.037458576
0.07660767 -0.013493784 -0.035279594 -0.01519755 -0.095324844 0.07819508 0.040972754 0.119563416
-0.11153453 0.06614867 -0.14470038 -0.1393362 -0.1619863 0.042466898 -0.08859864 -0.018288318
-0.16871484 -0.082564905 0.15406525 -0.026119674 0.024375333 0.14862396 -0.025385221 -0.03634124
0.013035323 -0.074852735 0.24228463 0.0023525015 0.19012885 -0.07085195 0.17564587 -0.042403076
-0.025592944 0.10854091 0.086469814 -0.0050514354 0.12193106 -0.023786841 0.016240587 0.031027023
-0.03470134 -0.034540042 0.16128993 0.04345271 -0.07111369 0.020654736 -0.20755343 0.04499484
-0.10774051 0.03190333 -0.11864417 0.055543248 -0.029430605 0.13024272 -0.042339034 -0.057636045
-0.052201245 0.10105347 0.06528283 -0.031148346 0.25703394 -0.17514424 0.16002263 0.0014930711
-0.019538464 0.023481147 0.02078222 0.00024882366 0.013081406 -0.0572805 -0.034150906 -0.0054788035
0.038432848 -0.06090885 0.07621086 0.05731942 -0.010847973 0.11408723 -0.008958586 0.011310618
-0.14771752 -0.016556831 0.015108818 0.011115159 -0.16236857 -0.031996176 -0.016779214 0.041622218
-0.038936853 0.0879692 -0.0074596237 -0.056854144 -0.009679572 0.04725216 -0.009821739 -0.14201735
-0.23820584 -0.13239197 -0.038264517 -0.31770417 0.2457425 0.0074663563 0.0045118514 -0.04429623
0.061244678 0.07064537 0.17730372 -0.08719101 0.019910755 0.071247175 0.09952843 0.021927228
0.017475106 0.023202127 0.19207765 0.038002674 0.029699774 0.014152306 -0.07629606 0.04464125
0.09189172 -0.054274682 -0.08595461 0.06456522 -0.08055092 -0.0042371387 0.036332857 -0.15459263
0.048497453 0.15598595 0.08262781 -0.1313641 0.037098985 0.014692462 -0.012102811 -0.061696902
-0.17530128 -0.021910692 0.111019686 0.086567 -0.020063626 -0.21851146 0.08125566 0.07152859
-0.04607748 -0.10899442 -0.12732017 -0.08617479 -0.03299392 0.022477608 0.061147127 0.004754908
0.026620414 -0.056870647 -0.03624827 -0.009742078 0.06467742 -0.36323512 -0.011464321 0.03804315
0.23084278 -0.02415892 -0.03301042 -0.052730422 -0.015496022 0.1290786 0.1083392 -0.07110784
-0.027548848 -0.03991635 0.047035195 -0.10230794 0.006518653 -0.25790918 0.19593321 0.09127792
-0.136108 0.0069674863 -0.121073015 0.0807344 -0.01380306 -0.026047966 -0.22289933 0.036619544
-0.111528575 -0.016200341 0.023110732 0.090935126 0.03408883 0.09870215 -0.24160396 0.111775935
-0.02005374 -0.111832894 -0.048166487 -0.18084276 -0.079523034 -0.08205154 -0.068563536 0.010151752
-0.12505771 0.06490492 0.0325449 0.19711548 -0.04726912 -0.023652546 -0.11296155 0.053827085

network_body._body_endoder.seq_layers.2.bias f4 [128]
00000000: 7df8 d23b 7bc2 2abc f560 5e3c 89b9 263d
00000010: 2f95 0ebc ffdc e63c 3ab5 293d aa93 cd3c
00000020: 75eb 773c 75e7 d53c 7ddb 6bbc 7887 8fbc
00000030: 5fb8 a83c a81c 673c 62f4 3bbc e344 bf3c
00000040: 8a14 463c 4512 77bc 672d 0abc bc57 423c
00000050: 7f68 adbb e0c3 bcbc 835d 033d 7361 4b3c
00000060: 39e8 56bc 3a44 c63c a503 083d 6bbd 9b3c
00000070: b064 b43c 1237 1f3d 3949 353d 65aa 80bc
00000080: 508a c53c cc5e e53c 1e14 293d 721b b23c
00000090: f3b0 e33c 3cd6 c13c a1db 1abc 08f8 afbc
000000a0: 445f 6d3c eacd b3bc 6b6b f7bb b430 a0bc
000000b0: 7ba7 e23c fb8f ac3c fe50 ce3c 905c 4fbb
000000c0: 27e2 dabc 167a fa3b 2d02 10bc 2aef 2f3d
000000d0: c897 7a3c 20d3 453d d3d8 04bc 6305 9dbc
000000e0: a0e4 cdbb 9c5e 21bc 6065 0ebb dedc 3d3d
000000f0: d7bc c63c 3256 1b3d e159 38bc 9ca1 e63c
00000100: 48b4 60bc e310 743c 1b70 003b 167b 54bc
00000110: 0cdb 53bc 6ec9 bfbc 519a ec3c 95eb 2e3c
00000120: cee4 34bc 3f62 403d e774 9dbc 2f37 f83c
00000130: 2222 89bc a46c 41bc 9e78 ac3c ea19 b23c
00000140: bb4e 273d dec6 8bbc d9cd 4b3d d703 28bc
00000150: 8648 e63c 3080 273c f4cd a43c 0c39 2cbb
00000160: c7fc 0a3d f33c 283d 22b1 9e3c ff94 0c3d
00000170: 9373 b03b 2b4a 953c 4617 163d 7615 51bc
00000180: f35d 1b3d 5490 a53c beac 17bc 0c79 e33c
00000190: 1f3f d63c 613f f03c d65a 8cbc cc3e 61bc
000001a0: 66ff 203c f404 ba3b 043d 76bc 4063 f43c
000001b0: 47fd b53c 6a0b b13c 851d c6bc 48b8 d03c
000001c0: d740 423d 0914 633d ce56 1d3c 3e02 74bc
000001d0: 1807 4a3c d383 9fbc e9d9 b03c e9a2 f73b
000001e0: a8a4 233c 9bbd 073d c4c4 ff3c abe0 76bc
000001f0: a042 be3c 0c5b 18bc a032 abbc 346e 8a3c
0.0064383135 -0.010422344 0.013572921 0.040704284 -0.00870256 0.028181551 0.041432597 0.025094826
0.015131821 0.026111344 -0.014395592 -0.017520651 0.020595727 0.014105953 -0.01147184 0.023348277
0.012089858 -0.015080039 -0.008433676 0.011861738 -0.005291998 -0.02304262 0.0320716 0.01241337
-0.01311689 0.024202455 0.0332066 0.01901122 0.022020668 0.03887088 0.044259284 -0.01570625
0.024113804 0.027999304 0.04127895 0.021741603 0.027794337 0.023661725 -0.009451778 -0.021480575
0.014488045 -0.021948773 -0.007550647 -0.019554473 0.027667752 0.021064749 0.025185104 -0.0031640865
-0.026719166 0.0076439483 -0.008789581 0.042952694 0.0152949765 0.048297048 -0.008108336 -0.019167608
-0.0062833577 -0.009849217 -0.0021727905 0.046353213 0.024259968 0.037924 -0.011251898 0.028153233
-0.013714857 0.014896604 0.001959807 -0.012968799 -0.012930643 -0.023411479 0.028882178 0.010676284
-0.011040879 0.046968695 -0.019220782 0.030299751 -0.016739909 -0.011805687 0.021053609 0.021740872
0.040846568 -0.0170626 0.04975686 -0.010254822 0.028110754 0.010223433 0.020117737 -0.002627912
0.033932474 0.04107375 0.019371573 0.03432178 0.0053848713 0.018223843 0.03664329 -0.012761464
0.037931394 0.020210423 -0.009257494 0.02776768 0.026153145 0.029327096 -0.017133158 -0.013747882
0.009826517 0.00567686 -0.015029196 0.029832482 0.022215499 0.021611888 -0.024183998 0.025478497
0.047425117 0.05543903 0.009603215 -0.014893113 0.012330793 -0.019472038 0.021588283 0.007557262
0.009987988 0.033139806 0.031221755 -0.015068213 0.023225129 -0.009299051 -0.020898163 0.016898252

action_model._discrete_distribution.branches.0.weight f4 [3, 128]
00000000: 4356 86bc d22b 6f3c 9d10 343d 3aba 843d
00000010: 5fa2 ff3b f8e4 bfbc e565 813b 0ab4 adbc
00000020: fdb6 04bd 7844 4cbc bc62 de3c fa7f b93c
00000030: 733b 433b efca fabc 5303 df3c 3085 bd3c
00000040: 01bb a2bc 1543 ec3c 6ef3 753c 98e5 7bbc
00000050: 29c1 35bc 0bcc d73c b0e9 55bd fbc8 1b3d
00000060: 9228 953c dcb7 7cbc 895c 1dbd cda3 11bd
00000070: b1fe 98bc 6a2e 6b3c 61a1 37bc 39fb 7b3c
00000080: d16b b9bb 2917 eebc 9fb0 923b 9f2d efbb
00000090: 804b 19bd d88a 143b 57d0 213c 3d1a 8c3c
000000a0: 2731 53bd fcca fc3c f939 0c3d dd11 d73c
000000b0: 31df 16bc 8b0b 91bc ea22 05bd 176a 8e3c
000000c0: 5809 8b3c 94be 10bd 8126 583b 5166 583d
000000d0: 95f0 c4bc 4146 3abd ff8a 10bb 58e2 9b3c
000000e0: 881c 2c3c 35b9 df3c fb33 a23c d4ef 123c
000000f0: 702f 35bc 6302 a9bc 43cd c73b cf38 e7bc
00000100: fd1e fe3c 7818 0fbd 3785 993c 9617 df3c
00000110: 9444 163d a993 e63c 9c55 60bb b113 02bd
00000120: f2c1 8c3c 1808 3c3d 8c09 fb3c 18af 04bd
00000130: baa6 ed3c 6d9b e63c 9f4c c6bc ff24 abbc
00000140: 6e1d 7f3d 6aff f43b c656 5c3d 82c1 88bc
00000150: c9c3 323d 56ba b7bb 66d6 15bd 6b1f 2e3d
00000160: 41e4 60bc afcf f93c dad5 6cbc 4d60 5dbd
00000170: a8c5 d03b 7f66 16bc 0cf7 39bd 8322 6d3c
00000180: 9c16 e53c d59b 08bd e8ab 3f3b 2e93 77bc
00000190: 8265 e0bc abf6 ddbc 2bda 1b3c 56e7 943c
000001a0: 3d8d adbc e2b3 a13b 3f9b 463c 0e83 02bd
000001b0: b29c 87bc df51 1d3d 4cd7 573c 375e 2cbd
000001c0: 33ef 633b 9d2e cc3c b000 d7bc a66c 1f3b
000001d0: 18e7 69bb aa20 6d3c fd7a ddbc fdb0 75bc
000001e0: 1d55 b53c 3cb0 a9bc 1fb0 07bd 0957 b03c
000001f0: 3805 92bb 3776 4b3c fb94 af3c ec16 94bc
00000200: b293 a13c daf9 a9bb a860 6abc debf 94bd
00000210: 4c40 f63c 5c1a 3e3c 1357 8abd 00d1 8d3c
00000220: 2031 c23b 64ab ba3c 9ee5 aabb b8a9 06bc
00000230: 0092 6bbb 1a5e 333c 60cf 00bd c1c3 f1bc
00000240: d9f9 633d 56b8 743c b215 13bd 090e d83c
00000250: d8da e1bb 6527 8abb ba2b 8f3d f3df bbbc
00000260: c47d 12bc 242f 193c 794b 0d3d 103d 073d
00000270: 03c3 da3c 0fb5 4fbd 90bd a0bd 96f2 a43a
00000280: eb91 293c 3dae c73c 9e22 82bd 0010 cb3c
00000290: 0c8c 6d3b 4308 2f3b 364e 583c 883d adbc
000002a0: a8c9 3a3d 4362 adbc 1499 bb3c 1772 bbbb
000002b0: 74f8 7abc 40d6 023b afe4 493d d7cd cdbc
000002c0: a2bb 83bc cc1e 5a3d 7669 643a a013 9dbd
000002d0: de7f e73c 2adc 4e3d 9519 9fba bb67 e3bc
000002e0: 6591 c93c 4d5a 7cbc 5810 633c 2e1c 9fbd
000002f0: 514e 2d3c 5d44 cc3b d7da 25bc 935f 0e3d
00000300: 7f6b d2bc c863 a53c 7237 aebc 5e28 debb
00000310: af54 1b3a 3c6c 0c3b ee9e 143c cdd2 d63c
00000320: 6688 4cbc 6e9e a0bd beea c63c 4f05 573c
00000330: a014 f4ba eb8f 92bc 4056 c43c e22f 9d3c
00000340: d67d 7fbd 0145 3bbc d6b2 64bd 6e1e 933c
00000350: 0251 5b3d 54fb c13c 6325 ab3c 950b 23bc
00000360: 8476 9abd 7577 afbd 4d04 383c b6bd 8b3d
00000370: 4312 eb3b 8d02 aa3c cc7b 4d3d cdd7 c23c
00000380: 8ce4 c33c 1f18 a33c 45dd 96bc fadf 593c
00000390: abc9 923c 918a 1d3d 8869 abbc 0af2 083b
000003a0: fa4a 0a3d 33f3 8e3a 13db 923b 54d3 743b
000003b0: f656 f03c 7316 2cbd 14e5 8ebb baf4 413d
000003c0: 434b b7bd 5cf5 a6bd f6b7 c83c 5043 9f3b
000003d0: 5a96 9b3d 3aaa 0fbc 9152 843c b776 ef3c
000003e0: 2b1a 33bd 8a56 863c 0bd2 373d 5256 2c3c
000003f0: 6113 993d 6557 663b e70e febb 3b5a 223d
-0.016398555 0.01459785 0.043961156 0.064808324 0.0078013386 -0.02342461 0.0039489144 -0.021204013
-0.032401074 -0.012467496 0.02714669 0.022644032 0.0029790073 -0.030614344 0.027223265 0.023134798
-0.019864561 0.028840581 0.015011651 -0.015374564 -0.011093416 0.026342412 -0.052224815 0.038033467
0.018207822 -0.015424695 -0.038418327 -0.035556603 -0.018676134 0.014354328 -0.011207909 0.01537972
-0.0056586047 -0.029063778 0.0044766213 -0.0072991396 -0.037425518 0.0022665765 0.009876332 0.017102355
-0.051560547 0.03085851 0.034234975 0.026253635 -0.009208486 -0.0177057 -0.032504 0.017384572
0.016972229 -0.035338 0.0032981934 0.05283195 -0.0240405 -0.045477156 -0.0022055504 0.019028828
0.010504849 0.027309993 0.019800177 0.008968312 -0.011058673 -0.02063102 0.006097467 -0.02822533
0.031020636 -0.034935445 0.01874028 0.027232926 0.036686495 0.028146582 -0.0034230715 -0.03175706
0.017182324 0.045906156 0.0306442 -0.032393545 0.029010165 0.028150285 -0.024206458 -0.020891665
0.062283926 0.007476737 0.05379369 -0.016693834 0.043643747 -0.00560693 -0.03658142 0.04251043
-0.013726295 0.030494539 -0.014455283 -0.054046918 0.0063712187 -0.00917971 -0.045401618 0.01447356
0.027964883 -0.033351738 0.0029246751 -0.015110774 -0.027392153 -0.02709516 0.0095124645 0.018176716
-0.021185512 0.004934774 0.0121219745 -0.031863265 -0.01655421 0.038408156 0.013173889 -0.042082038
0.0034780025 0.02492457 -0.026245445 0.0024326234 -0.003569072 0.01447312 -0.027036184 -0.014995811
0.022135312 -0.020713918 -0.033126947 0.021525877 -0.0044561885 0.012418321 0.021433344 -0.018077336
0.019723747 -0.0051872553 -0.014305271 -0.07263158 0.030059956 0.011602964 -0.06754889 0.017311573
0.0059262663 0.022786804 -0.005215361 -0.008219175 -0.0035945177 0.0109477285 -0.03144777 -0.029512288
0.055658195 0.014936527 -0.035909362 0.02637388 -0.0068925433 -0.004216122 0.06990762 -0.022933936
-0.008941118 0.009349618 0.034495804 0.033017218 0.026704317 -0.05070978 -0.07848656 0.0012584503
0.010349731 0.024375075 -0.06354259 0.024787903 0.0036246805 0.0026707805 0.013202241 -0.021147504
0.04560247 -0.021165019 0.022900142 -0.0057203877 -0.015318025 0.0019964129 0.049290355 -0.025122566
-0.016080681 0.053252026 0.00087132247 -0.07669759 0.028259214 0.050502934 -0.0012138361 -0.027759423
0.024605462 -0.015402389 0.013858877 -0.07769047 0.010577754 0.0062337355 -0.010122976 0.034759115
-0.025686024 0.020189181 -0.021266673 -0.0067797145 0.00059253996 0.0021426817 0.009071095 0.026223565
-0.012483692 -0.07842718 0.024281856 0.013123824 -0.0018621869 -0.017890891 0.023966908 0.019187871
-0.062375866 -0.011430026 -0.055834614 0.017958846 0.053544052 0.023679413 0.02089185 -0.009951492
-0.07542136 -0.085677065 0.011231494 0.06823294 0.007173808 0.02075317 0.05016689 0.023784542
0.02391269 0.019908963 -0.018416056 0.013298029 0.017918428 0.038462225 -0.020924345 0.002089622
0.03376291 0.0010906219 0.004481682 0.0037357407 0.029338341 -0.042013597 -0.0043608043 0.04735253
-0.08949902 -0.08152267 0.024501782 0.004860319 0.07597037 -0.0087686125 0.016152652 0.029231412
-0.043726128 0.016398687 0.044878047 0.010518627 0.07474399 0.0035147306 -0.0077532413 0.03963683

action_model._discrete_distribution.branches.0.bias f4 [3]
00000000: b153 73bc 8a27 a63b 6f5a 773c
-0.014851497 0.0050706314 0.015097245

action_model._discrete_distribution.branches.1.weight f4 [3, 128]
00000000: 86da 4d3b abcb dbbc 8c38 3dbc 1526 3abc
00000010: 7af0 b6bc dd58 883c a3f1 d53c fe8d ea3c
00000020: 3e59 a23c f715 c63c bb8d 94bc 6b83 edbb
00000030: 1b2a e33c d691 0e3d 1ce7 f5bc 4678 ddbc
00000040: d8a1 cb3c 438e d23b 00d6 fabc 5adc c33c
00000050: c8ad 45bc c6f4 aabc c04b df3c 1095 15bd
00000060: 3913 69bc 516d bd3c df65 493c 89b9 253d
00000070: 5833 f33c 82f5 8e3c ff0e 913c d623 67bc
00000080: 2981 083d 8b44 873c 46eb 7a3c db53 c23c
00000090: 60c2 9a3c a835 1f3d 3e6c c93b 5f52 e7bc
000000a0: b157 da3c bb28 0fbd 18c1 09bd 74ce c9bc
000000b0: c434 f83c b702 253c 78f0 b0bc 8c8f 26bd
000000c0: f48e 12bd fd2b e03b 5cc1 8abc 202a 1a3d
000000d0: 7d54 523d 57b5 ba3c 9d9d 92bc 26bb 1ebd
000000e0: 8a73 92bc 7007 19bc ae5d 9fbc 42a4 a43b
000000f0: 2431 113d 50e7 9e3c c19f 21bd d713 1a3c
00000100: 3ce7 cbbc f207 103d 36f3 90bc e213 0dbd
00000110: 7108 0cbc adcf 2bbd 1511 c53c 1956 fd3c
00000120: 9425 dfbc 9f43 a13c 8ed4 e9bc f814 a13c
00000130: faac cfbc 10d1 8fbc b8ce cc3c f5cd 363d
00000140: 3ac1 183c 54d1 f0bc 6dd1 a63c 2b37 ebb8
00000150: 3bc0 f7bc a9ae c6ba 855f f63c e7a2 46bb
00000160: 781a 1c3d 464b 7b3c 011d 1b3d 879e 5fbb
00000170: 1c9d 4bbc b8d9 a23c 89ae 0bbd 78c0 06bc
00000180: 3ff4 1abd ff3e 233d 0021 06bd 5049 1b3d
00000190: 0359 c03c be5d 043d f3d3 a8bc 2583 dabc
000001a0: 984f ae3c 4f05 53bc e426 ebbc 0931 653d
000001b0: 3bbc d93c 7040 11bd 6c42 f5bc ef57 dbba
000001c0: e1ae 4b3c e12b b13c 8f7a 6d3c c185 8cbc
000001d0: c0e1 3ebc cdfd e3bc a95c 263d 5ac1 e23c
000001e0: 1c66 d2bc f513 d63c 3bc5 8cba d66e 1fbd
000001f0: 07f6 6fbc e1e5 dbbc 3525 90bc a8f4 b33c
00000200: 5051 12bd d40e e138 e570 a43d 5783 1fbd
00000210: 2bcd da3c 8e07 6abc c2e4 1bbd c464 17bc
00000220: e146 90bc ecc7 3bbc 8345 153c 4e1d 5e3c
00000230: 610f 06bd 5a3e 10bc 7875 c8bb 7985 823d
00000240: d4bd 12bd 1932 123c 9908 dc3c 0a9b 12bd
00000250: c74f 0f3d c907 2c3c 5a5d 573d d748 4ebd
00000260: f6d6 9cb9 236a 8bbd b7c0 92bc 87e8 6dbd
00000270: 5345 8dbc 1010 32bd 879a acbc 3a77 a7bb
00000280: c3ec a2bc 930e 5f3c ca89 53bc fda9 86bd
00000290: f85a 72bc 308a c2bc 8df5 3b3b bf1a bc3c
000002a0: 7adf a13b 15b4 ce3c 7c4b 2d3c 09fb fa3b
000002b0: 88ff 0ebd d756 27bc e7d4 3bbc 894e 643d
000002c0: 8650 953b 6587 3cbd 79a5 2dbb d5b8 b3bc
000002d0: 8552 c5bc 8981 4b3d a54a 083d 80f2 713c
000002e0: 6d0f b43c 618b 273c ef65 003d 37f9 3abd
000002f0: 1c8d 2abd d5c1 8bbb 04ac f1bc 8b2b 843d
00000300: b9e1 c03b 314c 2b3b f17c 403d 8a3e d73b
00000310: 66d3 323c 6f6a 0539 4ce1 3bbc 96dd f2bc
00000320: e076 dd39 7845 01bd ce0f 2d3d 2d66 1abc
00000330: 398c 8b3b 2b6e de3b 2df5 61bd 18ba 8bbc
00000340: a3c8 bbbd 29b5 3a3b c2cf abbc e39f 91bc
00000350: a4a2 07bd 213a d6bc 4c04 84bc b44f 2c3c
00000360: 20d7 01bd d2f0 94bc 6b98 13bd 2486 1b3b
00000370: e499 6c3c afe8 74bc 89e8 e2bc b6df b83b
00000380: d225 93bd 152d 0bbd 0195 dbbc 8e83 b9bc
00000390: eaa2 9238 09f2 89ba 846e a63c 3b69 873c
000003a0: 6f3c 32bd a9a8 133d 32f2 473c a569 d3bc
000003b0: ac40 a1bc ed64 b5bd 5e84 5f3b 0d10 b5bd
000003c0: b383 bfbc 37dd 83bc 7387 0bbd 8a2d 283c
000003d0: 75e5 0f3d ea9e 3b3c bd9e 75ba 6778 f3bc
000003e0: 5801 a63d f830 adbb b4e6 87bb e930 53bc
000003f0: c7d9 083d 3e1f 933b 72a5 b03c 8fa4 57bc
0.0031410768 -0.026830515 -0.011549126 -0.0113616185 -0.022331465 0.016643936 0.026116198 0.02863216
0.019817945 0.024180396 -0.018133989 -0.0072483323 0.027730038 0.03480705 -0.030017428 -0.02703489
0.024857447 0.0064256503 -0.030619621 0.023908783 -0.012065358 -0.02086867 0.0272578 -0.03651911
-0.014225774 0.023123415 0.012292354 0.040460143 0.029687569 0.017451052 0.017707346 -0.014107665
0.0333263 0.016512176 0.015314883 0.023721626 0.018891513 0.03886953 0.0061469367 -0.02823752
0.026653143 -0.034950953 -0.033631414 -0.024634577 0.030298598 0.010071448 -0.02159904 -0.04066424
-0.035780862 0.0068411813 -0.016937904 0.03763783 0.051350106 0.022791548 -0.017897421 -0.038752697
-0.017877359 -0.009340152 -0.01945385 0.005024464 0.035447255 0.019397408 -0.039458994 0.009404144
-0.024890535 0.035163827 -0.017694097 -0.03444279 -0.008546934 -0.041946102 0.024055997 0.030924844
-0.027239598 0.019685565 -0.028543737 0.019663319 -0.025351036 -0.017555743 0.025000915 0.04463001
0.009323413 -0.02939669 0.020363534 -0.00011215949 -0.03024303 -0.0015158254 0.030074844 -0.00303095
0.03811118 0.015337771 0.037869457 -0.003412159 -0.0124275945 0.019879207 -0.034101997 -0.008224599
-0.037830587 0.039855 -0.032746315 0.037911713 0.023479944 0.032315962 -0.020608878 -0.026673863
0.021278188 -0.012879684 -0.028705068 0.055954967 0.026579013 -0.035461843 -0.029938899 -0.001673458
0.012431831 0.021627368 0.014494552 -0.017153623 -0.011650503 -0.027830983 0.04061571 0.027680088
-0.025683455 0.026132563 -0.0010739932 -0.03892406 -0.01464606 -0.026843013 -0.017595867 0.021967247
-0.035722077 0.00010731598 0.080293454 -0.038943615 0.02670916 -0.014284028 -0.038059957 -0.009240333
-0.017611923 -0.011461239 0.009110811 0.0135567915 -0.03272951 -0.008803928 -0.006117519 0.06373114
-0.035825565 0.008923077 0.026859568 -0.035792388 0.03498819 0.010499903 0.05257926 -0.050362434
-0.00029914797 -0.06807353 -0.01791416 -0.058083083 -0.01724497 -0.04347235 -0.021069778 -0.0051106485
-0.019888287 0.013614315 -0.012911269 -0.065753914 -0.014792196 -0.023747534 0.0028680295 0.022961972
0.0049399706 0.025232354 0.010577079 0.0076593203 -0.034911662 -0.010213575 -0.011464334 0.05573896
0.0045567183 -0.04602756 -0.0026496334 -0.02193872 -0.0240872 0.04968408 0.03327431 0.014767289
0.021980012 0.010226102 0.03134721 -0.045647826 -0.04163848 -0.00426505 -0.029500969 0.06453618
0.0058862832 0.0026137943 0.046994153 0.0065687345 0.010914659 0.00012723518 -0.011467289 -0.029646676
0.00042240974 -0.03156039 0.0422514 -0.009423775 0.004258659 0.0067880354 -0.05516546 -0.01705651
-0.09169128 0.0028489328 -0.02097309 -0.017776435 -0.03311409 -0.026150765 -0.01611533 0.01051705
-0.0316993 -0.018181238 -0.03603403 0.0023731077 0.014440987 -0.014948054 -0.027698772 0.005641903
-0.07184948 -0.03397854 -0.026804449 -0.022645738 6.9921676e-05 -0.0010524403 0.02031637 0.01652967
-0.043514665 0.03604952 0.01220374 -0.025807211 -0.019684158 -0.08857141 0.0034105997 -0.08840952
-0.023378229 -0.016096694 -0.03406472 0.010264764 0.035130937 0.011451462 -0.0009369662 -0.029720498
0.08105725 -0.0052853785 -0.004147375 -0.012890079 0.033410814 0.0044898083 0.021563265 -0.013161792

action_model._discrete_distribution.branches.1.bias f4 [3]
00000000: c515 923c 57b9 efbb 5df1 f3bc
0.017832646 -0.0073157954 -0.029778177

action_model._discrete_distribution.branches.2.weight f4 [2, 128]
00000000: 0f48 803c ac5f 15bd a7c0 4ebc fcd4 c33d
00000010: d9a8 0ebd 1e88 2c3d 54ea 993d 8e34 2d3d
00000020: 0148 003d ff59 4c3d 8312 2ebd 4682 05bd
00000030: 29a8 2a3d 7a99 cd3c e8d0 d3bb 05c9 2aba
00000040: 2029 113d 3035 5cbd d02d dfbb 1af4 bc3c
00000050: 8c5e dfbc 64a4 3dbd 1521 00bd fd0e 273d
00000060: 58a0 e0bc 8ee3 ed3c bda3 083d e71e 63bc
00000070: 483d 5f3c 9a32 273d 5b4f 153d d941 f9bc
00000080: 76a7 e43c b7a9 c33c b446 433d cc42 113d
00000090: 58db 0a3d 379b 2a3d f881 95bc 5f5d b2bc
000000a0: 1605 663b 92ec 06bd 3905 4abc ddc2 1cbd
000000b0: c087 743d 1b88 cf3c c8d7 bbbc 0bb9 aabc
000000c0: 0867 1abd b6cc e13c c572 fabc 3f00 6e3d
000000d0: 9537 113d 11f1 14bd ead4 dcbc ce80 67bd
000000e0: 8958 f3bc 3a01 6abc be97 59bc fc83 503d
000000f0: 41cb 6f3d bb8d 113d fe2d d2bc 8543 c5bc
00000100: b281 1fbd 28a5 9d3c b5fb 98bc bdd3 08bd
00000110: ba3a 12bd c895 ddbc 03a6 2c3d 681d 2f3c
00000120: b21b 3bbd 993c 723d 0edf 34bd 5e8b dd3c
00000130: c855 3fbd 57e0 afbc cb44 d63c c037 093d
00000140: 3411 a63d 561f 2fbd e86c b33d 2563 67bc
00000150: df48 c7bc ed5f 39bc bb76 f23c 5f21 f7bc
00000160: d2d6 4e3d 2168 423d e665 093c c5b2 24bd
00000170: 8cf3 bfbc ee86 2c3d cd0a fdbc 9325 16bd
00000180: 0719 8abb 7199 bb3c be3c debc a1e6 f03c
00000190: 1929 ae3c a296 1a3d 55ef 20bd eb17 19bd
000001a0: 8335 213d ef85 c9bc 0205 cdbc 48d7 243d
000001b0: a4be f43c 9d15 273d b8c7 d2bc e5a6 62bb
000001c0: bc39 393d 8c3d 783d 7ea8 303d 5994 4ebd
000001d0: a7ce 20bd 36c4 cdbc ee69 513d 5966 f33c
000001e0: a48c d7bc f7ca 0f3d 537c 17bd 1ae7 46bc
000001f0: 1530 1dbd 9605 cebc f56e d5bc 977a c93c
00000200: c374 88bc 2763 a83c 73cc bcbb 3a2f c8bd
00000210: 6c50 333d bc30 35bd 2eb4 5fbd a4e7 34bd
00000220: 4512 cebc 3211 0cbd cc52 3c3d 6353 f23c
00000230: d497 51bd 5aaa cdbc 6f27 d23c ef15 17bb
00000240: 9034 29bd 841b 993c a2ba 7a3c 055b f1bc
00000250: d58b d43c a901 0d3d 6111 9c3c 6e92 42bd
00000260: e4f2 8a3c 5f48 3ebd 04a1 1bbd dce5 803c
00000270: 6c21 b6bc 258f 71bd ec82 63bd 100c f73c
00000280: f141 d7bc 91e4 11bd f0a7 07bd aa6a 3cbd
00000290: c4f0 ffbc 488f 01bd fe4e 093d cdf8 043d
000002a0: 89e7 30bc 718e df3c f1aa ce3c a391 163d
000002b0: 4dc0 91bd 3cb3 61bd d04b 6e3d cc50 8d3b
000002c0: 84c9 003d 4ff5 0dbd fb22 963c 0e3a 38bd
000002d0: c445 b0bc b201 423d 6ed2 113d 6afb 0d3d
000002e0: ec19 f23c ea40 253d 002e 023d 43a5 74bd
000002f0: 9321 25bd a153 16bd 7fc8 353d 46a1 8c3c
00000300: 201b d63c 3b76 65bc 727b 243d 8a4d 063d
00000310: 6115 3d3d 0535 ac3c 47f9 39bd 507e 96bc
00000320: ebbe 123d e3cb 6fbd 8d24 033d 2ea5 18bd
00000330: b396 e03c 9226 ce3c 8e13 3cbd fc15 fdbc
00000340: a3ca 8bbd 01df e43c df2c 8bbd 2e32 693c
00000350: 369d df3c b0d9 1dbc 842c ddbc 94c1 af3c
00000360: 8072 30bd c828 45bd 09d2 0dbd 405d e83c
00000370: e287 ae3c 9139 eabc 33fe 373d 0d9f 8d3c
00000380: a4b3 b53b 6c71 09bd 33f8 453d 1cf7 21bd
00000390: bd9d 86bc cc9b 21bd 69af ec3c feaf ec3c
000003a0: cb15 a4bc ef10 cd3c ea71 063d 1dd0 dabc
000003b0: 3110 09bd d8e6 51bd 78f7 a83c 4058 423c
000003c0: 43b3 3fbd 527b 8abd c2d9 9fbc 3cf7 eb3c
000003d0: 545f 0a3d 9d97 343d cab0 fcbc c98c e5bc
000003e0: 34e7 043c d9fe f5bc 68d0 653d 66cd 563c
000003f0: ad7d 5b3d 139a 333d dfa8 fa3c 4995 9bbc
0.01565936 -0.036468193 -0.012619174 0.09562108 -0.034828994 0.042122 0.07515398 0.04228645
0.03131867 0.049890514 -0.042498123 -0.03259494 0.041664276 0.025097597 -0.0064641126 -0.00065149396
0.03543961 -0.05376166 -0.006810881 0.023065615 -0.027266763 -0.046299353 -0.03128155 0.04078578
-0.027420208 0.02903917 0.033359278 -0.013862348 0.01362545 0.04081974 0.036452632 -0.030426906
0.027911883 0.023884637 0.04767485 0.035464093 0.03390059 0.04165193 -0.01825045 -0.021773038
0.0035098246 -0.032940455 -0.012330347 -0.038271774 0.059699774 0.025333455 -0.022930041 -0.020840188
-0.037695915 0.027563434 -0.030572305 0.058105703 0.035453398 -0.03636271 -0.026956994 -0.056519322
-0.029705303 -0.014282519 -0.013280807 0.05090712 0.058543447 0.035535555 -0.025656696 -0.024080047
-0.038942046 0.019243792 -0.01867471 -0.033405054 -0.035700537 -0.02704896 0.04215051 0.010688163
-0.04568071 0.05913982 -0.044158034 0.027043995 -0.046712667 -0.021469278 0.02615585 0.033500433
0.0810875 -0.042754494 0.087610066 -0.014122759 -0.02432674 -0.011314374 0.02959763 -0.03016728
0.050497837 0.047462586 0.008386111 -0.04020955 -0.023431562 0.042120866 -0.03088894 -0.036656927
-0.0042144093 0.022900315 -0.027128574 0.029406847 0.021259831 0.03774131 -0.039290745 -0.037376326
0.039357673 -0.024599997 -0.025026802 0.04024437 0.02987606 0.040792096 -0.025729999 -0.003458434
0.045221075 0.06060557 0.043129437 -0.050434444 -0.03925958 -0.025117975 0.051126413 0.02971189
-0.02631218 0.03510567 -0.0369838 -0.01214006 -0.038375933 -0.025149148 -0.026053885 0.024594588
-0.016657239 0.020555092 -0.005761677 -0.09774633 0.04377787 -0.04423593 -0.054615192 -0.044166222
-0.025155196 -0.034196086 0.0459774 0.029580778 -0.051170185 -0.025105644 0.025653569 -0.0023053845
-0.041309893 0.018689878 0.015303286 -0.029462347 0.025945583 0.03442541 0.019051256 -0.047502927
0.016961522 -0.046455737 -0.037995353 0.015734605 -0.022232734 -0.058974404 -0.05554478 0.030157119
-0.02627656 -0.03561837 -0.033119142 -0.04600016 -0.031242736 -0.031630784 0.0335226 0.032463837
-0.01079739 0.027289601 0.025227996 0.036759984 -0.071167566 -0.05510257 0.05817777 0.0043126103
0.03144218 -0.034657773 0.018327227 -0.04497724 -0.021517642 0.047364898 0.035601072 0.034663595
0.029553376 0.04034511 0.03178215 -0.05972792 -0.040315222 -0.03670085 0.04438066 0.017166745
0.026135981 -0.014005239 0.04015679 0.03278879 0.046162967 0.021021375 -0.045403745 -0.018370777
0.035826605 -0.05854405 0.03201728 -0.037266903 0.027415609 0.025164876 -0.045917086 -0.030894272
-0.06825759 0.027938368 -0.06795668 0.014233155 0.027296644 -0.00963442 -0.026998766 0.02145461
-0.043077946 -0.048134595 -0.034624133 0.028364778 0.021305028 -0.028591903 0.044920158 0.017287755
0.0055450965 -0.033555433 0.048332404 -0.039542302 -0.016432637 -0.03945522 0.028892236 0.028892513
-0.020029923 0.025032489 0.03282348 -0.026710564 -0.033462707 -0.05124554 0.020625815 0.011861861
-0.046801817 -0.06761803 -0.019513015 0.028804414 0.03378232 0.044089902 -0.030846018 -0.028021233
0.008111764 -0.030028747 0.056106955 0.013110494 0.05358665 0.04384811 0.030598102 -0.018992083

action_model._discrete_distribution.branches.2.bias f4 [2]
00000000: cf4e ad3c d14e adbc
0.021155743 -0.021155747

exp_avg f4 [128, 6]
00000000: d793 00ba 7e82 cbb9 13b6 9a38 6116 fdb8
00000010: 0246 74b7 cfb8 6839 99fb e0b8 f85d 94b8
00000020: c5ff a438 a100 40b8 4cef 58b5 99a1 0936
00000030: 82a9 b339 b61c 3839 d401 aeb8 4b9f af37
00000040: 6154 40b7 84b8 e8b7 fe17 1e39 7bfd 1639
00000050: dc8a 8337 500f ad38 ca58 bdb7 428f aeb8
00000060: 3991 ba37 d526 1139 fbca e038 4ae2 1c39
00000070: 2350 6db8 0477 79b9 f05b 8b38 7c3e 4537
00000080: b08d 1bb8 fc44 27b7 7a93 e1b6 8d40 a137
00000090: 2caa a439 a058 7439 f072 a7b8 d0ea 1c38
000000a0: ca7e a9b7 9d27 d5b6 d351 f039 305a a839
000000b0: b607 09b9 f77f 0338 5c4b 82b7 96f4 44b7
000000c0: 03d9 1db7 a7bd ebb4 4e51 8238 489c 5ab8
000000d0: 0421 a638 85c9 b1b8 e999 3cba 0ae2 0aba
000000e0: 68b6 3739 ef7d 0cb9 6273 21b7 b412 5539
000000f0: a56d b8b8 7549 0cb9 7f1e aeb8 ce70 dcb8
00000100: fd4c 2d38 2999 7939 bcdb 50b8 51bb 4937
00000110: 2ac0 aa38 af83 05b8 fccf a438 e7ef 4ab8
00000120: 1529 26ba 80e6 0eba 7dde 2439 7dc0 3ab9
00000130: d2d8 fdb7 937b 2d39 0b3c 2038 ac0c 6736
00000140: 4327 3ab6 86a6 d6b7 e78a c3b7 750b 1b37
00000150: 34a2 b439 4904 a739 8c9b a4b5 1ac2 df38
00000160: e64d b1b7 bec2 08b9 baeb d337 d40d 5735
00000170: cc8f 0eb9 46b9 dbb8 f756 b637 17e7 a939
00000180: 48dd 37b7 3746 b636 9954 4338 4d3a 90b7
00000190: 85af 25b7 e149 57b8 d5a8 1eba 2629 12ba
000001a0: ce3c ba38 84e0 61b9 10de 51b6 85c1 a139
000001b0: febd 6cba 8373 2fba 160f 2f39 2336 99b5
000001c0: d64b 87b6 fa07 da38 2f0c b9ba 766d b8ba
000001d0: 396d a639 8ff8 f3b9 00db 9737 b7b8 023a
000001e0: c33c 1839 e291 d638 8031 07b7 058c 5736
000001f0: 9a75 e536 bd20 9ab8 c236 023a 21a2 c839
00000200: cc52 34b9 800d 6038 3d21 70b6 1c41 c2b6
00000210: bc09 b439 2761 8739 3ce5 3bb9 40eb dcb8
00000220: 1334 e135 5219 7e39 5f1c d139 1512 e139
00000230: de00 2eb8 da81 f138 1059 6437 aeb9 2ab9
00000240: 125e fab8 784c dfb8 04c2 6cb8 f840 b138
00000250: 71a7 5ab8 57d4 9db7 6986 a839 d1c1 8939
00000260: 9c57 72b8 be68 2e38 4f8d 9fb6 3f7d 6db7
00000270: d19c 47b8 3ba1 1038 a2e1 9738 e794 5038
00000280: a048 4938 6b6c 09b9 0932 66b9 5729 58b9
00000290: db63 d734 8068 6436 e930 1cb6 2161 1238
000002a0: da7a be38 20d5 4436 1382 60b8 27ef 56b7
000002b0: cfe3 a8b7 7560 8035 120a 2239 00f8 0f39
000002c0: dbd8 beb7 c1b4 1a38 2be0 03b5 7e06 45b8
000002d0: 9359 4139 ac44 4539 c16f 0fb8 ca95 3e38
000002e0: 4768 3f37 1564 0fb8 53ae 2d3a 376b 0f3a
000002f0: 5102 6fb9 46e8 2538 6bde d438 6b16 7638
00000300: 6505 2aba 9571 13ba 9d1f 2d39 bccc 30b9
00000310: 93f4 e737 e658 4639 1f78 6eb8 cf47 d1b8
00000320: 622a fdb5 b36a f536 fa31 21b7 202a 21b6
00000330: 51de 1639 807f 0739 d9c3 c7b7 a416 5f37
00000340: 0c6e 8cb6 999f c635 4af9 1038 fade 8d38
00000350: acc9 0c38 a2f8 c138 388d ce37 a5a9 10b9
00000360: 2017 4dba 91a1 08ba 5a4e 0139 7190 bab7
00000370: 74c0 f1b8 55eb 5d39 4fed e639 92d5 bd39
00000380: 82e4 49b8 c7f1 9738 548d f9b6 985c 93b8
00000390: c43d cdb9 6220 f9b9 64c9 82b8 151e 98b9
000003a0: 2f92 59b5 eda1 e839 7e7e 9e38 6a41 e138
000003b0: 4050 4538 b9ad b638 d801 0537 9fcb 37b9
000003c0: a5f5 9c3a fd10 793a 8810 58b9 f66d 1039
000003d0: 6523 3db7 43e0 c8b8 b204 0e39 e47f a138
000003e0: 3bbb c1b7 5294 8b35 4fbd 0c36 3cdc 5eb5
000003f0: 5ddd b738 3043 0639 6558 6337 3f70 ec38
-0.00049048424 -0.00038816402 7.377206e-05 -0.000120681485 -1.4559833e-05 0.0002219409 -0.00010728016 -7.074693e-05
7.86777e-05 -4.5776953e-05 -8.0814493e-07 2.0508653e-06 0.00034267834 0.00017558303 -8.297307e-05 2.0935802e-05
-1.1463738e-05 -2.7742477e-05 0.00015076992 0.00014399544 1.5681078e-05 8.252135e-05 -2.2571901e-05 -8.3236504e-05
2.2240552e-05 0.00013842744 0.000107189604 0.00014961619 -5.6579836e-05 -0.00023790827 6.645161e-05 1.1756663e-05
-3.7086837e-05 -9.970037e-06 -6.722691e-06 1.9222754e-05 0.00031407306 0.00023302669 -7.984589e-05 3.7411985e-05
-2.020541e-05 -6.3525063e-06 0.0004583733 0.00032110652 -0.0001306821 3.135201e-05 -1.55323e-05 -1.17394575e-05
-9.408456e-06 -4.391015e-07 6.214027e-05 -5.21208e-05 7.9216465e-05 -8.477554e-05 -0.0007194565 -0.00052979647
0.00017520192 -0.00013398354 -9.6232125e-06 0.0002032023 -8.7942266e-05 -0.00013378805 -8.302647e-05 -0.00010511429
4.1318115e-05 0.00023803547 -4.9795708e-05 1.2024147e-05 8.142025e-05 -3.183231e-05 7.8588695e-05 -4.838398e-05
-0.0006338519 -0.00054512173 0.00015723142 -0.0001781005 -3.0260915e-05 0.000165446 3.8202892e-05 3.4429058e-06
-2.7739013e-06 -2.5588331e-05 -2.3310493e-05 9.2413875e-06 0.00034453126 0.00031855915 -1.2264222e-06 0.00010669623
-2.1136319e-05 -0.00013042518 2.5262929e-05 8.0113864e-07 -0.00013595744 -0.000104772436 2.1736587e-05 0.00032406367
-1.0959171e-05 5.4321968e-06 4.657041e-05 -1.7193286e-05 -9.875633e-06 -5.13288e-05 -0.00060523796 -0.00055755896
8.880497e-05 -0.0002154131 -3.1272684e-06 0.00030852496 -0.00090309966 -0.0006692933 0.0001669492 -1.1415144e-06
-4.032142e-06 0.00010396536 -0.0014118011 -0.0014070708 0.00031743365 -0.00046533762 1.8102583e-05 0.0004986631
0.00014518485 0.00010231488 -8.058152e-06 3.2118999e-06 6.8384225e-06 -7.34939e-05 0.0004967266 0.00038267768
-0.00017196982 5.3418335e-05 -3.5782134e-06 -5.7892303e-06 0.00034339528 0.0002582159 -0.00017919106 -0.00010534236
1.6778962e-06 0.0002423276 0.00039884725 0.00042928816 -4.148564e-05 0.00011515962 1.36105955e-05 -0.00016281634
-0.00011938451 -0.00010647712 -5.6447476e-05 8.452119e-05 -5.2131192e-05 -1.8814737e-05 0.000321436 0.0002627508
-5.777889e-05 4.158238e-05 -4.7550197e-06 -1.4155462e-05 -4.7591344e-05 3.4482433e-05 7.2422685e-05 4.972974e-05
4.798977e-05 -0.00013105727 -0.00021953149 -0.00020614766 4.0119525e-07 3.4035475e-06 -2.327428e-06 3.489957e-05
9.082789e-05 2.933033e-06 -5.3526903e-05 -1.2811076e-05 -2.0133242e-05 9.564816e-07 0.00015453275 0.0001372993
-2.2750746e-05 3.68848e-05 -4.912751e-07 -4.6974506e-05 0.00018439283 0.00018812966 -3.4197936e-05 4.5439032e-05
1.1408766e-05 -3.4187065e-05 0.00066254026 0.00054709933 -0.00022793679 3.9555387e-05 0.00010150376 5.867185e-05
-0.0006485789 -0.000562453 0.00016510343 -0.00016860937 2.7651235e-05 0.00018915869 -5.6855493e-05 -9.979272e-05
-1.8862304e-06 7.3139904e-06 -9.607984e-06 -2.401539e-06 0.00014387934 0.000129221 -2.3813847e-05 1.3297107e-05
-4.1851363e-06 1.4798599e-06 3.4564444e-05 6.7649366e-05 3.3566423e-05 9.2492686e-05 2.4622874e-05 -0.00013796108
-0.0007823575 -0.00052120636 0.00012331587 -2.2240189e-05 -0.00011527623 0.0002116387 0.00044045827 0.0003620801
-4.813495e-05 7.2452756e-05 -7.437231e-06 -7.026753e-05 -0.00039146666 -0.00047517108 -6.236395e-05 -0.00029014112
-8.1051525e-07 0.00044371132 7.557588e-05 0.000107410204 4.70432e-05 8.710795e-05 7.927847e-06 -0.00017528095
0.0011975063 0.00095011276 -0.00020605524 0.00013773874 -1.1273519e-05 -9.578515e-05 0.00013543924 7.7009e-05
-2.3094579e-05 1.0399474e-06 2.0971818e-06 -8.302193e-07 8.767352e-05 0.00012804265 1.3550835e-05 0.000112742644
