results/FlappyBird/FlappyAgent_ImitationLearning2/FlappyAgent/FlappyAgent-39800.pt (torch, 708705 bytes, 41 tensors)

network_body._body_endoder.seq_layers.0.weight f4 [128, 59]
00000000: a9b9 b43d 8421 23be 6e95 7cbd 519d 983b
00000010: 79bc aa3d 5670 f1bd de71 123e 7059 553e
00000020: 1cc1 01be b773 bd3d b6da 53bd 35a9 173e
00000030: 144d d6bd 988b c73d e524 6abe 5263 84bd
00000040: d302 123e 565d a83e fea4 a7be 87fa 163d
00000050: ab9f 10be d612 8bbd 7bcf 9a3c fe23 c43b
00000060: e257 36be 60bc 97bd 6a81 90be fdf9 c4be
00000070: a896 333b 2754 1abe 2f0c 8c3c 68e7 3bbe
00000080: 6f06 4abb 1f28 24be 13b1 d3bb caef 5bbd
00000090: 22e0 8ebe 6d7a d7bb d51c 60bc 5abc 5b3e
000000a0: 3d88 6ebd ce17 1bbd f675 b73d f323 e63d
000000b0: 000f 98be 0ad1 22be e347 85bc 47af 0cbc
000000c0: e8c9 a9bd 48b6 c7bb 5e62 123e 9a1c b7bc
000000d0: fe54 003e 533b fdbb 158f 2ebd 8136 dc3d
000000e0: f976 7d3e 8e4d 0fbe cdd0 ccbd 4438 4e3d
000000f0: 0c67 f33d f4ff e2bc cdb0 ad3d af30 12bd
00000100: 036a a23d b86e dbbd 9501 943d 7451 57bb
00000110: 54a0 0abe 9ba8 5e3e 4764 c5bd 201a e53d
00000120: 1f68 a63d 80c5 a43d 6d51 9a3d 3d93 0a3e
00000130: 2bec 333e 1ef4 9d3c b689 10bd c44b 673b
00000140: e0fc 2a3e b57c a43d d2e2 bdbc 152e 083e
00000150: dc85 15bd 88c4 72be 7a09 8dbc 8d29 e4bd
00000160: 4ac1 513c 921c 95bd 51bf 1a3e c0e6 bfbd
00000170: 8513 a0bd e8eb 9abd 4385 4dbc 4bdf 653e
00000180: 9707 1abd c700 48bd 39c8 293e a01c aabd
00000190: 7b1a 073e 5c41 343e e360 3abc 1bba c3bc
000001a0: 9b5d bb3c aac9 ebbc b899 4ebe 4628 8a3e
000001b0: 11fe b3bc b2e4 043e 7aa9 993d 0002 8abd
000001c0: 4fe7 11bd 126c 56bb c87a 483e ca52 79be
000001d0: 6dc2 2abd 0c18 e6bc ba06 933d f6a5 18bc
000001e0: 8070 333c afc6 0b3e a2c6 d53d f2bc 04be
000001f0: aa81 b9bd 419e e6bc d7e3 bbbc 787a 363e
00000200: 2953 dabd ffa4 cbbd 4f6e bc3d be1f 18be
00000210: a1a5 cd3c 2e0d f83d aa04 e03d aaaa 613e
00000220: 5be5 ce3d c082 083d c852 54bd f171 e83d
00000230: 3d11 9fbd 3547 d3bd 2169 ef3d 5044 213e
00000240: 8f4f 0dbe 61db 71bd 8d86 05be 2070 623e
00000250: 69ec c6be 02aa 193e 401a 05be d463 683d
00000260: 45aa f8bd a45d 363e b772 293e 633d 30be
00000270: 51c9 a4bd f881 533d 8120 16be 08bf a0bc
00000280: ed51 073e a92d 263d a041 b8bd 2f02 173d
00000290: d682 88bd b23b 193e ce9e 04be a269 963e
000002a0: 509e 343d ea14 233d 9455 fc3c 6030 5c3d
000002b0: 1395 0d3e b2d2 933e 1229 083c 35f6 433c
000002c0: e2fc 523c 9c17 f6bd d87d a83c 0cc5 dcbd
000002d0: c021 eb3c b366 d2bd bdb9 043e e985 a6bd
000002e0: a4c4 0e3e b2ae 62bd 269c 2a3e 0bde 4abd
000002f0: 2e73 9cbc 1f37 8abd a121 aebd 0833 4fbe
00000300: 806a 103c 7caf 14bd 5d27 2d3c dada 053e
00000310: 7c9c 9fbb c9a6 9b3c def8 703e b4b7 e3bc
00000320: 0ae4 343e 71b1 47bd c007 c43d b4ab 1d3e
00000330: f538 0c3d 3f6f 133e 65c3 1a3e 5786 86bd
00000340: 38ba 21be aff3 2a3e ae2a f53c 9738 8d3d
00000350: 61ac 38be a949 103c db10 a6bd c83f a33d
00000360: e9c3 a1bd 81bc 823e 56a8 e9bc c3b6 843e
00000370: e437 4d3e 52aa 4dbd ed26 873e a881 793e
00000380: 3fff 2c3d 75ba a8be 7c49 a73d e248 4abc
00000390: 39cd 79bc 4dd4 1b3c f377 15bc a99b 83be
000003a0: 8f2e 7e3e 41b8 5cbe 9432 303c d51c 543d
000003b0: c574 da3c 3b81 6d3c f197 9b3e e53f 67bd
000003c0: e895 35bd 2adc c43d b874 323c a1d4 a43d
000003d0: 12dc 2b3e bc8f c63d 4e17 82bd 478e 4d3e
000003e0: 627c 75be 4ebb ba3b a6a5 0b3e 9d35 98be
000003f0: f775 403e c5f0 043e 3e93 423e 2655 3dbd
0.08824474 -0.15930754 -0.061665945 0.0046574255 0.083367296 -0.117890045 0.1430125 0.20834899
-0.12671322 0.092505865 -0.05172225 0.14810641 -0.1046392 0.09743422 -0.22865637 -0.06464256
0.1425889 0.3288371 -0.32743067 0.036860015 -0.14123408 -0.06790702 0.018897763 0.005985736
-0.17806962 -0.074089766 -0.28223735 -0.38471976 0.002740303 -0.15071164 0.017095653 -0.18349993
-0.0030826589 -0.1603093 -0.006460318 -0.053695478 -0.27905375 -0.0065758736 -0.013678749 0.21458569
-0.058235396 -0.0378645 0.08958046 0.112373255 -0.29698944 -0.15900055 -0.01626963 -0.008586711
-0.08290464 -0.0060947277 0.14295337 -0.022352505 0.12532422 -0.0077280193 -0.042616922 0.10752583
0.24752416 -0.13994429 -0.10000763 0.050346628 0.11884889 -0.027709939 0.08480988 -0.03569096
0.079303764 -0.10714477 0.07226864 -0.0032854946 -0.13537723 0.21744005 -0.09638267 0.111866236
0.08125328 0.08045483 0.07535062 0.1353273 0.1757056 0.019281443 -0.03528758 0.0035292963
0.16698027 0.080315985 -0.023179445 0.13298829 -0.03650461 -0.23707783 -0.017216433 -0.11140738
0.012802431 -0.0728084 0.15112044 -0.09370184 -0.07816223 -0.07564527 -0.012543979 0.22448461
-0.037604894 -0.048828866 0.16580285 -0.08306241 0.13193695 0.17603058 -0.011375639 -0.023892453
0.022871783 -0.028782684 -0.20175827 0.2698385 -0.021971734 0.12977865 0.07503028 -0.06738663
-0.035620984 -0.0032718224 0.19578087 -0.24347988 -0.041689325 -0.028087638 0.07179017 -0.009316912
0.010952115 0.1365001 0.10438277 -0.12962702 -0.090579346 -0.028151633 -0.022935791 0.17820156
-0.10660393 -0.0994358 0.09200727 -0.14855859 0.025103392 0.12111889 0.109383896 0.2203776
0.1010234 0.033327818 -0.05183676 0.113498576 -0.0776696 -0.10316316 0.116899736 0.15748715
-0.1379988 -0.059047107 -0.13039608 0.22113085 -0.38852242 0.15006259 -0.12998295 0.05673583
-0.12141851 0.17809159 0.16547666 -0.17210917 -0.080462106 0.05163762 -0.14660837 -0.01962234
0.13214846 0.04057089 -0.08996892 0.036867317 -0.0666558 0.14964178 -0.12951204 0.29377466
0.04409629 0.039814867 0.030802526 0.05375707 0.13826399 0.28871685 0.008310573 0.011960556
0.012877675 -0.12016222 0.02056782 -0.10779771 0.028702617 -0.102734946 0.12961479 -0.0813101
0.139422 -0.055342384 0.16661128 -0.049528163 -0.01909789 -0.06748795 -0.08502508 -0.2023431
0.008814454 -0.036300167 0.010568467 0.13071766 -0.0048709493 0.019000428 0.23532435 -0.027797557
0.17665115 -0.048753206 0.09571791 0.15397531 0.034234006 0.14397906 0.151136 -0.06568592
-0.15793693 0.1669452 0.029927578 0.06895559 -0.18034507 0.008806624 -0.08108684 0.0797115
-0.07898695 0.25534442 -0.028522652 0.25920686 0.20040852 -0.05021126 0.26396886 0.24365866
0.04223561 -0.32954755 0.08168313 -0.012346478 -0.015246683 0.009511066 -0.009122836 -0.25704697
0.24822448 -0.21554662 0.010754246 0.05178531 0.026667008 0.014496143 0.3038936 -0.05645742
-0.044332415 0.096123055 0.010892086 0.08048368 0.16783169 0.09695384 -0.06352101 0.20073806
-0.2397323 0.005698598 0.13637409 -0.29728404 0.18795 0.12982471 0.19001481 -0.046223782

network_body._body_endoder.seq_layers.0.bias f4 [128]
00000000: ead4 5fbc 8e5e a13c f254 6fbb 9930 7b3c
00000010: 179b b43c a908 663c 8594 d53b aafa ce3b
00000020: 61b3 32bc 58c0 d0bb 4290 0c3d 2ce4 45bc
00000030: 69ed c43c 78a2 e93c c2b7 213d 37e5 70bc
00000040: 7b43 433c a7c5 5b3c ee6f 0a3d 3b1c a5bb
00000050: 0242 c33c d0c1 be3c d424 043d 1a39 cd3b
00000060: 6d0b e4ba aa35 523a 06d0 023c 9084 a5bc
00000070: c728 31bd 6fae 793c cc2b fc3b ea8b 9f3c
00000080: 11d1 34bd bb50 e7bc 0bc1 5a3d 4672 213d
00000090: 54f3 7d3d f2fa 6e3d 1900 303d d23d c93c
000000a0: 13b1 93bc 0146 a03c 456b 993c 6519 253d
000000b0: 5867 7a3c 34bc 1a3c 2e03 86bc f22c 3abc
000000c0: dc0f 533d 8d2e 37bd 315e aabc 28cf 07bc
000000d0: 649d 023c adee 903c 86c7 f13c ac02 58bd
000000e0: d6d9 d93c 9b46 b73c ed2f 08bd 04a4 143d
000000f0: 16cb d93c a50f 0f3d 4534 fbbb e48d dc3c
00000100: b720 0fbd 3f63 f43c af6f 143d dd97 8d3c
00000110: 7524 463d c33e f6bb 9b23 7bbc 40d6 ef3b
00000120: bac3 163c 421c b23c 6691 bd3c 4677 14bd
00000130: 147b af3c b290 8c3c 714a 2e3c b90d e7bc
00000140: 33ad c53c 732b 5bbd 6af8 153c bcfe b03c
00000150: f3a6 f7ba cc8f 963b 3251 d63c 08df 113d
00000160: 789c 4cbd 2ee7 3f3b 160e 88bc 8c6d b33c
00000170: 592c 99bc 41e1 c2bc efa5 2d3d 8d78 9b3c
00000180: b22b ac3b ce90 28bd 23c5 c73c 0071 94bb
00000190: 3ddb 4d3c 5d31 083d d31a c4bc 8678 0cbd
000001a0: ad02 f0bc f1b5 153d 4c89 babb 0738 0f3d
000001b0: 4f87 953a d1be 243d 1ace 55bc f53f fe3c
000001c0: 39f0 b53c b985 a13b b95c b23c 5550 b03c
000001d0: 5679 7bbc 8435 01bb 7147 2abd 1895 bd3c
000001e0: c690 af3c 0ebb 1c3d 7e4c 523c 1812 763d
000001f0: 3e68 d83c b99a 9cbc 2a2e 413c 6c1e aa3c
-0.0136616025 0.019698408 -0.0036519137 0.015331411 0.022046609 0.014040151 0.006517949 0.0063165026
-0.010907025 -0.0063705854 0.034317262 -0.012078326 0.024038987 0.028519854 0.039481886 -0.014703087
0.011917944 0.013413823 0.03379815 -0.0050387657 0.023835186 0.023285776 0.032261685 0.0062629106
-0.0017398425 0.0008018861 0.007984167 -0.020204812 -0.04325178 0.015239342 0.0076956507 0.019475896
-0.044144694 -0.028236737 0.053406756 0.03941562 0.061999634 0.05834479 0.042968843 0.024565611
-0.018028772 0.01956463 0.018727908 0.04030742 0.015283428 0.009444285 -0.016358938 -0.011363255
0.051528797 -0.04472213 -0.020796867 -0.008289136 0.007972095 0.017691934 0.029514086 -0.052736923
0.02659313 0.022372534 -0.03324883 0.03628923 0.026586097 0.03492703 -0.007666143 0.026923127
-0.03494331 0.02983248 0.036239322 0.017284328 0.048374612 -0.007514806 -0.015328313 0.0073192418
0.009201938 0.02174199 0.02314062 -0.03624656 0.021420993 0.01715884 0.010637865 -0.028204786
0.02413044 -0.053508233 0.009153465 0.021605842 -0.0018894359 0.0045947786 0.026161764 0.03561309
-0.049953908 0.002928208 -0.01660828 0.021902822 -0.018697904 -0.02378905 0.042394575 0.018978382
0.0052542323 -0.04115372 0.024385994 -0.004530072 0.0125644775 0.0332502 -0.023938572 -0.034294628
-0.02929815 0.036550466 -0.0056926366 0.03496554 0.0011408123 0.04022104 -0.013049627 0.031036356
0.022209274 0.004929271 0.02177273 0.02152268 -0.015348753 -0.0019715736 -0.041572038 0.023142383
0.021431338 0.038264327 0.01283562 0.06007585 0.026416894 -0.019116746 0.0117907915 0.02076646

network_body._body_endoder.seq_layers.2.weight f4 [128, 128]
00000000: 0f70 afbc f52a 94bb 5622 42bd 6a2d 8cbb
00000010: a956 82bc 3d64 94bd 018e e33d b630 143d
00000020: 9e6d a1bd 5fb6 a3bd 8f93 943d 6579 7cbd
00000030: d721 0cbe 839b b5bd f43f c13d 67a7 b13d
00000040: 55f4 453d 145d f0bd df34 d43d f17b 8ebb
00000050: 2d98 79bd c145 82bd 541c de3a 864f 2e3e
00000060: 15cc 3b3d 40f8 bbbc 0fda a33c fb3c 35be
00000070: 4382 ad3c ff78 b63d 86ee dbbd 0194 153e
00000080: 3c92 ccbd 1d2f dbbd 86dd 043d 5b93 9a3d
00000090: 52cb 2e3e 0cff 25bd c6b8 b83d 8015 883d
000000a0: 687f d6bd 2ff6 ecbc a757 6ebd 0281 b23b
000000b0: bfde 933d 0d7c 2b3b e518 25be 4297 3dbd
000000c0: 2424 ddbd 75af a6bd 9ea5 3cbe 08f8 cbbd
000000d0: c243 00bd eaff 2e3e 4375 ef3d 2008 3ebd
000000e0: 53ed 78bd b935 2abd 637a e0bd 1b37 253e
000000f0: 0115 2fbc 2fe3 473e b395 e83b 2e3a 58be
00000100: 9a9d d0bc aba2 00be f102 3f3d ca55 dbbc
00000110: 45c8 3e3d 7d27 853d 9209 e7bc 8025 4d3d
00000120: bbd3 e23d 0566 c03d 41d1 ecbd c01d 59bd
00000130: 153a 9c3d 911d 8c3c 9c2d 303e 14d4 14be
00000140: 8b33 66bd 4ca9 2dbd 5c27 f0bd f922 f13c
00000150: 7763 c4bc 8dd0 8aba 7ace 483e fbce 503e
00000160: 29cf ecbd bdbe 82bc 4ab1 bc3d 472a fbbd
00000170: fa0e 633d 328e 2bbd 2b8f 373b 03af 5fbd
00000180: 42b9 49bd 4405 853d 026b 2cbd 492f 2c3d
00000190: 7dc4 2ebe 3b3f bc3d 4b71 fc3d bcc3 a03d
000001a0: dcc7 9b3d 9053 33bd da2b 4bbe c3b2 6abc
000001b0: 7010 f0bc 4a48 acba 046a e3bd 10de 963d
000001c0: 640e 203d 0d9c 1b3d a618 86bd 7def e7bc
000001d0: 76d2 b5bd 96e5 f83d bc48 dfbd 20d5 ccbd
000001e0: e94e 363d 2b20 b7bd a220 8dbd b39b aebc
000001f0: 9199 24bc 6862 3bbd 43b6 f6bc 2a10 b2bd
00000200: 35f4 913d 838e e73d 8ebf f9ba 1ec1 88bc
00000210: 38da 15bd 94e7 bbbc b17b 42bd ab84 b43b
00000220: f39d 043d 7fc4 6fbc 0332 d23d d8a9 03be
00000230: 97b7 23be f4c4 07be 5b0c 8fbb cd60 2cbe
00000240: bf25 9f3d a07a dbbc 65c3 083e 8462 02bd
00000250: 01a5 a7bd a10d c93b 64e1 5cbd 1d97 d8bd
00000260: 3db5 9f3d 1be4 943d fde3 283d fe38 8bba
00000270: f72f 483b 12c4 3e3e 3abf 9bbc e572 f1bc
00000280: 6ddf 30bd 7c58 fcbc d584 143e 3818 153e
00000290: f1d2 5b3e 685e ad3d 13d8 3dbc 4d05 1b3e
000002a0: 62ef 8fbd 527f aeba 7813 43bd fcaf db3d
000002b0: fb6e e2bd 3fbf 7c3c 8a69 0dbc cf4c c43a
000002c0: 0a75 f4bd 2100 02be 8a8e 38bd 8381 3f3d
000002d0: fc92 463e 9929 b63d 927f 133d f0b6 323d
000002e0: 2943 64bd 756f 763d 9c06 6bbd b351 07bd
000002f0: 6dcd 1ebd ca06 5b3d 0245 51be 5a4b 3b3b
00000300: 071b 57be 91c9 64bc 2b16 413d a176 04bc
00000310: 9735 453e 2882 0bbd 5743 d33d 0d58 c037
00000320: 4eea 5d3e f589 2c3e 9f95 52be e0ed d63d
00000330: b6fe 53bd f1a5 83bd d2d9 babb bdab f93d
00000340: 9f94 8ebd 5bbe ebbd b51d 463e a76b 11bd
00000350: 6da4 ccbc 08d0 82bd d27c 463e bb9d a13d
00000360: 056b 1fbd b7df 5c3e 40de 9ebe 27d3 b5bd
00000370: e931 4bbc 8cc3 81bd 6994 363e 376f 063e
00000380: 558c bebd fdab a93d 592a 55bd a35a b1bd
00000390: ef39 b3bd fd27 bc3d b6cd 4f3e 57e5 753d
000003a0: ee75 e03d 0535 a93c a8cf c13d 0f1d 36bd
000003b0: f73b 293e 6f0b 1f3e 4420 17be 20d6 6a3e
000003c0: b919 c23d 01fc b83c 1f20 5abd cc64 49bd
000003d0: 2805 d7bd 95da 3bbd 8222 e7bb a5b9 7cbd
000003e0: 377e 063e 1489 8bbd 8e39 12bd 56c9 95bd
000003f0: 16b7 acbc 22b9 be3d b4e6 1cbe 24ee 97bc
-0.021415738 -0.0045217224 -0.047396027 -0.0042778747 -0.015910463 -0.072456814 0.111110695 0.036179267
-0.07882236 -0.07993769 0.07254707 -0.06163921 -0.13684784 -0.08867552 0.09436026 0.086745076
0.048328716 -0.11736503 0.10361647 -0.004348271 -0.06093614 -0.06360961 0.0016945698 0.17022523
0.045848925 -0.022945523 0.02000144 -0.17699043 0.021180278 0.08909797 -0.10738854 0.1460724
-0.099888295 -0.107023455 0.032437824 0.07547637 0.17069748 -0.040526435 0.09019618 0.06644726
-0.104735196 -0.028925983 -0.05818906 0.005447508 0.0722022 0.002616647 -0.16122778 -0.04628683
-0.10797909 -0.081389345 -0.18422553 -0.099594176 -0.03131462 0.17089811 0.11692288 -0.046394467
-0.060773205 -0.04155514 -0.109608434 0.16134302 -0.01068616 0.19520257 0.0070979237 -0.21115944
-0.025465775 -0.12562053 0.046633665 -0.026774306 0.04657771 0.065016724 -0.028202806 0.05008459
0.11075541 0.09394459 -0.115633495 -0.053006887 0.07628266 0.017103942 0.17204899 -0.14534026
-0.0562015 -0.042397782 -0.11726257 0.029435622 -0.02397321 -0.0010590717 0.19610015 0.20391457
-0.1156295 -0.015960092 0.09213503 -0.12263923 0.055434205 -0.041883655 0.0028008919 -0.054610264
-0.04924894 0.06495145 -0.042094238 0.042037282 -0.17067142 0.09191748 0.123262964 0.07849833
0.076064795 -0.043780863 -0.19840947 -0.014324847 -0.029304713 -0.0013144102 -0.11104205 0.07366574
0.039076224 0.03799062 -0.0654767 -0.02831244 -0.08878033 0.12153165 -0.10902545 -0.10001588
0.04450885 -0.089416824 -0.0689099 -0.021314478 -0.010046379 -0.045748144 -0.030116206 -0.08694489
0.07126657 0.11306479 -0.001905428 -0.016693648 -0.036585063 -0.022937573 -0.047481243 0.0055089793
0.032377195 -0.014634251 0.10263445 -0.12857759 -0.15988003 -0.13258725 -0.0043654866 -0.16833802
0.07770871 -0.02679187 0.13355787 -0.031832233 -0.08185769 0.006135658 -0.053925887 -0.105756976
0.0779824 0.0727007 0.04123305 -0.0010621843 0.0030546167 0.18629482 -0.019012082 -0.029473731
-0.043181825 -0.030803911 0.14503796 0.1456002 0.21467187 0.08465272 -0.011587161 0.15138741
-0.070280805 -0.0013313091 -0.04762599 0.10726926 -0.11056324 0.015426456 -0.0086311195 0.0014976504
-0.11936386 -0.12695362 -0.04505781 0.04675437 0.19392008 0.08894653 0.036010332 0.043631494
-0.05572811 0.060164887 -0.05737935 -0.0330369 -0.038770128 0.05347327 -0.2043648 0.0028578849
-0.21006404 -0.013964073 0.04714028 -0.008084924 0.19258724 -0.034059674 0.103155784 2.2929185e-05
0.21671411 0.16849501 -0.20564888 0.1049459 -0.051756583 -0.06428135 -0.0057022357 0.121909596
-0.06961941 -0.11510917 0.1934727 -0.035503056 -0.024980748 -0.06387335 0.19383553 0.07891413
-0.03892042 0.21569715 -0.31028938 -0.08878165 -0.012402036 -0.06336126 0.17830051 0.13128363
-0.0930411 0.08284757 -0.05204234 -0.08659866 -0.08751284 0.09187315 0.20293316 0.06003317
0.10959993 0.020655164 0.094634354 -0.044461306 0.16526781 0.15531705 -0.14758402 0.22933245
0.094775625 0.022581102 -0.05325329 -0.049168393 -0.1049903 -0.045862753 -0.007053674 -0.061700482
0.13134085 -0.06813255 -0.03569942 -0.073137924 -0.021083396 0.09312655 -0.15322381 -0.018546171

network_body._body_endoder.seq_layers.2.bias f4 [128]
00000000: 4d4e 623c f739 ef3c 30dd 513c 247b 53bc
00000010: 8fe2 f13c afb9 e53c ea8c 913c 1de7 113d
00000020: 16ad 323d b338 76bc 8c30 d63c 9ebf 9e3b
00000030: 7825 0a3d b199 213b c50c ac3c 907a 293d
00000040: f19c c63b 30c7 893c 6eb6 c13c e4dc a43b
00000050: d286 fd3c 638c d63c 009d c33c b294 8c3c
00000060: 64cb 93bc f00f a73c 464f 5b3c 4b8d f73c
00000070: 59c5 ad3c 2363 3b3d ae73 883c 8e26 3a3c
00000080: a597 743c e21b 6c3c f7e2 943c 7456 ee3c
00000090: d44a 973c 4e18 4c3c 3878 9d3c a006 a8bc
000000a0: 301e 9d3c 0e0e ec3c 14ed c73c 2e2d 083d
000000b0: 57a3 b83c cc64 873c dbae 8f3c c389 d8ba
000000c0: 84d9 9a3c 9d47 3e3c d659 45bc 8f50 313d
000000d0: dd7f be3a 65ad 863c 3b0a 7e3c ebc5 5b3c
000000e0: 6cd1 543c 7920 393c 86d5 733c 9d89 093d
000000f0: 5cd4 bd3b 513d 3c3d 350e 133c 647b c63c
00000100: eb61 7b3c 57bb 883c be68 523c 2c49 26bc
00000110: 7b50 7d3c 6ecc abbb 28af 833c d5be d63c
00000120: 5d9d 9b3c a58d 9b3c d7ef 7a3b 1baa 9f3c
00000130: 86c3 743c 006c 7d3c e78d 843c 987e 10bc
00000140: 540f e03c 405d e13c 375d 443c 06e2 a83c
00000150: 9e56 e83c 6560 d63b 05dd 9b3b b0a6 f63c
00000160: 1477 973c afbc 4ebc abc7 ae3c 2727 653c
00000170: 847a 0fbb 2fc5 b13c e404 863c ba66 b5bb
00000180: 0f27 803c b39f f23c 21f2 4d3c 2e60 a33c
00000190: 1d32 e33b 4ae3 e43c 9988 0c3c f16d 53ba
000001a0: 5e7f ba3c 5878 9d3c 7d05 6abc e6e7 013d
000001b0: c146 a83c dd8b d83a e96f be3c 04f1 1abc
000001c0: 6a4d df3b 995f c83c ed42 043c 15d4 9a3c
000001d0: 7b7b 17bc a814 c23c de6c 2339 87a9 043d
000001e0: 6161 1f3c 22f5 003d c74e 8f3a 7d93 d73c
000001f0: e6ac ac3c 840b ad3c 5056 a7bc 9edf ddbb
0.013812614 0.029202444 0.012809083 -0.012907777 0.029526977 0.028042642 0.017767388 0.035620797
0.0436221 -0.015028167 0.026146196 0.00484462 0.03372714 0.0024658258 0.021002183 0.04137665
0.0060611893 0.016818613 0.02364656 0.005031215 0.030948076 0.026189988 0.023878574 0.017160747
-0.01804132 0.020393342 0.0133855995 0.03021874 0.021212267 0.04574884 0.016656723 0.011361731
0.014928733 0.014410945 0.018174632 0.029093958 0.018468298 0.012456967 0.019222364 -0.020510972
0.019179434 0.028815296 0.02440504 0.03324621 0.022538824 0.016527556 0.017539432 -0.0016520548
0.018902548 0.011613754 -0.012045344 0.043289717 0.0014533956 0.016440103 0.015505369 0.013413887
0.012989383 0.011299246 0.014882451 0.033578504 0.0057931375 0.045956913 0.008975555 0.02422876
0.01534317 0.016690893 0.012842355 -0.0101492815 0.015461083 -0.005242876 0.016074732 0.026214043
0.018995935 0.01898844 0.0038289928 0.019490292 0.014939195 0.015467644 0.016180946 -0.008819245
0.027351059 0.027510285 0.011985115 0.020615589 0.028361615 0.006542253 0.004756572 0.03010878
0.018489398 -0.012618228 0.021335443 0.013986385 -0.0021893093 0.02170047 0.016359754 -0.0055359276
0.015643625 0.029617166 0.012569935 0.019943323 0.006933464 0.027940411 0.008577489 -0.0008065394
0.022765812 0.019222423 -0.014283535 0.031715296 0.02054155 0.0016521175 0.023246722 -0.009456877
0.0068146484 0.024459647 0.008072597 0.018899957 -0.009245749 0.02369149 0.00015585448 0.032388236
0.009727807 0.031483777 0.0010933512 0.026315445 0.021078538 0.021123655 -0.0204269 -0.006771042

action_model._discrete_distribution.branches.0.weight f4 [2, 128]
00000000: c06a f5bc 70d5 44bd d056 173d 9b88 0a3d
00000010: a021 8b3d cca4 8e3d b3ab 363d c18e 60bd
00000020: c658 95bd d153 123d 5174 25bd 78d7 d3bc
00000030: 7166 61bd 2fbf 163c 6341 373d 4b4f 0fbd
00000040: 90e7 d7bc 9562 15bd 99a1 c6bc 39d2 30bd
00000050: 3860 44bd a3b1 6b3d dc68 48bc 6f5b 2f3d
00000060: 1cd2 b83c e1c0 d43c 93a3 eabc 1eb7 d23d
00000070: 9a30 edbb 320d 67bd 1da6 013d 1a88 febb
00000080: 08d0 7b3d 6e2c 31bc f080 82bd 5d67 c1bc
00000090: db60 193d 203f 643c 8c9e 183d 26df e43b
000000a0: 1edc 1bbd 01dc 10bd 8420 773d c245 c9bc
000000b0: ed80 48bd b4b9 1b3d c606 753d 3748 e1bc
000000c0: 5c06 313d 8fb1 25bd 3c5b b3bc ba5d 75bd
000000d0: 887a 4c3d 8b56 04bd 632d 8dbc f103 533c
000000e0: 01c5 f2bc 6999 e13c 6a86 123d 8efb 19bd
000000f0: 0b61 c6bc 1dd4 e4bc d86a b6bc e7f7 2f3d
00000100: 93f8 063d 61f8 a83c 5cd9 1dbd 2066 843c
00000110: eda1 033d ba93 f1bc 34dc 223d ca45 8abd
00000120: 95d6 4c3d a086 51bd 9d68 0cbd 49e5 293d
00000130: 1596 353d 6704 1ebd 707f 1a3d fcba 0fbc
00000140: e157 42bd eae8 bbbc fc3f 823c 18d4 8ebd
00000150: 7184 06bd 7a40 0fbd d267 06bd 880f e1bc
00000160: 9632 97bc 10cc 9b3c 5167 5f3d 9f02 55bc
00000170: eaea f6bc c646 0cbd b4f1 0a3d d982 fabc
00000180: 7423 5b3d e7f7 303d fbbd 123d 64a5 b1bc
00000190: 10d6 b7bc cc88 c3bc 57d3 0d3c ffc8 b43c
000001a0: 042e 3e3d c133 95bd 94ee 913c ef96 47bd
000001b0: 2527 b93d f386 603b 1edd 34bd 09e3 b93c
000001c0: f02f 1b3c 5e0b 4c3d 5163 ccbc 7c7c 5ebd
000001d0: 2509 ddbc dc52 383d bb13 91bb fc7f a5bd
000001e0: c9a4 34bc 903d 743d 0234 93bc 1261 b8bd
000001f0: eaa4 33bd a741 7f3d 77c4 f73b ce80 8ebc
00000200: 0aea 173d c785 383d bf7e f0bc 0f04 e3bc
00000210: aec4 6fbd 5af0 85bd db1e e6bc a602 913d
00000220: ade7 633d 716e 62bc 7694 153d 910b 003d
00000230: 4dd5 133d 70d5 eb3b b612 68bd ed16 0c3d
00000240: 644b a43c 64a7 233d 5bf6 1a3d 8fc0 0d3d
00000250: b093 dc3c 189c 54bd 4537 0c3c 2c49 27bd
00000260: 27d5 84bc 8f03 5cbd e4b1 0c3d 091f c4bd
00000270: 86b7 95bc 90c1 813d c768 2abd 2fec 083c
00000280: b3e3 76bd 2e35 af3c 27d1 713d cc00 8e3c
00000290: acd6 15bd f6b7 fbbc 9d10 ebbc c708 35bc
000002a0: 9757 b63c c9be 433d 4541 76bd 1f47 303d
000002b0: b0ba 553d 4a99 dfbc 0ad6 6ebd ddff 593c
000002c0: 60ba 05bd 3883 1d3d 1004 903c ddde 693d
000002d0: 4890 54bd e8ff 153d 5983 0d3d 47c7 d1bc
000002e0: 6145 f43c f0fa 05bd e6b2 02bd 93e6 693d
000002f0: b70b 163d 594e 083d 465e 013d 3ecc 38bd
00000300: cb2d 10bd f2f0 05bd 1b64 183d d961 eabc
00000310: 1d01 e4bc 2520 7b3c 5dc5 dabc c4c6 903d
00000320: 83da 4bbd 7e40 613d 7937 ed3c 49ca e9bc
00000330: e87e 34bd 6026 3e3d 2227 dbbc 14d4 5b3c
00000340: 9916 383d f6c3 c83c 9a60 a1bc e93b 823d
00000350: f3a9 ca3c 9dc5 9c3c ec94 083d 2007 c93c
00000360: f245 d93c fa7c a9bc ea17 4abd d5f0 0abb
00000370: 1b46 a43c 6e7d 133d d970 d9bc 2524 a93c
00000380: e7a9 23bd d930 43bd 5ada debc 7c65 b03c
00000390: 231a 073d ff14 b23b 8c7d e7bc ddb1 5cbc
000003a0: 3a16 75bd 9635 4c3d ec13 31bb 92e7 4d3d
000003b0: 68bc 98bd d020 c0bc ce5e 3a3d 6a93 6cbc
000003c0: df13 cb3b 2c9a 7fbd 0779 f33c 828f 833d
000003d0: ec85 ae3c fe10 32bd 9e2f 563b 602b 4c3d
000003e0: 7761 033c 14ac 61bd 8bcc ad3c 21cb 913d
000003f0: 5dfa 463d 56c8 7ebd c9a1 2abc 9905 393c
-0.029958129 -0.048055112 0.036948025 0.033821683 0.06793523 0.06965026 0.04459734 -0.05482364
-0.07292323 0.035724465 -0.04039413 -0.02585958 -0.055029336 0.009200855 0.044740092 -0.03498773
-0.026355535 -0.03647097 -0.024246978 -0.043169234 -0.047943324 0.057542454 -0.012232032 0.042811807
0.022561125 0.025970878 -0.028642451 0.10288833 -0.00723846 -0.05640907 0.03165256 -0.0077676894
0.06147769 -0.0108138155 -0.06372249 -0.023608858 0.037445884 0.013931066 0.037260577 0.006984609
-0.038051717 -0.035366062 0.060333744 -0.024569396 -0.04895108 0.038018897 0.059820913 -0.027500255
0.043218955 -0.040452536 -0.02189409 -0.059903838 0.049921542 -0.032309096 -0.017233556 0.012879358
-0.029634954 0.027538972 0.03577272 -0.037593417 -0.024216196 -0.027933175 -0.022267744 0.042961027
0.032951903 0.020626249 -0.03853737 0.016161978 0.032136846 -0.029489387 0.039760783 -0.067515925
0.05000933 -0.05115378 -0.034279454 0.04147843 0.044332583 -0.038578417 0.03771919 -0.008772608
-0.04744709 -0.02293821 0.01589965 -0.069740474 -0.03284115 -0.0349736 -0.032813855 -0.027473226
-0.018456738 0.019018203 0.05454189 -0.013001113 -0.030141313 -0.034247182 0.033921912 -0.030579971
0.053500608 0.043205168 0.03582571 -0.02168531 -0.02244094 -0.02386894 0.008656344 0.022068499
0.046430603 -0.07285262 0.017813958 -0.048727926 0.09040669 0.0034260124 -0.044156186 0.022691267
0.009471878 0.049815528 -0.024949702 -0.054317936 -0.0269819 0.045000896 -0.004427401 -0.08081052
-0.011025616 0.059629023 -0.017969135 -0.0900289 -0.043858446 0.06231847 0.007561262 -0.017395403
0.03708843 0.045049455 -0.029357312 -0.027711896 -0.058537178 -0.06539984 -0.028090885 0.07080583
0.055640865 -0.013820277 0.036518537 0.03126103 0.03609209 0.0071970746 -0.05665847 0.03420155
0.02005548 0.039954558 0.0378326 0.034607466 0.026925892 -0.051906675 0.008558099 -0.040841267
-0.01621492 -0.05371433 0.034349337 -0.09576232 -0.018275987 0.06335747 -0.04160383 0.008357092
-0.060275745 0.021387663 0.059037354 0.017334364 -0.03658168 -0.030727368 -0.028694445 -0.011049456
0.022258563 0.04778937 -0.06012084 0.043036576 0.052179992 -0.027294774 -0.058309592 0.0133056315
-0.032648444 0.038455218 0.017580062 0.057097305 -0.05189541 0.036621004 0.03454909 -0.025607718
0.029818239 -0.032710016 -0.031908892 0.05710466 0.036632266 0.033277843 0.031584047 -0.045116656
-0.03519992 -0.032700486 0.037204843 -0.02861111 -0.027832562 0.015327488 -0.026705438 0.070691615
-0.049768936 0.054993145 0.028957115 -0.02853884 -0.04406634 0.046423316 -0.026752058 0.013417263
0.044943426 0.024507504 -0.019699384 0.06359083 0.024739241 0.019137198 0.033345148 0.02453953
0.02652261 -0.020689476 -0.049339212 -0.0021200676 0.02005296 0.03600829 -0.026543068 0.020647118
-0.039956953 -0.047654007 -0.027203728 0.021532767 0.03298391 0.005434632 -0.028258108 -0.01347014
-0.05983565 0.04985579 -0.002701993 0.05026967 -0.07457811 -0.023453146 0.04550057 -0.014439443
0.006197437 -0.06240289 0.029720796 0.06423856 0.021304093 -0.043473236 0.003268219 0.049846053
0.008018843 -0.055095747 0.021215698 0.07118822 0.04857861 -0.062202774 -0.010414549 0.0112928385

action_model._discrete_distribution.branches.0.bias f4 [2]
00000000: 75b8 ff3b 6fb8 ffbb
0.0078039714 -0.0078039686

exp_avg f4 [128, 59]
00000000: 5ff3 0438 6918 1439 719c b938 0000 0000
00000010: 9a20 8db7 4faa b237 b210 0039 f87a f738
00000020: 0000 0000 06a2 b9b7 3b6c 4639 38df 88b7
00000030: 4da6 b938 0000 0000 9b25 4ab7 b68a 8938
00000040: 573b 8539 4062 74b8 0000 0000 f3f2 bbb7
00000050: 3a9c 8739 d1e3 7eb8 ef47 8538 0000 0000
00000060: 3c24 1bb7 77fd be38 e620 1f39 bb1e 9c37
00000070: 0000 0000 b94c 93b7 b3a3 3e39 2d68 43b8
00000080: d059 0439 0000 0000 715e 94b7 7935 e038
00000090: 3244 1039 5c24 8e37 0000 0000 90f6 24b7
000000a0: 4028 e638 eed8 0c39 5bb3 9137 0000 0000
000000b0: 6340 f1b7 cf18 c538 df0b 5039 38d3 01b8
000000c0: 0000 0000 8aba 86b7 cf18 c538 df0b 5039
000000d0: 38d3 01b8 0000 0000 77bc 05b8 35a2 06b5
000000e0: 0000 0000 c755 72b9 0dff 1c38 0f4e f139
000000f0: 6b3b 9c3a 3a86 8339 0000 0000 65f6 1338
00000100: 13a6 ba39 64bb 9e3a 4d2e b039 0000 0000
00000110: 94e0 7037 7d87 a43a b2f7 cf39 4aac 8339
00000120: 0000 0000 c176 8838 95e4 ec39 8f1c c83a
00000130: 9053 9eb8 0000 0000 9fa5 8d37 193e b33a
00000140: d6a5 ce39 7447 1439 0000 0000 85ce bb38
00000150: f93e 413a bc03 5f3a 8c3c a539 0000 0000
00000160: 2a22 6834 bb4e 9a3a ac56 5f39 d76d 063a
00000170: 0000 0000 33fc b538 ffdd 6e3a c880 493a
00000180: ba08 6a39 0000 0000 e776 5f37 8614 4f3a
00000190: 5ecd 533a 2afe 9f39 0000 0000 c708 2538
000001a0: 9ad1 4b3a 5562 a23a 52aa edb8 0000 0000
000001b0: 9c20 2cb8 9ad1 4b3a 5562 a23a 52aa edb8
000001c0: 0000 0000 6ed7 feb7 8e2c 3eb7 0000 0000
000001d0: 9455 b4ba 5fb7 9e39 3783 f5b8 f98c 183a
000001e0: 35e0 3139 0000 0000 66e8 32b8 55be a1b8
000001f0: ae57 fe39 5682 6d39 0000 0000 a7f5 72b8
00000200: 7dbf de39 72e5 2638 2e1a 3239 0000 0000
00000210: 8784 d4b7 a026 eb38 d9a1 273a 7590 f5b8
00000220: 0000 0000 8b03 66b8 0e47 173a c02a 50b8
00000230: fa81 e038 0000 0000 3a5b 94b7 e178 8239
00000240: 0de4 bc39 e6c4 d437 0000 0000 8549 5cb8
00000250: 56e7 d639 3f4c bbb7 b376 8139 0000 0000
00000260: 8133 f8b7 067e ac39 1b18 a639 4c9c 3db7
00000270: 0000 0000 0222 19b8 4659 6a39 754c bb39
00000280: 2081 6138 0000 0000 056d 8ab8 2da3 8e39
00000290: 387d 173a b9e8 61b9 0000 0000 462f 8eb8
000002a0: 2da3 8e39 387d 173a b9e8 61b9 0000 0000
000002b0: e2f6 fab8 c308 bdb6 0000 0000 9493 27ba
000002c0: 0659 d838 8d10 a438 1f7e 9ab7 9e13 08b7
000002d0: 0000 0000 ba1b b036 af2f a438 04c9 c2b6
000002e0: 3752 aeb7 0000 0000 a026 c236 1bff c838
000002f0: 9176 17b8 0baa 06b7 0000 0000 5059 d136
00000300: 8dd4 d638 5332 d3b8 ae98 5138 0000 0000
00000310: a2ec f036 71a9 7938 fdd3 1937 9e82 8eb7
00000320: 0000 0000 57d2 f336 9b51 bd38 9842 7db8
00000330: 0cf9 b637 0000 0000 376b 9336 cb12 8538
00000340: 77b4 2737 216b b6b7 0000 0000 3e45 8237
00000350: 0bb9 b938 9bfc 97b8 4564 1538 0000 0000
00000360: 52d9 3836 928e 8a38 5d1a 11b8 bab4 a937
00000370: 0000 0000 79db 9f37 de68 aa38 ec5c 85b8
00000380: 3ec5 0e38 0000 0000 7291 0d36 de68 aa38
00000390: ec5c 85b8 3ec5 0e38 0000 0000 f407 9e37
000003a0: bcd7 1ab6 0000 0000 5ea7 a5b5 93d3 7937
000003b0: 9bdb ee38 d503 c0ba 4987 deb9 0000 0000
000003c0: f408 9738 e4c3 0139 bf89 aaba 59cd 1cba
000003d0: 0000 0000 8fcf de38 97e4 8cba 2aa7 90b9
000003e0: 38a6 deb9 0000 0000 a70e 0c38 aa53 76b9
000003f0: 9fa8 f2ba 99ec a239 0000 0000 6e25 dd38
3.169791e-05 0.00014123473 8.850627e-05 0.0 -1.6823691e-05 2.129856e-05 0.00012213251 0.000118007825
0.0 -2.2129167e-05 0.0001892307 -1.6316408e-05 8.852463e-05 0.0 -1.2048894e-05 6.558506e-05
0.00025411948 -5.8265636e-05 0.0 -2.240527e-05 0.00025865604 -6.077049e-05 6.355333e-05 0.0
-9.247156e-06 9.1071175e-05 0.00015175677 1.861096e-05 0.0 -1.7559492e-05 0.00018180795 -4.6588644e-05
0.00012621959 0.0 -1.7686953e-05 0.000106911124 0.00013758315 1.694465e-05 0.0 -9.832569e-06
0.00010974752 0.00013432253 1.7368866e-05 0.0 -2.8759421e-05 9.398313e-05 0.00019840848 -3.095271e-05
0.0 -1.6060909e-05 9.398313e-05 0.00019840848 -3.095271e-05 0.0 -3.1885193e-05 -5.015493e-07
0.0 -0.00023110873 3.7430833e-05 0.0004602526 0.0011919563 0.00025086274 0.0 3.5277004e-05
0.0003560042 0.001211029 0.00033603833 0.0 1.4357403e-05 0.0012552586 0.00039666664 0.00025114632
0.0 6.507105e-05 0.00045183735 0.00152673 -7.549592e-05 0.0 1.6885633e-05 0.0013675123
0.0003941494 0.00014140998 0.0 8.955322e-05 0.00073717494 0.00085073314 0.00031516363 0.0
2.1619113e-07 0.0011772731 0.00021299225 0.0005128062 0.0 8.677728e-05 0.00091120595 0.00076867314
0.0002231923 0.0 1.331952e-05 0.00078994816 0.00080796133 0.0003051621 0.0 3.934724e-05
0.00077750685 0.0012388924 -0.00011332765 0.0 -4.1038365e-05 0.00077750685 0.0012388924 -0.00011332765
0.0 -3.0379477e-05 -1.1335256e-05 0.0 -0.0013758414 0.0003027273 -0.00011706951 0.00058193464
0.00016963559 0.0 -4.2654945e-05 -7.71253e-05 0.00048511982 0.00022650635 0.0 -5.7926078e-05
0.0004248581 3.979117e-05 0.00016985156 0.0 -2.5334082e-05 0.00011212868 0.00063946616 -0.000117094176
0.0 -5.4839573e-05 0.0005770781 -4.963088e-05 0.000107053624 0.0 -1.7685456e-05 0.00024885594
0.00036028065 2.5364057e-05 0.0 -5.2520558e-05 0.0004098962 -2.2327642e-05 0.00024693235 0.0
-2.9587887e-05 0.0003290029 0.00031679947 -1.1301669e-05 0.0 -3.6509715e-05 0.00022349236 0.00035724384
5.3764437e-05 0.0 -6.600659e-05 0.00027205926 0.0005778852 -0.00021544368 0.0 -6.779893e-05
0.00027205926 0.0005778852 -0.00021544368 0.0 -0.000119669145 -5.633659e-06 0.0 -0.0006392535
0.000103162645 7.823212e-05 -1.841696e-05 -8.110799e-06 0.0 5.2484365e-06 7.829011e-05 -5.805052e-06
-2.07807e-05 0.0 5.786147e-06 9.58426e-05 -3.611163e-05 -8.026614e-06 0.0 6.2390827e-06
0.00010243906 -0.00010070638 4.9971677e-05 0.0 7.180105e-06 5.952403e-05 9.168868e-06 -1.6988542e-05
0.0 7.266451e-06 9.0274225e-05 -6.038192e-05 2.1812062e-05 0.0 4.393423e-06 6.345435e-05
9.995993e-06 -2.1745976e-05 0.0 1.5529451e-05 8.8559544e-05 -7.2472925e-05 3.561775e-05 0.0
2.7544634e-06 6.6069086e-05 -3.4595247e-05 2.0230527e-05 0.0 1.9056477e-05 8.125765e-05 -6.359242e-05
3.4039134e-05 0.0 2.1095298e-06 8.125765e-05 -6.359242e-05 3.4039134e-05 0.0 1.8838771e-05
-2.3073362e-06 0.0 -1.2342168e-06 1.48908175e-05 0.00011389629 -0.001464958 -0.00042443935 0.0
7.201909e-05 0.00012375374 -0.0013011022 -0.0005981527 0.0 0.00010624446 -0.0010749277 -0.00027590367
-0.00042466982 0.0 3.3392247e-05 -0.00023491555 -0.0018513388 0.00031075327 0.0 0.00010545073

exp_avg_sq f4 [128, 59]
00000000: 6638 4534 c916 2c34 51d6 cd33 0000 0000
00000010: 8b13 a032 4859 ba33 3ef8 7c34 df5e 0334
00000020: 0000 0000 f098 9532 c8c6 5e34 5071 0c34
00000030: 5586 ce33 0000 0000 6314 b232 5032 7833
00000040: af78 4234 f798 5834 0000 0000 0e95 9332
00000050: 89a8 4334 8d7c 2134 17fd d233 0000 0000
00000060: bfa2 e732 cbe9 6f33 d0e8 c733 0ad1 a034
00000070: 0000 0000 dd11 7d32 9d1e 2534 64da fd33
00000080: a217 2534 0000 0000 e924 2533 71bf 4b33
00000090: 29be 2233 8fc8 c834 0000 0000 e4f4 5e32
000000a0: bc36 9333 f19b c833 777f 8d34 0000 0000
000000b0: 5e86 5e33 fe6e 3d33 2cd4 6433 93f2 c234
000000c0: 0000 0000 80e8 3632 fe6e 3d33 a7e7 6433
000000d0: 1bf1 c234 0000 0000 5b5c 8233 9a64 b12f
000000e0: 0000 0000 d41d ac33 9ec6 9432 62c9 a236
000000f0: f83a 1736 60b3 9834 0000 0000 3d92 8434
00000100: 8c43 7436 c726 5436 6449 f534 0000 0000
00000110: a62b 8034 5118 bf36 8321 d235 3256 9c34
00000120: 0000 0000 202f 9734 52ee 3b36 c686 5036
00000130: 4ca5 9635 0000 0000 25d9 8234 fb53 9a36
00000140: 268e 2736 2566 a634 0000 0000 8d88 be34
00000150: a9e2 2136 b545 0236 ec51 2236 0000 0000
00000160: afc0 7534 2e8e 5a36 473e 4a36 9181 7035
00000170: 0000 0000 a767 0535 652b e735 1b5e f435
00000180: 894a 5636 0000 0000 f419 6434 824c 1f36
00000190: cf1d f635 920f 2336 0000 0000 bb57 2d35
000001a0: d98b d135 5ee5 0436 bd54 5236 0000 0000
000001b0: 3c02 5234 d98b d135 70e7 0436 1d53 5236
000001c0: 0000 0000 5a81 3535 4bf8 4932 0000 0000
000001d0: f853 b235 8912 8734 b23b dd35 ead9 7235
000001e0: 616a 2f34 0000 0000 d4a1 1534 bb83 8935
000001f0: 181c c635 457e 8834 0000 0000 e0db 0f34
00000200: 8c72 0136 c20d 3735 4a29 3134 0000 0000
00000210: 7bb7 2934 0643 2435 a633 b735 070b 2a35
00000220: 0000 0000 fcd3 1334 adeb b235 9c10 a235
00000230: 5bcc 3734 0000 0000 a786 5634 c976 ec34
00000240: 3d34 4935 e156 b735 0000 0000 a213 0c34
00000250: b32a 1935 78bf d335 40fa fc34 0000 0000
00000260: 076d 9634 3f90 a134 f00e 1135 7c61 ee35
00000270: 0000 0000 16dd fe33 6d9d d034 ccd8 3035
00000280: a199 c135 0000 0000 484f c134 6f28 8e34
00000290: 54f3 0b35 6caa f035 0000 0000 05bd ee33
000002a0: 6f28 8e34 bef5 0b35 83a9 f035 0000 0000
000002b0: 9fec c034 f55f 5b31 0000 0000 b324 fd34
000002c0: 239f d533 120a cd34 6f78 8934 ec48 9d33
000002d0: 0000 0000 034b bb32 55fa be34 f70e 9b34
000002e0: 6a75 db33 0000 0000 dede c732 6f95 f234
000002f0: 79b5 9f34 6979 ab33 0000 0000 2ad1 c432
00000300: 0a85 9e34 14ba 8934 bb72 3934 0000 0000
00000310: f097 e232 015e c534 f5a8 b134 f273 c733
00000320: 0000 0000 2417 f032 c9eb 7434 4bfa 8934
00000330: 7cf9 8334 0000 0000 4498 0633 9ac4 9a34
00000340: 6aec 9734 208c 4134 0000 0000 a27a 2333
00000350: a834 4234 1597 4f34 0063 b534 0000 0000
00000360: ac7c 1c33 a82e 8334 e38b 3b34 073e a634
00000370: 0000 0000 6d82 4b33 5293 3334 14ba 5634
00000380: fb1c c334 0000 0000 53f0 1f33 5293 3334
00000390: 4eba 5634 f71c c334 0000 0000 82bc 5a33
000003a0: 8fc2 2f31 0000 0000 4730 df33 00b1 fc32
000003b0: 36b3 9c36 7223 7836 ef23 2035 0000 0000
000003c0: 3028 f234 734c 3a36 da19 b736 dbde 6b35
000003d0: 0000 0000 40ac eb34 5060 b636 cc8b 3736
000003e0: 6b2e 2135 0000 0000 2381 0835 4963 b735
000003f0: 4fdf b136 0281 0836 0000 0000 c63a f234
1.8367572e-07 1.6027037e-07 9.58504e-08 0.0 1.8635339e-08 8.67754e-08 2.3559639e-07 1.223484e-07
0.0 1.741543e-08 2.0747677e-07 1.3079739e-07 9.6170574e-08 0.0 2.0731198e-08 5.778776e-08
1.8111562e-07 2.0172216e-07 0.0 1.7180835e-08 1.8222103e-07 1.5039605e-07 9.824924e-08 0.0
2.6965948e-08 5.5859157e-08 9.309008e-08 2.9954418e-07 0.0 1.47306e-08 1.537796e-07 1.18209556e-07
1.537542e-07 0.0 3.8450626e-08 4.7438736e-08 3.7891514e-08 3.7398829e-07 0.0 1.2977782e-08
6.855177e-08 9.341591e-08 2.635604e-07 0.0 5.181061e-08 4.410594e-08 5.3278356e-08 3.6311812e-07
0.0 1.0646659e-08 4.410594e-08 5.3296073e-08 3.6310743e-07 0.0 6.070396e-08 3.2267594e-10
0.0 8.0148e-08 1.7319788e-08 4.8514203e-06 2.2535078e-06 2.844272e-07 0.0 2.4693318e-07
3.639815e-06 3.1613033e-06 4.5688205e-07 0.0 2.3873616e-07 5.6950744e-06 1.5655972e-06 2.911998e-07
0.0 2.816023e-07 2.8003892e-06 3.1072864e-06 1.1223979e-06 0.0 2.437238e-07 4.5993343e-06
2.496768e-06 3.099423e-07 0.0 3.5489612e-07 2.4122803e-06 1.9412084e-06 2.4187566e-06 0.0
2.2887501e-07 3.256729e-06 3.0136596e-06 8.959551e-07 0.0 4.9697195e-07 1.7223471e-06 1.8206805e-06
3.193187e-06 0.0 2.1243596e-07 2.373738e-06 1.8337104e-06 2.4297956e-06 0.0 6.4575187e-07
1.5612414e-06 1.9803042e-06 3.1341763e-06 0.0 1.9558587e-07 1.5612414e-06 1.9804247e-06 3.1340817e-06
0.0 6.7615986e-07 1.1756195e-08 0.0 1.3286472e-06 2.5159196e-07 1.6483157e-06 9.046913e-07
1.6336845e-07 0.0 1.3935579e-07 1.0245634e-06 1.4760326e-06 2.5423847e-07 0.0 1.3397903e-07
1.9289173e-06 6.819283e-07 1.649943e-07 0.0 1.5806101e-07 6.119229e-07 1.3649594e-06 6.334598e-07
0.0 1.3767561e-07 1.3330624e-06 1.2074775e-06 1.7117547e-07 0.0 1.997929e-07 4.4044853e-07
7.495435e-07 1.3659848e-06 0.0 1.3045658e-07 5.7059077e-07 1.577645e-06 4.712074e-07 0.0
2.8019005e-07 3.009354e-07 5.4038446e-07 1.7760754e-06 0.0 1.1868012e-07 3.8857561e-07 6.588059e-07
1.4424332e-06 0.0 3.6006736e-07 2.647898e-07 5.2135624e-07 1.7930993e-06 0.0 1.1117121e-07
2.647898e-07 5.2139137e-07 1.7930728e-06 0.0 3.593495e-07 3.192324e-09 0.0 4.7151624e-07
9.947532e-08 3.8191553e-07 2.5605866e-07 7.3241466e-08 0.0 2.1803777e-08 3.5572398e-07 2.8881888e-07
1.021934e-07 0.0 2.3267997e-08 4.518474e-07 2.9748097e-07 7.9848924e-08 0.0 2.291252e-08
2.9526592e-07 2.5653628e-07 1.7271206e-07 0.0 2.6378956e-08 3.6762506e-07 3.3091752e-07 9.28775e-08
0.0 2.79502e-08 2.2810049e-07 2.570035e-07 2.4582175e-07 0.0 3.133779e-08 2.8827782e-07
2.8297956e-07 1.8025503e-07 0.0 3.806293e-08 1.8086814e-07 1.933334e-07 3.378591e-07 0.0
3.643497e-08 2.4434598e-07 1.7466623e-07 3.096504e-07 0.0 4.7383242e-08 1.6724269e-07 1.9997998e-07
3.6342666e-07 0.0 3.7238646e-08 1.6724269e-07 1.999808e-07 3.6342655e-07 0.0 5.0928527e-08
2.5576445e-09 0.0 1.0393028e-07 2.9417151e-08 4.670025e-06 3.6975512e-06 5.9656935e-07 0.0
4.5105253e-07 2.776066e-06 5.4568345e-06 8.786862e-07 0.0 4.389749e-07 5.435235e-06 2.7350497e-06
6.004472e-07 0.0 5.0851867e-07 1.3663458e-06 5.3010076e-06 2.0340672e-06 0.0 4.5118776e-07

exp_avg f4 [128]
00000000: bd11 8939 7e70 f93a a154 263a 23dd 5838
00000010: ebb7 e8ba f699 113b 0788 6e3a 3366 80ba
00000020: 2fbf 093b ed8b 563a 75c5 843b c397 0eba
00000030: 8a8e 2c3b 13c4 f339 411a 3dbb 7ac2 9b39
00000040: cccc e33a 78a1 b8b9 fe8a 4bbb 3b66 fdb9
00000050: f815 373b c406 503a fd6a 6e3b cf6c 133b
00000060: 6029 80ba 99a9 bab9 969e 36bb 0278 bab8
00000070: 5810 573a 82ed 18bb 960c 7aba a362 33bb
00000080: 0b20 e939 55c2 41ba ad9e 3dbb fe40 48bb
00000090: c626 d8bb 1a30 a539 af5b c1b9 61d7 08bb
000000a0: 3a02 f838 df88 d63a c800 fc3a 49e3 49bb
000000b0: c731 c53a 544f 87ba 0e38 eab6 ea28 903a
000000c0: 7555 723a 44e9 2239 d416 0539 9700 3eba
000000d0: 132d d3b9 4219 13bb 10dd 9fbb 3bf2 9339
000000e0: 3930 903b ebc6 35bb 5cb2 243a 1356 82bb
000000f0: 8297 9cba a653 08bb d248 a23a 590a 4c3b
00000100: b582 1639 edb1 403b 8397 103b 6b99 003b
00000110: 37b4 73bb 3231 4a3a 6c53 cab9 e087 143a
00000120: 0b1b afba 8a5d 0ebb 9259 423b a884 f938
00000130: 5cbf ba3a 8b36 f6ba be67 a6ba 572a 8fb8
00000140: 0a70 dd3a 6b04 c839 8249 afba 5478 0eba
00000150: 7eb4 b43a 1569 8db8 bf73 8cba 6487 b5ba
00000160: 3c3e 8939 dd21 5bba 4341 dd39 6a42 093b
00000170: 039f b1b9 fe93 7638 8f94 d8ba 988c 8f39
00000180: f0fa 673a c7a2 b238 6dbc 2e3b c648 f03a
00000190: 2196 ec3a 8967 a9ba f78b 6db9 7454 f838
000001a0: 97ba 0c3a db20 4e3b aa7a 9f3a ad10 e13a
000001b0: 81ee adba 9ccb f5ba e4a7 183b c2f2 4bbb
000001c0: aa4c 613b a717 e337 6f92 033a 770a 843b
000001d0: f046 b038 5b4c 13ba 6463 ab39 4761 8b3b
000001e0: 6f07 0cbb 71dc 43bb f30b 293a dfc4 39bb
000001f0: c18b 813b ebe4 143a 50dd 3a3a f8dd 563b
0.00026143892 0.0019030718 0.0006345008 5.1704363e-05 -0.0017755007 0.0022217012 0.0009099249 -0.0009796083
0.0021018495 0.0008184303 0.004051859 -0.00054394844 0.0026330077 0.00046494658 -0.002885476 0.000297088
0.001737976 -0.00035215518 -0.0031058188 -0.00048332088 0.0027936678 0.00079355785 0.0036379688 0.0022495275
-0.0009777956 -0.00035603045 -0.002786552 -8.891524e-05 0.00082040345 -0.0023334925 -0.00095386186 -0.0027372024
0.00044465097 -0.00073913235 -0.002893369 -0.0030556316 -0.006596419 0.0003150709 -0.00036880138 -0.002088033
0.00011825976 0.0016367695 0.0019226307 -0.0030805639 0.0015044742 -0.0010323324 -6.980269e-06 0.0010998521
0.00092443015 0.00015536422 0.00012692373 -0.00072480127 -0.0004027864 -0.0022445475 -0.0048786476 0.000282185
0.00440028 -0.0027736973 0.0006282681 -0.003977546 -0.0011947008 -0.0020801811 0.0012381321 0.0031134097
0.00014353807 0.0029402927 0.0022062964 0.0019622694 -0.0037186274 0.0007713019 -0.00038590597 0.0005665999
-0.00133595 -0.0021723234 0.002965544 0.000118979544 0.0014247703 -0.0018784566 -0.0012695713 -6.826658e-05
0.0016894352 0.00038150264 -0.0013373347 -0.00054348004 0.0013786701 -6.742977e-05 -0.0010715647 -0.0013849554
0.00026177044 -0.0008359233 0.0004220103 0.0020944127 -0.00033878544 5.87888e-05 -0.0016523766 0.00027379836
0.0008849343 8.518021e-05 0.0026662603 0.0018332235 0.0018050113 -0.0012924533 -0.00022654222 0.00011841292
0.000536838 0.003145269 0.0012167294 0.0017171107 -0.0013269932 -0.0018752697 0.002329343 -0.0031120037
0.003437797 2.7071523e-05 0.0005019074 0.004029568 8.405547e-05 -0.0005618983 0.00032689713 0.0042535397
-0.0021366735 -0.0029886032 0.0006448619 -0.0028346104 0.0039534275 0.00056798634 0.0007128315 0.0032786112

exp_avg_sq f4 [128]
00000000: e923 2535 47e9 2137 8160 6636 dc2b 7e35
00000010: 00e1 4137 979a 7037 ebd8 3436 7169 3336
00000020: b4a8 6937 058f cc36 2f52 8038 9b51 5935
00000030: fa0b bb37 87e1 9035 150d f237 b787 c934
00000040: 82ae 5f37 0baf cc34 cf56 a238 2d8b 6d34
00000050: c3fc 2938 77fe 2d36 78d8 2538 1904 ae37
00000060: 56ea 0d36 23ec 9f35 4068 0138 2210 1234
00000070: 053c 3136 dd06 6c37 9a1b cb35 f131 c537
00000080: 45bb de35 230c 0135 69a3 4138 ab6d 6e38
00000090: 8248 3039 badc e434 7af6 d736 cb7a 1237
000000a0: 5d82 9334 5fa5 1c37 fef6 3937 e602 2d38
000000b0: 1834 0a37 89c1 9e35 ecc1 ee32 3288 b236
000000c0: 5217 7036 9d7d 5d33 994c a933 415b 6836
000000d0: cce1 4e36 a46f 7437 b80d 9138 3eae 5034
000000e0: be76 8d38 4302 5e38 90ae a535 9792 1a38
000000f0: c492 b336 94c1 2738 3b5c a636 bde5 0138
00000100: 1f15 2834 c211 c037 9d52 9437 83ac 0e37
00000110: 8ca2 8738 77da 3e36 39a6 f634 a898 0836
00000120: 03cb 8137 c55d 4938 1a4f d137 0576 9933
00000130: ee4a 2837 f352 be36 8b59 db37 a804 ca32
00000140: 51d4 3837 3a68 1c35 949a dd36 b1a2 3d36
00000150: 8f61 0537 d7ad 4c32 5bd9 ad36 5df1 af36
00000160: d041 ba34 bc98 c136 5f06 da35 b15d 9e37
00000170: 192e ad35 f957 0633 f500 8b37 222d 6835
00000180: 4082 6e36 1993 6132 c43f 3638 ab6f a637
00000190: 0c1d 5737 d14a 3537 2739 0833 4ef2 b533
000001a0: b463 0135 d1ce 5e38 e93c 0f37 4f0b 5937
000001b0: 9f50 ca36 bb91 a437 ee07 6937 f802 2638
000001c0: 7b35 4438 eb20 e634 e2e8 6735 9d48 8238
000001d0: bd15 6433 b905 ce35 6f46 1334 1aa2 8738
000001e0: f9d3 8b37 3e8e 2c38 6814 1b36 9749 5b38
000001f0: a791 8838 c05c 0037 b947 6b35 66bd dc37
6.1519546e-07 9.650662e-06 3.4328843e-06 9.46862e-07 1.1556083e-05 1.4341108e-05 2.6948353e-06 2.6734454e-06
1.39271615e-05 6.0963234e-06 6.1188235e-05 8.095755e-07 2.2297714e-05 1.0794473e-06 2.885474e-05 3.7537913e-07
1.3332467e-05 3.8125322e-07 7.740931e-05 2.2122977e-07 4.0528143e-05 2.5927127e-06 3.9540668e-05 2.0744325e-05
2.1147039e-06 1.1915148e-06 3.0853087e-05 1.3603179e-07 2.6409991e-06 1.4068294e-05 1.5132712e-06 2.3507486e-05
1.6594792e-06 4.8073906e-07 4.6166973e-05 5.6845758e-05 0.00016811679 4.262891e-07 6.436193e-06 8.730868e-06
2.7475735e-07 9.336828e-06 1.1084367e-05 4.1249114e-05 8.23757e-06 1.1828243e-06 2.7795032e-08 5.3206686e-06
3.577636e-06 5.1569817e-08 7.883609e-08 3.462381e-06 3.0827823e-06 1.4569527e-05 6.916694e-05 1.9434898e-07
6.7455214e-05 5.293103e-05 1.2344262e-06 3.6852984e-05 5.3517015e-06 3.9996186e-05 4.9579226e-06 3.0969957e-05
1.5653903e-07 2.2896453e-05 1.7681445e-05 8.504026e-06 6.467578e-05 2.843937e-06 4.5942014e-07 2.0354437e-06
1.5472533e-05 4.8009464e-05 2.4951576e-05 7.146085e-08 1.0031026e-05 5.672098e-06 2.6148531e-05 2.3518012e-08
1.1016688e-05 5.82662e-07 6.6043085e-06 2.8257894e-06 7.950132e-06 1.1913889e-08 5.1811053e-06 5.243505e-06
3.4693085e-07 5.769629e-06 1.624412e-06 1.8878696e-05 1.2902921e-06 3.1279317e-08 1.6570537e-05 8.649241e-07
3.554058e-06 1.313017e-08 4.3451568e-05 1.9840742e-05 1.2821762e-05 1.080586e-05 3.1716947e-08 8.472544e-08
4.820133e-07 5.3121537e-05 8.537646e-06 1.2936841e-05 6.0294547e-06 1.9618185e-05 1.38897285e-05 3.958025e-05
4.677985e-05 4.286479e-07 8.6393095e-07 6.212408e-05 5.3105158e-08 1.5349862e-06 1.3716065e-07 6.4674954e-05
1.6668799e-05 4.114047e-05 2.3108678e-06 5.2282205e-05 6.512115e-05 7.65099e-06 8.764869e-07 2.631424e-05
