results/PressButton/IL-25ksteps-run1/PressButtonAgent/PressButtonAgent-19947.onnx (onnx, 83197 bytes, 11 tensors)

discrete_act_size_vector f4 [1, 3]
0	0x40400000	3.0
1	0x40400000	3.0
2	0x40000000	2.0

network_body._body_endoder.seq_layers.0.weight f4 [128, 6]
0	0x3d2f0a25	0.042734284
1	0x3eb53e83	0.35399255
2	0x3f1e191d	0.6175707
3	0x3eeb4efc	0.45958698
4	0xbe1e756d	-0.15474482
5	0xbe58f57f	-0.211874
6	0x3f27b7a3	0.6551458
7	0x3eb2c648	0.34916902
8	0xbf4fcd80	-0.81172943
9	0xbd251294	-0.04030092
10	0xbefca29a	-0.49342805
11	0xbec4a85a	-0.38409692
12	0x3ea79c8f	0.32736632
13	0x3e4dccfc	0.20097727
14	0xbf9d9290	-1.2310352
15	0xbe5f9464	-0.2183395
16	0xbd6dc78f	-0.058051642
17	0x3cf8b66c	0.030360423
18	0x3e3d38bf	0.18478678
19	0xbea28000	-0.3173828
20	0xbf00f97f	-0.503807
21	0xbeaffdfb	-0.3437346
22	0x3e593f41	0.21215536
23	0xbd806439	-0.06269116
24	0x3d88daeb	0.0668238
25	0xbea8c72c	-0.32964456
26	0x3ebea037	0.3723161
27	0x3f09cdc2	0.53829587
28	0x3f340a73	0.70328444
29	0xbe527f28	-0.20556319
30	0x3e87246e	0.2639498
31	0xbd270945	-0.040780324
32	0x3e94bd1d	0.29050532
33	0xbe5b1e14	-0.21398193
34	0x3ecc68b1	0.39923623
35	0x3e0c584b	0.13705556
36	0x3ee4395d	0.44575015
37	0x3f320f66	0.69554746
38	0xbdcde5c9	-0.10053594
39	0x3eb2d845	0.34930626
40	0x3f07db5a	0.5306908
41	0x3e1bb918	0.15207326
42	0xbe594388	-0.21217167
43	0xbe87f80f	-0.2655644
44	0x3ee71fcb	0.45141444
45	0x3f296e4a	0.6618391
46	0xbf3c6c4f	-0.73602766
47	0xbf28a669	-0.6587892
48	0xbf5143e7	-0.81744236
49	0x3f04e16c	0.51906466
50	0x3e9dfc8a	0.30856735
51	0xbde93be7	-0.113883786
52	0x3ea035e7	0.31291124
53	0x3f7ec67e	0.99521625
54	0x3b5933be	0.0033142413
55	0xbefee5f5	-0.49784818
56	0xbe0d281f	-0.13784836
57	0x3e4559b8	0.19272506
58	0xbe62b65f	-0.22139882
59	0x3eaf10be	0.3419246
60	0x3e9e70f5	0.30945554
61	0x3eddf99c	0.433545
62	0x3f0574a3	0.521311
63	0x3df49d13	0.11944022
64	0xbe061034	-0.13092119
65	0xbe3280bc	-0.17431921
66	0xbf658385	-0.8965381
67	0xbec87a7a	-0.39155942
68	0xbf0879bc	-0.5331075
69	0xbe37b8b1	-0.17941548
70	0xbef19019	-0.4718025
71	0x3f129d2e	0.5727109
72	0x3e74bf8b	0.23901193
73	0xbf2fcf7f	-0.6867599
74	0x3d982247	0.07428413
75	0xbdba639b	-0.091010295
76	0xbdd5634f	-0.10419332
77	0x3f8db66e	1.1071298
78	0xbeab1493	-0.33414134
79	0xbf15c7ec	-0.5850818
80	0x3e110c3e	0.14164826
81	0x3f0e3eef	0.5556478
82	0xbebb8c64	-0.36630547
83	0xbc09d42a	-0.0084124
84	0x3ec4a34a	0.3840583
85	0x3f101531	0.56282336
86	0xbe1b1615	-0.15145142
87	0x3f3d0c36	0.7384676
88	0x3e158b15	0.14603837
89	0x3e929153	0.286265
90	0xbf11d45e	-0.5696467
91	0x3f086371	0.53276736
92	0xbddea75a	-0.108717635
93	0xbf1b9de2	-0.60787785
94	0xbf119059	-0.5686088
95	0x3f165f83	0.5873949
96	0x3da43b4c	0.080191225
97	0x3d62cfbf	0.055373903
98	0xbe001f24	-0.12511879
99	0x3f0c86b4	0.5489304
100	0xbf381750	-0.7191057
101	0xbed24d30	-0.41074514
102	0xbe78fab5	-0.24314387
103	0x3f3d5a65	0.73966056
104	0xbc6192af	-0.013767882
105	0x3edf5eb2	0.43626934
106	0x3ea31b83	0.31856927
107	0x3f18b3bb	0.59649247
108	0xbd9a03e8	-0.07520276
109	0xbd8ec4fa	-0.06971164
110	0x3ef16b54	0.47152197
111	0xbf85918d	-1.0435044
112	0x3f0efe4f	0.55856794
113	0xbe620e17	-0.22075687
114	0x3e9f00d7	0.31055328
115	0xbeb90b17	-0.36141273
116	0xbbb75979	-0.005595383
117	0xbe8478bf	-0.25873372
118	0x3de5d953	0.11223092
119	0x3d95a13a	0.07306142
120	0x3e15e441	0.14637853
121	0xbdfaf3f0	-0.12253559
122	0xbed1d768	-0.40984654
123	0x3e419116	0.18903002
124	0x3ed01b49	0.40645817
125	0xbebe03cf	-0.3711228
126	0x3e2026ca	0.15639797
127	0xbbbb526f	-0.005716614
128	0xbf1a61b3	-0.6030533
129	0x3f22cb40	0.63591385
130	0xbd656414	-0.056003645
131	0x3e4e6e59	0.20159282
132	0xbf261d69	-0.64888626
133	0xbe0f4bd5	-0.13993771
134	0xbde854d4	-0.11344305
135	0xbf16b5ec	-0.5887134
136	0x3f4589a3	0.7716314
137	0xbdab3c9f	-0.08361172
138	0x3ee738fa	0.45160657
139	0x3f04f8ef	0.5194234
140	0xbeca7ad0	-0.39546824
141	0x3eef4ac8	0.4673674
142	0xbf24f80a	-0.6444098
143	0x3c4127f2	0.011789309
144	0x3e1c1a83	0.15244488
145	0x3e91813d	0.28418913
146	0x3ebce638	0.36894393
147	0xbe9cf002	-0.3065186
148	0x3eb761e1	0.35816863
149	0x3e8ceb7b	0.27523407
150	0xbdbd3172	-0.092379466
151	0xbe2e2c1a	-0.17009011
152	0x3ea73db0	0.3266425
153	0x3e999312	0.29995018
154	0x3ed46dd5	0.41490045
155	0xbee3d40e	-0.44497722
156	0xbf628520	-0.8848438
157	0xbc81a57c	-0.01582598
158	0x3f33f9fe	0.7030333
159	0xbe849a33	-0.25898895
160	0x3e8fcbdf	0.2808523
161	0xbea38f90	-0.31945467
162	0x3da91fdc	0.0825803
163	0xbf3d7e88	-0.74021196
164	0x3f4ba195	0.7954343
165	0x3e9cc206	0.30616778
166	0xbe373b88	-0.17893803
167	0xbddf27fc	-0.10896298
168	0x3d29f4c5	0.041493196
169	0xbe70c095	-0.23510964
170	0x3e0f7d8b	0.14012735
171	0xbe64d567	-0.22347032
172	0x3ec9b3ac	0.3939489
173	0x3e29c6d5	0.16579755
174	0xbea97be2	-0.33102328
175	0x3c82a282	0.01594663
176	0x3e672b2c	0.22575063
177	0x3ee87abc	0.4540614
178	0x3cc30acb	0.023808857
179	0x3e9fcaf8	0.3120954
180	0x3e9e9be6	0.30978316
181	0x3e6c721d	0.23090406
182	0xbdb9c737	-0.090712
183	0xbefa590b	-0.4889606
184	0xbe8cc564	-0.27494347
185	0x3f0cd30e	0.55009544
186	0x3e87c984	0.26520932
187	0x3e2d6a5e	0.16935107
188	0xbdf97a8a	-0.121815756
189	0x3ed10725	0.40825763
190	0x3e8467eb	0.25860533
191	0xbcb01a23	-0.021496838
192	0xbe1fcc18	-0.156052
193	0x3e968f6f	0.29406306
194	0xbe1385be	-0.14406487
195	0x3d992f3c	0.07479712
196	0x3e1f8fd1	0.15582205
197	0x3e262e15	0.16228516
198	0x3ef84e6b	0.48497328
199	0xbeb7d466	-0.35904235
200	0xbf8fa238	-1.122138
201	0xbea7a805	-0.32745376
202	0x3d912aa3	0.070882104
203	0x3dd53317	0.10410135
204	0xbee1198f	-0.43964812
205	0x3d58d86b	0.052940767
206	0xbe83d403	-0.2574769
207	0x3e9f42da	0.3110569
208	0x3f0f96e8	0.5608964
209	0x3e3e4414	0.18580657
210	0x3eecb6bc	0.46233165
211	0xbc893ef6	-0.016753655
212	0xbe52c8dd	-0.20584436
213	0x3f374442	0.7158853
214	0xbe09b064	-0.13446194
215	0xbf077b05	-0.5292209
216	0xbeb76713	-0.35820827
217	0xbe372057	-0.1788343
218	0xbe21df26	-0.1580778
219	0x3ec07fa0	0.3759737
220	0xbec65350	-0.38735437
221	0x3f5e0a02	0.8673402
222	0xbe89dec1	-0.2692776
223	0xbf8abfde	-1.0839803
224	0xbadf2989	-0.0017025928
225	0x3f203c2a	0.62591803
226	0x3e809ef5	0.25121275
227	0xbeb50721	-0.35357
228	0x3e2768b1	0.1634853
229	0xbeccab6a	-0.3997453
230	0x3dca5a00	0.098804474
231	0xbec5348f	-0.38516662
232	0x3ea8299c	0.32844245
233	0xbed1a033	-0.40942535
234	0xbf1b50c6	-0.60670125
235	0xbea7b547	-0.3275549
236	0x3d34bdc9	0.044126306
237	0x3f1e4f35	0.6183961
238	0x3edd81fa	0.43263227
239	0xbe398636	-0.18117604
240	0x3ed4d9a4	0.41572297
241	0xbed80108	-0.42188287
242	0x3edf1c62	0.43576342
243	0xbd57a2d1	-0.05264551
244	0xbf02af5f	-0.51048845
245	0xbedcf1d4	-0.4315325
246	0x3dc9bb4c	0.09850177
247	0x3e312287	0.17298327
248	0x3e7cfaf3	0.24705105
249	0xbed1ddd6	-0.4098956
250	0xbea05deb	-0.31321654
251	0xbf70308d	-0.9382408
252	0xbf0f2367	-0.55913395
253	0xbf22eea2	-0.63645375
254	0x3e81da51	0.25361875
255	0x3d7d0ea2	0.061781533

network_body._body_endoder.seq_layers.0.bias f4 [128]
0	0x3cfae53b	0.030626884
1	0x3d054ffc	0.032546982
2	0x3d38ee2f	0.045149025
3	0xbcb77222	-0.02239329
4	0x3d0b2083	0.033966552
5	0x3cd18e1b	0.025580456
6	0x3ce02bc3	0.027364617
7	0x3c0e14fd	0.008671996
8	0xbcda843f	-0.026674388
9	0xbcdab661	-0.026698293
10	0x3d1464b3	0.036228847
11	0x3c80b7d6	0.01571266
12	0xbb7ecd62	-0.0038879742
13	0x3b83c0c2	0.0040207813
14	0x3cdc3b9e	0.026883896
15	0x3c49b058	0.01231011
16	0x3cc386d9	0.023868011
17	0x3cad2cb3	0.021139478
18	0xbd06eb80	-0.032939434
19	0xbcfe962b	-0.031077465
20	0xbd003822	-0.031303532
21	0x3cc8f45d	0.024530584
22	0xbd1d9c24	-0.038478985
23	0x3c9072f3	0.017632937
24	0x3c0e8559	0.008698785
25	0xbc952f59	-0.018211054
26	0xbcf5c125	-0.029999325
27	0xbcd55b90	-0.026044637
28	0xbc704b32	-0.014666365
29	0x393f4f94	0.00018244825
30	0x3d1ffdf8	0.039060563
31	0x3cdd616c	0.027023993
32	0xbba046a1	-0.004891232
33	0x3d3589f4	0.044321015
34	0xbae8aa75	-0.0017750995
35	0x3cf28f2a	0.029609282
36	0x3b4b68c7	0.0031037794
37	0xbcdfe5c2	-0.027331237
38	0xbce57706	-0.028010856
39	0x3c3ed26a	0.011646846
40	0xbcaf03cb	-0.021364113
41	0x3d0e5ca3	0.034756314
42	0xbcb1e6c6	-0.021716487
43	0xbce56937	-0.028004272
44	0xbc00c3ef	-0.007859214
45	0xbd01bec9	-0.031676088
46	0xbc14b5e0	-0.0090765655
47	0x3d08e3c5	0.033420343
48	0xbcffa01e	-0.03120428
49	0xbb15b295	-0.002284204
50	0x3ca6f791	0.02038172
51	0xbcceef67	-0.02526064
52	0x3ca6c2cf	0.020356564
53	0xbd13bb13	-0.03606708
54	0xbc619e40	-0.01377064
55	0xbc9298d2	-0.017895136
56	0x3cc76801	0.024341585
57	0xbd066db3	-0.03281946
58	0x3cce9009	0.025215166
59	0xbc08eb15	-0.008356829
60	0x3d0cb39b	0.034350973
61	0x3cfde94e	0.030995037
62	0xbaf73290	-0.0018859673
63	0x3c141b82	0.0090397615
64	0x3c86e5a5	0.016466925
65	0x3c4e614a	0.012596438
66	0x3d11e1bf	0.03561568
67	0x3cd756fe	0.026286598
68	0xbceabc0d	-0.028654123
69	0xbcc2db65	-0.023786256
70	0xbcdb2736	-0.026752096
71	0x3c00867b	0.007844563
72	0xbce4971b	-0.027904084
73	0xbd035aca	-0.032069005
74	0x3ccd5770	0.025066108
75	0xbc81ee58	-0.015860721
76	0xbd1d50a1	-0.03840697
77	0xbb20b82b	-0.0024523835
78	0x3b2a5ba4	0.0025994563
79	0xbce49d96	-0.027907174
80	0x3c779d0d	0.015113127
81	0xbd0cb74c	-0.034354493
82	0xbc99f99a	-0.018795777
83	0x3cd3ea62	0.025868598
84	0x3cec92b1	0.028878542
85	0x3c10ec28	0.008845367
86	0x3d089e4d	0.033354092
87	0xbc9c6c80	-0.019094706
88	0x3cdfb46e	0.027307715
89	0x3d0bac59	0.03409991
90	0xbce6d2f4	-0.028176762
91	0x3c6f335b	0.014599646
92	0xbd0d526e	-0.03450244
93	0x3cd3690f	0.025806932
94	0x3cddf854	0.027095951
95	0x3cb776dd	0.022395546
96	0xbd0b24b2	-0.033970542
97	0x3d13e570	0.03610748
98	0x3cf3c71f	0.029758034
99	0x3d0b14b3	0.033955287
100	0x3ca9da8c	0.020734094
101	0x3d33758e	0.04381328
102	0x3ce7ba86	0.028287183
103	0x3cb473a1	0.022027792
104	0x3cb22ae1	0.021748962
105	0xbcb3ac2c	-0.021932684
106	0x3c5354f6	0.012898674
107	0xbcc3c7a1	-0.023898901
108	0x3cd01fc3	0.02540577
109	0x3c5a26f2	0.013314949
110	0xbcfe5ec7	-0.031051053
111	0x3d47dff5	0.048797566
112	0x3ccacc95	0.024755755
113	0xba83adca	-0.00100463
114	0xbcb99d57	-0.022658033
115	0xbc7ac45a	-0.015305603
116	0xbc9ae881	-0.018909695
117	0x3cd3606e	0.025802817
118	0x3cface3a	0.030615915
119	0x3ced7503	0.02898646
120	0x3cc36781	0.023853065
121	0x3d056adc	0.032572612
122	0xbbbdaf9e	-0.0057887575
123	0xbc7433b6	-0.014904907
124	0xbcbae687	-0.022815002
125	0xbc643844	-0.01392943
126	0x3ccecb31	0.025243374
127	0xbd01ead0	-0.031718075

network_body._body_endoder.seq_layers.2.weight f4 [128, 128]
0	0x3e0458f3	0.12924556
1	0x3ca7a6e6	0.020465326
2	0xbdb3ad56	-0.087732956
3	0xbcc14547	-0.023592604
4	0xbdd1e945	-0.10249571
5	0x3d0fa252	0.03506691
6	0x3c7daf58	0.0154837
7	0x3dd250db	0.10269328
8	0x3d4628cc	0.04837875
9	0x3d058cff	0.032605167
10	0x3e125bbf	0.14292811
11	0xbd3c3fc7	-0.04595926
12	0xbe0eb145	-0.1393481
13	0xbd302de1	-0.043012504
14	0x3d8b79b1	0.0681032
15	0x3d262174	0.040559247
16	0x3ca0b6a4	0.01961834
17	0xbd429d3d	-0.047513235
18	0x3d8cec97	0.068810634
19	0xbc6a2105	-0.014290099
20	0x3ccb437c	0.024812452
21	0xbe08fb25	-0.13377054
22	0xbd854ac3	-0.065084
23	0x3cb5248c	0.022112153
24	0x3e1a9e82	0.15099528
25	0xbca8e4f6	-0.02061699
26	0xbde24636	-0.11048548
27	0xbe1ca856	-0.1529859
28	0x3cc263df	0.023729263
29	0xbd4a716d	-0.049424578
30	0xbdc7b9de	-0.09752248
31	0xbd9d1ad6	-0.07671134
32	0xbd9c555d	-0.07633469
33	0xbd69b40d	-0.057056475
34	0xbd575de5	-0.05257978
35	0x3c759222	0.014988454
36	0x3e8f353c	0.27970302
37	0xbca762e1	-0.020432891
38	0xbd03e38c	-0.032199427
39	0x3d43fe40	0.047849894
40	0xbdbea788	-0.09309298
41	0x3dd73c41	0.105095394
42	0x3daad05e	0.08340524
43	0xbe34b354	-0.17646533
44	0xbe53c0d0	-0.20679021
45	0xbe2258a4	-0.15854126
46	0x3bf6bfc8	0.0075301863
47	0x3d8db4a1	0.06919218
48	0xbdb7cafc	-0.08974263
49	0xbcacf555	-0.021113077
50	0x3da5381e	0.08067344
51	0x3bfdaa58	0.007741254
52	0xbdd6b6ea	-0.10484107
53	0xbdcb76c4	-0.09934762
54	0x3c636c4d	0.013880801
55	0xbd2ee6b6	-0.04270049
56	0xbdf855b8	-0.121257246
57	0x3c70be82	0.014693858
58	0xbe22e9fb	-0.15909569
59	0xbd0568d8	-0.03257069
60	0x3d9eceec	0.07754311
61	0x3e56b6ae	0.20968124
62	0xbd97a2df	-0.07404112
63	0x3e9a5cb8	0.30148864
64	0xbd5d8d87	-0.05409005
65	0x3d321ec2	0.043486364
66	0x3e148a1f	0.14505814
67	0x3e29a2ee	0.16566059
68	0xbd89016b	-0.066897236
69	0x3cd80a33	0.02637205
70	0xbc72125a	-0.014774883
71	0x3d0d57ef	0.034507688
72	0xbe309e1e	-0.17247817
73	0x3c9f6296	0.01945619
74	0x3ccd04a9	0.025026636
75	0xbdbca657	-0.09211414
76	0xbcd4cfc2	-0.025977973
77	0xbda76cda	-0.08175059
78	0x3e018c31	0.12651135
79	0x3e0d6b5f	0.1381049
80	0xbccc7b0f	-0.024961023
81	0x3c3c3222	0.011486562
82	0xbd4e4ca4	-0.05036606
83	0x3c94f4f9	0.018183218
84	0xbd419af9	-0.047266934
85	0xbc0ddf02	-0.008659126
86	0x3e259f65	0.16174085
87	0x3e311a04	0.1729508
88	0x3e57a5eb	0.21059386
89	0x3d52bf14	0.051451758
90	0xbd0882b3	-0.03332777
91	0xbdc07aae	-0.09398399
92	0xbdaf2afe	-0.08553122
93	0x3dd9d614	0.10636535
94	0x3e04b655	0.12960179
95	0xbdb492a9	-0.08817036
96	0x3d4df1be	0.05027937
97	0x3bc4a8ac	0.0060015526
98	0x3ab03937	0.0013444786
99	0x3cbcda00	0.02305317
100	0x3e1d4d31	0.15361477
101	0x3d772716	0.06034001
102	0x3db85163	0.08999898
103	0x3d6e7595	0.058217604
104	0xbd32c4b9	-0.04364464
105	0xbe43696a	-0.19083181
106	0x3d923217	0.0713846
107	0x3c907aef	0.017636744
108	0xbd6fcd7d	-0.05854558
109	0x3dac6dc6	0.08419375
110	0x3c86d6bf	0.01645982
111	0xbc1767dd	-0.0092410715
112	0xbd7a4fcb	-0.061111253
113	0x3d028ee0	0.031874537
114	0xbd2eb9dd	-0.04265772
115	0xbe4d546e	-0.20051739
116	0xbce4e5dc	-0.027941637
117	0x3d70d242	0.058794267
118	0xbdb3b095	-0.08773915
119	0xbdf993c2	-0.12186386
120	0xbcbdd44e	-0.023172524
121	0xbce89fe8	-0.028396562
122	0x3e3c5bed	0.18394442
123	0xbdbb5f51	-0.091490395
124	0xbcf01a0f	-0.0293093
125	0xbda6e7d0	-0.081496835
126	0x3d81ecc6	0.06343989
127	0xbd3a8bbd	-0.04554342
128	0x3d11413b	0.0354626
129	0xbdc67601	-0.09690476
130	0xbde459fb	-0.11149975
131	0xbd8a6fe1	-0.067596205
132	0x3e162688	0.14663136
133	0xbdc68aa3	-0.096944116
134	0x3d5b132c	0.05348508
135	0x3d5285f2	0.05139727
136	0x3a85da6b	0.0010212188
137	0xbc950b61	-0.018193902
138	0xbd034882	-0.03205157
139	0xbbbbe931	-0.0057345857
140	0x3d2b775a	0.04186187
141	0x3e2a9da2	0.16661695
142	0xbdd9e24b	-0.10638865
143	0xbe1adf51	-0.15124251
144	0xbe3fe11b	-0.18738215
145	0xbda351b0	-0.07974565
146	0x3b9fd0b6	0.004877175
147	0xbddaef2f	-0.10690152
148	0x3d9b4962	0.07582356
149	0xbcb7ffbe	-0.022460815
150	0xbbce47bf	-0.006295174
151	0xbd07bc3f	-0.03313851
152	0x3d1cda38	0.038294047
153	0x3d0a08cb	0.033699792
154	0x3cf98e3a	0.030463327
155	0xbdc51ee9	-0.09625036
156	0x3cffe280	0.031235933
157	0x3e19e21d	0.15027662
158	0x3cec4f7e	0.028846499
159	0xbda5cf0c	-0.08096132
160	0xbdf09ef1	-0.11749066
161	0x3d4b61f8	0.049653977
162	0x3ca85476	0.020548087
163	0x3d078a1b	0.033090692
164	0x3db30b91	0.087424405
165	0x3b68f4fa	0.0035546408
166	0x3d860267	0.06543427
167	0x3c399be2	0.011328669
168	0x3d6c2e57	0.05766138
169	0xbe08f909	-0.1337625
170	0x3e032045	0.12805279
171	0x3adeb014	0.0016989731
172	0x3d927538	0.07151264
173	0x3d594d31	0.05305213
174	0x3db546a4	0.08851364
175	0xbc884446	-0.016634118
176	0x3e0de9f5	0.13858779
177	0x3c09e70f	0.008416905
178	0xbdad6f13	-0.08468451
179	0x3df0227d	0.11725328
180	0xbdd05200	-0.1017189
181	0x3e23dea3	0.16002898
182	0x3dcba427	0.09943419
183	0xbce33b6d	-0.027738297
184	0x3c3bd10b	0.011463414
185	0xbdb19c41	-0.08672381
186	0x3d9a7e08	0.0754357
187	0xbdfc15d7	-0.12308853
188	0xbd04849a	-0.03235302
189	0x3c029695	0.007970472
190	0xbd0eac1f	-0.034832116
191	0x3b808914	0.003922591
192	0xbe4cc3e6	-0.19996604
193	0x3db921c3	0.09039643
194	0x3d3de9a0	0.04636538
195	0xbd6b0aa8	-0.05738321
196	0x3d8a6274	0.0675706
197	0x3dbbc85f	0.09169077
198	0xbc9fcee5	-0.019507835
199	0x3e08914f	0.13336681
200	0x3cfe6e2d	0.031058395
201	0xbdc7e2ad	-0.09760032
202	0xba8be427	-0.0010672853
203	0x3e13a621	0.14418842
204	0xbccdf97e	-0.025143381
205	0xbe07cc15	-0.13261445
206	0xbd0e4b92	-0.03474004
207	0x3d0d4f35	0.034499366
208	0x3c7b404b	0.015335153
209	0xbd816250	-0.0631758
210	0x3e87eea0	0.26549244
211	0x3d1ef398	0.038806528
212	0x3db9b8d8	0.09068459
213	0xbdc43816	-0.0958101
214	0xbdeb9003	-0.115020774
215	0x3d90160d	0.07035456
216	0x3bdf5501	0.006815553
217	0xbdec8620	-0.1154902
218	0x3b176d80	0.0023106039
219	0x3dd34b0b	0.10317048
220	0xbbb9d481	-0.0056710844
221	0x3cdc7d5a	0.026915241
222	0x3d4d389a	0.050102808
223	0x3c9b9804	0.018993385
224	0x3dda9f39	0.106749006
225	0xbe1e5082	-0.15460399
226	0x3d8e0ece	0.069364175
227	0x3e22d040	0.15899754
228	0xbca7b30a	-0.020471115
229	0x3e0a2cb9	0.13493623
230	0xbcedb4a8	-0.029016808
231	0x3a5d9351	0.0008452433
232	0xbcafe6fc	-0.021472447
233	0x3e6fb81b	0.23410074
234	0xbd8a510c	-0.0675374
235	0x3d536d0e	0.051617675
236	0x3caa3cd0	0.02078095
237	0xbe32191d	-0.17392392
238	0x3e77705b	0.24163954
239	0xbd81fb94	-0.06346813
240	0xbe7af1d5	-0.24506314
241	0x3d399ec7	0.045317437
242	0x3cfdb27a	0.030968893
243	0xbd52664f	-0.0513671
244	0xbe126c8b	-0.14299218
245	0x3bd544c6	0.0065084426
246	0xbd49d472	-0.04927487
247	0xbe4f22d3	-0.20228128
248	0x3e13c01a	0.1442875
249	0xbe0de78e	-0.13857862
250	0x3d85ec09	0.06539161
251	0x3e349f7c	0.17638963
252	0xbd017922	-0.031609662
253	0xbda8fbde	-0.08251165
254	0x3b95af6f	0.0045680325
255	0xbd66321a	-0.056200124

network_body._body_endoder.seq_layers.2.bias f4 [128]
0	0x3cd9fbc0	0.026609302
1	0xbc8be422	-0.017076556
2	0x3c9b591f	0.018963395
3	0x3cf229fa	0.029561032
4	0x3ca873ce	0.020563032
5	0xbca64ccd	-0.020300293
6	0x3cb790d9	0.022407936
7	0x3c8a88ed	0.016910994
8	0x3cc0e416	0.02354626
9	0xbca2583a	-0.01981746
10	0x3c5ec902	0.013597729
11	0xbc8e4afe	-0.017369743
12	0x3c9b8dc4	0.018988498
13	0xbcbc3880	-0.02297616
14	0xbc653250	-0.013989046
15	0x3c4a4a51	0.01234682
16	0xbc840951	-0.016117724
17	0x3cb351a0	0.021889508
18	0xbc61e63b	-0.013787801
19	0x3c9f4419	0.019441651
20	0xbca5a253	-0.020219004
21	0x3cd696fd	0.026195044
22	0x3cf96568	0.030443862
23	0x3cdfac10	0.027303725
24	0x3bebca5e	0.007195755
25	0x3d04b8c0	0.032402754
26	0x3c90bc3c	0.017667882
27	0xbc89ee35	-0.016837219
28	0xbb0db339	-0.0021621718
29	0x3c7d39e3	0.015455696
30	0xbc796331	-0.015221403
31	0xbcc3fa7c	-0.023923151
32	0x3cf44b82	0.029821161
33	0xbcaddb65	-0.02122278
34	0xbcbe123a	-0.02320205
35	0x3cc77271	0.024346562
36	0x3cc19d47	0.023634566
37	0xbcbc0d20	-0.022955477
38	0x3d13f70b	0.03612427
39	0xbc6efb23	-0.014586243
40	0xbc272ce8	-0.010203578
41	0xbc75aab9	-0.014994317
42	0xbcb677b6	-0.02227388
43	0x3cc8951c	0.024485163
44	0x3d28dbc5	0.041225214
45	0x3bb09b8a	0.0053896355
46	0x3cd1481f	0.025547085
47	0x3ce68812	0.028141055
48	0x3c9d9ff6	0.019241314
49	0x3d0c793a	0.0342953
50	0x3ca20732	0.019778822
51	0xbcdf6839	-0.027271377
52	0x3ccf40c9	0.025299447
53	0x3d2daead	0.042402912
54	0x3d484c3f	0.04890084
55	0xbcac9ada	-0.021069933
56	0xbc876bcd	-0.016530896
57	0x3d2a4796	0.041572176
58	0xbcb065e9	-0.02153297
59	0xbcaff1d0	-0.02147761
60	0x3cc5c460	0.02414149
61	0xbb33dabe	-0.0027443613
62	0x3ccc36b9	0.024928438
63	0x3cd0856f	0.025454251
64	0xbc89a150	-0.016800553
65	0x3d0afe0a	0.033933677
66	0xbc1b1cd6	-0.009467324
67	0xbc1890ab	-0.009311835
68	0x3c23157e	0.009953855
69	0x3d303657	0.043020573
70	0xbca86df6	-0.020560246
71	0xbc931587	-0.017954601
72	0xbb2f727b	-0.0026771117
73	0x3c2b4f7b	0.010455961
74	0x3cfed4a4	0.031107254
75	0xbcb24d09	-0.021765249
76	0xbb963165	-0.004583525
77	0xbc970590	-0.01843527
78	0xbc93bd33	-0.018034553
79	0xbc647c07	-0.013945586
80	0x3cfd17aa	0.030895073
81	0xbcf62f18	-0.030051753
82	0x3d51e9a0	0.051248193
83	0xbce34df8	-0.02774714
84	0x3cc6e6c1	0.024279954
85	0x3cc049ec	0.023472749
86	0x3cb439e3	0.022000259
87	0xbccfafac	-0.025352322
88	0xbc924b56	-0.017858189
89	0x3cf6cd17	0.030127091
90	0x3ccbaf99	0.024864005
91	0x3c18a42c	0.009316485
92	0xbcebb12a	-0.028771002
93	0x3d1b1a8d	0.037867118
94	0x3c022c6c	0.007945161
95	0xbcabb0f8	-0.020958409
96	0xbc6807ea	-0.014162043
97	0xbcafe899	-0.021473216
98	0xbcea7851	-0.028621824
99	0x3c868f8d	0.016425872
100	0x3c8a404b	0.01687636
101	0xbc0573ca	-0.008145282
102	0x3cbb079e	0.02283078
103	0x3cf23639	0.029566871
104	0xbc8d9a1b	-0.017285397
105	0xbcbe5184	-0.023232229
106	0x3d294272	0.041323133
107	0xbc2e20a2	-0.010627897
108	0x3cac2342	0.021012906
109	0x3cb5704e	0.022148278
110	0xbae6e5dd	-0.0017616112
111	0x3d2925c2	0.041295774
112	0xbc9ff3ad	-0.019525373
113	0xbc584476	-0.013199916
114	0xbc4e73f7	-0.01260089
115	0x3ceb0acf	0.028691677
116	0xbc60d39e	-0.0137223285
117	0x3d013d2c	0.03155248
118	0xbc6d023f	-0.014465868
119	0x3cc8ebfa	0.024526585
120	0xba67771c	-0.00088296994
121	0x3cb32b29	0.021871166
122	0xbc9f4551	-0.019442232
123	0x3cc2c080	0.023773432
124	0xbc2e1447	-0.010624952
125	0xbc9d9383	-0.019235378
126	0xbcb85f21	-0.022506298
127	0xbcd0efda	-0.025504995

action_model._discrete_distribution.branches.0.weight f4 [3, 128]
0	0xbd08ae6f	-0.033369478
1	0x3c0badf6	0.008525362
2	0xbcaa4e9f	-0.020789443
3	0xbcbb9fc2	-0.022903327
4	0xbcab534a	-0.020913739
5	0xbb274870	-0.0025525354
6	0xbc86fb05	-0.016477117
7	0xbca683e7	-0.020326568
8	0xbd118592	-0.035527773
9	0x3cc87e83	0.024474388
10	0xbc876e40	-0.016532063
11	0x3ceb0811	0.02869037
12	0xbc807dde	-0.015685018
13	0x3c6612bb	0.014042552
14	0x3ce8a694	0.028399743
15	0xbc7e2c8f	-0.015513553
16	0x3c9225a3	0.017840212
17	0xbcf8b78b	-0.030360958
18	0x3c8e338a	0.01735856
19	0xbc04ecf5	-0.008113136
20	0x3cae7f2c	0.021300875
21	0xbcd8c5e8	-0.026461557
22	0xbd226641	-0.0396483
23	0xbcdb7443	-0.026788836
24	0x3bf4cead	0.0074709267
25	0xba8339b9	-0.001001171
26	0xbd32025f	-0.043459293
27	0x38b6bbaf	8.713395e-05
28	0x3c095a3d	0.008383331
29	0xbd3e908e	-0.046524577
30	0x3c2b2470	0.010445699
31	0x3c46945a	0.012120331
32	0xbcb560cd	-0.022140885
33	0xbbda4f8e	-0.0066623157
34	0x3ce0becd	0.02743473
35	0xbcabfecf	-0.020995526
36	0xbbf4a350	-0.0074657574
37	0x3c87047f	0.016481636
38	0x3c39d53d	0.011342344
39	0x3ca88b5a	0.02057426
40	0x3c2cf663	0.01055679
41	0x3cec31a7	0.02883227
42	0x3c8a0328	0.016847208
43	0xbc3594a4	-0.011082802
44	0xbc2fecc8	-0.010737605
45	0x3d0015db	0.031270843
46	0xbd228822	-0.039680608
47	0xbbf79c64	-0.007556485
48	0xbc8b5b3c	-0.017011277
49	0xbc9248ca	-0.017856974
50	0xbc41fd4e	-0.011840178
51	0x3ca49c17	0.02009396
52	0xbc544856	-0.012956699
53	0x3c2ca120	0.010536462
54	0x3cdfbe35	0.027312377
55	0x3c61bdb9	0.013778144
56	0x3cb7990d	0.022411847
57	0xbcd9dce7	-0.026594592
58	0x3d154883	0.036446106
59	0x3cbdd762	0.023173992
60	0xbc9f1b64	-0.01942224
61	0xbb2b5352	-0.0026142192
62	0xbd112967	-0.035439875
63	0xbce1fe17	-0.02758698
64	0x3b9dc0a9	0.0048142266
65	0xbcae8dbb	-0.021307817
66	0x3898a771	7.279113e-05
67	0x3c30b7af	0.010785981
68	0xbca924f7	-0.020647509
69	0xbca33b0b	-0.019925615
70	0x3ca8ead1	0.020619782
71	0x3c991ff4	0.018691994
72	0x3bf4ea6f	0.0074742357
73	0xbc64ff34	-0.013976861
74	0xbceeb070	-0.029136866
75	0xbb155cbc	-0.002279087
76	0xbd104e92	-0.03523118
77	0x3c90cac6	0.017674815
78	0x3c84024f	0.016114382
79	0x3bace027	0.0052757445
80	0xbd0675d3	-0.03282721
81	0x3c946129	0.018112736
82	0x3c184f65	0.009296273
83	0x3c7e81b3	0.015533852
84	0xbc1d096c	-0.009584766
85	0xbcf36eb2	-0.02971587
86	0xbc68da28	-0.014212169
87	0x3c99b4ea	0.018763024
88	0x3cc46e4c	0.023978375
89	0xbcfc9808	-0.030834213
90	0xbcb76eeb	-0.022391757
91	0xbc77021d	-0.015076187
92	0x3b53f8d5	0.003234436
93	0xbca7f473	-0.020502305
94	0xb91b7772	-0.00014826449
95	0x3c177f33	0.009246635
96	0x3c984671	0.018588277
97	0x3a85f94e	0.0010221393
98	0x3c990854	0.018680729
99	0xbce94aac	-0.02847799
100	0xbd0b6c8d	-0.03403907
101	0x3b9adb45	0.004725846
102	0xbc166db4	-0.009181429
103	0xbd135dc8	-0.03597811
104	0x3ca64eac	0.020301186
105	0x3bf1bfb9	0.0073775914
106	0xbcee7e6c	-0.029113017
107	0xbb81d02f	-0.003961585
108	0xbd020707	-0.031744983
109	0xbc983d1e	-0.01858383
110	0x3cf3ac7e	0.029745337
111	0xbca322aa	-0.01991399
112	0x3c81b48f	0.015833167
113	0x3c06b686	0.008222228
114	0x3d17e586	0.037084125
115	0xbcc1e833	-0.023670292
116	0xbba6c38f	-0.0050892304
117	0xbc972159	-0.018448519
118	0xbbbe65ec	-0.00581049
119	0xbd01f022	-0.03172315
120	0x3c96e1ef	0.01841828
121	0xbc620f9b	-0.013797666
122	0x3d170e1b	0.036878686
123	0xbd04ac1b	-0.032390695
124	0x3a1de941	0.0006023832
125	0x3bd98179	0.006637749
126	0x3c524fce	0.01283641
127	0x3cbd0a40	0.023076177
128	0x3c55a7bd	0.01304048
129	0xbc590957	-0.013246856
130	0x3c8c3e28	0.017119482
131	0xbd8ed80e	-0.06974803
132	0x3c0e81bc	0.008697923
133	0x3cf92f1c	0.030417971
134	0xbbd14fa9	-0.00638767
135	0x3c8d7f8f	0.017272739
136	0x3c85916d	0.016304696
137	0xbc90815c	-0.017639808
138	0x3abd7871	0.001445545
139	0xbc7afe63	-0.01531944
140	0xbc6a1e90	-0.014289513
141	0xbb612623	-0.0034355007
142	0x3c17e82a	0.009271661
143	0x3c4436d1	0.01197596
144	0xbca61f8e	-0.020278718
145	0x3ce6f199	0.028191375
146	0xbc81756f	-0.015803067
147	0xbd01a84f	-0.031654652
148	0xbc29a435	-0.010354091
149	0x3c9012ff	0.017587183
150	0x3be0ca15	0.0068600276
151	0x3b6438f1	0.0034823979
152	0xbc8f16d3	-0.017466938
153	0xbc93f66d	-0.01806184
154	0x3d2a8702	0.04163266
155	0xbb332eb6	-0.0027341074
156	0xbc27c544	-0.010239903
157	0x3caff4ef	0.021479098
158	0xbcc65e92	-0.024215017
159	0xbc84a791	-0.016193183
160	0x38d8df45	0.0001034127
161	0x3d219e68	0.03945771
162	0xba7fcbd7	-0.00097578525
163	0x3b031399	0.0020000695
164	0xbb08d418	-0.002087837
165	0xbc5c24c9	-0.013436505
166	0xbd380432	-0.044925876
167	0xbcbdd77d	-0.023174042
168	0xbcced7ec	-0.025249444
169	0x3d313234	0.043260768
170	0xbb540025	-0.003234872
171	0x3c67ce78	0.014148347
172	0xbd155088	-0.036453754
173	0xbd127843	-0.03575922
174	0xbbd38dbb	-0.0064561046
175	0x3c6a01d3	0.0142826615
176	0x3c781735	0.015142252
177	0x3cb3acba	0.021932948
178	0x3cb8abf3	0.02254293
179	0x3cac4864	0.021030612
180	0x3cc43d65	0.023955056
181	0xbd6a1126	-0.05714526
182	0xbd39169b	-0.045187574
183	0xbb92c62d	-0.004479191
184	0xba5e4e32	-0.000848028
185	0xbc2078e6	-0.009794449
186	0xbce14ab6	-0.027501445
187	0xbc18ef59	-0.009334409
188	0x3cc6fc6b	0.024290284
189	0x3c410d6f	0.011782988
190	0x3baf30b1	0.0053463806
191	0x3c5e9c21	0.013587029
192	0xbb7f0f7a	-0.0038919137
193	0x3c5763b7	0.013146332
194	0x3d4ed4cc	0.050495908
195	0xbc8c6da8	-0.017142132
196	0xba8423a6	-0.0010081425
197	0xbcf42878	-0.029804453
198	0xb84aea83	-4.837896e-05
199	0x3c8b929d	0.017037684
200	0xbb8a5e10	-0.004222639
201	0x3c2a83a7	0.010407365
202	0x3adb80a8	0.0016746717
203	0x3d65a65d	0.05606686
204	0x3cf286a0	0.02960521
205	0x3cb0f74f	0.0216023
206	0xbcc38788	-0.023868337
207	0xbc83c8ff	-0.016087053
208	0xba4f78bf	-0.0007914416
209	0xbba2316b	-0.0049497387
210	0xbd51431a	-0.051089384
211	0x3c31e5b2	0.010857986
212	0x3c618bc7	0.013766236
213	0x3c759ef3	0.01499151
214	0x3c6ee874	0.014581788
215	0xbc4e6471	-0.012597189
216	0xbc338922	-0.010957988
217	0xb9fa6858	-0.00047761458
218	0x3bfe8a9b	0.007767988
219	0x3c54349b	0.012951995
220	0xbb71e8aa	-0.003691236
221	0xbd17f74e	-0.037101083
222	0xbc6c1271	-0.014408694
223	0x3c7e61ff	0.015526294
224	0xbc4407d4	-0.011964757
225	0x3cc4e3bd	0.024034375
226	0xbc0ce9c7	-0.008600659
227	0xbbd9fa46	-0.0066521494
228	0x3cef158d	0.02918508
229	0xbc9c2d87	-0.019064678
230	0x3bb8e58a	0.0056425976
231	0xb9c2e8f9	-0.00037176142
232	0xbb618d42	-0.0034416472
233	0xbc150712	-0.009095924
234	0xbc6c7191	-0.014431373
235	0xb9ea3a6a	-0.0004467548
236	0x3c2bcbad	0.010485572
237	0x3b981787	0.0046414766
238	0xbcf0c5b8	-0.029391155
239	0xbc8ba1c4	-0.01704491
240	0x3cf91b12	0.030408416
241	0x3c2a80e8	0.01040671
242	0xbccee1c5	-0.02525414
243	0xbc9679e4	-0.018368669
244	0x3c8505a0	0.016238034
245	0x3c4da7d3	0.012552219
246	0xbc29850b	-0.010346661
247	0x3b8c4b4e	0.004281438
248	0xbb5bbae9	-0.0033528155
249	0x3cc1c2a4	0.023652382
250	0xbbb9cdc5	-0.0056702816
251	0xbc2725a1	-0.0102018425
252	0xbc052c30	-0.008128211
253	0xbc5388bc	-0.012911018
254	0xbca3a0b7	-0.019974096
255	0x3c83f0c6	0.01610602

action_model._discrete_distribution.branches.0.bias f4 [3]
0	0xbc677e79	-0.0141292745
1	0x3c043d59	0.008071267
2	0x3c30c501	0.010789157

action_model._discrete_distribution.branches.1.weight f4 [3, 128]
0	0x3c9da1b4	0.019242145
1	0xbcc3ba01	-0.023892405
2	0x3c42b427	0.011883772
3	0x3c900207	0.017579092
4	0x3ca85b4a	0.020551343
5	0xbc079f81	-0.008277775
6	0x3c2e3f4e	0.01063521
7	0x3c78cb3f	0.015185176
8	0x3c810805	0.015750894
9	0xbd060ccc	-0.032727048
10	0x3ce8f442	0.028436784
11	0xbc96d530	-0.018412203
12	0x3c1535be	0.009107051
13	0xbcf56927	-0.029957367
14	0xbcdb6550	-0.026781708
15	0x3c9266c9	0.017871277
16	0xbc6c0056	-0.014404377
17	0x3d08009f	0.033203717
18	0xbcb3066e	-0.021853652
19	0x3c89f037	0.016838176
20	0xbc66adae	-0.014079494
21	0x3caeae6c	0.021323405
22	0x3d086e57	0.033308353
23	0x3cd3e6c9	0.025866883
24	0xbb93b9e2	-0.004508243
25	0x3d3864bd	0.045017947
26	0x3c88614d	0.01664796
27	0x3b826142	0.003978879
28	0xbc71d0ba	-0.014759237
29	0x3ca865a0	0.020556271
30	0xbd48dafc	-0.049036965
31	0xbcade5e3	-0.021227783
32	0x3c1d3f33	0.009597587
33	0xbc979fac	-0.018508755
34	0xbc61c9ab	-0.013780992
35	0x3cc1e7f5	0.023670176
36	0x3cb9c5a9	0.02267726
37	0xbd0719d9	-0.032983635
38	0xbc510713	-0.012758034
39	0xbcbb4817	-0.022861524
40	0xbc6dcbaa	-0.014513889
41	0xbc91df93	-0.017806804
42	0xbd10bfed	-0.035339285
43	0x3cdb895e	0.0267989
44	0x3cc59c3f	0.024122356
45	0x390e7c5a	0.000135885
46	0x3caa5979	0.020794617
47	0x3ce86802	0.028369907
48	0x3cf73b88	0.030179754
49	0x3ce50a3e	0.027958985
50	0xb928a2c7	-0.00016082368
51	0xbcd2295d	-0.02565449
52	0x3c7473f8	0.014920227
53	0x3d0dfd37	0.034665313
54	0x3cbffd26	0.02343614
55	0xbc91f619	-0.017817544
56	0xbcb63f22	-0.022246901
57	0x3ce71728	0.028209284
58	0xbcd87341	-0.026422145
59	0xbc21b3ef	-0.00986956
60	0x3cf1cc25	0.029516289
61	0xba906f86	-0.0011019565
62	0x3cc1517e	0.023598429
63	0x3c8e458f	0.017367152
64	0xbcd127e3	-0.025531715
65	0x3d022ba2	0.031779893
66	0xbc8bc136	-0.017059904
67	0xbce331e1	-0.027733745
68	0x3ca7a7bb	0.020465722
69	0x3ca4b183	0.020104175
70	0xbc846c99	-0.016165065
71	0xbd020565	-0.031743426
72	0xbbc0d958	-0.0058852844
73	0x3c9cc232	0.019135568
74	0x3cc59915	0.024120847
75	0xbcd5ae12	-0.02608398
76	0xbc3fb656	-0.011701187
77	0xbc912aa5	-0.01772053
78	0xbcbc5962	-0.02299184
79	0xbc2a87fd	-0.010408399
80	0x3c469cf3	0.012122381
81	0xbcfc9644	-0.030833371
82	0x3cde3dbe	0.02712905
83	0xbd14d1cc	-0.03633289
84	0x3ca660e6	0.020309877
85	0x3c8b273d	0.016986484
86	0x3caf2603	0.02138043
87	0xbce5aecc	-0.028037451
88	0xbcc0c683	-0.023532158
89	0x3bae99df	0.0053284015
90	0x3c9df5dc	0.019282274
91	0x3c2007f7	0.009767524
92	0xbc9e0519	-0.01928954
93	0x3cbdd149	0.023171084
94	0x3b0e8fc6	0.0021753176
95	0xbc95496b	-0.018223485
96	0xbcbfce40	-0.023413777
97	0xbd44771d	-0.047965158
98	0xbcc92adb	-0.024556568
99	0x3c9b8b73	0.018987393
100	0x3bd9b0d3	0.0066433935
101	0xbc5d2a61	-0.013498873
102	0x3caa4f1c	0.020789675
103	0x3d31e312	0.04342944
104	0xbc9749bc	-0.018467776
105	0xbb276a8e	-0.002554569
106	0x3c9cc94d	0.019138956
107	0xbc07c694	-0.008287091
108	0x3ba7a09a	0.0051155807
109	0x3c5b8184	0.013397578
110	0xbc65dd12	-0.014029758
111	0x3cc96839	0.02458583
112	0xbcb0ce45	-0.021582732
113	0xbcbe0508	-0.023195758
114	0xbd0173cc	-0.031604573
115	0x3cadf778	0.021236166
116	0x3becd34c	0.007227337
117	0x3ca6ab37	0.020345313
118	0xbd093d03	-0.03350545
119	0x3ced0eb8	0.028937683
120	0xbb456589	-0.0030120334
121	0x3c1c5b13	0.009543198
122	0xbca33ece	-0.019927409
123	0x3c53af23	0.012920174
124	0xbc6cdd70	-0.014457092
125	0xbce38dc4	-0.02777756
126	0xbd062980	-0.03275442
127	0xbd1293a0	-0.035785317
128	0xbd07b45e	-0.033130996
129	0x3c48788a	0.01223577
130	0xbd3983e4	-0.045291796
131	0xbcbd882c	-0.02313622
132	0xbc1cdd63	-0.009574267
133	0x3cd3262e	0.025775041
134	0xbc915f95	-0.017745772
135	0xbd368a56	-0.04456552
136	0xbc94d55b	-0.018168142
137	0x3cc89c57	0.024488611
138	0xbcc477ce	-0.023982909
139	0x3c1eb78e	0.009687318
140	0xbcd4be7f	-0.025969742
141	0xbbb51f03	-0.0055273785
142	0x3c91918c	0.017769597
143	0xbcbc06e3	-0.022952503
144	0xbc1b603a	-0.009483391
145	0xbc44f6e0	-0.01202175
146	0x3cd0cce0	0.025488317
147	0xbc12727c	-0.008938428
148	0x3c99a1ea	0.018753964
149	0xbd1366db	-0.035986762
150	0xbcdd979c	-0.027049832
151	0xbc9ea233	-0.019364452
152	0x3bc4c033	0.0060043572
153	0xbd338109	-0.04382423
154	0xbd588013	-0.052856516
155	0x3c5dd1b6	0.0135387685
156	0xbb9719b8	-0.00461122
157	0xbcd5053d	-0.026003474
158	0x3d0d1d86	0.034451984
159	0x3cc01e93	0.023452079
160	0xbd2669ff	-0.04062843
161	0x3b9a4ef9	0.0047091213
162	0x3d203b84	0.03911926
163	0xbd2b372d	-0.041800667
164	0x3ba02f93	0.004888484
165	0xba9d1b16	-0.0011986222
166	0xbae50124	-0.0017471653
167	0x3b4d6a43	0.0031343854
168	0x3c3fd3dd	0.011708227
169	0x3d08105f	0.033218738
170	0xbb353ece	-0.0027655843
171	0xbcb44808	-0.022007003
172	0xbcce59be	-0.025189277
173	0x3d0a5808	0.03377536
174	0xbcd47865	-0.025936315
175	0xbbf12900	-0.007359624
176	0xbc142a13	-0.009043234
177	0x3c34eb12	0.011042373
178	0xbcc638ae	-0.024196949
179	0x3d0fdd7f	0.035123345
180	0xbc882b89	-0.016622322
181	0xbbfb1da5	-0.007663446
182	0x3aed11e4	0.0018086997
183	0x3ccc657d	0.024950737
184	0x3d12bf11	0.035826746
185	0xbd5302a8	-0.051516205
186	0x3c19b503	0.009381535
187	0x3ce235c0	0.02761352
188	0xbd23d238	-0.039995402
189	0xbbb89f82	-0.005634249
190	0xbc48d69e	-0.0122582
191	0x3c04711a	0.008083606
192	0x3c5a9e50	0.013343409
193	0xbc9b21fa	-0.0189371
194	0xbb2fe3a6	-0.002683857
195	0xbc7797fa	-0.015111918
196	0xbd022c3e	-0.031780474
197	0xbcadead2	-0.021230135
198	0x3bac3b0a	0.0052560614
199	0x3d0fdcb3	0.035122585
200	0x3cc5d057	0.024147196
201	0xbc85e48b	-0.01634433
202	0xbc07ae99	-0.008281373
203	0x3c5861a1	0.01320687
204	0xbbaecd2e	-0.005334518
205	0x3c55dcdf	0.013053148
206	0x3c6b1c42	0.014349999
207	0x3d37dad5	0.04488643
208	0xbcd05893	-0.02543286
209	0x3c85d318	0.016336009
210	0xbcc86b21	-0.024465146
211	0x3c1e95a1	0.009679229
212	0xbc8dee9d	-0.017325694
213	0xbcd98e87	-0.02655722
214	0xbd0f1af8	-0.03493783
215	0x3c0d73ba	0.008633548
216	0x3c433e3a	0.011916691
217	0xbc0ce3ba	-0.008599216
218	0x3aadc3be	0.0013257188
219	0xbb890d4e	-0.0041824942
220	0x3d11e7be	0.035621397
221	0xbcda03d7	-0.02661316
222	0xbccf7d53	-0.025328314
223	0x3cde5e30	0.027144521
224	0x3d344afe	0.04401683
225	0x3d008ede	0.03138625
226	0x3c1895d7	0.009313068
227	0xbcd2b76c	-0.025722228
228	0xbc8b7e09	-0.017027872
229	0x3cd885eb	0.026431045
230	0xbbf0aeb9	-0.0073450473
231	0xbd4dc678	-0.050238103
232	0x3bb44de0	0.0055024475
233	0x3d11052a	0.035405315
234	0xbc9c9161	-0.01911229
235	0x3c5e22d2	0.0135581065
236	0x3c121f7a	0.008918637
237	0x3b78d911	0.0037971179
238	0xbc3ed2b6	-0.011646917
239	0xbca7b747	-0.020473136
240	0x3cb7af4d	0.022422457
241	0x3d3fb603	0.04680444
242	0x3cf5fccf	0.030027775
243	0xbd51bf51	-0.051207844
244	0xbc5426ab	-0.012948672
245	0x3c1aa18d	0.009437931
246	0x3b7cbb5d	0.0038563826
247	0xbd112520	-0.035435796
248	0x3cd9c298	0.026582047
249	0x3badc63a	0.0053031715
250	0x3cf3cb6e	0.029760089
251	0xbcfa18f1	-0.030529471
252	0x3cd9c7e9	0.026584582
253	0x3c53637f	0.01290214
254	0x3c7ee0c1	0.015556515
255	0x3d0d239a	0.03445778

action_model._discrete_distribution.branches.1.bias f4 [3]
0	0x3c906c01	0.017629625
1	0xbc527d76	-0.012847295
2	0xbcac60de	-0.021042284

action_model._discrete_distribution.branches.2.weight f4 [2, 128]
0	0x3d07e55f	0.03317773
1	0xbc5c6572	-0.013451921
2	0x3c929d4c	0.01789727
3	0x3cc5dcb6	0.024153095
4	0x3c5ba6a8	0.013406433
5	0xbcb87e1f	-0.022521077
6	0x3ce493ba	0.027902473
7	0x3c831bea	0.016004521
8	0x3c10cb0d	0.008837474
9	0xbc1d7df9	-0.009612554
10	0x3c7a3dcb	0.015273522
11	0xbcf16bb1	-0.029470297
12	0x3c9ddfd1	0.019271763
13	0xbcce7f3b	-0.025207153
14	0xbc65eef7	-0.014034024
15	0x3cd75df9	0.026289927
16	0xbcc18824	-0.023624487
17	0x3d1f779c	0.038932428
18	0xbcc3b931	-0.023892017
19	0x3c36c22b	0.011154692
20	0xbcbc663c	-0.022997968
21	0x3cfd7295	0.030938426
22	0x3d0b941f	0.034076806
23	0x3c9c5372	0.019082759
24	0xbcc02eb5	-0.023459772
25	0x3d2ba689	0.041906867
26	0x3c97ead7	0.018544598
27	0xbc91cd69	-0.017798143
28	0xbcab25f5	-0.020892123
29	0x3bd47c61	0.0064845537
30	0xbcb81d1a	-0.022474814
31	0xbd372b24	-0.044718876
32	0x3d08be37	0.033384528
33	0xbd0eecb2	-0.0348937
34	0xbce03309	-0.027368085
35	0x3ccaff9a	0.024780083
36	0x3c6c161a	0.014409566
37	0xbd073886	-0.03301289
38	0xbb6119a0	-0.003434755
39	0xbcb87d74	-0.022520758
40	0xbc0160d2	-0.007896619
41	0xbcb07bae	-0.02154335
42	0xbce2fa42	-0.027707223
43	0x3cd21b32	0.025647733
44	0x3d437059	0.047714565
45	0x3be5843e	0.00700429
46	0x3d53269d	0.051550496
47	0x3d0f4a5f	0.034983035
48	0x3b873ea6	0.0041273413
49	0x3cd8983b	0.026439777
50	0x3ce934e4	0.028467603
51	0xbcfd63b9	-0.03093134
52	0x3c232422	0.009957345
53	0x3ce4f9cc	0.027951144
54	0x3c4a9a54	0.012365896
55	0xbd04d2fb	-0.03242777
56	0xbc445b61	-0.011984677
57	0x3d2d0aee	0.04224675
58	0xbcd6e11b	-0.026230386
59	0xbcd2313b	-0.02565824
60	0x3d142cc6	0.03617551
61	0x3bcfe7c4	0.0063447673
62	0x3ca8b0d1	0.020592125
63	0x3ce055df	0.027384697
64	0xbd00cd5d	-0.03144585
65	0x3d1be581	0.03806067
66	0xbcd811c5	-0.02637566
67	0xbc91e559	-0.017809557
68	0x3bbbe8e9	0.005734552
69	0x3d450c4f	0.04810744
70	0xbc8fa1f2	-0.017533276
71	0xbc31d97a	-0.010855073
72	0xbb519040	-0.003197685
73	0x3c2353e6	0.009968733
74	0x3c8c1a60	0.01710242
75	0xbcb5fd8a	-0.022215623
76	0x3c0b579e	0.008504776
77	0xbc4caee2	-0.012492867
78	0xbceb4164	-0.028717704
79	0xbccfa22b	-0.025345882
80	0x3cc78c41	0.02435887
81	0xbce191c7	-0.027535332
82	0x3d15ddfc	0.036588654
83	0xbd0cdd82	-0.034390934
84	0x3cecf1de	0.028923925
85	0x3ce86a18	0.028370902
86	0x3d1b04bc	0.037846312
87	0xbc9665d1	-0.018359097
88	0xbccdb512	-0.025110755
89	0x3d13d6e1	0.036093596
90	0x3b720707	0.0036930458
91	0x3ca2a63b	0.019854655
92	0xbcc462c2	-0.023972873
93	0x3cb36300	0.021897793
94	0x3c9ea5d8	0.01936619
95	0xbd498009	-0.04919437
96	0xbc98fb17	-0.018674416
97	0xbd19a5bf	-0.037511583
98	0xbcf2e1b6	-0.029648643
99	0x3cb33c28	0.02187927
100	0xb9da164d	-0.00041596816
101	0xbc89c38f	-0.016816882
102	0x3cad26bd	0.021136636
103	0x3d0ee0d4	0.03488238
104	0xbc8e0b6b	-0.017339429
105	0xbcfa61de	-0.030564245
106	0x3d1e8249	0.03869847
107	0xbc96f2d5	-0.018426338
108	0x3cb1a2ef	0.021684138
109	0x3ca21731	0.01978645
110	0xbc177bff	-0.009245872
111	0x3d17f12b	0.03709523
112	0xbbf59045	-0.007494005
113	0xbc59a20c	-0.013283264
114	0xbb004b8a	-0.0019576275
115	0x3cb7936c	0.022409163
116	0x3b1d4bc1	0.0024001452
117	0x3cbd5a5a	0.023114372
118	0xbc6357a8	-0.013875879
119	0x3d042e1a	0.03227053
120	0xbc7c850d	-0.015412581
121	0x3c630380	0.013855815
122	0xbceb80f1	-0.028748007
123	0x3ce4a252	0.027909432
124	0xbcc59bbc	-0.024122111
125	0xbcc9eeb2	-0.024649952
126	0xbd03eac5	-0.032206316
127	0xbd1499c7	-0.036279466
128	0xbcf1d816	-0.029521983
129	0x3ca47822	0.020076815
130	0xbd01edbe	-0.03172087
131	0xbce08217	-0.027405782
132	0xbc6d6364	-0.014489029
133	0x3bfb3051	0.007665672
134	0xbc62684d	-0.013818813
135	0xbcdcdd9b	-0.026961138
136	0xbd0faa49	-0.035074506
137	0x3d17ceb6	0.03706237
138	0xbc7ce29c	-0.015434887
139	0x3c8feea4	0.017569847
140	0xbd0f9095	-0.035049994
141	0x3d118602	0.03552819
142	0x3cc9e208	0.024643913
143	0xbca6c061	-0.020355405
144	0x3cfd91e5	0.030953357
145	0xbd0d81f5	-0.034547765
146	0x3ce60bf7	0.028081877
147	0xbcd3257e	-0.025774714
148	0x3cbc55c0	0.022990108
149	0xbd22ab28	-0.03971401
150	0xbd281a9f	-0.041041013
151	0xbd105f84	-0.03524734
152	0x3d19c3ca	0.037540235
153	0xbc9a841d	-0.018861825
154	0xbc5e6c63	-0.013575646
155	0x3cf4dcee	0.029890504
156	0x3c50ee41	0.012752117
157	0xbcd982f3	-0.0265517
158	0x3cf991a8	0.030464962
159	0x3d117b6a	0.035518087
160	0xbcfaf4d2	-0.030634318
161	0x3cb60615	0.022219697
162	0x3ca61848	0.02027525
163	0xbd1180de	-0.035523288
164	0xbc9ce143	-0.019150382
165	0x3cda414f	0.02664247
166	0x3ac73042	0.0015196877
167	0x3cb9162d	0.022593582
168	0x3cd85729	0.026408749
169	0x3c7801da	0.01513716
170	0x3ce749d2	0.028233442
171	0xbd50ad43	-0.050946485
172	0xbd0909fc	-0.033456787
173	0xbcaa2db7	-0.020773752
174	0xbc2a46b2	-0.010392832
175	0xbcde7f14	-0.027160205
176	0xbc1444a2	-0.009049566
177	0xbd07b6d0	-0.033133328
178	0xbc5e8fde	-0.013584105
179	0x3d1e043e	0.038578264
180	0xbca66c09	-0.020315187
181	0xbcb04c22	-0.021520678
182	0xbc95ed6c	-0.018301688
183	0x3d0a32e6	0.033739947
184	0x3d1267d5	0.035743553
185	0xbd0f6e15	-0.03501709
186	0x3d067def	0.032834943
187	0x3cdf941d	0.027292306
188	0xbcfbd2b4	-0.03074012
189	0xbba3ab5d	-0.0049947933
190	0xbce71774	-0.028209426
191	0xbca6a457	-0.020342035
192	0x3c1b6821	0.0094852755
193	0xbd1f3f87	-0.038878944
194	0x3ca06bce	0.019582655
195	0x3ccc990c	0.024975322
196	0xbc6fc2cd	-0.0146338465
197	0xbd2ce3b3	-0.04220934
198	0x3d181567	0.037129786
199	0x3d28467c	0.041082844
200	0x3c98f85b	0.018673113
201	0xbc1979b2	-0.009367393
202	0xbc911261	-0.017708959
203	0x3d147216	0.036241613
204	0x3c8daa6d	0.01729318
205	0x3d37617e	0.04477071
206	0x3ca1e3dc	0.019761972
207	0x3cf2755b	0.029596975
208	0xbd2ff192	-0.04295499
209	0x3d1eff60	0.038817763
210	0xbca4a139	-0.020096408
211	0x3d192268	0.037386328
212	0xbce13409	-0.027490633
213	0xbcff73f0	-0.031183213
214	0xbcbf82f0	-0.023377866
215	0x3d03d75b	0.0321878
216	0x3cbc2391	0.022966178
217	0xbcf46bae	-0.029836502
218	0xbcb96821	-0.02263266
219	0xbc781d20	-0.015143663
220	0x3cccb3c6	0.024988066
221	0xbd3e1f1e	-0.046416394
222	0xbb8db4dc	-0.0043245386
223	0x3cae3be6	0.021268796
224	0x3c8d2a5b	0.01723211
225	0x3cc7dae5	0.02439637
226	0x3ce1a05b	0.027542284
227	0xbcce3b32	-0.02517471
228	0xbcbf9b67	-0.023389531
229	0x3cc24eb6	0.023719173
230	0xbcbe5d90	-0.023237973
231	0xbd04dc0b	-0.03243641
232	0x3cefbf53	0.029266035
233	0x3c8fff56	0.017577808
234	0xbd2a2437	-0.041538443
235	0x3cc63623	0.024195736
236	0xbcc5b517	-0.024134202
237	0xbcb4ed83	-0.02208591
238	0x3b5502c9	0.003250288
239	0xbcd64145	-0.02615417
240	0x3cec352b	0.028833946
241	0x3cb5c33f	0.022187827
242	0x3c5d2da8	0.013499655
243	0xbd16ec1c	-0.036846265
244	0x39fdf4db	0.00048438352
245	0xbcbe50eb	-0.023231944
246	0x3d1137db	0.03545366
247	0xbcdabb15	-0.026700536
248	0x3c091d02	0.008368732
249	0xbd10d3b6	-0.035358153
250	0x3cf06fde	0.029350217
251	0xbcbca7b7	-0.023029191
252	0x3c276ddd	0.010219065
253	0x3d0f3062	0.03495825
254	0x3caaac2b	0.02083405
255	0x3c5f2816	0.013620397

action_model._discrete_distribution.branches.2.bias f4 [2]
0	0x3cb68ea1	0.022284808
1	0xbcb68ea2	-0.02228481
