results/PressButton/PressButtonAgent_ImitationLearning2/PressButtonAgent/PressButtonAgent-19945.pt (torch, 533134 bytes, 54 tensors)

discrete_act_size_vector f4 [1, 3]
0	0x40400000	3.0
1	0x40400000	3.0
2	0x40000000	2.0

network_body._body_endoder.seq_layers.0.weight f4 [128, 6]
0	0xbe1c122d	-0.15241309
1	0x3f10ef79	0.56615406
2	0x3eb1c8b3	0.34723434
3	0xbf86f447	-1.0543298
4	0x3e814b93	0.2525297
5	0xbe2e7d6d	-0.17040034
6	0xbe957e96	-0.2919814
7	0xbecf8924	-0.40534317
8	0xbedc23c0	-0.42996025
9	0xbec278d8	-0.3798282
10	0x3f22033b	0.6328618
11	0xbd196ea3	-0.037459027
12	0x3e28bcb2	0.16478232
13	0xbf4d2b66	-0.80144346
14	0x3e4190f1	0.18902947
15	0x3d386d10	0.045025885
16	0xbdcfd831	-0.10148657
17	0xbb4d0e52	-0.0031289053
18	0x3e7c316e	0.24628231
19	0xbec92b5e	-0.392909
20	0xbe021028	-0.12701476
21	0x3e88e238	0.2673509
22	0x3e737716	0.23775896
23	0xbea9778b	-0.33099017
24	0xbf351274	-0.7073128
25	0xbe8250b8	-0.2545221
26	0x3eb2eea1	0.34947684
27	0xbf02ef29	-0.5114618
28	0xbe1b1022	-0.15142873
29	0x3d339ea9	0.043852482
30	0x3e18b504	0.14912802
31	0x3e248942	0.16067985
32	0x3ee4859e	0.44633192
33	0xbea54cd2	-0.32285172
34	0xbe25a3da	-0.16175786
35	0xbd7688eb	-0.06018917
36	0x3e15653e	0.14589402
37	0x3e3d13d7	0.184646
38	0x3e76907f	0.24078558
39	0xbdae7175	-0.08517734
40	0x3f293874	0.66101766
41	0xbcb5b513	-0.02218107
42	0x3e259781	0.16171075
43	0xbe0c710d	-0.13715
44	0x3f0d39d5	0.5516637
45	0xbda95692	-0.08268465
46	0x3f02cad4	0.5109074
47	0xbee1207e	-0.43970102
48	0xbdfe3bf7	-0.12413781
49	0xbebb2510	-0.36551714
50	0xbe3aeb13	-0.18253736
51	0x3ec7e34e	0.39040607
52	0xbe0eef40	-0.13958454
53	0x3e118ba5	0.14213426
54	0x3e3afc19	0.1826023
55	0xbd234ed2	-0.03987009
56	0xbecb0abd	-0.3965663
57	0xbf2d3795	-0.67662936
58	0x3efa785f	0.4891996
59	0x3f02ed74	0.51143575
60	0x3cfc229b	0.03077822
61	0xbe1e23bd	-0.1544332
62	0x3ef94cf2	0.48691517
63	0x3dc554d2	0.09635319
64	0xbe48dccd	-0.19615479
65	0x3e83ff77	0.25780842
66	0xbf553852	-0.8328906
67	0xbdfe58ff	-0.124193184
68	0xbed1892b	-0.40924963
69	0x3db8b1df	0.09018301
70	0xbef4a2ed	-0.47780553
71	0xbda810f9	-0.08206362
72	0xbdec9bde	-0.11553167
73	0xbe8bff28	-0.27343106
74	0x3e5c9e13	0.21544676
75	0xbec82910	-0.39093828
76	0xbcd59d30	-0.02607593
77	0xbf09aadb	-0.5377633
78	0xbde60b3b	-0.11232611
79	0x3dc0d732	0.09416045
80	0xbe61ff3a	-0.22070017
81	0xbe65856d	-0.22414179
82	0x3f1dde67	0.61667484
83	0xbd980f94	-0.07424846
84	0x3e2dca4a	0.16971698
85	0x3f6c0904	0.92201257
86	0xbe1b0424	-0.15138298
87	0xbe9239a3	-0.28559598
88	0xbef9b9a8	-0.48774457
89	0xbedc3492	-0.43008858
90	0x3f18673e	0.59532535
91	0x3edd3da5	0.43211094
92	0xbe7669c7	-0.24063788
93	0xbcff6eb3	-0.031180715
94	0x3db86144	0.09002927
95	0x3ed0e187	0.40797064
96	0x3f49d189	0.7883535
97	0x3f5aa07b	0.85401124
98	0x3e97b4d4	0.29630148
99	0xbea8971d	-0.3292779
100	0x3e08d6c0	0.1336317
101	0x3e61a375	0.2203501
102	0xbda1bee5	-0.07897738
103	0x3f0e6bd4	0.5563328
104	0x3ec38f4b	0.3819526
105	0x3f4bf721	0.79673964
106	0xbde071df	-0.10959219
107	0xbdea528a	-0.11441524
108	0x3f6c751e	0.92366207
109	0xbed2601b	-0.41088948
110	0x3eccffcd	0.4003891
111	0x3e319c34	0.17344743
112	0x3dba6d74	0.09102908
113	0xbd851a70	-0.06499183
114	0xbe501bdc	-0.20323128
115	0xbf438268	-0.7637086
116	0x3f697907	0.912003
117	0x3dc88165	0.09790305
118	0xbd2bfc42	-0.04198862
119	0x3f1b28f8	0.6060939
120	0xbc3d1a2a	-0.0115418825
121	0xbf64b455	-0.89337665
122	0x3da0fa56	0.07860248
123	0xbed1bf23	-0.40966138
124	0xbe20e861	-0.15713646
125	0xbdf2b30d	-0.118505575
126	0xbe8c905d	-0.2745389
127	0xbedf06e8	-0.43559957
128	0x3f1b2758	0.6060691
129	0x3e9bc947	0.30427
130	0x3cf398f0	0.029736012
131	0xbcffe754	-0.031238236
132	0xbe8a1bc3	-0.26974306
133	0xbcb2bc6f	-0.021818368
134	0xbecc48b0	-0.39899206
135	0xbee70b70	-0.45125914
136	0x3f10b498	0.56525564
137	0xbe4d872c	-0.20071095
138	0x3d89b664	0.067242414
139	0x3dc077cd	0.0939785
140	0x3d0ea954	0.034829453
141	0xbe5be4f1	-0.21474053
142	0x3f2b380a	0.66882384
143	0xbe6aad86	-0.22917756
144	0xbedb75d8	-0.42863345
145	0x3f27d451	0.65558344
146	0x3e57de76	0.21080956
147	0x3d70c584	0.058782116
148	0x3f0eb3f6	0.5574335
149	0xbe86fdd1	-0.26365522
150	0xbd411c1f	-0.04714596
151	0xbe6cc90f	-0.23123573
152	0xbe18ff8e	-0.14941236
153	0x3e0a5fcb	0.13513105
154	0xbdd696fa	-0.10478015
155	0xbdc26682	-0.09492208
156	0x3f26268b	0.6490256
157	0x3ca5dae6	0.02024598
158	0xbf856744	-1.0422139
159	0xbf3b25d9	-0.73104626
160	0x3f3b89ab	0.7325694
161	0xbdd9c97f	-0.106341355
162	0x3ef19013	0.47180232
163	0xbefe4367	-0.496608
164	0x3f2477a4	0.6424506
165	0xbf2beabb	-0.67155045
166	0x3eb6a47d	0.3567237
167	0x3e4d53b7	0.20051466
168	0x3eb373e4	0.35049355
169	0x3f1a4113	0.60255545
170	0xbdc68885	-0.09694008
171	0x3e9dfcce	0.30856937
172	0xbdd5090f	-0.104021184
173	0x3e17699b	0.14786379
174	0xbee44bf3	-0.44589195
175	0xbef89b1e	-0.48555845
176	0xbee4e2a5	-0.44704166
177	0x3f1bed0c	0.6090858
178	0x3ee51848	0.44745088
179	0x3ebde7ab	0.3709081
180	0x3ea9be4c	0.33152997
181	0xbefcd094	-0.49377882
182	0xbe41ace4	-0.18913609
183	0xbe43abc0	-0.19108486
184	0x3bed3a40	0.00723961
185	0xbf44e72d	-0.76915246
186	0x3bacbebe	0.0052717617
187	0x3e3289cf	0.17435382
188	0xbf3d0ad4	-0.7384465
189	0x3f5aaf1e	0.8542346
190	0xbf46cd7d	-0.776573
191	0x3ec4d6d7	0.3844516
192	0x3f01c745	0.50694686
193	0x3f761e5d	0.9614008
194	0xbf0bf162	-0.54665196
195	0x3ddcfcca	0.10790403
196	0x3e8260ee	0.25464576
197	0x3efa2fcf	0.488646
198	0xbeb5f729	-0.3554013
199	0xbdf39b67	-0.11894875
200	0xbf4dd123	-0.8039724
201	0x3d7b1e37	0.061308112
202	0xbe8d5e61	-0.27611068
203	0xbe7dfb99	-0.24803008
204	0xbf3babfa	-0.7330929
205	0xbea0935e	-0.31362432
206	0xbed333ed	-0.41250554
207	0x3f41fb29	0.75773865
208	0xbdf494e7	-0.11942463
209	0x3eb7b518	0.3588035
210	0x3eb3c7b6	0.35113305
211	0x3fa610e9	1.297391
212	0x3f8cca41	1.0999223
213	0x3f3414fc	0.7034452
214	0x3ea94cec	0.330665
215	0xbee79eb1	-0.4523826
216	0x3eb11f1f	0.34594056
217	0xbe975393	-0.2955595
218	0x3d8877b7	0.06663459
219	0xbd2eae27	-0.042646553
220	0xbee9e9e9	-0.45686272
221	0x3f07ecb1	0.5309554
222	0xbf9d365a	-1.2282212
223	0x3f525295	0.8215726
224	0xbd932f6e	-0.07186781
225	0xbdcb2164	-0.09918478
226	0x3ccb5e99	0.024825381
227	0xbf995abd	-1.1980816
228	0x3c9da630	0.019244283
229	0xbf27636e	-0.6538609
230	0x3ef83658	0.4847896
231	0x3de75e4f	0.11297285
232	0x3c8f948f	0.017526893
233	0xbf829d99	-1.0204345
234	0x3c7136ea	0.014722565
235	0x3c9db5cc	0.019251727
236	0xbf2149af	-0.6300306
237	0x3e7532c9	0.23945154
238	0xbd5e2a8a	-0.054239787
239	0xbe46e640	-0.19423771
240	0x3e9747dc	0.29547012
241	0x3f2f2a31	0.68423754
242	0x3d84bb38	0.06481022
243	0x3f2c0123	0.67189234
244	0x3cf2783e	0.029598352
245	0xbe6f9961	-0.23398353
246	0x3f278a7a	0.65445673
247	0x3ecd03b6	0.40041894
248	0xbf1dac92	-0.61591446
249	0xbeb6f571	-0.35734132
250	0x3e5dbc35	0.21653827
251	0x3ea111b0	0.31458807
252	0x3e8f1ac1	0.279501
253	0xbdc39b25	-0.09551076
254	0x3e6d24e2	0.23158601
255	0x3e78f6c5	0.24312885

network_body._body_endoder.seq_layers.0.bias f4 [128]
0	0xbc0a4aee	-0.008440716
1	0xbceff95a	-0.029293705
2	0x3c0078aa	0.007841269
3	0xbcef2402	-0.029191975
4	0xbb64a05f	-0.0034885628
5	0x3d250a70	0.040293157
6	0xbc8e5c1f	-0.017377911
7	0xbc02988b	-0.007970939
8	0x3d04a4d9	0.032383773
9	0x3d977a75	0.07396404
10	0x3d0be1aa	0.034150757
11	0x3cace7fd	0.021106714
12	0xbca67d58	-0.02032344
13	0x3d83d7d6	0.06437652
14	0x3d6bf639	0.057607863
15	0x3cc2c7de	0.023776945
16	0x3cd5bd8f	0.026091365
17	0xbba65a6e	-0.005076698
18	0x3d1c7d13	0.038205218
19	0x3ccac986	0.024754297
20	0x3bd4dc3b	0.00649598
21	0xbcf78ba6	-0.030217957
22	0x3cd10e8f	0.025519637
23	0x3d65d45a	0.056110717
24	0x3d4e74b7	0.050404277
25	0xbbf3a68e	-0.0074356264
26	0x3d68c597	0.05682906
27	0x3d442ca0	0.04789412
28	0x3c91d227	0.017800404
29	0xbcd3dcc1	-0.0258621
30	0xbc878cbf	-0.016546605
31	0x3d176079	0.036957238
32	0x3d6461fe	0.055757515
33	0x3d4cad2a	0.04996983
34	0x3d31ad90	0.043378413
35	0x3d20852e	0.03918951
36	0x3d3919af	0.04519051
37	0x3c6c9f40	0.014442265
38	0xbd13bc01	-0.036067966
39	0x3d203669	0.03911439
40	0x3cde302c	0.02712258
41	0x3d70df3f	0.058806654
42	0xbc505cbc	-0.012717422
43	0x3d11c240	0.03558564
44	0x3d0989b9	0.03357861
45	0x3cf9532b	0.030435165
46	0xbd26bd11	-0.04070765
47	0xbc885d9d	-0.0166462
48	0x3d0f1f87	0.034942176
49	0x3d36422e	0.044496708
50	0xbd03f2d0	-0.032213986
51	0x3d741f31	0.05960006
52	0x3d07c7d7	0.033149567
53	0x3d2680b2	0.040650077
54	0xba76e5a3	-0.0009418374
55	0x3c016ada	0.007899011
56	0x3d69c75d	0.057074893
57	0xbc6eeb88	-0.014582522
58	0x3c8ef87a	0.017452467
59	0x3caed407	0.021341337
60	0xbc5b8655	-0.0133987265
61	0xbc45d653	-0.012075025
62	0xbd4d83d8	-0.050174564
63	0xbc8c5408	-0.017129913
64	0x3c8d1a7b	0.017224541
65	0x3cd70cf1	0.026251288
66	0x3d4e96f9	0.050436947
67	0xbc8bc051	-0.017059477
68	0x3cb2b83a	0.021816362
69	0x3d80bba0	0.06285787
70	0x3ba2410b	0.0049516014
71	0x3c734aca	0.014849374
72	0x3d19a437	0.037510123
73	0x3ba082a0	0.004898384
74	0x3d2cadb6	0.04215785
75	0x3d29f6e5	0.041495223
76	0x3cb44fa1	0.022010626
77	0xbc984f75	-0.018592576
78	0x3d5234ed	0.051320005
79	0x3d0af150	0.03392154
80	0x3cbec78f	0.023288516
81	0x3c2574f2	0.010098683
82	0xbcd6603e	-0.026168939
83	0x3d4aae01	0.04948235
84	0xbc526f35	-0.012843897
85	0x3cba28f1	0.0227246
86	0x3d7f7885	0.062370796
87	0xbd2e18e9	-0.042504225
88	0x3d382a80	0.044962406
89	0xbc27681c	-0.010217693
90	0x3d31973d	0.043357123
91	0x3c4616d5	0.0120904045
92	0x3cb125dd	0.0216245
93	0xbc72d2d4	-0.014820773
94	0xba397697	-0.0007074861
95	0xbc595a59	-0.0132661695
96	0x3d56b3c4	0.05241753
97	0x3c963a8a	0.01833846
98	0x3cd1da89	0.025616901
99	0x3c930883	0.017948395
100	0x3cc656bc	0.02421128
101	0xbcd2a520	-0.025713503
102	0x3cca201e	0.024673518
103	0x3c7fd55b	0.015614833
104	0x3d36c0b0	0.044617355
105	0x3c3f2264	0.011665914
106	0x3ced47c4	0.028964885
107	0x3c4cebf3	0.012507427
108	0x3d05c50e	0.03265863
109	0x3d64f0a8	0.05589357
110	0xbd309cf3	-0.04311843
111	0xbc5dd475	-0.013539423
112	0xbcf69ae5	-0.030103156
113	0xbbfaf453	-0.0076585202
114	0xbce438fc	-0.027859204
115	0xbce5db7b	-0.028058758
116	0x3ce0bccb	0.027433774
117	0x3c8df695	0.017329494
118	0x3d80433e	0.062628254
119	0x3d262d85	0.040570755
120	0x3c8ebac1	0.017423036
121	0xbcd1f455	-0.025629202
122	0x3d13f5b9	0.03612301
123	0x3ce57a96	0.028012555
124	0x3ccac2fc	0.024751179
125	0x3d320537	0.043462005
126	0xbbc17c32	-0.005904698
127	0x3d1f1ed1	0.03884775

network_body._body_endoder.seq_layers.2.weight f4 [128, 128]
0	0xbc4c0b2f	-0.012453838
1	0xbbf50a5b	-0.007478041
2	0xbe218595	-0.15773614
3	0xbc45d256	-0.012074074
4	0xbda98ffe	-0.082794175
5	0x3e13aa93	0.14420538
6	0x3ddcb107	0.10775953
7	0x3d0a1b70	0.033717573
8	0xbda03758	-0.07823056
9	0x3df900dc	0.12158367
10	0xbe0b1527	-0.13582288
11	0xbe82cb94	-0.25545943
12	0xbd1a88b0	-0.03772801
13	0xbc972c57	-0.01845376
14	0x3cbafee5	0.022826621
15	0x3d9524dc	0.07282421
16	0x3e321eeb	0.17394607
17	0x3d0e4d68	0.03474179
18	0x3e06770e	0.13131353
19	0xbd2e033f	-0.042483564
20	0xbc82ff05	-0.015990743
21	0xbd872407	-0.065986685
22	0xbcc38d23	-0.02387101
23	0x3e1ab913	0.15109663
24	0x3e145bf7	0.14488207
25	0xbdf43350	-0.119238496
26	0xbc90d09f	-0.017677603
27	0x3d487dc3	0.04894806
28	0xbd8d584a	-0.069016054
29	0xbdbf277a	-0.093337014
30	0xbc580b9f	-0.013186364
31	0x3e336da7	0.17522298
32	0x3dfae820	0.122513056
33	0xbe2029f3	-0.15641002
34	0xbd4cad61	-0.049970035
35	0xbb16a21e	-0.0022984813
36	0x3d7225c1	0.059118036
37	0x3ac5f243	0.0015102107
38	0xbe302440	-0.17201328
39	0x3dde549b	0.10855981
40	0x3d9095f8	0.07059854
41	0x3d4ba643	0.049719106
42	0x3c845581	0.016154053
43	0x3ddb63ba	0.10712381
44	0xbd746565	-0.05966701
45	0x3d1a2c1e	0.03763973
46	0x3ae96810	0.0017807502
47	0xbd12a81b	-0.03580485
48	0x3d387bb7	0.04503986
49	0x3d1da659	0.03848872
50	0xbdc16e4e	-0.09444867
51	0xbc139917	-0.009008667
52	0xbcbf63f6	-0.023363095
53	0xbc608512	-0.013703601
54	0xbdf82c79	-0.121178575
55	0xbe717baf	-0.23582338
56	0xbd453daa	-0.04815451
57	0x3d804871	0.06263817
58	0x3d7cecb3	0.06174917
59	0xbe0cf6d4	-0.13766032
60	0x3b95c128	0.004570145
61	0xbd856b0a	-0.06514557
62	0xbdc8a08d	-0.09796248
63	0x3dc908c3	0.09816124
64	0xbd1fb9d8	-0.038995594
65	0xbb26e4ed	-0.002546604
66	0x3dcc9512	0.099893704
67	0x3c34a242	0.011025013
68	0xbcbe4f27	-0.023231102
69	0x3dca9e97	0.0989353
70	0xbd462a15	-0.048379976
71	0x3dd4c1c1	0.10388518
72	0x3c876174	0.016525961
73	0xbe78f55c	-0.24312347
74	0xbd919219	-0.07107944
75	0xbd33bb34	-0.043879703
76	0xbde40592	-0.11133875
77	0x3d90dacf	0.070729844
78	0xbce8aab2	-0.028401706
79	0x3d8db390	0.069190145
80	0xbe8ccc96	-0.27499837
81	0x3e08aa77	0.13346277
82	0xbdae84a7	-0.08521395
83	0x3d50dbe3	0.05099095
84	0x3e10fd8f	0.14159225
85	0x3d00c2b1	0.031435672
86	0x3ddaccf4	0.10683623
87	0x3db4d4ce	0.08829652
88	0x3e829179	0.25501612
89	0x3d916670	0.070996165
90	0x3d411e43	0.047148
91	0xbc998d1b	-0.018744042
92	0x3d1cb963	0.038262736
93	0x3e38fa7f	0.18064307
94	0xbc4012b7	-0.011723212
95	0xbd753811	-0.059867922
96	0x3d9bc4ea	0.07605918
97	0xbdd542a5	-0.10413102
98	0x3cf3a98f	0.029743938
99	0x3d1ac698	0.03778705
100	0xbd786bb7	-0.0606496
101	0x3d081efc	0.033232674
102	0x3d7da59a	0.061925508
103	0xbc8304c1	-0.015993478
104	0x3e073917	0.13205372
105	0x3d228536	0.03967782
106	0x3d3741f0	0.044740617
107	0xbe67cd4e	-0.22636911
108	0xbe66c8e1	-0.22537567
109	0x3d8a94ad	0.06766639
110	0x3d93684a	0.07197626
111	0x3c907843	0.01763547
112	0xbd4553b7	-0.04817554
113	0x3d9a499f	0.07533573
114	0x3d8cbb38	0.06871647
115	0xbde3f88b	-0.1113139
116	0x3c47272e	0.012155337
117	0xbd966072	-0.07342614
118	0x3e209458	0.15681589
119	0x3deef537	0.11667865
120	0xbde9d3d0	-0.11417353
121	0xbda9e465	-0.08295516
122	0x3db6fb21	0.08934618
123	0xbdfdaebb	-0.12386843
124	0xbcf04e22	-0.029334132
125	0xbd7492e2	-0.05971039
126	0xbe107030	-0.14105296
127	0x3dd881ae	0.105716094
128	0xbaa1c55c	-0.0012342143
129	0xbbd36dae	-0.006452284
130	0xbd5ebbb1	-0.054378215
131	0x3de3c154	0.11120859
132	0x3d1fa481	0.038975243
133	0xbd473aeb	-0.048640173
134	0x3e159ce6	0.14610633
135	0x3e2655ef	0.16243719
136	0xbdfb1553	-0.12259927
137	0x3ca5a955	0.020222345
138	0x3d8a67c1	0.06758071
139	0x3e2e8ae7	0.17045175
140	0xbe182e4a	-0.14861408
141	0xb9ed9184	-0.0004531258
142	0xbc97965a	-0.01850431
143	0x3bb12c0c	0.005406862
144	0x3e417821	0.18893482
145	0xbcb09fe2	-0.021560613
146	0xbc244eef	-0.010028585
147	0xbdec88da	-0.1154954
148	0xbdc20b67	-0.09474831
149	0xbe20aaaf	-0.1569011
150	0xbd0031bf	-0.03129744
151	0x3d797d1f	0.06091034
152	0xbd0687cd	-0.032844353
153	0xbe03130d	-0.12800236
154	0x3c428ca4	0.011874352
155	0x3dc3af4f	0.09554922
156	0xbbdce06c	-0.0067406204
157	0xbe2c1295	-0.16803963
158	0xbe3cbe1a	-0.18431893
159	0x38cdf41c	9.820631e-05
160	0x3dd84d94	0.10561672
161	0x3d0b58f5	0.034020383
162	0xbd9c9923	-0.07646396
163	0x3e156cc3	0.1459227
164	0xbd3abd21	-0.045590524
165	0xbdc587bb	-0.09645029
166	0x3d918d7f	0.07107066
167	0xbd8dcb41	-0.06923533
168	0xbd483335	-0.04887696
169	0xbd168274	-0.036745504
170	0xbde73739	-0.1128983
171	0xbcdb5563	-0.026774114
172	0x3c69c850	0.01426895
173	0xbc423a83	-0.011854771
174	0xbbdac2c7	-0.0066760513
175	0xbdef47d1	-0.1168362
176	0xbdf151e6	-0.11783199
177	0x3e82f563	0.2557784
178	0xbd235610	-0.039876997
179	0xbddc92c7	-0.10770183
180	0xbdd7926f	-0.10525977
181	0x3e6aed97	0.22942196
182	0xbc7774d6	-0.015103539
183	0xbe38c1cd	-0.18042679
184	0xbde9f801	-0.11424256
185	0x3c4144db	0.011796202
186	0xbdb77666	-0.089581296
187	0xbc482b29	-0.012217321
188	0xbe720c93	-0.23637609
189	0x3d43bf80	0.04779005
190	0xbcd3b9e4	-0.025845475
191	0x3cc2b260	0.023766696
192	0x3dab2e4d	0.083584405
193	0x3d067dfe	0.032835
194	0x3def9095	0.11697499
195	0xbe5d0e69	-0.21587528
196	0x398dda95	0.00027056472
197	0x3cc0168b	0.02344825
198	0xbdad8f19	-0.08474559
199	0xbd774838	-0.060371608
200	0xbd4a8c39	-0.049450133
201	0xbe66d3a8	-0.22541678
202	0xbe2094f1	-0.15681817
203	0x3e14bfdf	0.14526318
204	0xbe007445	-0.12544353
205	0x3e5afb6f	0.21384977
206	0xbcfaba9f	-0.030606566
207	0xbe3dcec3	-0.18535905
208	0xbd76094b	-0.060067456
209	0xbda5c840	-0.08094835
210	0xbe375d40	-0.17906666
211	0x3e2646bd	0.16237922
212	0x3db3dcfd	0.087823845
213	0xbcdc2e92	-0.026877675
214	0xbe1a6d11	-0.15080668
215	0xbe219495	-0.15779336
216	0x3da5b1df	0.08090567
217	0x3d9bea91	0.07613099
218	0x3dccbfb1	0.099975
219	0xbe171dc0	-0.14757442
220	0xbe06cb19	-0.13163413
221	0xbd2c5a08	-0.042078048
222	0x3c23ef1f	0.010005741
223	0xbd393dc4	-0.04522492
224	0xbd62cee9	-0.055373106
225	0xbda21882	-0.07914831
226	0x3cdbcf35	0.026832202
227	0xbdfd6ab4	-0.12373868
228	0xbcdf3159	-0.02724521
229	0xbe621b64	-0.22080761
230	0x3d51e806	0.051246665
231	0x3daf1622	0.085491434
232	0x3ded86e6	0.115979955
233	0x3c989230	0.018624395
234	0xbe22ed45	-0.15910824
235	0xbdc50328	-0.09619743
236	0x3e1d58c9	0.153659
237	0x3dcbfcf0	0.099603534
238	0xbc8be616	-0.017077487
239	0x3da7950c	0.08182725
240	0x3d42d6e4	0.047568217
241	0x3db0899e	0.086199984
242	0xbdfc209f	-0.123109095
243	0x3db3b925	0.08775548
244	0x3ccba9f2	0.02486131
245	0xbbf15e31	-0.007365965
246	0xbbc24cc9	-0.0059295637
247	0x3e453633	0.19258957
248	0xbd5a028c	-0.053225085
249	0xbdda555b	-0.106608115
250	0x3d4422e0	0.047884822
251	0xbd8ad743	-0.06779339
252	0x3daec03b	0.08532759
253	0x3d71d915	0.059044916
254	0xbe340151	-0.17578627
255	0x3cdb1032	0.026741121

network_body._body_endoder.seq_layers.2.bias f4 [128]
0	0x3bf5db85	0.0075029754
1	0x3ce10edc	0.027472906
2	0x3bb0ed0d	0.0053993524
3	0x3cff25a4	0.031145878
4	0xbb8b822c	-0.004257461
5	0x3c78e2bd	0.015190777
6	0x3d315a17	0.043298807
7	0x3d0b8b67	0.03406849
8	0x3c03f9a4	0.008055124
9	0x3d371448	0.044697076
10	0x3cef0cbb	0.029180875
11	0x3d0063ee	0.0313453
12	0x3a9ec8f7	0.0012114336
13	0x3d3957b9	0.045249674
14	0xbb3fb97a	-0.002925484
15	0x3cb8115b	0.022469213
16	0xbc2643e6	-0.010148024
17	0x3cac6317	0.021043343
18	0x3ccdb60b	0.025111219
19	0x3c8b6bab	0.017019114
20	0x3cc99a79	0.024609791
21	0x3cf284d5	0.029604355
22	0x3d1fc4c5	0.039006013
23	0x3cfbde02	0.03074551
24	0xbb28b35c	-0.0025741672
25	0x3cfdb7f5	0.030971507
26	0x3c83a8b3	0.016071653
27	0x3c76f3bb	0.015072758
28	0x3ccf12c4	0.025277503
29	0x3d08e9a6	0.03342595
30	0x3b9ac58f	0.004723258
31	0x3d159337	0.03651735
32	0x3d148ee8	0.0362691
33	0xbc939919	-0.018017339
34	0x3c6577de	0.014005629
35	0x3c1a1f63	0.009406897
36	0x3c88da10	0.016705543
37	0x3cc4f873	0.024044251
38	0x3d1c6265	0.038179774
39	0x3cd0e3d8	0.02549927
40	0x3cb15ec9	0.021651642
41	0x3cc5cdc3	0.024145966
42	0x3d0187d4	0.031623676
43	0x3cea9260	0.02863425
44	0x3ca0efe8	0.019645646
45	0xbc05b1c9	-0.008160063
46	0x3d12a4ee	0.03580182
47	0x3cd01241	0.02539933
48	0xbca9a894	-0.020710267
49	0x3d08905d	0.0333408
50	0x3d0f8cc1	0.035046343
51	0x3cc9bb22	0.024625365
52	0x3cbc6ead	0.023001993
53	0x3d252e7c	0.040327534
54	0x3d44141b	0.047870737
55	0x3d073a88	0.033014804
56	0x3ca17774	0.01971028
57	0x3c77d7a3	0.015127095
58	0x3d26794e	0.04064303
59	0x3c8ccaa3	0.017186468
60	0x3d351a8f	0.04421478
61	0xbc3fbc10	-0.011702552
62	0x3c19f845	0.009397571
63	0x3cea25bb	0.028582444
64	0x3ceaa530	0.02864322
65	0x3d3c83c3	0.046024095
66	0x3d0e2ff2	0.034713693
67	0x3c38d783	0.011281851
68	0x3cac0b56	0.0210015
69	0x3bad6f94	0.005292842
70	0x3b1d016e	0.002395715
71	0xbc09dd40	-0.0084145665
72	0x3ca1ebe9	0.019765811
73	0xbc34581e	-0.011007337
74	0xbb89f293	-0.0042098253
75	0x3cfbd0f7	0.03073929
76	0x3cf61ff5	0.030044535
77	0x3d2670ca	0.040634908
78	0x3cef1d62	0.029188816
79	0x3d175263	0.036943804
80	0xbbd0769c	-0.0063617956
81	0x3cde189b	0.027111342
82	0xbc6d5e13	-0.014487761
83	0x3d004fba	0.031326033
84	0x3d296f01	0.041365627
85	0xbb8da1bd	-0.004322259
86	0x3d14f7e7	0.03636923
87	0xbaf830bf	-0.0018935426
88	0x3cacfc0f	0.021116285
89	0x3d21b31b	0.03947745
90	0x3c9554df	0.018228946
91	0xbc001aac	-0.007818859
92	0x3d0256f3	0.031821202
93	0x3d10ed5f	0.035382625
94	0xbbff659b	-0.0077940947
95	0x3c9a8242	0.01886094
96	0x3ad49e92	0.0016221574
97	0x3d1ed8c1	0.03878093
98	0xbbb35f27	-0.0054739895
99	0x3cf6454e	0.030062344
100	0x3ccbdb26	0.024884772
101	0x3c875978	0.016522154
102	0x3c46a6dd	0.012124744
103	0xbb885732	-0.004160785
104	0x3bcfbda2	0.0063397447
105	0x3b305845	0.0026908081
106	0x3d2725b1	0.04080743
107	0x3cc28d42	0.023748998
108	0x3bf7eb07	0.0075658592
109	0xbc85a57e	-0.016314264
110	0xbb814f95	-0.0039462545
111	0x3cf6fe90	0.030150682
112	0x3d00ee03	0.031476986
113	0x3c2037b9	0.00977891
114	0x3c79f592	0.015256302
115	0xbb1d8e7e	-0.002404123
116	0x3cd0c681	0.025485279
117	0x3c4859ac	0.012228411
118	0xba03805f	-0.0005016382
119	0xbc502393	-0.012703794
120	0x3cd48f77	0.025947316
121	0x3d0d8423	0.034549844
122	0x3cf2b810	0.029628783
123	0x3c8d5337	0.017251594
124	0x3cd37294	0.025811471
125	0xbb5ffbcc	-0.0034177182
126	0x3cd211c1	0.025643231
127	0xbbb03e79	-0.005378541

action_model._discrete_distribution.branches.0.weight f4 [3, 128]
0	0xbc23973e	-0.009984789
1	0xba881ecf	-0.0010385158
2	0x3ca56073	0.020187592
3	0xbc06cbfb	-0.008227344
4	0x3c194d9f	0.009356885
5	0xbd542c60	-0.05180013
6	0x3b45f0f2	0.003020343
7	0xbcd776db	-0.026301792
8	0x3c5885c4	0.013215486
9	0x3d2f97f2	0.042869516
10	0xbd3dd194	-0.046342447
11	0xbc3341b8	-0.010940962
12	0x3d559984	0.052148357
13	0xbc8b1445	-0.016977439
14	0x3cc073a9	0.023492651
15	0xbced03df	-0.02893251
16	0x3cb880a2	0.022522274
17	0x3d3c675f	0.04599702
18	0xbd039e52	-0.032133408
19	0xbd8193f8	-0.06327051
20	0xbcde4232	-0.027131174
21	0xbcb0685f	-0.021534143
22	0x3c92cbe5	0.01791949
23	0x3d0b106a	0.0339512
24	0x3ba43e9f	0.005012348
25	0xbcc33253	-0.023827707
26	0xbd000b1d	-0.0312606
27	0xbd6932cd	-0.056933213
28	0xbcd38e35	-0.025824646
29	0xbca2c3ee	-0.019868817
30	0x3d2894a7	0.04115739
31	0xbbf43d30	-0.007453583
32	0xbc2c3925	-0.010511671
33	0x3cf00f7b	0.029304257
34	0x3c6b4ce5	0.014361595
35	0x3d005762	0.031333335
36	0xbd85596d	-0.06511197
37	0xbc9fb9e3	-0.019497817
38	0xbd2b7b94	-0.0418659
39	0xbce4c00e	-0.02792361
40	0x3d1ea2c8	0.03872946
41	0x3c152b75	0.009104599
42	0xbcae7893	-0.021297729
43	0xbccf4a1b	-0.02530389
44	0x3d16dc0c	0.036830947
45	0x3d47b083	0.04875232
46	0xbd3dd9d8	-0.04635033
47	0xbd09aebb	-0.0336139
48	0x3b2d9cad	0.002649109
49	0x3c98ec3a	0.01866733
50	0xbc8bb0e0	-0.017052114
51	0x3c630251	0.013855533
52	0xbc32939e	-0.0108994525
53	0xbda665b7	-0.08124869
54	0x3d6b415d	0.057435382
55	0xbbf9c7a5	-0.0076226764
56	0x3c0ce1ee	0.008598788
57	0xbd1b0386	-0.037845157
58	0x3d36df7a	0.044646718
59	0xbcf14258	-0.02945058
60	0x3c0dcd24	0.008654866
61	0x3ca87e7a	0.020568121
62	0x3d082ca8	0.033245713
63	0xbc8756ff	-0.016520975
64	0xbc6ef184	-0.014583949
65	0x3d1441d3	0.036195587
66	0xbc8b25a6	-0.016985726
67	0xbcd151f6	-0.025551777
68	0xbcc9a47c	-0.024614565
69	0x3c96df4b	0.018417021
70	0xbd2cf0b6	-0.042221747
71	0x3c30e45d	0.010796634
72	0x3d2fa96a	0.042886175
73	0xbbd8d905	-0.0066176676
74	0x3c916263	0.01774711
75	0x37f57d26	2.9264553e-05
76	0xbc486dda	-0.012233222
77	0xbc570f14	-0.0131261535
78	0xbc37fac6	-0.011229223
79	0x3b8fb537	0.004385616
80	0xbc888abc	-0.016667716
81	0xbcabb3a3	-0.02095968
82	0x3b40a62c	0.002939592
83	0xbcd25d21	-0.025679173
84	0xbce699e8	-0.02814956
85	0x3d47474a	0.04865197
86	0x3c81a82e	0.015827265
87	0x3c1b536c	0.009480339
88	0xbcd2574e	-0.025676396
89	0x3d957f36	0.07299654
90	0xbc264791	-0.010148899
91	0x3c98147d	0.018564457
92	0xbc1d068d	-0.009584081
93	0x3cad703d	0.021171683
94	0x3c15e711	0.009149329
95	0xbc7a8c4e	-0.01529224
96	0x3d09e09f	0.03366148
97	0xbd1e4362	-0.03863848
98	0x3d71fa44	0.059076563
99	0x3cdbfcba	0.026853908
100	0xbd3144e4	-0.04327859
101	0xbd0caaf4	-0.03434272
102	0xbd79d57d	-0.060994614
103	0x3d3650d9	0.044510696
104	0xbc2be7c1	-0.010492266
105	0x3c1a8215	0.009430428
106	0xbca4a00f	-0.020095853
107	0xbd69c633	-0.057073783
108	0xbcc53c42	-0.024076585
109	0x3d057a90	0.032587588
110	0x3b7c0508	0.0038455147
111	0xbd9ab6a1	-0.07554365
112	0xbcfe574a	-0.031047482
113	0x3bcdd6ca	0.0062817084
114	0xbcb71f2b	-0.02235373
115	0x3cf0d037	0.02939616
116	0xbc7548bc	-0.0149709545
117	0x3ceb61ff	0.028733252
118	0x3c9d9703	0.019237047
119	0x3c3b70dc	0.011440482
120	0xbd5fa7fa	-0.054603554
121	0xbce9410f	-0.028473405
122	0xbcb67fcc	-0.022277735
123	0x3c98ce9a	0.018653203
124	0xbbdbf9b9	-0.006713119
125	0x3d4847a4	0.048896447
126	0xbc204c4c	-0.009783816
127	0x3cc95614	0.024577178
128	0xbd886d4e	-0.06661473
129	0xbd8418ea	-0.064500645
130	0x3c52f891	0.012876646
131	0x3ad42e42	0.0016188102
132	0x3c38a160	0.011268944
133	0x3d518c06	0.051158927
134	0xbd441acf	-0.04787713
135	0x3bb03613	0.00537754
136	0x3b6fa8dd	0.0036569156
137	0xbd92fd45	-0.071772136
138	0x3bdeceff	0.006799578
139	0x3bed9909	0.007250909
140	0xbca33962	-0.019924823
141	0xbb2949b5	-0.0025831286
142	0xbc3504a6	-0.011048472
143	0x3cb26cce	0.021780398
144	0xbc1f6756	-0.009729227
145	0xbd135211	-0.035966936
146	0x3c8e8d54	0.017401375
147	0x3d1f2ec6	0.038862966
148	0x3bc4362e	0.005987904
149	0x3c34e616	0.011041185
150	0xbd323a1c	-0.04351245
151	0xbcfe1107	-0.031013979
152	0xbb9519ae	-0.0045501804
153	0x3c44a87c	0.01200306
154	0x3cacd16c	0.021095954
155	0x3d185ca1	0.037197713
156	0x3d0790c3	0.03309704
157	0x3c58f2a4	0.013241444
158	0x3c547a11	0.012968556
159	0x3d5068a2	0.050881036
160	0xbc99de2b	-0.018782696
161	0x3b3b32fb	0.0028564322
162	0x3cf9a473	0.030473923
163	0xbb3a9de9	-0.002847547
164	0x3d00eda1	0.03147662
165	0xbc3481b4	-0.011017252
166	0x3bb436a2	0.005499677
167	0x3c3f1d74	0.011664737
168	0x3c27e633	0.010247755
169	0xbcc9713f	-0.024590133
170	0xbc117223	-0.00887731
171	0x3c9c34f7	0.019068224
172	0xbb4aa50b	-0.0030921127
173	0xbd194c82	-0.03742648
174	0x3c146764	0.009057853
175	0x3b97887e	0.0046244254
176	0x3bc66f06	0.0060557155
177	0xbb89d3d3	-0.0042061596
178	0xbbc76b70	-0.0060858056
179	0xbd1db970	-0.038506925
180	0x3c4ed83a	0.012624795
181	0x3dbde9e7	0.09273129
182	0xbd5d1b74	-0.05398126
183	0xbbe8c102	-0.0071030864
184	0xbd8fb2df	-0.07016539
185	0x3c70e20d	0.014702332
186	0xbd6f5deb	-0.058439177
187	0x3c6351a8	0.013874449
188	0xbb80726a	-0.003919889
189	0x3bed85a8	0.007248599
190	0x3d12a8ac	0.03580539
191	0x3be57058	0.007001918
192	0x3b991001	0.0046710973
193	0xbd70c3a9	-0.058780346
194	0xbc0bdcbf	-0.008536517
195	0x3b4bea42	0.003111497
196	0x3c033666	0.008008575
197	0xbb25d939	-0.0025306477
198	0x3d478015	0.048706133
199	0xbc450fd4	-0.0120276995
200	0xbd77194a	-0.060326852
201	0xbae96606	-0.0017806895
202	0xbcea7384	-0.028619535
203	0x3c673fb6	0.014114311
204	0x3c40a7e7	0.011758781
205	0x3bf3061c	0.0074165
206	0xbafec61a	-0.0019437701
207	0xbd794b6d	-0.060862947
208	0x3d088189	0.03332666
209	0x3c11d999	0.008901977
210	0xbc890dd6	-0.01673023
211	0x3d5b1a54	0.053491905
212	0xbb4e7ef5	-0.0031508778
213	0xb953930e	-0.0002017731
214	0xbd23e720	-0.04001534
215	0xbba59c7a	-0.005054054
216	0xbb9c6afd	-0.004773496
217	0xbd8b7a31	-0.068104155
218	0x3c16b4b6	0.009198358
219	0xbd2d52fa	-0.04231546
220	0x3c24e9a0	0.010065466
221	0xbd4a092c	-0.049325153
222	0x3b2c0cc0	0.0026252717
223	0x3d166684	0.03671886
224	0x3b3adb26	0.002851197
225	0x3d10ccc7	0.03535154
226	0xbd91a691	-0.07111848
227	0xbcd35153	-0.025795614
228	0x3c680a7f	0.014162659
229	0x3c7675a2	0.015042694
230	0x3d076ff6	0.03306576
231	0x3c4da695	0.012551923
232	0xbc2f69c8	-0.010706373
233	0xbd5bc300	-0.053652763
234	0xbb75b713	-0.0037493154
235	0x3bdecee5	0.006799566
236	0x3c00acdf	0.007853716
237	0xbd17d732	-0.03707046
238	0xbc12d042	-0.008960785
239	0x3d62e8ba	0.055397727
240	0x3cb7c262	0.022431556
241	0x3b6780b4	0.0035324516
242	0x3cae3ca8	0.021269158
243	0xbc8a7b44	-0.01690448
244	0x3ca909b6	0.020634513
245	0xbd7f0378	-0.062259167
246	0x3a291089	0.00064493023
247	0xbcef92e2	-0.029244844
248	0x3cfd588c	0.030926012
249	0x3be6aa1d	0.007039322
250	0x3c34488c	0.011003625
251	0xbd2d4f5f	-0.042312022
252	0x3cdb612f	0.02677974
253	0x3bb1be21	0.0054242765
254	0x3c2cd79c	0.010549452
255	0x3c959a29	0.018261986

action_model._discrete_distribution.branches.0.bias f4 [3]
0	0xbc21e3f1	-0.009881006
1	0x3c7e224f	0.0155111095
2	0xbcf66455	-0.030077139

action_model._discrete_distribution.branches.1.weight f4 [3, 128]
0	0x3c192b25	0.009348665
1	0x3cdf0936	0.027226072
2	0xbcd16902	-0.025562767
3	0x3d232893	0.039833616
4	0xbd434917	-0.047677126
5	0xbcf238af	-0.029568044
6	0x3d0d2527	0.03445926
7	0x3d1c5390	0.03816563
8	0xbcc4498c	-0.023960851
9	0x3d17762d	0.036977936
10	0x3ccb1dfb	0.02479457
11	0x3d7a2287	0.061068084
12	0xbcabe64d	-0.02098384
13	0x3d57bff4	0.052673295
14	0xbcb298a7	-0.021801306
15	0x3cfb37f9	0.030666338
16	0xbd125c75	-0.035732705
17	0x3c6dcc92	0.014514105
18	0x3d36f818	0.044670194
19	0x3cd43b42	0.025907163
20	0x3d15483d	0.036445845
21	0x3cd7ca06	0.02634145
22	0x3ccd5d47	0.025068892
23	0xbac45647	-0.0014979326
24	0xbcc38630	-0.023867697
25	0x3d24e5d2	0.040258236
26	0x3cc5e594	0.024157323
27	0x3d2ac1bf	0.041688677
28	0x3d29c03f	0.041443106
29	0x3d7a5372	0.061114736
30	0xbd10c82f	-0.03534716
31	0xbbcfb7bf	-0.006339043
32	0x3d16dc77	0.036831345
33	0xbd00cea6	-0.031447075
34	0xbd2165cb	-0.039403718
35	0xbd152107	-0.03640845
36	0x3c584ed6	0.01320239
37	0x3d1fc25b	0.03900371
38	0x3d2daa8c	0.042398974
39	0x3d11a522	0.035557874
40	0xbd02f1ff	-0.031969067
41	0xbc1c53cc	-0.009541463
42	0x3d15d1a1	0.03657687
43	0x3c9ce44f	0.019151835
44	0xbd0944e5	-0.03351297
45	0xbc98542d	-0.018594826
46	0x3d3a25ac	0.045446083
47	0x3d091fef	0.03347772
48	0xbd04895d	-0.032357562
49	0xbc62c55f	-0.013841002
50	0x3cec2741	0.028827311
51	0x3a88a6eb	0.0010425722
52	0x3d34a8f6	0.044106446
53	0xbcc28a66	-0.023747634
54	0xbbab5b0d	-0.00522936
55	0x3d29b4ad	0.04143207
56	0x3d289467	0.041157153
57	0x3cfe910d	0.031075025
58	0xbcab7cd2	-0.020933542
59	0x3ca9e103	0.020737177
60	0x3d22e5e5	0.039770026
61	0xbd0222c1	-0.031771425
62	0xbd20543d	-0.039142836
63	0x3d07a1dd	0.03311335
64	0x3cd65990	0.026165754
65	0xbc3dfd70	-0.011596069
66	0x3d10daa3	0.03536476
67	0x3c887896	0.016659062
68	0x3cec3f83	0.028838878
69	0xbd1990bc	-0.037491545
70	0xbcd7fb2a	-0.026364882
71	0xbd34255f	-0.043980952
72	0x3cb21a30	0.021741003
73	0xbcf506e5	-0.029910514
74	0xbd21ef0f	-0.039534625
75	0x3b7a4024	0.0038185203
76	0x3d2b6c71	0.041851465
77	0x3d0c1bff	0.034206387
78	0x3d01f19d	0.03172456
79	0x3cdd94cb	0.02704849
80	0xbc433964	-0.011915538
81	0x3d2dfe57	0.042478886
82	0xbccda551	-0.025103243
83	0xbc603c14	-0.013686199
84	0x3d4cf136	0.050034724
85	0xbd0408d5	-0.032234985
86	0x3cc84c4e	0.024450447
87	0x3c1662fb	0.009178872
88	0x3d2f5e69	0.042814646
89	0x3b545185	0.0032397222
90	0x3bdcf280	0.0067427754
91	0xbcc29aee	-0.023755517
92	0x3d1985bb	0.03748105
93	0x3d075b1c	0.033045873
94	0xbc9c89c5	-0.019108662
95	0x3a4cf7a1	0.0007818882
96	0xbd326701	-0.043555263
97	0x3cadd5fb	0.021220198
98	0x3bb20f0c	0.0054339226
99	0xbce98730	-0.028506845
100	0x3d33ebdf	0.043926116
101	0x3d112e9d	0.035444845
102	0x3c6ee418	0.014580749
103	0xbd172d3c	-0.036908373
104	0x3ce012c0	0.02735269
105	0x3c87df67	0.016586019
106	0x3d107309	0.035265956
107	0x3c986257	0.01860158
108	0x3ca2258e	0.019793298
109	0xbbbf87a7	-0.0058450284
110	0xbcae0866	-0.021244239
111	0x3cc4edeb	0.02403923
112	0x3cf66dd2	0.030081663
113	0xbc4712c9	-0.012150475
114	0x3cecbb26	0.028897833
115	0xbcf7d313	-0.030252015
116	0x3cc760b0	0.024338096
117	0x3c77a692	0.015115397
118	0xbd18695e	-0.03720986
119	0xbc407c61	-0.011748404
120	0x3bdb2d32	0.0066887373
121	0x3d4ff5fb	0.050771695
122	0x3d2645d2	0.04059393
123	0x3d210739	0.03931353
124	0x3d250015	0.04028328
125	0xbcf6b210	-0.030114204
126	0x3d21d292	0.039507456
127	0xbd1bb1a9	-0.038011227
128	0xb8bf1514	-9.111516e-05
129	0xbcc85a32	-0.024457071
130	0x3c0cdb3f	0.008597194
131	0xbc91a24a	-0.01777758
132	0x3c24b81f	0.0100536635
133	0xbd3fd622	-0.046835072
134	0x3c3aa232	0.011391209
135	0xbcc8d71c	-0.024516635
136	0x3add0e88	0.0016865293
137	0xbb643f7d	-0.003482788
138	0xbd280c3f	-0.041027304
139	0x3b201e6e	0.00244322
140	0x3c97b0f1	0.01851699
141	0x3ae77f1e	0.0017661785
142	0x3d777e30	0.060423076
143	0xbc9b90e7	-0.018989993
144	0x3cb595f2	0.022166226
145	0xbb7411bb	-0.0037242013
146	0xbc6bf8c3	-0.014402571
147	0xbd209b0a	-0.039210357
148	0xbcb19a46	-0.021680009
149	0xbcb3352e	-0.021875944
150	0x3b565af9	0.0032708033
151	0xbcbaa3d8	-0.022783205
152	0x3caa7ecd	0.020812416
153	0xbd67cf41	-0.056594137
154	0xbc3df48c	-0.011593949
155	0xbd68fd1b	-0.056882005
156	0xbca78225	-0.0204478
157	0x3b82802c	0.0039825644
158	0xbc0910aa	-0.008365789
159	0x3ce71968	0.028210357
160	0x3c07445f	0.008256047
161	0x3c36dd8a	0.0111612175
162	0x3bf7482d	0.007546446
163	0xbcb89f7f	-0.022536991
164	0xbc4f2bfb	-0.012644763
165	0xbc327bd9	-0.010893785
166	0x3b00e2da	0.0019666464
167	0xbd1996e4	-0.037497416
168	0xbd249caa	-0.04018847
169	0x3d2eea74	0.04270406
170	0x39b6dd61	0.00034878685
171	0xbb7a0f51	-0.0038156102
172	0xbd1f7f91	-0.038940016
173	0xbc39c0d7	-0.0113374805
174	0xbcf9a958	-0.030476257
175	0xbd3675db	-0.04454599
176	0x3cb91a1c	0.022595458
177	0xbd2bd453	-0.041950535
178	0xbc63a60e	-0.013894571
179	0x3cd67d41	0.026182773
180	0xbc213e7a	-0.009841556
181	0xbcea890c	-0.028629802
182	0xbd06c8b9	-0.032906268
183	0xbce180e9	-0.02752729
184	0x3c6bc906	0.014391189
185	0xbcf37028	-0.029716566
186	0xbbe81f1b	-0.007083786
187	0xbcb53b7d	-0.022123093
188	0xbc4b3516	-0.012402793
189	0xb94b519c	-0.0001938999
190	0xbb3461c4	-0.0027524093
191	0x3c42f2d9	0.01189872
192	0xbd2e63ed	-0.042575765
193	0xbd17b9ee	-0.03704255
194	0xbbf96d7e	-0.0076119294
195	0xbd16718d	-0.036729384
196	0xbd65bdd1	-0.056089226
197	0xbb130c7b	-0.002243786
198	0xbce70550	-0.028200775
199	0x3c8fd7da	0.01755898
200	0x3afb8371	0.0019188953
201	0x3ceebe68	0.029143527
202	0x3baad218	0.0052130334
203	0xbc3bbb6a	-0.011458257
204	0x3b8b8323	0.004257576
205	0x3b8bbd22	0.0042644897
206	0xbcb11e3b	-0.02162086
207	0xbc3b02be	-0.011414228
208	0xbc9340cd	-0.017975235
209	0xbcc58ff2	-0.02411649
210	0x3ca92fda	0.0206527
211	0x3c3f76e9	0.011686065
212	0xbc72b6e0	-0.014814109
213	0xbbec686f	-0.007214598
214	0xbd125a74	-0.035730794
215	0xba55a045	-0.0008149187
216	0xbcd3b28f	-0.02584198
217	0xbbe206b5	-0.006897772
218	0xbcc93e63	-0.024565881
219	0x3d40e7c1	0.047096018
220	0xbd01e5f4	-0.03171344
221	0x3ab191ed	0.0013547518
222	0x3ccd717a	0.025078524
223	0x3c0aa9c7	0.00846333
224	0x3d7d8953	0.06189854
225	0xbc099baf	-0.008398934
226	0x3bee7af8	0.0072778426
227	0xbd14c579	-0.036321137
228	0xbd6ad4f8	-0.05733201
229	0xbc9f8cce	-0.01947632
230	0x3a61ebc5	0.0008618201
231	0x3c4fbb5c	0.012678947
232	0xbccaf836	-0.02477656
233	0xbcd0d963	-0.025494283
234	0xba4a0bc5	-0.0007707442
235	0xbd44ee93	-0.048079085
236	0xbccbcddf	-0.02487844
237	0x3cd56f26	0.026053976
238	0x3d65754e	0.056020074
239	0xbd37e95b	-0.04490028
240	0xba9ed1a6	-0.0012116923
241	0x3d613681	0.05498362
242	0xbb92116b	-0.004457643
243	0x3d4b7b3a	0.049678065
244	0xbc9bac42	-0.019003037
245	0x3c100a0d	0.008791459
246	0xbb87010b	-0.0041199974
247	0xbc545f8f	-0.012962236
248	0xbd262467	-0.04056206
249	0xbcb4a8bf	-0.02205312
250	0xbcf8f21b	-0.030388882
251	0x3cd7b5ee	0.026331868
252	0xbb1b130d	-0.0023662478
253	0x3c936c90	0.017996103
254	0xbd30247f	-0.043003555
255	0x3d746da9	0.059674893

action_model._discrete_distribution.branches.1.bias f4 [3]
0	0x3cc34e59	0.02384107
1	0xbc2ccb01	-0.010546447
2	0xbcc09e10	-0.02351287

action_model._discrete_distribution.branches.2.weight f4 [2, 128]
0	0x3ca67f26	0.020324301
1	0x3cea1c4a	0.028577942
2	0xbcba1156	-0.022713345
3	0x3ccc08ab	0.024906477
4	0xbd3f40e5	-0.046692748
5	0xbd4cdb4b	-0.05001382
6	0x3cef3bf8	0.0292034
7	0x3c9efb82	0.019407038
8	0xbce4b5cc	-0.027918719
9	0x3d462638	0.048376292
10	0x3d4b9d18	0.049710363
11	0x3d1ff8b0	0.039055526
12	0xbc81962f	-0.015818683
13	0x3cf2b1d1	0.029625805
14	0x3c1a29b8	0.009409361
15	0x3d31238b	0.043246787
16	0xbcd887de	-0.026431974
17	0x3cbb1462	0.022836868
18	0x3b27a56d	0.002558078
19	0x3d07bd90	0.033139765
20	0x3c0fddd4	0.008780915
21	0x3cd05262	0.025429908
22	0x3d29ea1f	0.04148304
23	0x3d387aa6	0.04503884
24	0xbd091d01	-0.033474926
25	0x3d0a5242	0.033769853
26	0x3c194fa6	0.009357369
27	0x3caa7228	0.020806387
28	0x3c7d32d3	0.015454012
29	0x3d4d7460	0.050159812
30	0xbd310926	-0.043221615
31	0xbcaf7588	-0.021418348
32	0x3d5195fa	0.05116842
33	0xbd3d33c5	-0.04619195
34	0xbcf5c849	-0.03000273
35	0xbc5527d6	-0.013009986
36	0x3c9a6098	0.018844888
37	0x3c946882	0.01811624
38	0x3cdf9ff8	0.027297959
39	0x3cf5a5b8	0.029986247
40	0xbd102aa7	-0.035196926
41	0x3ce7e0fc	0.028305523
42	0x3d0169cd	0.03159504
43	0x3ba30db5	0.0049759992
44	0xbc348c28	-0.011019744
45	0xbcd5fbaf	-0.026120989
46	0x3d0f00cd	0.034912873
47	0x3ccb4687	0.024813903
48	0xbcf80d49	-0.030279772
49	0x3d85fe92	0.06542696
50	0x3d2767bc	0.040870413
51	0x3cea54b4	0.028604843
52	0x3cabf208	0.020989433
53	0xbccacdf4	-0.02475641
54	0x3c929423	0.017892903
55	0x3d13159f	0.03590929
56	0x3d0e3918	0.034722418
57	0x3d0166ad	0.03159206
58	0x3d44d642	0.048055895
59	0x3c70231d	0.014656809
60	0x3d1840fc	0.03717135
61	0xbc2a00d2	-0.010376172
62	0xbcee7b9e	-0.02911168
63	0x3cb347d9	0.021884846
64	0x3d03dc27	0.032192376
65	0x3d77d7a5	0.06050839
66	0x3d1bc735	0.038031776
67	0x3c21c090	0.009872571
68	0x3ca59061	0.020210447
69	0xbb8f24e5	-0.004368412
70	0xbc2a577f	-0.010396837
71	0xbcbb0cae	-0.022833195
72	0x3beb5d0f	0.0071827243
73	0xbcb36d36	-0.021902662
74	0xbd5253a5	-0.0513493
75	0x3ca3dcf1	0.020002814
76	0x3c8bb805	0.01705552
77	0x3d0ee53e	0.03488659
78	0x3d8809bd	0.066424824
79	0x3d1c4cc7	0.038159158
80	0x3babb996	0.0052406294
81	0x3d15b3e8	0.036548525
82	0xbcfb9b3d	-0.030713672
83	0xbc8b08dc	-0.016971998
84	0x3c38e971	0.0112861255
85	0xbce79f4e	-0.028274205
86	0x3d5e6688	0.054297
87	0x3c3d2c52	0.011546211
88	0x3d0a7869	0.03380624
89	0x3d3376f9	0.043814633
90	0x3d1f4c51	0.03889114
91	0xbd1982a0	-0.03747809
92	0x3d2e6fe4	0.042587176
93	0x3d25bb08	0.04046157
94	0xbd0d6ddc	-0.0345286
95	0xba0e6885	-0.0005432445
96	0xbcc7c455	-0.02438561
97	0xbc991d40	-0.018690705
98	0xbb7155fd	-0.0036824935
99	0x3c5660b3	0.013084578
100	0x3d4f5cab	0.050625484
101	0x3d222477	0.039585557
102	0xbc37aaf5	-0.011210193
103	0xbc0619e0	-0.00818488
104	0xbbd6c000	-0.00655365
105	0x3ca60345	0.02026523
106	0x3cf26855	0.029590765
107	0x3c2c5d0f	0.010520234
108	0x3c94788e	0.018123891
109	0xbc90dcc5	-0.017683396
110	0xbd16fc44	-0.036861673
111	0x3b1f6c53	0.002432604
112	0x3d2ea346	0.04263618
113	0xbc4c9d43	-0.012488666
114	0x3cdaaceb	0.026693782
115	0xbc4a130c	-0.012333643
116	0x3cf4a846	0.029865395
117	0x3d10c13a	0.035340525
118	0xbd27e659	-0.04099116
119	0xbb8e07b0	-0.0043344125
120	0x3c94bc29	0.018156128
121	0x3c8c74d6	0.017145555
122	0x3ce4aa06	0.027913105
123	0x3d064445	0.03277995
124	0x3c661f3c	0.014045533
125	0x3b8330e9	0.0040036333
126	0x3cc3ced4	0.023902334
127	0xbc9d96d0	-0.019236952
128	0xbd260ae9	-0.04053775
129	0xbd37c968	-0.04486981
130	0x3d0249c4	0.03180863
131	0xbd21e4e2	-0.03952492
132	0x3cbca918	0.023029849
133	0x3d2ef7ae	0.042716675
134	0xbd346272	-0.044039197
135	0xbc9ee05e	-0.019394096
136	0x3d00239a	0.031283952
137	0xbd876877	-0.06611722
138	0xbd5d7bc6	-0.054073118
139	0xbd57898c	-0.05262141
140	0x3c8d96c7	0.01728381
141	0xbcd819ab	-0.026379427
142	0xbcbe60e4	-0.02323956
143	0xbd0325c4	-0.032018438
144	0x3c131de4	0.008979294
145	0xbd37b40b	-0.044849437
146	0xbca5199f	-0.020153819
147	0xbd1629b7	-0.036660876
148	0xbc997439	-0.018732177
149	0xbd421f0e	-0.047392897
150	0xbcd19a30	-0.025586218
151	0xbd024d18	-0.031811804
152	0x3d2223b4	0.03958483
153	0xbcb4adf0	-0.022055596
154	0xbc5abb68	-0.013350345
155	0xbca55c57	-0.020185633
156	0xbca9be50	-0.02072063
157	0xbd11e97b	-0.035623055
158	0x3d048aa8	0.032358795
159	0x3ab70ab3	0.0013964981
160	0xbce9fd68	-0.028563216
161	0x3d48238b	0.04886202
162	0x3ca89ae8	0.020581678
163	0x3c8705e9	0.01648231
164	0xbc879fef	-0.016555754
165	0xbd071acf	-0.03298455
166	0xbd06f06a	-0.03294412
167	0xbce75634	-0.028239347
168	0x3d0508a3	0.03247894
169	0xbd6ddb4b	-0.058070462
170	0xbd04edee	-0.03245347
171	0xbc8c9a6b	-0.017163476
172	0xbb09c338	-0.00210209
173	0x3cec1d9d	0.028822714
174	0xbcb9f8de	-0.022701677
175	0xbd1816c7	-0.037131097
176	0x3cc119f5	0.023571948
177	0xbd7cce13	-0.061719965
178	0xbd41995e	-0.047265403
179	0xbd240fb6	-0.040054046
180	0xbd182d45	-0.037152547
181	0x3d1a569e	0.03768026
182	0xbc9d8ec7	-0.01923312
183	0xbd3a68d8	-0.045510143
184	0xbd28986d	-0.04116099
185	0xbc9c4382	-0.019075159
186	0xbd3e1190	-0.046403468
187	0xbc1825ad	-0.009286326
188	0xbd3c740f	-0.04600912
189	0x3b28f86d	0.002578284
190	0x3d362d79	0.04447696
191	0xbd3be5ed	-0.04587357
192	0xbcc49337	-0.023995979
193	0xbd256b1f	-0.04038536
194	0xbd15ccf6	-0.03657242
195	0xbc4fb162	-0.012676569
196	0xbd05ffad	-0.032714535
197	0x3caee627	0.02134998
198	0x3c06f702	0.008237602
199	0x3ce81e43	0.028334742
200	0xba8a6c4d	-0.0010560841
201	0x3c8b92f1	0.01703784
202	0x3d52bd3b	0.051449995
203	0xbc8328d6	-0.016010683
204	0xbcbc8fe7	-0.023017837
205	0xbcdc8366	-0.026918124
206	0xbd4e71c6	-0.05040147
207	0xbd57ae84	-0.052656665
208	0x3c2fb5d9	0.010724508
209	0xbd3f4d9f	-0.046704885
210	0x3d237b9a	0.039912798
211	0x3cc4de06	0.02403165
212	0xbc88e354	-0.016709961
213	0x3c0952c3	0.008381548
214	0xbd64c1bb	-0.05584882
215	0xbc59fa4d	-0.013304305
216	0xbc9b246a	-0.018938262
217	0xbd610ef6	-0.05494591
218	0xbd1d0fd5	-0.038345177
219	0x3d034a39	0.032053206
220	0xbd374ea0	-0.044752717
221	0xbd34059d	-0.043950666
222	0x3d53a9d7	0.051675644
223	0x3ca08914	0.019596614
224	0x3c6b68d6	0.014368257
225	0x3c8a7c3e	0.016904946
226	0x3a486949	0.0007645083
227	0xbd0cde55	-0.03439172
228	0xbd234921	-0.039864663
229	0xbc261428	-0.010136642
230	0xba65bfe4	-0.00087642507
231	0x3cae9205	0.021309862
232	0xbbceb29b	-0.0063079125
233	0xbcc510fa	-0.024055947
234	0xbd2ee25e	-0.04269635
235	0xbd0d003c	-0.03442405
236	0xbca7603d	-0.020431632
237	0x3ccd4b0b	0.025060197
238	0x3d27614f	0.040864285
239	0x3ab72c21	0.0013974943
240	0xbd34b8e2	-0.04412163
241	0x3d056ec7	0.03257635
242	0xbcb893f2	-0.022531483
243	0x3cc9828a	0.024598379
244	0xbd738d4c	-0.059460923
245	0xbd153d69	-0.03643552
246	0x3d29487d	0.041328896
247	0x3be4fc7d	0.0069881068
248	0xbc3ba8ba	-0.011453802
249	0xbca3aeb7	-0.019980771
250	0xbcea01fa	-0.028565396
251	0xbc9da48c	-0.019243501
252	0xbbd8a6a5	-0.0066116625
253	0x3c7ee2d2	0.015557008
254	0xbcaed2f7	-0.02134083
255	0x3c05fbfb	0.008177753

action_model._discrete_distribution.branches.2.bias f4 [2]
0	0x3c3b97ab	0.011449735
1	0xbc3b97ac	-0.011449736

exp_avg f4 [128, 6]
0	0xb7825478	-1.5536541e-05
1	0xb854a582	-5.069888e-05
2	0x387a88c7	5.973203e-05
3	0xb7804637	-1.5291485e-05
4	0xb7951307	-1.7771044e-05
5	0x388fdf80	6.8604015e-05
6	0xb7b82cff	-2.1955462e-05
7	0x38bc8731	8.98972e-05
8	0xb81e3fe3	-3.7729635e-05
9	0x385a1227	5.1992156e-05
10	0x387b36f4	5.9894242e-05
11	0xb7886747	-1.6260556e-05
12	0xb799115a	-1.8247101e-05
13	0x387ef1e6	6.0783605e-05
14	0xb89e4924	-7.5476506e-05
15	0xb855fa77	-5.101642e-05
16	0xb87fcd50	-6.098795e-05
17	0x38d5ee3c	0.00010201006
18	0xb7a6daae	-1.9890573e-05
19	0x390e5307	0.00013573105
20	0xb8b3e201	-8.577482e-05
21	0x389c1136	7.4418655e-05
22	0xb8a66125	-7.9335914e-05
23	0x38bc268d	8.971719e-05
24	0x3709ac4b	8.205951e-06
25	0x378aefcf	1.6562552e-05
26	0xb7995b77	-1.8281613e-05
27	0xb612fcec	-2.1902915e-06
28	0xb80b655c	-3.323458e-05
29	0x37a5ccdb	1.9764926e-05
30	0xb82a4e08	-4.060383e-05
31	0xb93bb2c0	-0.000179003
32	0x38d6236c	0.00010210913
33	0xb4b9d1b2	-3.461151e-07
34	0x38bceff3	9.0092326e-05
35	0xb88e95a5	-6.798961e-05
36	0xb88c2491	-6.682531e-05
37	0xb900341f	-0.00012226448
38	0x393d5ff8	0.00018060196
39	0x38a3019f	7.7727476e-05
40	0xb54c9574	-7.6213405e-07
41	0x39072a9c	0.00012890477
42	0x37f2e432	2.895491e-05
43	0x377caad1	1.5060142e-05
44	0x381aa16e	3.6866804e-05
45	0x3830e429	4.217416e-05
46	0xb8a4450f	-7.8329926e-05
47	0x3914555d	0.0001414618
48	0xb76cb4b8	-1.4108773e-05
49	0x392caede	0.00016468341
50	0xb8db05ef	-0.00010443839
51	0x3712876b	8.733808e-06
52	0x37ad2255	2.0639194e-05
53	0x37ec8873	2.8196931e-05
54	0xb8695f2c	-5.5640165e-05
55	0xb8aee8dd	-8.340341e-05
56	0x37b48332	2.1518765e-05
57	0xb6aa2ca7	-5.071593e-06
58	0x3758e887	1.2928743e-05
59	0x38345382	4.2993117e-05
60	0x38c08111	9.179314e-05
61	0x38f108be	0.00011493404
62	0xb942ee4e	-0.00018590057
63	0xb929c179	-0.0001618917
64	0x37317a20	1.0578457e-05
65	0x39086a41	0.00013009553
66	0x371f6b5a	9.502133e-06
67	0xb68d6ebc	-4.2150186e-06
68	0x36e25aca	6.745894e-06
69	0xb849bb35	-4.8096485e-05
70	0x38a98a92	8.084359e-05
71	0x370a9664	8.2604565e-06
72	0xb7850898	-1.5858837e-05
73	0x380c5d2b	3.346537e-05
74	0xb82fd744	-4.1923733e-05
75	0x3750ab58	1.243766e-05
76	0xb8f56ada	-0.00011702413
77	0x3867db85	5.5279135e-05
78	0xb8c7be95	-9.524558e-05
79	0xb92f803e	-0.00016737074
80	0x39044d59	0.00012617315
81	0x379be99a	1.8586219e-05
82	0xb81cfb09	-3.7427093e-05
83	0x37675009	1.3787308e-05
84	0xb934c17b	-0.00017238215
85	0xb9f3cec3	-0.0004650262
86	0x390cf114	0.00013441249
87	0xb937987a	-0.00017509042
88	0x3860de71	5.3612926e-05
89	0xb706d878	-8.037423e-06
90	0x36c74047	5.938145e-06
91	0xb9954585	-0.0002847129
92	0xb591846f	-1.0841885e-06
93	0xb95275e6	-0.00020071081
94	0xb762eb53	-1.352544e-05
95	0x380cb5cc	3.3547913e-05
96	0xb7b435c1	-2.1482703e-05
97	0xb9d23b75	-0.0004009862
98	0x38e7fa60	0.00011061574
99	0xb9527bb0	-0.00020073238
100	0x3880a285	6.133787e-05
101	0x3801d44a	3.0953706e-05
102	0xb7d04c55	-2.4831077e-05
103	0x38a1723c	7.698356e-05
104	0x3663df86	3.3955744e-06
105	0x38d0dabc	9.958955e-05
106	0x38cfe998	9.9140394e-05
107	0xb914bd85	-0.00014184981
108	0xb7d7ddbb	-2.5733249e-05
109	0xb92068f8	-0.00015297893
110	0x388a3f5f	6.5921566e-05
111	0x3733b828	1.0712109e-05
112	0xb77b753e	-1.4988063e-05
113	0x37004b0a	7.646866e-06
114	0x380e3afb	3.3910368e-05
115	0x37925a3d	1.7446577e-05
116	0xb8d30625	-0.000100624085
117	0xb8f7dbd3	-0.00011818823
118	0xb8f0ed78	-0.00011488324
119	0x392b27b5	0.00016322623
120	0xb8236f75	-3.896603e-05
121	0x37c0208a	2.2903336e-05
122	0x36e75c5d	6.895089e-06
123	0xb798e1ad	-1.82249e-05
124	0xb81e091c	-3.767862e-05
125	0x37fe432b	3.0310437e-05
126	0x3763eae5	1.3584945e-05
127	0x38f230ca	0.00011548547
128	0xb9354060	-0.00017285487
129	0xb5eab357	-1.7486553e-06
130	0xb8f92ff7	-0.000118821794
131	0x390f3408	0.00013656926
132	0xb7f03903	-2.8636778e-05
133	0xb779501e	-1.486021e-05
134	0x37638b9c	1.356276e-05
135	0x37b5491b	2.1610924e-05
136	0xb72c96dd	-1.02871245e-05
137	0x3694f2ce	4.43901e-06
138	0xb8dcaf6a	-0.00010523091
139	0xb94918af	-0.00019178049
140	0x392f3fb2	0.00016713029
141	0x375a94c1	1.3028447e-05
142	0xb8624c87	-5.395387e-05
143	0x38941efc	7.062961e-05
144	0xb8eb827d	-0.000112299786
145	0xb956990d	-0.00020465646
146	0x3924d959	0.00015721227
147	0xb7843ef2	-1.5764937e-05
148	0x38e901f8	0.000111106725
149	0xb93ceab4	-0.00018016511
150	0x380fb1e8	3.4259545e-05
151	0x3960bbaa	0.00021432215
152	0xb924be13	-0.00015711067
153	0x37c211ec	2.3134948e-05
154	0xb670e695	-3.5897003e-06
155	0x384465d4	4.6824876e-05
156	0xb888f7c4	-6.531135e-05
157	0xb93a88d6	-0.00017789318
158	0x37c1ccfb	2.3102844e-05
159	0xb8bb95dc	-8.944768e-05
160	0xb8841de7	-6.29982e-05
161	0x38e9f3ea	0.00011155738
162	0x390b2764	0.00013270747
163	0x38a97c35	8.081683e-05
164	0x38d15354	9.981418e-05
165	0xb790a9ac	-1.7245147e-05
166	0xb662ca36	-3.3794327e-06
167	0x38a8017b	8.01114e-05
168	0xb87b27c4	-5.9880098e-05
169	0xb941cd8c	-0.00018482486
170	0x36094bb0	2.0458647e-06
171	0xb900d61f	-0.00012286798
172	0x383008eb	4.1969975e-05
173	0xb6ee2faf	-7.098504e-06
174	0xb81984ba	-3.6601654e-05
175	0x39253987	0.00015757057
176	0xb8b1c6cc	-8.4770465e-05
177	0x390b516c	0.00013286405
178	0x3889d649	6.572583e-05
179	0xb8309c78	-4.2107393e-05
180	0xb83dff34	-4.5298788e-05
181	0x3854cab3	5.0733517e-05
182	0xb7f8ea4e	-2.967301e-05
183	0x380bf8b6	3.3371813e-05
184	0xb8ae3071	-8.3059895e-05
185	0x37ee465a	2.8404571e-05
186	0x3869c8e6	5.573863e-05
187	0xb9c11573	-0.0003682781
188	0xb8877d83	-6.46068e-05
189	0xb9f58ac8	-0.00046833442
190	0x3944f399	0.00018782764
191	0x390c471b	0.0001337793
192	0xb854949b	-5.068314e-05
193	0xba00577a	-0.00048958475
194	0x37af8316	2.0922667e-05
195	0xb9a8c690	-0.00032191398
196	0xb7aef947	-2.0858495e-05
197	0x383404c6	4.291979e-05
198	0xb6967d29	-4.484919e-06
199	0x385794c1	5.1398532e-05
200	0x37fd0389	3.0161596e-05
201	0x37da4f61	2.6024589e-05
202	0x38136755	3.5143767e-05
203	0xb799f5a0	-1.83534e-05
204	0x3610cf86	2.1578467e-06
205	0x38c2f17a	9.2956194e-05
206	0xb8d5c0e9	-0.00010192564
207	0xb846410c	-4.726746e-05
208	0x388297da	6.2271676e-05
209	0xb79c5cb0	-1.863981e-05
210	0xb983470b	-0.00025039198
211	0xba09d865	-0.00052583806
212	0x39963908	0.0002865272
213	0xb8d503c6	-0.00010157334
214	0x393158db	0.00016913137
215	0xb971a9e0	-0.00023046834
216	0x384910e7	4.7937876e-05
217	0xb81de6ea	-3.7646772e-05
218	0xb87e8595	-6.0682727e-05
219	0xb8dffc10	-0.00010680419
220	0x38434e90	4.656479e-05
221	0x3886533b	6.405121e-05
222	0xb7e8e9ea	-2.776548e-05
223	0x38ac088e	8.2031926e-05
224	0x392e7fb1	0.00016641502
225	0x393a6f54	0.00017779815
226	0x38e72b56	0.0001102301
227	0xb9576203	-0.0002054051
228	0x35e4b1f6	1.7039117e-06
229	0x38b526d5	8.6379856e-05
230	0xb94d4abf	-0.00019578169
231	0xb841633d	-4.610721e-05
232	0xb919e27e	-0.00014675592
233	0x390f8518	0.00013687124
234	0x38046c52	3.1572134e-05
235	0xb90276a1	-0.00012441959
236	0x37a693bb	1.9857534e-05
237	0xb915b90d	-0.00014278684
238	0x3861eb2d	5.3863205e-05
239	0xb774c775	-1.4589973e-05
240	0xb8901683	-6.870648e-05
241	0xb94e2194	-0.000196582
242	0x388a55db	6.5963446e-05
243	0xb8ba6b3b	-8.8891444e-05
244	0x3896fa6e	7.1992035e-05
245	0xb876968b	-5.8791175e-05
246	0xb8cf82d4	-9.894898e-05
247	0xb9d4e9d1	-0.00040609998
248	0xb89d157e	-7.4903466e-05
249	0xb9639d27	-0.00021706951
250	0xb8c0cbf8	-9.1932656e-05
251	0x38671c76	5.5101198e-05
252	0xb82445f1	-3.9165785e-05
253	0xb8b63fa9	-8.690294e-05
254	0x38e964ba	0.000111290676
255	0x388e3bc5	6.7822206e-05
