results/PressButton/PressButtonAgent_ImitationLearning2/PressButtonAgent/PressButtonAgent-29965.pt (torch, 533134 bytes, 54 tensors)

discrete_act_size_vector f4 [1, 3]
0	0x40400000	3.0
1	0x40400000	3.0
2	0x40000000	2.0

network_body._body_endoder.seq_layers.0.weight f4 [128, 6]
0	0xbe1529bd	-0.14566703
1	0x3f10c23b	0.5654637
2	0x3eb94da5	0.3619205
3	0xbf87a575	-1.0597368
4	0x3e853938	0.26020217
5	0xbe29c1f2	-0.1657789
6	0xbe96fcd2	-0.29489762
7	0xbeca1675	-0.39470258
8	0xbeecad0b	-0.4622577
9	0xbebdcc5b	-0.37069973
10	0x3f282e07	0.6569523
11	0xbcde51c6	-0.027138602
12	0x3e207933	0.15671234
13	0xbf497cfc	-0.78706336
14	0x3e3fcfb5	0.18731578
15	0x3d734617	0.059393015
16	0xbdec10bc	-0.11526629
17	0xbc1af747	-0.00945837
18	0x3e753691	0.23946597
19	0xbec529be	-0.3850841
20	0xbe0733d4	-0.13203365
21	0x3e908cde	0.28232473
22	0x3e75c9cb	0.24002759
23	0xbead92e4	-0.3390113
24	0xbf37ba54	-0.7176869
25	0xbe7ac806	-0.24490365
26	0x3eb1b08e	0.34705013
27	0xbf0014b2	-0.5003158
28	0xbe213fdf	-0.15747021
29	0x3d4505e9	0.04810134
30	0x3e2614cc	0.16218871
31	0x3e1eb749	0.15499605
32	0x3ee90abe	0.45516008
33	0xbead05bf	-0.33793446
34	0xbe22ca1e	-0.15897414
35	0xbd4f2941	-0.050576452
36	0x3e1cdd5f	0.15318821
37	0x3e3de5ef	0.18544744
38	0x3e833259	0.2562435
39	0xbda7e18a	-0.08197315
40	0x3f2a77cd	0.6658905
41	0xbc677917	-0.014127991
42	0x3e2d23fa	0.16908255
43	0xbe04f0ba	-0.12982455
44	0x3f108a14	0.5646069
45	0xbda85d9d	-0.0822098
46	0x3f03f3c8	0.51543856
47	0xbedff40a	-0.43740875
48	0xbe08a014	-0.13342315
49	0xbeb573fc	-0.35440052
50	0xbe3f6b08	-0.18693173
51	0x3ecc11f8	0.3985746
52	0xbe16e798	-0.14736784
53	0x3e0d8454	0.1382001
54	0x3e3cefe1	0.18450882
55	0xbd0751de	-0.03303706
56	0xbec79497	-0.38980553
57	0xbf2ada95	-0.6673978
58	0x3efe9abe	0.49727434
59	0x3f0a5c6b	0.5404727
60	0x3ced842a	0.028993685
61	0xbe18f598	-0.14937437
62	0x3ef95b92	0.48702675
63	0x3dc497b0	0.095992446
64	0xbe559045	-0.20855816
65	0x3e8988a5	0.26862064
66	0xbf532c57	-0.8248953
67	0xbdfaf80e	-0.12254344
68	0xbecbb270	-0.39784575
69	0x3db2c5b3	0.087291144
70	0xbef7eb86	-0.48421878
71	0xbdb78e5e	-0.08962701
72	0xbdf594ab	-0.11991247
73	0xbe87b49e	-0.26504987
74	0x3e5a1fa8	0.21301138
75	0xbec776da	-0.38957864
76	0xbcac0abf	-0.021001218
77	0xbf09b4e2	-0.5379163
78	0xbdde4693	-0.10853305
79	0x3dc3af71	0.09554947
80	0xbe5ae64b	-0.21376912
81	0xbe674d15	-0.22587998
82	0x3f1f870f	0.6231546
83	0xbd974d67	-0.0738781
84	0x3e3025bb	0.17201893
85	0x3f6a283b	0.91467637
86	0xbe115514	-0.14192611
87	0xbe98bafa	-0.29830152
88	0xbefb55c3	-0.49088868
89	0xbede7a8b	-0.43452868
90	0x3f19ae34	0.6003144
91	0x3ed6a236	0.41920632
92	0xbe6b448d	-0.22975369
93	0xbd4f13bc	-0.05055593
94	0x3d9baf91	0.07601846
95	0x3ed57384	0.41689694
96	0x3f4c2c83	0.7975542
97	0x3f581ebf	0.84421915
98	0x3e9ea489	0.30984905
99	0xbeb16013	-0.3464361
100	0x3e073277	0.13202845
101	0x3e692319	0.22767295
102	0xbdb094d4	-0.08622137
103	0x3f0fd47c	0.561836
104	0x3ec7dec3	0.3903714
105	0x3f4c8046	0.7988323
106	0xbdde733c	-0.10861823
107	0xbdd506a0	-0.10401654
108	0x3f6f2f45	0.934315
109	0xbed2d71a	-0.41179734
110	0x3ed1fc49	0.4101279
111	0x3e29cfb2	0.16583136
112	0x3dc3d860	0.09562755
113	0xbd51830a	-0.05115036
114	0xbe5057b1	-0.20345952
115	0xbf3fd93b	-0.7494084
116	0x3f697533	0.91194457
117	0x3dc97164	0.09836081
118	0xbd5b0123	-0.05346788
119	0x3f205224	0.62625337
120	0xbc6b8485	-0.014374857
121	0xbf6487e7	-0.8926987
122	0x3d985261	0.074375875
123	0xbece6b18	-0.4031608
124	0xbe3a2abe	-0.18180367
125	0xbdf6ef92	-0.12057413
126	0xbe934ccb	-0.28769526
127	0xbed5f4f7	-0.41788456
128	0x3f1a0960	0.60170555
129	0x3ea435c1	0.3207226
130	0x3cdd7263	0.027032083
131	0xbd10629d	-0.035250295
132	0xbe8debf6	-0.27719086
133	0xbbde2b09	-0.0067800325
134	0xbed30a6e	-0.41218895
135	0xbedbc044	-0.42920125
136	0x3f14e4e6	0.5816177
137	0xbe4b0200	-0.19824982
138	0x3d9646bd	0.07337711
139	0x3dc58a4c	0.09645519
140	0x3d5501e4	0.052003756
141	0xbe5a3a77	-0.21311365
142	0x3f2be047	0.67139095
143	0xbe661038	-0.22467124
144	0xbed78581	-0.42094043
145	0x3f2837f8	0.657104
146	0x3e6b5848	0.22982895
147	0x3d5d0be5	0.05396642
148	0x3f0be3a6	0.5464424
149	0xbe884215	-0.26612917
150	0xbd617119	-0.0550395
151	0xbe617234	-0.22016221
152	0xbe256e0e	-0.16155264
153	0x3e18bf54	0.14916736
154	0xbde1b896	-0.11021535
155	0xbddb70be	-0.10714863
156	0x3f2640ba	0.64942515
157	0x3ccce6d9	0.02501242
158	0xbf8549a6	-1.0413101
159	0xbf3d958b	-0.7405631
160	0x3f413937	0.7547793
161	0xbdb94ef1	-0.0904826
162	0x3ef97271	0.48720124
163	0xbefa162b	-0.48845038
164	0x3f296242	0.66165555
165	0xbf2ae536	-0.66756
166	0x3eb29b75	0.3488423
167	0x3e64b5fa	0.22335044
168	0x3eb3b449	0.35098484
169	0x3f1a23d8	0.60210943
170	0xbdbdd874	-0.09269801
171	0x3e9b1cc7	0.30295393
172	0xbdf3589b	-0.118821345
173	0x3e1a0c7d	0.15043826
174	0xbee4b823	-0.44671735
175	0xbeeb53ae	-0.4596228
176	0xbef18dc8	-0.47178483
177	0x3f22b201	0.6355286
178	0x3eeade73	0.4587284
179	0x3ec07362	0.3758803
180	0x3ea59e31	0.32347253
181	0xbef7580b	-0.4830936
182	0xbe435290	-0.19074464
183	0xbe320280	-0.17383766
184	0xbb302a95	-0.002688085
185	0xbf49c910	-0.7882242
186	0x3ba6b1fc	0.0050871354
187	0x3e2f2dd7	0.1710733
188	0xbf3a4765	-0.7276519
189	0x3f585c12	0.8451549
190	0xbf492dcc	-0.78585505
191	0x3ec35e0c	0.3815769
192	0x3f023ef9	0.5087734
193	0x3f725bae	0.9467114
194	0xbf08bd11	-0.5341349
195	0x3db3dc63	0.0878227
196	0x3e7734af	0.24141191
197	0x3ef9a8ce	0.487616
198	0xbeb53dcf	-0.3539872
199	0xbde776c3	-0.11301949
200	0xbf4c1650	-0.79721546
201	0x3d8237a5	0.063582696
202	0xbe8e9ec7	-0.27855512
203	0xbe850aea	-0.2598489
204	0xbf3adf51	-0.72997004
205	0xbe9c6f11	-0.30553487
206	0xbed11def	-0.4084315
207	0x3f42ee36	0.7614473
208	0xbe009bce	-0.12559435
209	0x3eb3bc70	0.35104704
210	0x3eb836d3	0.35979328
211	0x3fa57699	1.2926818
212	0x3f8da532	1.1066039
213	0x3f30e2f5	0.6909631
214	0x3ea60a43	0.32429704
215	0xbee232a7	-0.4417927
216	0x3eb5be15	0.35496584
217	0xbe9552cb	-0.2916473
218	0x3da7a871	0.081864245
219	0xbd3dbe4f	-0.04632407
220	0xbeef2971	-0.46711305
221	0x3f095a13	0.5365307
222	0xbf9d1b70	-1.2273998
223	0x3f54fc17	0.8319716
224	0xbd5ff839	-0.054680083
225	0xbdc01772	-0.09379472
226	0x3cb2d8a5	0.02183182
227	0xbf9acad1	-1.2093145
228	0x3bc52024	0.0060157944
229	0xbf24b1f7	-0.6433405
230	0x3ef65590	0.48112154
231	0x3dfbb435	0.12290231
232	0x3b4dfa9f	0.00314299
233	0xbf83dd80	-1.0301971
234	0x3c70d53e	0.014699278
235	0x3c8a01b4	0.016846515
236	0xbf1e126b	-0.61746854
237	0x3e6e55bd	0.23274894
238	0xbd7986b1	-0.060919467
239	0xbe4dea6b	-0.20108955
240	0x3e979509	0.29605892
241	0x3f2cd272	0.67508614
242	0x3d8b9859	0.068161674
243	0x3f2988f7	0.66224617
244	0x3cb942ce	0.022614863
245	0xbe6fcdd1	-0.23418356
246	0x3f278e10	0.65451145
247	0x3ec7e6c3	0.39043245
248	0xbf1bebcb	-0.60906667
249	0xbec11051	-0.3770776
250	0x3e58f8ba	0.21188632
251	0x3e9fe662	0.31230456
252	0x3e930fa5	0.28722873
253	0xbdc30d15	-0.095239796
254	0x3e74b9b5	0.23898967
255	0x3e7d66a0	0.2474618

network_body._body_endoder.seq_layers.0.bias f4 [128]
0	0xbbe97b70	-0.0071253106
1	0xbcb93a8f	-0.02261093
2	0x3c713c96	0.0147239175
3	0xbc99f603	-0.018794065
4	0x3b770760	0.0037693605
5	0x3d19dc98	0.03756389
6	0xbc3bf490	-0.011471882
7	0x3a84a7c2	0.0010120797
8	0x3d1a54c9	0.037678514
9	0x3da27c22	0.07933833
10	0x3d0d72cf	0.034533318
11	0x3c99e9aa	0.018788178
12	0xbc7af731	-0.015317724
13	0x3d8b68e0	0.06807113
14	0x3d401ac4	0.046900526
15	0x3c60f474	0.013730157
16	0x3ca5bd1d	0.020231778
17	0xb9bd9818	-0.00036162208
18	0x3d313265	0.04326095
19	0x3cd20d0e	0.02564099
20	0x3c001db1	0.007819579
21	0xbc93eba1	-0.018056693
22	0x3d185f5d	0.03720032
23	0x3d8038b1	0.06260813
24	0x3d4f948c	0.050678775
25	0x3b5b59d1	0.0033470283
26	0x3d736e07	0.059431102
27	0x3d7976c6	0.060904287
28	0x3c4e844b	0.012604783
29	0x3a0b077d	0.0005303545
30	0xbbe153ac	-0.0068764295
31	0x3ce1a22c	0.02754315
32	0x3d2758b1	0.040856067
33	0x3d58525a	0.05281291
34	0x3d421f6f	0.04739326
35	0x3d021397	0.031756964
36	0x3d3e52e4	0.04646577
37	0x3cb3ff30	0.021972269
38	0xbcf4983c	-0.029857747
39	0x3d0355b3	0.03206415
40	0x3c8e72c4	0.017388709
41	0x3d425fd6	0.047454678
42	0xbbd6d432	-0.0065560574
43	0x3d517d36	0.0511448
44	0x3cc57f03	0.024108415
45	0x3cc0bdde	0.023528036
46	0xbd053ac2	-0.03252674
47	0xbc4e94a5	-0.012608682
48	0x3cf65f40	0.030074716
49	0x3d026aad	0.031840015
50	0xbc5992c6	-0.013279622
51	0x3d92f0cd	0.07174835
52	0x3ca8f751	0.020625742
53	0x3cea2976	0.028584223
54	0x3ba7946a	0.005114128
55	0x3ba7556d	0.005106619
56	0x3d4b5533	0.0496418
57	0xbc266c55	-0.010157664
58	0x3cb56125	0.022141049
59	0x3ce8ffd0	0.028442293
60	0xbc0990bb	-0.008396323
61	0xbbdc1cec	-0.006717315
62	0xbd1f49ea	-0.03888885
63	0xbc4ee56a	-0.012627939
64	0x3cad5b49	0.021161692
65	0x3caf8359	0.021424936
66	0x3d38856e	0.045049123
67	0xbc45a3af	-0.012062951
68	0x3cd1dfe3	0.025619453
69	0x3d5f8b6e	0.05457633
70	0x3c8b1d17	0.016981645
71	0x3c93054b	0.01794686
72	0x3d4ac4f3	0.04950423
73	0x3b9e0894	0.0048228
74	0x3d46087c	0.048347935
75	0x3d4daeff	0.050215717
76	0x3cacacfd	0.021078581
77	0xbc83f9de	-0.016110357
78	0x3d57de94	0.0527025
79	0x3d00fb5f	0.031489726
80	0x3cc0db55	0.023542086
81	0x3b7e5a24	0.0038811052
82	0xbc3d2625	-0.011544739
83	0x3d1cb322	0.03825677
84	0x3a648a9f	0.0008718166
85	0x3d0729f7	0.032999005
86	0x3d5ccbd7	0.053905334
87	0xbd1cb327	-0.03825679
88	0x3d226072	0.03964276
89	0xbc190f63	-0.009342047
90	0x3d2d498a	0.04230646
91	0x3c617acb	0.013762186
92	0x3cabc9e5	0.020970294
93	0xbc9cf45a	-0.019159485
94	0xbb9c88b4	-0.0047770385
95	0xbc17bfa0	-0.009261996
96	0x3d6567f9	0.05600736
97	0x3cae57b0	0.021282047
98	0x3caf072d	0.021365726
99	0x3c82a532	0.015947912
100	0x3cc66434	0.024217702
101	0xbc7d8207	-0.0154728955
102	0x3cf341cd	0.029694462
103	0x3c96f4d5	0.018427292
104	0x3d2e4d09	0.042553935
105	0x3bf12f84	0.0073604006
106	0x3cf57a7c	0.029965632
107	0x3cc2e5e8	0.023791268
108	0x3d1c1fcb	0.038116258
109	0x3d5fe7e5	0.05466451
110	0xbd074728	-0.033026844
111	0xbba59760	-0.0050534457
112	0xbca88a4d	-0.02057376
113	0xbbd14f1f	-0.006387606
114	0xbc6e6298	-0.014549874
115	0xbcc7f299	-0.024407672
116	0x3cf06231	0.029343696
117	0x3c549cf0	0.01297687
118	0x3d649d38	0.055813998
119	0x3d4180bc	0.04724191
120	0x3c9885e5	0.018618533
121	0xbc621e0b	-0.013801108
122	0x3ce78a53	0.0282642
123	0x3d231e21	0.039823655
124	0x3cb3e8ec	0.021961652
125	0x3d215917	0.039391603
126	0x3b95e543	0.0045744493
127	0x3cf39c98	0.029737756

network_body._body_endoder.seq_layers.2.weight f4 [128, 128]
0	0xbb84895f	-0.004044696
1	0xbc180d2a	-0.009280482
2	0xbe153ced	-0.14574023
3	0xbc2d4f9e	-0.010578064
4	0xbd9fdd0d	-0.07805834
5	0x3e24fd0f	0.16112159
6	0x3dcd3941	0.10020686
7	0x3d2062cc	0.03915672
8	0xbda520cf	-0.08062898
9	0x3dfe3dda	0.12414141
10	0xbdfcfe57	-0.12353199
11	0xbe84efea	-0.2596429
12	0xbcd51ce4	-0.026014753
13	0xbce51c53	-0.027967608
14	0x3c90e3e0	0.017686784
15	0x3d95935e	0.07303499
16	0x3e384df3	0.17998485
17	0x3cbecbe8	0.02329059
18	0x3e1574d0	0.14595342
19	0xbce80034	-0.02832041
20	0xbc02a150	-0.00797303
21	0xbd67d7d5	-0.056602318
22	0xbd0bfc0f	-0.03417593
23	0x3e10a576	0.14125618
24	0x3e022ee3	0.12713198
25	0xbdfcceb2	-0.123441115
26	0xbcdc5248	-0.026894704
27	0x3d84b102	0.06479074
28	0xbd9ac40b	-0.075569235
29	0xbdc7b48c	-0.097512335
30	0xbb04a7bc	-0.002024158
31	0x3e25cb61	0.16190864
32	0x3dea08ca	0.11427458
33	0xbe2a5e93	-0.1663764
34	0xbd642f2f	-0.05570906
35	0xbc0bbd45	-0.008529012
36	0x3d8b8c12	0.06813826
37	0xbbd25a7a	-0.006419477
38	0xbe238d78	-0.15971935
39	0x3dd255a7	0.10270243
40	0x3d77df07	0.06051543
41	0x3d401523	0.046895158
42	0x3c824d62	0.01590604
43	0x3dd81e24	0.10552624
44	0xbd8c3237	-0.06845515
45	0x3d089ce8	0.033352762
46	0xbb9776e9	-0.0046223295
47	0xbcf4c363	-0.029878324
48	0x3d0f3497	0.034962263
49	0x3d133c5b	0.03594623
50	0xbdbf0a51	-0.093281396
51	0xbad3ea24	-0.0016167802
52	0xbd115949	-0.03548554
53	0xbcadb979	-0.021206604
54	0xbdddad13	-0.10824027
55	0xbe742e74	-0.23845845
56	0xbd341912	-0.04396922
57	0x3d578cb3	0.052624416
58	0x3d98ee31	0.074673064
59	0xbe10dde2	-0.14147142
60	0x3ca2a43e	0.019853707
61	0xbd712ffd	-0.058883656
62	0xbdc562d8	-0.096379936
63	0x3dc084e5	0.094003476
64	0xbd3a8a53	-0.045542073
65	0xbc78d330	-0.01518707
66	0x3dd6bde3	0.10485437
67	0x3cd2e3e2	0.025743429
68	0xbcc9aa68	-0.024617389
69	0x3dcc0307	0.09961515
70	0xbd211237	-0.03932401
71	0x3dd07b89	0.101798125
72	0x3bdd3e35	0.0067518004
73	0xbe743331	-0.23847653
74	0xbd895ccc	-0.06707153
75	0xbd01a84a	-0.031654634
76	0xbdfba104	-0.12286571
77	0x3d96a8be	0.07356404
78	0xbc6ac79e	-0.014329819
79	0x3d68a713	0.05679996
80	0xbe8fe2f7	-0.28102848
81	0x3dfb2016	0.12261979
82	0xbdab06a3	-0.08350875
83	0x3d41184c	0.047142312
84	0x3e175d14	0.147816
85	0x3d21138b	0.03932528
86	0x3ddb0464	0.10694197
87	0x3db42555	0.08796183
88	0x3e7bc078	0.2458514
89	0x3d911831	0.07084692
90	0x3d534500	0.051579475
91	0xbce0d6d2	-0.027446184
92	0x3ceea7f4	0.02913282
93	0x3e2b1fca	0.16711345
94	0xbcb373fa	-0.021905888
95	0xbd43278c	-0.047645137
96	0x3dacf790	0.08445656
97	0xbde94fae	-0.11392151
98	0x3c98109f	0.018562613
99	0x3d316574	0.043309644
100	0xbd9490ae	-0.07254158
101	0x3d38a85a	0.045082428
102	0x3d98aa8c	0.07454404
103	0xbcdf3ece	-0.027251627
104	0x3e13f5f6	0.14449295
105	0x3d559bdd	0.052150596
106	0x3d40d867	0.047081377
107	0xbe5bbddd	-0.21459146
108	0xbe6fc3e7	-0.23414575
109	0x3d891f7c	0.06695458
110	0x3d9f2deb	0.0777243
111	0x3c87bd83	0.016569858
112	0xbd3ed279	-0.04658744
113	0x3da9627a	0.08270736
114	0x3d93ed44	0.07222989
115	0xbdc06921	-0.09395052
116	0x3ca05bd5	0.019575039
117	0xbd9e96a1	-0.07743574
118	0x3e1d74a4	0.15376526
119	0x3e081b90	0.13291764
120	0xbdcf7694	-0.10130039
121	0xbd974536	-0.07386248
122	0x3db45d53	0.08806863
123	0xbdf40ca6	-0.11916475
124	0xbd0d5082	-0.034500606
125	0xbd91dfd3	-0.07122769
126	0xbe0f02ee	-0.13965961
127	0x3dc43f0e	0.09582339
128	0x3c65b662	0.014020534
129	0xbc158fcd	-0.009128523
130	0xbd355bf0	-0.04427713
131	0x3de2e301	0.11078454
132	0x3d2f2480	0.04275942
133	0xbce2d29b	-0.027688315
134	0x3e14c9e9	0.14530148
135	0x3e353b75	0.17698462
136	0xbe04a69a	-0.12954178
137	0x3cd56fe4	0.02605433
138	0x3da1682b	0.078811966
139	0x3e260956	0.16214499
140	0xbe0a07ab	-0.13479488
141	0xbc269406	-0.0101671275
142	0xbcd6644b	-0.02617087
143	0x3bebc89b	0.007195545
144	0x3e489510	0.19588113
145	0xbd078731	-0.033087913
146	0x3c1b903f	0.00949484
147	0xbdd7ed6d	-0.10543332
148	0xbdb1eec7	-0.08688121
149	0xbe1e3654	-0.15450412
150	0xbd2382b0	-0.039919555
151	0x3d6f1718	0.058371633
152	0xbd48efe1	-0.04905689
153	0xbe0b8445	-0.13624676
154	0x3b836fed	0.0040111453
155	0x3df7dd87	0.121028
156	0xbc6f7549	-0.014615365
157	0xbe375da2	-0.17906812
158	0xbe2fb1b1	-0.17157628
159	0xbc771ca0	-0.015082508
160	0x3dc85322	0.09781481
161	0x3cb59775	0.022166947
162	0xbdb772d9	-0.08957452
163	0x3e0e57f5	0.1390074
164	0xbcb581ec	-0.022156678
165	0xbde0efa8	-0.10983211
166	0x3d9ab2a3	0.075536035
167	0xbda7ae60	-0.08187556
168	0xbd737954	-0.05944188
169	0xbd19da19	-0.03756151
170	0xbde4106d	-0.111359455
171	0xbceaa6a1	-0.028643908
172	0x3b570aa8	0.0032812748
173	0xbc84c56c	-0.01620742
174	0xbc86c38d	-0.016450668
175	0xbde124e1	-0.10993362
176	0xbe04c4ab	-0.12965648
177	0x3e80e29b	0.25172886
178	0xbd125245	-0.03572299
179	0xbdd5063a	-0.10401578
180	0xbdf0f03c	-0.11764571
181	0x3e6306bc	0.22170538
182	0x3bea6654	0.0071533117
183	0xbe3f6972	-0.18692568
184	0xbdce80ee	-0.10083185
185	0xbafa1b2e	-0.0019081587
186	0xbd8bb8cb	-0.06822356
187	0xbccd56c4	-0.025065787
188	0xbe643f86	-0.22289857
189	0x3d786955	0.060647327
190	0xbcc021c7	-0.023453606
191	0x3ca6e9e7	0.020375205
192	0x3d9a31ce	0.07529031
193	0x3cb5e33e	0.022203084
194	0x3e007f1e	0.12548491
195	0xbe49a347	-0.19691192
196	0xbc258116	-0.010101577
197	0x3ce9daa4	0.028546639
198	0xbda63b09	-0.08116729
199	0xbd86a33e	-0.06574105
200	0xbd621894	-0.05519922
201	0xbe644aee	-0.22294208
202	0xbe1b1741	-0.1514559
203	0x3e244dfc	0.16045374
204	0xbe0faa0b	-0.1402971
205	0x3e66884d	0.22512932
206	0xbc676ab2	-0.014124559
207	0xbe4e5646	-0.20150098
208	0xbd984b2a	-0.074362114
209	0xbdba691b	-0.091020785
210	0xbe37189d	-0.17880483
211	0x3e21e07f	0.15808295
212	0x3dc2c815	0.09510819
213	0xbc4d8275	-0.01254331
214	0xbe1a92fc	-0.15095133
215	0xbe221988	-0.15830052
216	0x3d993211	0.074802525
217	0x3da69225	0.081333436
218	0x3dd0a899	0.101884075
219	0xbe25630a	-0.16151062
220	0xbe15696c	-0.14590997
221	0xbd59695c	-0.053078994
222	0xbba087ed	-0.004899016
223	0xbd18816e	-0.03723281
224	0xbd3b5636	-0.045736514
225	0xbdbf3d33	-0.09337845
226	0x3c4f434f	0.012650325
227	0xbe0260b9	-0.1273221
228	0xbd294896	-0.04132899
229	0xbe590260	-0.21192312
230	0x3d8cdf2f	0.068785064
231	0x3d9899bf	0.074512
232	0x3e03e145	0.12878902
233	0x3d01e34b	0.031710904
234	0xbe245f74	-0.16052037
235	0xbda9dafe	-0.082937226
236	0x3e12a3d2	0.14320305
237	0x3dd1635b	0.10224029
238	0xbb6f79ff	-0.0036541221
239	0x3da8d9ba	0.08244653
240	0x3d468217	0.048463907
241	0x3dc2520d	0.09488306
242	0xbe00c45e	-0.12574908
243	0x3dd72759	0.10505552
244	0x3cffb73a	0.031215299
245	0xbc6964dd	-0.014245239
246	0xbbe8823a	-0.0070956023
247	0x3e5a3a7b	0.21311371
248	0xbd084a3d	-0.033273924
249	0xbdcc4a37	-0.09975093
250	0x3d480368	0.048831373
251	0xbd7f3625	-0.062307496
252	0x3dac321e	0.084079966
253	0x3d2ecf2c	0.042678043
254	0xbe3528ad	-0.17691298
255	0x3c88e543	0.016710883

network_body._body_endoder.seq_layers.2.bias f4 [128]
0	0x3b789b22	0.0037934263
1	0x3cbe0f1e	0.023200568
2	0x3c6eb351	0.01456912
3	0x3ca43983	0.020046955
4	0x3b7a0b25	0.0038153615
5	0x3c8cc1b9	0.017182218
6	0x3d0a80bf	0.033814188
7	0x3cab623a	0.020920862
8	0x3ca40d00	0.02002573
9	0x3d18d6d9	0.03731427
10	0x3cf0a2c3	0.029374486
11	0x3cd3d60a	0.025858898
12	0x3c6cbc1a	0.014449144
13	0x3d161485	0.036640663
14	0xba22896a	-0.0006200286
15	0x3c7cad3b	0.015422161
16	0x3bff3076	0.0077877594
17	0x3caeb2bb	0.02132546
18	0x3c74d230	0.014942691
19	0x3c2590f2	0.010105358
20	0x3c7c5128	0.0154002085
21	0x3ca92068	0.020645335
22	0x3cf8438c	0.030305646
23	0x3d14c4ff	0.036320683
24	0x3bdbe4c6	0.0067106215
25	0x3cf0640e	0.029344585
26	0x3bf2912b	0.0074025593
27	0x3c33f83f	0.010984479
28	0x3c8bdc3f	0.017072795
29	0x3ce13351	0.02749029
30	0x3c90dc39	0.017683135
31	0x3d3e9dcc	0.046537206
32	0x3d066d2e	0.032818966
33	0xbc3afdbf	-0.011413037
34	0x3caf75f9	0.021418558
35	0x3cb2097a	0.021733034
36	0x3c233832	0.0099621285
37	0x3c56c94b	0.013109515
38	0x3cf7e1d7	0.030259056
39	0x3ca0c70c	0.019626163
40	0x3cc28a72	0.023747656
41	0x3ce27830	0.0276452
42	0x3ca23c37	0.019804103
43	0x3cf6d076	0.030128699
44	0x3cc5813c	0.024109475
45	0xbb248b36	-0.002510739
46	0x3cc547e8	0.02408214
47	0x3ca7b319	0.020471143
48	0xbc3a4588	-0.011369117
49	0x3d25a4b1	0.040440265
50	0x3cc8b227	0.024499012
51	0x3cddd464	0.027078815
52	0x3c9e2fcc	0.0193099
53	0x3d26008d	0.04052787
54	0x3d57800e	0.052612357
55	0x3cba09b9	0.022709714
56	0x3c7716cb	0.015081118
57	0x3bf94afd	0.0076078163
58	0x3d39cc27	0.04536071
59	0x3c69ed2b	0.014277737
60	0x3d003f2e	0.031310253
61	0x3bbc6f18	0.005750548
62	0x3c918783	0.017764812
63	0x3cdad552	0.026713047
64	0x3cd573e6	0.026056241
65	0x3d513754	0.051078156
66	0x3cc83582	0.024439577
67	0x3bb17313	0.0054153292
68	0x3c961154	0.01831881
69	0x3cb2701a	0.02178197
70	0x3b440741	0.002991155
71	0xba1f65bf	-0.000608053
72	0x3c4abc3e	0.012373982
73	0x3c05c318	0.00816419
74	0xba084865	-0.0005198776
75	0x3d1a0168	0.037598997
76	0x3cd8d907	0.026470674
77	0x3cf57929	0.029965
78	0x3cbb4ca9	0.022863703
79	0x3ce3e603	0.02781964
80	0x3ab4efd3	0.0013804383
81	0x3ccd3b2c	0.02505263
82	0xbc2ee9aa	-0.010675827
83	0x3d21a4be	0.03946375
84	0x3cdddc69	0.027082639
85	0x3bb2a269	0.0054514897
86	0x3d2698ea	0.040673174
87	0x3c297ddf	0.010344951
88	0x3c3e0f91	0.011600391
89	0x3d0b5934	0.034020618
90	0x3cae0e8b	0.021247169
91	0xbbccd470	-0.0062509105
92	0x3ce2fa2c	0.027707182
93	0x3cd33f1d	0.02578693
94	0x3b54d71f	0.0032476855
95	0x3cb2ec26	0.02184112
96	0x3bea50e6	0.007150757
97	0x3d12274d	0.03568201
98	0xbae431a2	-0.0017409811
99	0x3d124bec	0.035716936
100	0x3cb00cd9	0.021490501
101	0x3b9fd6eb	0.004877915
102	0x3c02afbf	0.007976471
103	0x3c77d4fb	0.015126462
104	0xbaa4ee5a	-0.0012583241
105	0x3b22487b	0.002476244
106	0x3ce55aa8	0.02799733
107	0x3ca8ba7d	0.020596737
108	0x3ba5c06d	0.0050583393
109	0xbc53c643	-0.012925687
110	0xbba502db	-0.005035741
111	0x3ce718c3	0.02821005
112	0x3cb2d8f7	0.021831973
113	0x3c2019db	0.009771789
114	0x3c552eab	0.013011615
115	0xb92fbb3f	-0.00016759055
116	0x3cd63d30	0.026152223
117	0x3bcb57e9	0.006205548
118	0x3b8b8add	0.004258497
119	0xbc2517e4	-0.010076497
120	0x3cd2d3c7	0.025735749
121	0x3cb12aa9	0.021626787
122	0x3cad1d96	0.021132272
123	0x3c17e04b	0.009269784
124	0x3cbf3021	0.02333838
125	0x3c71fa26	0.014769113
126	0x3cafef0e	0.021476295
127	0xba054107	-0.0005083237

action_model._discrete_distribution.branches.0.weight f4 [3, 128]
0	0xbc73807e	-0.014862178
1	0xbb7737c6	-0.0037722453
2	0x3c63240c	0.013863575
3	0x3aad5616	0.0013224508
4	0x39314e47	0.00016909196
5	0xbd33b1f2	-0.043870874
6	0x38903773	6.876783e-05
7	0xbcbc171f	-0.022960244
8	0x3bb58276	0.005539234
9	0x3d44fa94	0.048090532
10	0xbd15efc0	-0.036605597
11	0x3b7d3a04	0.0038639316
12	0x3d66fbac	0.056392357
13	0xbbc447a6	-0.0059899865
14	0x3c2c5b15	0.0105197625
15	0xbcb4ad79	-0.022055374
16	0x3c9f75f3	0.019465422
17	0x3d2674ab	0.040638607
18	0xbcc296d9	-0.02375357
19	0xbd4c494f	-0.0498746
20	0xbd00605d	-0.0313419
21	0xbc305a0e	-0.010763658
22	0x3c46bdb3	0.012130189
23	0x3cca6682	0.024707083
24	0xbb0acc8b	-0.0021179046
25	0xbcc3b95e	-0.0238921
26	0xbcceacb3	-0.025228834
27	0xbd68d150	-0.05684024
28	0xbcdeee20	-0.027213156
29	0xbbb0d80c	-0.0053968485
30	0x3d3a9a44	0.045557275
31	0x3b8e05e1	0.004334197
32	0x3b9d43fe	0.004799365
33	0x3ce948ea	0.028477151
34	0x3c3f2e18	0.011668704
35	0x3d152fa6	0.036422394
36	0xbd48b7eb	-0.049003523
37	0xbb9fb315	-0.004873643
38	0xbcd6fdb9	-0.026244031
39	0xbcae0621	-0.021243157
40	0x3cca6827	0.024707867
41	0xba16b6fa	-0.00057493115
42	0xbc53d23a	-0.01292854
43	0xbc6a7e3b	-0.014312322
44	0x3cb55566	0.022135448
45	0x3d5326ec	0.05155079
46	0xbd2f7965	-0.04284038
47	0xbcfa22b6	-0.03053413
48	0xbb0242f8	-0.0019876342
49	0x3ca8f8dc	0.020626478
50	0xbc9cd069	-0.019142346
51	0x3bcbd5ac	0.00622054
52	0xbb036e8a	-0.00200549
53	0xbd82952e	-0.0637611
54	0x3d57196d	0.052514482
55	0xbab7171b	-0.0013968678
56	0x3b563f74	0.003269163
57	0xbcec26f7	-0.028827174
58	0x3d2cffcc	0.042236134
59	0xbca7036f	-0.02038738
60	0x3c524d3c	0.012835797
61	0x3c95e23f	0.01829636
62	0x3ceaeccc	0.028677367
63	0xbb8157ee	-0.0039472496
64	0xbc8d39b9	-0.017239438
65	0x3cf8423f	0.030305026
66	0xbc93b172	-0.018028948
67	0xbcbc2252	-0.022965584
68	0xbc95b45f	-0.018274484
69	0x3c9c4421	0.019075455
70	0xbd01ffc4	-0.031738058
71	0x3b846d95	0.0040413835
72	0x3d3e5ea8	0.04647699
73	0xbbb4b36c	-0.005514553
74	0x3c0bc6c7	0.008531279
75	0x3c30bd11	0.010787264
76	0xba7e9d54	-0.0009712775
77	0xbc80aafd	-0.015706534
78	0xbb9277d8	-0.004469853
79	0x3bd196ff	0.006396174
80	0x3ace86b1	0.0015756694
81	0xbbafffc8	-0.0053710677
82	0xbbc54f0b	-0.0060213855
83	0xbc33d666	-0.01097641
84	0xbc9b6c6d	-0.0189726
85	0x3d5bd7f6	0.053672753
86	0x3c97c585	0.018526802
87	0x3d05f291	0.032702032
88	0xbc94440f	-0.01809886
89	0x3da16543	0.07880642
90	0x3b4ef077	0.0031576434
91	0x3bd58a5f	0.0065167393
92	0x3b2c0ee9	0.0026254004
93	0x3c920f96	0.017829698
94	0x3bd58d7a	0.0065171095
95	0xb96fb77a	-0.00022861167
96	0x3cc49acf	0.0239996
97	0xbd058dca	-0.032605924
98	0x3d959161	0.073031195
99	0x3c604944	0.013689343
100	0xbd09f1ae	-0.03367775
101	0xbccd98f0	-0.02509734
102	0xbd3f5e20	-0.046720624
103	0x3d62ca88	0.05536893
104	0xbb99f525	-0.004698413
105	0x3a9b75e5	0.0011860697
106	0xbc3553bc	-0.011067327
107	0xbd5d276e	-0.05399268
108	0xbc858797	-0.016300006
109	0x3d1ef501	0.038807873
110	0xbbfe195f	-0.0077544893
111	0xbd96a94b	-0.07356509
112	0xbcae9021	-0.02130896
113	0xbb9f70f7	-0.0048657614
114	0xbc68e063	-0.014213654
115	0x3cd94583	0.026522404
116	0xbbcac821	-0.006188408
117	0x3cd42309	0.025895612
118	0x3c05d292	0.00816788
119	0xbc0ab8e1	-0.00846693
120	0xbd7745ac	-0.06036918
121	0xbcab7304	-0.020928867
122	0xbc269cf9	-0.010169261
123	0x3c90d1d7	0.017678184
124	0xba6b7b14	-0.00089828786
125	0x3d863488	0.06552988
126	0xba95cfbe	-0.001142971
127	0x3c7e2d34	0.015513707
128	0xbd8baa44	-0.06819585
129	0xbd84ed57	-0.064905815
130	0x3c356021	0.011070282
131	0x3b3d3bad	0.002887468
132	0x3c041906	0.008062607
133	0x3d44017c	0.047852978
134	0xbd4ae796	-0.049537264
135	0x3c04017e	0.008056996
136	0xbaa2f654	-0.0012433031
137	0xbd8e53bc	-0.06949565
138	0x3c0cda3f	0.008596956
139	0x3c0fd151	0.008777932
140	0xbca99342	-0.0207001
141	0xba45028f	-0.0007515335
142	0xbc30d8a1	-0.010793836
143	0x3cd570f0	0.02605483
144	0xbc5851f7	-0.013203136
145	0xbd23a293	-0.039949965
146	0x3c9d118b	0.019173404
147	0x3d0ad61e	0.033895604
148	0x3c35ea77	0.011103264
149	0x3c669d4a	0.014075587
150	0xbd360a7c	-0.044443592
151	0xbd0b4ff9	-0.034011815
152	0xbbc5a4c1	-0.006031603
153	0x3c48f0c8	0.012264438
154	0x3cbbda4c	0.02293124
155	0x3d1912de	0.03737151
156	0x3d13aff6	0.03605648
157	0x3c7a6334	0.015282441
158	0x3c47fc0a	0.012206087
159	0x3d501063	0.050796878
160	0xbc84ad13	-0.01619581
161	0xbb82a185	-0.00398654
162	0x3cd0c39e	0.025483903
163	0xbb84d722	-0.004053966
164	0x3ceb2b89	0.028707283
165	0xbbca29a2	-0.006169514
166	0x3bc5109f	0.0060139443
167	0x3c6825a5	0.014169131
168	0x3b4ed5e8	0.0031560604
169	0xbcd28803	-0.025699621
170	0xbbbefdd7	-0.0058286
171	0x3caf654b	0.021410605
172	0xbc2affd8	-0.0104369745
173	0xbd23b84e	-0.03997069
174	0x3c14540d	0.009053242
175	0x3bfb899b	0.007676316
176	0x3b59c0b0	0.0033226423
177	0xbc049eb6	-0.00809448
178	0xbba694fa	-0.0050836774
179	0xbd2425fc	-0.040075287
180	0x3c72309a	0.014782095
181	0x3db3efe0	0.08785987
182	0xbd72e836	-0.059303485
183	0xbb7a1682	-0.0038160388
184	0xbd92b4d3	-0.07163396
185	0x3c6940d6	0.0142366495
186	0xbd7bf38f	-0.061511572
187	0x3c82eee1	0.015983047
188	0xbac13b8f	-0.0014742481
189	0x3ba4d7e9	0.0050306213
190	0x3d08a3e1	0.033359412
191	0x3c054803	0.008134845
192	0x3bca9a27	0.006182927
193	0xbd828c0a	-0.063743666
194	0xbbc12fa6	-0.0058955727
195	0x3bcdbb88	0.006278459
196	0x3c2595d3	0.010106522
197	0xbb86146b	-0.0040917895
198	0x3d0e1488	0.03468755
199	0xbc5c94e8	-0.013463236
200	0xbd7b51b4	-0.061357215
201	0xbc82ccd9	-0.01596682
202	0xbcef5fc1	-0.029220464
203	0x3c8e15a0	0.017344296
204	0x3c3a1441	0.011357368
205	0x3c122143	0.008919063
206	0x3a225f2a	0.000619399
207	0xbd76d8bc	-0.060265288
208	0x3cb5ff6c	0.022216521
209	0x3c1fcf07	0.009753949
210	0xbc95f4b4	-0.01830516
211	0x3d5ee0d1	0.05441362
212	0xb9cfef7b	-0.00039660544
213	0xbb7d07b5	-0.003860933
214	0xbd31878d	-0.043342162
215	0xbb6a7951	-0.0035777877
216	0xbb398efb	-0.0028313983
217	0xbd8b8e90	-0.06814301
218	0x3c30df69	0.010795453
219	0xbd2a7b30	-0.041621387
220	0x3c33c86d	0.010973078
221	0xbd44278d	-0.04788928
222	0xbbaa12a4	-0.0051902104
223	0x3d135311	0.03596789
224	0x3b27986e	0.0025573033
225	0x3d1692a7	0.036760952
226	0xbd9569e4	-0.07295588
227	0xbd1122fd	-0.035433758
228	0x3c631a24	0.013861213
229	0x3c8cf85b	0.017208269
230	0x3d16059f	0.036626454
231	0x3c67fa8c	0.014158856
232	0xbbf87f10	-0.0075835064
233	0xbd6eb384	-0.05827667
234	0xba36e13f	-0.00069763133
235	0x3c1db14c	0.00962479
236	0x3c34b57b	0.011029596
237	0xbd177d4d	-0.03698473
238	0xbc2e982b	-0.010656397
239	0x3d664c01	0.056224827
240	0x3ccea1b7	0.025223596
241	0x3ad16117	0.001597437
242	0x3cc561a1	0.024094405
243	0xbc93f2c3	-0.018060094
244	0x3ccd4e91	0.025061877
245	0xbd80f205	-0.062961616
246	0xbb9a2323	-0.0047038957
247	0xbcd93fc4	-0.026519664
248	0x3d07b5ac	0.03313224
249	0x3c24ca3c	0.010057982
250	0x3c6357b0	0.013875887
251	0xbd202368	-0.039096266
252	0x3ce0f0cb	0.027458569
253	0x3af981a6	0.0019035831
254	0x3c5f6bb1	0.0136365155
255	0x3c9441eb	0.018097838

action_model._discrete_distribution.branches.0.bias f4 [3]
0	0xbb8f4586	-0.0043723015
1	0x3c7ab347	0.015301532
2	0xbd0412e1	-0.032244567

action_model._discrete_distribution.branches.1.weight f4 [3, 128]
0	0x3bb7d233	0.0056097745
1	0x3cc2c223	0.023774212
2	0xbc8e64dd	-0.01738208
3	0x3cee312b	0.02907618
4	0xbd1b8558	-0.037968963
5	0xbce38d83	-0.027777439
6	0x3ce97250	0.028496891
7	0x3cefbb5a	0.02926414
8	0xbc606016	-0.013694784
9	0x3ced3671	0.028956624
10	0x3c5ab0b3	0.013347792
11	0x3d485c67	0.048916247
12	0xbcb325e3	-0.021868652
13	0x3d2e28c1	0.042519335
14	0xbc63f4fe	-0.013913391
15	0x3ca9309e	0.020653065
16	0xbcdad7d8	-0.02671425
17	0x3c3d5666	0.0115562435
18	0x3d129eef	0.035796102
19	0x3cbcced6	0.023047846
20	0x3d042cc2	0.032269247
21	0x3c9ef061	0.019401731
22	0x3caf8bf0	0.021429032
23	0xbb2884f2	-0.0025714007
24	0xbc717d13	-0.014739293
25	0x3d08c31d	0.0333892
26	0x3ca9a5cc	0.02070894
27	0x3d302a8d	0.04300933
28	0x3d19a007	0.03750613
29	0x3d45b504	0.048268333
30	0xbcfe96a5	-0.031077692
31	0xbc873b70	-0.016507834
32	0x3cc0514b	0.023476264
33	0xbcc7a772	-0.024371836
34	0xbd1371c2	-0.03599716
35	0xbcf30190	-0.029663831
36	0x3bd06a7a	0.0063603492
37	0x3cd5b9c6	0.02608956
38	0x3ce2a9cc	0.027668856
39	0x3ce9b9a5	0.028530905
40	0xbd0c3ec6	-0.034239553
41	0xbc2ff534	-0.010739613
42	0x3cbcdca2	0.023054425
43	0x3c09f296	0.008419653
44	0xbcf67089	-0.030082958
45	0xbcbd004a	-0.023071427
46	0x3d0c66fe	0.03427791
47	0x3cd801ec	0.026368104
48	0xbcb8db37	-0.022565467
49	0xbcb25a50	-0.02177158
50	0x3cb392fe	0.021920677
51	0xbac813d7	-0.0015264702
52	0x3d1b757c	0.03795384
53	0xbcd32367	-0.025773717
54	0xbbc08960	-0.0058757514
55	0x3d032235	0.032015044
56	0x3d19e4b9	0.037571643
57	0x3cd2aca9	0.025717096
58	0xbccb3e43	-0.024809962
59	0x3c8d2db9	0.017233716
60	0x3d01c731	0.031684104
61	0xbcd3b041	-0.02584088
62	0xbd1afe8b	-0.037840407
63	0x3cbecab0	0.023290008
64	0x3cad1fb4	0.021133281
65	0xbc61039c	-0.013733771
66	0x3cf389d2	0.029728804
67	0x3c455c33	0.012045908
68	0x3cbec2d8	0.023286268
69	0xbd030580	-0.031987667
70	0xbcda501c	-0.026649527
71	0xbd033275	-0.03203054
72	0x3ca2029e	0.019776639
73	0xbcbde2b8	-0.023179397
74	0xbd08bddc	-0.03338419
75	0xbb9a99d9	-0.004718047
76	0x3d013d03	0.031552326
77	0x3ceb64f9	0.028734671
78	0x3cb3c6cd	0.021945382
79	0x3ca59a36	0.020215135
80	0xbc7ef335	-0.015560915
81	0x3ce2f3ee	0.027704205
82	0xbc6f4402	-0.014603617
83	0xbc989c53	-0.018629229
84	0x3d349183	0.044084083
85	0xbce44d71	-0.027868958
86	0x3c80d5ca	0.015726943
87	0x399a4ba9	0.0002942954
88	0x3d0e9fe2	0.034820445
89	0xbb4847b1	-0.003056031
90	0xbb9592d8	-0.0045646243
91	0xbc510224	-0.012756858
92	0x3cdb0176	0.026734095
93	0x3cdf5786	0.027263414
94	0xbc20dea9	-0.009818711
95	0xba8e17a0	-0.0010840781
96	0xbd128b46	-0.035777353
97	0x3c98fd1d	0.018675381
98	0x392dc203	0.0001657084
99	0xbcdb2e11	-0.026755365
100	0x3d0deb05	0.03464796
101	0x3cf50782	0.029910807
102	0x3c2e5557	0.010640464
103	0xbd039e4e	-0.032133393
104	0x3ca3ed32	0.020010564
105	0x3c846add	0.016164238
106	0x3cc41de4	0.023940034
107	0x3c5117c3	0.012762013
108	0x3c4cc88e	0.012498988
109	0xbb7fd9e9	-0.0039039797
110	0xbc0dc1d4	-0.008652169
111	0x3d075727	0.0330421
112	0x3c961f17	0.018325372
113	0xbafead53	-0.0019430317
114	0x3cc16b4e	0.023610737
115	0xbcd04f3f	-0.025428412
116	0x3c5d0179	0.013489121
117	0x3c4399d2	0.011938529
118	0xbd1d99d2	-0.038476773
119	0xbb6083ee	-0.0034258324
120	0x3c17451a	0.009232784
121	0x3d2d2a26	0.042276524
122	0x3d022caa	0.031780876
123	0x3d04c2f5	0.032412488
124	0x3d1244de	0.035710208
125	0xbd067bb5	-0.03283282
126	0x3cfcd417	0.030862851
127	0xbd06e662	-0.032934554
128	0xbae32575	-0.0017329889
129	0xbcdb9881	-0.026806118
130	0x3c1e77aa	0.009672085
131	0xbc7d7f6a	-0.015472272
132	0x3bd107db	0.0063791103
133	0xbd68b3a1	-0.056811932
134	0x3c51a290	0.012795106
135	0xbcab550f	-0.020914583
136	0xbb0a0906	-0.0021062507
137	0x3ae3ad56	0.0017370384
138	0xbd2b1dd2	-0.041776486
139	0x3c1f2559	0.009713494
140	0x3d092363	0.033481013
141	0x3bd94283	0.0066302433
142	0x3d3b420e	0.04571729
143	0xbc8b57b3	-0.017009592
144	0x3cc00084	0.023437746
145	0xbbcee833	-0.0063143014
146	0xbc4b76e9	-0.012418487
147	0xbd5605cd	-0.052251626
148	0xbcbaa108	-0.022781864
149	0xbc8b3ffb	-0.016998282
150	0x3b3a89d6	0.0028463504
151	0xbce8869b	-0.028384497
152	0x3ca43f97	0.020049853
153	0xbd8189da	-0.06325121
154	0xbc349eb7	-0.011024169
155	0xbd93d886	-0.07219033
156	0xbc9a3748	-0.018825188
157	0x3c595718	0.013265394
158	0x3ab53667	0.0013825417
159	0x3d276893	0.040871214
160	0x3c83b2c9	0.016076462
161	0x3c415c07	0.011801726
162	0x3c6face8	0.014628626
163	0xbcb93079	-0.022606121
164	0xbca32509	-0.01991512
165	0xbb0b84a2	-0.0021288772
166	0x3c0bc4c2	0.008530797
167	0xbcffb997	-0.031216426
168	0xbd7b55ae	-0.061361007
169	0x3d207795	0.039176542
170	0x3babeb12	0.0052465284
171	0x3c104521	0.008805544
172	0xbd764d62	-0.06013239
173	0xba473803	-0.0007599594
174	0xbce84576	-0.028353434
175	0xbd402d49	-0.046918187
176	0x3ccd9ed0	0.025100142
177	0xbd341104	-0.04396154
178	0xbc39bc4a	-0.0113363955
179	0x3cce2751	0.025165232
180	0xbb0c217b	-0.002138226
181	0xbd1cc757	-0.038276043
182	0xbd393013	-0.045211863
183	0xbcb9aedd	-0.02266639
184	0x3c4144cb	0.011796187
185	0xbd00fb26	-0.031489514
186	0xbc060027	-0.008178747
187	0xbc6a9bf9	-0.014319413
188	0xbc0a0b9f	-0.008425622
189	0x3b9c228c	0.0047648605
190	0x3b01df8a	0.0019817078
191	0x3c81df83	0.015853649
192	0xbd38c16e	-0.045106344
193	0xbd283cc1	-0.041073564
194	0xbc0964a1	-0.008385808
195	0xbd031e0a	-0.03201107
196	0xbd68b52c	-0.056813404
197	0x3bcc3656	0.0062320633
198	0xbd29ec60	-0.04148519
199	0x3c890438	0.016725644
200	0x3b439498	0.0029843207
201	0x3cbaa160	0.022782028
202	0x3a042ef3	0.00050423964
203	0x39a151a3	0.00030769137
204	0x3c115b84	0.008871917
205	0x3b2ea75c	0.0026650047
206	0xbc9f817f	-0.019470928
207	0xbc022d11	-0.007945315
208	0xbcaf18dc	-0.021374159
209	0xbc9daefa	-0.019248474
210	0x3c9422c1	0.018082978
211	0x3c83e47b	0.016100159
212	0xbc29d785	-0.010366325
213	0xbbe17110	-0.006879933
214	0xbd093845	-0.03350093
215	0x3b1d7fc3	0.002403245
216	0xbcc98386	-0.024598848
217	0xbb2f10f4	-0.0026712986
218	0xbc8e40d6	-0.0173649
219	0x3d30638f	0.043063696
220	0xbcdcc1e3	-0.026947921
221	0x3b2c3ff6	0.002628324
222	0x3cbba69a	0.02290659
223	0x3c7f1e29	0.015571156
224	0x3d80e194	0.062930256
225	0xbbda8405	-0.00666857
226	0x3c8f9f60	0.01753205
227	0xbd478854	-0.048713997
228	0xbd7bfac7	-0.061518457
229	0xbc95a6f7	-0.018268092
230	0xba195f4d	-0.0005850688
231	0x3cbf6a22	0.023366038
232	0xbc899e78	-0.016799197
233	0xbceb0395	-0.028688231
234	0x3b3c1abd	0.002870246
235	0xbd51ac0e	-0.051189475
236	0xbc9a71a1	-0.01885301
237	0x3d0d979a	0.034568407
238	0x3d48a707	0.048987415
239	0xbd88573b	-0.06657263
240	0x3b8a0c4b	0.004212891
241	0x3d4e5d4d	0.050381947
242	0x3b6b1967	0.0035873295
243	0x3d4e55fc	0.05037497
244	0xbc030706	-0.00799728
245	0x3be2d6fd	0.0069226013
246	0xbc17b105	-0.009258513
247	0xbd00bd3e	-0.031430475
248	0xbd56e7a0	-0.05246699
249	0xbc99fcbc	-0.018797271
250	0xbccfae1c	-0.025351577
251	0x3d0f4512	0.03497798
252	0x3c0c223f	0.008553087
253	0x3d25f805	0.040519733
254	0xbd28d326	-0.04121699
255	0x3d848ef2	0.06472577

action_model._discrete_distribution.branches.1.bias f4 [3]
0	0x3c4cdf32	0.012504386
1	0xbc42e79a	-0.011896038
2	0xbc858446	-0.016298424

action_model._discrete_distribution.branches.2.weight f4 [2, 128]
0	0x3cbf352b	0.023340782
1	0x3d0c360c	0.03423123
2	0xbca2554d	-0.019816065
3	0x3cd229a1	0.025654616
4	0xbd343d97	-0.04400405
5	0xbd3f30b3	-0.046677303
6	0x3d04c811	0.03241736
7	0x3c8eee32	0.017447565
8	0xbceb0c8e	-0.02869251
9	0x3d5de370	0.05417198
10	0x3d56ab58	0.0524095
11	0x3d16a3af	0.036777195
12	0xbca0d53d	-0.01963293
13	0x3cd0a1f8	0.025467858
14	0x3c2e0ac0	0.01062268
15	0x3d368947	0.04456451
16	0xbcd29007	-0.025703443
17	0x3cd9f0ee	0.026604142
18	0xb98fbbf5	-0.00027415124
19	0x3cfcb284	0.030846842
20	0x3bfeaa0e	0.007771737
21	0x3cc70999	0.024296569
22	0x3d35f1a1	0.04441989
23	0x3d411aec	0.047144815
24	0xbd019f41	-0.031646017
25	0x3d013307	0.031542804
26	0x3ba86b04	0.0051397104
27	0x3c94b761	0.018153848
28	0x3c1d7c82	0.0096122045
29	0x3d48a91e	0.048989408
30	0xbd0d4e47	-0.03449848
31	0xbccc0e8b	-0.024909278
32	0x3d4e8936	0.050423823
33	0xbd35b1f6	-0.04435917
34	0xbccf8bc4	-0.0253352
35	0x3a4fe8ad	0.0007931095
36	0x3c819ae7	0.015820934
37	0x3cb2388f	0.021755485
38	0x3cd6652e	0.026171293
39	0x3ceb2f11	0.028708966
40	0xbcc42e45	-0.023947844
41	0x3cf36e39	0.029715644
42	0x3d05089a	0.032478906
43	0x3b84ab95	0.0040487745
44	0xbb7c8d10	-0.0038536228
45	0xbc7a2f47	-0.015270061
46	0x3d03fd51	0.032224003
47	0x3cd61063	0.02613086
48	0xbce2c183	-0.027680164
49	0x3d929f83	0.07159331
50	0x3d3390d3	0.043839287
51	0x3cfe7e3e	0.031066056
52	0x3c920555	0.017824808
53	0xbca4a08c	-0.020096086
54	0x3cdd8ade	0.027043756
55	0x3d29f737	0.041495528
56	0x3d1908cc	0.037361905
57	0x3cf3307e	0.029686209
58	0x3d5a774c	0.053336427
59	0x3c3e326e	0.011608703
60	0x3d2dbd00	0.042416573
61	0xbc308f09	-0.01077629
62	0xbca1e485	-0.019762287
63	0x3caedcf7	0.021345599
64	0x3d1400a7	0.036133435
65	0x3d837cee	0.06420313
66	0x3d2b7e49	0.04186848
67	0x3bd3f25b	0.0064681
68	0x3c9ee473	0.019396042
69	0x3af0ec5c	0.0018380987
70	0xbc29227a	-0.010323161
71	0xbccb2241	-0.024796607
72	0x3c04ae22	0.008098157
73	0xbcb523e4	-0.02211184
74	0xbd431cd7	-0.047634926
75	0x3caac6de	0.02084678
76	0x3c640325	0.013916765
77	0x3d19ccba	0.037548758
78	0x3d8e4b80	0.06947994
79	0x3d311556	0.04323324
80	0x3c05cf0b	0.008167039
81	0x3d1722fe	0.036898606
82	0xbce26ca1	-0.027639689
83	0xbc8db4ac	-0.017298065
84	0x3c0cc38e	0.008591546
85	0xbc753967	-0.014967299
86	0x3d7a741c	0.061145887
87	0x3c84ecb5	0.016226152
88	0x3d0728ee	0.032998018
89	0x3d4f2e10	0.050581038
90	0x3d1f6cc8	0.0389221
91	0xbd26cee7	-0.04072466
92	0x3d2d0936	0.042245112
93	0x3d33bb1e	0.04387962
94	0xbd08159f	-0.033223744
95	0xbb124b55	-0.0022322733
96	0xbcdf18b1	-0.027233453
97	0xbcbbead5	-0.022939125
98	0x3ba2c5f2	0.0049674446
99	0x3c905577	0.017618878
100	0x3d53fff0	0.051757753
101	0x3d1306e2	0.035895236
102	0xbc635ae0	-0.013876647
103	0xbab876ff	-0.001407355
104	0xbc00f3fd	-0.007870671
105	0x3cc0d20d	0.02353766
106	0x3cf326db	0.029681614
107	0x3c1ac5e2	0.009446593
108	0x3c8b9dcd	0.017043019
109	0xbc5021d3	-0.012703377
110	0xbd21f332	-0.03953857
111	0xba094e2d	-0.00052377844
112	0x3d2c6364	0.042086974
113	0xbc95a953	-0.018269217
114	0x3cc2dd3b	0.023787132
115	0xbc564f5c	-0.013080444
116	0x3cfab8de	0.03060573
117	0x3d168b28	0.036753803
118	0xbd0f1c0d	-0.03493886
119	0xbb51e263	-0.0032025806
120	0x3c91c6b7	0.01779495
121	0x3c7b6c4f	0.015345647
122	0x3cdd78ee	0.027035203
123	0x3d0ff025	0.03514113
124	0x3c183636	0.009290269
125	0x3c814d83	0.01578403
126	0x3cc4586c	0.023967944
127	0xbca724b5	-0.020403245
128	0xbd3265f4	-0.04355426
129	0xbd4ef152	-0.05052311
130	0x3cecd780	0.028911352
131	0xbd24f569	-0.040273104
132	0x3ca6a273	0.020341134
133	0x3d214d15	0.03938015
134	0xbd418c77	-0.0472531
135	0xbc8ed30e	-0.017434623
136	0x3d034efd	0.03205775
137	0xbd934717	-0.07191294
138	0xbd688a06	-0.056772254
139	0xbd4e348a	-0.050343074
140	0x3cacd5cb	0.021098038
141	0xbcb609d4	-0.022221483
142	0xbcc85167	-0.024452878
143	0xbd088b7c	-0.033336148
144	0x3c072e44	0.008250777
145	0xbd472266	-0.04861679
146	0xbc8de5fe	-0.017321583
147	0xbd0cc56a	-0.034367956
148	0xbc912fc7	-0.017722977
149	0xbd3d7abc	-0.046259627
150	0xbce9a952	-0.028523121
151	0xbd0aed6f	-0.03391784
152	0x3d1aa5ef	0.037755903
153	0xbca26f64	-0.019828506
154	0xbc15a13e	-0.009132681
155	0xbc8fa18f	-0.017533092
156	0xbc73c66d	-0.014878851
157	0xbd0d1e38	-0.034452647
158	0x3cc19f8b	0.023635646
159	0x3ba026be	0.004887431
160	0xbce3e3d8	-0.027818605
161	0x3d40a1bc	0.047029242
162	0x3c825e68	0.015914157
163	0x3b2f95b0	0.0026792102
164	0xbc5db47e	-0.013531802
165	0xbd1602dd	-0.036623824
166	0xbd025309	-0.03181747
167	0xbcdcdf8b	-0.026962062
168	0x3cadea3e	0.02122986
169	0xbd73a1f5	-0.059480626
170	0xbd088cb8	-0.033337325
171	0xbc8501e8	-0.01623626
172	0xbc17d9c4	-0.009268228
173	0x3c93398f	0.017971782
174	0xbca3f1d6	-0.020012777
175	0xbd1d7bbd	-0.038448084
176	0x3cabce2f	0.02097234
177	0xbd8b07f5	-0.06788627
178	0xbd4dc276	-0.05023428
179	0xbd2e2476	-0.04251524
180	0xbd0b36f2	-0.033987947
181	0x3d073fe4	0.033019915
182	0xbce8857d	-0.028383965
183	0xbd514a71	-0.051096383
184	0xbd33681d	-0.043800462
185	0xbc8ca6ab	-0.017169317
186	0xbd53b29a	-0.051684
187	0xbbcc6a25	-0.0062382394
188	0xbd51f018	-0.051254362
189	0x3b433128	0.0029783938
190	0x3d0fe1fc	0.035127625
191	0xbd39b081	-0.045334343
192	0xbce4dc49	-0.027937071
193	0xbd348d50	-0.04408008
194	0xbd25840d	-0.040409137
195	0xbc17ea22	-0.00927213
196	0xbd02a9ba	-0.031900145
197	0x3c781c53	0.015143472
198	0x3c05c1fe	0.008163927
199	0x3cf833dd	0.030298168
200	0xbb01349f	-0.0019715203
201	0x3c8d499a	0.01724701
202	0x3d43866f	0.047735628
203	0xbc8a12ca	-0.016854662
204	0xbca2d96a	-0.019879062
205	0xbcf25268	-0.02958031
206	0xbd5af53a	-0.053456523
207	0xbd6c7710	-0.057730734
208	0x3bff873b	0.007798103
209	0xbd40bcb4	-0.04705496
210	0x3d16e44c	0.036838815
211	0x3cc789dc	0.024357729
212	0xbc65a0c0	-0.014015377
213	0xbba164fd	-0.004925369
214	0xbd8067a3	-0.06269767
215	0xbc9353b3	-0.017984247
216	0xbc94856c	-0.018130027
217	0xbd7cc60e	-0.061712317
218	0xbd1d304c	-0.038376138
219	0x3d109681	0.03529978
220	0xbd35e7f1	-0.04441065
221	0xbd4205be	-0.047368757
222	0x3d4e519a	0.05037079
223	0x3cae5f39	0.02128564
224	0x3c8d08c6	0.017216098
225	0x3cad49d1	0.021153362
226	0xbc0131ec	-0.007885437
227	0xbd1f70ec	-0.03892605
228	0xbd27ec67	-0.040996935
229	0xbbd33c15	-0.0064463713
230	0x3aea9f9b	0.0017900349
231	0x3c6e18f6	0.014532318
232	0xbba38aab	-0.0049908957
233	0xbcdfdfc1	-0.027328374
234	0xbd2f419f	-0.04278719
235	0xbd089a74	-0.033350423
236	0xbc9e857c	-0.01935076
237	0x3ca47f33	0.020080185
238	0x3d32583d	0.04354118
239	0x3b8eab07	0.004353884
240	0xbd327903	-0.043572437
241	0x3d1d1c22	0.038356908
242	0xbca0c448	-0.019624844
243	0x3ccfa0af	0.025345175
244	0xbd769597	-0.060201254
245	0xbd1b0754	-0.037848786
246	0x3d107e2f	0.035276588
247	0x3bbfe5f7	0.0058562714
248	0xbc35bdc8	-0.011092611
249	0xbc94effb	-0.018180838
250	0xbce2d0e3	-0.027687496
251	0xbcb0fc53	-0.021604693
252	0xbaf352ad	-0.0018564068
253	0x3b778145	0.003776626
254	0xbcaf5c8f	-0.02140644
255	0x3c1917e7	0.009344078

action_model._discrete_distribution.branches.2.bias f4 [2]
0	0x3c337e8e	0.010955466
1	0xbc337e8e	-0.010955466

exp_avg f4 [128, 6]
0	0xb91cd30b	-0.00014955939
1	0xb9a7bd6f	-0.0003199386
2	0xb90ff36f	-0.00013728229
3	0xb90d8dda	-0.00013499652
4	0x38f8de2f	0.000118669464
5	0x3970352f	0.00022907996
6	0xb76fd697	-1.4295473e-05
7	0x379d09ce	1.8720424e-05
8	0x38e8448f	0.00011075392
9	0xb8714e57	-5.7531837e-05
10	0xb8e050c1	-0.00010696194
11	0xb89c3b0f	-7.44966e-05
12	0x38608a97	5.3534834e-05
13	0x390d3fe5	0.0001347061
14	0x39074cae	0.00012903169
15	0x387fc21e	6.0977523e-05
16	0xb6e7c908	-6.9077396e-06
17	0xb8cf1fe0	-9.876466e-05
18	0x391ddc48	0.00015054748
19	0x37471172	1.1865386e-05
20	0x3972746b	0.00023122288
21	0xb8c765fb	-9.508055e-05
22	0x38a34011	7.784379e-05
23	0x37e25d82	2.6984842e-05
24	0x3793620e	1.7569426e-05
25	0x3774eefa	1.4599174e-05
26	0x37df4219	2.661445e-05
27	0x3688d806	4.0782643e-06
28	0x36823a70	3.881105e-06
29	0xb740f5c0	-1.150131e-05
30	0xb9b9a465	-0.00035408433
31	0xb9f04cc1	-0.00045833553
32	0xb9b98fa0	-0.0003539296
33	0xb8f90305	-0.00011873808
34	0x3783b59f	1.570099e-05
35	0x39867357	0.00025644407
36	0xb911aa55	-0.00013891731
37	0xba175c1b	-0.00057739177
38	0xb98eba41	-0.0002722312
39	0xb990ccdc	-0.00027618452
40	0x39db0201	0.00041772428
41	0x3a33dc8e	0.00068611733
42	0xb7fbde43	-3.002503e-05
43	0xb9d88c4b	-0.00041303257
44	0xb8e18f36	-0.00010755511
45	0xb98683b5	-0.000256566
46	0x395fb6b2	0.00021334997
47	0x39f0eb1a	0.00045951532
48	0x38433878	4.6544214e-05
49	0x39a7a753	0.00031977388
50	0x39864dba	0.00025616382
51	0x391a9da2	0.00014745307
52	0xb860aecb	-5.356855e-05
53	0xb9bba600	-0.000357911
54	0xb8a1844a	-7.701719e-05
55	0xb9123f2b	-0.00013947177
56	0xb8daf0bb	-0.000104398896
57	0x3844276c	4.6766756e-05
58	0x3855f1ac	5.1008232e-05
59	0x36e10308	6.7058754e-06
60	0x37d42087	2.5287516e-05
61	0x39beaeed	0.00036369954
62	0x38c8cc32	9.5747775e-05
63	0x39801798	0.0002443164
64	0xb8751612	-5.8433106e-05
65	0xb9c000f4	-0.00036621804
66	0xb7d7e8d0	-2.5738409e-05
67	0x394c1c5a	0.00019465518
68	0x3829e2d6	4.0503997e-05
69	0x391e0bf0	0.00015072501
70	0xb86397d2	-5.426241e-05
71	0xb951f639	-0.00020023518
72	0x385ccec0	5.264464e-05
73	0xb9222dc4	-0.00015466573
74	0x373daa8b	1.13049855e-05
75	0xb91a0c65	-0.00014691202
76	0x385d0921	5.2699008e-05
77	0x3921e0af	0.00015437858
78	0xb8b04a6e	-8.4061976e-05
79	0xb9f6d4cc	-0.00047079322
80	0xb94a1381	-0.00019271487
81	0xb996cdb9	-0.00028763505
82	0x393b896c	0.00017884903
83	0x3a072737	0.0005155685
84	0xb99d404c	-0.00029993278
85	0xba15cdc9	-0.00057145633
86	0xb9d36a5b	-0.00040324297
87	0xb982f3f1	-0.00024977283
88	0xb90b4094	-0.0001328013
89	0x39f783d8	0.00047209742
90	0xb98c3301	-0.00026740882
91	0xb97c7b48	-0.00024078519
92	0xb942922b	-0.00018555734
93	0x386cf76f	5.6497225e-05
94	0xb8607ae4	-5.3520213e-05
95	0x375f2d70	1.3302415e-05
96	0xba057a8b	-0.00050918077
97	0xba1f8366	-0.00060849485
98	0xb9de015e	-0.00042344158
99	0xb815f649	-3.575374e-05
100	0x38959183	7.131977e-05
101	0x3982b2ef	0.00024928848
102	0x38219546	3.8524413e-05
103	0x390c3ae8	0.00013373385
104	0xb684c6de	-3.9570577e-06
105	0x37f1ab10	2.8809096e-05
106	0xb910e228	-0.0001381716
107	0xb8b40c61	-8.5853746e-05
108	0xb978eeca	-0.00023740079
109	0xb9fb5550	-0.00047938013
110	0xb99d8d01	-0.0003005043
111	0xb8fa343e	-0.0001193066
112	0x38ff4667	0.00012172461
113	0x398dfd6b	0.00027082427
114	0x3887556e	6.453214e-05
115	0x38aaa4a3	8.136898e-05
116	0x38a7f130	8.008105e-05
117	0x3894ace9	7.089397e-05
118	0xb818af19	-3.6402696e-05
119	0xb8806a07	-6.123265e-05
120	0x379c2530	1.8613966e-05
121	0x3883139b	6.2502186e-05
122	0x388706f0	6.438594e-05
123	0x37a75ed6	1.9952113e-05
124	0xb6b780b9	-5.4688103e-06
125	0xb79c0952	-1.860099e-05
126	0x38d5c467	0.00010193214
127	0x38f4237a	0.00011641435
128	0x3936d630	0.00017436664
129	0x388dcf2d	6.7619934e-05
130	0x378c68de	1.6738133e-05
131	0xb8f4053f	-0.00011635804
132	0x378575b2	1.5909642e-05
133	0xb8eef55f	-0.00011394428
134	0x3683a778	3.9236e-06
135	0xb8f7c0e5	-0.00011813807
136	0x37244fff	9.793787e-06
137	0x390691ae	0.00012833506
138	0xb8c97364	-9.60592e-05
139	0xba09af8b	-0.0005252293
140	0xb9654d55	-0.0002186795
141	0xb999da7c	-0.00029345218
142	0x398b7616	0.00026600127
143	0x3a108db2	0.00055142783
144	0xb964e20e	-0.00021827986
145	0xb9beed61	-0.00036416485
146	0xb98fd398	-0.00027432735
147	0xb97408f2	-0.00023272986
148	0xb85f666b	-5.3262727e-05
149	0x39d7cce0	0.0004116064
150	0x38bf3f7c	9.1194146e-05
151	0x39e13251	0.00042952833
152	0x39cd1b39	0.0003912093
153	0x395fba34	0.00021336303
154	0xb84d7e87	-4.8993646e-05
155	0xb9e6d402	-0.00044026977
156	0xb8aac7d5	-8.143453e-05
157	0xb981e40b	-0.00024774703
158	0x37fce4bf	3.014726e-05
159	0xb8a65ef9	-7.933187e-05
160	0xb7846a22	-1.5785048e-05
161	0x37c4e5b0	2.3471977e-05
162	0xb825be45	-3.9516268e-05
163	0xb7ea85bc	-2.7957249e-05
164	0xb8f75e75	-0.00011795472
165	0x38c5ecdf	9.437813e-05
166	0x38384ba3	4.393946e-05
167	0xb7d0f794	-2.491082e-05
168	0xb90d6d73	-0.00013487581
169	0xb887508f	-6.452307e-05
170	0xb86aeb56	-5.600912e-05
171	0x3823b4ef	3.9030736e-05
172	0xb89724cd	-7.207096e-05
173	0xb826c733	-3.9763003e-05
174	0xb6ad6c3d	-5.1684024e-06
175	0xb851956a	-4.9968636e-05
176	0x390d41a4	0.00013471261
177	0xb8d797f9	-0.00010280306
178	0x356c808c	8.810391e-07
179	0x352bc04d	6.39823e-07
180	0x38c83496	9.546538e-05
181	0xb800df41	-3.07255e-05
182	0x38f70470	0.00011778704
183	0xb8b5ae49	-8.663216e-05
184	0x38517c1a	4.994506e-05
185	0x385f4a71	5.3236672e-05
186	0xb94941b8	-0.00019193336
187	0x39e7cd6a	0.000442128
188	0xb7ea7b3e	-2.7952363e-05
189	0x39f06e2f	0.0004585846
190	0xb9b9bba7	-0.00035425762
191	0xba09e189	-0.00052597426
192	0xb9c0e4d6	-0.0003679159
193	0xb948c7a0	-0.00019147852
194	0xb979dc85	-0.0002382864
195	0x393144a7	0.0001690561
196	0xb913caf5	-0.0001409462
197	0xb7dea92d	-2.654324e-05
198	0xb8743a44	-5.8228397e-05
199	0x3988c223	0.00026084585
200	0x396dccb0	0.00022678333
201	0x39467923	0.00018927878
202	0xb8e38568	-0.00010849052
203	0xb9a1d8a8	-0.00030869734
204	0xb8592f00	-5.1780604e-05
205	0x399b5f43	0.0002963488
206	0x395dac79	0.00021140453
207	0x3953d92a	0.00020203428
208	0xb9269959	-0.0001588812
209	0xba037674	-0.00050149043
210	0xba09c075	-0.00052548136
211	0xba2f020d	-0.0006676026
212	0xba27d50b	-0.00064022903
213	0xb97b72a0	-0.00023979926
214	0xb82e54db	-4.156386e-05
215	0x3a2c3908	0.00065697776
216	0xb94b7a0b	-0.00019405053
217	0xb85fe4b2	-5.3380332e-05
218	0xb8f37ef7	-0.00011610792
219	0x3808b70d	3.2595406e-05
220	0x38358a17	4.328237e-05
221	0xb8576db4	-5.1362164e-05
222	0x37859020	1.5921949e-05
223	0xb8b49dd0	-8.612464e-05
224	0xb8c06fda	-9.1761074e-05
225	0xb91ef8db	-0.0001516076
226	0xb93b3e0b	-0.00017856823
227	0x3942c672	0.00018575208
228	0x38b2c82b	8.5249856e-05
229	0x3968b1a5	0.00022191422
230	0x39522462	0.00020040714
231	0x3949d578	0.00019248377
232	0x37328cad	1.064238e-05
233	0xb96cabb1	-0.00022570674
234	0xb8891e6a	-6.538334e-05
235	0x398948e5	0.00026184987
236	0x38ca1e1e	9.63772e-05
237	0x39573baa	0.00020526224
238	0xb9666811	-0.00021973277
239	0xb9a09c5d	-0.00030634078
240	0xb91584d2	-0.00014259227
241	0xb808329d	-3.2472064e-05
242	0xb8d42d41	-0.00010117377
243	0x387eab1f	6.0717688e-05
244	0xb8a9779b	-8.080826e-05
245	0xb814520b	-3.5362358e-05
246	0xb9c10e62	-0.00036822545
247	0xb9b5a41f	-0.0003464529
248	0xb8cf113d	-9.87374e-05
249	0x38210cfb	3.839748e-05
250	0xb91f1794	-0.00015172205
251	0xb799fd90	-1.8357096e-05
252	0xb8861a4d	-6.394517e-05
253	0xb9f1b6e8	-0.00046103378
254	0xb91a434f	-0.00014711659
255	0xb98c4044	-0.00026750762
