results/PressButton/PressButtonAgent_ImitationLearning2/PressButtonAgent/PressButtonAgent-9984.onnx (onnx, 83197 bytes, 11 tensors)

discrete_act_size_vector f4 [1, 3]
000000 00 00 40 40 00 00 40 40 00 00 00 40
       3.0 3.0 2.0

network_body._body_endoder.seq_layers.0.weight f4 [128, 6]
000000 a5 ed 16 be 17 41 10 3f b0 a5 b4 3e 75 0e 87 bf
       -0.14739092 0.5634932 0.3528266 -1.0551287
000010 3f b4 85 3e 0e 4d 2b be 60 4f 9b be 77 09 ca be
       0.2611408 -0.16728613 -0.30333996 -0.39460346
000020 a1 33 e2 be 51 7f bc be 9e e3 21 3f 57 b5 24 bd
       -0.44180015 -0.36815885 0.6323794 -0.040212
000030 1b 5b 14 3e 73 d3 47 bf 50 79 2f 3e cd f2 38 3d
       0.14487879 -0.7805702 0.17136121 0.045153428
000040 d5 08 e5 bd d4 6a 12 bc 87 78 70 3e 0b 06 c6 be
       -0.11183325 -0.008936603 0.23483478 -0.38676485
000050 fa 85 09 be 80 df 8c 3e 2b ee 78 3e f5 2d ad be
       -0.13430014 0.27514267 0.24309604 -0.33824125
000060 cc e9 37 bf 18 19 78 be 0e c3 aa 3e 54 2c 02 bf
       -0.7184112 -0.24228323 0.3335194 -0.5084889
000070 78 94 1a be 34 a4 1d 3d 29 e9 21 3e 24 01 18 3e
       -0.15095699 0.038486674 0.158116 0.14844185
000080 57 36 eb 3e 24 a8 a8 be d5 7b 21 be 56 28 4d bd
       0.45939896 -0.3294078 -0.15769894 -0.050087295
000090 32 c4 1b 3e 22 f3 39 3e d2 86 81 3e 7e 5c a3 bd
       0.15211561 0.18159154 0.25298172 -0.07976626
0000a0 e6 ab 2b 3f 4b 75 94 bc 01 7c 28 3e c4 62 0f be
       0.6705917 -0.018122336 0.16453554 -0.1400252
0000b0 fd b9 0d 3f 1b 24 a5 bd 6d da 05 3f 0c 97 e0 be
       0.5536192 -0.08063527 0.52286416 -0.4386524
0000c0 71 b7 0d be 23 d8 b4 be 58 08 4b be 23 26 c8 3e
       -0.13839509 -0.3532115 -0.19827402 0.39091596
0000d0 61 64 1a be 16 b5 07 3e c1 8e 3c 3e 7f 8d 1d bd
       -0.15077354 0.13252673 0.18413831 -0.03846502
0000e0 78 69 c0 be c5 56 2a bf 63 8f fa 3e ca 30 06 3f
       -0.37580466 -0.6653865 0.4893752 0.52418196
0000f0 7f ba ac 3c 5d 99 18 be 8c c1 f0 3e fb b5 bd 3d
       0.021085022 -0.14902253 0.47022665 0.09263226
000100 78 c2 54 be 59 cb 82 3e 53 06 53 bf 42 c3 f6 bd
       -0.20777309 0.25545767 -0.82431525 -0.12048961
000110 16 89 ce be 51 3b b8 3d 06 b7 f7 be a3 08 b3 bd
       -0.40338963 0.08995689 -0.48381823 -0.08741882
000120 95 f0 fa bd f9 db 8a be 67 12 51 3e 63 ee c8 be
       -0.12252919 -0.2712095 0.20417176 -0.39244375
000130 93 82 9b bc 9f e7 09 bf 19 75 d9 bd f8 f0 bc 3d
       -0.018983161 -0.5386905 -0.10618038 0.09225649
000140 3b 0f 4f be e1 b1 62 be 6f 07 1f 3f 5f 2e 92 bd
       -0.20220654 -0.22138168 0.6212072 -0.07137751
000150 09 f6 2e 3e 23 fe 68 3f 00 71 0c be f5 b2 97 be
       0.17086042 0.9101278 -0.13714981 -0.2962872
000160 6a 3f f9 be 5b 4b d8 be b1 10 1a 3f 6d da d4 3e
       -0.48681194 -0.42244992 0.6018172 0.41572896
000170 94 0b 69 be 35 aa 34 bd 70 c5 aa 3d eb 28 d6 3e
       -0.22758323 -0.044107635 0.083384395 0.41828093
000180 c0 8c 4b 3f 77 5c 57 3f 55 1d a0 3e 70 d8 ac be
       0.7951164 0.84125465 0.3127238 -0.3375888
000190 d9 06 0a 3e 7d 22 6e 3e 92 39 aa bd ae 4d 0f 3f
       0.13479175 0.23255344 -0.08311762 0.55977905
0001a0 90 e9 c4 3e e3 72 4c 3f b0 4e f4 bd bd 53 ec bd
       0.38459444 0.79862803 -0.11929071 -0.11539409
0001b0 0c bc 6e 3f 5d 55 d6 be 07 88 d2 3e f1 4b 31 3e
       0.93255687 -0.41862002 0.41119406 0.17314126
0001c0 2a 69 c9 3d 92 bf 6a bd 5f 05 61 be c0 cc 3f bf
       0.098345116 -0.057311602 -0.21974705 -0.749218
0001d0 64 b4 63 3f c2 c4 b2 3d 9a 45 2d bd 1a 66 1e 3f
       0.8894713 0.08728935 -0.042302705 0.61874545
0001e0 86 ac ef bc 2f 13 62 bf f9 54 80 3d 81 6b d5 be
       -0.02925707 -0.8831052 0.06266207 -0.4168358
0001f0 a8 ec 2d be de e0 eb bd 8f 8d 95 be 9b bc d6 be
       -0.16984808 -0.115174994 -0.29209563 -0.4194077
000200 df 95 15 3f 28 f4 9e 3e d8 d9 f7 3c 7c 57 16 bd
       0.5843181 0.3104565 0.030255243 -0.036704525
000210 e6 08 8d be 70 9a 62 bc d1 4b c7 be db 8c e2 be
       -0.2754585 -0.013830766 -0.3892503 -0.4424809
000220 4d b0 12 3f c4 fb 4e be 7d 16 92 3d 80 00 bd 3d
       0.57300264 -0.20213228 0.071331955 0.09228611
000230 b0 b4 6b 3d 39 0e 56 be 4d 41 2d 3f c4 40 69 be
       0.057545364 -0.20903863 0.67677766 -0.22778612
000240 83 cf db be 6c af 26 3f cb 94 5f 3e 07 72 5f 3d
       -0.42931756 0.6511142 0.21834104 0.054552104
000250 d0 01 0c 3f 61 7d 86 be 52 1e 72 bd f9 57 5f be
       0.54690266 -0.26267532 -0.059110947 -0.21810903
000260 b8 a0 2d be d1 05 10 3e 82 5c e9 bd f7 e0 d6 bd
       -0.1695584 0.14064719 -0.113945976 -0.104921274
000270 d9 02 25 3f fc 31 5d 3c 0e bd 82 bf 56 ac 3b bf
       0.6445747 0.013500687 -1.0213945 -0.7330984
000280 f0 53 3c 3f 4b 58 cd bd 2b 6a f6 3e 8b 1e fd be
       0.7356558 -0.10026606 0.48127875 -0.49437365
000290 20 9d 26 3f 1a 9d 29 bf 8a df bd 3e b0 54 58 3e
       0.65083504 -0.6625534 0.3708461 0.21126056
0002a0 34 95 b2 3e 72 30 19 3f b7 db af bd d0 15 9c 3e
       0.34879458 0.59839547 -0.08586829 0.30485392
0002b0 e5 18 ed bd 4c b4 15 3e 1a c0 e9 be c1 e6 ef be
       -0.11577014 0.14619559 -0.45654374 -0.4685574
0002c0 7f c1 ed be b3 e3 1e 3f 6e 9e e8 3e 57 c9 bc 3e
       -0.46436688 0.6206619 0.45433372 0.3687236
0002d0 72 4a a3 3e 41 93 f8 be 16 58 47 be 70 fb 3b be
       0.31892735 -0.48549846 -0.19467196 -0.18357635
0002e0 a8 fd ae 3b 7d ee 46 bf c2 fb ba 3b fd e4 2e 3e
       0.005340297 -0.77707654 0.0057062814 0.1707954
0002f0 c8 37 3a bf b5 7a 59 3f e6 e5 48 bf 47 51 c4 3e
       -0.72741365 0.8495286 -0.784758 0.3834326
000300 36 5f 02 3f 29 32 72 3f 73 63 09 bf 8b cd c0 3d
       0.5092653 0.9460779 -0.5366737 0.09414204
000310 8e 58 7b 3e 41 fe fc 3e 06 a3 b8 be 72 15 e3 bd
       0.245455 0.4941273 -0.36061877 -0.11088075
000320 c7 86 4b bf d4 93 86 3d a0 8a 90 be 28 0b 83 be
       -0.7950253 0.06571165 -0.28230762 -0.2559445
000330 03 51 3c bf fc fb 9c be a9 ea d5 be 5f b4 41 3f
       -0.73561114 -0.30661 -0.41780594 0.7566585
000340 c1 30 04 be f5 14 b3 3e ba 4d b5 3e af d2 a4 3f
       -0.12909223 0.34976926 0.35410863 1.2876796
000350 06 11 8e 3f 98 2f 32 3f 36 97 a6 3e a0 33 e3 be
       1.1098945 0.6960387 0.3253724 -0.44375324
000360 91 be b3 3e c3 9d 99 be a1 fd 89 3d 41 0a 42 bd
       0.35106328 -0.30003175 0.06737829 -0.04737306
000370 fd 45 ec be 0f 89 06 3f 59 32 9d bf b0 ce 53 3f
       -0.46147147 0.52552885 -1.228099 0.82737255
000380 8a dc 6f bd 5a 81 c5 bd 44 16 84 3c 1b 8c 99 bf
       -0.05855993 -0.096438125 0.016123898 -1.1995882
000390 a5 45 ec ba d6 4a 25 bf 18 0d ee 3e 82 10 e9 3d
       -0.0018026127 -0.64567316 0.46494365 0.11380102
0003a0 21 7a 41 3c f1 e1 82 bf d1 93 80 3c 30 b9 96 3c
       0.011808903 -1.0225202 0.015695484 0.018398851
0003b0 ed 4b 1e bf 86 bc 71 3e a0 9e 82 bd 91 03 4a be
       -0.61834604 0.23607072 -0.063779116 -0.19727923
0003c0 7e 34 98 3e e0 7a 2d 3f 49 7b 9e 3d da 03 2b 3f
       0.29727548 0.6776562 0.077383585 0.6680275
0003d0 51 d4 a9 3c 9a 6e 6e be 49 a8 27 3f b3 09 c5 3e
       0.020731123 -0.23284379 0.6549116 0.38483962
0003e0 82 fb 1a bf ff b1 be be 8d 91 55 3e de 83 a2 3e
       -0.6054002 -0.37245175 0.20856304 0.31741232
0003f0 22 b9 92 3e 50 f6 c7 bd ec fc 7b 3e 09 b5 7d 3e
       0.2865687 -0.09763777 0.24608201 0.2477609

network_body._body_endoder.seq_layers.0.bias f4 [128]
000000 91 39 01 bc 9a c4 fa bc f0 a6 89 bb ff 69 d9 bc
       -0.00788726 -0.030611325 -0.0042008087 -0.0265398
000010 92 23 71 bb 58 a0 27 3d 7b 2d 47 bc 79 d4 b7 bb
       -0.0036794883 0.0409244 -0.0121568395 -0.0056100455
000020 fa e9 ed 3c c6 2a a5 3d 8a 18 e9 3c 94 cd b0 3c
       0.029042233 0.08064799 0.028454084 0.021582402
000030 af 27 bb bc a7 e1 91 3d 60 1c 44 3d 61 e7 9a 3c
       -0.022846071 0.07123118 0.047878623 0.018909158
000040 fb 72 bf 3c de 20 5f bb ea 4e 38 3d 5b 24 0f 3c
       0.023370257 -0.003404669 0.044997133 0.008736695
000050 22 d1 3c bc 3d 0f ee bc ab 82 04 3d 20 15 82 3d
       -0.0115244705 -0.02906 0.032351177 0.063516855
000060 bf bd 3f 3d cb 60 ca bb 7f a7 61 3d 3f 42 75 3d
       0.046811815 -0.0061760894 0.055091377 0.05987763
000070 84 3a 64 3c b2 2a 8b bc 30 79 82 bc 25 e7 02 3d
       0.013929967 -0.016988132 -0.015926927 0.031958718
000080 69 65 3b 3d a7 89 56 3d f9 2d 2c 3d c5 00 08 3d
       0.04575101 0.05237737 0.04203603 0.03320386
000090 bf d6 35 3d b9 c3 8f 3c 0f 85 28 bd 53 bb 12 3d
       0.04439425 0.017549383 -0.04114252 0.035823178
0000a0 b2 d8 c2 3c 40 df 4a 3d 4d ce bf bb 54 ad 27 3d
       0.023784969 0.049529314 -0.0058534504 0.040936783
0000b0 f7 9e e8 3c 99 d4 e3 3c ad 32 06 bd 7b 38 c9 bc
       0.028396113 0.027811335 -0.032763172 -0.024563065
0000c0 98 e9 04 3d b9 9d 15 3d d7 ae cc bc f3 f8 42 3d
       0.032449335 0.03652737 -0.024985714 0.047600698
0000d0 a6 f1 d2 3c 9d 86 0b 3d cb 45 48 bb 76 3d 11 3c
       0.025749993 0.034063924 -0.0030559178 0.008864751
0000e0 7a 45 50 3d 3e 45 e0 bb 8c c2 9a 3c 06 9e da 3c
       0.050847508 -0.006844192 0.018891595 0.02668668
0000f0 d4 f6 aa bc c6 ff d3 bb 0f a6 3d bd 8f 54 65 bc
       -0.02086965 -0.0064696996 -0.046300944 -0.013997211
000100 2d a9 bb 3c 2f 67 bc 3c 72 eb 43 3d 69 3f 6a bc
       0.022907818 0.02299842 0.04783196 -0.014297345
000110 df 52 ac 3c d2 85 67 3d 9d 2a b1 bb 2b 1e 69 3c
       0.02103561 0.056524105 -0.005406691 0.014228384
000120 b0 80 2a 3d d7 8f 25 bb 0b 54 18 3d 44 09 52 3d
       0.041626632 -0.0025262737 0.037189525 0.051278368
000130 40 87 bb 3c 34 ca 6b bc 13 ca 5b 3d cf 50 09 3d
       0.02289164 -0.014391471 0.05365951 0.03352433
000140 34 f2 b5 3c ac 02 9b 3b 21 cc d6 bc a7 27 2e 3d
       0.022210218 0.004730543 -0.026220383 0.042518284
000150 d7 3e 32 bc 44 e9 05 3d 06 2e 61 3d 6d d0 2f bd
       -0.01087924 0.032693163 0.054975532 -0.04292338
000160 3f 45 31 3d 57 9f 06 bc a1 12 37 3d 48 ce 1d 3c
       0.04327893 -0.0082167005 0.0446955 0.009631701
000170 8a 59 bc 3c 6a 86 5d bc a9 56 e2 ba 0a 4c 65 bc
       0.022991914 -0.013520816 -0.0017268258 -0.01399518
000180 4f be 64 3d ce f4 ab 3c bb 3c df 3c b7 86 96 3c
       0.055845555 0.020990755 0.027250638 0.018374784
000190 62 ea cd 3c 95 13 ca bc 8a 28 f9 3c c4 6c 6b 3c
       0.025136176 -0.02466754 0.030414838 0.014369193
0001a0 14 25 33 3d 42 2b fc bb fc 24 ed 3c 75 85 2c 3c
       0.043736532 -0.0076955864 0.0289483 0.0105298655
0001b0 1b 0a 00 3d a1 d4 76 3d 67 70 07 bd 77 90 d4 bb
       0.031259637 0.060261372 -0.03306618 -0.006486948
0001c0 67 c1 e9 bc 27 ac 9d bb 1a d6 c3 bc 4a 78 03 bd
       -0.028534604 -0.004811782 -0.023905803 -0.03209714
0001d0 e1 0b e1 3c c9 a3 33 3c 6f c6 7a 3d d4 7d 40 3d
       0.027471485 0.010964342 0.061224397 0.046995
0001e0 7b cd b5 3c 73 c4 b7 bc 9f 19 12 3d 4e 32 e3 3c
       0.022192707 -0.022432541 0.035668965 0.027733948
0001f0 07 3c 88 3c 31 61 28 3d 89 55 cc bb d4 27 07 3d
       0.016630186 0.041108314 -0.0062357825 0.032996967

network_body._body_endoder.seq_layers.2.weight f4 [128, 128]
000000 b4 4c 37 bc e4 65 e4 bb f2 c5 12 be c7 cf 2c bb
       -0.011187721 -0.006970154 -0.14333323 -0.0026368962
000010 4b 29 a9 bd 7d 03 21 3e 5e 94 e0 3d c3 a6 48 3d
       -0.08259829 0.15723987 0.10965799 0.04898716
000020 4d 5a 97 bd 34 6e f8 3d e0 07 ea bd 47 e5 86 be
       -0.073902704 0.121303946 -0.11427283 -0.263468
000030 dc 68 f8 bc c7 c4 ca bc 79 0b 65 3c ba 72 93 3d
       -0.030323438 -0.024752034 0.013979786 0.07199617
000040 15 ae 34 3e b5 f5 fb 3c bd ea 1b 3e 77 c8 c9 bc
       0.17644532 0.03075681 0.15226264 -0.024631722
000050 c4 1a 06 bc 30 42 41 bd ea d3 fa bc d6 ae 19 3e
       -0.008185092 -0.047182262 -0.030618627 0.15008101
000060 8e 42 0f 3e 6f 0e f9 bd da ef b9 bc 5e 41 88 3d
       0.13990232 -0.12160956 -0.022697378 0.06653093
000070 45 61 99 bd b5 5d bc bd 1a 71 86 bb 53 00 28 3e
       -0.07489256 -0.09197561 -0.004102838 0.16406374
000080 47 0a ee 3d e2 b8 2e be 12 b6 50 bd 9d 52 3a bb
       0.11623054 -0.17062715 -0.050954886 -0.002843059
000090 4a 56 98 3d 6b 01 98 bb 4b 20 22 be 44 69 cc 3d
       0.07438333 -0.004638841 -0.15832631 0.09981015
0000a0 c1 7f 87 3d 79 69 41 3d 98 1c eb 3c 49 87 f3 3d
       0.06616164 0.047219727 0.028700158 0.11891038
0000b0 8f 67 8f bd 8e fa 10 3d 5e 62 81 bb 8a 27 dc bc
       -0.07002174 0.035395198 -0.003948494 -0.026874322
0000c0 6b 62 19 3d 34 8c 0b 3d cb d2 c8 bd 26 43 18 bb
       0.037447374 0.034069255 -0.098058306 -0.0023233383
0000d0 73 29 f4 bc 33 36 98 bc bb 76 cd bd b8 26 73 be
       -0.02980492 -0.018580532 -0.10032412 -0.23745239
0000e0 2e e7 2c bd 71 f4 66 3d 10 93 9a 3d 19 51 12 be
       -0.042212658 0.05638546 0.07547581 -0.14288749
0000f0 07 0e ad 3c a9 0a 79 bd f0 7c d2 bd f4 0e c2 3d
       0.021124853 -0.060801182 -0.10277736 0.09475508
000100 e8 e0 35 bd 4f d8 c2 bb 0a b2 d2 3d fc 4e be 3c
       -0.04440394 -0.005946196 0.102878645 0.023231022
000110 8b 95 b8 bc 3b d0 c9 3d c2 cc 0c bd a8 cb db 3d
       -0.022532245 0.0985417 -0.03437496 0.10732204
000120 07 a8 9f 3c fd 53 75 be 2e 36 93 bd 07 b6 ed bc
       0.019489301 -0.2395782 -0.07188068 -0.029017461
000130 c6 f4 f5 bd 2b e5 93 3d ca 65 68 bc 23 18 70 3d
       -0.120095775 0.07221445 -0.014184425 0.05861677
000140 55 53 8e be bd 8a 02 3e 6a 80 a1 bd b7 cf 44 3d
       -0.27797952 0.12748237 -0.07885821 0.048049655
000150 09 80 13 3e 6c 84 2e 3d 18 2a ce 3d b1 59 b5 3d
       0.1440431 0.042606756 0.100666225 0.08854998
000160 6d 77 81 3e 12 a0 91 3d d4 40 6a 3d 13 0a ae bc
       0.25286427 0.07110609 0.05719073 -0.021245038
000170 a4 3f ee 3c 89 54 2b 3e b5 0a be bc 38 3f 5a bd
       0.02908308 0.16731466 -0.023198465 -0.053282946
000180 6d 3f aa 3d 3c 08 ea bd 37 e0 96 3c aa 3d 45 3d
       0.08312879 -0.11427352 0.01841746 0.04815451
000190 a5 ed 84 bd 4b bc 2e 3d a1 9c 9f 3d 5e 64 9e bc
       -0.064906396 0.04266004 0.077935465 -0.019334968
0001a0 08 db 0d 3e 40 91 4f 3d ef da 34 3d d6 38 5f be
       0.13853085 0.05067563 0.044154104 -0.21799025
0001b0 53 87 65 be e3 19 93 3d 7c d2 9b 3d 02 3a c3 3c
       -0.22414903 0.07182672 0.07608506 0.023831371
0001c0 0b 4a 36 bd fa ef 9c 3d 4b 9e a4 3d fe 34 c8 bd
       -0.044504207 0.076629594 0.080380045 -0.097757325
0001d0 ed 0d ca 3c a4 6f 96 bd cd fe 21 3e ff 29 07 3e
       0.024664843 -0.073455125 0.15819855 0.13199614
0001e0 f6 70 d1 bd 2e 2c 8d bd e4 97 bc 3d b7 a0 fe bd
       -0.10226624 -0.06893192 0.09208658 -0.12432998
0001f0 95 17 c1 bc 51 77 90 bd 86 23 0e be 42 8e c8 3d
       -0.023570815 -0.07054008 -0.13880739 0.097927585
000200 35 b8 13 ba db 5a a3 bb bc 7a 25 bd 3b 2a f4 3d
       -0.0005635054 -0.004985196 -0.04040025 0.11922117
000210 0a ea 23 3d 7a a5 16 bd c4 ff 16 3e e0 ed 32 3e
       0.04001812 -0.036778904 0.14746004 0.17473555
000220 15 8e f2 bd 62 44 cf 3c a5 16 b2 3d 63 95 24 3e
       -0.11843506 0.025301162 0.08695725 0.16072612
000230 68 04 10 be c9 e4 81 bb 0a 01 f4 bc fa 39 fb 3b
       -0.14064181 -0.003964041 -0.029785652 0.0076668235
000240 02 af 43 3e 41 14 e4 bc a1 9e 39 3c a8 a7 c9 bd
       0.19109729 -0.027841689 0.011329324 -0.09846431
000250 4b b1 b0 bd 83 29 11 be 0b 3a 09 bd 29 94 79 3d
       -0.08627566 -0.14175992 -0.03350262 0.060932312
000260 db 2a 21 bd 46 b5 06 be 5c ed 5b 3c b5 e7 ea 3d
       -0.03934751 -0.13155088 0.01342329 0.11469976
000270 a7 59 63 bc 9b 95 2c be a1 37 31 be 6e c4 37 bc
       -0.013876355 -0.16853945 -0.17306377 -0.011216266
000280 0f d9 ce 3d 0d 21 b0 3c a8 52 a7 bd 18 b5 11 3e
       0.100999944 0.021500135 -0.08170062 0.14229238
000290 df cb cc bc 61 84 d7 bd cd 0f 9d 3d ac 20 a1 bd
       -0.024999557 -0.10523296 0.076690294 -0.0786756
0002a0 a4 e8 62 bd 74 80 0d bd 7c 95 d6 bd 46 de 99 bc
       -0.055397645 -0.03454633 -0.10477731 -0.018782746
0002b0 94 96 61 3b e2 3d 82 bc 3b fd 47 bc 0f fe df bd
       0.0034422027 -0.015898649 -0.012206371 -0.1093713
0002c0 16 2a 02 be 2d 61 80 3e 50 ce 20 bd 0e 6d d2 bd
       -0.12711367 0.2507414 -0.039259255 -0.10274707
0002d0 24 3c e7 bd 22 4a 64 3e f6 df e9 3b b5 66 3e be
       -0.11290768 0.22293904 0.007137294 -0.18593867
0002e0 b0 83 cd bd 23 1f d8 3b dd ee 97 bd 82 93 9e bc
       -0.10034883 0.0065955087 -0.074186064 -0.019357447
0002f0 ad 07 62 be ea 37 63 3d fc e7 e9 bc 97 db 9c 3c
       -0.2207324 0.055473246 -0.028553002 0.019147677
000300 73 c2 98 3d ed 17 f3 3c b5 8a fd 3d 16 14 51 be
       0.07458963 0.029674495 0.12379972 -0.20417818
000310 b1 9d 5f bb 61 d0 ea 3c 04 03 96 bd ef c7 7c bd
       -0.003412109 0.028663816 -0.07324794 -0.06171411
000320 58 3f 43 bd 00 a5 60 be 75 b9 1e be 91 f1 22 3e
       -0.04766783 -0.21937943 -0.15500434 0.15912463
000330 71 63 0b be f8 42 5f 3e 5e 9e 79 bc 01 ba 49 be
       -0.13612153 0.2180289 -0.015235512 -0.19699861
000340 65 e9 85 bd 96 5c ab bd b5 0d 30 be 60 94 22 3e
       -0.06538657 -0.08367269 -0.17192729 0.15876913
000350 79 f1 be 3d 62 26 42 bc 33 49 22 be 47 0a 1e be
       0.09323401 -0.0118499715 -0.15848236 -0.15433608
000360 d8 52 a0 3d 0f 84 a9 3d 9f 63 d8 3d 04 a4 1c be
       0.07828301 0.08277141 0.10565876 -0.15296942
000370 07 48 11 be 21 ef 4e bd 70 69 73 bb 5e 62 20 bd
       -0.14187633 -0.05052102 -0.0037141703 -0.03915631
000380 77 a7 4d bd 88 3b bc bd 86 4b 81 3c 5f 90 f2 bd
       -0.050208535 -0.09191042 0.015783083 -0.11843943
000390 f9 30 0b bd f3 e7 58 be e1 45 8d 3d 35 98 a4 3d
       -0.03398225 -0.21182232 0.06898094 0.08036844
0003a0 4a 69 f6 3d 66 b9 fa 3c db 2c 28 be 40 d0 ae bd
       0.12031801 0.030605983 -0.16423361 -0.08535814
0003b0 c2 69 1b 3e 2f fd d5 3d 4e 80 07 bc 84 79 b5 3d
       0.15177062 0.104486816 -0.008270336 0.08861068
0003c0 c7 f7 51 3d 53 00 af 3d 9f 60 ec bd b8 8e cf 3d
       0.05126169 0.08544984 -0.115418665 0.10134643
0003d0 04 c5 0a 3d 71 61 18 bc b3 41 85 bb 41 53 55 3e
       0.033879295 -0.009300576 -0.00406667 0.2083254
0003e0 b4 80 1a bd 87 be bc bd fc 83 4a 3d c5 b7 88 bd
       -0.037720397 -0.09216028 0.049442276 -0.06675676
0003f0 fa d6 bf 3d 1e 7e 40 3d 13 86 33 be a1 ba a9 3c
       0.093671754 0.046995275 -0.17531614 0.020718874

network_body._body_endoder.seq_layers.2.bias f4 [128]
000000 60 f0 27 3c 21 65 ea 3c 65 51 35 b9 c6 42 cd 3c
       0.010250181 0.028612675 -0.00017291827 0.025056254
000010 8c 50 fc bb 98 1c 1c 3c c5 f9 1e 3d 6e d1 e4 3c
       -0.0077000316 0.009528302 0.038812418 0.027931895
000020 92 2f 8e 3b f9 0f 2e 3d 60 3f db 3c aa b8 e0 3c
       0.004339167 0.0424957 0.026763618 0.027431805
000030 f8 04 69 3b 7a b0 22 3d d6 50 e1 bb a3 14 a8 3c
       0.003555594 0.039719082 -0.0068760915 0.020517653
000040 f2 8f 76 bb 9a 2c d6 3c 91 9a ab 3c e3 f1 3d 3c
       -0.003762242 0.026144315 0.020947726 0.011593315
000050 5d 0d ab 3c 43 9f d2 3c 10 43 17 3d 3a d9 21 3d
       0.020880396 0.025710708 0.03692919 0.039513804
000060 58 a3 6f bb 83 be db 3c 95 62 69 3c ba 23 1e 3c
       -0.0036565866 0.026824242 0.014244695 0.009652073
000070 d9 09 bf 3c 02 22 f5 3c 10 24 20 bb a1 e0 28 3d
       0.023320125 0.029923443 -0.0024435557 0.041229848
000080 4a 87 04 3d 0d d5 8b bc b1 e9 73 3b 0b ab 64 3b
       0.032355584 -0.017069364 0.0037218148 0.0034891989
000090 57 26 5c 3c 08 cd 80 3c 96 05 0c 3d f8 c1 b0 3c
       0.013436875 0.015722767 0.034185015 0.021576867
0000a0 92 4c 73 3c b4 b5 e5 3c a8 0a d4 3c f4 af f6 3c
       0.014849799 0.028040744 0.025883988 0.030113198
0000b0 02 82 ab 3c 64 f3 40 bc 72 63 f5 3c b8 07 b5 3c
       0.020936016 -0.011776779 0.029954646 0.022098407
0000c0 b4 17 9e bc a8 b4 16 3d 88 25 f8 3c 9a 01 f6 3c
       -0.019298412 0.03679338 0.030291334 0.03003006
0000d0 dc 81 b2 3c 05 69 12 3d 10 25 4a 3d 8a 8c dd 3c
       0.021790437 0.035744686 0.04935175 0.027044553
0000e0 db fe b7 3c cd a8 33 3c 0f bc 3b 3d d0 41 85 3c
       0.022460392 0.010965538 0.045833644 0.016266733
0000f0 97 73 18 3d b0 2a d2 bb a2 b3 0b ba d6 d4 e8 3c
       0.03721961 -0.00641378 -0.00053291966 0.0284218
000100 6d 5b dd 3c 4a fe 4d 3d 66 3c 00 3d 58 16 03 3c
       0.027021134 0.050291337 0.0313076 0.008000933
000110 d3 f1 86 3c 9e f4 53 3b 20 f5 76 ba 1f 20 0e bc
       0.016472733 0.0032341848 -0.0009420682 -0.00867465
000120 73 64 8b 3c a3 d2 5e bb d8 ee ce bb 57 f1 09 3d
       0.017015671 -0.003400006 -0.0063150935 0.033677425
000130 e1 1e ed 3c d8 77 13 3d 88 48 dc 3c 08 2c 0e 3d
       0.028945388 0.036002964 0.026890054 0.03470996
000140 fb 52 14 bc 3d 54 c9 3c 79 76 66 bc 91 cf 13 3d
       -0.009052987 0.0245763 -0.014066332 0.036086623
000150 2c 49 04 3d 1b da 8a bb d1 51 24 3d 39 97 f5 3a
       0.032296345 -0.004237426 0.04011709 0.0018737084
000160 5e a6 7c 3c 63 94 24 3d 92 1c 98 3c 5c 82 b2 bb
       0.015420524 0.040180575 0.01856831 -0.005447669
000170 d8 47 e8 3c 29 91 09 3d b2 92 12 bc b1 2e a3 3c
       0.02835457 0.0335857 -0.008946108 0.019919725
000180 cb 72 b2 ba 19 7b 15 3d ed ff 31 bb 81 0f 13 3d
       -0.0013614533 0.03649435 -0.00271606 0.035903458
000190 f3 b7 a4 3c b4 f2 2f 3c cc 54 28 3c 60 4b 63 bb
       0.020107245 0.010739017 0.010274123 -0.0034682378
0001a0 89 a7 29 b8 99 c2 d4 3b 12 dd 0c 3d bb 08 a4 3c
       -4.044877e-05 0.0064929244 0.034390517 0.020023694
0001b0 b8 a8 c0 3b f1 fc 35 bc 8f fc 02 bc 7f be e3 3c
       0.005879488 -0.011107669 -0.007994785 0.027800797
0001c0 1d ac e8 3c d6 57 bb 3b 83 f5 84 3c 35 44 0a bb
       0.028402383 0.005717258 0.01623035 -0.0021097783
0001d0 06 9a cb 3c a7 c1 3e 3c 3d 92 a6 bb aa a7 2c bc
       0.024853718 0.01164285 -0.005083351 -0.010538021
0001e0 4d 23 a3 3c 37 81 e2 3c d4 db c9 3c 1d 4d 28 3c
       0.019914294 0.027649505 0.024640955 0.0102722915
0001f0 8b 83 db 3c 5e ed 9c 3a 8b 0f a8 3c 7c a9 13 bc
       0.026796123 0.0011972596 0.020515224 -0.009012576

action_model._discrete_distribution.branches.0.weight f4 [3, 128]
000000 bb 43 41 bc 5d c5 0d bb 7e 33 97 3c 3a ec 51 bb
       -0.011795933 -0.002163253 0.01845717 -0.003203167
000010 a6 bc be 3b d9 06 27 bd 8f 81 ff 3a 9d 53 bf bc
       0.0058208285 -0.040778015 0.0019493568 -0.0233553
000020 28 d6 22 3c fe b3 32 3d e7 24 25 bd 72 10 ad bb
       0.009938754 0.043628685 -0.040318396 -0.0052815014
000030 45 20 30 3d 33 5d 5f bc c5 fc 97 3c 1f 0f c9 bc
       0.042999525 -0.01363306 0.018553147 -0.024543343
000040 29 81 a8 3c 4e 40 32 3d b8 2f da bc a7 8b 3c bd
       0.0205694 0.043518357 -0.026634082 -0.04603162
000050 48 6b e2 bc 52 f8 93 bc 11 6b 7a 3c 47 64 f8 3c
       -0.027639046 -0.018062744 0.015284316 0.030321253
000060 76 14 33 3b b3 1b a7 bc 67 80 e3 bc c2 40 35 bd
       0.0027325428 -0.02039895 -0.027771188 -0.04425121
000070 bc 6b f0 bc 02 68 65 bc 16 0a 28 3d 7c aa ca bb
       -0.029348247 -0.014001848 0.041025244 -0.006184874
000080 c3 96 a7 bb 0c 32 02 3d 66 5d 71 3c dd 66 fc 3c
       -0.0051144077 0.03178601 0.014731741 0.030810768
000090 8e d3 4c bd f1 78 37 bc 18 7f 0b bd 54 40 be bc
       -0.05000644 -0.011198268 -0.034056753 -0.023224033
0000a0 46 d0 f4 3c 0f d3 a4 3b 86 53 8d bc a9 cb b1 bc
       0.029884469 0.005030043 -0.017251741 -0.021703558
0000b0 7f e7 e5 3c 5b c1 3a 3d 18 f5 2b bd 3b c4 04 bd
       0.028064488 0.045594554 -0.041981786 -0.032413702
0000c0 de 49 fd 3a fa b1 b2 3c 62 0d 88 bc 04 62 29 3c
       0.0019324382 0.021813381 -0.016607944 0.01033831
0000d0 f9 a9 f0 bb 44 90 7b bd f3 c1 58 3d 37 37 35 bb
       -0.007344481 -0.06141688 0.05291934 -0.0027651319
0000e0 d5 26 e3 3b 9b 6c 09 bd 20 7c 2f 3d 96 44 c9 bc
       0.0069321194 -0.03355084 0.042842984 -0.024568837
0000f0 fc 30 3a 3c d1 6f 8f 3c 6d 43 f6 3c 91 77 3d bc
       0.011364218 0.017509373 0.030061448 -0.011564151
000100 4e 86 76 bc 87 4b 07 3d 30 ef 86 bc 50 82 b6 bc
       -0.015046669 0.033031013 -0.016471475 -0.022278935
000110 51 45 a4 bc 68 04 8c 3c 11 39 eb bc 3a c2 bd 3b
       -0.020052584 0.017091945 -0.028713735 0.005790976
000120 12 57 25 3d a3 15 c9 bb 47 d6 6e 3c 17 ed c0 3b
       0.04036624 -0.0061366125 0.014577455 0.0058876383
000130 fd 9f 17 bc 59 ce 55 bc e9 dd fa bb 0e 6a ae 3b
       -0.009254453 -0.013049685 -0.0076558483 0.0053227013
000140 01 9b 16 bb a5 03 6f bc e0 bf 5a ba dc c0 9a bc
       -0.0022980573 -0.014588271 -0.00083446316 -0.01889079
000150 dd c2 bf bc a9 bd 4e 3d df 7c 94 3c ca 7a 87 3c
       -0.023408348 0.050473843 0.01812595 0.016538043
000160 2e 9e b3 bc b9 4c 98 3d 42 98 59 bb a3 19 18 3c
       -0.021926012 0.07436509 -0.0033202325 0.009283456
000170 ea 44 a8 bb 8d 9f a2 3c 5a 71 0f 3c 95 80 e2 bb
       -0.0051351683 0.01985147 0.008755052 -0.006912301
000180 3b 5a d2 3c 0e 4e 1e bd ea 99 72 3d c9 5f a7 3c
       0.02567779 -0.038648658 0.059228815 0.020431416
000190 d7 a9 05 bd be 7d e1 bc 46 ad 4c bd 78 ab 46 3d
       -0.032632675 -0.027525779 -0.049969934 0.04850337
0001a0 b0 25 16 bc bc 2d da 3b 18 c3 83 bc b9 ec 3f bd
       -0.009164259 0.006658284 -0.016084239 -0.046856616
0001b0 35 10 b1 bc d1 62 f7 3c 1c bc 10 bb 56 40 83 bd
       -0.021614173 0.030198487 -0.0022084778 -0.064087555
0001c0 2e 47 d6 bc 86 0c 93 38 cb c4 a5 bc d8 85 d4 3c
       -0.026156988 7.011839e-05 -0.02023544 0.025942728
0001d0 09 42 2d bc 31 1a d8 3c 40 0e 70 3c e2 36 da 3a
       -0.010574826 0.026379677 0.014651835 0.0016648436
0001e0 c7 ae 43 bd cc c1 c3 bc 58 43 8e bc 78 8a 88 3c
       -0.047774103 -0.02389612 -0.017366096 0.01666759
0001f0 9a 16 e6 bb 6a ea 47 3d 27 fb 8a bb 07 2b 81 3c
       -0.0070217373 0.04880754 -0.0042413655 0.015767587
000200 a5 bf 92 bd 95 42 8b bd 55 cb 0a 3c 0b 43 59 3b
       -0.071654595 -0.06799809 0.00847133 0.0033151533
000210 6d 77 ea 3b 75 01 3d 3d a5 f9 4b bd 0c 7a 09 3c
       0.00715535 0.046143968 -0.049798626 0.008390915
000220 42 67 27 3a 3c 04 94 bd 74 38 ca 3b 2b 1b 3e 3c
       0.0006385931 -0.0722737 0.0061712805 0.011603157
000230 27 e8 80 bc b6 6d 3c 3b 44 00 46 bc e7 da c1 3c
       -0.015735699 0.0028751916 -0.012085024 0.023663951
000240 04 60 50 bc 5a 14 2a bd f6 50 af 3c 9b 67 09 3d
       -0.012718204 -0.041523315 0.02140091 0.03354607
000250 9a 3c 26 3c c3 89 7d 3c 0a 08 3e bd f5 60 19 bd
       0.0101462845 0.0154747395 -0.046394385 -0.03744598
000260 f9 56 d4 bb 94 8c 46 3c b3 d1 da 3c 92 ec 16 3d
       -0.0064800945 0.012118477 0.02671132 0.036846705
000270 f7 23 1f 3d 4a 49 8f 3c a4 94 2b 3a ff 0b 63 3d
       0.038852658 0.017491002 0.00065452815 0.055431362
000280 78 c0 68 bc d3 70 45 bb 95 d2 a0 3c f3 be 62 bc
       -0.014206044 -0.0030127063 0.019631663 -0.013839471
000290 f0 ab 00 3d eb 98 e5 bb 52 39 0e 3c 6a 88 6a 3c
       0.031413972 -0.0070067546 0.008680658 0.01431475
0002a0 4d e3 35 bc 7b c3 e3 bc d2 d3 e0 bb 1d 23 c6 3c
       -0.011101556 -0.027803173 -0.0068611884 0.024186665
0002b0 0a 74 ad bc ff d4 3e bd b8 8f 38 3c f5 16 c1 3b
       -0.021173496 -0.046589848 0.011264734 0.0058926293
0002c0 1b 51 95 3a f4 4e 42 bc a4 96 c1 bb 95 74 29 bd
       0.0011391969 -0.011859644 -0.0059078503 -0.041370947
0002d0 a1 78 8e 3c b0 b9 ac 3d a6 6f 81 bd c9 99 a4 bb
       0.017391505 0.084338546 -0.063201234 -0.0050232154
0002e0 83 de 9a bd ee 47 86 3c 3a 53 84 bd 9f f0 8f 3c
       -0.07561972 0.01639172 -0.06461187 0.017570792
0002f0 42 71 2c bb ba ee c4 3b 91 30 b6 3c 6a 4c 20 3c
       -0.0026312624 0.0060099037 0.022239955 0.0097838435
000300 da 99 a3 3b 8a ac 86 bd d7 da f6 bb 0f e6 e8 3b
       0.004992706 -0.06575878 -0.007533412 0.0071075032
000310 2c c7 39 3c 79 96 3a bc 4d 39 05 3d 49 1d 47 bc
       0.01133899 -0.011388415 0.03252535 -0.012152978
000320 21 30 61 bd 79 a1 19 bc 31 72 fb bc 3f d0 8e 3c
       -0.05497754 -0.009376877 -0.0306941 0.017433284
000330 2b 77 7d 3c 32 da c2 3b bc fb 07 38 e2 f1 80 bd
       0.015470306 0.005946421 3.2420954e-05 -0.062961355
000340 4c 3e 9f 3c ae f7 3b 3c b1 d8 b2 bc 61 ff 6b 3d
       0.019438885 0.011472626 -0.021831842 0.057616595
000350 6f cd 3d 3b 60 0b 82 bc 4f 9a 3d bd 3e 2c a3 bb
       0.002896156 -0.015874565 -0.04628974 -0.0049796393
000360 7f 2f 00 bb a4 2e 8e bd e9 14 1e 3c cc f5 14 bd
       -0.001955956 -0.0694249 0.00964854 -0.036367223
000370 93 b9 4f 3c 0f f0 51 bd 59 dc 19 bb fb 4a 1c 3d
       0.012678522 -0.05125433 -0.0023477285 0.038157444
000380 24 93 97 3b 36 af 27 3d 01 0e 8e bd b9 c5 20 bd
       0.004625695 0.04093858 -0.06936265 -0.039251063
000390 8b 3c 65 3c 00 a2 ae 3c 42 90 1e 3d af f8 89 3b
       0.013991485 0.021317482 0.038711794 0.0042105536
0003a0 bf 52 e0 bb 8e 21 73 bd 2e 8b 52 b9 9b ba f0 3b
       -0.0068458016 -0.059358172 -0.00020079009 0.007346464
0003b0 44 a2 32 3c ae f2 10 bd 8d 8e fb bb 58 cc 64 3d
       0.010902945 -0.035387687 -0.0076769055 0.05585894
0003c0 8b ad d8 3c 7d 79 59 3b 55 f6 df 3c e6 65 86 bc
       0.02644994 0.0033183985 0.02733914 -0.01640601
0003d0 1b d4 b8 3c d4 7d 7e bd e8 31 3c bc 65 be f2 bc
       0.022562077 -0.062131718 -0.011486508 -0.029631803
0003e0 e6 0c fe 3c 61 00 3a 3c fc 19 75 3c 37 4b 19 bd
       0.03101201 0.011352629 0.014959808 -0.037425246
0003f0 2d 5c 05 3d 0e 75 62 bb 80 8a 55 3c 2b 2a 3c 3c
       0.03255861 -0.0034554633 0.013033509 0.011484663

action_model._discrete_distribution.branches.0.bias f4 [3]
000000 f2 22 0b bc 01 89 43 3c f9 96 da bc
       -0.008492218 0.01193452 -0.026683317

action_model._discrete_distribution.branches.1.weight f4 [3, 128]
000000 82 e7 1c 3c 9a 59 ca 3c bd a8 91 bc b5 7a fa 3c
       0.00957668 0.024700928 -0.017780656 0.03057609
000010 56 b8 22 bd 15 a0 df bc 74 e2 05 3d 8f d8 f7 3c
       -0.039726578 -0.027298013 0.032686666 0.03025463
000020 f3 74 6f bc 33 77 fc 3c ee 72 82 3c ea 1a 4d 3d
       -0.014615285 0.030818557 0.015923943 0.050074495
000030 ff 40 cc bc b8 bd 2d 3d 4b 20 13 bc 09 a7 bb 3c
       -0.024933336 0.042417258 -0.008979867 0.022906797
000040 d1 43 e8 bc 87 a7 6f 3c 35 62 10 3d ab 4f ac 3c
       -0.02835265 0.014627344 0.035249908 0.021034082
000050 a0 ec 07 3d 34 53 98 3c 32 b3 d2 3c 39 8b a8 39
       0.033184648 0.018594362 0.025720213 0.00032147186
000060 1f 9a 82 bc 5e 09 05 3d 05 8e 85 3c b9 0e 1b 3d
       -0.015942631 0.032479636 0.016303072 0.037855837
000070 cc 3e 13 3d f5 ae 4c 3d 60 58 e6 bc 43 4f 94 bc
       0.03594856 0.04997154 -0.028118312 -0.018104201
000080 8b 08 ca 3c 0f 25 d1 bc d5 48 09 bd a0 f4 00 bd
       0.024662277 -0.025530366 -0.033516724 -0.031483293
000090 ce 75 4e 3b 3c 03 e1 3c d7 7b ee 3c e5 9a e7 3c
       0.0031503323 0.027467363 0.029111786 0.028272102
0000a0 d2 7d eb bc ac 69 e8 bb 5e dd db 3c ea 86 e8 3b
       -0.02874652 -0.007092675 0.026838955 0.007096161
0000b0 65 f4 e9 bc 29 bd af bc 4b 14 0c 3d e8 8a d8 3c
       -0.02855892 -0.021452503 0.03419904 0.026433423
0000c0 6c 18 c1 bc 8e 90 9e bc 52 ce c8 3c a8 eb c8 3a
       -0.023571216 -0.019356038 0.024512444 0.001532902
0000d0 97 72 12 3d 33 c8 cf bc 5f 4c b0 bb 8b 31 0b 3d
       0.035753813 -0.025364017 -0.005380198 0.033982795
0000e0 d6 c3 28 3d d2 9e c0 3c d6 12 c0 bc 15 28 63 3c
       0.04120239 0.023513231 -0.023446482 0.013864537
0000f0 52 b3 08 3d 2a 9f e2 bc 35 6e 03 bd c9 93 c8 3c
       0.03337414 -0.027663786 -0.032087523 0.024484532
000100 6e e8 b0 3c 11 2a 5e bc 15 40 03 3d 43 c9 34 3c
       0.021595206 -0.013559834 0.032043535 0.011034313
000110 9a fa b1 3c ba 25 ff bc 05 3a e7 bc 20 a9 14 bd
       0.021725941 -0.03114592 -0.028225908 -0.036294103
000120 05 97 99 3c a9 a9 bb bc c9 cc 0d bd b5 46 ae bb
       0.01874877 -0.022908049 -0.034619126 -0.0053184875
000130 a6 1b ff 3c 2c 22 0a 3d 2c ab c0 3c 3b 83 b9 3c
       0.031141113 0.033723995 0.023519121 0.022645583
000140 9b f4 56 bc c6 c5 f8 3c d5 ed 87 bc 0c 38 c3 bc
       -0.013119842 0.030367743 -0.0165929 -0.023830436
000150 c6 cf 25 3d de c8 e7 bc a3 b2 95 3c 8c 0d aa 3b
       0.04048135 -0.028294023 0.018273657 0.005189603
000160 52 64 0c 3d ff 59 15 bb 5f 1c 29 bb 03 1b 95 bc
       0.03427536 -0.0022789238 -0.0025804264 -0.018201357
000170 38 35 df 3c eb 4d ff 3c c2 11 2a bc 88 1c e1 bb
       0.027247056 0.031165084 -0.01038021 -0.0068698563
000180 c1 11 0c bd 7d 67 66 3c 2a c0 62 bb 5c 1d d9 bc
       -0.03419662 0.0140627595 -0.0034599402 -0.026503257
000190 f0 93 09 3d 18 cf c4 3c 1a 12 e4 3b bf 55 04 bd
       0.03358835 0.024024531 0.0069601657 -0.032308336
0001a0 9f c3 95 3c bd a5 8f 3c 5c 6b d4 3c 0e 8c 47 3c
       0.018281756 0.017535085 0.0259301 0.012179388
0001b0 ab 0a 52 3c 5d 71 d7 bb e5 c0 33 bc 02 b8 d9 3c
       0.012819926 -0.0065747933 -0.010971283 0.026577
0001c0 48 1c a5 3c 09 f5 94 ba 1c 88 a1 3c 83 34 bc bc
       0.020155087 -0.001136453 0.019718222 -0.022974258
0001d0 74 cf 82 3c e1 6d 5f 3c 69 f6 06 bd ee 65 43 bb
       0.015968062 0.013637037 -0.03294984 -0.0029815394
0001e0 23 23 eb 3b a4 4c 2c 3d d5 31 03 3d c5 10 16 3d
       0.0071758195 0.042065278 0.032029945 0.036637086
0001f0 89 cb ff 3c 7f 76 fc bc 11 4e fe 3c a1 fe ea bc
       0.031224983 -0.030818222 0.031043084 -0.02868587
000200 21 d0 f2 bb 45 47 b6 bc 1f 03 c2 3b 70 cb 4b bc
       -0.007410065 -0.02225078 0.005920782 -0.01243864
000210 a3 65 a3 3b f5 ec 43 bd fa 59 98 3b c5 ed a3 bc
       0.0049864813 -0.0478334 0.004649398 -0.020010838
000220 05 6e b9 bb 53 f4 0c 3b cf f4 09 bd d8 a0 0b 3c
       -0.0056588673 0.0021507933 -0.033680733 0.008522235
000230 8d 98 0d 3d 7b 40 cd 3b e0 6a 1e 3d 2f 26 6e bc
       0.034569312 0.00626379 0.038676143 -0.014535471
000240 f1 72 99 3c a1 ca 1d bc db 26 1d bc 79 88 32 bd
       0.018731566 -0.00963083 -0.009591783 -0.04358718
000250 50 88 bc bc 8b f1 61 bc 28 7a 9a bb 7a 5e 05 bd
       -0.023014218 -0.0137904985 -0.004714269 -0.032560803
000260 ac 49 83 3c 93 97 54 bd f5 e8 e1 bb c2 b8 71 bd
       0.01602634 -0.051902365 -0.0068942257 -0.05901409
000270 bf 38 86 bc 68 ad 3b 3c 5e d7 8c bb 39 94 26 3d
       -0.01638448 0.0114549175 -0.0042981347 0.0406687
000280 ce 1d 81 3c 16 4e d5 3b 89 0f 09 3c 7f bf 64 bc
       0.015761282 0.0065095527 0.00836552 -0.013961672
000290 00 7b 69 bc a4 63 14 bb 75 f5 05 3c 28 42 dd bc
       -0.014250517 -0.0022642398 0.008176197 -0.027009085
0002a0 5c 9f 2b bd e9 14 01 3d 53 32 3c 3b 40 84 2d 3c
       -0.041900024 0.031514082 0.002871652 0.010590613
0002b0 4e 93 26 bd 6e 6e 8c 3b cd ad d6 bc a8 a8 19 bd
       -0.040667824 0.004285625 -0.026205922 -0.03751436
0002c0 f0 b4 a8 3c 05 73 26 bd 4f 3c 8c bc d1 c4 9e 3c
       0.02059409 -0.040637035 -0.017118601 0.019380959
0002d0 13 dd ad ba 87 92 f3 bc 3b d0 e6 bc b9 ab c0 bc
       -0.0013264738 -0.029732956 -0.028175464 -0.023519384
0002e0 b2 13 ec 3b c6 f3 b5 bc b6 cb 93 bb 1a 00 37 bc
       0.0072044963 -0.022210967 -0.004510368 -0.011169458
0002f0 2f e7 1e bc 8f 60 15 3b 1a 6e 8c bb 3e 7f 98 3c
       -0.009698673 0.002279315 -0.004285586 0.018615361
000300 c5 ec 1c bd 12 e7 0f bd 36 e1 22 bc fa f2 e5 bc
       -0.03831174 -0.035132475 -0.00994139 -0.028069962
000310 aa 5f 3f bd 00 88 11 3b 80 0f f8 bc ea 98 75 3c
       -0.04672209 0.0022206306 -0.030280828 0.014990071
000320 7c 79 e0 3b 5e 36 bd 3c c8 d0 7e 3b 74 cc f1 3a
       0.0068504196 0.023097213 0.0038881768 0.0018447773
000330 46 65 52 3c 30 35 ce bb cd ee 8b bc cc eb 2b bc
       0.012841528 -0.0062929615 -0.017081643 -0.01049323
000340 de cc 94 bc e7 35 88 bc 2a 3e 86 3c b0 85 c0 3c
       -0.018164095 -0.016627265 0.016387064 0.023501247
000350 4d e6 dd bb 0f ac e9 ba 73 5e 05 bd d2 8e 5c 3b
       -0.0067718388 -0.0017827767 -0.032560777 0.0033654463
000360 d2 2c 93 bc 61 36 c2 3a fe 0f 84 bc f2 7a 26 3d
       -0.017965708 0.0014817232 -0.016120907 0.040644594
000370 ca 68 b4 bc 4b a5 50 bb cf 26 98 3c 22 8b b5 3c
       -0.022022624 -0.0031836804 0.018573193 0.02216107
000380 24 7d 42 3d 93 79 8e ba 49 84 d5 3c 11 82 20 bd
       0.047482625 -0.0010869972 0.026064055 -0.03918654
000390 43 ff 5a bd a2 c5 47 bc 04 a7 8c 3b ff f1 a2 3c
       -0.053466093 -0.012193115 0.0042923708 0.019890783
0003a0 16 bd 38 bc ed bb ed bc 25 15 20 3b 61 c6 39 bd
       -0.01127555 -0.029020274 0.0024426666 -0.045355204
0003b0 c9 2b 79 bc b2 f5 07 3d 61 40 29 3d ca eb 57 bd
       -0.015208193 0.033193298 0.041321162 -0.0527151
0003c0 31 e5 36 3b 00 ce 14 3d 4a 82 c8 3b 51 a1 06 3d
       0.0027907605 0.03632927 0.0061190473 0.032868687
0003d0 a1 cb e4 bb 5f 0c ba 3b 34 3d 10 bc fd 37 ab bc
       -0.0069822823 0.0056777443 -0.008803654 -0.02090072
0003e0 04 05 19 bd bf a4 7e bc 83 62 bb bc 73 49 b9 3c
       -0.0373583 -0.015542208 -0.022874122 0.022618031
0003f0 b0 88 2c 3c a2 6a f7 3c f3 1f 0e bd 6e e8 4a 3d
       0.010530636 0.030202214 -0.034698438 0.04953807

action_model._discrete_distribution.branches.1.bias f4 [3]
000000 a9 0b 94 3c 81 e0 16 bc 6a f8 af bc
       0.018071966 -0.009208799 -0.021480758

action_model._discrete_distribution.branches.2.weight f4 [2, 128]
000000 7c 7f 79 3c 7d b0 d5 3c 5e 99 9a bc 1a 35 c1 3c
       0.015228149 0.026085133 -0.01887196 0.023584891
000010 59 b7 2f bd e9 82 26 bd 1e ee bf 3c 0d 68 97 3c
       -0.042899463 -0.04065219 0.023428973 0.018482232
000020 e0 b5 ca bc 91 7c 3a 3d 76 1d 55 3d a0 26 16 3d
       -0.024744928 0.045528952 0.05203005 0.03665793
000030 0a 2c 9c bc 90 1e d4 3c f1 72 a3 3b ba d4 31 3d
       -0.019063968 0.02589348 0.0049880673 0.043415762
000040 02 01 e0 bc 43 34 8b 3c 52 cf ad 3a f1 10 0c 3d
       -0.02734423 0.016992694 0.0013260639 0.034195844
000050 ac 72 03 3c a3 48 c3 3c 01 77 16 3d ee 4e 21 3d
       0.008022945 0.023838347 0.036734585 0.039381914
000060 54 d5 00 bd 49 ab 0e 3d 2d 67 f4 3b 97 87 b3 3c
       -0.031453446 0.03483132 0.0074585886 0.02191524
000070 07 59 6d 3c 6c 65 46 3d 67 f0 11 bd 07 cd b4 bc
       0.014486558 0.048436567 -0.035629656 -0.02207042
000080 1c 0e 42 3d d6 f0 37 bd 42 db cd bc d8 dd f2 bb
       0.047376737 -0.044907413 -0.025128964 -0.0074116997
000090 50 c8 8a 3c 9d c3 89 3c f9 34 cb 3c f4 1e 05 3d
       0.01694122 0.016816908 0.024805533 0.032500222
0000a0 62 e9 b7 bc d5 51 ad 3c fb 87 f0 3c c4 d8 ba 3b
       -0.022450153 0.021157185 0.029361716 0.00570211
0000b0 a0 c2 85 bb 7e ef 9d bc 48 62 01 3d e1 5f d6 3c
       -0.004082039 -0.019279238 0.03158787 0.026168766
0000c0 1d fa e7 bc 51 39 88 3d 0d 01 10 3d a3 1c af 3c
       -0.028317505 0.06651557 0.035157252 0.02137596
0000d0 b6 32 ab 3c 20 4b 81 bc 16 a1 b0 3c 62 ff 06 3d
       0.020898204 -0.015782893 0.021561187 0.032958396
0000e0 a9 ed f2 3c 63 2b 00 3d b3 24 36 3d 0f 41 86 3c
       0.02965434 0.031291377 0.044468593 0.016388444
0000f0 01 d7 08 3d 9d bf 73 bc 7c f0 93 bc cf c5 b1 3c
       0.03340817 -0.014877227 -0.018059008 0.021700768
000100 b5 99 0b 3d 2a be 69 3d f1 d7 0f 3d a5 a9 4b 3c
       0.034082133 0.05706612 0.035118047 0.012430583
000110 94 ff b3 3c c3 1f 14 bb 8e 33 15 bb 34 9a d8 bc
       0.021972455 -0.002260194 -0.0022766325 -0.026440717
000120 54 b3 12 3b 45 a0 ad bc 02 b3 3c bd 26 2b ba 3c
       0.002238472 -0.021194587 -0.046069153 0.022725653
000130 15 77 7a 3c 12 42 f1 3c 1d 0d 85 3d 4d 50 08 3d
       0.01528718 0.02945045 0.06496642 0.033279706
000140 d6 23 0f 3c ca 7a 10 3d b2 9b eb bc ed 25 7f bc
       0.008736571 0.03527335 -0.028760765 -0.015573007
000150 40 b3 09 3c 83 ec a1 bc e2 4c 4f 3d 23 c4 17 3c
       0.008404553 -0.019766098 0.05061043 0.009263071
000160 e8 47 09 3d 96 eb 27 3d 2a 8e 21 3d 1f 92 1f bd
       0.03351584 0.040996157 0.03944222 -0.03895771
000170 77 ee 2c 3d a1 03 15 3d 47 8c 09 bd cd 4b 70 3b
       0.042219605 0.036380414 -0.033581045 0.0036666275
000180 97 15 e7 bc 82 6e 97 bc 06 50 e8 ba ef d7 75 3c
       -0.028208537 -0.018485311 -0.0017724044 0.015005096
000190 44 90 4b 3d 18 7b 13 3d 4b f6 32 bc 15 91 fe bb
       0.04969813 0.036006063 -0.010922979 -0.00776876
0001a0 76 71 cc bb 0f df 86 3c 4d d1 dc 3c 32 fe 68 3c
       -0.0062391115 0.016463785 0.026955271 0.014220761
0001b0 ca 41 9a 3c 46 36 92 bc de 51 20 bd fb cb 96 3b
       0.018830199 -0.017848145 -0.039140575 0.004601953
0001c0 7a f7 24 3d bd d6 88 bc c1 35 d5 3c e0 72 85 bc
       0.040275075 -0.016703958 0.026026608 -0.016290128
0001d0 68 08 03 3d 96 ea e6 3c 54 fd f0 bc a3 0e 55 bb
       0.03199044 0.028188031 -0.029417671 -0.0032509945
0001e0 a4 b6 cb 3c 1b 03 7a 3c b1 cb dd 3c 49 20 c9 3c
       0.024867363 0.015259529 0.027074667 0.024551528
0001f0 e4 c0 5b 3c 43 b2 d9 3b 96 96 cc 3c 30 28 ab bc
       0.013412688 0.006643565 0.024974149 -0.020893186
000200 34 2b 11 bd 87 93 2d bd 91 1b e5 3c 1b 7b 1c bd
       -0.035441592 -0.04237702 0.027967246 -0.03820334
000210 14 96 9d 3c 4b 9f 08 3d 7a bb 1c bd ea 4c 97 bc
       0.019236602 0.03335504 -0.03826473 -0.018469293
000220 49 47 e6 3c a4 93 81 bd 25 fc 66 bd 7b b7 4d bd
       0.028110163 -0.06326988 -0.056392808 -0.05022381
000230 9a 2c a8 3c 69 86 b9 bc c4 28 9a bc eb d6 03 bd
       0.02052908 -0.0226471 -0.018818267 -0.032187384
000240 43 10 22 3c 02 c4 1f bd e4 01 9b bc 17 7d 1a bd
       0.009891572 -0.039005287 -0.0189218 -0.03771695
000250 a4 3e 93 bc 3a 9a 3b bd 04 b4 aa bc df 42 d6 bc
       -0.017974205 -0.04580138 -0.020837791 -0.026154933
000260 02 dc 19 3d e6 5f bd bc 5a 9f 3b bc c7 71 ae bc
       0.03756333 -0.023117017 -0.011451567 -0.021294488
000270 73 d1 a1 bc 86 da 0a bd df e3 ca 3c 59 41 06 3b
       -0.019753193 -0.033899806 0.02476686 0.0020485728
000280 a5 ed ca bc 9c e0 42 3d e7 ad 80 3c e8 52 32 3c
       -0.02477152 0.047577485 0.015707923 0.010884024
000290 48 0f 70 bc 5e c8 01 bd c9 75 f9 bc 5d ee fb bc
       -0.014652081 -0.031685226 -0.030451672 -0.030753309
0002a0 5b a5 a1 3c bd 93 50 bd 3c 90 f7 bc 32 8d 92 bc
       0.019732168 -0.050922144 -0.030220143 -0.017889593
0002b0 b0 1b 14 bc 6c 11 b4 3c d0 bb 9e bc 7e a3 1d bd
       -0.009039804 0.021980964 -0.019376665 -0.038485996
0002c0 ca 06 b1 3c c3 a1 80 bd b0 32 2a bd ab 73 06 bd
       0.021609683 -0.062808536 -0.041552246 -0.032825153
0002d0 9e cd 17 bd 64 2a eb 3c b6 9b bb bc 9c 52 2e bd
       -0.037061326 0.028706737 -0.022901397 -0.04255925
0002e0 25 d6 13 bd f6 cc 99 bc 02 60 2f bd b4 84 34 bc
       -0.036092896 -0.01877449 -0.04281617 -0.011017967
0002f0 1a 0a 2d bd ca f9 e7 3b ed e7 08 3d f4 24 3b bd
       -0.04224596 0.0070793377 0.033424307 -0.045689538
000300 50 0e d4 bc a0 51 17 bd b5 dd 09 bd 90 9a 79 bc
       -0.025885731 -0.036943078 -0.033658702 -0.0152346045
000310 48 37 0d bd e8 a0 9d 3c 89 34 f6 38 e4 d5 02 3d
       -0.03447655 0.019241765 0.000117399795 0.031942263
000320 a0 d0 7e 3b 00 c6 85 3c 9a 1c 3d 3d 0e 77 99 bc
       0.0038881674 0.016329765 0.046169855 -0.018733528
000330 69 13 ae bc 05 fb af bc 89 78 48 bd 08 b2 43 bd
       -0.02124949 -0.021482 -0.048943076 -0.047777206
000340 b3 dd ec 3b 80 14 3a bd ce 7b 1b 3d 26 68 b9 3c
       0.007228577 -0.045429707 0.037959866 0.02263267
000350 73 90 62 bc ed b6 04 b9 14 a8 55 bd 1f 92 34 bc
       -0.013828385 -0.00012656646 -0.052162245 -0.011021166
000360 5c c3 98 bc 93 83 55 bd ae 51 1f bd b9 59 09 3d
       -0.018647842 -0.052127432 -0.038896255 0.03353283
000370 32 cd 35 bd 41 4e 23 bd 41 c8 4f 3d aa 18 7c 3c
       -0.044385143 -0.03986955 0.050728086 0.01538674
000380 ab 05 95 3c 81 cd 88 3c a2 27 96 ba 2c bc 14 bd
       0.01819118 0.016699554 -0.0011455903 -0.036312267
000390 ba 7c 1f bd 8a dd d6 bb 2d 85 98 ba 57 29 ab 3c
       -0.038937308 -0.0065571712 -0.0011636369 0.020893736
0003a0 28 01 d9 bb c4 ec a5 bc d8 16 24 bd 85 28 1c bd
       -0.0066224523 -0.0202545 -0.040060848 -0.03812458
0003b0 78 29 ad bc 8b a4 ce 3c ea b6 30 3d c4 55 4a ba
       -0.021137938 0.025224945 0.04314319 -0.00077184686
0003c0 19 0d 2b bd d2 b2 16 3d cd 1c b3 bc e6 eb e9 3c
       -0.041760538 0.03679163 -0.02186432 0.028554868
0003d0 8e 41 7c bd ef e2 ef bc 9b c1 f3 3c 1d 7c c1 3b
       -0.061585955 -0.029283015 0.029755404 0.005904688
0003e0 d9 ce 94 bc 63 3b 94 bc a6 23 e3 bc a3 78 34 bc
       -0.018165039 -0.018094724 -0.02772696 -0.01101509
0003f0 fa e9 c3 bb 28 a2 53 3c b8 9a b7 bc cc 1e 21 3c
       -0.00597882 0.012917079 -0.022412643 0.009834003

action_model._discrete_distribution.branches.2.bias f4 [2]
000000 5a d9 54 3c 5b d9 54 bc
       0.012991274 -0.012991275
