results/PressButton/PressButtonAgent_ImitationLearning2/PressButtonAgent/PressButtonAgent-19979.pt (torch, 533134 bytes, 54 tensors)

discrete_act_size_vector f4 [1, 3]
00000000: 0000 4040 0000 4040 0000 0040
3.0 3.0 2.0

network_body._body_endoder.seq_layers.0.weight f4 [128, 6]
00000000: 68e4 14be e02d 113f e3dc ba3e bdfd 86bf
00000010: c14b 873e 1c69 2bbe 6b87 98be 36d3 c8be
00000020: e369 e9be 82d0 bbbe f71a 253f 9cd8 0dbd
00000030: c01f 183e 77cc 48bf f035 333e 4514 593d
00000040: 9a3e edbd ca5f 23bc b9e6 723e 8fb0 c4be
00000050: 5314 08be 53a1 8f3e e691 7b3e a0a8 adbe
00000060: 6130 38bf 9b37 7abe d5f1 ad3e 4a23 01bf
00000070: d1b9 1cbe 326f 2f3d 9327 253e 8c7d 1c3e
00000080: e151 ec3e f6fd a9be 93c4 23be 9ccf 50bd
00000090: 4ab8 1c3e fa14 3f3e 2395 863e 4b53 9ebd
000000a0: 3cf4 2b3f bf9e 8ebc ece6 283e 8977 07be
000000b0: d95e 103f a907 9fbd 7f45 063f ff8d e1be
000000c0: a4f4 0abe 2009 b6be b9a3 4cbe 3b49 c93e
000000d0: c2e1 19be e2ea 083e c280 3c3e fcd7 09bd
000000e0: 17e0 bfbe e36f 29bf 90a8 fd3e a055 083f
000000f0: 7417 b03c 03a4 19be 41ea f13e 50be bc3d
00000100: c4fa 57be 46b6 853e 0764 52bf c29c f8bd
00000110: e9e9 cebe 8798 b43d b199 f8be 7dc2 b5bd
00000120: 9c07 fcbd a2ca 88be 321f 573e d061 c7be
00000130: 73e0 6cbc e24a 0abf ae14 dabd 41c7 c23d
00000140: 9d5c 50be b855 62be 52a7 1f3f d1b4 8ebd
00000150: 9011 303e f87b 693f ed7d 0dbe 120c 98be
00000160: c1f0 fbbe 892c dabe b306 1a3f c527 d63e
00000170: 9d5c 64be baf6 3ebd b3ca 983d 77f9 d63e
00000180: dd16 4c3f c4fe 573f 0120 a33e a9f7 adbe
00000190: 978e 053e 23d0 6c3e dd19 afbd 7009 0f3f
000001a0: c29d c13e 399d 4b3f ce12 edbd 76b5 debd
000001b0: 0b08 6f3f cfcf d3be 5794 d53e af1f 303e
000001c0: 4c9d c93d 6663 65bd ea62 5dbe e713 40bf
000001d0: 9020 663f 625f c13d 9a40 4bbd d28e 1e3f
000001e0: d6ef c0bc 7074 63bf 4075 823d 2b4e d2be
000001f0: a10e 34be 4991 f1bd c285 96be 8323 d6be
00000200: 28dd 173f df87 a23e ecd5 003d 87c9 1fbd
00000210: f7f9 8bbe 6b5e 25bc c7ad cebe 0150 debe
00000220: b798 143f 6968 49be 502e 963d a45d c63d
00000230: 3b69 813d 529f 54be 614f 2d3f 794f 67be
00000240: 362d dabe 47c4 263f c0f8 5f3e f560 533d
00000250: 70e1 0a3f 1b5d 86be 3a76 6abd b860 61be
00000260: 09f4 2fbe eedc 123e cfd0 e5bd 930d dabd
00000270: 06e8 253f 7ab2 ad3c 8b10 83bf 54eb 3bbf
00000280: 76ee 3f3f 954c bebd e547 f73e 1807 fbbe
00000290: 2567 293f e3cf 28bf 2416 ba3e c11b 563e
000002a0: c766 b33e d047 193f 67cf b9bd 93fd 9a3e
000002b0: 41f4 f9bd 0b34 193e 2e52 e6be f34b edbe
000002c0: e27c f1be a3d4 203f 1c68 eb3e 43c1 bd3e
000002d0: fb6b a43e bf9f f7be 0b67 46be f608 36be
000002e0: 6512 803b 1a58 48bf 6413 b23b 4de7 2f3e
000002f0: 8daa 3abf 8b09 593f 89ca 49bf 33ed c33e
00000300: d95a 023f c63c 723f 479f 08bf 5dbc ba3d
00000310: bda7 743e b145 fc3e a230 b5be 0ac0 e7bd
00000320: aa4c 4dbf fb8d 833d b0c9 8fbe 93bb 83be
00000330: 64ed 3abf 9e90 9dbe a24c d6be 72b2 413f
00000340: 72e0 03be 21f9 b23e 3588 b63e 3909 a53f
00000350: 03c1 8d3f e676 313f e0a3 a43e f732 e2be
00000360: cfc7 b33e 18bd 97be 7e2c 953d ea07 40bd
00000370: bd4d eebe 15ff 073f 1e2c 9dbf 2bd0 533f
00000380: 15b4 81bd 4dac c7bd 5bcf 8b3c 0fd1 99bf
00000390: ba10 08ba f77b 24bf 3db2 f23e 6db2 f73d
000003a0: e509 0e3c 2e9c 83bf 878b 8e3c d3c6 863c
000003b0: a789 1fbf 25e0 6e3e d8d1 85bd 4e45 4abe
000003c0: e3ac 983e 2eee 2c3f 08c3 903d dad5 293f
000003d0: 4da7 8f3c 4abe 6cbe d8d7 273f d1bb c63e
000003e0: 6fc0 1abf 3a92 bfbe ce5a 543e 9ba4 a23e
000003f0: bb9b 933e fd62 c1bd 1609 803e a4cb 7f3e
-0.14540255 0.56710625 0.36496648 -1.0546185 0.26424983 -0.16739315 -0.29790816 -0.3922364
-0.45588598 -0.36682516 0.6449427 -0.034630403 0.14855862 -0.7843699 0.17501044 0.052997846
-0.11584206 -0.009971568 0.23720826 -0.38415954 -0.13289003 0.28052768 0.24567375 -0.33917713
-0.7194882 -0.24435274 0.33973566 -0.5044447 -0.15305258 0.042830653 0.16128378 0.15282267
0.4615622 -0.3320157 -0.15992956 -0.05097924 0.15304676 0.18660346 0.26285657 -0.077307306
0.6716955 -0.01740968 0.1649434 -0.13229193 0.56394726 -0.07765133 0.5244979 -0.44053647
-0.13569885 -0.35553837 -0.1998433 0.39313683 -0.15027526 0.1337085 0.18408492 -0.033653244
-0.37475654 -0.6618635 0.49542665 0.53255653 0.021495558 -0.15003972 0.47249034 0.09215987
-0.21091753 0.26115626 -0.8218388 -0.12139274 -0.40412834 0.08818155 -0.48554757 -0.08874986
-0.12306139 -0.26717097 0.21007994 -0.38941813 -0.01445781 -0.5402051 -0.106484756 0.09510661
-0.20347829 -0.22103012 0.62364686 -0.06968082 0.171942 0.91204786 -0.13817568 -0.2969671
-0.49207118 -0.42612103 0.6016647 0.41827217 -0.22300954 -0.046622016 0.07460537 0.41987202
0.79722387 0.84373116 0.31860355 -0.33978012 0.13042675 0.23126273 -0.08549855 0.55873775
0.37815672 0.7953678 -0.11575852 -0.10874455 0.9337165 -0.41369483 0.41714737 0.17199586
0.09844455 -0.056002997 -0.21619764 -0.7503037 0.89893436 0.09442021 -0.049622156 0.61936677
-0.023551863 -0.88849545 0.0637002 -0.41075262 -0.17583705 -0.11795289 -0.29398924 -0.41823968
0.5932183 0.31744286 0.03145401 -0.03901055 -0.27339146 -0.010093312 -0.40366957 -0.43420413
0.58045524 -0.19668736 0.07333052 0.09685829 0.06318899 -0.20763901 0.6769925 -0.2258891
-0.42612618 0.65143245 0.21872234 0.051606137 0.5425024 -0.2624291 -0.057241656 -0.22009552
-0.17182936 0.1434209 -0.11221468 -0.1064712 0.64807165 0.021203268 -1.0239424 -0.7340596
0.7497324 -0.092919506 0.4829704 -0.4902885 0.6617301 -0.6594221 0.36345017 0.20909025
0.3503935 0.598752 -0.09072762 0.30271587 -0.12204791 0.14961259 -0.44984573 -0.46347007
-0.4716559 0.6282446 0.45977867 0.3706151 0.32113633 -0.48364064 -0.19375245 -0.17776856
0.003908443 -0.7825943 0.0054344404 0.17178078 -0.7291649 0.84780186 -0.7882467 0.38266906
0.5091987 0.9462398 -0.5336804 0.09117959 0.23892112 0.4927192 -0.35388666 -0.113159254
-0.80195105 0.06423565 -0.28083563 -0.25729045 -0.7301848 -0.30774397 -0.4185534 0.7566291
-0.12878588 0.34955695 0.35650793 1.289344 1.1074528 0.6932205 0.32156277 -0.44179508
0.3511338 -0.29636455 0.07283877 -0.046882547 -0.46543685 0.531236 -1.2279088 0.82739514
-0.06333176 -0.09749661 0.017066648 -1.2016925 -0.0005190481 -0.64251655 0.4740161 0.12094579
0.008669351 -1.0282037 0.017400516 0.016452229 -0.62319416 0.23327692 -0.06534165 -0.19753
0.29819402 0.67550933 0.07068449 0.66341937 0.01753583 -0.23119465 0.65563726 0.38815168
-0.6044988 -0.3741625 0.20737764 0.3176621 0.2882975 -0.09442709 0.25006932 0.24980026

network_body._body_endoder.seq_layers.0.bias f4 [128]
00000000: 180d 86bb 9952 cabc ac9b 813b e9a2 a9bc
00000010: c962 1bba 0406 293d 5d4b f7bb bda3 b53a
00000020: ec25 033d 2434 a73d 5e9c e83c 044b a53c
00000030: bccf 91bc 69db 923d 1f6e 423d a1f3 893c
00000040: b641 c03c 08a3 cbbb 024a 3d3d 52bb 7d3c
00000050: ba51 67bb 8745 bcbc dc80 0f3d 46f3 883d
00000060: d4bc 393d 6b43 3fbb 6bb1 733d f4a2 7e3d
00000070: d617 473c 777d f7bb 8cc0 29bc eb90 f63c
00000080: 0215 313d d5f3 5a3d e9f6 2e3d 9391 023d
00000090: 24f0 333d b2da 863c ab3f 0abd c284 083d
000000a0: 6285 9d3c 4c76 4a3d 1d36 4abb e366 343d
000000b0: a125 da3c b387 ca3c 309e febc 7282 97bc
000000c0: f3e5 f23c 9b30 0c3d 08c0 9dbc 0d42 6d3d
000000d0: b0de b43c a57f ff3c 9bc7 083b 7933 d73b
000000e0: 0d38 4f3d 7343 c9bb aa01 b43c 277c ca3c
000000f0: 8119 7fbc a5d4 96bb 9c14 2dbd 65db 15bc
00000100: 894e ab3c 4eec a23c 1174 413d 8671 40bc
00000110: fa7e a13c 922d 683d ec75 a53b 5372 663c
00000120: 7d6c 383d c9b2 85ba 84f7 2a3d e79e 553d
00000130: 6bf5 a83c b12c 3cbc 097c 593d 64d7 033d
00000140: 0a16 9f3c 9106 9f3b f271 92bc e4cc 243d
00000150: f0ab babb 9dbd 063d 5dd2 5f3d 64d2 20bd
00000160: 6c39 2b3d 6c7c 07bc 3e0d 333d b425 0a3c
00000170: b3b5 b93c 5c2f 78bc 0a65 a9bb a71f 28bc
00000180: b7f2 6a3d d989 9a3c f833 cf3c 4708 7f3c
00000190: 7cff ba3c 8d05 99bc a0e5 003d 9c1c 483c
000001a0: d8eb 373d ad9d e4ba c573 fe3c 7395 873c
000001b0: 3058 f63c 5356 703d 4bb3 0bbd 2c64 40bb
000001c0: 477b bbbc 2569 3abb edaa 90bc 9196 f2bc
000001d0: 73a0 e63c c176 293c 4470 723d 732e 483d
000001e0: 30df be3c 5c0e 93bc 0f5b 043d 44fa 033d
000001f0: 8c93 843c 715a 213d dd20 1439 2edb 013d
-0.0040909164 -0.024697589 0.003955325 -0.020707564 -0.0005927501 0.041265503 -0.007546826 0.0013858002
0.032018587 0.08164242 0.028394874 0.020177372 -0.01779925 0.071707554 0.0474683 0.016839804
0.023468833 -0.006214503 0.046213157 0.015486555 -0.0035296516 -0.022982372 0.035035 0.06687026
0.045346096 -0.0029184471 0.05949537 0.062167123 0.012151679 -0.0075527984 -0.010360848 0.0300984
0.043232925 0.053455193 0.04271594 0.03187711 0.043930188 0.016461704 -0.033752125 0.033329733
0.019228641 0.049429223 -0.0030855008 0.044043433 0.026629271 0.02472291 -0.031081289 -0.018494818
0.029650664 0.03422604 -0.019256607 0.05792432 0.022078842 0.031188795 0.0020870927 0.0065674153
0.050590564 -0.006142074 0.02197345 0.024717404 -0.015570045 -0.004602986 -0.042255983 -0.009146546
0.020911472 0.01988807 0.04722983 -0.011745816 0.019713867 0.056684084 0.005049458 0.014065343
0.045025337 -0.0010200377 0.041739956 0.052153494 0.020624837 -0.011485265 0.053096805 0.032187834
0.019419689 0.0048530777 -0.017876599 0.04023446 -0.005696766 0.032895673 0.054643977 -0.039263144
0.04180281 -0.008269411 0.0437138 0.008431841 0.022669649 -0.01514801 -0.0051695155 -0.010261453
0.057360377 0.018864559 0.025293335 0.015565938 0.022826903 -0.018679405 0.031468987 0.012213852
0.044902653 -0.001744201 0.031061063 0.016550755 0.030071348 0.058676075 -0.034106534 -0.0029356582
-0.022885932 -0.0028444019 -0.017659629 -0.029612811 0.02815268 0.010343255 0.059189096 0.048872422
0.023299783 -0.017951183 0.032313403 0.032221094 0.016183637 0.039392892 0.00014126622 0.031703167

network_body._body_endoder.seq_layers.2.weight f4 [128, 128]
00000000: a51b b6bb b0a1 3bbc f796 13be 9399 04bc
00000010: 64b0 a6bd c709 283e 38ed dc3d e009 483d
00000020: 42ab a1bd a174 f33d d638 e5bd 34a6 86be
00000030: 4788 e4bc 3344 f1bc 88c5 823c 7778 933d
00000040: 4b2a 383e 0b98 f33c 4412 1d3e aa25 c8bc
00000050: ba13 13bc 9ee9 44bd bea7 19bd 154d 163e
00000060: cba1 0a3e fd8c 00be 326c f3bc f32b 8e3d
00000070: cb55 98bd 834a c5bd 431f ccbb c950 263e
00000080: 7115 eb3d 95a8 32be 9855 5bbd d8d9 3cbb
00000090: 85cc 963d c74e b2bb b76d 20be c90b c93d
000000a0: 6069 853d 1468 363d 8bc1 da3c aab5 ed3d
000000b0: 39e5 8ebd 35c2 133d 2251 abbb 9a6e debc
000000c0: 0337 143d 400e 103d 63fd cabd 6c61 40bb
000000d0: 754e febc 6b88 9cbc 9696 cabd 7e0b 70be
000000e0: 2680 39bd d30f 513d 5090 a03d 0842 12be
000000f0: c30e ab3c 26f1 75bd 91e2 d0bd 76dc be3d
00000100: 3a48 30bd 6e99 0dbc edcb d13d a88f e13c
00000110: e834 b8bc a4e9 c43d 6133 14bd b707 df3d
00000120: 6551 823c c02c 75be 00e1 94bd c7a9 d6bc
00000130: 161a f7bd a70d 9a3d 6d44 29bc f989 653d
00000140: e409 8fbe 9561 f93d c791 adbd c3a7 463d
00000150: b465 133e 7c98 263d 4f5e d33d 8987 aa3d
00000160: 644b 803e dc14 893d 719a 6b3d 5431 b9bc
00000170: 7289 d83c f7d2 243e 8bfc b9bc 24a4 52bd
00000180: c3ae b33d e0ee e8bd a332 843c 126a 443d
00000190: 658e 89bd c219 343d 7afd a23d 48ac a6bc
000001a0: 2c0a 143e b00a 573d 92ee 493d f5df 5ebe
000001b0: 0819 68be 209e 8c3d 6263 993d 179e ab3c
000001c0: a639 3fbd b9cf a13d c0f1 a13d be20 c3bd
000001d0: 1aa0 e13c 9856 95bd 5633 213e 6704 0c3e
000001e0: 90c8 cfbd d24e 8ebd 104a bc3d 046f fcbd
000001f0: f260 debc 1f4b 96bd 43d4 10be 8d2e c43d
00000200: 5bfa de3b 2343 2dbc 1719 2cbd c98c ea3d
00000210: 743a 233d 2ba5 e4bc ebe2 163e 8b6b 373e
00000220: 72f9 fdbd bb89 b53c 51cc b53d d864 253e
00000230: 896a 0cbe 2d1a 34bc 7763 e0bc 1c35 d53b
00000240: 9119 473e 84ea e6bc cabc 6d3c 4dc8 cdbd
00000250: 2da5 b3bd cf15 13be 7afd 2abd 7431 723d
00000260: 4f1a 2fbd 7c83 0abe 10db 893b 31e3 f53d
00000270: 8d99 58bc 2389 34be 2d93 31be 48b7 49bc
00000280: 0e51 ca3d 0185 953c e554 aebd b880 123e
00000290: 3b94 acbc 0800 dbbd fe37 a13d 3cf4 a5bd
000002a0: e583 63bd bd60 1ebd b28e d5bd 40f4 a3bc
000002b0: 768d 803b c067 6bbc ee91 88bc 6efc dbbd
000002c0: 5a82 02be 62ef 803e 916e 24bd 77ba d5bd
000002d0: e2ff e8bd afec 643e cd44 353c 6396 3cbe
000002e0: a65a d0bd aa08 c9ba 7cbd 8cbd 8de9 b0bc
000002f0: f85f 63be 1958 693d 188b ebbc 2ae1 943c
00000300: 0c0c 9d3d c716 e33c c983 fc3d 5839 4bbe
00000310: 7d22 8dbb 4c85 db3c 3a7a 9ebd bff8 75bd
00000320: 4563 48bd 0b8a 62be 0a8d 1fbe f8d7 253e
00000330: a95a 0cbe f057 623e 3c00 36bc eda0 4bbe
00000340: 44a4 8dbd 42a6 babd f7f1 35be 3b3c 233e
00000350: 2eca bb3d 2c0f 51bc 8dec 1ebe 51a6 24be
00000360: 0e6a 9e3d 1231 a13d d60a dc3d 3826 1fbe
00000370: 4a37 13be 44aa 6bbd 3e9d 6bbb 3d2e 20bd
00000380: e92a 38bd 2e3e bbbd d77e 683c f51e f5bd
00000390: 4e78 12bd 7341 5abe 938a 923d d52d a33d
000003a0: ba18 023e 6ef2 013d 7692 23be 7291 aebd
000003b0: 3867 193e 4ace d23d faef 00bc 1274 ae3d
000003c0: afe9 463d 576f b83d 50ea f2bd cfe2 d23d
000003d0: c6e8 183d be77 18bc 3fb0 a8bb 9b80 5b3e
000003e0: 3aa3 11bd 2e9e c2bd a0bd 4f3d bab8 87bd
000003f0: a4f1 b83d 1162 343d 8358 35be 4ac6 943c
-0.0055574947 -0.0114521235 -0.14413057 -0.008093256 -0.081391126 0.1640998 0.107874334 0.048837543
-0.07893993 0.118874796 -0.11192481 -0.26298678 -0.027897013 -0.029451465 0.01596333 0.07200711
0.17984883 0.029735586 0.15338999 -0.024432022 -0.008976871 -0.048074357 -0.037513487 0.14677842
0.13538282 -0.12553783 -0.029714677 0.069419764 -0.07438239 -0.096333526 -0.0062293126 0.16241755
0.11478699 -0.17447121 -0.053548425 -0.0028816368 0.07363228 -0.00544152 -0.15666853 0.09816701
0.06514239 0.04453285 0.026703617 0.11606915 -0.069773145 0.036073882 -0.0052281776 -0.027152348
0.036185276 0.03516984 -0.09911611 -0.0029354943 -0.03104327 -0.019108018 -0.09892003 -0.23441884
-0.045288227 0.05104048 0.078400254 -0.14283001 0.020881062 -0.06004443 -0.10199464 0.09319393
-0.04303763 -0.0086425375 0.10243974 0.027534321 -0.022486165 0.09614876 -0.03618181 0.10890143
0.015907953 -0.23942852 -0.07269478 -0.026204003 -0.120655224 0.07522135 -0.010331255 0.056039784
-0.27937233 0.121768154 -0.084750704 0.048499834 0.14394265 0.040672764 0.10320722 0.083266325
0.25057518 0.06693432 0.057520334 -0.02260653 0.026432727 0.16096102 -0.02270343 -0.051426068
0.087735675 -0.11373687 0.016137427 0.04795272 -0.06716613 0.043969877 0.07958503 -0.020345822
0.14457005 0.052500427 0.049299784 -0.2176512 -0.22665799 0.068660975 0.07489659 0.020949407
-0.046685837 0.07900948 0.07907438 -0.095277295 0.027542163 -0.07291907 0.1574224 0.13673554
-0.10145676 -0.069486275 0.09193814 -0.12325862 -0.027145837 -0.07338547 -0.14143471 0.09579191
0.006804747 -0.010575089 -0.042016115 0.11452634 0.039850667 -0.02791079 0.14735 0.17912118
-0.124010935 0.022160402 0.08876861 0.1615175 -0.13712515 -0.010992569 -0.027391179 0.0065065753
0.19443347 -0.028187998 0.014510343 -0.1004797 -0.08771739 -0.14363788 -0.04174564 0.059129193
-0.0427497 -0.1352672 0.0042070225 0.12006224 -0.013220203 -0.17630439 -0.173413 -0.012311764
0.09878741 0.018251898 -0.08512286 0.14306915 -0.021066776 -0.10693365 0.07872008 -0.08103225
-0.055545706 -0.038666476 -0.104276076 -0.020013928 0.0039231135 -0.014367998 -0.016671147 -0.107415065
-0.12745038 0.25182635 -0.040144507 -0.10435956 -0.11376931 0.22355913 0.011063767 -0.18416743
-0.1017354 -0.0015337665 -0.06872079 -0.02159574 -0.22204578 0.056968782 -0.028752849 0.018173773
0.076683134 0.027720822 0.123298235 -0.19846094 -0.00430709 0.02679696 -0.077381566 -0.060051676
-0.048922796 -0.22122972 -0.15581146 0.16195667 -0.13706459 0.22103858 -0.011108454 -0.19885607
-0.06916097 -0.091137424 -0.17768084 0.15940945 0.09169422 -0.012759965 -0.15519924 -0.1607907
0.07735072 0.078706875 0.10744254 -0.15541923 -0.1437656 -0.057535425 -0.0035951878 -0.039106596
-0.044962797 -0.09142719 0.014190397 -0.11968795 -0.035759263 -0.2131403 0.07155337 0.07967726
0.12704745 0.03172534 -0.15973839 -0.08523835 0.14980781 0.10293253 -0.007869715 0.085182324
0.0485627 0.090056114 -0.11861098 0.102971666 0.037331365 -0.0093058925 -0.0051479633 0.21435778
-0.035556056 -0.09502827 0.05071795 -0.06627031 0.09030464 0.044038836 -0.17709546 0.018160958

network_body._body_endoder.seq_layers.2.bias f4 [128]
00000000: fd27 123c f9a9 e73c 8d9a 063c f0b8 ae3c
00000010: 3714 caba cf34 4f3c 89fa 193d 6826 ca3c
00000020: 1a93 6a3c a24d 263d b82c ce3c a11b ce3c
00000030: c696 0f3c f14f 1b3d c4d5 0ebb 8f94 873c
00000040: dca2 843b 2b98 d43c 13fd 933c 92c2 183c
00000050: 1de7 9e3c 8d7b b43c 5261 0e3d d048 233d
00000060: 1b4c a63b 8485 da3c 8810 3f3c d653 203c
00000070: 3938 a83c bdf4 de3c 6cf0 d43b 82cb 2b3d
00000080: f65f ff3c 01ec 38bc 3078 353c b7f7 483c
00000090: cbf2 3b3c 63c5 4e3c 41f0 003d 48bf 993c
000000a0: c947 8f3c 3df3 ef3c f15c b63c 35e3 e33c
000000b0: 3abe ba3c ac75 dbbb 21d8 e13c 4c37 ab3c
000000c0: 789e 4dbc f341 0e3d e451 e63c 4fde f93c
000000d0: aacc 9c3c 3c6e 153d 008b 553d 3a2c c63c
000000e0: d373 a83c 2186 093c 1854 443d c80e 5f3c
000000f0: 756f 0d3d e6a3 1cba 558f d13b 6618 d03c
00000100: 42cd db3c c8c4 543d 34e1 e83c c31d d03b
00000110: f4b6 7d3c e447 3b3c 705f 6aba 3a0c 58bb
00000120: 1001 843c e4de 033b a3c8 7cba aaec 003d
00000130: 2d0c d93c 47a4 093d 3f0e bd3c d933 063d
00000140: cd89 fdbb 0667 b53c 264d 17bc cbb6 123d
00000150: fb30 f73c 6b37 8c3a eeda 293d 75f7 4f3b
00000160: 56ae 463c f3b1 1d3d 25bc 833c 4f19 4cbb
00000170: 3e00 d03c 4790 fc3c 4784 83ba f989 973c
00000180: da92 9f3b 5d25 183d 4f65 faba f343 143d
00000190: b26c 983c 93f1 053c d488 1b3c 68ee 4b3b
000001a0: bbe2 feba 4e08 d13b 74fb fe3c 3eb7 963c
000001b0: 1583 353b de04 19bc f313 a5bb 88a3 ec3c
000001c0: f0f7 c73c f6b6 2a3c 224d 5c3c 6f26 c03a
000001d0: eae0 b03c 5c7b 2c3c 3c99 9fba fe44 02bc
000001e0: 713b ae3c 526d c93c 0630 af3c d4ce 2e3c
000001f0: a250 c73c 06b1 f23b c3ef 963c 39e4 30bb
0.008920667 0.028279291 0.008215559 0.02132842 -0.0015417401 0.012646868 0.037592445 0.024676517
0.014317298 0.04060138 0.025167808 0.025159659 0.0087639745 0.037918035 -0.0021794895 0.01655033
0.0040477347 0.025951466 0.018065011 0.009323733 0.019397313 0.02203157 0.03476078 0.03986436
0.0050749904 0.026674993 0.011661656 0.009785613 0.020534622 0.02721631 0.006498387 0.041942127
0.031173687 -0.0112867365 0.011076018 0.012266091 0.011471461 0.012620303 0.031479124 0.018767968
0.017490285 0.02929079 0.022261115 0.027818302 0.022795785 -0.006697377 0.027568879 0.020900391
-0.012549989 0.034730863 0.02811522 0.030501513 0.01914056 0.03648208 0.052134514 0.02419101
0.020563042 0.008393795 0.04793176 0.013614364 0.03453012 -0.00059753505 0.0063952603 0.02540226
0.026831273 0.051945478 0.028427698 0.006351204 0.015485514 0.011430714 -0.0008940613 -0.0032966272
0.016113788 0.0020121867 -0.00096429343 0.0314757 0.026495064 0.033603933 0.023078082 0.03276429
-0.0077373744 0.022143852 -0.009234702 0.035818856 0.030174723 0.0010697668 0.041468553 0.003173319
0.012126526 0.038499784 0.016080925 -0.0031143015 0.02539074 0.030830516 -0.0010033929 0.018498408
0.004869801 0.037145007 -0.0019103679 0.036197614 0.018606517 0.008175272 0.009493072 0.0031117443
-0.0019446233 0.006379164 0.031125762 0.018397924 0.002769654 -0.009339539 -0.0050377785 0.028886572
0.024410218 0.010419598 0.013446124 0.0014659892 0.021591622 0.010527458 -0.0012176405 -0.007951019
0.021268578 0.02458826 0.021385204 0.010669429 0.02433044 0.0074063567 0.018424874 -0.00269915

action_model._discrete_distribution.branches.0.weight f4 [3, 128]
00000000: 85e5 4ebc d58d 67bb d056 8a3c e42c 30bb
00000010: 37c6 813b 9323 4bbd a01e c23a d59b cfbc
00000020: 2bd0 ff3b bc48 3b3d 8610 26bd 0c95 b1ba
00000030: 6737 473d 2619 32bc 3960 823c c07b c9bc
00000040: 9515 b03c 93b5 2c3d 4305 e5bc 19f0 52bd
00000050: 1e5a febc b818 84bc 9990 663c 307b df3c
00000060: 0558 823a 227d d3bc 85e3 f2bc 1a9b 65bd
00000070: 5c1c febc 25dd 2abc 57b1 343d b8d2 19bb
00000080: e7ab 7bba db91 013d ab62 543c 7796 103d
00000090: d278 57bd c032 21bc 6a6e ffbc 35fc cbbc
000000a0: e862 bf3c 8900 423b a08f 78bc 7b6f 9ebc
000000b0: 7821 b83c 9fd5 453d d787 36bd 4b0e 0bbd
000000c0: 8c69 903a 0a56 a23c 468e 91bc a0dd 0f3c
000000d0: 7586 c3bb b0e0 8ebd ec16 513d 6ef5 35bb
000000e0: c76b b33b 1568 09bd 6de8 2d3d af79 c3bc
000000f0: 94a3 403c 15c5 9c3c 345a ec3c a0f6 0bbc
00000100: 7186 9abc 4046 fa3c f299 8fbc 5c5e d7bc
00000110: 7d3d b2bc 3657 953c 7a66 15bd ea11 a93b
00000120: b6ae 2f3d 40b9 cebb d41d 233c 8f24 fd3b
00000130: b59d d8bb ff6a 5dbc 3327 e5bb 0264 c93b
00000140: 38e9 deba 3841 28bc 8d7b 5ebb 78cc a3bc
00000150: 9b18 c5bc 7122 593d 2f35 913c c810 ce3c
00000160: edeb babc c993 9b3d 42e3 3ab9 5ce3 ce3b
00000170: d806 3dbb 9a33 9e3c dfcd 0b3c 381d e7bb
00000180: e175 f33c 98e8 27bd d5c0 823d 8ed2 6f3c
00000190: 31ef 12bd 71af f6bc a33d 5fbd 7d0f 5d3d
000001a0: 8809 12bc e907 3d3b 4898 65bc 2be2 5fbd
000001b0: 94e6 a8bc faaa 1a3d 2f86 0abb 97e2 99bd
000001c0: cce8 c7bc 08c4 0b3b aabe 9dbc 497f fe3c
000001d0: 8dbd 17bc 54ef d83c 5c92 183c 3d7c bdbb
000001e0: d832 77bd b267 c8bc 4bb6 76bc f151 953c
000001f0: 8c1c b8bb 14a1 733d ab87 9bbb 9a07 ad3c
00000200: 7188 92bd f019 8dbd 50cf 243c 9f0b 0e3b
00000210: c494 043c 758c 493d 9f86 4dbd 712a 043c
00000220: 1d40 fa3a dac3 94bd 31e8 ac3b 1dda 213c
00000230: 0602 87bc 4423 b73a 6f6f 2cbc 57a6 bf3c
00000240: 9838 40bc 05e0 2fbd 63dc ab3c d6a7 0c3d
00000250: e708 2a3c 3114 6b3c cca1 3bbd c570 1abd
00000260: 05be 9fbb af54 343c f7da d43c 0c11 1a3d
00000270: 7b97 1c3d b12a 833c 5127 423b 86b5 5b3d
00000280: a7f2 81bc 6bde 24bb 3171 b33c 77d9 69bc
00000290: 5dbf 043d 6c95 efbb 35b5 f03b 1c97 603c
000002a0: 915b 33bc f43d e4bc 13b6 f7bb 4fb1 b83c
000002b0: 62b7 bdbc d368 44bd f352 293c 3d03 a83b
000002c0: d8b9 433b e569 5cbc 5e8d d7bb e28b 2ebd
000002d0: 4d7d 843c d8d5 b23d 5fc6 87bd df36 b1bb
000002e0: bb6f 9abd 881e 6e3c 312a 89bd 29c1 853c
000002f0: 6007 5bbb 729b e03b 914b cb3c aaf4 023c
00000300: cd8f 8e3b ddea 8bbd 7829 00bc 6cfa e03b
00000310: 7322 243c 79a2 17bc 67dd 0f3d 30e6 2ebc
00000320: f733 6bbd 0e4b 22bc e6ab f0bc 2e8f 803c
00000330: 27d9 5d3c 9cbe e23b 0473 87ba 75f7 81bd
00000340: 95a9 a13c 2cb6 1c3c 773d a3bc 6b0d 6a3d
00000350: 2f9c 033b 7023 81bc f56e 43bd 7610 f8bb
00000360: 381f 43bb 51d9 8fbd f4b9 083c 54f0 13bd
00000370: 5d7f 343c 2c60 50bd 383b d8ba 3707 173d
00000380: cfad ce3b 079f 293d 4faf 93bd a855 2bbd
00000390: 8749 583c d2c3 a83c e516 273d f1b9 973b
000003a0: 5f27 01bc 9a8d 76bd fcdd 8dba 7f88 053c
000003b0: a7b5 233c 3992 17bd 809b d9bb b9b7 6f3d
000003c0: 22bf d03c dc84 ad3b 3299 d73c 7a22 76bc
000003d0: 953b b33c 290e 82bd e6d4 1dbc 7fc8 eebc
000003e0: 01a1 023d b357 2c3c 0bba 613c 62c3 16bd
000003f0: f6bc f83c 0f74 58bb 5e64 483c eb86 6a3c
-0.012627964 -0.0035332341 0.016887099 -0.0026882226 0.0039603966 -0.049594473 0.0014810152 -0.025342861
0.007806798 0.04572366 -0.0405431 -0.0013548448 0.04863682 -0.010870254 0.015915023 -0.024595141
0.021494666 0.04216535 -0.02795661 -0.051498506 -0.03104883 -0.016125068 0.014072561 0.02728042
0.0009944445 -0.025816504 -0.029649505 -0.05605612 -0.031019382 -0.0104287015 0.044114437 -0.0023471545
-0.00096005056 0.03163324 0.012962977 0.035299744 -0.052605458 -0.00983876 -0.03118058 -0.024900535
0.023362592 0.002960237 -0.015170962 -0.019340267 0.022476897 0.048299428 -0.04456314 -0.033949178
0.0011017784 0.019816417 -0.017768037 0.008780867 -0.0059669563 -0.069764495 0.05104725 -0.0027764696
0.0054754945 -0.033546526 0.042457987 -0.023861734 0.01175775 0.019136945 0.028851606 -0.008542687
-0.018862935 0.030551076 -0.017529462 -0.026290111 -0.021757836 0.018230062 -0.036474682 0.005159606
0.042891227 -0.0063087046 0.009955842 0.0077253054 -0.006610597 -0.013514279 -0.0069931983 0.006145955
-0.001700676 -0.010269456 -0.0033948154 -0.01999496 -0.024059584 0.05301136 0.017725555 0.025154486
-0.022817576 0.07596547 -0.00017823002 0.0063137244 -0.002884319 0.019311715 0.00853297 -0.0070530437
0.029719295 -0.040993303 0.06384436 0.0146376025 -0.035872642 -0.030112954 -0.05450214 0.05396985
-0.008913405 0.0028843826 -0.014013357 -0.05465905 -0.02061776 0.037760712 -0.0021137109 -0.07513922
-0.024402998 0.002132656 -0.019255955 0.031066554 -0.009261501 0.026481308 0.009312239 -0.0057826326
-0.060351223 -0.024463508 -0.0150581105 0.01822755 -0.0056186374 0.059479788 -0.0047463975 0.021121789
-0.071549304 -0.06889713 0.010059193 0.0021674407 0.008092109 0.049206216 -0.050177213 0.008066759
0.0019092594 -0.07263918 0.005276703 0.009878662 -0.016480457 0.0013972302 -0.010524615 0.023394747
-0.011732243 -0.04293825 0.020979112 0.03433975 0.010378099 0.014348076 -0.0458086 -0.0377052
-0.004874947 0.011006518 0.025983317 0.037613913 0.0382304 0.016011568 0.0029625485 0.05363991
-0.015862776 -0.0025156986 0.02190456 -0.014273039 0.03240906 -0.0073115136 0.0073458203 0.013707902
-0.010947124 -0.027861573 -0.0075595467 0.022545485 -0.023158733 -0.04795153 0.010334718 0.005127339
0.002986541 -0.013452982 -0.0065781316 -0.04261387 0.01617303 0.08732194 -0.06629633 -0.0054081525
-0.07540842 0.014533646 -0.066975005 0.016327458 -0.0033421144 0.006854468 0.024816306 0.007992903
0.0043506385 -0.06831906 -0.007822387 0.00686579 0.010017979 -0.009255045 0.035123255 -0.010674998
-0.057422604 -0.00990559 -0.029378843 0.015693273 0.013540543 0.006919695 -0.001033396 -0.06346027
0.019734183 0.009564918 -0.01992677 0.057141703 0.0020082106 -0.015763968 -0.04771324 -0.0075703217
-0.0029773246 -0.07023872 0.008345116 -0.036117867 0.011016694 -0.050872967 -0.0016497141 0.036872115
0.0063073407 0.041411426 -0.07211172 -0.041829735 0.013201124 0.020601187 0.04079332 0.0046303202
-0.007882922 -0.060193636 -0.0010823603 0.008150219 0.00999204 -0.037004683 -0.0066408515 0.05852482
0.025481764 0.005295379 0.026318166 -0.015022868 0.021878997 -0.06350357 -0.0096332785 -0.029148338
0.031891827 0.010518956 0.013777266 -0.036807425 0.030363541 -0.003302816 0.012230961 0.0143143935

action_model._discrete_distribution.branches.0.bias f4 [3]
00000000: 3647 fbbb a89a 393c 4be3 dabc
-0.007668401 0.011328377 -0.02671971

action_model._discrete_distribution.branches.1.weight f4 [3, 128]
00000000: 6085 c83b df24 bb3c 6396 86bc ed7c f53c
00000010: 99c2 1bbd eba4 cbbc 9556 f03c 2ba7 f73c
00000020: da90 5abc 905c e63c bda9 753c 2d78 4c3d
00000030: 0b89 adbc e595 303d f746 54bc 3acc ae3c
00000040: 39de e3bc 2b46 3d3c a6f1 163d 0cdb bd3c
00000050: 62c5 053d 600a 9a3c cfe1 b73c 7df6 18bb
00000060: 7a2e 6dbc d518 0c3d 7534 a23c 3de9 293d
00000070: f7c6 1e3d b145 4c3d 3c6b ebbc a4f1 6dbc
00000080: e819 c23c ddc1 cdbc 6306 07bd 8b04 f1bc
00000090: 153c a23b 3331 d73c 68da ec3c b6c4 f53c
000000a0: cc44 f0bc 83f2 26bc b028 c83c e39c 193c
000000b0: 4d0e ebbc ea35 a8bc ac18 0b3d 5f0e d73c
000000c0: 612b babc bd98 abbc b62d b33c c66d dfba
000000d0: de3e 1d3d a669 bebc b257 cdbb 2877 013d
000000e0: 341e 1b3d a741 d43c 7ef5 d2bc dbb6 8c3c
000000f0: 0093 fd3c d601 dbbc e80d 05bd 2cff c93c
00000100: 5a04 af3c 0b2d 77bc 3699 f43c e1de 5f3c
00000110: a6e0 c23c 6119 f9bc 11d0 d3bc a770 0bbd
00000120: a20a 933c 4ed7 b4bc ae6f 0abd e9b7 68bb
00000130: d853 053d 801b f73c 0da0 b23c 7b22 a13c
00000140: 8dac 51bc dd58 ef3c 1b48 80bc 4417 9abc
00000150: 5cfe 2e3d af09 eabc c8c3 7e3c 0aed 023b
00000160: 871f 103d 2e43 9dbb e4bd 44bb 02ae 7dbc
00000170: daa0 df3c 6a25 e33c 09dc 1bbc a8a4 edba
00000180: 2e96 0abd 9cf5 993c 6a41 54bb 2079 debc
00000190: 9c2d 093d 6b15 df3c 75d9 283c cf53 fdbc
000001a0: 0489 a83c 1059 7c3c f802 c83c a2b0 633c
000001b0: 9b65 5f3c 50c3 bbbb 322b 18bc 1c23 fd3c
000001c0: ddf3 9b3c 9c81 87b9 9d84 bb3c d6d2 c7bc
000001d0: aad5 7e3c 0a7a 363c 0cb6 09bd a9b1 6cbb
000001e0: a825 313c 9c0f 2e3d c461 033d 6e2f 063d
000001f0: 9405 113d 7d28 0cbd 926c 013d 2306 febc
00000200: 0341 8fba d4d0 b3bc 4c2e df3b 3004 5ebc
00000210: 240e b83b f405 5ebd 467d 403c fcc6 a0bc
00000220: 8c15 67bb b5e0 813b a1d6 19bd addb 0c3c
00000230: 37d9 ed3c 8b25 b83b 9c43 323d 2dba 72bc
00000240: 2711 b33c 7073 84bb c64b 3fbc ed73 3fbd
00000250: 9226 aebc 82f5 85bc 7520 f73a 0a60 d5bc
00000260: 3dff 8e3c 0834 66bd de50 1ebc 4730 83bd
00000270: 4d60 9dbc 2cf0 373c 70b7 feba 981b 1c3d
00000280: 8f79 813c c809 2e3c be78 2e3c 087b b3bc
00000290: 2823 6fbc afc7 ccba 1c58 093c 379f fbbc
000002a0: 1ed5 4fbd 6cbe 1f3d 1f17 a83b 64a5 f83b
000002b0: cdf4 47bd 6476 b9ba d779 c7bc 57d6 29bd
000002c0: a9db b53c 7159 20bd 30f6 30bc ea0d d93c
000002d0: 639b 62bb 7637 10bd b354 13bd 8e3e abbc
000002e0: 369f 593c f573 e7bc 35a1 49bb 4d6c 79bc
000002f0: 9a7d dabb 51e3 353b 0000 20bb b8b4 823c
00000300: 026a 24bd 7676 0cbd a401 ebbb 4d0e 02bd
00000310: 9696 5abd dc60 1c3b f359 0dbd 3ce3 723c
00000320: 826c 8a3b d76d c43c fc50 803b ec4b 90ba
00000330: 9c6c 1e3c 7b3f 703a f02d 8bbc 10d0 cbbb
00000340: c688 b4bc 25df 92bc f0af 8a3c 22de 8d3c
00000350: 4d43 16bc e593 7abb 4783 efbc c6d8 d83a
00000360: 765b b0bc 6903 ce3a 756e 8cbc 836a 283d
00000370: e649 cbbc eb55 433b aaa0 a93c c500 873c
00000380: 9241 5b3d ce76 b7bb cc89 a93c b673 26bd
00000390: 5903 5fbd baa0 72bc 02be 9a3a 5531 9f3c
000003a0: 29d3 86bc ff64 ccbc c615 4b3b f8c8 40bd
000003b0: c10f 99bc 5d79 fc3c 8fb4 353d a711 70bd
000003c0: 1b90 7c3b fb05 2b3d 71f1 493b 1983 2c3d
000003d0: c4f9 11bc 8ff3 113c 6344 febb e4bd c1bc
000003e0: 70ef 3bbd 728d 8ebc b9b8 cdbc d230 f93c
000003f0: 425c e33b 2957 143d 239a 1dbd 5b42 6d3d
0.006119415 0.02284473 -0.016429132 0.029966796 -0.03802738 -0.024858912 0.02933816 0.03023108
-0.013340199 0.02812031 0.014994082 0.049919296 -0.021183511 0.0431117 -0.012956372 0.021337617
-0.027815925 0.011552374 0.036851548 0.023175739 0.032658942 0.018803775 0.022446541 -0.0023340278
-0.014476413 0.03420337 0.019800404 0.0414822 0.038763966 0.04987115 -0.028737657 -0.014522944
0.023693994 -0.025116855 -0.032965075 -0.029421112 0.00495101 0.026268577 0.028912738 0.030001026
-0.02932968 -0.010189655 0.024433464 0.009375784 -0.028693343 -0.02053352 0.033959076 0.02625197
-0.022725763 -0.020946855 0.021872383 -0.0017046265 0.038390033 -0.023243736 -0.0062665576 0.031607777
0.0378706 0.025910212 -0.025751825 0.017177036 0.030953884 -0.026734274 -0.032483965 0.024657808
0.02136438 -0.015086423 0.029858213 0.013663978 0.023788761 -0.03040761 -0.02585605 -0.03404298
0.017949406 -0.022075322 -0.033797912 -0.003551001 0.032550663 0.03016448 0.021804834 0.019669762
-0.012797487 0.029217178 -0.015659383 -0.018809922 0.042723045 -0.02856907 0.015549608 0.0019977712
0.035186317 -0.004799268 -0.003002041 -0.015483381 0.02729838 0.027727801 -0.00951291 -0.0018130736
-0.03383463 0.018793873 -0.0032387623 -0.027157366 0.033490762 0.027231893 0.010305752 -0.030923752
0.020573147 0.0154020935 0.024415478 0.013897093 0.0136350645 -0.00573007 -0.009287642 0.03090053
0.019037182 -0.00025845773 0.022890383 -0.024392527 0.015553871 0.011137495 -0.03362088 -0.0036116636
0.010812201 0.042495355 0.03207566 0.032760076 0.03540571 -0.0342183 0.03159768 -0.031008786
-0.0010929409 -0.021950163 0.006810939 -0.013550803 0.00561692 -0.054204896 0.0117486175 -0.019626133
-0.0035260646 0.0039635547 -0.0375582 0.008597297 0.02903424 0.00561971 0.04352151 -0.014814896
0.021858765 -0.0040420815 -0.011675781 -0.046741415 -0.021258626 -0.016352419 0.0018854277 -0.026046772
0.017455691 -0.056201965 -0.009662835 -0.064056925 -0.019210959 0.011226695 -0.0019433331 0.038112253
0.015805034 0.010622449 0.010648904 -0.021909252 -0.014595784 -0.0015623475 0.008382823 -0.030715568
-0.050740354 0.03899996 0.0051297094 0.0075880755 -0.048817445 -0.0014149663 -0.02435009 -0.041464176
0.022199469 -0.039147798 -0.010800883 0.026495893 -0.003457748 -0.03520914 -0.035969447 -0.020903852
0.013282588 -0.028253535 -0.0030766253 -0.015223575 -0.006667805 0.00277539 -0.0024414062 0.015955314
-0.04014016 -0.03429266 -0.0071718264 -0.03175192 -0.053366266 0.0023861444 -0.03450961 0.014824685
0.004224361 0.023978157 0.003915904 -0.0011008955 0.009669449 0.0009164733 -0.016989678 -0.0062198713
-0.022037875 -0.01792867 0.016929597 0.017317835 -0.009171319 -0.0038235125 -0.029237403 0.0016544096
-0.021527987 0.0015717569 -0.017142514 0.041117202 -0.024815511 0.002980585 0.020706493 0.01647986
0.05352933 -0.0055988794 0.02069559 -0.040637694 -0.054446552 -0.014808828 0.0011805894 0.019432703
-0.01645811 -0.024950502 0.003098832 -0.04706666 -0.01868427 0.03081959 0.044361647 -0.058610585
0.0038538042 0.04175375 0.0030814076 0.042117212 -0.008909646 0.008908167 -0.007759617 -0.023650117
-0.045882642 -0.01740143 -0.025112497 0.030418787 0.006938488 0.036215935 -0.038477074 0.05792461

action_model._discrete_distribution.branches.1.bias f4 [3]
00000000: c8a2 803c 911b 25bc 9ffa a6bc
0.01570262 -0.010077373 -0.020383177

action_model._discrete_distribution.branches.2.weight f4 [2, 128]
00000000: 994d a73c 8d8a f93c 4381 9bbc a0a5 c53c
00000010: 414b 2abd 7477 42bd c99d f23c f8aa 913c
00000020: bad9 d5bc 3f78 493d f4b2 503d af89 133d
00000030: c487 c8bc fb27 cc3c 443b 203c aeef 313d
00000040: a0b0 cebc 6554 bb3c a15d 0539 e53e 093d
00000050: c48e 1f3c 0ac7 bf3c ecf1 2b3d e94c 3b3d
00000060: 25d7 febc d873 073d 6301 e33b 4eb7 ba3c
00000070: a519 293c ad4c 433d f98e 1ebd 9309 e2bc
00000080: 981c 443d d7fa 2ebd 55e8 dbbc 12fe f6bb
00000090: d910 933c 9045 9e3c 116f c93c 82e9 e93c
000000a0: feab c5bc 1d62 e03c be6d fa3c 60ef fe3a
000000b0: d9bf 93bb 0558 b6bc 4044 093d 1200 d53c
000000c0: 8110 e3bc 3770 8c3d 4ca6 2b3d 57f4 e43c
000000d0: 07e0 973c 831b adbc c15d b53c 03bd 1d3d
000000e0: 336b 0d3d 8b98 f33c fb41 453d f06f 473c
000000f0: 2152 203d 3d41 4bbc 849f aabc a1f7 a43c
00000100: 26e2 133d 76f3 793d dec4 223d 8e47 063c
00000110: 3a08 a03c c358 40bb 2e27 f6bb b863 cebc
00000120: 860b 763b 5648 aabc 4cde 3abd 4f1c 983c
00000130: 0931 543c 20db 0f3d 49c1 893d cf87 1e3d
00000140: d31b d23b b464 103d 5909 d7bc edff a1bc
00000150: bc99 173c 5f8c aabc caa9 673d 8fae 283c
00000160: 3fac 043d dbad 363d dbf4 193d dcb3 1bbd
00000170: ac2a 293d d5f9 273d 465a 04bd 6a81 51bb
00000180: b56e e3bc 476e bbbc 3d8b e9ba 04f1 923c
00000190: 5e4f 533d 0124 1b3d b94b 6abc 1f69 15bc
000001a0: b067 14bc c34e b73c 7c66 e93c 4018 353c
000001b0: 9c9f 863c c020 94bc c082 1cbd 882a 3f3b
000001c0: 3bf5 273d 07a6 91bc bb86 c23c 6106 66bc
000001d0: 3868 ea3c dc77 053d 858a 00bd db63 cab8
000001e0: 32f2 9d3c 3019 7b3c b981 d73c 5955 003d
000001f0: 1f76 173c 54da 053c 78eb bc3c d08f a8bc
00000200: 2172 26bd 8f80 3fbd 7703 e63c 5bb3 1ebd
00000210: d0bd 923c d693 243d 5013 36bd d58f 91bc
00000220: 236b f13c 8411 89bd a391 62bd 891a 4bbd
00000230: 5388 d43c d58f b1bc ab69 c1bc e4f1 03bd
00000240: ebde fe3b 1bd4 37bd a72f 91bc 0aab 17bd
00000250: a84c a1bc 70d9 39bd dea9 d5bc 6c1f 05bd
00000260: 4072 183d 0bf1 aebc 75ec 32bc 7ca1 b5bc
00000270: 9463 7fbc c7c1 07bd 0521 e43c d912 f83b
00000280: 920a cfbc 9dea 393d f8ba 8e3c 0263 343c
00000290: 2f50 80bc 5709 0cbd e2af f7bc f999 dbbc
000002a0: f767 af3c e31b 6abd ffba 00bd f28b 67bc
000002b0: 0f1d 0dbc f279 cc3c b77f aebc 97f3 1cbd
000002c0: 2c1d ac3c a9d8 84bd efd7 45bd 865f 21bd
000002d0: 4724 0ebd 637d 0b3d 6058 c0bc 3d10 45bd
000002e0: 83ca 27bd b70e 8dbc 4a7d 3ebd 15e5 debb
000002f0: 3985 44bd 01fd 963b 753f 143d d8bd 34bd
00000300: 499f e4bc ed86 27bd a1ca 1cbd 7b38 34bc
00000310: 9c3b 03bd 0728 a33c 3a66 af3b 4f75 fb3c
00000320: 7478 1b3b 0c6e 823c e447 3b3d 78d0 6ebc
00000330: 5af0 9abc 276f debc d2e0 51bd 89e9 59bd
00000340: ca84 1c3c 6afe 39bd a532 113d 1dd5 db3c
00000350: ee76 70bc 44cd 723a fb04 6ebd 887c 45bc
00000360: 0c8c 8fbc d845 64bd 5fb8 17bd 767b 053d
00000370: 6709 32bd 7544 36bd 4096 4a3d fc45 b63c
00000380: c95e 913c 45cd ac3c 65ec 94ba b3be 20bd
00000390: d53b 27bd 7b12 0abc 2c13 113b a339 b63c
000003a0: 8146 79bb 785c d6bc 7361 2abd 092f 0fbd
000003b0: 4b87 99bc 058f d03c cbe7 2c3d d55f 6f3a
000003c0: da0a 2ebd 761a 1b3d c86d a0bc 327c d73c
000003d0: 426d 6ebd 08f4 09bd a8ec 013d b03c 343b
000003e0: c914 4ebc 72c6 94bc add9 dcbc b9c6 91bc
000003f0: e151 edba faa0 3a3c 9bef a7bc 19ee 1b3c
0.020422744 0.030461574 -0.018982535 0.024126828 -0.041575674 -0.0474772 0.029616253 0.01778172
-0.026104797 0.04918694 0.050951913 0.036019977 -0.0244788 0.024921408 0.009779755 0.043441467
-0.025230706 0.02286739 0.00012718748 0.033507247 0.009738628 0.023410339 0.04197876 0.045727644
-0.031108448 0.03306946 0.0069276555 0.022792485 0.010321056 0.047680546 -0.038710568 -0.027592456
0.04787883 -0.04271969 -0.026844183 -0.0075376118 0.01795237 0.01932028 0.024589093 0.028553728
-0.024129864 0.027390534 0.030569907 0.0019450001 -0.004508954 -0.022258768 0.033512354 0.02600101
-0.02771783 0.06857341 0.04190664 0.027948542 0.018539442 -0.021131283 0.022139432 0.038510334
0.03452606 0.029735824 0.048158627 0.012172684 0.039140824 -0.012405691 -0.020828016 0.02013761
0.036104344 0.061023198 0.03973853 0.008195771 0.019535173 -0.002934978 -0.007511995 -0.025194034
0.003754349 -0.020786446 -0.045622155 0.018568186 0.012951144 0.035121083 0.06726319 0.038703736
0.0064120083 0.035252288 -0.026249574 -0.019775355 0.009252962 -0.020818887 0.056558408 0.010295524
0.03239083 0.044599395 0.037587028 -0.038013324 0.04130046 0.041009743 -0.032312654 -0.0031968006
-0.02776275 -0.022879733 -0.0017817985 0.01793719 0.051589362 0.037876133 -0.01430028 -0.009119301
-0.009057924 0.022376424 0.028491251 0.011053145 0.01643353 -0.018082023 -0.03821063 0.0029169638
0.041005354 -0.017779363 0.023745885 -0.014039607 0.028614148 0.03258501 -0.031382103 -9.65071e-05
0.019280527 0.015325829 0.026306974 0.031331394 0.009244471 0.008169729 0.023061499 -0.020576388
-0.040636186 -0.046753462 0.028077824 -0.038745265 0.017912775 0.04018005 -0.04445201 -0.01776878
0.029470032 -0.06692794 -0.05531467 -0.049585853 0.02594391 -0.02167503 -0.023609957 -0.032213107
0.0077780387 -0.044880014 -0.017722918 -0.03702835 -0.019689873 -0.04537338 -0.026081976 -0.03250067
0.037218332 -0.021355173 -0.010920634 -0.022171728 -0.015587706 -0.033143785 0.027847776 0.007570606
-0.025273595 0.04538976 0.017423138 0.011009933 -0.015663235 -0.034188595 -0.030235235 -0.026806818
0.021411879 -0.0571555 -0.031428333 -0.014132487 -0.008612885 0.024960492 -0.021301134 -0.038318243
0.021010004 -0.06486637 -0.048301633 -0.03939774 -0.034702566 0.034055125 -0.02347964 -0.04811119
-0.040964615 -0.01721893 -0.046506204 -0.006802211 -0.047978614 0.004607797 0.03619333 -0.04412636
-0.027907984 -0.04090016 -0.03827918 -0.010999794 -0.03203927 0.019916547 0.0053527625 0.030695586
0.0023722919 0.015921615 0.045722857 -0.01457607 -0.018913437 -0.027152611 -0.051239796 -0.053201232
0.009553144 -0.045408644 0.03544869 0.026835019 -0.014676793 0.00092621543 -0.05811022 -0.012053616
-0.017522834 -0.05573067 -0.037041064 0.032588445 -0.043465998 -0.04449888 0.049459696 0.022250168
0.017745392 0.021093974 -0.0011361955 -0.039244365 -0.040828545 -0.008427258 0.0022136671 0.02224428
-0.0038036408 -0.02616714 -0.04159684 -0.034956966 -0.01874127 0.025458822 0.042213243 0.00091314066
-0.042490818 0.037867032 -0.019583598 0.026304338 -0.058209665 -0.033679992 0.031719834 0.0027501993
-0.012578198 -0.018161032 -0.026959265 -0.017794954 -0.0018106067 0.011390919 -0.020499995 0.009517216

action_model._discrete_distribution.branches.2.bias f4 [2]
00000000: 297b 2a3c 297b 2abc
0.01040534 -0.01040534

exp_avg f4 [128, 6]
00000000: 331f 89b8 e68a 2ab9 848d 9eb8 67c4 b8b8
00000010: 2cc3 8c38 e36b 2839 5122 a237 3b92 9037
00000020: 5c9c 4cb6 e7cc 89b7 88db 60b8 dddf ccb7
00000030: 5d92 3c38 b3cf cc38 049f 8b36 fd0c ed37
00000040: 0404 b0b7 0688 16b8 80c3 9538 4885 8c39
00000050: 3e4e c638 0223 8439 4fa3 b438 d705 43b9
00000060: 9937 7f37 f0c5 2438 1f5c 3237 4b29 d237
00000070: 038a e6b6 5e40 bcb7 e2c9 3bb9 472e e9b9
00000080: de9a 1ab9 c3cd 8fb9 0c9f 7138 ed22 a339
00000090: 9edc 64b8 4f6b c6b8 ae05 c6b7 489a bb38
000000a0: d9c4 ab39 3ca8 3639 98f0 7738 8aae ba36
000000b0: b97a c2b7 a40a 7638 b46f 3d39 a6dc f838
000000c0: 6012 a438 6c63 b239 20a7 4938 88e3 5239
000000d0: cf70 72b8 61a5 9bb9 7dbc 1ab9 7df7 02b9
000000e0: 8a01 65b7 2c0d 2a37 d540 dc36 109a d5b7
000000f0: 430b 1139 ab79 4439 0f9a bfb8 d818 94b7
00000100: 2084 dfb8 9af4 8bb8 06cd 9b36 7dbb 8238
00000110: 1a3a 3f36 06cf 2838 ccc3 96b7 5223 eab8
00000120: f23c 9e38 0495 e638 12c0 fb37 8bba 8f38
00000130: b565 8f37 3d13 0cb8 b348 c1b8 8dd1 1cb8
00000140: 4024 1e39 a3c9 0b39 e842 3f39 48f9 c4b8
00000150: dd08 a9b9 080e 28ba ff18 6ab7 357a a9b9
00000160: 08d7 2a39 5e64 9639 8568 78b9 dc96 dbb9
00000170: 4547 c5b8 fcb1 69b9 fa40 f4b6 10cd 3839
00000180: 9b85 d8b9 e931 59ba 307b 86b9 d82b f9b9
00000190: cd4c a938 2d0a 0a3a 85c2 9638 5318 9439
000001a0: c4db 0b39 8863 6039 7389 b2b8 5f81 a8b9
000001b0: 3b2b 16b9 30e6 9fb9 765c ecb8 215e 09b9
000001c0: 845a a538 3c61 7a39 e782 2838 1172 0638
000001d0: 8573 08b8 87a0 92b7 a5be cbb7 3e12 3338
000001e0: bcdc 2138 e1ea 4e38 86a3 7d37 6853 bd36
000001f0: 4056 9ab5 0d65 19b7 e112 9138 a500 9e39
00000200: bbf1 7c38 37e1 8839 af6b 6737 be85 61b9
00000210: 8af2 9cb7 facb 0a38 84ba ba38 01ae a338
00000220: 4809 c537 15a6 e9b8 1fcb d9b8 ba57 05b9
00000230: 4653 6338 7546 8938 5e35 8c39 73aa b038
00000240: 227a 1eb8 b36c e637 9269 3439 7660 9c38
00000250: cfa7 8c37 2fb7 4db9 163d d638 61cc bc39
00000260: 7bfd 6838 e307 6539 ecb5 01b9 778d 9db9
00000270: 2918 8cb9 f505 99b9 818d 7036 d5a9 80b8
00000280: 6321 47b7 dba5 47b6 57d9 c637 7106 03b7
00000290: d6a5 ccb8 a47a 42b7 a4da c237 b6d7 9038
000002a0: 47f7 f8b8 dea9 20b9 6e11 1c37 dff0 96b8
000002b0: 958c 81b7 fa98 5ab7 8b56 9d37 4a0c 3039
000002c0: 1365 0438 3226 1c39 bc46 23b8 43f4 1fb9
000002d0: cfea 3838 ef2d 5739 268e ab38 680d 3f39
000002e0: 16df 4a38 b5c1 23b9 40ac 1ab9 715d cdb9
000002f0: 26f2 4fb8 9268 a8b9 0e47 d5b8 34c7 d637
00000300: 9560 a4b9 7844 19ba 4e61 96b8 3d53 aab9
00000310: 9b52 00b7 3b89 4e39 bef7 08b8 c0bf 1439
00000320: 5027 ba38 90b7 1d39 ef0b 1bb8 6f3b 84b9
00000330: 9461 2737 196a 4439 1f51 7a37 e35e b438
00000340: 952e 2cb9 9487 8db9 0fbf 38b9 ee12 0cba
00000350: 6e59 ddb7 94a6 bbb9 3902 1939 796a ae39
00000360: d583 b338 1e15 0d38 680d 9cb8 1a56 45b8
00000370: fef6 2938 898d ffb5 9c07 3c36 9e4a 8e39
00000380: 4a61 8839 114a a939 d94f 4138 b416 e6b9
00000390: 3032 6238 be99 3239 c6fe 93b7 04d7 dd38
000003a0: cfe8 34b8 c129 c9b8 6432 c6b8 ad29 d9b8
000003b0: cc49 9338 853b 5eb8 73e6 b0b8 2356 0bb9
000003c0: 6595 f8b8 31a6 8fb9 afa2 61b7 6cde 50b9
000003d0: 2857 22b8 c336 db38 8454 ceb9 5347 1cba
000003e0: 5347 e2b7 1012 8cb9 eae2 d3b8 d4fe d838
000003f0: 634b afb8 af50 ceb8 8391 0b38 2b92 9438
-6.5384804e-05 -0.00016264207 -7.5603864e-05 -8.8103865e-05 6.712074e-05 0.0001606192 1.9327885e-05 1.7234232e-05
-3.0489382e-06 -1.6427088e-05 -5.3610216e-05 -2.442294e-05 4.4959004e-05 9.766165e-05 4.1610347e-06 2.825865e-05
-2.0982705e-05 -3.588947e-05 7.1412884e-05 0.00026802183 9.4559495e-05 0.00025203085 8.6134874e-05 -0.00018598825
1.5212129e-05 3.928499e-05 1.0631075e-05 2.505318e-05 -6.870601e-06 -2.244132e-05 -0.00017908917 -0.00044475702
-0.00014744277 -0.0002742839 5.7607e-05 0.00031115804 -5.45649e-05 -9.4613635e-05 -2.3606084e-05 8.945592e-05
0.00032762325 0.00017419545 5.911346e-05 5.563551e-06 -2.318375e-05 5.866088e-05 0.00018066057 0.000118666605
7.823552e-05 0.0003402488 4.807778e-05 0.00020111923 -5.7802357e-05 -0.0002968712 -0.00014756802 -0.00012489963
-1.3649822e-05 1.0135856e-05 6.5640584e-06 -2.546332e-05 0.00013832473 0.00018737341 -9.1362854e-05 -1.7654544e-05
-0.00010658079 -6.673597e-05 4.643228e-06 6.2338055e-05 2.8495037e-06 4.0247127e-05 -1.7972568e-05 -0.000111645684
7.545379e-05 0.00010995011 3.0010971e-05 6.853518e-05 1.709429e-05 -3.3396518e-05 -9.2164984e-05 -3.7388458e-05
0.00015081558 0.00013331189 0.00018240104 -9.3924406e-05 -0.00032240796 -0.0006410782 -1.3953307e-05 -0.00032325243
0.00016292569 0.0002868501 -0.0002369006 -0.00041883334 -9.406967e-05 -0.00022286916 -7.279331e-06 0.00017623999
-0.00041298274 -0.000828533 -0.00025650254 -0.00047525647 8.072853e-05 0.00052657985 7.1887895e-05 0.00028246883
0.00013337942 0.00021399383 -8.513303e-05 -0.00032139846 -0.0001432122 -0.00030498346 -0.00011270579 -0.00013100404
7.884673e-05 0.0002387808 4.0176234e-05 3.2054322e-05 -3.2532513e-05 -1.7479308e-05 -2.4288262e-05 4.2693915e-05
3.8590966e-05 4.9332975e-05 1.5118048e-05 5.6423487e-06 -1.1498996e-06 -9.143038e-06 6.917655e-05 0.0003013659
6.030661e-05 0.0002610774 1.3793745e-05 -0.00021507495 -1.870959e-05 3.3091732e-05 8.9039124e-05 7.8048564e-05
2.3488552e-05 -0.00011141241 -0.000103852006 -0.00012716549 5.4198572e-05 6.545793e-05 0.00026742643 8.4240826e-05
-3.778388e-05 2.7468754e-05 0.00017205466 7.456627e-05 1.6767443e-05 -0.00019618565 0.00010215693 0.00036010428
5.5549182e-05 0.0002184208 -0.0001237017 -0.00030050773 -0.00026720882 -0.00029186872 3.5845153e-06 -6.135149e-05
-1.1869098e-05 -2.9749851e-06 2.3704646e-05 -7.809708e-06 -9.7583674e-05 -1.1591856e-05 2.3228415e-05 6.9066344e-05
-0.000118716205 -0.0001532207 9.302383e-06 -7.197423e-05 -1.5443462e-05 -1.302943e-05 1.8756158e-05 0.00016789246
3.1565385e-05 0.00014891548 -3.8928105e-05 -0.00015254416 4.40877e-05 0.0002052111 8.1803926e-05 0.00018220174
4.8368318e-05 -0.00015617053 -0.00014750753 -0.00039170266 -4.9578164e-05 -0.00032121368 -0.000101698664 2.560355e-05
-0.00031352477 -0.00058466895 -7.170682e-05 -0.00032486944 -7.648628e-06 0.00019696813 -3.2655655e-05 0.00014185812
8.876494e-05 0.00015041069 -3.6965994e-05 -0.00025221283 9.976695e-06 0.00018731541 1.4920049e-05 8.600743e-05
-0.00016420551 -0.0002699463 -0.00017618782 -0.0005343397 -2.6386897e-05 -0.0003579153 0.00014592045 0.00033267195
8.559941e-05 3.3636687e-05 -7.441157e-05 -4.704865e-05 4.052277e-05 -1.9040173e-06 2.8018612e-06 0.00027139945
0.00026012427 0.00032289376 4.608915e-05 -0.00043885934 5.392934e-05 0.00017032676 -1.7642404e-05 0.00010578151
-4.3132164e-05 -9.592204e-05 -9.450762e-05 -0.00010355129 7.023252e-05 -5.2984356e-05 -8.4352585e-05 -0.00013288161
-0.000118533884 -0.00027398908 -1.3448923e-05 -0.00019919284 -3.870498e-05 0.00010452934 -0.0003935435 -0.0005961556
-2.6974512e-05 -0.00026716338 -0.0001010353 0.00010347148 -8.358692e-05 -9.837874e-05 3.32757e-05 7.084416e-05
