results/PressButton/PressButtonAgent_ImitationLearning2/PressButtonAgent/PressButtonAgent-9982.pt (torch, 532981 bytes, 54 tensors)

discrete_act_size_vector f4 [1, 3]
00000000: 0000 4040 0000 4040 0000 0040
3.0 3.0 2.0

network_body._body_endoder.seq_layers.0.weight f4 [128, 6]
00000000: 0550 19be f0fe 0f3f 7f38 b33e 2305 87bf
00000010: b311 853e 18b2 26be f1db 99be 8b7d c6be
00000020: d55c debe bba1 b9be e55d 233f 729e 4cbd
00000030: 3415 193e 4bcf 46bf 5027 323e 6703 263d
00000040: 09c1 e3bd 14af a2bb 6aa9 763e 9320 c6be
00000050: c8e1 05be 5f9a 893e c036 783e 919d a8be
00000060: 032e 36bf 9dd5 7abe 24b0 a93e 15be 03bf
00000070: 8c91 19be 5939 413d 3dfc 173e 7301 163e
00000080: cdfe e93e cc3e a7be ff19 23be a2ea 68bd
00000090: cb32 183e 5d2d 383e da13 823e b488 acbd
000000a0: 6bba 2a3f 3c81 4ebc 9374 283e 65e0 0fbe
000000b0: cf6f 0c3f a6fe afbd 1f1d 053f fa3b dcbe
000000c0: fca3 09be 6d19 b4be 41da 49be b6e7 c93e
000000d0: 9491 14be 4760 043e 2522 373e bfd0 3dbd
000000e0: 9c0e c1be ae39 2cbf 98bd f83e 896b 073f
000000f0: 9f23 d83c a7b2 18be 2f9d ef3e 4a54 be3d
00000100: 60f4 4fbe 5634 803e 7a80 54bf c866 f5bd
00000110: f3d3 d1be ec1b c43d 6138 f5be e350 b9bd
00000120: 45e2 efbd 192b 8cbe 856e 4d3e 41bd cdbe
00000130: 65c9 b9bc 3fff 06bf f347 eabd d688 a93d
00000140: eae1 4cbe 717e 6abe 25e1 1b3f 96a0 7bbd
00000150: c40c 253e 3b0c 683f 0771 0abe 0a56 96be
00000160: d883 fdbe 0863 dabe ae21 183f dc23 d13e
00000170: 6a2b 6dbe 078a 34bd e991 a63d 44fd d13e
00000180: d346 493f c044 563f 9980 9f3e 04f7 abbe
00000190: cc2f 083e 18ed 683e 6fcd a4bd 9208 0f3f
000001a0: 34f7 bf3e 86d4 4c3f 20e6 f3bd c936 f5bd
000001b0: f81a 6d3f 14fd d7be 13bd cf3e ebed 2e3e
000001c0: b004 c03d fecb 6bbd 5aa5 5dbe ba5d 3ebf
000001d0: 8569 633f 8b0b af3d b89c 2bbd 1184 1d3f
000001e0: 6716 cdbc aa39 61bf 825c 8a3d 43a5 d9be
000001f0: f476 2bbe 3cb0 e1bd 6bec 90be 14e5 d6be
00000200: 4f52 153f fe18 9c3e 9cca 023d 8669 e4bc
00000210: e7be 8bbe 2d76 cdbc 93db c5be 7da5 e8be
00000220: d81d 0f3f 16df 44be 3308 863d 65ba b03d
00000230: 8d11 753d 11e4 5cbe 7f0d 2b3f ab6b 61be
00000240: ba09 e0be c4c9 253f 3188 573e 2f91 613d
00000250: 6c69 0b3f 18af 88be 6f3b 54bd b364 5cbe
00000260: 1f0f 2dbe 7b6a 113e 64c3 d7bd 15ee d3bd
00000270: 1890 233f d68b c93b d429 82bf 7008 3dbf
00000280: 32e9 393f b9e3 bbbd 2806 f63e 19d2 fbbe
00000290: d987 233f a60c 2abf 4350 c23e 8a3d 593e
000002a0: c256 af3e 6438 183f 8577 b0bd b7fa 9c3e
000002b0: bfb6 ecbd 7590 0f3e 9a08 e9be a36c efbe
000002c0: a399 eabe effa 1d3f abcd e93e 279b bd3e
000002d0: d8da a53e 7ac6 fabe 1dc2 45be a22a 45be
000002e0: c9eb 973b cd34 44bf 25a4 633a 0b9f 2e3e
000002f0: 926d 3bbf 26ee 5a3f 0bb9 48bf b1d4 c13e
00000300: 1266 003f 5c43 713f cf59 0abf 1621 c83d
00000310: 0f6b 7a3e c311 fa3e 8e69 bcbe b30a d9bd
00000320: 96f5 4bbf 98c9 9a3d e4f7 8dbe 0488 85be
00000330: 1c70 3dbf 9a33 9dbe 397e d9be 36ea 423f
00000340: 778b fcbd b245 b13e 8e97 b03e 1b85 a43f
00000350: 242f 8e3f ff60 323f 90ad a43e 9bb1 e6be
00000360: 1ef4 b03e c325 9cbe e31c 743d 4636 48bd
00000370: dc34 ebbe d03a 063f 1b85 9dbf de5f 533f
00000380: b48d 97bd a91c c1bd d222 6a3c 86e0 99bf
00000390: 88bd f63b 1477 25bf 7e25 f03e b486 e13d
000003a0: cfe5 8b3c 7053 82bf 20ba 1c3c afa2 9a3c
000003b0: bf96 1fbf ca1f 7a3e 41d8 7fbd c73b 50be
000003c0: b379 943e 80df 2c3f fc5f a03d 8719 2c3f
000003d0: 3b8e a03c 8355 75be 96ae 253f 19d8 c13e
000003e0: f817 1cbf 01a3 bdbe f5c9 4f3e 7c4e a13e
000003f0: 9bb9 8f3e eba3 cebd 28c3 7c3e 158a 773e
-0.14971931 0.5624838 0.3500404 -1.0548443 0.25990066 -0.16278875 -0.30050614 -0.38767657
-0.434302 -0.36256203 0.63815147 -0.049955793 0.14949495 -0.77660054 0.17397809 0.04053059
-0.11120803 -0.0049647186 0.24088064 -0.38696727 -0.1307441 0.26875588 0.24239635 -0.32932714
-0.7116396 -0.2449555 0.33142197 -0.5146192 -0.14996928 0.04717383 0.14842315 0.1464899
0.4570221 -0.32665098 -0.15927885 -0.05686439 0.14863126 0.17986055 0.2540577 -0.084245116
0.666907 -0.012604054 0.1645072 -0.14050443 0.54858106 -0.08593492 0.5199756 -0.43014508
-0.13441461 -0.35175648 -0.19712164 0.39434594 -0.14508659 0.12927352 0.17884119 -0.046341654
-0.3770646 -0.6727551 0.4858215 0.5289846 0.026384173 -0.149119 0.4679961 0.092934206
-0.20308065 0.2503993 -0.8300854 -0.119824946 -0.40982017 0.09575638 -0.47894576 -0.09048631
-0.11713079 -0.2737663 0.20061691 -0.40183452 -0.02267904 -0.52733225 -0.114395045 0.082780525
-0.20008054 -0.22899796 0.6089042 -0.061432444 0.16118151 0.9064366 -0.13519679 -0.29362518
-0.4951465 -0.4265368 0.5942639 0.4084767 -0.23161092 -0.044076946 0.08133299 0.4101354
0.78623694 0.83698654 0.311528 -0.33586895 0.13299483 0.22746694 -0.08046996 0.5587245
0.3749329 0.80011785 -0.11909127 -0.1197334 0.92619276 -0.4218527 0.4057394 0.17082946
0.09375894 -0.05756759 -0.21645108 -0.74361765 0.88832885 0.085471235 -0.041897506 0.6152964
-0.025035096 -0.87978613 0.06755926 -0.42508897 -0.16744596 -0.11019942 -0.28305373 -0.41971648
0.5832872 0.30487818 0.031931505 -0.027882349 -0.27294084 -0.025080765 -0.38644084 -0.45438758
0.5590491 -0.19225726 0.065445326 0.08629302 0.05983119 -0.21571375 0.6681747 -0.22013728
-0.4375742 0.64760995 0.21048047 0.0550701 0.54457736 -0.26696086 -0.051814493 -0.21522789
-0.169003 0.14200775 -0.10535315 -0.10348145 0.63891745 0.006150703 -1.0169015 -0.73841
0.7262145 -0.09174294 0.48051572 -0.4918373 0.6387916 -0.6642555 0.3795186 0.21214882
0.34245878 0.59461045 -0.086165465 0.3066003 -0.115582936 0.1401995 -0.45514375 -0.4676257
-0.4582034 0.6171102 0.45664725 0.37032434 0.32393527 -0.4897955 -0.1931233 -0.19254544
0.004636262 -0.7664307 0.0008683822 0.17052858 -0.73214066 0.85519636 -0.78407353 0.37857583
0.50155747 0.9424341 -0.5404329 0.09771936 0.24454902 0.48841676 -0.36799282 -0.10597744
-0.7967161 0.07557982 -0.27728188 -0.26080334 -0.7399919 -0.3070343 -0.42479113 0.7613863
-0.12331288 0.34623486 0.34490627 1.285312 1.1108136 0.69679254 0.32163668 -0.45057377
0.34561247 -0.3049756 0.05959786 -0.048879884 -0.45938766 0.5243349 -1.2306246 0.82568157
-0.074000746 -0.094292946 0.014290528 -1.2021644 0.007529918 -0.64634824 0.46903604 0.11012021
0.017077355 -1.0181713 0.00956586 0.018876402 -0.62339395 0.24426189 -0.062462095 -0.20335303
0.289991 0.67528534 0.078308076 0.6722645 0.01959907 -0.23958401 0.6471952 0.37860182
-0.60974073 -0.37038425 0.20291884 0.3150519 0.28071293 -0.100898586 0.24683821 0.24173768

network_body._body_endoder.seq_layers.0.bias f4 [128]
00000000: ee72 2dbc dca3 cfbc 6b6d 99bb a169 fcbc
00000010: 7b2c dabb 2c9f 173d 6bc5 98bc 5e86 4fbc
00000020: a995 093d 5452 953d 528c f73c 46b9 da3c
00000030: 0202 f9bc 083e 743d 7f15 393d acee 693c
00000040: dd1e 9a3c f6b6 e4ba b7fe 1c3d 1388 1a3c
00000050: cf74 63bc 147d 03bd 1b1f aa3c 0ccb 5b3d
00000060: 882b 363d 44f4 22bb 614d 3f3d 3d07 733d
00000070: e37b 4c3c a127 a7bc 7cd2 b9bc f101 133d
00000080: 8543 353d f9e7 713d e149 3d3d e358 fb3c
00000090: fa84 243d e7c7 9e3c 4220 31bd 784c 293d
000000a0: 42e6 cc3c 01c7 373d a344 64bc bd91 113d
000000b0: 2117 023d 20bf c63c 8d1d fbbc 9b13 bfbc
000000c0: d295 063d 3429 103d 6c8a b0bc ef39 2a3d
000000d0: 8734 d23c f845 fe3c 59b5 aabb 9a4b 523c
000000e0: d4e0 5c3d c132 67bc 5e3f 6b3c e34e f93c
000000f0: aca9 6ebc 7ecc 12bc 81fd 33bd 7290 b7bc
00000100: bd27 d73c 99df d03c 9f21 283d 3ea8 8dbc
00000110: d925 b93c b483 4f3d 0034 0dbb d33c 643c
00000120: 08f9 f73c 9f0e aa39 edf6 233d eb4f 483d
00000130: 127a e03c b422 85bc 5a6c 493d c126 1f3d
00000140: 87fa d33c 9761 b3ba 6e46 04bd 8b3c 1f3d
00000150: 826a 56bc ddf3 dd3c e3af 533d 1817 0ebd
00000160: d634 133d 20ee 5ebc 9842 2b3d bafe 483c
00000170: d801 f13c 2e85 90bc a176 bf3b a744 90bc
00000180: a8d8 413d ec74 bf3c 0543 073d cd77 ba3c
00000190: b7c7 ea3c 4014 b6bc a75a c93c 4f82 613c
000001a0: a6f6 263d a2f6 c3bb 10d2 df3c 3e94 833c
000001b0: 6770 f83c bd1c 5e3d 8449 0cbd fca8 72bc
000001c0: 91af e2bc 3d10 1ebc bbd7 e9bc 11a4 f3bc
000001d0: d449 ce3c 6d41 553c 366d 5f3d 35a1 273d
000001e0: f4b4 583c 5c3f b0bc 5fd0 003d f05f f03c
000001f0: ad49 b63c b2cc 443d 6912 95bb 1b49 103d
-0.010586483 -0.025346689 -0.004682233 -0.030812087 -0.0066581345 0.037017033 -0.018648824 -0.012666313
0.033589993 0.072910935 0.030218277 0.026699673 -0.030396465 0.05962947 0.045186516 0.014278095
0.018813545 -0.0017449546 0.038328853 0.009431857 -0.01388283 -0.032101706 0.020766785 0.053660437
0.04447511 -0.0024864832 0.046704654 0.059333075 0.012480709 -0.020404639 -0.022683375 0.035890523
0.044253845 0.059059117 0.046213035 0.030682033 0.04016588 0.01938243 -0.043243654 0.041332692
0.02501214 0.04486752 -0.01393238 0.035539377 0.03176034 0.024261057 -0.03065374 -0.023324778
0.032857724 0.035195544 -0.02155038 0.041559156 0.025659813 0.031039223 -0.0052096066 0.012835408
0.05392535 -0.014111222 0.01435837 0.030433124 -0.01456682 -0.008959888 -0.043942932 -0.022407744
0.026264066 0.025497245 0.04104769 -0.017292138 0.022601055 0.05066271 -0.0021545887 0.013930517
0.030270115 0.0003243582 0.04003041 0.04890434 0.027401958 -0.0162519 0.049175598 0.038855318
0.025876297 -0.00136857 -0.03229373 0.038876098 -0.013086917 0.027093822 0.05168141 -0.034689993
0.03593906 -0.013606578 0.041811556 0.012267763 0.029419824 -0.01764163 0.005842999 -0.017610861
0.04732576 0.023371182 0.0330229 0.022762204 0.028659685 -0.022226453 0.02457936 0.013763978
0.040762566 -0.0059803287 0.027321845 0.016061898 0.030327035 0.054226626 -0.034249797 -0.014810797
-0.027671607 -0.009647426 -0.028545251 -0.029741319 0.025181688 0.013016087 0.05454751 0.040925223
0.013226736 -0.021514587 0.03144872 0.029342622 0.022251928 0.048046775 -0.004549314 0.03522597

network_body._body_endoder.seq_layers.2.weight f4 [128, 128]
00000000: 3931 7ebc bea7 46bb 1ade 0ebe a3c6 98bb
00000010: 1157 a0bd 3130 1c3e b5e4 d93d 35d6 3a3d
00000020: 6057 8dbd 1487 fb3d 0715 e7bd 9d4f 84be
00000030: 9121 dcbc 406e eabc 6e7b 2c3c a981 863d
00000040: 9d29 2d3e 6864 fb3c c0fc 163e 3a3e b5bc
00000050: 2147 60bb e2dd 29bd dc67 f5bc 14b3 143e
00000060: e3d2 0f3e 82d8 eebd bb7e c4bc a117 823d
00000070: 9555 a3bd 5d65 bebd 6442 64bb 9a84 283e
00000080: 6cd5 e23d b4b6 2cbe cde9 4fbd 96ad a6bb
00000090: b96a 993d 39f7 82bb d5bf 21be 7f24 c53d
000000a0: 4e63 823d e88d 2f3d 8364 d73c 4ca5 fc3d
000000b0: d959 94bd e6d8 ff3c ee98 93bb 6f9a b4bc
000000c0: ce5e 133d 60c0 e73c d88c c2bd 7b00 053b
000000d0: 7d13 05bd fc7d b0bc 6c9a cebd 5609 70be
000000e0: 53b0 29bd 5366 553d 0b64 8c3d 984f 13be
000000f0: bc67 ce3c 9815 81bd f36c c9bd b95e bc3d
00000100: c259 32bd cb0e 03bc 5eaa cb3d 2e81 923c
00000110: 0d07 9fbc 1e32 cb3d 72fe ebbc dccb e43d
00000120: 476a 963c f97a 72be 4ce9 87bd 6245 0abd
00000130: a59b f6bd efa5 8b3d 2ea5 b1bc 977a 783d
00000140: 4bc1 8ebe 69cd fc3d 7025 99bd 543e 2e3d
00000150: d79f 183e 5db0 293d 5e8d c43d 7cb8 bc3d
00000160: 487b 7f3e 49b1 923d 4db9 5f3d 4a1b a6bc
00000170: 0305 083d fa78 263e de0e aebc f3ac 48bd
00000180: 42c7 9d3d 43f5 e4bd 9686 b43c 338a 4a3d
00000190: 0995 87bd 9aa9 3d3d 014d 983d da83 9cbc
000001a0: 326d 063e 4456 583d 132b 2d3d 0445 5ebe
000001b0: f88b 62be 7578 863d 79ee 9b3d 8a33 993c
000001c0: 1041 22bd 96c1 993d ad0b a43d ad06 c5bd
000001d0: 6bd3 a63c 2601 92bd 2026 1d3e 8136 ff3d
000001e0: 8c2f d3bd 312b 8bbd c99b b23d 9ab1 f7bd
000001f0: b434 cebc 30ce 89bd 4c20 09be 09fc bd3d
00000200: de5f b5bb bb84 17bb a6e3 21bd 323b f13d
00000210: bafb 303d e0d3 2abd 5dce 123e 56ac 2f3e
00000220: d9d6 eabd 9f9b c63c ff4b af3d 1d50 2b3e
00000230: 36d9 0cbe 92e1 fbbb 6fe9 f5bc c8b9 86ba
00000240: da77 3b3e dd7e d4bc c2c6 613b 3df8 cbbd
00000250: f3e0 abbd 93c7 0cbe b56c 09bd a680 663d
00000260: fdc6 14bd 7281 00be 20a6 3b3c 0a5a de3d
00000270: 677c 8bbc 884c 2ebe b256 30be ea6d 2bbc
00000280: b5ca c13d 3c18 d33c 2a8b a7bd eb5d 123e
00000290: d2f7 f3bc 007e cebd 72c7 a03d a8f5 a1bd
000002a0: 4528 62bd a096 28bd 614b dbbd 0e30 58bc
000002b0: 0196 0d3b bcdf 8fbc 8c55 60bc 75ed d4bd
000002c0: b60d 00be 995e 7b3e 3087 20bd 1a6e cebd
000002d0: 1820 eabd 6754 643e e5b9 423b 89bd 3abe
000002e0: 44bc d4bd 8bee 403b b83d aabd fda7 7fbc
000002f0: ca2e 62be 4799 513d fb15 cebc f024 933c
00000300: e045 a13d d64b dc3c 10de f13d 1892 58be
00000310: 391c 1a3b a844 de3c 38a3 91bd 5727 69bd
00000320: a08c 45bd c0d2 5fbe 4b2e 1bbe 940e 1b3e
00000330: 4eb5 08be e1e3 593e bf53 d0bc 92f6 46be
00000340: 186d 81bd a8bc b6bd 1092 2cbe 72e7 1d3e
00000350: 7dbf c33d 6cbe 82bc a1fb 24be 5d9c 1cbe
00000360: a108 9c3d 5ec4 a63d b124 d73d f10d 1abe
00000370: cf5c 0cbe 53a9 5dbd 3c99 663a e629 10bd
00000380: 85be 63bd 4ff8 b2bd 6475 a33c c5e2 ebbd
00000390: e4f1 04bd bed0 58be 44cc 803d 2108 a73d
000003a0: 8d48 e73d 6f9e f63c 8741 28be b6af b6bd
000003b0: ca70 203e 9cf4 c83d f6d7 40bc d10c a73d
000003c0: f6e8 5f3d 4206 b23d 7f1a edbd eee5 cc3d
000003d0: 2c75 f93c 856f 10bc 2fd4 1fbc 00ab 4b3e
000003e0: 5086 28bd c69b c2bd 914c 3c3d d482 86bd
000003f0: 7e80 b33d 8cb9 4c3d 13da 2dbe d25b 6d3c
-0.015514665 -0.0030312384 -0.13951913 -0.004662351 -0.078291066 0.15252759 0.106393255 0.04561444
-0.06901431 0.122816235 -0.112833075 -0.2584199 -0.026871474 -0.028617024 0.010527475 0.065676995
0.16910405 0.030687526 0.14744854 -0.022124398 -0.0034222084 -0.04147137 -0.02995675 0.14521438
0.1404529 -0.11662389 -0.023986211 0.06352163 -0.07975308 -0.09296677 -0.003482961 0.16456833
0.11075863 -0.1686657 -0.05076008 -0.005086611 0.07491059 -0.0039967564 -0.15795834 0.09626102
0.06366597 0.04285994 0.026293045 0.123362154 -0.072436996 0.031231355 -0.0045043146 -0.022046296
0.035979085 0.028289974 -0.0949952 0.0020294476 -0.03248929 -0.021544449 -0.100880474 -0.23441061
-0.04142792 0.052099537 0.06855019 -0.14385831 0.025195949 -0.06302947 -0.098352335 0.091977544
-0.04354263 -0.007999132 0.09944604 0.017883863 -0.019412542 0.099216685 -0.028807852 0.111716956
0.018361224 -0.23679723 -0.06636295 -0.033757575 -0.120414056 0.06818759 -0.02168521 0.060663786
-0.27881846 0.123438664 -0.07477844 0.04253991 0.14904724 0.04142796 0.09597276 0.09214875
0.24949372 0.07162721 0.054620076 -0.020276684 0.033207905 0.16257086 -0.021247324 -0.048993062
0.07704021 -0.111795925 0.022036832 0.049448203 -0.06620223 0.046304323 0.07436562 -0.01910584
0.13127592 0.052816644 0.042277407 -0.21706015 -0.22123706 0.06565944 0.076138444 0.018701334
-0.03961283 0.07507627 0.080100395 -0.09620414 0.020364484 -0.07129125 0.15346575 0.12461568
-0.10311803 -0.067953475 0.0872112 -0.12094422 -0.025171615 -0.0672878 -0.13391227 0.092765875
-0.00553511 -0.0023119885 -0.039523743 0.11778869 0.043208815 -0.041705966 0.14336534 0.17155585
-0.1146676 0.024244128 0.08559417 0.1672978 -0.13754734 -0.007686802 -0.030018536 -0.0010278756
0.18307438 -0.0259394 0.0034450744 -0.09959457 -0.08392515 -0.13748007 -0.033550937 0.056275032
-0.036322583 -0.1254938 0.0114531815 0.10857017 -0.017027093 -0.17021382 -0.17220572 -0.010463217
0.094624914 0.025768392 -0.0818084 0.1429364 -0.029781256 -0.10082626 0.07850541 -0.07908183
-0.055214185 -0.041159272 -0.10707737 -0.013195051 0.0021604302 -0.01756274 -0.013692271 -0.10396854
-0.1250523 0.24547805 -0.039191425 -0.10079594 -0.11431903 0.22297822 0.0029712853 -0.18236364
-0.10387471 0.0029439058 -0.08312553 -0.015604016 -0.22088161 0.051171567 -0.025156965 0.01796195
0.07874656 0.02689163 0.11809933 -0.2114948 0.0023515357 0.027132347 -0.0711121 -0.056922283
-0.048229814 -0.21857738 -0.15154378 0.1514228 -0.13350412 0.21278335 -0.025430558 -0.19429997
-0.06319636 -0.08922702 -0.16852593 0.1542032 0.09558008 -0.01595994 -0.16111614 -0.15294023
0.07618833 0.08142923 0.10505045 -0.1504438 -0.13707279 -0.05411656 0.00087966374 -0.035196207
-0.055601615 -0.08738767 0.019953437 -0.11517862 -0.032457247 -0.21173379 0.062889606 0.08155847
0.11293135 0.030104844 -0.16431247 -0.08920233 0.15668026 0.098122805 -0.011770239 0.081567414
0.05466553 0.086926 -0.11577319 0.10004793 0.03045138 -0.008815651 -0.009755178 0.1988945
-0.041143715 -0.09502368 0.045971457 -0.06567922 0.08764742 0.04998164 -0.1697772 0.014487224

network_body._body_endoder.seq_layers.2.bias f4 [128]
00000000: 3f6d c53b 01f3 cf3c 27e3 bcbb 8874 d53c
00000010: 2156 15bc 208d 1f3c 69d5 0f3d 49ee 043d
00000020: 421f 0b3a 47fb 163d 1cf1 ca3c d1a5 e83c
00000030: 9fe6 2bbc 6f56 2b3d 7932 16bc 2fb4 b43c
00000040: 724d 47bc 16ed 8f3c eb14 db3c 3474 3f3c
00000050: e9c8 c53c 9de8 e33c 605f 053d 8a32 073d
00000060: ec9d 97bb 60e2 dc3c eeb9 9c3c 62d1 283c
00000070: 9ca5 ef3c e668 033d 218e 1cbc d39a 203d
00000080: edd7 ec3c 0df7 82bc 1a1d 2cbb e011 f0bb
00000090: c3bc 823c 9848 843c 974f 1a3d 5ffc c93c
000000a0: a326 5d3c 5923 b23c 2178 dd3c 682b 043d
000000b0: 1147 923c c952 9ebc 3867 073d a584 c53c
000000c0: 8d5e b0bc 1a20 e43c 5a47 f03c 8027 ba3c
000000d0: 8cbb c83c 6fc5 123d 0432 303d 46dd db3c
000000e0: e87f 923c 9bd6 673c e772 163d 900c a03c
000000f0: e659 123d fbde 88bc 01a6 d7bb 32ae e83c
00000100: 0ae4 e33c bb1d 303d 5760 003d f13d 3d3c
00000110: ab85 983c ab0c 30bc 6334 21ba 2d20 74bc
00000120: 9b3f 6f3c d3aa 13bc 8e95 d3bb 6bb1 fa3c
00000130: 62ed 023d 9807 143d 004c cd3c 6ac9 fc3c
00000140: 9e20 49bc 8dd2 d53c 3273 73bc ec78 0f3d
00000150: 82a8 193d 46d7 51bc a3db 053d 35fc 9bbb
00000160: 6adc 923c 7633 0a3d b8ac 893c a7ac 0cbc
00000170: 70de f43c 6d02 ed3c 4755 38bc a0e9 9f3c
00000180: a0f2 15bc 99c5 293d bd68 3dbc 86c9 023d
00000190: b6bf a43c 3fe2 753c a96c 803c 506b 6cbc
000001a0: 4c39 b33b 7587 713b 956a 103d 1b76 a93c
000001b0: 97cc 0d3c 3660 88bc 7902 0cbc f0b9 ce3c
000001c0: 9232 f73c b304 b53b 1c7b a03c da90 d4bb
000001d0: 39d5 c53c 2afb e23b eb07 00bc 3b26 43bc
000001e0: 6edc 8f3c 2746 043d a762 e73c 7994 c13b
000001f0: 8457 003d 5f1c 4dbc 115b b83c 9165 6abc
0.006024986 0.025384428 -0.0057643834 0.026056543 -0.009114773 0.009738237 0.035115633 0.03245381
0.0005307087 0.03686073 0.024773173 0.02839938 -0.010491996 0.041830476 -0.009167307 0.022058574
-0.0121644605 0.017569106 0.026743373 0.01168542 0.024143653 0.02782088 0.03256166 0.033007182
-0.00462698 0.026963413 0.019131627 0.010303827 0.029253773 0.03208246 -0.009555371 0.039210152
0.028911555 -0.015986944 -0.0026262463 -0.0073263496 0.01595915 0.016147897 0.03767356 0.024656473
0.013497981 0.02174537 0.027034821 0.032267958 0.017856153 -0.019326584 0.03305742 0.024111101
-0.02152946 0.027847338 0.029330898 0.022723913 0.024503492 0.03583282 0.04301645 0.02683891
0.017883256 0.014150287 0.036730673 0.01953724 0.035730265 -0.016707888 -0.0065810685 0.028403375
0.027818698 0.042997103 0.031341877 0.0115504125 0.018618425 -0.010745208 -0.0006149469 -0.014900249
0.014602567 -0.009012896 -0.0064570373 0.030602178 0.031964667 0.036140054 0.025060654 0.03085776
-0.012275843 0.026101375 -0.014859008 0.03502743 0.037514217 -0.012807673 0.032680165 -0.00476029
0.017927367 0.033740483 0.016805992 -0.008586085 0.029891223 0.02893182 -0.0112508 0.01952058
-0.009152085 0.04144821 -0.011560616 0.03193047 0.020110946 0.015007555 0.015676813 -0.014429882
0.005469477 0.003685442 0.035257895 0.0206862 0.008654735 -0.01664744 -0.008545511 0.025235146
0.030175481 0.005524242 0.019589953 -0.006486994 0.024149524 0.0069269137 -0.007814388 -0.01191097
0.017561164 0.032293465 0.028245283 0.005907592 0.03133346 -0.012518971 0.022504361 -0.014306442

action_model._discrete_distribution.branches.0.weight f4 [3, 128]
00000000: 57c8 55bc 619a 8fbb 9485 ac3c 1496 bebb
00000010: 5975 213c e8c3 21bd 95af b93a 9bfd c1bc
00000020: c3a1 6c3c eec8 1a3d efa5 34bd e59d 1ebc
00000030: 35f2 1a3d dca0 8bbc cc8b b13c 8e9f e7bc
00000040: e10a c53c 2dad 2d3d 9d8d d8bc 5ddb 29bd
00000050: 6533 d0bc d95c babc 1425 6d3c 2497 033d
00000060: d10f c53b 2eed 8fbc d454 c5bc 87aa 0abd
00000070: 7804 edbc 186a 9cbc 3266 0e3d dd4b 25bc
00000080: fc56 3bbc 0b74 193d 6b2a 663c 11fe 923c
00000090: cfb9 3abd 350e 72bc 802f 1ebd fdd7 ccbc
000000a0: 8dba e73c 4b9a 923b 4921 b6bc c4e4 d6bc
000000b0: db02 dd3c 7c02 093d 8d6e 24bd 538e 0dbd
000000c0: eadd 7d3b dd78 a73c 087b 83bc 644e 1b3c
000000d0: 022c 1bbc 8a4d 80bd 819a 403d 1254 99bb
000000e0: a6f0 b73b e66a 0dbd 4455 1f3d e585 debc
000000f0: e350 103c 1c49 983c 6803 df3c c3cb 8abc
00000100: fdde 66bc a26b 053d 94fa 94bc 65e1 a7bc
00000110: cb24 acbc e250 703c d7c6 cfbc 71b1 273c
00000120: 93bc 083d 4460 fdba 8e47 9f3c 4638 4939
00000130: 079b 5bbc 1b3c 59bc 9bba 39bc 885e 133b
00000140: 8344 7bbb 7303 a4bc 344f bf3a 4ed4 a1bc
00000150: 4dff b5bc 7eca 283d 2b40 863c d459 013b
00000160: 658b bebc 1adb 8a3d 2bf8 04bc 3c12 813c
00000170: 21bf 27bc f0fb 8d3c d3f1 523c 558a 1fbc
00000180: 89e3 ef3c 545a 11bd 1e60 403d 6b1c bb3c
00000190: 2f5b 05bd 0d62 c0bc c511 49bd abb6 2b3d
000001a0: 2ded 5abc a2d5 083c 163a a5bc b2cc 34bd
000001b0: 4119 d3bc 1c7d 953c 2d32 613b 235c 65bd
000001c0: 2635 f8bc c047 083b 33b0 bbbc 852e e63c
000001d0: 7815 87bc a898 bc3c 96bd 843c a56e ec3b
000001e0: 6b79 30bd 94d2 ccbc 4583 b9bc f4e6 603c
000001f0: d273 1ebc 45f8 053d 7524 ebbb 4a43 623c
00000200: 47b5 87bd 59e9 82bd 3a80 db3b 5e31 833b
00000210: 7540 a53b 5887 343d a82a 32bd 6006 143c
00000220: b10c f1ba 318a 8abd 5dba c13b c82e 513c
00000230: dc83 59bc 3b22 743b 6252 4dbc 0e21 c73c
00000240: 47d7 67bc 0753 0abd f404 b03c 564e 013d
00000250: 6dbd 1e3c 7bd4 843c 25c5 21bd 14f9 07bd
00000260: 3f0f 0abc 0580 2c3c bd7a ca3c 330b 083d
00000270: 7e1f 1d3d 53b3 993c e5e3 0f3b bbbe 613d
00000280: 7a1e 44bc 05f3 d4bb a4dd 9e3c 5b9e 15bc
00000290: a0b5 003d 80d7 cfbb 4141 2d3c 2774 5c3c
000002a0: c173 01bc 1749 a9bc a384 7ebb 129e cf3c
000002b0: 4394 86bc 7ea6 28bd 8bd2 4b3c 3bdf c53b
000002c0: a3d4 fc39 2160 0fbc 45b5 f9ba 7203 0bbd
000002d0: 688d 8f3c 9144 ac3d a041 66bd 9e8b 53bb
000002e0: cb25 8fbd 45dd 743c b81c 6fbd d3a2 863c
000002f0: dd8b 543a 6e02 da3b da5e bb3c 7b0f 383c
00000300: 8c9d b53b ccc3 78bd 77fd 88bb 2168 9c3b
00000310: c531 263c 9715 35bc 4277 f33c 8696 71bc
00000320: 3bcf 4dbd 6760 40bc 4108 06bd 8074 923c
00000330: 6aad 8c3c 3f67 213c 15e8 b93a 5287 6fbd
00000340: 4dc8 893c f371 5d3c b609 b4bc dfde 643d
00000350: 4eac f73a ef92 7dbc 59c4 2abd 37a5 d4b8
00000360: 10e8 14bb fb8e 83bd 3dce 283c 0c1e 1fbd
00000370: 5b12 773c fa14 35bd 6974 90bb 70cf 123d
00000380: f3b4 233b d671 1d3d 780a 7ebd 731d 0bbd
00000390: 8c82 743c 2d5e a33c 937f 1d3d 86bb 643b
000003a0: eda9 bfbb 9615 5fbd b713 fd3a a00b cf3b
000003b0: f0c9 383c 518c e8bc 083b 2fbc ca1d 573d
000003c0: 045a e63c f45c 123b 11eb e63c ca82 8dbc
000003d0: e846 bf3c d01e 6abd b185 3dbc 0464 eebc
000003e0: fd2d e23c d1e0 363c 07a9 833c f179 f5bc
000003f0: a471 083d a377 063c cc89 543c 0167 693c
-0.013048253 -0.004382417 0.021059789 -0.0058162306 0.009854638 -0.03949347 0.0014166707 -0.023680499
0.014442864 0.037789278 -0.04410356 -0.0096812 0.037828643 -0.017044477 0.021673106 -0.028274324
0.024053039 0.04240148 -0.026434714 -0.041468967 -0.025415132 -0.022749351 0.014474172 0.03212656
0.0060138484 -0.01756915 -0.0240883 -0.033854034 -0.028932795 -0.019093558 0.03476543 -0.010088888
-0.011434313 0.037464183 0.014048199 0.017943414 -0.045587357 -0.014773895 -0.03861952 -0.025005335
0.028287197 0.0044739596 -0.022232668 -0.02623213 0.0269789 0.033449635 -0.040144492 -0.03455956
0.0038737007 0.020443374 -0.016049877 0.009479139 -0.0094709415 -0.062647894 0.047022346 -0.0046792114
0.0056134043 -0.034525774 0.038899675 -0.027163455 0.008808347 0.018589549 0.027223304 -0.016942864
-0.0140912505 0.03257335 -0.018185891 -0.020493219 -0.021013638 0.014667721 -0.025363369 0.010235176
0.033382963 -0.0019331058 0.0194433 0.00019189817 -0.013403661 -0.013258959 -0.011335994 0.0022486765
-0.0038340397 -0.020021176 0.0014595748 -0.019754555 -0.022216463 0.041208737 0.01638802 0.001973738
-0.023259828 0.067800716 -0.0081158085 0.015755765 -0.01023844 0.017332047 0.012875038 -0.009737571
0.029283302 -0.035486534 0.046966664 0.0228407 -0.032557663 -0.023484254 -0.049089212 0.041922253
-0.013362211 0.008351715 -0.0201693 -0.044140525 -0.025768878 0.018248133 0.0034362182 -0.05599607
-0.03029878 0.002079472 -0.022911167 0.028098354 -0.01648973 0.02302201 0.016203683 0.0072153383
-0.043084543 -0.025002755 -0.022645602 0.0137269385 -0.009671168 0.03270747 -0.007175977 0.013809988
-0.06626373 -0.06392164 0.0066986354 0.0040036878 0.0050430843 0.044074386 -0.04349771 0.009034723
-0.0018390623 -0.06764639 0.005912109 0.012767501 -0.013276067 0.0037251848 -0.012531849 0.024307754
-0.014150447 -0.033770587 0.021486737 0.031568848 0.009688717 0.0162146 -0.039494652 -0.033196524
-0.0084264865 0.010528569 0.02471673 0.033213805 0.03836011 0.018762266 0.0021955904 0.055113535
-0.011970157 -0.0064986967 0.019392796 -0.009131993 0.03142321 -0.0063428283 0.01057464 0.013455427
-0.007901133 -0.020664735 -0.0038836382 0.025343928 -0.016428119 -0.041174404 0.012440334 0.006038574
0.00048223612 -0.008750946 -0.0019051215 -0.033938833 0.017523482 0.084115155 -0.05621493 -0.0032279263
-0.0698963 0.014945333 -0.058376998 0.016435063 0.00081079995 0.0066531217 0.022872377 0.01123416
0.0055424627 -0.0607336 -0.004180606 0.0047731553 0.010143702 -0.011052511 0.029719952 -0.01474536
-0.05024646 -0.011741734 -0.032722715 0.017877817 0.017172534 0.009851276 0.0014183546 -0.05847866
0.016819144 0.013515937 -0.021977287 0.05587661 0.0018895955 -0.015476926 -0.041691158 -0.000101397214
-0.0022721328 -0.06423756 0.010303077 -0.038847014 0.01508006 -0.044209458 -0.0044084084 0.03584236
0.002497968 0.03843864 -0.062021703 -0.03396363 0.014923703 0.019942367 0.038451742 0.0034901812
-0.005849114 -0.054463945 0.0019308244 0.0063185245 0.011278614 -0.02838722 -0.0106952265 0.052518643
0.028119095 0.0022333236 0.02818826 -0.01727428 0.02334924 -0.05715829 -0.011567519 -0.029100426
0.02760982 0.011161999 0.01607181 -0.029965373 0.0333115 0.008207235 0.012972306 0.014245749

action_model._discrete_distribution.branches.0.bias f4 [3]
00000000: d507 63bc 8475 793c 9ad1 d4bc
-0.013856848 0.015225772 -0.025978852

action_model._discrete_distribution.branches.1.weight f4 [3, 128]
00000000: a73d 963b 7442 c13c de84 a4bc f50d 0e3d
00000010: a60e 30bd a3b8 c5bc 43ee e93c 559b 083d
00000020: aabf 96bc 5903 073d fdd3 b43c b5c6 623d
00000030: af73 6dbc 7fd5 433d 3a9b 98bc 656c d33c
00000040: 47ed 01bd e45d 0d3c f6e3 253d 7e5a a93c
00000050: cd85 043d fc91 c93c df30 b03c 3024 e9bb
00000060: a9e5 9ebc 72ce 123d 603f a53c b208 0e3d
00000070: e11e 2b3d 4832 693d 6cdd cfbc f882 a6bb
00000080: 712d f83c 70dc f3bc 92b0 08bd 8456 d9bc
00000090: 2f5f 403b a306 fd3c 6b0d 103d 34b9 133d
000000a0: c6f3 d1bc 7d2f 6cbc e246 f53c 7b88 8f3c
000000b0: 273e eebc 7d4f 0abc bcdb 0d3d d1e6 fb3c
000000c0: 49f7 ccbc fcde adbc c14c a63c 89e0 b2bb
000000d0: adff 2d3d 5af4 b0bc 1240 18bb 4458 0a3d
000000e0: fffa 133d a3ad f53c 35b3 d3bc 3706 b33c
000000f0: fb19 053d bedb ecbc ef91 f8bc 70d9 fb3c
00000100: ae3f c03c 3d00 8bbc 5621 f93c 12cf 963c
00000110: 8905 ef3c 8319 edbc 7665 d9bc fe16 24bd
00000120: afdb bb3c 03f6 bdbc 1eca 1abd 4f82 323b
00000130: 5c15 223d 1737 ea3c 50ed d23c 35e9 a93c
00000140: 1a87 25bc 1039 143d 6fd5 a3bc d525 59bc
00000150: 25cd 383d 8f86 dbbc 1e58 873c 1829 1e3c
00000160: 39a5 223d 7793 6939 0ee6 633b 2697 babc
00000170: 2eed 093d e0fb e53c 285f 4dbc 2831 793b
00000180: fcd6 1bbd f386 ba3c dc71 ea3b fc88 f9bc
00000190: 9702 083d e516 e03c dd55 433c a4ff 02bd
000001a0: e856 dc3c 31d1 4c3c a11a f03c 7086 683c
000001b0: 1e24 a13c 70a7 01bb 251a 95bc da33 b33c
000001c0: 4364 c53c 7b9a cebb a90d dc3c d517 f1bc
000001d0: 18a3 c13c 930e 283c aeee 01bd 9aeb 15bc
000001e0: a7c9 3c3c 9c75 3e3d 860b 193d 3435 0a3d
000001f0: 2938 253d 0352 c4bc 3f70 153d 45d7 edbc
00000200: 3beb c8bb 856d c9bc 0276 103c 4547 81bc
00000210: 2c3e fe3b beeb 22bd 11f7 af3b c172 b9bc
00000220: 6cda 3dbb 08e4 9bbb d7c1 1cbd 7dfa 853b
00000230: f2b6 d33c 181a 7c3a dbbc 2e3d 3d19 9ebc
00000240: 86d6 ac3c 520a f5bb 2173 3bbc 48c4 0fbd
00000250: 02b9 c4bc f62a b0bc 12e5 85bb dbb9 dcbc
00000260: c22e a33c 0abb 51bd 32a7 ebbb 17cf 4dbd
00000270: 5136 a2bc 78ae ac3b bd19 b3bb 18f7 063d
00000280: 674f 0d3c e78a 2b3c ea78 3d3c b960 88bc
00000290: abb4 06bc 5580 afbb 69cc 9f3b a292 03bd
000002a0: 10ff 04bd 429b 083d 315f d2ba 22b2 833b
000002b0: a3a3 14bd 04c6 6ebb c5e4 ccbc 1a7a 2bbd
000002c0: c7bb b23c 5bbb 27bd b69c 80bc 99ad af3c
000002d0: 617b d4bb e6a3 b3bc 20b2 03bd fe46 dbbc
000002e0: 5fa4 093c ab7a d1bc fcdd e6bb 9571 93bc
000002f0: c356 4bbc adb8 893b 944e 89b9 f879 5c3c
00000300: e593 25bd cf36 0fbd 2ccb 48bc 77ee 06bd
00000310: f397 53bd 5817 013b da9c acbc d541 953c
00000320: 372d a7bb 0cd1 c43c 120e f63b 3e9f cdbb
00000330: 307c f23b ed78 9cbb c162 b6bc 7a37 51bc
00000340: 1319 46bc d305 a2bc 8d8e b33c 9128 b53c
00000350: f836 1bbc 978d 35bb b2c6 05bd 8c72 4dbb
00000360: 5810 afbc 2030 d6bb b828 aabc 6fc9 1a3d
00000370: 3138 d9bc 2dd6 9abb 175e a43c 917a 6c3c
00000380: 4036 383d 8042 6aba 7e7a 3b3c 815e 05bd
00000390: 5960 4ebd 04b1 4cbc b267 cc3b b004 a03c
000003a0: 3de7 87bc fcd8 cfbc fe86 0fbb 3925 30bd
000003b0: eec3 b1bc 6661 b63c e918 323d d13a 28bd
000003c0: f44c 23bb 8f41 103d b861 ac3a 8f15 083d
000003d0: 0924 76bc 3001 fc3a e283 37bb 0a4c 6dbc
000003e0: 34fd 14bd 54e4 a2bc 99fc eabc a7f3 973c
000003f0: 2932 643b 3c45 973c 4396 1cbd ba56 373d
0.0045849863 0.023591258 -0.020082887 0.03468128 -0.04298272 -0.024135893 0.028555995 0.03335126
-0.01840194 0.032962177 0.02207374 0.055365283 -0.014492913 0.047811028 -0.018628705 0.025808522
-0.031720426 0.008628342 0.040500604 0.020673033 0.032354165 0.024605744 0.021507679 -0.0071149096
-0.01939662 0.035841413 0.020171821 0.03467626 0.041777495 0.056932718 -0.025374137 -0.0050815307
0.030295106 -0.029768199 -0.033371516 -0.026530512 0.002935361 0.030886954 0.035169046 0.036065295
-0.025628936 -0.014415619 0.029941026 0.017521134 -0.02908237 -0.008441803 0.034633383 0.03074971
-0.025020259 -0.021224491 0.020300271 -0.0054588956 0.04248016 -0.02160089 -0.0023231548 0.033775583
0.03612804 0.029990023 -0.025842289 0.02185355 0.03249548 -0.028913375 -0.030343024 0.03074333
0.023467865 -0.016967887 0.030411404 0.018409286 0.029177444 -0.028942829 -0.026537638 -0.04006099
0.022931902 -0.023188597 -0.03779041 0.0027238315 0.03957115 0.028590722 0.025747925 0.020741085
-0.0101030115 0.03618723 -0.019999234 -0.013253649 0.045117516 -0.026797561 0.01652151 0.009653352
0.03970835 0.00022275547 0.0034774574 -0.022777151 0.033673458 0.028074205 -0.012534894 0.0038023684
-0.038046822 0.022769427 0.0071546864 -0.030460827 0.033205595 0.027354667 0.011922327 -0.03198208
0.026896909 0.012501047 0.029309573 0.014192209 0.019670542 -0.0019783638 -0.018200943 0.02187531
0.02409566 -0.0063050366 0.026861982 -0.02943031 0.02363734 0.010257381 -0.031721763 -0.00915041
0.011522687 0.04649888 0.037364505 0.033742145 0.04033676 -0.023964887 0.036484 -0.029033313
-0.0061315573 -0.024588356 0.008817198 -0.015781054 0.0077588763 -0.039775603 0.005370029 -0.022637727
-0.00289693 -0.004757408 -0.038270798 0.0040886984 0.025844071 0.00096169254 0.042660575 -0.019299144
0.021098386 -0.007478037 -0.011441023 -0.035099298 -0.024014 -0.02150486 -0.004086145 -0.026944092
0.019919757 -0.051203765 -0.007191562 -0.050246324 -0.01980129 0.0052698217 -0.0054657147 0.03295049
0.008624888 0.010470129 0.011564473 -0.016647683 -0.008221786 -0.0053558745 0.0048766625 -0.03212226
-0.03246981 0.03335119 -0.0016050098 0.004019038 -0.03628887 -0.0036433944 -0.02501143 -0.041864492
0.021818055 -0.04095016 -0.015699726 0.021445083 -0.0064844345 -0.021928739 -0.032152295 -0.02676725
0.0084010055 -0.025571188 -0.0070455056 -0.017998496 -0.012410822 0.0042029233 -0.00026189222 0.013456814
-0.040424246 -0.03496438 -0.012255471 -0.03294226 -0.051658582 0.0019697752 -0.021070886 0.018219868
-0.0051018256 0.024025463 0.0075090015 -0.0062750867 0.007400058 -0.0047751577 -0.022263886 -0.012769574
-0.012090939 -0.019778168 0.02191856 0.02211407 -0.009473555 -0.0027702802 -0.032660194 -0.0031348793
-0.021370098 -0.0065364987 -0.02077137 0.03778976 -0.026516052 -0.004725239 0.020064397 0.014433519
0.04497361 -0.0008936301 0.011442779 -0.03256083 -0.050384853 -0.012493376 0.0062379474 0.019533485
-0.016589755 -0.02537202 -0.002190053 -0.04300425 -0.021699872 0.02226324 0.043480787 -0.041071717
-0.0024917694 0.03521877 0.0013151681 0.033223685 -0.01502324 0.0019226428 -0.0028002192 -0.014483461
-0.036374286 -0.019884266 -0.028684901 0.0185488 0.0034819937 0.01846563 -0.03822924 0.044760443

action_model._discrete_distribution.branches.1.bias f4 [3]
00000000: 4690 bf3c 4fc4 46bc dc7d c9bc
0.023384225 -0.012131765 -0.024596147

action_model._discrete_distribution.branches.2.weight f4 [2, 128]
00000000: b840 063c 7bac 823c dd8a 89bc c66b 933c
00000010: 04ee 29bd 3839 1ebd cbd3 8a3c c3af 753c
00000020: 8225 aebc 32a9 0e3d f406 3b3d 1d84 123d
00000030: dc32 7abc 5c8b d13c 7baa f73b fc25 153d
00000040: 4c28 c9bc 5b9e 053c 0385 9a3a 241c 153d
00000050: 89bf 3d3b fd05 ad3c e469 fb3c edc3 053d
00000060: 2a47 f5bc 27ed f33c b05f 2d3c a461 ba3c
00000070: 704e 813c 9c86 3d3d 99db 16bd f53d b0bc
00000080: 4c5e 333d 507b 2ebd 1c80 cdbc 07c0 80bc
00000090: 3cc7 b53c f526 223c 9283 b93c 527c f53c
000000a0: 689f 05bd 86d2 753c ad34 ba3c 938f 8b3b
000000b0: 3cdd 6ebc 3a75 fcbc d330 ef3c 24a0 a13c
000000c0: 05a1 d3bc f7b2 5c3d 1b81 df3c fd75 573c
000000d0: c507 b03c 847a 78bc 5f09 0f3c 71b7 bd3c
000000e0: 1c33 b13c 81dc ef3c 9557 fe3c 8df8 7a3c
000000f0: 740d c43c fe11 56bc a261 abbc 183d a33c
00000100: 3261 cf3c 19a4 3a3d 5914 d63c 1bd4 373c
00000110: de5f 9b3c 546a 68bb 1c0e c83a b533 b3bc
00000120: d640 98bb c9c3 9bbc c5fb 3cbd ff0f 953c
00000130: ce0c 7a3c 92b1 c23c c023 673d 81d7 c13c
00000140: 0cb4 1a3c 079f 073d 275f f5bc b79c 80bc
00000150: 8c14 0f3c c06a e2bc d1c9 1e3d df0f c93b
00000160: c415 f83c 49a5 f33c 65f8 143d e742 15bd
00000170: ca4d 253d d34e e53c 96f4 fbbc ae6e 413b
00000180: efaf b0bc 9ed9 65bc 1793 3ebc 34b2 d13b
00000190: 7aa0 3a3d 4e2f 1b3d a39b f2bb 52c5 04bc
000001a0: 1c12 07bc 2e20 1e3c ff26 bb3c 9c03 383c
000001b0: ef6d 8b3c 13fb c6bc f3c2 0dbd 3cee 243c
000001c0: f9dd 123d 3d9e 3cbc 3848 e13c 181a 45bc
000001d0: 3171 e23c 4cda a03c 21cf 06bd de4b ccbb
000001e0: ff0c bd3c 14b9 403c f5ec ca3c bb02 ac3c
000001f0: 4d17 703c 5680 c437 7056 aa3c c37a 92bc
00000200: 07b7 e8bc 7511 04bd 0b0d d43c 6e96 05bd
00000210: 8203 923c 9b55 003d 562e 02bd 7a79 75bc
00000220: eab6 c93c e753 57bd a3e5 4cbd f914 4abd
00000230: fe19 893c 36f3 b6bc a236 afbc 7150 cebc
00000240: 7dbd e83b eb22 f7bc 38cd 99bc 4a88 23bd
00000250: 797a 52bc de78 30bd d05f 72bc ce2c 9fbc
00000260: 4aaa 133d 7ff6 93bc 79cb 6ebc d44b b5bc
00000270: 5e73 acbc bafb 01bd 44ba d43c d391 c33a
00000280: f18d adbc 166b 393d be52 803c 0532 9d3c
00000290: 9106 a3bc 8ce0 cabc 66c4 e7bc d42c e7bc
000002a0: ccfa f43c 785f 37bd f03c c1bc e9ba 86bc
000002b0: b001 bf3a 984b 093d 1828 8bbc 9043 03bd
000002c0: b1ad 9c3c db83 4dbd 33f2 09bd b385 c9bc
000002d0: 2c38 1abd 7e1c e63c a2fe 24bc ef2e 06bd
000002e0: bff1 e5bc a652 89bc 34ce f0bc 25fb 22bc
000002f0: ce39 06bd 999e ac3b 83a0 143d 90e0 33bd
00000300: 193c 8cbc 1d6f d0bc de1f cabc 04c5 65bc
00000310: 70e7 00bd 342a a83c 0789 71bb 4945 e03c
00000320: 7681 303c 12d3 673c 5d65 3d3d c8b7 68bc
00000330: 43de adbc 836a 81bc 0a82 25bd 834d 1cbd
00000340: 28bd d53b b938 31bd 875d 203d ed71 ba3c
00000350: c1f1 67bc 5fd3 fd3b 0425 25bd ec55 01bc
00000360: b692 7cbc a66a 27bd e9bb 12bd 0515 fe3c
00000370: 842c 2ebd 03f2 00bd 4736 443d f9e7 833c
00000380: 1140 3d3c 9697 483c 2bc4 0e3c e6f8 e2bc
00000390: f08c 0ebd 993f 0abc 4572 99bb b4e7 ad3c
000003a0: 5f4e 97bb 9a3b 5cbc ae41 13bd e0e9 0fbd
000003b0: 9c55 9ebc acb4 013d fe27 1e3d 4e5b ccbb
000003c0: 97f3 18bd 086f 013d 442f bfbc 1106 c73c
000003d0: be71 6abd a2d2 a9bc 4431 083d 57a0 113c
000003e0: 3625 86bc d32c 6fbc ea44 d0bc fc7a f4bb
000003f0: ee96 ecbb 850c a03c 925a 95bc ae87 df3b
0.008194141 0.015951386 -0.016789848 0.017995726 -0.041486755 -0.038628787 0.016946694 0.014995518
-0.02125812 0.034829326 0.045660928 0.035770524 -0.015270915 0.025579147 0.0075581647 0.036413178
-0.024555348 0.008155431 0.0011788908 0.03640379 0.0028953275 0.02112102 0.030690141 0.032657553
-0.02994116 0.029776169 0.010581896 0.022751637 0.015784472 0.04627095 -0.03683052 -0.021513918
0.0437911 -0.04259807 -0.025085501 -0.015716566 0.022189729 0.009896983 0.022645745 0.029966507
-0.032622725 0.015003806 0.022730196 0.0042590587 -0.014579114 -0.030817617 0.029198086 0.019729681
-0.025833616 0.05388161 0.027283242 0.013150689 0.02148808 -0.015165929 0.008730262 0.02315876
0.021630816 0.02927995 0.031047622 0.015318048 0.023932196 -0.013065813 -0.020920578 0.019926593
0.025314901 0.045566652 0.02613275 0.0112200035 0.018966611 -0.0035463767 0.0015262994 -0.021875242
-0.004646401 -0.019014256 -0.046138544 0.018196104 0.015261842 0.023766313 0.05643058 0.02366233
0.009442341 0.033110645 -0.029952599 -0.015699727 0.008732926 -0.027638793 0.038766686 0.006135925
0.030283816 0.0297419 0.0363697 -0.036440756 0.04035739 0.027991688 -0.030756276 0.0029515433
-0.021568267 -0.014028935 -0.011631749 0.0063994173 0.0455632 0.03788691 -0.0074038072 -0.008103685
-0.008244064 0.009651227 0.022845743 0.011231329 0.017020194 -0.024289643 -0.034609746 0.010066565
0.03585622 -0.011512336 0.027500257 -0.012030147 0.027641864 0.019635342 -0.032912377 -0.00623463
0.023077486 0.011762876 0.024771193 0.020997396 0.014653993 2.3424782e-05 0.02079317 -0.017880803
-0.028407587 -0.03224321 0.025885126 -0.032614164 0.017823938 0.03133164 -0.03178247 -0.014982576
0.024623353 -0.05257025 -0.050023686 -0.049336407 0.016736027 -0.022332769 -0.021388356 -0.025184842
0.007102667 -0.030168017 -0.018774614 -0.039924897 -0.012846583 -0.043084018 -0.014793351 -0.019430544
0.036051072 -0.018061874 -0.014574879 -0.022130884 -0.021051105 -0.031734206 0.025967725 0.0014920778
-0.021185847 0.04526814 0.015664455 0.01918889 -0.019900592 -0.024765275 -0.028291892 -0.028219618
0.029904746 -0.04476878 -0.023588628 -0.016446548 0.0014572646 0.033519357 -0.016986892 -0.032046854
0.019125791 -0.050174575 -0.033678245 -0.024599886 -0.037651226 0.028089758 -0.010070475 -0.032759603
-0.028069375 -0.016763043 -0.0293952 -0.009947573 -0.03276997 0.0052679298 0.03628589 -0.04391533
-0.0171185 -0.025443608 -0.024673399 -0.014024023 -0.031470716 0.020527937 -0.0036855356 0.027376788
0.010773053 0.014149444 0.046239246 -0.014203973 -0.021224147 -0.015797859 -0.040407218 -0.03815986
0.0065227933 -0.043266986 0.039151695 0.022759402 -0.01415676 0.0077461447 -0.040318504 -0.0078940205
-0.015415838 -0.040873192 -0.035823736 0.031015882 -0.042522922 -0.0314808 0.047903325 0.016101824
0.011550919 0.012243172 0.008713762 -0.027706575 -0.034802377 -0.008438014 -0.0046828114 0.021228649
-0.004617497 -0.0134419445 -0.03595131 -0.03513515 -0.019327931 0.031666443 0.03861236 -0.0062364703
-0.03734168 0.03160003 -0.023337968 0.024294885 -0.05723738 -0.02073032 0.03325011 0.008888326
-0.016375165 -0.014598089 -0.025423486 -0.00746095 -0.0072201407 0.01953722 -0.018231664 0.006821594

action_model._discrete_distribution.branches.2.bias f4 [2]
00000000: 81fb 203c 80fb 20bc
0.009825588 -0.009825587

exp_avg f4 [128, 6]
00000000: ae60 5bb7 b85f 0eb8 ac7a f9b8 625e 22b8
00000010: a3d2 f2b8 69c7 5ab8 a8d8 7d37 2a26 a837
00000020: b41e b537 6c84 eb36 b4e5 d737 4674 2938
00000030: 1ccd 4eb6 7f94 c737 2a70 60b7 8df3 3cb8
00000040: a9f7 f437 882e 0b38 2e12 ab38 4e4e ddb7
00000050: 5c8c b2b7 6ca0 78b8 847c 48b8 d867 b437
00000060: a68e ac37 82cc e835 ac06 aa36 e413 8fb7
00000070: 2c2e 3137 48a9 ad36 75ef 57b9 0f9f 21b8
00000080: 54ae 27b9 9b11 0c39 4176 eeb8 1eea ebb8
00000090: cd84 2cb8 6c66 38b9 86aa 75b9 8e1e 01b9
000000a0: ad5d b9b9 f915 1eb9 88ff 31b9 9f89 efb8
000000b0: cb6d 8fb9 86e2 b8b8 eae8 4db9 a34e 35b8
000000c0: ea79 4137 e687 c3b8 6c2c d938 c8e1 32b9
000000d0: 3e84 1439 a5bd 6439 d9ca 1238 e792 2cb8
000000e0: 23a3 c9b7 f848 2bb8 7b2b 4ab8 0536 8ab7
000000f0: 9c49 8db9 fe1e d1b7 5331 2fb9 ebae 35b8
00000100: 5596 3039 fb0c 0439 c7b5 e1b6 600e 7cb8
00000110: 28ac 9f38 3d6d a4b8 82c4 7238 cb04 f438
00000120: 9ee0 9037 3981 1638 f72f 5db8 5a5c 0936
00000130: 35c1 1fb8 80c4 dfb7 06a3 5f37 5780 94b7
00000140: 1930 36b8 d709 9636 c6cf e0b8 3d7b e1b8
00000150: 8b52 0038 3a3b 3139 6814 d638 2c8e 7d39
00000160: b3c1 f2b8 6790 37b9 4aac b8b8 cbb5 fd36
00000170: 20e6 8bb8 12c0 b338 cbd6 78b7 d028 86b8
00000180: eaa0 27b9 562a 4f37 fd99 7bb9 4213 2339
00000190: b783 2fb9 9744 51b9 14c8 37b8 18ca f635
000001a0: 6b19 a238 949a 1637 a539 1739 3bd7 bf38
000001b0: 2575 51b9 f997 b8b8 de57 86b9 3124 3638
000001c0: abf3 e6b8 83d1 d5b8 2be6 dcb8 01b7 2037
000001d0: fa90 f3b8 6f30 23b8 15e4 1438 f2e2 f537
000001e0: 4608 c5b7 c85f 0a38 a48e eab7 f4e2 c335
000001f0: 3c99 0e36 95c7 6ab5 2fdd 6038 8596 32b8
00000200: 5c5b 7c37 a62c c2b8 2f9d 45b7 169b 8038
00000210: 4fe1 1d38 7744 ba37 9fdd b537 76dd b537
00000220: f7cc 88b7 0bad 13b8 b83b b237 1d30 69b8
00000230: c4f6 d8b8 46ef acb7 c03e 3bb9 25a6 01b9
00000240: fb36 37b9 9c22 8337 2e35 6837 7113 d238
00000250: de24 2439 2d21 9137 723f d037 9a0d bcb8
00000260: 0c1e ac38 6a28 27b9 3842 2339 3cf2 4e39
00000270: 8b4c 3f39 29ff 7838 9d5f 8238 45c6 7c37
00000280: e637 a8b7 29f4 29b8 c111 8cb9 c5ca 1ab9
00000290: 9a24 9fb9 c394 b3b8 927f 1cb8 cd76 2e38
000002a0: 678b 9eb7 8744 0c37 56a9 8838 fc41 0338
000002b0: 52c5 d338 6ba4 3d38 f9e2 43b7 baba 1cb8
000002c0: e46f 9eb7 d600 f7b7 0097 3c38 8947 5538
000002d0: 6684 a438 0294 5fb7 23d3 0438 b077 44b8
000002e0: 200b d4b7 783d 2038 b87a 40b8 0ce1 2cb8
000002f0: 942e 8039 3e26 3eb7 e83d 4739 6352 5339
00000300: f052 f3b8 ab2c 25b6 81a5 c637 9a24 ba38
00000310: 3336 7137 8438 cab7 eac2 3f37 a966 4ab9
00000320: 9f10 1f39 14e8 46b9 859d c738 3dcc 7039
00000330: 399d 6db7 860b b6b8 6033 fd38 4100 1ab9
00000340: ac75 8839 d237 8d39 c2dc bab9 0515 1839
00000350: f73d 0ab9 c6d5 cb39 2541 0bb9 1633 8bb9
00000360: d85b e0b9 7aa4 e1b8 593f 9ab9 e229 b8b7
00000370: 352c d137 1427 7f38 85fb 50b7 1ccb afb7
00000380: fbd1 1539 1aef 33b7 eebc bd38 2e89 e738
00000390: 1cbc 6238 0e0b dfb7 4916 8737 6e09 1fb8
000003a0: 1be1 87b8 448f 1538 3109 d237 d3d0 89b8
000003b0: b498 7439 b7d0 89b8 c513 3339 c701 3e39
000003c0: aafc 9137 e798 9138 8fd2 0539 7b17 ea38
000003d0: 2124 9938 5c83 17b8 823e 1d38 0c32 3a36
000003e0: 5db4 0d39 1b08 b338 4edb 1c38 edee 3fb8
000003f0: 6b6e 9238 dbb5 84b7 92a9 3fb8 8932 0a38
-1.3075927e-05 -3.3944583e-05 -0.00011896095 -3.871171e-05 -0.000115786934 -5.2160965e-05 1.5130419e-05 2.0044932e-05
2.1591179e-05 7.0189617e-06 2.5736961e-05 4.0401028e-05 -3.0815781e-06 2.3791798e-05 -1.3377556e-05 -4.5049517e-05
2.9202392e-05 3.3183518e-05 8.1573016e-05 -2.6381716e-05 -2.1284613e-05 -5.9277212e-05 -4.779968e-05 2.1506028e-05
2.0570424e-05 1.7344867e-06 5.0671715e-06 -1.705619e-05 1.0560772e-05 5.1755087e-06 -0.00020593202 -3.8533526e-05
-0.00015991303 0.00013357999 -0.00011370751 -0.00011249281 -4.1131676e-05 -0.00017585763 -0.00023428546 -0.00012313781
-0.00035355744 -0.0001507624 -0.00016975228 -0.00011422042 -0.00027356888 -8.815997e-05 -0.00019637091 -4.3227e-05
1.1532082e-05 -9.323638e-05 0.000103556406 -0.00017059513 0.00014163644 0.00021814423 3.499803e-05 -4.114481e-05
-2.4037034e-05 -4.0837534e-05 -4.8201047e-05 -1.6476037e-05 -0.0002694846 -2.4929173e-05 -0.00016707675 -4.3316668e-05
0.00016840671 0.00012593337 -6.726684e-06 -6.009487e-05 7.6137774e-05 -7.8404766e-05 5.788031e-05 0.000116357194
1.7270733e-05 3.5883135e-05 -5.2735177e-05 2.0468347e-06 -3.8088492e-05 -2.6675174e-05 1.3329793e-05 -1.7702738e-05
-4.3436976e-05 4.471494e-06 -0.00010719853 -0.00010751791 3.0594452e-05 0.00016902099 0.00010208116 0.00024180923
-0.000115755385 -0.00017506034 -8.805895e-05 7.561151e-06 -6.6709006e-05 8.571161e-05 -1.4831962e-05 -6.39722e-05
-0.00015986306 1.2348019e-05 -0.0002399459 0.00015552065 -0.00016738368 -0.00019957345 -4.3816937e-05 1.8387245e-06
7.7294964e-05 8.976687e-06 0.00014421956 9.1476795e-05 -0.00019975433 -8.802111e-05 -0.00025623938 4.3425887e-05
-0.00011012641 -0.00010195656 -0.000105332896 9.579352e-06 -0.00011614147 -3.8907336e-05 3.5498368e-05 2.9311956e-05
-2.3488083e-05 3.2990967e-05 -2.7961396e-05 1.4594684e-06 2.1248843e-06 -8.7462223e-07 5.3611755e-05 -4.257869e-05
1.5041642e-05 -9.258957e-05 -1.1778712e-05 6.1324026e-05 3.7641552e-05 2.220481e-05 2.1680082e-05 2.1680007e-05
-1.6307908e-05 -3.520869e-05 2.1247062e-05 -5.5596338e-05 -0.00010345646 -2.0615418e-05 -0.00017857086 -0.00012364292
-0.00017472722 1.5632533e-05 1.3840659e-05 0.000100172016 0.00015653993 1.7300796e-05 2.4825076e-05 -8.967072e-05
8.207196e-05 -0.00015941416 0.0001556956 0.0001973593 0.00018243694 5.9365444e-05 6.2166924e-05 1.5066534e-05
-2.005319e-05 -4.052013e-05 -0.0002671611 -0.00014762122 -0.00030354114 -8.563094e-05 -3.7312107e-05 4.1595475e-05
-1.8899982e-05 8.3606055e-06 6.5165266e-05 3.1294287e-05 0.00010098018 4.5214238e-05 -1.1675752e-05 -3.73672e-05
-1.888717e-05 -2.9445084e-05 4.4963323e-05 5.084978e-05 7.8447905e-05 -1.33262965e-05 3.166789e-05 -4.684151e-05
-2.527755e-05 3.820422e-05 -4.5890658e-05 -4.1217587e-05 0.00024448766 -1.13337865e-05 0.00019001181 0.0002015322
-0.00011602591 -2.4612916e-06 2.3680508e-05 8.875989e-05 1.4377339e-05 -2.4106594e-05 1.1429869e-05 -0.00019302465
0.00015169613 -0.00018969207 9.5184e-05 0.00022964268 -1.4162907e-05 -8.680583e-05 0.000120735494 -0.00014686679
0.00026027614 0.00026935205 -0.00035641162 0.0001450368 -0.00013183789 0.0003887845 -0.00013280341 -0.00026550208
-0.00042793038 -0.00010759472 -0.00029420367 -2.1954012e-05 2.4935327e-05 6.0833132e-05 -1.2456328e-05 -2.0956206e-05
0.00014287971 -1.0724902e-05 9.047413e-05 0.0001104049 5.405779e-05 -2.658882e-05 1.6103631e-05 -3.7917336e-05
-6.479231e-05 3.5657795e-05 2.503823e-05 -6.5715656e-05 0.0002332654 -6.571545e-05 0.00017078135 0.00018120474
1.7403003e-05 6.942619e-05 0.00012762308 0.00011162363 7.302338e-05 -3.6123543e-05 3.7489932e-05 2.774529e-06
0.00013513998 8.536895e-05 3.739754e-05 -4.5760466e-05 6.9823895e-05 -1.582031e-05 -4.5695873e-05 3.294883e-05
