results/PressButton/PressButtonAgent_ImitationLearning2/PressButtonAgent/PressButtonAgent-49944.pt (torch, 533134 bytes, 54 tensors)

discrete_act_size_vector f4 [1, 3]
000000 00 00 40 40 00 00 40 40 00 00 00 40
       3.0 3.0 2.0

network_body._body_endoder.seq_layers.0.weight f4 [128, 6]
000000 92 ac 1a be 4b fe 11 3f ae 66 be 3e 34 c2 87 bf
       -0.15104893 0.57028645 0.37187713 -1.0606141
000010 cf 8e 88 3e 17 ee 1e be da d0 92 be 9b 2a d2 be
       0.26671454 -0.15520512 -0.28674966 -0.4104813
000020 fb 56 f6 be b1 42 c6 be 17 59 29 3f c5 6a 47 bc
       -0.48113236 -0.38722757 0.66151565 -0.012171452
000030 12 a0 20 3e da 50 4a bf 7e 22 42 3e c1 ce 73 3d
       0.15686062 -0.7902962 0.1895847 0.059523348
000040 e1 e5 ff bd e5 29 e0 bc 30 d6 75 3e 8d ab c7 be
       -0.12495018 -0.027363727 0.24007487 -0.3899807
000050 45 97 12 be ae 06 8c 3e b4 d5 6b 3e e2 eb b1 be
       -0.14315517 0.27348846 0.2303074 -0.34750277
000060 11 b7 35 bf f3 f1 77 be d0 c1 b4 3e 44 c3 00 bf
       -0.7098246 -0.2421339 0.35304117 -0.5029795
000070 ff dc 25 be ab e0 6f 3d 1f e1 22 3e 7a 59 26 3e
       -0.16197585 0.05856387 0.1590619 0.1624507
000080 68 76 ea 3e c8 f0 aa be 20 e3 16 be 3d 5a 31 bd
       0.45793462 -0.33386827 -0.14735079 -0.04329895
000090 70 e8 16 3e c8 41 46 3e c0 6d 7c 3e 61 42 af bd
       0.14737105 0.19361031 0.24651241 -0.08557583
0000a0 15 95 2b 3f 41 23 6c b9 dd 92 2a 3e bc 01 f2 bd
       0.67024356 -0.00022519847 0.16657586 -0.11816737
0000b0 85 d8 0d 3f 2b ce c2 bd d6 a9 03 3f 21 81 d9 be
       0.5540851 -0.0951198 0.51431024 -0.4248133
0000c0 ca b1 f5 bd df d3 ba be ac 7c 2a be 19 ac ca 3e
       -0.11996801 -0.3648977 -0.16649121 0.39584425
0000d0 b6 98 1f be f4 44 0d 3e 5c d8 43 3e 06 0f 95 bc
       -0.15585598 0.13795835 0.19125503 -0.01819564
0000e0 fa ae d9 be 80 84 29 bf a5 a8 03 3f 19 c1 0f 3f
       -0.4251631 -0.66217804 0.51429206 0.5615402
0000f0 45 7d f7 3c be c8 21 be 18 c4 04 3f 9d 63 cb 3d
       0.0302111 -0.15799233 0.51861715 0.09931109
000100 d8 23 51 be 9a 2f 8b 3e 1d 1f 52 bf 9d d4 05 be
       -0.2042383 0.27184755 -0.82078725 -0.13069387
000110 67 39 c3 be 27 28 b3 3d 7b 35 fa be 79 bc b9 bd
       -0.38129732 0.08747893 -0.48868927 -0.090691514
000120 22 be e8 bd 34 58 87 be 45 41 56 3e 1d 07 cc be
       -0.1136439 -0.2643448 0.20923336 -0.39849177
000130 00 99 ca bc ee aa 09 bf 6f 7c e2 bd 68 e5 ca 3d
       -0.02473116 -0.53776443 -0.1105889 0.09907037
000140 9c 40 77 be 13 c5 6c be 2f f0 1e 3f 99 1e 6d bd
       -0.2414574 -0.23122053 0.6208524 -0.05789051
000150 47 6f 31 3e 6a 5c 6b 3f 6b c1 1c be 92 10 98 be
       0.17327605 0.9193789 -0.15308158 -0.29700142
000160 53 c7 fa be 52 74 e3 be 45 05 18 3f 48 d0 d9 3e
       -0.48980197 -0.44424683 0.5938304 0.42541718
000170 c6 85 73 be de 40 2e bd 5f 2c b3 3d 90 d4 d7 3e
       -0.237815 -0.04254233 0.087486975 0.4215436
000180 60 e4 4a 3f b7 9e 5a 3f f7 bc 9a 3e 6a 1c ae be
       0.7925472 0.8539843 0.30222294 -0.34006053
000190 b7 d2 18 3e 32 76 6d 3e b8 38 a8 bd 8b da 0d 3f
       0.14924131 0.23189619 -0.08213943 0.55411595
0001a0 67 e9 d0 3e 32 50 4c 3f 0a a4 e3 bd e6 b2 b6 bd
       0.40803072 0.7980987 -0.11115272 -0.08920841
0001b0 b3 ad 6d 3f 9c d8 cd be c4 5a ce 3e 57 c6 22 3e
       0.9284317 -0.40204322 0.40303624 0.15895973
0001c0 59 26 e2 3d 47 6a 2b bd eb 7e 49 be 4a b7 3d bf
       0.110424705 -0.0418494 -0.19677322 -0.741078
0001d0 0f 85 69 3f de e3 c3 3d 7e 24 82 bd b6 e4 1b 3f
       0.91218656 0.095649466 -0.063546166 0.6089586
0001e0 d8 8d 07 bc a3 01 64 bf 1e 62 a3 3d b8 77 d1 be
       -0.008273564 -0.89065 0.07977699 -0.4091165
0001f0 c4 c0 3a be 19 f5 fd bd b9 51 95 be 28 f8 d8 be
       -0.18237597 -0.12400264 -0.29163912 -0.42376828
000200 31 c8 1b 3f f7 66 a1 3e 25 32 69 3c e8 04 43 bd
       0.6085234 0.31523868 0.014233147 -0.0476121
000210 68 86 84 be 4f 38 95 bc 5d c7 e9 be 5c f7 e0 be
       -0.25883794 -0.018215327 -0.45659915 -0.4393872
000220 8e 04 0e 3f 94 e3 38 be c6 69 97 3d d1 27 d3 3d
       0.554757 -0.18055564 0.073932216 0.10310329
000230 f1 51 c1 3c ec 7e 5f be 73 7c 2c 3f 1a fa 58 be
       0.023598643 -0.2182576 0.67377394 -0.21189156
000240 a0 3e d5 be 72 d9 26 3f 4f 3c 79 3e 1a a7 50 3d
       -0.41649342 0.65175545 0.24339412 0.05094061
000250 6d 76 0c 3f fb 79 82 be d6 93 49 bd d7 e7 69 be
       0.54868203 -0.2548369 -0.049213253 -0.22842346
000260 ee 8e 17 be d0 59 17 3e 23 bf f7 bd 27 f7 f0 bd
       -0.14800617 0.14780354 -0.12097003 -0.117658906
000270 bf b1 2b 3f 8c be 2e 3d f3 fb 8b bf c5 3c 3e bf
       0.67068094 0.04266219 -1.0936264 -0.74311477
000280 67 c5 44 3f 0a ed 9a bd d6 01 f5 3e 03 4d f7 be
       0.7686371 -0.07564743 0.47852963 -0.48300943
000290 96 39 28 3f ca c5 2b bf fc 70 ac 3e f2 da 79 3e
       0.6571287 -0.6709868 0.3367995 0.24399927
0002a0 cc 43 b7 3e d5 84 1a 3f c1 1e c7 bd d9 32 9b 3e
       0.35793912 0.60358936 -0.09722663 0.3031223
0002b0 e4 84 ed bd aa 10 19 3e 4a 1a e2 be bd 1d ee be
       -0.115976125 0.14947763 -0.44160682 -0.46507064
0002c0 45 06 f5 be 54 b8 1f 3f d8 94 e5 3e 95 54 c9 3e
       -0.47856346 0.6239064 0.4484012 0.39322343
0002d0 b1 63 a8 3e f1 cf f9 be 00 44 4c be 35 c4 38 be
       0.32888559 -0.4879146 -0.19947815 -0.18043597
0002e0 75 b8 8e bc 66 d1 49 bf d2 f8 37 3c c4 6a 2c 3e
       -0.01742194 -0.7883514 0.011228757 0.16837603
0002f0 3a 1c 3b bf 29 7d 58 3f cf d0 49 bf 62 1e c0 3e
       -0.73089945 0.8456598 -0.7883424 0.3752318
000300 ec 46 01 3f 44 7d 73 3f 8a 65 0a bf a9 67 ba 3d
       0.50498843 0.95113015 -0.54061186 0.09101803
000310 8f 68 80 3e 42 ef f2 3e 4c 7c a9 be 9f 6b f5 bd
       0.25079772 0.47448164 -0.33102643 -0.11983418
000320 cb 18 4b bf f9 11 65 3d 7d 7f 96 be e9 3e 85 be
       -0.79334706 0.055925343 -0.2939414 -0.2602456
000330 c8 15 38 bf 06 b0 a0 be 89 e0 c3 be 33 cd 42 3f
       -0.71908236 -0.31384295 -0.38257244 0.7609436
000340 30 26 09 be fc e6 b3 3e 5e b0 b9 3e 0e 09 a6 3f
       -0.13393474 0.35137165 0.3626737 1.2971513
000350 45 de 8d 3f 78 5c 31 3f 1e 74 aa 3e c0 bb dc be
       1.1083456 0.6928172 0.33291715 -0.43111992
000360 db af af 3e 69 7e 9e be 82 30 d3 3d 16 89 45 bd
       0.34313855 -0.30955818 0.103119865 -0.04822644
000370 62 b4 ef be 2b df 0a 3f 1c f8 9b bf 7d cc 52 3f
       -0.4681731 0.5424678 -1.2185092 0.82343274
000380 3c 36 5c bd ca f7 c9 bd 7c ab 2b 3c bd 69 9a bf
       -0.05376266 -0.09861715 0.010477897 -1.2063519
000390 08 68 3a 3b cd 7b 23 bf dc 9e fa 3e be f0 ff 3d
       0.0028443355 -0.6386078 0.48949325 0.1249709
0003a0 e4 fe bf bb e3 17 85 bf b8 4a b7 3c 5e ff 52 3c
       -0.0058592428 -1.0397915 0.022374496 0.012878267
0003b0 1f 31 1f bf a1 6d 6c 3e 8e 45 89 bd 90 d3 55 be
       -0.6218433 0.23088695 -0.0670272 -0.20881486
0003c0 d1 c7 97 3e 3e 6e 2d 3f 14 05 97 3d 80 61 2b 3f
       0.29644635 0.6774634 0.073740155 0.6694565
0003d0 9e ee d3 3c ca 12 72 be a1 5b 28 3f 0b 49 ca 3e
       0.025870617 -0.2363998 0.65764815 0.39508852
0003e0 e8 d6 1f bf 55 cf c1 be f6 86 60 3e 5f 2f 97 3e
       -0.62437296 -0.37853494 0.21926484 0.2952833
0003f0 fd f7 8c 3e db 6d b8 bd 6c 5f 59 3e 0f 47 78 3e
       0.2753295 -0.09005328 0.21227807 0.24245857

network_body._body_endoder.seq_layers.0.bias f4 [128]
000000 71 82 d1 bb fd f4 ef bc 46 1c 8f 3c a1 d9 f3 bc
       -0.0063937237 -0.029291624 0.017469537 -0.02976686
000010 5c 0c 05 3b e0 2d 24 3d 47 35 55 bc 9c b7 61 bb
       0.0020301556 0.040082812 -0.013013191 -0.0034441715
000020 c2 8f 1b 3d c5 14 b4 3d 30 6b 13 3d 35 f6 9c 3c
       0.037978895 0.08793024 0.035990894 0.01916037
000030 cc 4f b4 bc 62 ec 81 3d 3d 1f 54 3d 3d 87 85 3c
       -0.022010706 0.063439146 0.051787604 0.016299838
000040 d1 0c cf 3c 53 ba f8 ba 4a 80 24 3d 09 f5 c4 3c
       0.025274666 -0.0018976427 0.04016141 0.024042623
000050 0e 8f 17 3c 42 b8 ca bc 15 7d bd 3c 22 2e 77 3d
       0.0092504155 -0.024746064 0.023130933 0.06034673
000060 62 ef 48 3d de 43 89 3a e2 0a a0 3d 6a ef 41 3d
       0.04905642 0.0010472497 0.07814576 0.047347464
000070 59 52 8e 3c fa e7 02 bc 7a ec 7c bc a9 44 fd 3c
       0.01737325 -0.007989878 -0.01543724 0.030916529
000080 5c d4 2d 3d d1 63 66 3d e7 02 44 3d 1c 9d 16 3d
       0.04243885 0.056247536 0.04785433 0.036770925
000090 f2 b7 10 3d a6 c3 8c 3c ca d5 e8 bc b8 db 10 3d
       0.035331674 0.017183136 -0.028422255 0.03536579
0000a0 63 be cd 3c af 4a 4e 3d a4 7b 5f bc a0 6a 23 3d
       0.025115198 0.050364193 -0.013640318 0.039896607
0000b0 97 3b df 3c 30 94 de 3c 53 92 cc bc f6 77 3f bc
       0.027250094 0.02717027 -0.024972117 -0.011686316
0000c0 72 ad 09 3d ea a1 0e 3d 8e 03 44 bc 16 6d 98 3d
       0.033612676 0.034822382 -0.011963738 0.074426815
0000d0 d8 42 cb 3c e9 1a 08 3d 28 62 68 ba 81 d9 31 3c
       0.024812147 0.03322879 -0.0008864724 0.01085508
0000e0 3c f9 59 3d af dc 74 bc 59 52 b3 3c 63 ab be 3c
       0.053216204 -0.014945193 0.021889852 0.023275083
0000f0 6c 0f 85 bb 3d e4 1f bc 85 b6 29 bd e0 d4 bc bc
       -0.0040606763 -0.009759006 -0.04143383 -0.023050725
000100 72 01 bd 3c 75 9c cf 3c 75 d9 47 3d 88 d5 8e bc
       0.023071978 0.02534316 0.048791368 -0.017435804
000110 43 c7 c7 3c db 1b 6e 3d 54 5e 7e 3c 2e 19 8c 3c
       0.024387008 0.058132034 0.015525419 0.01710185
000120 a7 27 57 3d f4 3c 1c 3c 24 12 5f 3d a3 38 3f 3d
       0.05252805 0.009536017 0.05446066 0.046684872
000130 1d 42 b2 3c 13 f4 80 bc 13 32 54 3d 9d c2 08 3d
       0.02176004 -0.015741384 0.051805567 0.033388723
000140 5d 94 b7 3c 6d 2e 66 3c f8 0c 96 bc 46 79 29 3d
       0.022409612 0.014049155 -0.01831673 0.04137542
000150 0a 52 1c bc 54 a0 d3 3c b7 77 73 3d 1a b4 1c bd
       -0.009541044 0.025833286 0.05944034 -0.038257696
000160 f8 90 32 3d 27 2b 8a 3b 90 52 32 3d 4e a4 72 3c
       0.043595284 0.00421657 0.04353577 0.014809681
000170 02 ef d2 3c cd ac 3c bc 6b 83 7e bb 80 ff 32 bc
       0.025748733 -0.011515808 -0.0038835655 -0.010925174
000180 1c 9b 7a 3d d4 d5 93 3c 82 ce dd 3c 73 80 ac 3c
       0.06118308 0.018046297 0.02707601 0.021057343
000190 b2 00 e2 3c 97 7a b0 bc 54 d1 ba 3c 74 f9 86 3c
       0.027588222 -0.02154283 0.022804894 0.01647637
0001a0 4a dc 33 3d ba 7e 66 3c 51 e6 ef 3c 56 5f c6 3c
       0.043911256 0.0140683 0.029284628 0.024215382
0001b0 c4 7c 05 3d a5 0b 5d 3d e3 fe f6 bc 34 12 12 bc
       0.03258969 0.053966183 -0.030150836 -0.008915473
0001c0 1e 91 9e bc 0e ca 32 bc 15 88 b2 bc 79 5f c1 bc
       -0.019356307 -0.010912431 -0.021793405 -0.023605095
0001d0 23 69 17 3d 21 c5 4a 3c 99 2a 7e 3d ed 15 30 3d
       0.0369655 0.012376101 0.062052343 0.04298966
0001e0 fd ad 3d 3c 25 4e a8 bc bf 5a 11 3d ec 85 24 3d
       0.011577127 -0.020545075 0.035486933 0.04016678
0001f0 f8 31 c1 3c 48 4a 1c 3d ea 5a 0b 3c cb 91 e9 3c
       0.023583397 0.038156778 0.008505562 0.028511902

network_body._body_endoder.seq_layers.2.weight f4 [128, 128]
000000 3c b5 3a bc 03 67 58 bc c6 dc 21 be db 80 19 bc
       -0.011395749 -0.013208154 -0.15806875 -0.0093691
000010 5b 13 ab bd fc 4d 16 3e 3d 83 e1 3d 58 97 25 3d
       -0.08353301 0.14678186 0.1101136 0.040427536
000020 f1 73 a9 bd 14 b6 03 3e 03 57 17 be 21 92 84 be
       -0.08274067 0.12862426 -0.14779286 -0.25892738
000030 ef c4 11 bd b0 f9 17 bc 7a 86 c5 3c f4 d4 9a 3d
       -0.0355882 -0.009275839 0.024111975 0.07560149
000040 4d 81 39 3e ae ec db 3c 63 05 07 3e 79 40 1f bd
       0.1811573 0.026846256 0.13185649 -0.038879845
000050 e7 6f 91 bc 59 82 89 bd 0d 5b fb bc bf 02 1f 3e
       -0.017753555 -0.06714315 -0.030683065 0.15528391
000060 06 ad 06 3e 5c 7c 00 be 7d d1 de bc 03 aa 73 3d
       0.1315194 -0.1254744 -0.027199501 0.059488308
000070 2b 0f 8a bd a3 35 ae bd 7c 1a 28 bc 85 6f 2a 3e
       -0.06741174 -0.08506324 -0.010260221 0.16644104
000080 f2 ad fe 3d 09 ca 21 be fe ce 42 bd b6 c9 ab bb
       0.12435521 -0.15799727 -0.047560684 -0.0052425517
000090 e2 36 44 3d c2 99 0a bc 5b 4f 28 be ca d5 e2 3d
       0.047903903 -0.00845951 -0.16436522 0.11075933
0000a0 15 0d 89 3d 11 e3 40 3d c7 f4 8a 3c c6 ec be 3d
       0.06691948 0.047091547 0.016962422 0.09322505
0000b0 4f 6a 82 bd e1 4b 1f 3d 1f b8 43 3c 30 36 1b bd
       -0.06367933 0.038890723 0.011945753 -0.037893474
0000c0 94 9c 27 3d 5f 3e 25 3d 32 f4 bc bd c8 9a 19 bc
       0.04092081 0.040342685 -0.09226264 -0.009375282
0000d0 00 02 d5 bc 2b 88 75 bc 87 38 f8 bd 73 4e 7e be
       -0.02600193 -0.014986078 -0.12120157 -0.24834614
0000e0 4e 94 5d bd 2e da 8d 3d 2d 5d 7c 3d bd 6b 0f be
       -0.054096512 0.0692638 0.061612297 -0.14005943
0000f0 f0 27 4a 3c bf 5e 85 bd e2 ae c8 bd 36 27 da 3d
       0.012338623 -0.06512212 -0.09798981 0.1065201
000100 43 de 35 bd 00 c6 c2 bb de c8 c7 3d 30 11 53 3c
       -0.04440142 -0.0059440136 0.09755109 0.012882516
000110 b5 fd d6 bc 37 5b ba 3d 6c 4f 25 bd 04 ea c2 3d
       -0.026244024 0.09099429 -0.040358946 0.09517291
000120 44 31 66 3c 1c f7 80 be 68 48 98 bd 6d 81 14 bd
       0.014049832 -0.2518853 -0.074356854 -0.036256243
000130 72 1f f7 bd fd 32 9b 3d 4c b6 c1 bc da 38 6f 3d
       -0.120665446 0.075780846 -0.023646496 0.058403827
000140 4a 2d 8f be 78 90 06 3e 60 db bc bd eb 65 5c 3d
       -0.2796424 0.13141048 -0.0922153 0.053808134
000150 04 50 0f 3e 23 84 f5 3c 44 c2 e5 3d dc f9 b1 3d
       0.13995367 0.029970234 0.11218694 0.08690235
000160 2f 06 83 3e 3c 55 8a 3d 51 eb 3e 3d 2d 52 cd bc
       0.25590655 0.067545384 0.046611134 -0.025063599
000170 bc 1c d0 3c c8 2c 39 3e 25 9c 9f bc f6 30 64 bd
       0.025404327 0.18083489 -0.019483635 -0.055710755
000180 2c 24 ab 3d d3 d5 e4 bd fe fb 7e 3c 8d ed da 3c
       0.083565086 -0.11173596 0.015563009 0.026724601
000190 ac e5 8d bd 39 6a 52 3d 5c a8 72 3d 75 8c b4 bc
       -0.06928572 0.051370833 0.05924259 -0.022039631
0001a0 74 5a 0c 3e 3e b5 2a 3d 7e 2f 2b 3d 5e 8a 5b be
       0.1370638 0.041676752 0.04179334 -0.21439502
0001b0 ea a3 74 be d8 bb 83 3d 1c 57 96 3d 39 7e a0 3c
       -0.23890653 0.06432313 0.073408335 0.019591438
0001c0 b2 ad 4f bd bf 35 ac 3d 03 af 98 3d 78 ef d1 bd
       -0.050702758 0.08408689 0.07455256 -0.10250753
0001d0 9b dd 5a 3c 67 27 a1 bd cc 80 25 3e 38 bb f7 3d
       0.013358499 -0.078688435 0.16162413 0.12096256
0001e0 ed 28 dc bd 2a 7a 8e bd 5f 0b bc 3d 0b 23 f6 bd
       -0.107499935 -0.06956895 0.09181856 -0.12018403
0001f0 00 16 f8 bc 1a f6 87 bd 61 ff 13 be 5b cf d5 3d
       -0.030283928 -0.06638737 -0.14452888 0.104399405
000200 c5 e5 8a 3c 63 24 58 bc 33 2f 66 bd ef b3 e5 3d
       0.016955266 -0.013192269 -0.056197356 0.1121596
000210 ae af 17 3d fc f4 10 bd 2d a3 25 3e 9d 5a 3e 3e
       0.037032776 -0.035389885 0.16175528 0.18589254
000220 25 00 0b be 3b 34 b5 3c c0 ca 6f 3d 71 5a 26 3e
       -0.13574274 0.022119632 0.058542967 0.16245438
000230 38 92 10 be 64 d6 56 3b 5b ff ba bc d6 b1 52 3b
       -0.14118278 0.0032781595 -0.022826841 0.0032149456
000240 4d 09 49 3e c1 07 f1 bc eb 73 e0 37 e1 09 f0 bd
       0.19632454 -0.029422643 2.675686e-05 -0.11720634
000250 a9 7c c2 bd 84 2e 2a be 30 bd 1f bd 76 80 94 3d
       -0.09496433 -0.16619307 -0.038998783 0.072510645
000260 4b 0e 2d bd 31 5a 12 be 08 be 0f bc 1f 2c f1 3d
       -0.04224996 -0.14292218 -0.008773334 0.117759936
000270 29 0b 15 bc 20 dc 2a be 43 3c 39 be 38 67 82 bc
       -0.009096899 -0.16685534 -0.18089394 -0.01591836
000280 f8 f7 d3 3d 58 bd be 3c ef 5c a5 bd a0 7a 14 3e
       0.10350031 0.023283646 -0.08074366 0.14499903
000290 90 70 fa bc 6c bd dd bd 99 6c 8b 3d f0 9a a2 bd
       -0.030571252 -0.10827145 0.06807823 -0.07939708
0002a0 7c 88 5a bd f9 06 41 bd 5f 31 ce bd d2 4e 1c bd
       -0.053352818 -0.04712579 -0.100680105 -0.038161106
0002b0 dc 69 42 3a 79 9d 1c bc f8 27 3d b8 2e 4b e7 bd
       0.0007416287 -0.009559029 -4.5098335e-05 -0.11293636
0002c0 83 0c 02 be 5d 38 80 3e ae 06 12 bd 24 db e5 bd
       -0.12700085 0.25043002 -0.0356509 -0.112234384
0002d0 2e df de bd 62 ce 68 3e e8 4f c6 3a 61 6b 48 be
       -0.10882412 0.22734979 0.0015130015 -0.19572212
0002e0 25 28 e7 bd 73 01 f1 3b f1 ce 9c bd ca 61 cd bc
       -0.11286954 0.007354909 -0.076566584 -0.025071044
0002f0 d2 c9 69 be 2d 5d 5e 3d 01 94 cd bc 1c 30 05 3d
       -0.22830895 0.054288078 -0.025094988 0.032516584
000300 bc 5c 9d 3d 24 17 0b 3d 1d 21 e7 3d 94 da 50 be
       0.07683703 0.033957615 0.11285613 -0.20395881
000310 8c 63 3e bc 08 bc 5b 3c 14 42 a8 bd 7d 60 8d bd
       -0.0116204135 0.013411529 -0.082157284 -0.06903169
000320 a0 49 22 bd 5f 40 74 be 35 79 23 be a6 eb 24 3e
       -0.039620996 -0.2385268 -0.15964206 0.16105518
000330 67 9c 0c be b5 2e 6d 3e 92 7c b6 bc 65 b0 4f be
       -0.13731538 0.23162349 -0.022276197 -0.20282133
000340 0c 80 96 bd a5 b2 bc bd da ec 3f be c6 90 26 3e
       -0.07348642 -0.09213761 -0.18742695 0.16266164
000350 58 62 b1 3d cb 3e cc bc 6e 23 17 be 30 cb 26 be
       0.08661336 -0.024932286 -0.14759609 -0.16288447
000360 fa 39 b6 3d d4 23 8e 3d 84 8c c8 3d 10 53 21 be
       0.08897777 0.069404274 0.09792426 -0.15754342
000370 5b 28 1b be 21 f4 41 bd 56 60 0c ba 9a 56 50 bd
       -0.15152113 -0.04735196 -0.00053549313 -0.05086384
000380 78 21 27 bd a0 ca b7 bd ea 5d 94 3b 46 1f 14 be
       -0.040803403 -0.089741945 0.004527797 -0.14465055
000390 bc b5 23 bd f9 2f 53 be 46 20 6d 3d 51 5a a6 3d
       -0.039968237 -0.20623769 0.057892106 0.08122695
0003a0 6b e3 f9 3d ba 86 c3 3c ee a0 2a be 39 bf a5 bd
       0.1220158 0.023867954 -0.16662952 -0.080931135
0003b0 0c f8 10 3e 9b 6d ca 3d 25 8a 54 bc 40 e4 aa 3d
       0.14157122 0.09884187 -0.012972389 0.083443165
0003c0 b9 63 3f 3d ac 1b c2 3d 37 a3 ff bd c9 7c ce 3d
       0.046725962 0.09477934 -0.12482303 0.10082395
0003d0 ce a4 f2 3c e4 d3 90 bc a7 6a 37 3b 74 52 53 3e
       0.0296196 -0.017679162 0.0027987154 0.20636922
0003e0 a0 82 27 bd 02 f6 c0 bd a0 7e 69 3d b7 00 81 bd
       -0.040896058 -0.09421922 0.057005525 -0.062989645
0003f0 7d b0 bd 3d 96 67 3a 3d 67 21 3a be d1 26 96 3c
       0.09262178 0.045508943 -0.18176804 0.018329056

network_body._body_endoder.seq_layers.2.bias f4 [128]
000000 b9 98 e7 3b db 7e d2 3c ca a3 6a 3b 76 c5 b4 3c
       0.0070677665 0.025695255 0.0035803192 0.022066813
000010 1e cb 41 bb 60 ed 70 3c e2 03 23 3d 2a ad d8 3c
       -0.002957053 0.014705032 0.039798625 0.026449759
000020 76 3d 5f 3c e5 09 17 3d 36 5a 07 3d b0 fc d2 3c
       0.013625493 0.03687467 0.033045016 0.025755256
000030 92 4a 92 3b 0c d2 20 3d 1e ec 26 3c 7b 2d a5 3c
       0.004464456 0.039262816 0.010188131 0.020163288
000040 ad ca 00 bb ff fe c1 3c c3 21 98 3c 48 d0 48 3c
       -0.0019652054 0.023681162 0.018570786 0.012256689
000050 7d 4c 97 3c 93 f4 c8 3c b2 5e 0e 3d 00 c0 18 3d
       0.01846909 0.024530685 0.034758277 0.03729248
000060 15 cf db ba 87 bf 05 3d 9f 03 37 3c 08 a8 45 3c
       -0.0016770089 0.032653358 0.011170297 0.012063988
000070 fa a3 c7 3c 21 93 f3 3c 43 80 c4 3b 90 2a 36 3d
       0.024370182 0.029733242 0.0059967353 0.044474185
000080 f2 d3 f1 3c 33 28 9b bc 8a cf 3d 3c 62 70 73 3c
       0.029520009 -0.018940067 0.011585126 0.014858337
000090 c2 13 15 3c b6 99 4f 3c 63 3a 09 3d 8b d8 c6 3c
       0.009098949 0.012670925 0.033502948 0.024273178
0000a0 7f 70 84 3c cf 55 f7 3c ba 63 c5 3c 8c 1f ee 3c
       0.016166924 0.030192284 0.024095405 0.029067777
0000b0 b7 ad 96 3c c5 17 95 bc 7f ec e7 3c 39 31 d8 3c
       0.01839338 -0.01819981 0.028311012 0.026390659
0000c0 2c ab 78 bc 95 ad fc 3c 3c 82 f2 3c 3f 50 fd 3c
       -0.015177529 0.03084449 0.029603116 0.030922053
0000d0 a5 10 a8 3c 3d 2c 29 3d a8 22 3e 3d 1c 8b d3 3c
       0.02051575 0.041301955 0.04641977 0.025823168
0000e0 7d 7b 8b 3c 2c 60 6b 3c 1c 63 2e 3d 5c b7 81 3c
       0.017026657 0.014366191 0.042574987 0.015834503
0000f0 c8 a5 0c 3d 3f 4d 5b bb 51 35 13 3c 08 fa df 3c
       0.03433779 -0.003346279 0.00898488 0.027340904
000100 94 22 e8 3c ba 62 50 3d c6 4e e8 3c 3e 7d 0c 3c
       0.0283368 0.050875403 0.028357875 0.008574782
000110 b7 de b1 3c 93 bd 77 3b f9 68 9b 3b cd fc 26 bc
       0.021712644 0.0037802204 0.0047427383 -0.010192108
000120 dc 51 2d 3c 69 6b 6d bb 8d fd 44 bc 49 63 fd 3c
       0.010578599 -0.0036227352 -0.012023342 0.030931132
000130 c3 6e df 3c 37 72 09 3d 75 b5 de 3c 4c 25 01 3d
       0.027274495 0.03355619 0.027186135 0.03152971
000140 fc 77 8b bb 5c 71 c4 3c 78 56 b3 bc fc 99 18 3d
       -0.0042562466 0.023979835 -0.021891817 0.037256226
000150 34 c8 04 3d c1 dd e9 bb 58 0e 3a 3d 4b 10 45 bb
       0.03241749 -0.007137031 0.045423836 -0.0030069526
000160 d8 b3 72 3c df c5 02 3d 33 99 a3 3c ff 10 61 bb
       0.014813386 0.031926986 0.019970512 -0.0034342406
000170 a7 6c f1 3c 76 94 ea 3c 94 38 a3 bb 64 eb b6 3c
       0.029470755 0.028635245 -0.00498111 0.02232904
000180 5a 1e 73 3c 1a 7c 1d 3d c2 a8 99 bc 69 b2 ef 3c
       0.014838779 0.03844843 -0.018757228 0.029259877
000190 63 d6 c7 3c 60 97 0c 3c 83 30 53 3c 20 8c bc 3a
       0.02439422 0.0085810125 0.012889984 0.0014385022
0001a0 49 28 90 ba 3b 75 44 3b 6b cf 0b 3d 1c 97 b3 3c
       -0.0010998334 0.0029977101 0.034133356 0.02192264
0001b0 99 f8 04 3c 1d ec c2 bc 48 fe 31 bb 87 d8 b2 3c
       0.008115911 -0.023794228 -0.002715962 0.021831764
0001c0 97 8a db 3c 82 3c d0 3c 62 21 8a 3c 71 57 4d 3c
       0.026799483 0.025419477 0.016861621 0.012533055
0001d0 4c 04 e6 3c 4c 66 24 3c 00 3d 07 bc ff 08 6a bc
       0.02807822 0.010034155 -0.00825429 -0.014284371
0001e0 23 fd ea 3c 76 28 ce 3c 43 7d bf 3c ee 01 92 3c
       0.028685158 0.025165778 0.02337516 0.017823186
0001f0 c3 08 d3 3c 00 2f 0f bc 6f f7 b8 3c 32 1f a6 bb
       0.025761014 -0.008739233 0.022578923 -0.0050696367

action_model._discrete_distribution.branches.0.weight f4 [3, 128]
000000 ec e3 e3 bb 58 15 98 bb 49 9b a4 3c 78 c6 87 bb
       -0.0069546606 -0.0046412162 0.020093577 -0.0041435324
000010 0d 01 2a 3c 0e ab 48 bd f0 e7 12 3c 06 12 c5 bc
       0.010376227 -0.048991255 0.008966431 -0.024056446
000020 d1 8d 86 3c 43 73 2b 3d 31 79 39 bd 03 f8 93 ba
       0.016425045 0.04185797 -0.045281593 -0.0011289123
000030 ec 69 0d 3d 60 1a 28 bc e7 50 0e 3d 18 e2 e6 bc
       0.034524843 -0.010260195 0.034745123 -0.028183982
000040 83 22 ce 3c c1 4a 3e 3d 3b d2 d2 bc f3 11 30 bd
       0.02516294 0.04645801 -0.025735011 -0.042985868
000050 2c ac cb bc 85 0d 94 bc 2c 74 b1 3c ab ce 0f 3d
       -0.024862371 -0.018072853 0.02166184 0.035109203
000060 f5 e6 9c 3b 88 9a d0 bc 09 28 c4 bc a0 4d 29 bd
       0.0047882744 -0.025464311 -0.023944872 -0.041333795
000070 aa d7 02 bd 5d cd 41 bc 18 9b 08 3d 90 5f 3e bc
       -0.031943955 -0.011828748 0.033351034 -0.011619464
000080 59 a0 88 bb 1b bc 1d 3d c4 f7 3e 3c 9b ee 5b 3c
       -0.0041695056 0.03850947 0.011655752 0.013423587
000090 4b 0f 37 bd be 15 49 bc c6 9f 06 bd 60 82 f4 bc
       -0.04469232 -0.01227325 -0.032867216 -0.029847324
0000a0 47 85 8c 3c 25 04 35 3c 19 6a 88 bc 68 38 ea bc
       0.017153395 0.011048351 -0.016652154 -0.02859135
0000b0 a5 20 ab 3c c3 b1 b8 3c c0 b2 24 bd 60 72 16 bd
       0.02088959 0.0225457 -0.04020953 -0.03673017
0000c0 fb 81 e9 3a 76 9f 90 3c 3f b2 49 bc 34 eb 64 3c
       0.0017815226 0.017654162 -0.012310564 0.013972092
0000d0 67 2f db bb 66 01 90 bd dc 11 33 3d 54 62 26 bb
       -0.0066890004 -0.07031517 0.043718204 -0.0025388198
0000e0 0b cb 24 3c 5b 38 06 bd 11 fa 1e 3d 62 ad 03 bd
       0.010058175 -0.03276859 0.0388127 -0.032147773
0000f0 61 f9 41 3c 3c 2f 96 3c a7 56 f1 3c 39 a2 25 bc
       0.011839242 0.01833307 0.029460264 -0.010109478
000100 7c 82 8a bc 72 d7 f1 3c d3 f0 6d bc 23 30 e8 bc
       -0.016907923 0.029521678 -0.014522749 -0.028343266
000110 37 1b ca bc 57 0b 1b 3c cf 33 ff bc 20 55 d6 3b
       -0.02467118 0.009463153 -0.031152634 0.0065409094
000120 ee 7a 24 3d 29 2c 8e 3b 27 6f 56 3c 68 e2 7b bb
       0.040156297 0.0043387604 0.013088024 -0.003843451
000130 b9 21 02 bc 85 5d 97 bb c0 c6 20 bc 28 d9 cd 3b
       -0.00794261 -0.0046193027 -0.009813011 0.0062819906
000140 4e 44 df bb 71 3b 3a bc 27 aa 09 bb c6 bb 00 bd
       -0.0068135625 -0.011366711 -0.002100596 -0.031429075
000150 bb d2 ac bc 29 be f6 3c 90 6b 8b 3c 6a f9 a0 3c
       -0.021096578 0.030119972 0.017019063 0.01965018
000160 f7 e5 c9 bc 69 13 90 3d 74 d6 83 bb 81 c7 85 3c
       -0.024645789 0.07034952 -0.0040233675 0.016330482
000170 71 cc a1 bb 54 ce b9 3c 3c a1 8f 3c 5b ce b8 bc
       -0.0049377014 0.022681393 0.017532937 -0.022559335
000180 8a b8 1f 3d ae d4 2c bd 7d 2c 30 3d 25 37 9a 3c
       0.03899435 -0.042195015 0.043011177 0.018825123
000190 22 98 13 bd 64 ec cc bc e5 1a 6b bd 55 fd 0e 3d
       -0.036033757 -0.025015064 -0.057398695 0.034909565
0001a0 19 10 6a bc 30 ea 1a 3c 10 1c 5e bc b0 87 61 bd
       -0.014286065 0.009455249 -0.013556495 -0.055061042
0001b0 6c b7 bf bc 68 33 ae 3c 90 f0 d6 3b 37 7f 80 bd
       -0.023402892 0.021264747 0.006559439 -0.06274264
0001c0 14 8e cc bc 41 29 3c 3c 17 7e ba bc 36 83 31 3d
       -0.024970092 0.011484445 -0.022765202 0.043338023
0001d0 e0 31 98 bc 8c fa ed 3c cf ac 56 3c fc 55 b7 3b
       -0.01857847 0.029050134 0.013102724 0.005594967
0001e0 c4 9b 7f bd 0b 25 c9 bc f3 b9 8b bc f7 70 d1 3c
       -0.06240441 -0.024553796 -0.017056441 0.025566561
0001f0 0e 6c 2a bc b0 01 0f 3d 56 73 12 bc a1 b2 ca 3c
       -0.010401739 0.03491372 -0.008938631 0.02474338
000200 da d0 8a bd b3 47 76 bd 39 2c ba 3b 56 d3 a2 3b
       -0.067781165 -0.06012697 0.0056815413 0.004969041
000210 63 71 42 3b a0 08 6d 3d f2 60 5e bd 7a b7 21 3c
       0.0029669635 0.057869554 -0.054291673 0.009870404
000220 15 f5 9b bb d9 54 8b bd 32 23 71 3c e7 a1 03 3c
       -0.0047594407 -0.06803293 0.014717864 0.008034206
000230 c0 db d9 bc 63 35 93 ba 70 13 32 bc 24 d7 f3 3c
       -0.026594043 -0.001123112 -0.010868892 0.029765673
000240 05 d2 b0 bc 67 9c 24 bd 8c 3b 9e 3c 87 96 0d 3d
       -0.02158452 -0.04018822 0.019315504 0.034567382
000250 b6 8d 26 3c 31 f5 86 3c f5 63 36 bd 80 2d 0a bd
       0.010165622 0.016474338 -0.04452892 -0.0337348
000260 3b 21 1e bc 17 72 6e 3c ed 47 b1 3c c0 9d 12 3d
       -0.009651477 0.014553568 0.021640742 0.035794973
000270 b1 f5 1f 3d 65 cc 82 3c 2c b0 4c 3c 8f e6 53 3d
       0.03905267 0.015966604 0.0124931745 0.05173355
000280 50 8f 7f bc fa 1e 65 bc f7 34 d9 3c 49 24 23 3c
       -0.015598133 -0.013984436 0.026514513 0.0099573815
000290 6e 89 e2 3c fa 85 a0 bb 02 06 db 3b ae 42 9d 3c
       0.027653422 -0.0048987838 0.006684066 0.019196834
0002a0 9d 09 3e 3c 1e 53 c6 bc 3c 96 93 bb 27 b8 c5 3c
       0.011598972 -0.024209555 -0.0045039933 0.024135662
0002b0 0c 59 69 3b d5 2c f0 bc a1 bc dd 3b f9 88 49 3c
       0.0035606055 -0.029318253 0.006766871 0.012300723
0002c0 6b d5 19 3a 3b 79 65 ba 77 3d 12 bc 36 dc 26 bd
       0.00058682886 -0.00087537215 -0.008925787 -0.040737353
0002d0 35 d8 7f 3c 12 64 c9 3d ac 36 39 bd d4 4f 4d bb
       0.015615513 0.0983354 -0.045218155 -0.00313281
0002e0 b5 19 8f bd 03 54 89 3c 8d e8 61 bd 9c 61 a6 3c
       -0.06987325 0.016763693 -0.05515342 0.020310216
0002f0 c6 25 c3 ba 59 ed 05 bb 87 51 09 3d 38 67 2b 3c
       -0.0014888577 -0.002043566 0.033525016 0.010461621
000300 69 fe 27 3c 97 18 70 bd 6f bf 85 bb 0f fb 16 3c
       0.010253527 -0.0586172 -0.0040816586 0.0092151305
000310 38 f0 64 3c 0d f7 ac bb c4 ad 47 3d e1 96 88 bc
       0.013973288 -0.005278474 0.0487497 -0.016673507
000320 69 c9 84 bd a6 58 b4 bc 45 9a 08 bd c4 85 b8 3c
       -0.064837284 -0.022014927 -0.033350248 0.022524722
000330 4a f0 59 3c 9a b0 ce 3b 53 cd 62 3b 19 5b 77 bd
       0.013301918 0.0063076736 0.0034607246 -0.060389612
000340 d0 01 f3 3c 8e ea 22 3c b2 f5 a4 bc 7b 3b 6a 3d
       0.02966395 0.0099436175 -0.020136688 0.05718563
000350 60 19 8c ba 16 5a 6c 3b fb fc 2f bd 37 df 4b bb
       -0.0010688715 0.0036064438 -0.04296587 -0.0031108388
000360 a0 71 a0 39 7a 39 86 bd 61 05 65 3c 5a 98 52 bd
       0.00030602235 -0.065539315 0.013978333 -0.051414825
000370 f6 27 5a 3c 83 c3 43 bd 3d b6 33 bc 9f 3f 2f 3d
       0.0133151915 -0.047793876 -0.010968742 0.042785283
000380 1d 5b 57 bb 70 55 1d 3d be 20 99 bd 72 09 d4 bc
       -0.0032860704 0.038411558 -0.07476948 -0.02588341
000390 e5 82 7e 3c fb 7b 74 3c 5f ed 23 3d 43 bc 7f 3c
       0.015534137 0.014922137 0.040021297 0.01560885
0003a0 a8 12 9e ba 5b 26 68 bd 07 b7 47 ba 4c aa 58 3c
       -0.0012060003 -0.056677204 -0.0007618521 0.013224196
0003b0 81 2f 80 3c 32 d0 1c bd 6c fa 7d bc 03 32 81 3d
       0.015647652 -0.038284488 -0.0155016 0.06308367
0003c0 8d da d4 3c 68 d9 83 ba c9 72 d8 3c 42 cb d7 bc
       0.02598312 -0.0010059299 0.026421921 -0.026342038
0003d0 e9 fb 02 3d 38 22 81 bd e1 b5 ef bb d5 5d df bc
       0.03197852 -0.06305355 -0.007315383 -0.027266422
0003e0 c4 00 2c 3d 33 fc 32 3c 4f e1 84 3c b6 90 38 bd
       0.041992918 0.010924387 0.016220717 -0.045059882
0003f0 64 b0 eb 3c fa 9f 70 3b b0 33 90 3c 18 12 72 3c
       0.028770633 0.0036716447 0.017602772 0.014774822

action_model._discrete_distribution.branches.0.bias f4 [3]
000000 c2 43 29 bc 0f ee a8 3c 59 5d ee bc
       -0.010331096 0.020621328 -0.029097246

action_model._discrete_distribution.branches.1.weight f4 [3, 128]
000000 df 6a a7 3b 12 45 c5 3c d3 95 82 bc ea 9d fa 3c
       0.0051091756 0.024080787 -0.015940582 0.030592877
000010 02 e2 1d bd b1 06 f4 bc 0a 28 ea 3c 4f fb fc 3c
       -0.038545616 -0.029788347 0.028583545 0.030881552
000020 fb 31 34 bc 7b 20 06 3d 07 52 5c 3c 38 9a 53 3d
       -0.010998244 0.03274582 0.013447291 0.051660746
000030 12 f3 92 bc 62 1a 37 3d d6 16 7b bc 41 31 b1 3c
       -0.01793817 0.044702895 -0.015325269 0.021629931
000040 3a 09 ee bc 4f 0b 2e 3c 8f 2a 14 3d 47 d6 95 3c
       -0.029057134 0.010622813 0.0361734 0.018290652
000050 72 b8 02 3d 0a ca b9 3c 1a c0 ad 3c 13 f5 a0 bb
       0.031914182 0.022679348 0.021209765 -0.0049120276
000060 b3 b4 63 bc 37 a0 06 3d 05 f4 a4 3c 0e 55 1b 3d
       -0.0138980625 0.032867637 0.020135889 0.03792291
000070 95 bb 1e 3d 4e f3 50 3d ec 2b c4 bc fd 4a 80 bc
       0.03875311 0.051013283 -0.023946725 -0.015660757
000080 53 f1 e0 3c 4c 5b d2 bc 7c e5 fe bc 26 4a ec bc
       0.027458822 -0.0256783 -0.031115286 -0.02884395
000090 e5 21 cd 39 60 d9 e3 3c 88 03 f2 3c 8b 93 e9 3c
       0.000391259 0.027813613 0.0295427 0.028512737
0000a0 a6 95 02 bd f7 9a 4b bc 0a c4 d1 3c b5 f0 11 3c
       -0.031880997 -0.012427083 0.025606174 0.008907487
0000b0 f0 aa e8 bc 21 d0 73 bc 0d 19 0f 3d 5d d5 e4 3c
       -0.028401822 -0.014881165 0.034936 0.02793377
0000c0 fe 49 ae bc 8b 60 b3 bc 13 4f ac 3c 19 3c 1f bb
       -0.021275517 -0.021896621 0.0210338 -0.0024297296
0000d0 a1 d2 23 3d f9 df d0 bc 57 15 3d bb 92 4b 01 3d
       0.039995793 -0.025497423 -0.002885183 0.03156621
0000e0 f5 0d 18 3d a4 6f d7 3c 64 3f bf bc 64 d5 66 3c
       0.037122685 0.026298352 -0.023345657 0.014088962
0000f0 11 22 06 3d 95 88 e7 bc a6 86 e7 bc 60 89 d5 3c
       0.032747332 -0.02826337 -0.028262448 0.026066482
000100 c7 68 b5 3c ee ae 5d bc 19 61 f5 3c a2 dc 35 3c
       0.022144688 -0.013530476 0.029953526 0.011099966
000110 59 ca b1 3c 4e c8 d7 bc 9d 7a d4 bc 97 fd 08 bd
       0.021702932 -0.02634063 -0.025937373 -0.033444967
000120 43 6a db 3c 47 95 c6 bc 99 ad 08 bd 7f c2 8c bb
       0.026784068 -0.024241103 -0.03336868 -0.0042956467
000130 f5 f9 0a 3d cb 52 dc 3c 3f 01 ba 3c 74 40 ae 3c
       0.033929784 0.026894948 0.022705672 0.021270968
000140 3d f8 99 bc e5 aa ec 3c 26 51 47 bc e3 63 91 bc
       -0.018795127 0.028890083 -0.012165343 -0.017747825
000150 11 63 36 3d 6f 4a b5 bc 1f 7a 83 3c 7f ba 80 3c
       0.04452807 -0.02213022 0.016049443 0.015713928
000160 98 ac 13 3d 02 5b 03 3a 8e 75 4b bb 87 f0 13 bc
       0.03605327 0.00050108146 -0.003104541 -0.009029514
000170 d1 c0 f8 3c c0 43 e5 3c 9d 65 2e bc f5 a2 5c bb
       0.03036538 0.027986407 -0.010644344 -0.0033666466
000180 6c 39 25 bd 73 20 9b 3c 15 35 38 3c 8f 8c d0 bc
       -0.040337965 0.018936371 0.0112431245 -0.025457649
000190 e5 f4 06 3d 3a 0c e5 3c c8 e8 09 3c 46 66 0b bd
       0.032948393 0.027959932 0.008417316 -0.034033082
0001a0 66 fb a6 3c d1 a1 82 3c 30 39 d8 3c 34 60 45 3c
       0.020383548 0.0159463 0.026394457 0.012046862
0001b0 81 e0 5d 3c 96 a1 2a 38 e6 6a 66 bc f5 dc d7 3c
       0.013542295 4.0681647e-05 -0.0140635725 0.026350478
0001c0 f1 71 a9 3c 44 b2 a4 bb 43 75 d1 3c f3 59 f7 bc
       0.020684214 -0.0050261337 0.02556861 -0.030194258
0001d0 7f 85 62 3c f8 8d 47 3c 08 95 f1 bc 1b a1 8a bb
       0.013825773 0.012179844 -0.029490009 -0.004230631
0001e0 ba e4 b6 3b fd 6e 2f 3d 43 56 0d 3d 8c c9 0f 3d
       0.0055814655 0.042830456 0.034506094 0.03510432
0001f0 6c 35 1d 3d 34 7e c0 bc 14 60 ff 3c 97 77 ff bc
       0.038381025 -0.023497678 0.031173743 -0.031184955
000200 a5 91 a3 3b a8 36 ee bc a9 7a 26 3c a1 02 70 bc
       0.0049917274 -0.029078797 0.01016108 -0.014649064
000210 79 af d6 3b 70 a4 56 bd f5 6d ad 3c 87 b8 72 bc
       0.0065516797 -0.052402914 0.021170596 -0.014814503
000220 3d 2a 00 bb b3 de 6a 3a 5a e5 42 bd cf ff 24 3c
       -0.0019556426 0.00089595764 -0.047582008 0.010070755
000230 5d 48 25 3d ee 22 2e 3c a1 ad 87 3d 76 60 93 bc
       0.040352214 0.010628445 0.06624914 -0.017990332
000240 21 b5 b7 3c c3 c2 07 39 9f 6f 0b bc b2 36 5e bd
       0.022425236 0.00012947158 -0.008510499 -0.05425138
000250 75 8c 88 bc e6 0b 82 bc 1a dd 59 3c cc 38 aa bc
       -0.016668538 -0.015874814 0.013297344 -0.020779036
000260 a8 21 b5 3c de dc 85 bd 6d 79 bf bb 66 b1 93 bd
       0.022110775 -0.06536268 -0.0058433325 -0.072115704
000270 ec 20 15 bc f1 f3 83 3c 5a 78 a3 bb b2 62 46 3d
       -0.0091020875 0.016107531 -0.0049887123 0.048433967
000280 40 5d 80 3c a7 c2 51 3c e3 99 78 3c 4c 27 14 bd
       0.015669465 0.012802756 0.015173408 -0.03617029
000290 e2 b1 9b bc 1f b2 04 bb 87 19 27 3c 1b 54 f5 bc
       -0.01900572 -0.002024777 0.010198957 -0.029947331
0002a0 ef 95 98 bd c7 d5 4e 3d f9 98 fa 3b 08 d9 45 3c
       -0.074504726 0.050496843 0.0076476303 0.01207567
0002b0 88 46 8c bd 53 e6 e4 bb be 54 e2 bc ef d8 55 bd
       -0.0684939 -0.0069854646 -0.027628299 -0.052208837
0002c0 5c 02 df 3c 90 5b 3d bd aa b3 ab bb f2 68 0b 3d
       0.027222805 -0.0462299 -0.0052399235 0.03403563
0002d0 be 30 98 ba 02 cb 03 bd 86 c9 5e bd 4c ad b7 bc
       -0.0011611206 -0.032176025 -0.054391406 -0.022421502
0002e0 86 0a 8f 3c e4 1b 15 bd 86 f3 0f bc a6 43 58 bc
       0.017461073 -0.03640355 -0.008786088 -0.013199722
0002f0 e9 d7 fa bb 97 e3 dc 38 03 ae 51 ba 6b ea 5d 3c
       -0.007655133 0.000105328094 -0.0007998647 0.013544659
000300 99 af 3e bd 96 87 36 bd 81 93 b4 bb f5 66 e1 bc
       -0.04655418 -0.0445629 -0.005510748 -0.027514914
000310 b6 85 7a bd b6 cd b1 3b 5a fc 1a bd db a6 96 3c
       -0.061162673 0.005426134 -0.037838317 0.01839011
000320 fb 04 4e 3b 3e bc 8d 3c 27 73 d3 3a a8 8a f9 ba
       0.0031436074 0.017301675 0.001613234 -0.0019038515
000330 d7 3e f7 3b d7 28 47 3c d9 e7 a9 bc 79 37 c6 bb
       0.007545333 0.012155733 -0.020740436 -0.0060490933
000340 3b a9 c7 bc 2d 8d e4 bc eb 40 b8 3c c0 cf a9 3c
       -0.024372688 -0.02789935 0.022491893 0.020728946
000350 a9 25 95 bb 94 0d 8a bc 24 af 11 bd 57 99 07 bc
       -0.0045516086 -0.016852178 -0.035567418 -0.008276305
000360 5a 0f ce bc ed 59 ea bb b3 7e ba bc e7 3e 7c 3d
       -0.025153805 -0.0071518333 -0.022765493 0.061583426
000370 26 ef 0c bd f6 6d 0d 3c d6 45 c7 3c 84 78 a8 3c
       -0.034407757 0.008632174 0.024325293 0.020565279
000380 e1 ef b9 3d 6d 10 58 3b ef 4f 93 3c cc f7 4e bd
       0.090789564 0.0032968775 0.017982451 -0.050529286
000390 57 78 8b bd 5a 2d 86 bc b7 6c 17 3c 0d db 9d 3c
       -0.068100624 -0.016379047 0.009242228 0.01926949
0003a0 28 df 97 bc 16 68 cf bc 0c a2 ab 3b 69 6a 3a bd
       -0.018539026 -0.025318187 0.0052378234 -0.045511637
0003b0 b4 eb a1 bc c2 77 02 3d 44 ec 85 3d 6f 28 81 bd
       -0.019765712 0.03185249 0.06539205 -0.0630654
0003c0 a8 84 f6 3b e6 48 99 3d c5 07 f6 3b 0d 78 91 3d
       0.007523138 0.074846074 0.0075082504 0.07102976
0003d0 d8 b7 0d bc c8 f7 29 3c 90 f2 84 bc ca 14 0b bd
       -0.008649789 0.010374017 -0.016228944 -0.033955373
0003e0 85 b2 46 bd 21 fd 80 bc 92 df da bc 0f d0 41 3d
       -0.048510093 -0.015745701 -0.026717935 0.04731756
0003f0 c6 04 4a 3c 27 a8 2c 3d 3e 2d 3a bd ad 40 a5 3d
       0.01233024 0.04215255 -0.045453303 0.080689766

action_model._discrete_distribution.branches.1.bias f4 [3]
000000 b4 fa 8f 3c fa 6e 49 bc 30 b7 bf bc
       0.0175756 -0.012294525 -0.02340278

action_model._discrete_distribution.branches.2.weight f4 [2, 128]
000000 78 31 01 3d 83 5e 31 3d 3e 41 c4 bc b8 d2 e0 3c
       0.031541318 0.043303024 -0.023956891 0.027444229
000010 37 66 3c bd b2 2b 44 bd c8 24 1a 3d be 5b a0 3c
       -0.045995917 -0.047893234 0.037632734 0.019574996
000020 9a b5 0e bd 7a 3f 76 3d ae e1 6b 3d a5 be 14 3d
       -0.034841157 0.06011913 0.05758827 0.036314625
000030 9c d9 ab bc 04 ed d1 3c 02 b2 c1 3c bb 9b 3d 3d
       -0.020977788 0.025625713 0.023644451 0.046291094
000040 ca 18 df bc a5 98 19 3d af 7f 93 ba f5 90 f9 3c
       -0.0272335 0.03749909 -0.0011253263 0.030464629
000050 ae 37 15 3c 16 01 d7 3c 21 53 52 3d 60 5c 70 3d
       0.009107513 0.026245635 0.05134881 0.058681846
000060 30 e8 1a bd d1 87 0a 3d 14 08 95 3b 8e a8 a6 3c
       -0.037819088 0.03382093 0.004548082 0.020344045
000070 3c 6e 12 3c 1a a0 43 3d 36 f9 1d bd 03 1f 02 bd
       0.008937415 0.047760107 -0.038567744 -0.031767856
000080 0e cd 4e 3d 43 79 2e bd 0c 2c df bc ff d3 07 ba
       0.050488524 -0.042596113 -0.027242683 -0.0005181431
000090 8e 1e 57 3c 35 1c a8 3c 76 34 c7 3c 2c b5 e7 3c
       0.013129843 0.020521263 0.024317008 0.028284632
0000a0 ed 85 5b bc 49 ca 23 3d a6 47 08 3d 9c b6 10 bb
       -0.01339863 0.039987836 0.033271454 -0.00220815
0000b0 d8 8d 68 3c ce a8 98 bc 01 f5 0c 3d 85 3d ff 3c
       0.014193974 -0.01863518 0.03441334 0.031157264
0000c0 b9 60 06 bd 42 77 a2 3d 87 f8 3f 3d d8 7a 2d 3d
       -0.032807086 0.07932903 0.046867874 0.04235348
0000d0 83 f8 7b 3c e3 a3 ab bc 04 3d 24 3d 1a 93 35 3d
       0.015379074 -0.02095217 0.04009725 0.04432974
0000e0 13 01 3e 3d c7 82 f6 3c 05 80 88 3d 5d c5 dd 3b
       0.046387743 0.030091656 0.06665043 0.0067679123
0000f0 a1 41 39 3d c8 be 66 bc 11 49 b3 bc 93 32 b2 3c
       0.045228604 -0.014083572 -0.021885427 0.021752631
000100 6f 48 27 3d 50 b3 9e 3d df 88 36 3d 8e 8e b1 3b
       0.040840562 0.07749045 0.044564124 0.005418605
000110 00 ff a4 3c 0a e1 77 bb 99 06 15 bc 0c 4d f6 bc
       0.020141125 -0.0037823343 -0.009095811 -0.030066036
000120 12 a4 46 3c a4 d7 b9 bc 09 36 40 bd e7 b0 85 3c
       0.012124078 -0.022685833 -0.046926532 0.016319705
000130 c0 81 55 3c e8 c5 21 3d a3 e6 96 3d d2 e6 4b 3d
       0.013031423 0.03949538 0.07368209 0.049780674
000140 0d 6a 40 3c f1 6b 1c 3d 47 ec e7 bc 15 64 c9 bc
       0.0117440345 0.03818888 -0.028310908 -0.024583856
000150 85 0f 16 3c c6 6f 19 bc c0 d3 8e 3d 64 7b fe 3c
       0.009158974 -0.009365028 0.06973982 0.031064697
000160 b0 da 0d 3d 64 40 6c 3d 5b cd 20 3d 31 46 40 bd
       0.034632385 0.057678595 0.039258342 -0.04694194
000170 c2 96 34 3d dc 61 49 3d 7c 1d 1e bd 4b df 2e bc
       0.044089086 0.04916559 -0.038602337 -0.010673354
000180 6a cf f7 bc 49 df de bc 02 6e f3 3a 8b 29 03 3d
       -0.03025027 -0.02720608 0.0018572214 0.03202204
000190 b8 a0 55 3d 0d a6 07 3d 26 09 9d bc 2a 58 82 bb
       0.052155226 0.033117343 -0.019169401 -0.003977795
0001a0 e2 4f 9a bb d8 e9 0e 3d 75 05 01 3d e7 13 1a 3c
       -0.00470923 0.03489098 0.031499345 0.009404159
0001b0 0d 31 9a 3c ec e0 a9 bc 54 d6 35 bd 20 f3 9b ba
       0.018822217 -0.020737134 -0.044393852 -0.0011898018
0001c0 7f c8 28 3d eb 17 ae bc 7d 6b af 3c 2a 4e 6f bc
       0.041206833 -0.02125164 0.02141356 -0.014606038
0001d0 1e b7 ff 3c 82 1e 3b 3d b0 ba 01 bd ce 0d c4 3b
       0.031215247 0.04568339 -0.03167218 0.005983091
0001e0 ce 33 aa 3c 38 ef 80 3c 73 c2 ec 3c 33 06 2f 3d
       0.020776656 0.015739068 0.028901314 0.04273052
0001f0 0b e4 b3 3b 25 8d fc 3b f1 9b cf 3c 3e ac c4 bc
       0.0054898313 0.0077072554 0.025342913 -0.024007913
000200 d0 fc 53 bd c0 19 74 bd ac 61 07 3d fd 49 2c bd
       -0.051754773 -0.05959487 0.03305213 -0.04206275
000210 cf f3 b6 3c 20 48 26 3d 32 e9 56 bd 9b 40 a0 bc
       0.022333054 0.040596128 -0.052468486 -0.019562056
000220 50 7e 1c 3d 12 75 9f bd 5c c0 7d bd 84 4f 4c bd
       0.0382064 -0.07786001 -0.061951026 -0.04988052
000230 30 da b7 3c e0 54 b7 bc 09 7f 19 bd f5 9d 0f bd
       0.022442907 -0.022379339 -0.037474666 -0.03506275
000240 b5 3f 20 3c 7d c2 73 bd f2 ec 86 bc af 34 0b bd
       0.009780814 -0.05951165 -0.016470406 -0.03398579
000250 37 21 9c bc 60 76 45 bd 19 36 11 bd e0 2e 3a bd
       -0.019058807 -0.048208594 -0.035451982 -0.04545486
000260 d5 ee 33 3d e0 18 b5 bc d1 ef 0b bc bb 92 a1 bc
       0.04392894 -0.022106588 -0.008541063 -0.019723287
000270 22 b8 68 bc 2f 15 08 bd 8b f5 e2 3c 44 72 40 3c
       -0.014204057 -0.033223327 0.027704975 0.011745993
000280 6a 6b e4 bc 0a 69 39 3d a3 fe 91 3c 6d c2 82 3b
       -0.02788325 0.04526619 0.017821616 0.0039904625
000290 2d 9d 31 bc 9b f4 10 bd 4f 75 f5 bc ad 65 d9 bc
       -0.010840696 -0.035389524 -0.029963164 -0.02653774
0002a0 f8 fd 2e 3c 89 da 8e bd ca cb 0b bd 61 80 23 bc
       0.010680668 -0.06975276 -0.034129895 -0.009979338
0002b0 72 c5 df bc be ca ae 3c 40 e1 b5 bc 3c 12 32 bd
       -0.027315829 0.02133691 -0.022202134 -0.04347442
0002c0 1a ce d5 3c b4 df 9a bd 24 2a 5a bd 32 60 5c bd
       0.026099253 -0.07562199 -0.053262845 -0.053802676
0002d0 4e 32 01 bd 8f c1 0a 3d 57 ba 29 bd 4b e6 5c bd
       -0.031542115 0.033875998 -0.041437473 -0.053930562
0002e0 6a 60 58 bd e1 f8 8f bc ac 1d 85 bd 09 2a b7 ba
       -0.052826323 -0.01757473 -0.064998 -0.001397432
0002f0 bf 74 5d bd 12 f8 cd 3b 26 94 18 3d 43 5b 3b bd
       -0.054066416 0.006285676 0.03725066 -0.04574133
000300 ce b5 05 bd 23 fa 6a bd a0 8e 30 bd 23 b8 06 bc
       -0.032644086 -0.057367455 -0.043104768 -0.008222613
000310 10 b7 05 bd 18 19 aa 3c 4b 4c e3 3b 49 af 11 3d
       -0.032645285 0.020763919 0.006936585 0.035567556
000320 15 86 c4 bb 59 fd 91 3c a3 9f 40 3d ac f9 49 bc
       -0.005997429 0.017821 0.04702724 -0.012327593
000330 b2 98 9b bc 59 22 01 bd 57 2b 6c bd 4a a4 83 bd
       -0.01899371 -0.031526897 -0.05765852 -0.0642782
000340 31 51 8a 3b a0 05 46 bd 32 a4 19 3d a2 9c 01 3d
       0.0042211046 -0.04834521 0.037510104 0.031643517
000350 b0 ec 6e bc 08 7c 2c bc 56 01 92 bd 36 71 06 bd
       -0.014582798 -0.010527618 -0.07129161 -0.03282281
000360 d0 e8 a1 bc 27 ec 8c bd de 90 1e bd cb 0d 2a 3d
       -0.019764334 -0.0688098 -0.038712375 0.04151706
000370 7d 75 3d bd 7a ac 57 bd 75 59 64 3d 76 85 f3 3c
       -0.046254624 -0.05265472 0.055749375 0.029726725
000380 7f bf a5 3c 49 3e d0 3c 5a 79 9c bb b4 6f 5a bd
       0.020232914 0.025420325 -0.0047752084 -0.053329185
000390 2e 8d 29 bd 5d 6a 70 bb cc 16 e8 3b 09 1b 8c 3c
       -0.041394405 -0.0036684491 0.0070827957 0.017102735
0003a0 52 91 05 bc ad 70 1e bd a8 b3 36 bd da 6d 08 bd
       -0.008152323 -0.038681675 -0.044604927 -0.033307888
0003b0 bb 18 ad bc 31 4f e6 3c 5f 3b 46 3d 0d 7e a4 3b
       -0.021129956 0.028113933 0.048396464 0.0050199092
0003c0 1e de 2e bd 6c 53 29 3d 85 52 8d bc 19 20 dc 3c
       -0.042692296 0.041339323 -0.017251262 0.026870774
0003d0 bc 14 79 bd ad 9a 3f bd d9 1c 03 3d 09 32 5a bb
       -0.06081079 -0.04677837 0.032009933 -0.0033293983
0003e0 12 98 66 bc 18 29 98 bc 69 1a f2 bc 84 28 ef bc
       -0.014074342 -0.018574283 -0.029553609 -0.029194124
0003f0 9d cf fe 3a b1 34 42 3c 13 a0 ba bc f0 26 54 3c
       0.0019440536 0.011853383 -0.022781407 0.012948737

action_model._discrete_distribution.branches.2.bias f4 [2]
000000 6d 3a 86 3c 6e 3a 86 bc
       0.016385281 -0.016385283
