results/FlappyBird/FlappyAgent_ImitationLearning/FlappyAgent/FlappyAgent-29800.pt (torch, 708705 bytes, 41 tensors)

network_body._body_endoder.seq_layers.0.weight f4 [128, 59]
0.067017734 -0.15336905 -0.061705295 0.0046574255 0.06925976 -0.1236795 0.13330667 0.21506442
-0.12671322 0.075575106 -0.07173415 0.19212633 -0.1051355 0.09743422 -0.24252555 -0.06765276
0.13493976 0.31021196 -0.32743067 0.018565595 -0.14510691 -0.05459267 -0.016844936 0.005985736
-0.18707576 -0.07313502 -0.2839139 -0.3992202 0.002740303 -0.17534819 0.03035171 -0.20212813
-0.009483615 -0.1603093 -0.01415947 -0.046489462 -0.30271745 -0.016961357 -0.013678749 0.1850828
-0.045245767 -0.06771723 0.08021426 0.112373255 -0.30109984 -0.15809779 0.013630142 -0.0278399
-0.08290464 -0.040015332 0.14385612 0.007501263 0.10608745 -0.0077280193 -0.052693702 0.020477636
0.24752416 -0.16512339 -0.11916149 0.031451266 0.12619 -0.030476624 0.08480988 -0.05106105
0.071292914 -0.11929851 0.08139744 -0.0032854946 -0.15297444 0.20170918 -0.05157051 0.10810348
0.08125328 0.06499145 0.06768249 0.13021944 0.16199753 0.019281443 -0.055887897 -0.0049329586
0.18343769 0.065403365 -0.023179445 0.121192396 -0.04208632 -0.22759932 -0.031073337 -0.11140738
-0.0075592627 -0.071768165 0.15357368 -0.10439139 -0.07816223 -0.085856676 -0.011971955 0.21580662
-0.04260066 -0.048828866 0.1378005 -0.07872001 0.11554411 0.17109147 -0.011375639 -0.03128657
0.020120583 -0.0048434986 -0.2130542 0.2698385 -0.05385245 0.12702775 0.098956764 -0.078673065
-0.035620984 -0.009216013 0.10702699 -0.24347988 -0.08012076 -0.046898883 0.05144598 -0.010174425
0.008440624 0.1365001 0.092803426 -0.1266883 -0.106628485 -0.021497801 -0.022935791 0.16621785
-0.12680022 -0.053427167 0.0889567 -0.14855859 0.01232055 0.1139471 0.10658856 0.20426407
0.1010234 0.018497312 -0.06663882 0.13520102 -0.10449348 -0.10316316 0.107701324 0.15248789
-0.12427752 -0.07385337 -0.13039608 0.20811483 -0.38344955 0.15268824 -0.13352673 0.05673583
-0.13047801 0.17627041 0.16426133 -0.17450015 -0.080462106 0.030966071 -0.14279853 -0.033298604
0.13244225 0.04057089 -0.0981784 0.035529684 -0.042324368 0.13890645 -0.12951204 0.26791075
0.04275866 0.06413308 0.020074133 0.05375707 0.129298 0.20368877 0.008310573 -0.014559425
-0.0011391467 -0.12658654 0.030220523 -0.09927392 0.028702617 -0.097888246 0.123187885 -0.08095407
0.15831092 -0.055342384 0.17064904 -0.05537889 -0.0012499366 -0.05946782 -0.08502508 -0.19784115
-0.0056263795 -0.015087654 0.00061343494 0.13071766 -0.0021845389 0.014343197 0.24312861 -0.03484696
0.17665115 -0.041541904 0.08349387 0.1789846 0.030328337 0.14397906 0.1541092 -0.06487115
-0.15518327 0.16661792 0.029927578 0.076169774 -0.1896555 0.017575337 -0.07477108 0.0797115
-0.073881485 0.25046608 -0.030243339 0.26520318 0.20040852 -0.039471086 0.2553848 0.25876945
0.049486093 -0.32954755 0.087352276 -0.020930238 -0.00013627687 0.016762093 -0.009122836 -0.2470858
0.229113 -0.21554662 0.019119866 0.04101908 0.034282997 0.008793167 0.30637938 -0.05645742
-0.040521268 0.08608763 0.0145883765 0.07496279 0.16783169 0.10175234 -0.05823735 0.15273745
-0.23644502 0.005698598 0.14104702 -0.3125076 0.1825875 0.14511882 0.19001481 -0.04007455
00000000: 9840 893d c70c 1dbe b1be 7cbd 519d 983b
00000010: 10d8 8d3d ad4b fdbd 8b81 083e d939 5c3e
00000020: 1cc1 01be 1fc7 9a3d 5be9 92bd c4bc 443e
00000030: 4851 d7bd 988b c73d 9e58 78be 888d 8abd
00000040: a62d 0a3e 1ad4 9e3e fea4 a7be e016 983c
00000050: e896 14be 909c 5fbd 64fe 89bc fe23 c43b
00000060: ca90 3fbe d0c7 95bd 2a5d 91be 9766 ccbe
00000070: a896 333b 7a8e 33be 26a4 f83c adfa 4ebe
00000080: 2a61 1bbc 1f28 24be 1ffd 67bc bc6b 3ebd
00000090: c8fd 9abe 8bf2 8abc d51c 60bc 5886 3d3e
000000a0: a053 39bd 55af 8abd 6047 a43d f323 e63d
000000b0: c229 9abe 63e4 21be f650 5f3c 8110 e4bc
000000c0: e8c9 a9bd 1ee7 23bd 054f 133e 28cd f53b
000000d0: 6144 d93d 533b fdbb 5ad5 57bd b7c0 a73c
000000e0: f976 7d3e 1b16 29be f00a f4bd 0bd3 003d
000000f0: f437 013e 1daa f9bc cdb0 ad3d 6425 51bd
00000100: 0502 923d c752 f4bd b3b3 a63d 7451 57bb
00000110: 55a5 1cbe da8c 4e3e 993b 53bd 5b65 dd3d
00000120: 1f68 a63d 3d1a 853d 1e9d 8a3d 3f58 053e
00000130: aee2 253e 1ef4 9d3c b5ea 64bd a8a4 a1bb
00000140: 17d7 3b3e 33f2 853d d2e2 bdbc b833 f83d
00000150: b562 2cbd cc0f 69be 838d febc 8d29 e4bd
00000160: b1b3 f7bb 30fb 92bd 6b42 1d3e 27cb d5bd
00000170: 8513 a0bd a0d5 afbd 0526 44bc 69fc 5c3e
00000180: 087e 2ebd c700 48bd 931b 0d3e f537 a1bd
00000190: 64a2 ec3d 9a32 2f3e e360 3abc 5926 00bd
000001a0: ecd3 a43c 36b6 9ebb e12a 5abe 4628 8a3e
000001b0: 6394 5cbd 9013 023e d8a9 ca3d 581f a1bd
000001c0: 4fe7 11bd c3fe 16bc f730 db3d ca52 79be
000001d0: 5a16 a4bd 0b19 40bd 05b9 523d a2b2 26bc
000001e0: 8b4a 0a3c afc6 0b3e b90f be3d 94ba 01be
000001f0: 0960 dabd 281c b0bc d7e3 bbbc 0335 2a3e
00000200: ebd7 01be 72d6 5abd ee2e b63d be1f 18be
00000210: 22dc 493c 195d e93d 1a4b da3d 9a2a 513e
00000220: 5be5 ce3d ad87 973c ef79 88bd 2372 0a3e
00000230: ad00 d6bd 3547 d3bd 8392 dc3d c925 1c3e
00000240: 3685 febd 7040 97bd 8d86 05be 0e1c 553e
00000250: 8053 c4be 4e5a 1c3e 3bbb 08be d463 683d
00000260: 079c 05be 3b80 343e 1f34 283e 2bb0 32be
00000270: 51c9 a4bd 8fac fd3c c739 12be 1e64 08bd
00000280: f19e 073e a92d 263d c211 c9bd 9387 113d
00000290: 515c 2dbd 7e3d 0e3e ce9e 04be 992b 893e
000002a0: b423 2f3d 3458 833d 8272 a43c 6030 5c3d
000002b0: b266 043e ca93 503e 1229 083c a88a 6ebc
000002c0: 6c4f 95ba e79f 01be 0891 f73c 2050 cbbd
000002d0: c021 eb3c a279 c8bd ee49 fc3d 3fcb a5bd
000002e0: 421c 223e b2ae 62bd 9fbe 2e3e fad4 62bd
000002f0: ead4 a3ba 8794 73bd a121 aebd df96 4abe
00000300: 7e5d b8bb 3532 77bc ecce 203a dada 053e
00000310: 7b2a 0fbb bbff 6a3c b5f6 783e b0bb 0ebd
00000320: 0ae4 343e d827 2abd d6fe aa3d bd47 373e
00000330: 2273 f83c 3f6f 133e cdce 1d3e 2adb 84bd
00000340: 5de8 1ebe e39d 2a3e ae2a f53c e6fe 9b3d
00000350: 0d35 42be 27fa 8f3c 9421 99bd c83f a33d
00000360: 2d4f 97bd 173d 803e e1c0 f7bc b6c8 873e
00000370: e437 4d3e 6fac 21bd ccc1 823e 6e7d 843e
00000380: eeb1 4a3d 75ba a8be c0e5 b23d e475 abbc
00000390: 8be5 0eb9 a850 893c f377 15bc 0f04 7dbe
000003a0: 999c 6a3e 41b8 5cbe 44a1 9c3c 9f03 283d
000003b0: 546c 0c3d 3711 103c c2dd 9c3e e53f 67bd
000003c0: a1f9 25bd b64e b03d 1604 6f3c 1786 993d
000003d0: 12dc 2b3e 8863 d03d 4a8a 6ebd 3567 1c3e
000003e0: a51e 72be 4ebb ba3b a16e 103e ff00 a0be
000003f0: 38f8 3a3e 079a 143e 3e93 423e 3625 24bd

network_body._body_endoder.seq_layers.0.bias f4 [128]
-0.016475536 0.017162055 -0.0062298635 0.016899318 0.007841494 0.008741151 0.012115074 -0.0033478173
-0.021556126 -0.0046291486 0.02989213 -0.011259372 0.017014856 0.017456729 0.027204623 -0.0074799634
0.006244305 0.013159727 0.02567127 -0.00943277 0.023288988 0.014850015 0.021835428 0.004486357
-0.0053431564 -0.00062575354 -0.0019206116 -0.010254405 -0.032535102 0.0082842475 -0.010180456 0.009453614
-0.03404536 -0.025066782 0.02614148 0.023663098 0.03526284 0.04297937 0.021858277 0.010453909
-0.016934041 0.01469003 0.016287817 0.016314058 0.01806298 0.0030636939 -0.019540003 -0.009542658
0.030906128 -0.030735938 -0.017726116 -0.0062627047 -0.014316082 0.0042628427 0.015704911 -0.025704013
0.013583057 0.0064209253 -0.01181234 0.023503084 0.019159451 0.02404393 -0.0012809022 0.02173624
-0.025274392 0.026675133 0.024905441 0.01545641 0.03605497 -0.014000292 -0.008825769 -0.0012065952
0.0024934986 0.0148704685 0.0194297 -0.022118228 0.019856824 -0.004057315 0.008275136 -0.022894567
0.016373446 -0.03305893 0.003494757 0.009491002 -0.0048819804 0.0022152301 0.01708742 0.013948235
-0.028887173 -0.005569954 -0.010833498 0.016201355 -0.012798152 -0.02928013 0.016136015 0.018375844
0.0039583915 -0.024838269 0.023346538 -0.019628542 0.010248334 0.021162061 -0.018308496 -0.027662652
-0.018586887 0.019396998 -0.011511839 0.025309712 -0.0043554665 0.0024218464 -0.008337433 0.024912104
0.019060278 0.010858665 0.015772974 0.015679786 -0.01123573 -0.013991207 -0.026458297 0.021125149
-0.0016376473 0.005202098 0.014254075 0.032583006 0.021228407 -0.020313717 0.0066920985 0.018864691
00000000: b4f7 86bc 7097 8c3c e223 ccbb 7070 8a3c
00000010: 9c79 003c 0b37 0f3c 4e7e 463c 0e67 5bbb
00000020: 7996 b0bc 1db0 97bb 57e0 f43c 3b79 38bc
00000030: bd62 8b3c 6a01 8f3c 3bdc de3c 7b1a f5bb
00000040: 079d cc3b e59b 573c 8e4c d23c e88b 1abc
00000050: 8cc8 be3c 7a4d 733c 36e0 b23c 4a02 933b
00000060: a515 afbb 9c09 24ba 08bd fbba 1802 28bc
00000070: 8743 05bd a7ba 073c edcb 26bc 55e3 1a3c
00000080: 2673 0bbd da58 cdbc a826 d63c 1dd9 c13c
00000090: c56f 103d 230b 303d 2110 b33c df46 2b3c
000000a0: 42b9 8abc 74ae 703c 076e 853c 0fa5 853c
000000b0: d1f8 933c 41c8 483b 5b12 a0bc cf58 1cbc
000000c0: d92e fd3c efc9 fbbc 5c36 91bc 6037 cdbb
000000d0: 008e 6abc 51af 8b3b 96a7 803c 3991 d2bc
000000e0: 788b 5e3c a066 d23b 8b88 41bc 8a89 c03c
000000f0: 48f4 9c3c c7f7 c43c f2e3 a7ba 3310 b23c
00000100: 3e0c cfbc cf85 da3c 7f06 cc3c e23c 7d3c
00000110: 60ae 133d 7b61 65bc f599 10bc 9e26 9eba
00000120: f769 233b 44a3 733c 092b 9f3c 4931 b5bc
00000130: c7aa a23c 3af3 84bb 7094 073c 638d bbbc
00000140: 9b21 863c cd68 07bd 4b08 653b 2680 1b3c
00000150: 05f9 9fbb 652d 113b ebfa 8b3c 2387 643c
00000160: cba4 ecbc 2984 b6bb fc7e 31bc b4b8 843c
00000170: 57af 51bc e2dc efbc ad2f 843c f088 963c
00000180: 65b5 813b a079 cbbc 3d41 bf3c 09cc a0bc
00000190: a1e8 273c 0f5c ad3c b3fb 95bc c99c e2bc
000001a0: 8743 98bc 74e6 9e3c 279c 3cbc 5056 cf3c
000001b0: 4db8 8ebb d7b7 1e3b bb99 08bc 7814 cc3c
000001c0: 4d24 9c3c 8be8 313c 5336 813c e572 803c
000001d0: 1116 38bc 603b 65bc 12bf d8bc a60e ad3c
000001e0: 53a6 d6ba 5c76 aa3b ec89 693c c275 053d
000001f0: 32e7 ad3c f468 a6bc 6449 db3b 208a 9a3c

network_body._body_endoder.seq_layers.2.weight f4 [128, 128]
-0.006181677 0.0044681584 -0.055532265 -0.044860534 -0.049334045 -0.052976016 0.12126296 0.018569857
-0.047239456 -0.09561718 0.06652692 -0.051140763 -0.11747909 -0.11483941 0.06715225 0.08463873
0.03362698 -0.13257381 0.09066382 -0.017288774 -0.0708337 -0.078289375 0.02159512 0.183736
0.010949102 -0.025292743 0.008382061 -0.17119083 0.04623273 0.08125547 -0.13182189 0.12755318
-0.09605507 -0.10880294 -0.004180489 0.037559044 0.11574372 -0.031082882 0.07894283 0.039091084
-0.086100966 -0.01839606 -0.058155846 -0.043527223 0.06644583 -0.0032198704 -0.14657763 -0.053088654
-0.09169067 -0.066670656 -0.1703537 -0.106094174 -0.03999191 0.13972889 0.08689093 -0.0357698
-0.028045502 -0.07567442 -0.10207204 0.1456092 -0.01948804 0.17174171 0.03807671 -0.20816359
-0.011440824 -0.12148588 0.06681188 -0.03419311 0.01943336 0.059975732 -0.014549692 0.030000191
0.08876464 0.090662204 -0.11588266 -0.040711667 0.063470714 -0.0049989233 0.16271323 -0.12853988
-0.042095535 -0.028357714 -0.13380852 0.025000818 -0.025948182 0.00855287 0.1835596 0.16934437
-0.10143156 -0.04145347 0.11783645 -0.10894846 0.06464579 -0.025819851 -0.029111208 -0.04801821
-0.06780016 0.07831412 -0.0476281 0.080800004 -0.16114613 0.08204645 0.13347928 0.09734134
0.11051256 -0.013104415 -0.17857996 0.004606258 -0.034283083 -0.045717716 -0.101022825 0.050181005
0.048028976 0.007485293 -0.055091105 -0.016928682 -0.07336137 0.11232626 -0.09255422 -0.09631141
0.018890062 -0.12560976 -0.07793364 -0.043365404 -0.00813517 -0.06764849 0.017439397 -0.074764185
0.09287128 0.12193875 -0.010715694 -0.06590293 -0.07777742 -0.002584942 -0.04164635 -0.008942974
0.07446243 -0.031190235 0.09410401 -0.1118694 -0.13418636 -0.16566236 -0.03863978 -0.17282902
0.056096874 -0.04875575 0.116629064 -0.04338817 -0.09746892 -0.016075343 -0.029902043 -0.08791392
0.033798426 0.08139743 0.02467499 0.008634724 0.03466949 0.18269418 -0.04206465 -0.053766623
-0.032767605 -0.027449798 0.098433375 0.10059925 0.15427858 0.09137963 -0.026321432 0.11320731
-0.042996153 0.010194772 -0.052865785 0.04977959 -0.12048383 0.015137443 0.012424373 -0.01006023
-0.096962795 -0.108079374 -0.02778075 0.042533364 0.18369983 0.05416118 -0.0011485581 0.059338614
-0.01438316 0.018510731 -0.05043231 -0.049051583 -0.051944252 0.025942013 -0.16390012 0.0037842724
-0.19012675 -0.011455765 0.07344688 -0.020825397 0.15892245 -0.03241755 0.122238465 -0.02729178
0.19216532 0.15956938 -0.20974874 0.12295115 -0.06891045 -0.086484365 -0.016442128 0.14488517
-0.052462056 -0.09364058 0.1676562 -0.041100014 -0.022394657 -0.049391005 0.17543334 0.03311955
-0.021522263 0.18414149 -0.28009853 -0.07303308 0.003208262 -0.041466426 0.1391653 0.13944212
-0.12045808 0.10322291 -0.065097556 -0.041448504 -0.082818225 0.07862228 0.21698049 0.08700638
0.14858095 0.059720136 0.12513722 -0.033609476 0.16895434 0.10723767 -0.1362302 0.19953912
0.10501403 -0.016443552 -0.042897545 -0.039128926 -0.08261405 -0.051359754 0.014582348 -0.05541395
0.099592835 -0.110868245 -0.05129204 -0.09962913 -0.024609897 0.074842 -0.102129735 -0.008690472
00000000: aa8f cabb a169 923b cd75 63bd aebf 37bd
00000010: 7f12 4abd 61fd 58bd b758 f83d d01f 983c
00000020: 297e 41bd f1d2 c3bd 443f 883d fa78 51bd
00000030: e198 f0bd ed30 ebbd 1e87 893d 1257 ad3d
00000040: 72bc 093d 6ec1 07be f4ad b93d 30a1 8dbc
00000050: 4211 91bd 2e56 a0bd 40e8 b03c 4a25 3c3e
00000060: dd63 333c ba32 cfbc e954 093c a64c 2fbe
00000070: 885e 3d3d 4569 a63d 51fc 06be 4d9d 023e
00000080: 85b8 c4bd 13d4 debd 7cfc 88bb 83d7 193d
00000090: 0b0b ed3d 87a1 febc c7ac a13d f91d 203d
000000a0: b455 b0bd 56b3 96bc d334 6ebd 9a49 32bd
000000b0: c014 883d 7604 53bb 7218 16be 7d73 59bd
000000c0: 51c8 bbbd a08a 88bd 3371 2ebe e747 d9bd
000000d0: 8fce 23bd 1715 0f3e dff3 b13d 5b83 12bd
000000e0: aebf e5bc 31fb 9abd 250b d1bd 941a 153e
000000f0: 62a5 9fbc 0fdd 2f3e 53f6 1b3d d628 55be
00000100: 4b72 3bbc 97cd f8bd abd4 883d 130e 0cbd
00000110: b632 9f3c 1da9 753d d561 6ebc f6c2 f53c
00000120: 3cca b53d 1bad b93d e353 edbd 47c1 26bd
00000130: effc 813d 02ce a3bb 4c9e 263e f59f 03be
00000140: 5e6c 2cbd 704e e8bc 1a05 09be 84ce cc3c
00000150: 4891 d4bc 5621 0c3c 0cf7 3b3e 9c68 2d3e
00000160: 5abb cfbd 1dcb 29bd 3d54 f13d 5f20 dfbd
00000170: 0365 843d 2784 d3bc a17a eebc beae 44bd
00000180: cfda 8abd 2763 a03d af15 43bd 797a a53d
00000190: 7e03 25be f807 a83d cbae 083e e55a c73d
000001a0: 6954 e23d e6b3 56bc aadd 36be 18f0 963b
000001b0: 6b6c 0cbd 8042 3bbd 0ee5 cebd 998a 4d3d
000001c0: 08ba 443d 3047 f53b 36a7 61bd 05ae 8abc
000001d0: 7c3e 96bd 4f0b e63d 118d bdbd eb3e c5bd
000001e0: 55bf 9a3c d89f 00be ac9b 9fbd ec9f 31bd
000001f0: 6049 05bc 4b8b 8abd 11dd 8e3c f71d 99bd
00000200: 4c33 be3d 06bb f93d e190 2fbc 1ef8 86bd
00000210: c549 9fbd 2168 29bb 5d95 2abd 8d85 12bc
00000220: c27f 983d aa82 ffbc 9ab9 c03d c91b e5bd
00000230: 2668 09be 65a3 29be bf44 1ebd 17fa 30be
00000240: d6c5 653d 1cb4 47bd 38db ee3d cbb7 31bd
00000250: c99d c7bd 70b0 83bc 21f5 f4bc 370c b4bd
00000260: 3870 0a3d b2b3 a63d 3423 ca3c a878 0d3c
00000270: 9801 0e3d 2f14 3b3e fc4b 2cbd 643a 5cbd
00000280: 5337 06bd 66de e0bc 7097 c93d fb06 ce3d
00000290: 34fb 1d3e 3e25 bb3d 0ba0 d7bc 3cd9 e73d
000002a0: bc1c 30bd f907 273c cb89 58bd afe5 4b3d
000002b0: 3ac0 f6bd 0a03 783c 998f 4b3c aad3 24bc
000002c0: 6e94 c6bd b858 ddbd 7594 e3bc 7737 2e3d
000002d0: cf1b 3c3e 1dd8 5d3d 378b 96ba 0c0d 733d
000002e0: 58a7 6bbc d1a3 973c 1c92 4ebd 50ea 48bd
000002f0: 7fc3 54bd 5884 d43c 6fd5 27be 8e01 783b
00000300: 96b0 42be f6b0 3bbc 516b 963d 069a aabc
00000310: 91bc 223e 44c8 04bd 2958 fa3d 0393 dfbc
00000320: fcc6 443e 2866 233e 60c8 56be d0cd fb3d
00000330: ec20 8dbd b71e b1bd a4b1 86bc c75c 143e
00000340: 74e2 56bd a2c6 bfbd 11ae 2b3e 7d58 28bd
00000350: 0075 b7bc 394e 4abd cca4 333e 5ea8 073d
00000360: 754f b0bc 968f 3c3e 1369 8fbe 5e92 95bd
00000370: b441 523b b3d8 29bd 5981 0e3e eac9 0e3e
00000380: bab2 f6bd 8866 d33d de51 85bd e8c5 29bd
00000390: 9a9c a9bd b804 a13d 2230 5e3e 6730 b23d
000003a0: 9b25 183e 1a9d 743d f923 003e 17aa 09bd
000003b0: 5e02 2d3e 6c9f db3d ee7f 0bbe fc53 4c3e
000003c0: 9911 d73d a1b4 86bc 56b5 2fbd a745 20bd
000003d0: 8e31 a9bd 9b5e 52bd cdea 6e3c bdf9 62bd
000003e0: 54f7 cb3d e40e e3bd 9a17 52bd 5b0a ccbd
000003f0: b29a c9bc c346 993d 6529 d1bd 7b62 0ebc

network_body._body_endoder.seq_layers.2.bias f4 [128]
-0.00013705729 0.008977867 0.013861371 -0.014129946 0.020602722 0.020578912 0.016361639 0.012028548
0.032030232 -0.01181161 0.013638484 -0.0043509365 0.012399772 0.0012594346 0.018922348 0.023660677
-0.008046899 -0.008428733 -0.0025899324 -0.005443348 0.008359387 0.017668126 0.0036595957 0.01497564
-0.015799547 0.017568694 -0.0010516227 0.02070702 0.013344059 0.023870787 0.013628774 0.007579976
0.014894928 -0.0025516155 0.008302356 0.013031468 0.016871985 0.013409151 0.017196825 -0.014604599
-0.00051564386 0.0112149175 0.019340105 0.00699882 0.0063258316 0.01540378 0.004939088 -0.0126303835
0.017243652 0.0017034537 -0.016141161 0.025578959 -0.0049549355 -0.005553189 -0.00012999425 0.014570432
-0.00029996078 0.011367808 0.013352522 0.007463441 -0.0059975595 0.023886656 -0.0045833136 0.020052487
0.015093023 0.010486047 -0.0074439095 -0.009122352 0.015286284 -0.014115771 0.014918641 0.0072275125
0.01664911 0.0011958781 -0.007961692 0.017793607 0.015252831 0.0011034684 0.016633451 -0.016144177
0.009456961 0.016164545 0.01259368 0.0048044543 0.0068080737 -0.0083528 -0.009374965 0.013964997
-0.0010010386 -0.013654924 0.018821394 0.0034896063 -0.012826382 0.006501816 0.016729804 -0.0110088205
0.01571702 0.022573052 0.013719939 -0.0010896757 -0.009030815 0.0025658389 0.009518263 -0.009036621
0.01956534 0.0026445077 -0.014272114 0.013812148 0.010604447 -0.0006797443 0.010252001 -0.011272529
0.0049925386 0.018217212 -0.0053152037 0.0046273046 -0.012715723 0.020397177 0.0072006434 0.010262975
-0.0017970022 0.023089295 -0.012998063 0.008772194 0.004220054 0.017655902 -0.011568299 -0.008303175
00000000: 09b7 0fb9 e717 133c ce1a 633c 4a81 67bc
00000010: 0ac7 a83c 1b95 a83c d808 863c 6313 453c
00000020: 2232 033d 7c85 41bc f373 5f3c 4d92 8ebb
00000030: 6a28 4b3c 9d13 a53a 0a03 9b3c 09d4 c13c
00000040: 24d7 03bc ab18 0abc dbbb 29bb 1d5e b2bb
00000050: cff5 083c bfbc 903c d4d5 6f3b 635c 753c
00000060: 0d6e 81bc 39ec 8f3c 9ad6 89ba c5a1 a93c
00000070: 0aa1 5a3c ab8c c33c 394b 5f3c 7361 f83b
00000080: db09 743c 0139 27bb 9b06 083c f081 553c
00000090: 1e37 8a3c 0eb2 5b3c 5be0 8c3c 2148 6fbc
000000a0: 462c 07ba c6be 373c 246f 9e3c 5c56 e53b
000000b0: ec48 cf3b 2360 7c3c 13d8 a13b abef 4ebc
000000c0: 8f42 8d3c 6c46 df3a 783a 84bc f78a d13c
000000d0: 035d a2bb 87f7 b5bb 114f 08b9 d2b8 6e3c
000000e0: 0e44 9db9 0b40 3a3c 89c4 5a3c e28f f43b
000000f0: 2d87 c4bb f3ad c33c 9f2f 96bb 1d45 a43c
00000100: ba48 773c abcd 2b3c 0aec f3bb eb75 15bc
00000110: 5273 7a3c d645 67bc 516d 743c c5d4 ec3b
00000120: b763 883c 03bf 9c3a c271 02bc e6c3 913c
00000130: 03e7 793c 41a2 903a e042 883c cb40 84bc
00000140: 5ff1 1a3c 826b 843c b955 4e3c af6e 9d3b
00000150: 4316 df3b 2fda 08bc 7499 19bc 71cd 643c
00000160: 4835 83ba e7b8 5fbc 532f 9a3c e1b1 643b
00000170: bf25 52bc 300d d53b f10c 893c 575e 34bc
00000180: fbc0 803c 1feb b83c 98c9 603c 73d3 8eba
00000190: fcf5 13bc a227 283b 7df2 1b3c 560e 14bc
000001a0: 7e47 a03c 7a4f 2d3b 96d5 69bc 594c 623c
000001b0: 46be 2d3c de30 32ba 02f8 273c 6ab0 38bc
000001c0: 7398 a33b 433c 953c 292b aebb a5a0 973b
000001d0: 9c55 50bc fb17 a73c 60f3 eb3b 0926 283c
000001e0: 6389 ebba c325 bd3c d4f5 54bc 40b9 0f3c
000001f0: 6148 8a3b 1ca3 903c f688 3dbc 0a0a 08bc

action_model._discrete_distribution.branches.0.weight f4 [2, 128]
-0.023547001 -0.027444443 0.030717244 0.025858924 0.048351076 0.050191596 0.037997138 -0.00940159
-0.050618164 0.026446002 -0.025183944 -0.024187801 -0.04087697 0.0022053956 0.03187788 -0.015517352
-0.020052519 -0.013292635 -0.015982646 -0.035167266 -0.027426187 0.036370344 -0.017895225 0.03181396
0.018388458 0.0124788415 -0.02504748 0.07314777 -0.017095668 -0.029964263 0.022517545 -0.0014394351
0.04688758 -0.018627888 -0.041941214 -0.016038433 0.028304761 0.010186164 0.02746268 0.0018723645
-0.02938981 -0.006454636 0.042698123 -0.011957053 -0.017608853 0.02692327 0.03649449 -0.0208236
0.034932405 -0.028650703 -0.019124726 -0.024800688 0.036108486 -0.012663396 -0.020516189 0.0077055353
-0.029759053 0.011295899 0.024113521 -0.017226754 -0.016227938 -0.0168517 -0.02290392 0.031487785
0.028688347 0.006508936 -0.02019797 -0.008373036 0.026543245 -0.024711773 0.02967571 -0.036018018
0.032410778 -0.032655478 -0.029355936 0.03431317 0.033937957 -0.018713253 0.025675267 -0.009506508
-0.034668174 -0.0072718346 0.015201619 -0.04406004 -0.030465437 -0.026699673 -0.022740217 -0.01308932
-0.017764276 0.019896876 0.042861532 -0.019303173 -0.019495351 -0.028136315 0.026496895 -0.02118939
0.043766975 0.031724103 0.025068749 -0.019070582 -0.015434658 -0.022620773 0.0028182566 -0.0020561412
0.033709634 -0.059049617 0.015324135 -0.025692262 0.061016727 -0.015867982 -0.025349373 0.012372187
0.009734489 0.03438534 -0.024726471 -0.04003 -0.024233416 0.03863351 0.0108867865 -0.05217442
-0.027223092 0.045923695 -0.014654538 -0.06586253 -0.028781053 0.042089187 0.002581626 -0.01910913
0.030677274 0.024438793 -0.023126587 -0.019749142 -0.03895291 -0.04594117 -0.021490633 0.025383877
0.033335842 -0.0045417957 0.021308348 0.029589264 0.021939758 0.014192544 -0.043796252 0.014731181
0.013752473 0.016776226 0.02956828 0.026605476 0.006408676 -0.030734543 0.014221291 -0.029843425
-0.012042255 -0.040222283 0.030754358 -0.066021755 -0.008418769 0.03691262 -0.032468762 0.002028843
-0.045685623 0.029201731 0.03725596 0.00976392 -0.027440557 -0.026982434 -0.018896557 -0.005937212
0.013596612 0.01887795 -0.04248523 0.03042432 0.020837756 -0.016199226 -0.03498319 0.006629016
-0.024361903 0.026653405 0.014810698 0.021994159 -0.038082324 0.016975308 0.0378317 -0.020433877
0.029942337 -0.016466964 -0.020249715 0.036738012 0.028644016 0.022196362 0.03222024 -0.033643413
-0.030936372 -0.018583197 0.018865457 -0.004076117 -0.022238962 0.010549885 -0.016620299 0.039193716
-0.03217038 0.036494847 0.02403363 -0.021373605 -0.033671714 0.026558155 -0.014708148 0.014151157
0.032164514 0.008841129 -0.01900135 0.03791038 0.02236349 0.010863288 0.023271516 0.010155613
0.025830148 -0.02156815 -0.037658855 0.004181993 0.009407018 0.029897433 -0.019118011 0.011256514
-0.030223303 -0.036172938 -0.01644673 0.018918041 0.02597764 0.0041864603 -0.022420032 0.01065449
-0.04711467 0.036052708 -0.00021217408 0.027234009 -0.045188166 -0.0041591357 0.026693761 -0.0041203634
0.0059348284 -0.046972685 0.02949753 0.04995064 0.018555611 -0.03710585 -0.012045963 0.02121001
0.024216348 -0.041390404 0.017901083 0.04702191 0.033501226 -0.041973494 -0.005434914 0.0130065605
00000000: a4e5 c0bc 2bd3 e0bc bba2 fb3c 18d6 d33c
00000010: c70b 463d b495 4d3d e3a2 1b3d 2009 1abc
00000020: fe54 4fbd 49a5 d83c 8f4e cebc 7f25 c6bc
00000030: 9c6e 27bd 6688 103b 6192 023d 7e3c 7ebc
00000040: 2e45 a4bc 5ac9 59bc 0aee 82bc 8d0b 10bd
00000050: e2ac e0bc 12f9 143d 0299 92bc 5b4f 023d
00000060: 64a3 963c 0e74 4c3c 5f30 cdbc 7fce 953d
00000070: 370c 8cbc 9d77 f5bc b776 b83c 6dab bcba
00000080: 310d 403d 8399 98bc 8dca 2bbd 0863 83bc
00000090: 63df e73c dee3 263c 6af9 e03c 216a f53a
000000a0: e6c2 f0bc 6981 d3bb 3ae4 2e3d 84e7 43bc
000000b0: 7140 90bc 318e dc3c 3f7b 153d 4196 aabc
000000c0: 4815 0f3d e1b4 eabc 75ab 9cbc d02a cbbc
000000d0: 7ee6 133d 227a 4fbc 9111 a8bc b77e fc3b
000000e0: 42c9 f3bc 6f12 393c b889 c53c 1f1f 8dbc
000000f0: 74f0 84bc 940c 8abc 00a1 bbbc 56f9 003d
00000100: d303 eb3c ea48 d53b 3776 a5bc 0f2f 09bc
00000110: 3871 d93c 5870 cabc 791a f33c a187 13bd
00000120: 2ac1 043d c0c1 05bd dc7b f0bc f78b 0c3d
00000130: 8702 0b3d 894c 99bc f054 d23c 2fc1 1bbc
00000140: 3700 0ebd 9248 eebb 3610 793c 4d78 34bd
00000150: a792 f9bc 46b9 dabc b149 babc 9674 56bc
00000160: 6386 91bc c6fe a23c 938f 2f3d b021 9ebc
00000170: b7b4 9fbc 217e e6bc 0410 d93c 5f95 adbc
00000180: 0045 333d 22f1 013d fa5c cd3c e939 9cbc
00000190: a6e1 7cbc 334f b9bc 80b2 383b 53c0 06bb
000001a0: 1d13 0a3d 03de 71bd 1512 7b3c 9478 d2bc
000001b0: adec 793d 92fd 81bc 7da9 cfbc b7b4 4a3c
000001c0: 687d 1f3c a4d7 0c3d 2b8f cabc 7ff6 23bd
000001d0: 2885 c6bc 2c3e 1e3d 7e5e 323c d8b4 55bd
000001e0: f602 dfbc 7c1a 3c3d 9619 70bc efe2 86bd
000001f0: 3ec6 ebbc b665 2c3d 7f30 293b c08a 9cbc
00000200: e84e fb3c dd33 c83c f873 bdbc f4c8 a1bc
00000210: 168d 1fbd cf2c 3cbd 200d b0bc d9f1 cf3c
00000220: 2a8b 083d 58d3 94bb d88e ae3c 2f65 f23c
00000230: 02bb b33c d887 683c b363 33bd 0d5b 713c
00000240: 0d52 613c 4c6e 893c 2d39 f23c baf3 d93c
00000250: dfff d13b 02c7 fbbc 6b00 693c 337a f4bc
00000260: e14c 45bc 1fc0 24bd 90f0 fb3c 6a36 87bd
00000270: e0ee 09bc b031 173d f7fd 04bd 56f6 043b
00000280: d920 3bbd 7838 ef3c b599 183d d9f8 1f3c
00000290: 05cb e0bc 440a ddbc f4cc 9abc f28c c2bb
000002a0: 53c4 5e3c eea5 9a3c fe04 2ebd 6c3c f93c
000002b0: f1b3 aa3c 3db4 84bc 894a 0fbd 3738 d93b
000002c0: 9d92 c7bc 3e58 da3c 92a8 723c 182d b43c
000002d0: 36fc 1bbd cd0f 8b3c 6af5 1a3d f264 a7bc
000002e0: a249 f53c bae5 86bc bbe2 a5bc 997a 163d
000002f0: dba6 ea3c 25d5 b53c 5ff9 033d adcd 09bd
00000300: 466e fdbc ca3b 98bc bb8b 9a3c f390 85bb
00000310: 7c2e b6bc 6dd9 2c3c 4b27 88bc 9789 203d
00000320: 17c5 03bd 9f7b 153d 2de2 c43c b317 afbc
00000330: 5aeb 09bd 7d90 d93c 72fa 70bc 41da 673c
00000340: f0be 033d 62da 103c b8a8 9bbc ea47 1b3d
00000350: a333 b73c effb 313c e8a3 be3c ba63 263c
00000360: bf99 d33c b0af b0bc 2c40 1abd 1a09 893b
00000370: e51f 1a3c 76eb f43c 609d 9cbc 3e6d 383c
00000380: dc96 f7bc 132a 14bd 4bbb 86bc 02fa 9a3c
00000390: 0fcf d43c 932e 893b 37aa b7bc 2c90 2e3c
000003a0: 50fb 40bd 01ac 133d 0c7b 5eb9 db19 df3c
000003b0: 3a17 39bd 5c49 88bb e0ac da3c 1d04 87bb
000003c0: f378 c23b 6e66 40bd cea4 f13c 0b99 4c3d
000003d0: f001 983c 4efc 17bd 6e5c 45bc 9dc0 ad3c
000003e0: 5d61 c63c fc88 29bd 4ba5 923c 0c9a 403d
000003f0: 9538 093d 66ec 2bbd 5d17 b2bb 7819 553c

action_model._discrete_distribution.branches.0.bias f4 [2]
0.010332494 -0.010332492
00000000: 9f49 293c 9d49 29bc

exp_avg f4 [128, 59]
1.2381042e-05 3.1552467e-05 4.330233e-05 0.0 1.8263225e-05 -4.195853e-05 7.377395e-05 5.54204e-05
0.0 1.4270024e-05 7.101234e-05 -2.7149004e-05 4.337251e-05 0.0 2.131145e-05 -2.0721036e-05
-2.6393204e-06 0.000110596186 0.0 9.953544e-06 2.4879586e-05 2.0746795e-05 4.1609448e-05 0.0
2.331803e-05 -6.6230473e-06 3.8399025e-06 9.001897e-05 0.0 2.619602e-06 2.1192618e-05 1.1307159e-05
5.4736043e-05 0.0 3.4324923e-05 -2.1399765e-06 -1.6647247e-05 0.00010602306 0.0 1.3312964e-06
-2.0960224e-06 2.6282467e-05 6.304938e-05 0.0 3.5584515e-05 1.6611462e-07 7.723558e-06 7.934616e-05
0.0 -2.590588e-06 1.6611462e-07 7.723558e-06 7.934616e-05 0.0 3.2861324e-05 -2.9605626e-06
0.0 -9.263232e-05 1.4906512e-05 -0.00020568546 0.0001195638 0.00013340537 0.0 3.559649e-05
-0.00054819376 0.00041970072 0.00017577686 0.0 9.97675e-06 0.00034771513 -0.00043133518 0.00013090362
0.0 5.4963133e-05 -0.00037359082 -9.399875e-05 0.0005148733 0.0 -3.2639018e-05 0.00019265243
-0.00025888084 0.00011351221 0.0 6.1990424e-05 -6.303229e-05 -0.0002137109 0.00032402689 0.0
-8.844711e-05 0.00010384817 -0.00018406079 0.00012749633 0.0 0.00010795116 7.320683e-05 -0.00034738908
0.00032146604 0.0 -0.000108201406 8.368546e-05 -9.536028e-05 5.89586e-05 0.0 0.000112406284
0.00013826735 -0.00013700106 4.6017383e-05 0.0 -0.00014273412 0.00013826735 -0.00013700106 4.6017383e-05
0.0 7.74225e-05 -4.5760014e-05 0.0 -0.00066455 3.054823e-05 -0.00027523015 7.8553036e-05
0.00014458969 0.0 3.3301043e-05 -0.000653321 0.00041776896 0.00018346467 0.0 6.290331e-06
0.00027463803 -0.00046891632 0.00014219087 0.0 5.311061e-05 -0.00044290748 -0.00015822428 0.00054904434
0.0 -3.72825e-05 9.178957e-05 -0.00027501563 0.0001311386 0.0 5.923125e-05 -0.00011683775
-0.00026482853 0.00032957882 0.0 -0.00010013908 2.888729e-05 -0.00019441544 0.00011344071 0.0
0.00010498453 1.1120517e-06 -0.00034754138 0.00029434203 0.0 -0.00012120635 2.8224862e-05 -0.000107503445
2.7191145e-05 0.0 9.58384e-05 4.8060814e-05 -0.00010478787 4.6396517e-06 0.0 -0.00015298948
4.8060814e-05 -0.00010478787 4.6396517e-06 0.0 6.0030958e-05 -3.8064587e-05 0.0 -0.0005619185
1.7305332e-05 -0.00052855513 0.00014341093 0.00025553958 0.0 -2.6142488e-05 -0.0009955971 0.00054728816
0.0003187045 0.0 -6.6267115e-05 0.00039458656 -0.0007749533 0.0002507623 0.0 2.3260036e-06
-0.0006165298 -0.00029084517 0.0007777706 0.0 -0.00013381668 0.00022549859 -0.00057480746 0.00021970441
0.0 5.2854048e-06 -8.877618e-05 -0.0003876269 0.00034679854 0.0 -0.00021763204 0.00014315665
-0.00042460862 0.00015184759 0.0 6.466238e-05 7.93162e-05 -0.0004958707 0.0002869499 0.0
-0.0002376485 7.112097e-05 -0.0001195587 -8.1166894e-05 0.0 7.7576726e-05 0.00015278175 -0.00021001147
-7.237483e-05 0.0 -0.00027634107 0.00015278175 -0.00021001147 -7.237483e-05 0.0 4.534502e-05
-7.328588e-05 0.0 -0.0009420727 -7.371098e-06 3.573551e-05 -3.0226598e-05 -5.5750566e-05 0.0
-2.84315e-05 0.00011060675 -9.3149814e-05 -6.7698624e-05 0.0 -2.2820403e-05 -5.3940927e-05 5.9458493e-05
-5.5759236e-05 0.0 -3.297951e-05 0.00010975491 -3.8785397e-06 -0.00015611803 0.0 -1.2099965e-05
00000000: 2cb8 4f37 3457 0438 869f 3538 0000 0000
00000010: fa33 9937 a1fc 2fb8 16b7 9a38 3473 6838
00000020: 0000 0000 4969 6f37 76ec 9438 0bbe e3b7
00000030: e1ea 3538 0000 0000 fec5 b237 16d2 adb7
00000040: 2e1f 31b6 e0ef e738 0000 0000 25fe 2637
00000050: 81b4 d037 6709 ae37 ce85 2e38 0000 0000
00000060: 179b c337 8b3b deb6 83d8 8036 91c8 bc38
00000070: 0000 0000 6bcc 2f36 cdc6 b137 e1b3 3d37
00000080: 6194 6538 0000 0000 1bf8 0f38 849c 0fb6
00000090: b1a5 8bb7 b258 de38 0000 0000 ffae b235
000000a0: 64a9 0cb6 2b79 dc37 6139 8438 0000 0000
000000b0: 9540 1538 3d5d 3234 6e94 0137 a566 a638
000000c0: 0000 0000 f7d9 2db6 3d5d 3234 6e94 0137
000000d0: a566 a638 0000 0000 94d4 0938 14ae 46b6
000000e0: 0000 0000 9943 c2b8 fb16 7a37 45ad 57b9
000000f0: 54be fa38 bbe2 0b39 0000 0000 714d 1538
00000100: a9b4 0fba 470b dc39 be50 3839 0000 0000
00000110: d161 2737 894d b639 d424 e2b9 2c43 0939
00000120: 0000 0000 3788 6638 83de c3b9 3221 c5b8
00000130: 90f8 063a 0000 0000 e1e5 08b8 be02 4a39
00000140: 66ba 87b9 670d ee38 0000 0000 db00 8238
00000150: 3430 84b8 9517 60b9 27e2 a939 0000 0000
00000160: ae7c b9b8 10c9 d938 7100 41b9 89b0 0539
00000170: 0000 0000 d663 e238 9e86 9938 c621 b6b9
00000180: 718a a839 0000 0000 30ea e2b8 4a80 af38
00000190: 29fc c7b8 514a 7738 0000 0000 aabb eb38
000001a0: dcfb 1039 f1a7 0fb9 ca02 4138 0000 0000
000001b0: e6aa 15b9 dcfb 1039 f1a7 0fb9 ca02 4138
000001c0: 0000 0000 e35d a238 71ee 3fb8 0000 0000
000001d0: 3235 2eba ea20 0038 c44c 90b9 d7bc a438
000001e0: 009d 1739 0000 0000 b9ac 0b38 a143 2bba
000001f0: 0008 db39 6c60 4039 0000 0000 8811 d336
00000200: 4bfd 8f39 e2d8 f5b9 1219 1539 0000 0000
00000210: 15c3 5e38 0936 e8b9 02e9 25b9 beed 0f3a
00000220: 0000 0000 c85f 1cb8 267f c038 f92f 90b9
00000230: 4082 0939 0000 0000 126f 7838 ca06 f5b8
00000240: afd8 8ab9 52cb ac39 0000 0000 c201 d2b8
00000250: fc52 f237 ffdb 4bb9 04e7 ed38 0000 0000
00000260: 242b dc38 ce41 9535 3736 b6b9 eb51 9a39
00000270: 0000 0000 2a30 feb8 6ec4 ec37 7973 e1b8
00000280: 8a18 e437 0000 0000 d9fc c838 e894 4938
00000290: 8fc1 dbb8 4eae 9b36 0000 0000 cd6b 20b9
000002a0: e894 4938 8fc1 dbb8 4eae 9b36 0000 0000
000002b0: c0c9 7b38 8aa7 1fb8 0000 0000 b64d 13ba
000002c0: eb2a 9137 bc8e 0aba 9460 1639 f1f9 8539
000002d0: 0000 0000 914c dbb7 b27e 82ba e377 0f3a
000002e0: cb17 a739 0000 0000 e3f8 8ab8 83e0 ce39
000002f0: 3c26 4bba bf78 8339 0000 0000 7018 1c36
00000300: 9d9e 21ba 947c 98b9 4de3 4b3a 0000 0000
00000310: 2451 0cb9 d173 6c39 adae 16ba 7460 6639
00000320: 0000 0000 4859 b136 592d bab8 673a cbb9
00000330: 83d2 b539 0000 0000 2834 64b9 521c 1639
00000340: 019e deb9 4739 1f39 0000 0000 5a9b 8738
00000350: 9056 a638 52fd 01ba c371 9639 0000 0000
00000360: 4931 79b9 c826 9538 97bb fab8 2538 aab8
00000370: 0000 0000 b0b0 a238 0a34 2039 8636 5cb9
00000380: f1c7 97b8 0000 0000 dfe1 90b9 0a34 2039
00000390: 8636 5cb9 f1c7 97b8 0000 0000 d830 3e38
000003a0: 0fb1 99b8 0000 0000 6ef5 76ba 4055 f7b6
000003b0: b6e2 1538 208f fdb7 b7d5 69b8 0000 0000
000003c0: 2e80 eeb7 8cf5 e738 6d59 c3b8 6cf9 8db8
000003d0: 0000 0000 716e bfb7 a13e 62b8 1263 7938
000003e0: 06df 69b8 0000 0000 7b53 0ab8 382c e638
000003f0: 6724 82b6 9db3 23b9 0000 0000 f400 4bb7

exp_avg_sq f4 [128, 59]
1.3643794e-09 2.7954739e-09 1.5242588e-09 0.0 1.3948663e-10 9.618439e-10 3.2230607e-09 2.0698907e-09
0.0 1.3704114e-10 1.5989785e-09 2.1796172e-09 2.1057884e-09 0.0 1.2391796e-10 1.0420733e-09
2.0232145e-09 2.6944358e-09 0.0 1.7157105e-10 1.5433212e-09 1.4436702e-09 2.5804636e-09 0.0
1.4746442e-10 1.6454238e-09 1.237483e-09 2.9899148e-09 0.0 2.776744e-10 1.7794873e-09 1.0257992e-09
3.05225e-09 0.0 2.2992747e-10 8.947814e-10 8.356258e-10 4.4517745e-09 0.0 4.8190696e-10
8.579118e-10 1.0047324e-09 3.954104e-09 0.0 3.4519768e-10 6.525173e-10 5.2278526e-10 5.46552e-09
0.0 6.0425004e-10 6.525173e-10 5.2278526e-10 5.46552e-09 0.0 5.058606e-10 8.21566e-11
0.0 4.1933693e-10 2.1108419e-10 1.8015645e-07 1.317932e-07 2.1254339e-08 0.0 1.031858e-08
1.5303117e-07 1.653522e-07 3.969956e-08 0.0 1.046472e-08 2.3118332e-07 1.3718261e-07 2.6925566e-08
0.0 1.1174973e-08 1.3038981e-07 1.3902209e-07 8.9240274e-08 0.0 1.1526366e-08 1.8050665e-07
1.6134224e-07 3.2432272e-08 0.0 1.3741252e-08 1.1474316e-07 1.2544241e-07 1.1700019e-07 0.0
1.3509482e-08 1.2054706e-07 1.830679e-07 6.0959756e-08 0.0 2.0220767e-08 8.750292e-08 9.697277e-08
1.4781537e-07 0.0 1.711782e-08 9.920226e-08 9.757318e-08 1.3084843e-07 0.0 2.7529925e-08
7.486366e-08 9.329194e-08 1.6960455e-07 0.0 1.9190574e-08 7.486366e-08 9.329194e-08 1.6960455e-07
0.0 3.0282127e-08 2.007282e-09 0.0 3.7560962e-08 1.3428202e-08 6.3676644e-08 6.01209e-08
9.039169e-09 0.0 6.068922e-09 5.095486e-08 8.726476e-08 1.8463e-08 0.0 6.14438e-09
9.929972e-08 6.050259e-08 1.04738955e-08 0.0 6.956268e-09 3.6036848e-08 5.9003558e-08 5.1742788e-08
0.0 6.469074e-09 6.299559e-08 7.592513e-08 1.1917877e-08 0.0 8.678106e-09 1.9598527e-08
5.503425e-08 6.860693e-08 0.0 7.26178e-09 1.4783826e-08 1.0672841e-07 2.4575e-08 0.0
1.3116561e-08 1.2496937e-08 3.1042656e-08 8.4815426e-08 0.0 9.094949e-09 1.142682e-08 3.6554848e-08
7.281753e-08 0.0 1.8704025e-08 8.203443e-09 2.2317055e-08 9.625338e-08 0.0 1.0398751e-08
8.203443e-09 2.2317055e-08 9.625338e-08 0.0 1.9420115e-08 5.8014576e-10 0.0 1.5579488e-08
5.031285e-09 2.8388436e-07 2.688823e-07 5.071942e-08 0.0 2.1982856e-08 3.135529e-07 2.6052578e-07
8.179338e-08 0.0 2.4985829e-08 3.3489178e-07 3.457181e-07 6.2378405e-08 0.0 2.212088e-08
2.6988252e-07 2.4450662e-07 1.5052314e-07 0.0 3.099215e-08 2.756138e-07 3.4487925e-07 8.388511e-08
0.0 2.6779887e-08 1.8365037e-07 2.6889956e-07 1.9939515e-07 0.0 4.0799694e-08 2.0290551e-07
2.5746607e-07 1.9150303e-07 0.0 3.472788e-08 1.3703232e-07 1.5064795e-07 3.0613418e-07 0.0
5.0991474e-08 1.6681814e-07 1.2981137e-07 3.005481e-07 0.0 4.2291408e-08 1.2010845e-07 1.4668905e-07
3.5341785e-07 0.0 5.380624e-08 1.2010845e-07 1.4668905e-07 3.5341785e-07 0.0 4.6479457e-08
4.202587e-09 0.0 6.0221495e-08 2.429086e-08 3.005178e-08 4.8794156e-08 1.2967341e-08 0.0
3.6094634e-09 2.529581e-08 5.8970798e-08 2.0255696e-08 0.0 3.7266847e-09 3.0561424e-08 4.8041535e-08
1.8130322e-08 0.0 3.5526686e-09 1.7098364e-08 4.79967e-08 3.425198e-08 0.0 4.449757e-09
00000000: d584 bb30 7f1a 4031 177e d130 0000 0000
00000010: ff5d 192f e031 8430 af7c 5d31 e73d 0e31
00000020: 0000 0000 a7ad 162f 0ec3 db30 3bc8 1531
00000030: 6cb5 1031 0000 0000 ce3f 082f b238 8f30
00000040: c408 0b31 0429 3931 0000 0000 f5a4 3c2f
00000050: ca1c d430 a16a c630 ff53 3131 0000 0000
00000060: 8b23 222f 3425 e230 1014 aa30 2377 4d31
00000070: 0000 0000 33a7 982f 2592 f430 1afc 8c30
00000080: c0bf 5131 0000 0000 d4ce 7c2f a5f4 7530
00000090: f0b1 6530 39f6 9831 0000 0000 3077 0430
000000a0: 2dd2 6b30 e116 8a30 abdc 8731 0000 0000
000000b0: 41c6 bd2f d35c 3330 beb3 0f30 39cb bb31
000000c0: 0000 0000 5118 2630 d35c 3330 beb3 0f30
000000d0: 39cb bb31 0000 0000 c60c 0b30 0eaa b42e
000000e0: 0000 0000 6d88 e62f eb16 682f 0771 4134
000000f0: 0a83 0d34 c992 b632 0000 0000 9845 3132
00000100: e350 2434 ab8b 3134 2182 2a33 0000 0000
00000110: 53c8 3332 303b 7834 784c 1334 f249 e732
00000120: 0000 0000 0dfc 3f32 4701 0c34 1a46 1534
00000130: 5ca4 bf33 0000 0000 7e05 4632 4ad1 4134
00000140: 6b3d 2d34 a94b 0b33 0000 0000 aa12 6c32
00000150: b868 f633 59b1 0634 8941 fb33 0000 0000
00000160: 5517 6832 b96f 0134 5291 4434 fbe8 8233
00000170: 0000 0000 f0b1 ad32 3de9 bb33 583f d033
00000180: 2eb7 1e34 0000 0000 7c0a 9332 0509 d533
00000190: 6c89 d133 587f 0c34 0000 0000 f27a ec32
000001a0: bbc4 a033 c957 c833 8b1c 3634 0000 0000
000001b0: 85d8 a432 bbc4 a033 c957 c833 8b1c 3634
000001c0: 0000 0000 8d0f 0233 7af0 0931 0000 0000
000001d0: b752 2133 dbb1 6632 9bbe 8833 d01b 8133
000001e0: b04a 1b32 0000 0000 cd86 d031 76d9 5a33
000001f0: 4f66 bb33 9198 9e32 0000 0000 8a1e d331
00000200: 993e d533 a7ed 8133 aef0 3332 0000 0000
00000210: fb03 ef31 efc6 1a33 196b 7d33 cc3b 5e33
00000220: 0000 0000 9446 de31 3148 8733 480c a333
00000230: 61bf 4c32 0000 0000 b716 1532 9e59 a832
00000240: cc5e 6c33 0f55 9333 0000 0000 4b83 f931
00000250: f4fb 7d32 9032 e533 ff18 d332 0000 0000
00000260: 3f57 6132 1cb2 5632 c353 0533 c623 b633
00000270: 0000 0000 0240 1c32 b04f 4432 7b00 1d33
00000280: dc5f 9c33 0000 0000 96aa a032 20ef 0c32
00000290: b9b3 bf32 dbb3 ce33 0000 0000 31a6 3232
000002a0: 20ef 0c32 b9b3 bf32 dbb3 ce33 0000 0000
000002b0: 49d1 a632 2178 1f30 0000 0000 a8d3 8532
000002c0: a7df ac31 c568 9834 e75a 9034 98d6 5933
000002d0: 0000 0000 d0d4 bc32 6256 a834 64de 8b34
000002e0: 63a6 af33 0000 0000 6ba0 d632 2dcb b334
000002f0: 229b b934 e4f4 8533 0000 0000 5404 be32
00000300: 5fe4 9034 bc44 8334 7c9f 2134 0000 0000
00000310: 3b1c 0533 12f8 9334 d827 b934 5424 b433
00000320: 0000 0000 9809 e632 6e31 4534 465d 9034
00000330: 5219 5634 0000 0000 bd3b 2f33 3ede 5934
00000340: de39 8a34 f49f 4d34 0000 0000 b527 1533
00000350: 2823 1334 cbc1 2134 c35a a434 0000 0000
00000360: b801 5b33 9f1e 3334 4762 0b34 045b a134
00000370: 0000 0000 e5a3 3533 29f7 0034 9481 1d34
00000380: 61bd bd34 0000 0000 9618 6733 29f7 0034
00000390: 9481 1d34 61bd bd34 0000 0000 b4a0 4733
000003a0: 5966 9031 0000 0000 1e53 8133 2ba8 d032
000003b0: 4812 0133 be91 5133 f8c6 5e32 0000 0000
000003c0: 5a0a 7831 134a d932 1447 7d33 bffe ad32
000003d0: 0000 0000 440c 8031 a442 0333 3a56 4e33
000003e0: 00bd 9b32 0000 0000 3523 7431 b3df 9232
000003f0: ee24 4e33 731c 1333 0000 0000 7ae4 9831

exp_avg f4 [128]
8.723582e-05 4.7283746e-05 -5.2087405e-05 -0.0001296047 -5.024165e-05 0.00018642627 9.3199866e-05 -5.1146428e-05
8.4505606e-05 -0.00019610961 -0.0004364162 -6.912307e-05 0.000280813 -0.00020051778 -0.00013155775 8.9931505e-05
-0.00027416585 -6.14313e-05 -0.00040125244 9.645305e-06 -0.00019102302 -0.0001099766 8.511207e-05 4.265325e-05
-5.0531013e-05 -0.00019271205 9.5709045e-05 4.1766685e-05 0.00011973372 -0.00042529122 -4.7383284e-05 -0.0003523378
7.60984e-05 -7.2936364e-06 -8.718302e-05 -3.5231715e-05 -0.0005064374 -0.00011035284 -3.0685136e-05 4.3430195e-05
-8.2880666e-05 0.00024861668 0.0001317279 -0.00023187327 0.0002446013 -0.00027091522 -8.549944e-05 4.9258077e-05
-9.812231e-05 -3.881927e-05 -1.7123813e-05 0.00011895419 7.787848e-05 -0.00020401373 -0.00027916158 1.3288477e-05
-0.00032748593 -0.00029560103 7.197716e-05 -0.0007278871 -9.6133226e-05 -0.0009858425 -2.9927678e-05 8.583317e-05
-7.768158e-06 5.4879205e-05 0.00017073385 9.2132825e-05 -0.00041827955 0.00017736788 -0.00023101347 -0.00021459447
-0.0006620586 -0.0008092424 9.564623e-05 -1.0164234e-05 1.328631e-05 -0.00018530872 -0.00078667473 -5.1017112e-05
9.51558e-05 5.6764246e-05 2.7255574e-05 9.048428e-05 -0.00019058824 -1.0667712e-05 -4.3459844e-05 -4.187501e-05
5.7466405e-06 8.1108854e-05 -0.00023449119 0.0005284586 6.3084753e-06 9.360364e-06 -7.886187e-05 -7.0668444e-05
-8.914379e-05 -3.8134418e-05 1.9014447e-05 0.00025028517 -0.0001326819 -2.321913e-05 -8.6009175e-05 -1.39948315e-05
-0.00020088471 0.00019068008 -3.1726264e-05 -3.8185776e-06 -0.00013510082 -6.0678864e-05 3.573712e-05 -0.00012843985
0.00023072337 -0.00020645291 -0.00021731952 0.00018789517 -4.8850718e-05 2.3368215e-05 -2.2549542e-05 0.00041365754
-0.00024448495 3.3851615e-05 0.000107677995 0.0003678725 -2.5706737e-05 -4.319563e-05 -0.00018787479 -3.7858532e-05
00000000: 60f2 b638 8952 4638 6d78 5ab8 7fe6 07b9
00000010: 90ba 52b8 6c7b 4339 4c74 c338 0f86 56b8
00000020: 9a38 b138 c6a2 4db9 cace e4b9 2af6 90b8
00000030: 153a 9339 1542 52b9 c4f2 09b9 9c99 bc38
00000040: ebbd 8fb9 aed4 80b8 315f d2b9 45d2 2137
00000050: 5a4d 48b9 3da3 e6b8 327e b238 94e6 3238
00000060: 43f1 53b8 bf12 4ab9 67b7 c838 a32e 2f38
00000070: 8d19 fb38 9ff9 deb9 6abd 46b8 fbb9 b8b9
00000080: 0497 9f38 dcbb f4b6 07d6 b6b8 c4c5 13b8
00000090: 70c2 04ba 3b6d e7b8 eab3 00b8 d128 3638
000000a0: 38d0 adb8 c458 8239 7020 0a39 0223 73b9
000000b0: d53d 8039 a009 8eb9 2a4e b3b8 759a 4e38
000000c0: 04c7 cdb8 e0d1 22b8 1ca5 8fb7 0b77 f938
000000d0: b152 a338 85ec 55b9 6f5c 92b9 93f1 5e37
000000e0: 6bb2 abb9 e6fa 9ab9 72f2 9638 adcf 3eba
000000f0: 229b c9b8 6337 81ba 330d fbb7 5501 b438
00000100: fc53 02b7 192e 6638 0507 3339 6f37 c138
00000110: 884c dbb9 d4fb 3939 353c 72b9 c404 61b9
00000120: 008e 2dba 5723 54ba ae95 c838 0d87 2ab7
00000130: 44e8 5e37 6e4f 42b9 d938 4eba 35fb 55b8
00000140: 628e c738 2516 6e38 e6a2 e437 61c2 bd38
00000150: a4d8 47b9 79f9 32b7 a748 36b8 f3a2 2fb8
00000160: 44d3 c036 fc18 aa38 c0e1 75b9 4288 0a3a
00000170: 64ad d336 750a 1d37 a562 a5b8 d533 94b8
00000180: b5f2 bab8 85f2 1fb8 3781 9f37 b538 8339
00000190: 8720 0bb9 b4c6 c2b7 d35f b4b8 58cb 6ab7
000001a0: 94a4 52b9 4bf1 4739 d111 05b8 5521 80b6
000001b0: daa9 0db9 6f81 7eb8 71e4 1538 cfad 06b9
000001c0: 55ee 7139 487b 58b9 44e0 63b9 ba05 4539
000001d0: 0fe5 4cb8 dc06 c437 c628 bdb7 2de0 d839
000001e0: 372e 80b9 e5fb 0d38 2fd1 e138 03df c039
000001f0: cca4 d7b7 f42c 35b8 4100 45b9 4aca 1eb8

exp_avg_sq f4 [128]
8.048656e-09 4.4352208e-07 1.7113592e-07 7.735121e-07 1.2465651e-07 2.8421405e-07 1.2710018e-07 4.88912e-08
4.430677e-08 2.9289953e-07 2.8905226e-06 1.15862285e-07 2.861551e-07 7.3860787e-07 1.9256804e-07 7.87494e-08
7.332979e-07 1.0186284e-07 1.8735793e-06 1.2022974e-08 1.3035599e-06 4.3352782e-07 6.3679755e-07 3.2124746e-07
2.7312768e-07 1.16056114e-07 6.807295e-07 1.8940591e-08 3.2771485e-08 3.658613e-07 6.0895196e-09 4.443322e-07
3.262884e-08 2.4855243e-08 2.379295e-07 3.911074e-07 1.3204688e-06 4.2479012e-08 1.10855765e-07 1.3427413e-07
9.8733224e-08 4.788844e-07 7.320544e-07 2.1397061e-07 1.3657773e-06 5.950262e-08 2.4293088e-08 3.7660152e-07
6.107659e-09 1.0130884e-08 3.4166863e-08 2.2013965e-07 3.822198e-08 7.0286305e-08 8.8700506e-07 1.3558636e-08
7.963446e-07 5.055123e-07 2.9861823e-08 5.251737e-07 1.3985967e-07 9.451723e-07 2.4534689e-08 1.754375e-06
1.3655917e-08 6.8471854e-07 1.375994e-07 7.3984245e-07 1.0448991e-06 7.180473e-08 9.65288e-08 3.103708e-07
3.5541805e-07 1.5335062e-06 1.3807447e-06 6.2803625e-09 4.9774417e-07 8.575361e-08 1.0584365e-06 1.4978795e-08
1.4490448e-07 1.6278138e-08 7.061631e-08 7.201655e-08 2.2118734e-07 6.377837e-09 8.527647e-08 7.877493e-08
8.136191e-09 1.711109e-07 1.15384445e-07 6.5946426e-07 1.6151739e-07 2.8582326e-08 1.7465332e-07 8.1236195e-08
4.5081552e-07 7.310359e-09 1.4722084e-06 3.5945916e-08 2.4778691e-07 1.0553363e-07 7.4276434e-09 9.219373e-09
6.586192e-08 5.0074914e-07 9.349669e-08 9.4385356e-08 2.91542e-07 4.644215e-08 5.1102904e-07 8.650326e-07
2.0140415e-06 2.7381833e-07 1.9214049e-07 1.5834627e-06 2.2287391e-08 4.4159677e-08 8.199766e-09 2.5165411e-06
1.6034183e-07 1.995761e-07 5.0346125e-07 4.1656992e-07 3.7948623e-06 2.4580615e-07 1.2856565e-07 8.3347174e-07
00000000: 5d46 0a32 361d ee34 7cc1 3734 59a3 4f35
00000010: 52d9 0534 1596 9834 0879 0834 71fc 5133
00000020: cf4b 3e33 ce3f 9d34 cdfa 4136 f7cf f833
00000030: dca0 9934 bf44 4635 b3c4 4e34 f11c a933
00000040: d9d7 4435 b0bf da33 b277 fb35 998d 4e32
00000050: faf5 ae35 9cbf e834 65f0 2a35 ea77 ac34
00000060: 62a2 9234 863a f933 60bb 3635 cdb2 a232
00000070: a1c0 0c33 986b c434 fb3b d131 8d8c ee34
00000080: ca23 0c33 4281 d532 9079 7f34 64f9 d134
00000090: f63a b135 2b72 3633 9a0f ee33 fe2c 1034
000000a0: 2a07 d433 af8c 0035 6582 4435 cbbf 6534
000000b0: c04f b735 d38f 7f33 11ad d032 b82f ca34
000000c0: 89db d131 190c 2e32 ddbe 1233 875f 6c34
000000d0: 8329 2433 4ef0 9633 861a 6e35 83ef 6832
000000e0: 62c4 5535 8ab2 0735 6c41 0033 a9f9 0c35
000000f0: 552c 1634 bfb7 7d35 5ac0 d232 de77 eb35
00000100: 5c9b 6a32 80cd 3735 09bf 1334 9699 4635
00000110: 763e 8c35 1133 9a33 454b cf33 0aa1 a634
00000120: 49d0 be34 dfd2 cd35 0752 b935 a7ca d731
00000130: b89c 0535 8c27 b833 9a0f 8e35 b8aa 8032
00000140: 0a97 1b34 01d4 8b32 baa5 9733 84a7 9a33
00000150: 837f 6d34 0c24 db31 3c21 b733 fa2a a933
00000160: 59c7 0b32 9bba 3734 45c9 f733 0a06 3135
00000170: 906d 2d34 3385 f532 5788 3b34 1274 ae33
00000180: 9d07 f234 992e fb31 b298 c535 f462 1a33
00000190: 9307 8534 baa1 e233 3e36 ff31 3b63 1e32
000001a0: f96f 8d33 386b 0635 59c8 c833 e6b0 ca33
000001b0: 3a85 9c34 af77 4733 a62d 0935 9634 6835
000001c0: f828 0736 4e01 9334 2d4f 4e34 5d87 d435
000001d0: 7e72 bf32 14aa 3d33 f4de 0c32 d9e1 2836
000001e0: 6d2a 2c34 104b 5634 9825 0735 efa4 df34
000001f0: 3dab 7e36 57f7 8334 db0b 0a34 bebb 5f35
